logs/rl_games/klask/sim_collision_ro_a0_6/nn/klask.pth (torch, 137994 bytes, 36 tensors)

a2c_network.sigma f4 [4]
000000 96 d8 31 c0 81 a0 4a c0 b3 47 90 be 9f 1a 41 be
       -2.7788444 -3.1660464 -0.28179702 -0.18857811

a2c_network.actor_mlp.0.weight f4 [64, 12]
000000 7a 11 95 3f 73 a1 e2 3e 4d be c9 3b a9 65 15 bd
       1.1645958 0.442638 0.006156719 -0.036473904
000010 c1 3f 27 3e 95 37 c8 3a 06 c3 06 3c 50 d7 8d bc
       0.16332914 0.0015275354 0.008225208 -0.017314583
000020 9a 20 80 bf a0 c1 bd be 30 76 4c bd a3 51 19 3d
       -1.0009949 -0.37061787 -0.0499174 0.03743137
000030 ea 4d 80 bf af 84 11 bf 7b ae 55 bd fd 5d 0a be
       -1.0023777 -0.56843084 -0.05216835 -0.13512416
000040 15 59 2a 3d ef 7a 8e be 0c a9 8b 3d d3 4f 9c bd
       0.04158886 -0.27828166 0.068193525 -0.07632413
000050 22 10 22 3f 2e 35 cb 3e f3 1d fb bd 4e 19 94 3e
       0.63305867 0.3968901 -0.12261572 0.28925556
000060 4c 48 e5 be b2 c9 6d 3f bf bb 4b bc 6b 3f 57 bc
       -0.4478172 0.9288589 -0.012434899 -0.013137679
000070 ea 01 48 3c 95 d6 c1 bc 9d ed b2 3c 62 69 e6 3d
       0.012207488 -0.023661891 0.021841818 0.11250569
000080 d6 f0 1f 3f 3d 99 4a bf 66 3c cd 3d 88 00 a7 3c
       0.6247686 -0.79140073 0.10021286 0.020385996
000090 f9 89 ac bd af 02 dd 3e 22 2d 43 3d d1 c1 d2 3d
       -0.08424754 0.4316611 0.047650464 0.10290874
0000a0 34 b2 8f be 55 26 0c 3e 52 ab 8c 3c 7f 82 03 bd
       -0.28065646 0.13686498 0.017171536 -0.032106873
0000b0 f5 fa 1f 3d 85 2b 99 bf 71 56 39 3d 20 7a 2d 3c
       0.03905769 -1.1966406 0.045248453 0.010588199
0000c0 8c dd 7d 3f c9 f4 ab be 6a e3 d6 3c ce 19 cf bc
       0.9916618 -0.33585194 0.026231486 -0.02528086
0000d0 82 9d 6f 3d fb 47 ba bd c0 af b4 bc 23 d7 a9 3c
       0.05849982 -0.090957604 -0.02205646 0.020732468
0000e0 f6 f8 5d bf 0c 80 97 3d ac e7 a2 3d c4 ef d0 3d
       -0.8670801 0.0739747 0.07954344 0.10201982
0000f0 bb 19 89 3f a1 5f a7 3e 25 45 26 bd 43 85 86 3b
       1.0710977 0.32690147 -0.040593285 0.0041052415
000100 00 e3 62 be 56 c5 b8 3c c1 95 5a 3c e8 34 02 3e
       -0.22156906 0.022555035 0.013341368 0.12715495
000110 bb a0 06 bf ec 1e 4b bf 41 1d 91 3d 83 72 5b bd
       -0.52589005 -0.7934406 0.07085658 -0.053576004
000120 74 9d 61 bd c8 27 38 bf 0f dc 1c 3e a2 d4 11 3d
       -0.0550818 -0.719357 0.1531832 0.035603173
000130 f8 53 22 be c6 21 34 3e b6 04 4c bd ed 75 74 3c
       -0.15852344 0.17591009 -0.04980918 0.014920694
000140 d3 fc 26 3f bf eb 35 3f 05 4f 8e bb a3 e4 17 be
       0.6522953 0.71062845 -0.004342916 -0.14833312
000150 2e d2 83 3f 2a d2 9f 3e 8e 3e 62 3d 65 0e 98 bd
       1.0298517 0.3121503 0.055235438 -0.074246205
000160 01 eb 19 be a3 92 29 bd ad fc b8 3c 7c cd 4b bd
       -0.15031053 -0.04139961 0.022581423 -0.049756512
000170 38 43 38 bf 0b 92 0a bf b8 be 52 be b8 1a f7 bd
       -0.7197757 -0.54129094 -0.20580566 -0.12065643
000180 e3 65 3e bf 52 ff 94 be 3e a2 a6 3d 48 1f ef 3d
       -0.74374217 -0.29101044 0.08136414 0.11675888
000190 99 2c cc 3d a3 b8 59 be 6b 86 80 3c 90 2c e2 bc
       0.09969444 -0.2126184 0.015689095 -0.02760914
0001a0 90 11 21 3f 1a c0 70 be 80 07 bb bb 7a ff 99 bd
       0.62917423 -0.23510781 -0.005707681 -0.075194314
0001b0 00 5a 86 bf df c4 4f 3e 21 2e b2 bd 46 85 73 bd
       -1.0496216 0.20289944 -0.08700205 -0.05945327
0001c0 1b 8f 07 be 5e 4d d7 bd 8b c0 4c bc eb 5a eb bd
       -0.13238184 -0.105128035 -0.012497078 -0.114919506
0001d0 ca 47 8d 3f 3a 57 c7 be 4e a6 b0 3e 3c e5 c7 3d
       1.1037533 -0.38933736 0.3450188 0.0976052
0001e0 1c 13 82 bf 58 1e 28 3f 8d 67 01 bd de 0f 07 3d
       -1.0162082 0.656713 -0.031592894 0.032974117
0001f0 b5 1d 5d be 13 7b 7b be ac 01 d6 3a 4a 56 83 bc
       -0.21593364 -0.24558668 0.0016327403 -0.016032357
000200 5f 85 55 3f 67 b2 42 bf 71 f5 2e 3e d1 d2 37 be
       0.83406633 -0.7605347 0.17085816 -0.17951514
000210 22 a7 b9 be a4 5a b8 be 84 85 40 bd e8 9a 86 3e
       -0.36260325 -0.36006653 -0.04700233 0.2629006
000220 51 4f 53 3e d9 53 4b be a3 0c 21 3b 38 02 17 bd
       0.20635726 -0.19856204 0.0024574182 -0.03686735
000230 01 8b 04 3f 47 28 08 3e 7b 92 29 3e 40 a1 0c be
       0.51774603 0.13296615 0.16559784 -0.13733387
000240 16 8c 12 bf 13 5a 69 bc 71 f8 81 bd f3 49 12 be
       -0.57245004 -0.014242667 -0.063462146 -0.14286022
000250 86 80 85 3e 37 79 93 3d 1e 5b 54 bd 38 91 04 3c
       0.26074618 0.07200854 -0.05184471 0.0080912635
000260 ed 8e 46 3f d5 11 b5 3d 35 4b 39 bd 59 d3 2b 3e
       0.7756184 0.08841292 -0.04523774 0.16779841
000270 66 92 63 3f 50 3e 1a bf 06 30 d4 bc fe 42 0d bd
       0.8889526 -0.6025133 -0.025901806 -0.034487717
000280 13 38 2f 3e 76 6d ea bd 57 97 c5 bc cc 5b 37 bb
       0.17111234 -0.11446659 -0.024120016 -0.00279783
000290 50 62 72 bf de 69 f4 3e 61 11 fa 3d 46 09 02 be
       -0.9468126 0.4773702 0.12210346 -0.1269885
0002a0 8b a0 cc 3e f7 71 69 be 37 aa 37 3d 35 ed 90 be
       0.39966235 -0.2279738 0.044840064 -0.28305975
0002b0 85 ee d8 3d 23 36 32 3e 0e a5 fb bb 76 aa 8a 3c
       0.10592369 0.17403464 -0.007679588 0.016926985
0002c0 9d a1 84 be 2b 21 af 3f 97 fa 68 bd dc ed db 3e
       -0.2590455 1.3681997 -0.056879606 0.4295491
0002d0 ad ad 80 3f 0c c9 4a 3f 16 cb 1e bb 0f 18 be 3b
       1.0053002 0.79213023 -0.0024229935 0.005801208
0002e0 b7 6c 3d bd 37 98 86 bc 62 be b9 bb 78 28 19 3c
       -0.046246257 -0.016430004 -0.0056684474 0.009348027
0002f0 be a4 80 bf 88 45 26 bf c5 d0 9f 3d e1 d9 fa 3c
       -1.0050275 -0.64949846 0.078034915 0.03062147
000300 b7 5e 75 3f 59 26 ab bc 75 9a f5 bc 53 a5 13 be
       0.9584765 -0.020892309 -0.029980877 -0.14418535
000310 84 af 41 bd 30 58 13 3d d7 cb 17 3d 1d 22 8b 3d
       -0.047286525 0.035972774 0.03705963 0.06793616
000320 b7 f1 89 bf 34 cd 31 be b7 b2 ab bd 92 45 64 3e
       -1.077689 -0.17363435 -0.083836965 0.22292164
000330 55 6e 72 3f d4 78 8d be 55 6a 4b 3d 67 42 1f bd
       0.94699603 -0.27631247 0.049661953 -0.038881686
000340 89 90 f8 bd 4b a6 42 3e 3a 29 41 bd 0a 37 30 bb
       -0.12136943 0.19008748 -0.047158457 -0.0026888275
000350 16 74 74 bf b2 cf c6 3e 23 0d e1 3d 55 74 dc 3d
       -0.95489633 0.38830334 0.10988834 0.10764376
000360 4b 65 43 3d 47 67 2c bf 2b a2 29 3c a4 cc e2 3d
       0.047704022 -0.6734509 0.010353605 0.11074188
000370 f8 05 d9 3d 95 72 9a 3d f4 69 72 3d f9 e4 95 3b
       0.105968416 0.07541386 0.059183076 0.004574415
000380 12 28 f8 be d7 ae e2 3c 1f ab 82 bd ad c9 c2 bd
       -0.4846807 0.02767126 -0.06380295 -0.09511123
000390 14 b7 4e 3f d1 85 55 bf 3d 80 80 bc 12 22 ff bd
       0.80748105 -0.8340731 -0.015686149 -0.1245767
0003a0 88 56 23 bc 96 b1 64 be a0 ad 0d bc 74 c2 be 3d
       -0.009969361 -0.22333369 -0.008647352 0.09314433
0003b0 7c 94 5a bf c8 e2 29 3f f3 13 0b be f8 fb 5e be
       -0.8538282 0.66361666 -0.13581829 -0.21775806
0003c0 32 8c 75 bf 0c 2d f3 3e 13 0e 58 bd 16 fe 92 3c
       -0.95917046 0.47495306 -0.052747797 0.017943423
0003d0 ed 8c ce 3d 45 d8 30 be f2 20 04 3d f5 28 ad 3c
       0.10085473 -0.1727 0.03225798 0.021137694
0003e0 e7 6c 78 3f ef d3 69 bf 98 40 6e 3e ee b0 bc 3b
       0.9704117 -0.9133901 0.23266828 0.0057583963
0003f0 11 13 38 bf aa 04 ec 3c 54 be bf bd e2 42 5a 3d
       -0.71904093 0.028810818 -0.09362474 0.05328644

a2c_network.actor_mlp.0.bias f4 [64]
000000 d5 76 a7 3b e5 f6 98 b8 2d 5e 90 3c 75 07 0f be
       0.0051106014 -7.2939125e-05 0.017623032 -0.13967688
000010 a3 68 fc bc 56 3f b4 bd 28 73 08 bc 72 3d 47 bd
       -0.030811613 -0.08801143 -0.008328237 -0.048642583
000020 29 d9 63 bd 6e 29 49 bc 1e 7d 26 3c a6 8e 64 bc
       -0.055627022 -0.012277944 0.010161666 -0.013950026
000030 e2 b1 01 3d 43 8b 89 3b 02 5e c0 3d 95 b4 88 3c
       0.031663783 0.0041975095 0.093929306 0.01668767
000040 2c 9d 30 bd 7e 55 8c bb d1 eb f7 bd bb a8 ce 3c
       -0.04311864 -0.0042826524 -0.12105525 0.025226941
000050 ab 0d 2c bd 56 1e 9c 3d f0 f5 94 3c 9c c5 64 3c
       -0.042005222 0.076229736 0.018183678 0.013963129
000060 b9 b1 84 bc 10 a6 e4 bc 30 6f 80 bd b6 8b 6c 3c
       -0.016198026 -0.027911216 -0.06271207 0.014437607
000070 77 78 d1 3a d8 a9 a1 bc fb a8 45 bd 3d d5 54 3d
       0.0015981336 -0.019734308 -0.048256855 0.051961172
000080 03 9e 1d bd ee 8d cd 3d 0f e2 92 3d e9 ca d3 3d
       -0.03848077 0.100368366 0.071720235 0.103414364
000090 e1 2c a3 3c 97 15 90 3c 85 d8 85 3b 99 f8 2e 3d
       0.01991886 0.01758842 0.004084649 0.04271755
0000a0 7a 26 64 bd d8 96 07 3c e4 8b 9e bd 21 ef c7 bb
       -0.055700757 0.00827571 -0.07741526 -0.0061015044
0000b0 77 06 0f bd f4 73 14 3d 23 3e f7 3c b9 15 1c 3d
       -0.034918275 0.036243394 0.030180996 0.038106654
0000c0 04 98 87 bc 22 c6 80 3d 67 f9 ba 3c 95 8d 7b 3c
       -0.016551979 0.06287791 0.022824002 0.01535358
0000d0 1b d0 93 bc 9a a0 64 bd e7 c3 59 bd ea dd 09 3d
       -0.018043568 -0.055817224 -0.053165343 0.0336589
0000e0 a2 e5 0e 3e 81 42 95 3b 02 a6 56 bd 62 3a df bb
       0.13954785 0.004555047 -0.05240441 -0.0068123797
0000f0 27 5f 13 3d 12 ee 96 bd b1 90 a2 3c 6b 21 dd bc
       0.035979416 -0.07369627 0.019844385 -0.026993474

a2c_network.actor_mlp.2.weight f4 [64, 64]
000000 d4 11 d9 bc 4c 07 e7 bc 19 20 08 ba 86 d4 36 bd
       -0.026497759 -0.028201722 -0.0005192771 -0.044636272
000010 e1 6d 6e 3d a5 56 f5 3d c1 f0 4f bc f4 31 b8 bd
       0.058210257 0.11979417 -0.012691678 -0.08993903
000020 53 38 15 be a0 a8 cc 3c e1 40 78 bd 3e 4d c5 3c
       -0.14572267 0.02498275 -0.06060875 0.024084684
000030 0a eb e3 bc ea e7 2c 3e 1a 83 fc 3c f5 f4 87 bd
       -0.027822036 0.16885343 0.030824233 -0.06638519
000040 dc c1 c0 3d 90 d6 09 be 62 14 83 3e 2e 0a a7 3d
       0.09411976 -0.13460755 0.25601488 0.081562385
000050 79 5a 62 bc 27 6c dd 3c fb a7 7c 3d 5e c1 00 bd
       -0.013815516 0.02702911 0.061683636 -0.03143441
000060 41 9e 80 3d d0 1e 75 bd 44 81 a2 3d 80 43 da 3c
       0.062801845 -0.05984384 0.07934812 0.026643515
000070 22 a2 01 3d ae 62 1c 3d 86 08 ce bc ac 53 f6 bd
       0.031648763 0.038180046 -0.025150549 -0.12027678
000080 0c bc 1e 3e a9 12 b2 3c cc fc f1 3d fc e0 45 3c
       0.15501422 0.021737413 0.11815795 0.012077566
000090 35 d6 a8 3b ac 25 de 3c eb 7d 6a bc 85 4e 7c 3d
       0.0051524886 0.027117573 -0.014312248 0.06159832
0000a0 89 d2 ba 3d 4d 61 b4 3d 49 3f 83 3c b9 1b c7 bd
       0.09122188 0.08807621 0.016021388 -0.097220846
0000b0 7d e0 89 bc 90 67 a0 3d a1 7b e2 3c e9 6a 22 bd
       -0.016830677 0.07832253 0.027646841 -0.03965274
0000c0 12 b8 e9 bd ce 26 93 3d 4f 08 1c 3e ba 0a 65 3d
       -0.11412062 0.07185136 0.15237544 0.055918433
0000d0 53 88 8b bd 1d 8d 73 bd 12 90 8d 3c d2 3d d3 bd
       -0.06813111 -0.059460748 0.017280612 -0.10314526
0000e0 f8 d5 bb 3d 13 32 02 3d ec 0a 13 3e 9d 39 f2 bb
       0.09171671 0.031786036 0.14359635 -0.007392122
0000f0 29 a3 d1 bc 93 8c 82 3d 33 15 11 be 20 95 0f 3d
       -0.025590496 0.06374469 -0.14168243 0.035054326
000100 36 cb 87 bd ef ee d7 bd a9 00 86 be 6a fe d3 3e
       -0.06630556 -0.1054362 -0.2617238 0.4140504
000110 b4 2f 0d 3e 6d fc 56 3e ea b6 cf 3d 2c bf a7 bc
       0.13787729 0.2099473 0.1014231 -0.0204769
000120 fd 4f 97 3d f3 da 58 3d 3d c2 5c be f7 a7 96 3c
       0.073883034 0.05294318 -0.21558471 0.018390639
000130 c2 f7 41 be 0a 39 30 3e 67 3a 00 bf d5 e4 32 be
       -0.18942168 0.17209259 -0.50089115 -0.17470105
000140 67 51 fe 3d 43 dc d5 bd 98 2d 54 3d c1 72 7c 3e
       0.1241787 -0.10442402 0.051801294 0.2465315
000150 19 b6 22 bd 5a e0 00 bd 7e a3 96 3d 9e b4 22 3d
       -0.039724443 -0.03146396 0.073554024 0.03972303
000160 6a 02 4f 3d d9 d0 04 be 70 03 76 3c 04 10 14 3d
       0.05053941 -0.12970294 0.015015468 0.036148086
000170 8f d2 01 be 04 46 65 3e 63 41 e2 3d bf 12 5c be
       -0.12677978 0.2238999 0.11047628 -0.21491526
000180 0d e2 32 be 0a ab af bd f4 f6 b4 be 10 be 80 be
       -0.17469044 -0.08577545 -0.3534466 -0.25145006
000190 d2 83 80 3d 98 a5 82 be d9 de 8b be b9 cc b0 3d
       0.06275143 -0.25516963 -0.27318457 0.08632798
0001a0 77 d0 e4 3d 5f 5f d2 3d b4 49 3b 3d 8c c5 85 bd
       0.11172574 0.10272097 0.045724586 -0.0653182
0001b0 1b c7 8b 3d 8c 40 8f bd 37 71 f7 3d 0d 5e 52 be
       0.06825086 -0.06994733 0.12082141 -0.2054369
0001c0 6c 12 2f bd 37 04 f8 bd 72 bd 52 3e 46 74 81 3e
       -0.042742178 -0.12110179 0.2058008 0.25284022
0001d0 98 12 c3 3b 61 5f 9d 3c 55 43 14 be f7 6c 5f 3d
       0.0059531443 0.01921052 -0.1447881 0.054547276
0001e0 57 3d 98 be 50 01 7d 3d 6f eb 87 3e 14 21 b6 3c
       -0.297343 0.06176883 0.2654681 0.02223257
0001f0 82 7c 22 3d 17 dd 1e 3c 5d da fd 3d b6 34 11 3e
       0.03966952 0.009696267 0.12395165 0.14180264
000200 1c 62 80 bc 01 92 17 3c b1 df 36 3e 39 90 c1 3c
       -0.015671782 0.009251119 0.17858769 0.023628341
000210 c1 b0 07 3d 55 f0 2f bd 5d e6 8d bd 79 86 72 3b
       0.03312755 -0.042953808 -0.06928704 0.0037006421
000220 87 16 0a 3d 98 1c 8a 3d 0b 24 13 3e 06 22 58 3e
       0.03371289 0.06743735 0.14369218 0.21106729
000230 56 c6 ef bc e8 e8 e6 bc 19 d9 c6 3b d1 24 ba 3e
       -0.029269379 -0.02818723 0.0060683605 0.36356214
000240 f6 a7 ff 3c 6c 35 4f 3d 53 0a 7d bd 09 bf 30 be
       0.03120802 0.050588056 -0.061777424 -0.17260374
000250 9e f2 a6 bc df 00 85 3c a5 5e 1d 3d 69 84 56 be
       -0.02037936 0.016235767 0.03842034 -0.20948948
000260 b7 8c 1e bd 5e 39 1c 3e e5 14 30 bd d4 6b 0a be
       -0.038708415 0.15256259 -0.042988677 -0.13517696
000270 fd 24 02 3c 55 01 f3 3d b9 c4 90 3d 86 93 1d 3e
       0.007943389 0.118654884 0.07068772 0.15388307
000280 a7 d2 28 be b7 63 79 be 52 51 8d 3d c6 80 fc 3d
       -0.16486607 -0.24354444 0.06900276 0.12329249
000290 ad 83 17 bd 5a 2b 16 bb 84 90 80 3d 9e 2a 9a bd
       -0.03699081 -0.0022914023 0.06277564 -0.0752766
0002a0 90 f0 66 be cd 99 ac 3b c3 68 42 3d db b4 c1 3d
       -0.22552705 0.005267358 0.04746319 0.094583236
0002b0 54 46 5d bd ed 29 de 3d cc 6e fe 3d fd e6 d3 bc
       -0.05402215 0.108478405 0.124234766 -0.02586698
0002c0 18 b0 31 39 6d 91 c4 3c 18 ff 86 be a8 65 b9 be
       0.00016945635 0.023995126 -0.26366496 -0.3621037
0002d0 84 59 f6 3d a8 ed 4f be e8 c1 f5 3d 74 66 35 be
       0.120287925 -0.20305502 0.11999875 -0.17714864
0002e0 97 c7 98 3d 30 6c 8c 3d c1 2e 65 3d 4a ee 74 3c
       0.07459944 0.06856573 0.05595279 0.014949391
0002f0 27 ac cb 3d 6d 41 1b be d5 c9 ae 3b 54 34 90 3e
       0.09944945 -0.15161677 0.005334119 0.28164923
000300 6a ec 35 3d 6a 25 08 bd c1 ef c4 bc 96 a0 15 bc
       0.044414915 -0.033238806 -0.024040105 -0.009132525
000310 27 f3 f9 bd b5 ce f3 3d 2f e6 57 bd 87 0c 12 3d
       -0.12204581 0.119046606 -0.052709755 0.03565648
000320 38 c3 1c bd 87 30 93 3c 83 6a bc 3c d4 37 8f 3d
       -0.038272113 0.017967476 0.023000007 0.0699307
000330 3c 7f 91 3d c4 f5 6c bd 3d 46 79 3d a0 98 58 bd
       0.07104346 -0.057851568 0.060858 -0.05287993
000340 8d 70 98 bd 1f b8 bc bd 2c c6 7c bc 3b 97 67 3c
       -0.07443342 -0.09214806 -0.015428107 0.014135177
000350 f4 92 cc 3c 1e b1 65 bd 54 07 0b bd fd 8c 9d bc
       0.024972416 -0.056077115 -0.033942536 -0.019232268
000360 c9 ea e9 bb b2 b5 ce 3d 43 0c 10 3e b3 48 1a 3e
       -0.0071385843 0.100932494 0.14067177 0.15066795
000370 1c b1 34 be 72 63 c5 3d f4 90 e3 3c 48 eb 17 3d
       -0.17645687 0.09638108 0.02777908 0.037089616
000380 b0 bc b8 3c a7 27 98 3d f3 7c b7 bc f2 bb e5 3c
       0.02255091 0.07429438 -0.022398448 0.02804372
000390 f6 f7 c1 3d 1f d4 84 bb 73 5a 52 be 81 06 02 3e
       0.09471123 -0.004053607 -0.20542316 0.12697794
0003a0 35 9a a3 bc 42 b7 ce bb ff 15 7a bc 91 ef fb 3c
       -0.019970993 -0.006308467 -0.015264033 0.030753883
0003b0 bb b8 c0 bd bc 57 b2 bd c3 c8 c5 bd b6 6f a3 bd
       -0.094102345 -0.0870814 -0.09657433 -0.079802915
0003c0 f3 4d 91 3b d7 0d 80 3d fa 8e 14 3e b8 65 5d 3d
       0.004434341 0.0625264 0.14507666 0.054052085
0003d0 6e c5 e7 3d bf 1d 11 be 93 4d 7d 3d c7 63 14 3e
       0.113169536 -0.14171503 0.06184156 0.14491187
0003e0 ed f5 17 be 9a 7f 58 3d 14 db 16 3e e3 75 23 3c
       -0.14839907 0.052856065 0.14732009 0.009976837
0003f0 b3 8c 70 3c 05 e6 da 3d cb 8f 7b 3d ce 29 29 3e
       0.014681983 0.10688404 0.06141643 0.16519853

a2c_network.actor_mlp.2.bias f4 [64]
000000 d9 9b de bc f4 2c a4 3c 50 a7 b7 bc f9 ee db bb
       -0.027173923 0.020040967 -0.022418648 -0.0067118374
000010 68 8c cb 3c 95 0c 89 bd c8 68 e3 3c d2 8d 40 3a
       0.024847224 -0.06691853 0.027759925 0.00073453516
000020 ca e2 8d bc 79 37 31 bc 8e 0e 11 bd 1d 81 83 bd
       -0.017320056 -0.010816448 -0.03541427 -0.06421111
000030 6f a4 18 3d 29 30 a4 ba 89 4c 41 bd 6f 17 90 bc
       0.03726619 -0.001252656 -0.04719213 -0.017589299
000040 fc bf 25 bc 9c 63 26 bd 5d 69 aa bc 79 47 a6 bc
       -0.010116573 -0.04062234 -0.020802194 -0.020297753
000050 2a ad dd bc 08 c5 63 bc 9d 05 05 3c 6f 58 10 3d
       -0.02706011 -0.013901956 0.008119014 0.035240587
000060 9f 2c f3 bb b6 8d 8e bc c8 74 ce bc 74 3e 83 3b
       -0.0074210907 -0.017401557 -0.02520217 0.0040052477
000070 d9 a2 3e 3c bf cb 7f bc bc 26 d9 bd 40 2f d4 3a
       0.011635506 -0.015612542 -0.10603091 0.0016188398
000080 7d 7d a1 bc 61 64 87 bc 84 d6 a2 bb dd bd cf bc
       -0.019713158 -0.016527357 -0.00496942 -0.025359089
000090 a8 29 7e 3c ba bb ce bb 50 17 82 bc d7 2a 3b 3b
       0.015512861 -0.006309 -0.015880257 0.002855947
0000a0 1d dc 96 bd 70 b9 f1 bc df 64 36 b9 5f 2a 61 3c
       -0.07366202 -0.029507369 -0.0001739445 0.013743012
0000b0 14 c7 f3 3c 7a 6d 4f bd 75 36 cb bb dd aa b7 ba
       0.029758014 -0.050641514 -0.00620156 -0.0014012713
0000c0 84 03 e7 3b 86 7c 59 3c c4 f0 50 bd 68 7a 14 3b
       0.0070499796 0.013274318 -0.051010862 0.0022655968
0000d0 f0 74 6d bd 03 bf bd 3c b0 82 d5 bb ae 74 81 bc
       -0.05797285 0.02316237 -0.0065158233 -0.015802708
0000e0 b7 c4 6d bd 50 ff 1c bd e7 d5 1c bc 0a 78 cb bc
       -0.05804893 -0.038329422 -0.009572483 -0.024837513
0000f0 16 2e 20 3a de 27 e3 bb d2 0f 88 bb dc ef 8d 3b
       0.0006110383 -0.006932243 -0.0041522766 0.004331572

a2c_network.critic_mlp.0.weight f4 [64, 12]
000000 a9 d8 59 3e 1c 97 81 3e 2a 8d 46 bd 21 70 6f be
       0.21274056 0.253106 -0.04847447 -0.23382618
000010 14 75 b2 bd 77 c4 a9 be 4a 8f e8 3c 4b f5 c7 bb
       -0.08713737 -0.33157703 0.028388638 -0.0061022392
000020 9a e0 1d 3e 24 a9 04 40 af a4 cf 3b 2a d1 91 3f
       0.1541771 2.0728235 0.0063367705 1.1391957
000030 0c bc e7 3b d6 c7 c1 3e 6b 8b f7 bc b8 ef bf bd
       0.0070719775 0.37847775 -0.030217847 -0.093718946
000040 44 d2 8c 3e a4 47 bc 3d 03 07 27 bb 3a 53 70 3c
       0.2750417 0.09193352 -0.0025486357 0.01466828
000050 63 90 e5 3d e7 87 cc 3f 32 13 18 bc cd 5a d0 3e
       0.1120918 1.5978974 -0.00928192 0.40694275
000060 4a 22 8b 3f 39 7c 87 3e 38 e9 5a bd 9e ed d6 3c
       1.0869839 0.26461962 -0.05344507 0.026236352
000070 f9 d3 83 3e 88 4a 60 be 41 b7 ab bd c2 a1 d8 3d
       0.2574766 -0.21903431 -0.08384562 0.10577728
000080 3a 06 f4 3e db d9 a2 3f df 69 8e be ba 4b 69 3d
       0.47661 1.2722734 -0.27815148 0.056956984
000090 7d 7c cd be 03 31 9b 3f 56 e4 a8 be 8b 1b 7f 3e
       -0.4013404 1.2124332 -0.32986706 0.2491285
0000a0 c9 00 d5 3e 3c cf 90 3e 20 b7 e0 bc 7f ca 68 3d
       0.41602162 0.28283107 -0.02743107 0.05683374
0000b0 69 99 04 3d 4c 31 09 40 d1 af 24 3e 9f a9 93 3f
       0.032372866 2.1436338 0.16082694 1.1536139
0000c0 97 5d 4d 3f 1e f4 a5 bc 2a ae 9c 3d 12 28 ce bb
       0.8022093 -0.020258006 0.07650407 -0.006291398
0000d0 0b 00 53 bd 5e 8f 33 bd 0d 74 70 bc e0 ca 2a bd
       -0.051513713 -0.043837897 -0.014676106 -0.041697383
0000e0 e1 71 61 bf c2 3d f7 3f fa d6 8b bd 88 b5 6b 3f
       -0.8806439 1.9315722 -0.06828113 0.9207387
0000f0 37 30 12 3d c7 89 ae 3e 33 a5 16 3e 02 d5 b4 bd
       0.035690513 0.3408949 0.14711456 -0.088296905
000100 4c 7d c6 3d a9 bd 99 3d 21 6d ab 3c 17 f2 0b be
       0.09691867 0.07506878 0.02092606 -0.13666569
000110 5c 20 f1 3e 53 96 f3 3f 26 8a 8a bd 1f 57 6a bd
       0.47095 1.903025 -0.06764631 -0.05721199
000120 c6 ee be 3c 9e 7b 33 be 3a 19 c7 3d 41 d6 36 be
       0.023307215 -0.17527625 0.097216085 -0.17855169
000130 7e b6 cc bc 65 cc 4e be af 0c b2 3a f3 37 b5 3c
       -0.024989363 -0.20195158 0.0013584102 0.022121405
000140 db 0b e0 bc 07 b8 29 c0 04 2c cb 3c 18 96 a8 3e
       -0.027349403 -2.6518571 0.024801262 0.32927012
000150 1f 19 32 3e 2d 56 29 bf a2 fb fe 3e 11 a4 2b bf
       0.17392395 -0.6614712 0.49801356 -0.6704722
000160 db 22 6c 3e e4 17 a4 3c ee ac ab bd bb de 26 3e
       0.23060171 0.020030923 -0.08382593 0.16295902
000170 71 c6 ee be 34 44 de bf 51 d9 b2 3e 03 7a ff 3e
       -0.46635774 -1.7364564 0.34931424 0.49897775
000180 9e 54 4a 3e a2 b2 0f 3f e2 11 9e bc e1 0f cd bd
       0.19758841 0.5613195 -0.019295637 -0.10012794
000190 c5 a1 6d 3e 1b c3 cb 3d fc 0b a9 ba 0b 20 c8 bb
       0.23206241 0.09949323 -0.0012897248 -0.0061073354
0001a0 ac d9 01 3e 90 5a 1a 40 87 1c 65 bc 50 82 6e 3f
       0.12680691 2.4117775 -0.013983852 0.9316759
0001b0 56 37 b6 be 8a 10 0a bf cc 53 7d bd 92 47 b7 bd
       -0.35589093 -0.53931487 -0.061847493 -0.08949198
0001c0 8a 4b 53 bb 10 88 8d 3e 5b 65 9a bd 29 0a 57 3c
       -0.003224107 0.2764287 -0.07538863 0.013124981
0001d0 99 ce de bd 3f e8 e8 bf 89 be d2 be a9 b1 c7 3d
       -0.10879249 -1.8195876 -0.41160992 0.09750683
0001e0 6a d6 0d 3e 45 8d 5d bf 45 64 45 3d 51 20 c1 3d
       0.13851324 -0.86543685 0.048191328 0.09429992
0001f0 39 46 f7 bd 4e 15 10 3d a8 62 3a 3c 5d 71 0f bc
       -0.12073941 0.035176568 0.011376061 -0.008755055
000200 84 78 1a be 11 c0 c1 bf 7e a7 2b 3e cd 08 5e 3f
       -0.15085036 -1.5136739 0.16763112 0.8673218
000210 c2 c2 fd 3e 48 ec f7 3e 2b 71 72 3e aa c8 7e 3f
       0.4956265 0.48422456 0.23675983 0.9952494
000220 8a 44 af ba df 52 a8 be 84 25 fe 3d 3e f8 d4 3b
       -0.0013371867 -0.32875726 0.12409499 0.0064993193
000230 e0 b8 00 3f 2a 69 50 bf 77 49 6a 3f a1 57 da 3d
       0.50282097 -0.8141047 0.9151835 0.10661245
000240 55 3c 8f bd 67 1b 83 bf e9 19 48 bb 53 75 22 bf
       -0.06993929 -1.0242738 -0.0030533022 -0.6346027
000250 09 9d 12 bd 29 91 2c 3e 1a b7 08 bd cf 6a 9c 3c
       -0.03579429 0.16852249 -0.033377744 0.019093899
000260 05 50 72 3f 03 39 1f bf 4c bf 83 3d 79 0b 0e bf
       0.9465335 -0.6219637 0.06432971 -0.55486256
000270 e8 bc 50 3d 2a db 89 3e 6e 7e b1 3c 01 92 36 3e
       0.050961405 0.2692502 0.021666732 0.17829134
000280 84 89 11 3e 1b 71 f3 3e bc 78 6e bc a3 62 0e bc
       0.14212614 0.4754723 -0.0145551525 -0.008690509
000290 82 fa db 3f dc af 75 40 60 6c fe 3d 45 c0 74 3f
       1.7185824 3.8388586 0.12423015 0.9560588
0002a0 5e 4e 09 bf 2a ef 34 bf 7e c5 95 3d e3 23 71 3d
       -0.53635204 -0.70677435 0.07313059 0.058872115
0002b0 d4 82 1f 3e f1 04 c0 3d 10 e0 0b 3e 4f 9b bf bd
       0.1557725 0.093759425 0.13659692 -0.09355795
0002c0 be 9c aa be b6 8f 0b 3d 7f b8 6f 3d 87 98 bf be
       -0.3332271 0.0340726 0.05852556 -0.37421057
0002d0 57 17 63 3f b3 a3 25 bc cf e0 05 3d 1a d6 8c 3d
       0.8870749 -0.01010983 0.032685097 0.06876774
0002e0 76 8a b0 3d f4 a4 46 3c b6 b7 39 bc 32 63 c5 bc
       0.08620159 0.012124289 -0.011335304 -0.024095152
0002f0 72 e7 ea 3e 8e 14 c4 3f 21 ba 5d be 02 62 a8 3e
       0.45879704 1.5318773 -0.21653034 0.32887274
000300 42 67 ac bc b5 c4 f8 3c 6f 12 11 be 9f 91 bc 3e
       -0.02104533 0.030367235 -0.14167188 0.3682985
000310 33 ce 7c be 34 8e 70 3e c5 13 24 3e 57 d3 06 bc
       -0.24688034 0.23491746 0.16023166 -0.008229098
000320 10 f6 39 3e f2 7e 85 bf 79 2a 97 bd ae 72 fc 3c
       0.18160272 -1.0429366 -0.07381148 0.030816402
000330 85 e0 9a be 9e 9f 86 bf 2c b9 96 bd 22 b3 da 3e
       -0.3024942 -1.0517461 -0.073595375 0.42714792
000340 46 89 21 bd 82 c1 44 be 5b 59 be bb bc 4b 52 3c
       -0.039437555 -0.19214442 -0.005808992 0.012835439
000350 35 7a 8f 3f 47 b4 29 bf c5 f6 69 bd f6 54 fa 3e
       1.120917 -0.66290706 -0.057120103 0.48892945
000360 1a d8 33 bf 7d 54 c3 3f 31 76 60 be 44 a0 69 bd
       -0.7025162 1.5260159 -0.21920086 -0.057037607
000370 f2 55 06 be 6f 8a 5c 3e 26 7f 72 bc 79 d3 ca 3c
       -0.13118723 0.21537183 -0.014800822 0.024759041
000380 d2 fa 82 3f ee a3 55 40 4d 63 cc 3c ae 0c 6f 3f
       1.0232794 3.3381305 0.024949694 0.9337872
000390 bf 56 21 bf d6 7e 8f bf 55 93 b5 bd 7e 7d 76 3e
       -0.6302299 -1.1210582 -0.08865992 0.24071309
0003a0 ed 14 00 bd c4 0b 2e 3e 31 92 fb 3b 54 d4 89 3c
       -0.031269956 0.16996676 0.0076773395 0.016824879
0003b0 71 00 16 3f be 71 1e c0 f8 bc 8b bd a9 40 b2 3e
       0.58594424 -2.4756923 -0.06823152 0.34814957
0003c0 0b a4 7b bf dc 7b 13 bd 8e 9a 01 3d 4b f6 1a 3b
       -0.98297185 -0.036006793 0.031641535 0.0023645337
0003d0 62 a5 ea 3c 7a b6 c6 bb cc 49 39 3d 04 8f 7d 3d
       0.028643314 -0.0060642334 0.045236394 0.06190397
0003e0 ce a2 ba 3d 7c 92 b5 3f d3 14 a5 3e e9 9e 26 3e
       0.09113084 1.4185328 0.3224245 0.16271557
0003f0 13 32 bb 3e ec 8c 25 c0 ff 18 61 bd 3e 43 34 bf
       0.3656164 -2.5867262 -0.05495548 -0.70415103

a2c_network.critic_mlp.0.bias f4 [64]
000000 4c 75 6b be 8a c1 84 be 8d d9 50 be 77 5e 2c 3e
       -0.22993964 -0.2592891 -0.20395489 0.1683291
000010 a4 96 a2 be fc cd db 3d 43 27 18 bd 3d 10 b7 bd
       -0.31755555 0.10732648 -0.037146818 -0.08938644
000020 9c 71 4d be 34 f1 77 3d 4a 52 ae be fd 62 d4 bc
       -0.2006287 0.060532764 -0.34047157 -0.025926108
000030 1f c6 79 be 09 55 61 bb 67 1b 94 be e3 6a 9c be
       -0.24391983 -0.003438296 -0.28927156 -0.30550298
000040 04 51 75 3e c4 2b 98 be 7c 39 99 3e 18 11 88 be
       0.23956686 -0.2972089 0.2992667 -0.26575541
000050 75 31 95 be 83 60 d6 3c 8a 1b 44 be 02 8e e5 3c
       -0.29139295 0.026169067 -0.1915113 0.028021816
000060 88 72 4d be 5c 87 c8 3e 7f ff 2b be 21 69 a0 be
       -0.20063221 0.3916577 -0.16796683 -0.31330207
000070 92 5f 8d be 37 6b 86 be 6b ed 99 3a 49 0c 93 be
       -0.27611977 -0.26253673 0.001174373 -0.2872031
000080 ab 79 5f be 9d ee 3c be 2f 92 30 be 5f 3b 8e be
       -0.21823756 -0.18450399 -0.17243265 -0.27779672
000090 7b cb 9e be 12 a9 21 be 99 c0 c8 bd fd c4 60 3e
       -0.31014618 -0.15787151 -0.0980236 0.21950145
0000a0 48 ff 45 3c c8 8b 8f 3e 93 3b 53 be 7a df 9d be
       0.01208479 0.28036332 -0.20628195 -0.30834562
0000b0 d4 f7 83 be ea ec 2e bd 8e fe 8e be 54 fd 85 be
       -0.25775015 -0.042706408 -0.27928585 -0.26169837
0000c0 72 a8 8a 3e a0 18 94 3e 26 59 a1 3e 9f b5 33 3e
       0.2708164 0.28925037 0.31513327 0.17549752
0000d0 76 8f ac bd dd e5 3d 3d 45 c7 5a 3e fa 1e 18 be
       -0.084258005 0.046361793 0.21365078 -0.14855567
0000e0 36 90 a4 be b3 2f 12 3e a4 ac c2 3d 70 14 39 be
       -0.32141274 0.14276008 0.09505585 -0.18074203
0000f0 f4 43 2b 3e 70 a6 a1 3e b1 c2 8e be 5a cf 9c be
       0.16725141 0.31572294 -0.27882913 -0.30626947

a2c_network.critic_mlp.2.weight f4 [64, 64]
000000 ef c3 2a bf a0 3d 1a bf c1 48 58 be d3 ed 4e be
       -0.6670522 -0.6025028 -0.21121503 -0.2020791
000010 67 20 13 bf 79 9f 97 bc 0a d0 86 bd 87 b6 25 bd
       -0.5747132 -0.01850866 -0.06582649 -0.040457275
000020 cb 62 1b bf 34 48 a4 3d bd 59 14 be 3b 8a 4d 3e
       -0.6069762 0.08021584 -0.14487357 0.20072262
000030 f8 a4 5b bc 53 da 21 bf f9 06 2b 3e a1 3a 8a be
       -0.013406031 -0.6322376 0.16701879 -0.26997855
000040 bf b1 7c 3e 2c 6f 9b 3d ef 32 ee be ff a9 e7 3c
       0.2467718 0.07589564 -0.46523234 0.028279303
000050 c5 e2 d1 be 8a 8c 19 3e 52 5d ed 3d f4 d3 aa bd
       -0.40993324 0.14995018 0.11590065 -0.08341208
000060 9d 0a f4 be 0f 0e 8d 3e 7d 38 d5 bd 05 1f 85 be
       -0.47664347 0.27549788 -0.10411165 -0.2600023
000070 e0 8b c1 be 07 cf 33 be d1 33 0c be 91 b1 a7 be
       -0.3780203 -0.17559443 -0.13691641 -0.3275266
000080 c0 2f 88 3e 17 43 ca be d8 2f d7 3d 9c be 16 bd
       0.2659893 -0.3950431 0.10507172 -0.036802873
000090 6e f6 b8 3d 07 87 77 3e f6 d1 0e 3d 42 67 e5 be
       0.09031378 0.24172603 0.034868203 -0.44805342
0000a0 7b d8 dc bc ed 82 1b be 88 47 cf be 2c 71 c5 be
       -0.026958695 -0.15186663 -0.40484262 -0.38562906
0000b0 d6 f2 a7 be 4d df 28 3f da ae 09 bf 76 2e d7 3e
       -0.32802457 0.6596573 -0.5378243 0.42027634
0000c0 29 97 a2 3e 12 67 0d bf 41 4a 73 be 42 5f f6 bd
       0.3175595 -0.552354 -0.23758794 -0.12029888
0000d0 f8 64 a2 be 70 86 25 bf 21 91 1d 3e f6 f9 f7 3d
       -0.31717658 -0.6465826 0.15387394 0.12108223
0000e0 77 cf a5 be 9f d7 ce bd ea e0 6f 3d fe d5 e3 be
       -0.32384846 -0.1009972 0.058564104 -0.444992
0000f0 d3 05 9a be f9 cc 0f be 5a b1 72 be cc af e2 3b
       -0.3008257 -0.14043035 -0.23700467 0.0069179293
000100 95 7f e7 3c 24 7a 56 3e ec 08 7e 3e 42 93 45 3e
       0.028259078 0.2094503 0.24808091 0.19294456
000110 2c be 08 be 80 99 17 3f f3 df 3c bf cb 10 11 bf
       -0.13353795 0.592186 -0.7377922 -0.5666625
000120 4e f6 04 3e b5 22 50 bf ec 20 66 bf 24 10 05 be
       0.12984583 -0.8130296 -0.89893985 -0.12994438
000130 26 ad b6 be 83 ce ad 3d 0e 1a 2a be 4d 08 47 be
       -0.35678977 0.084866546 -0.16611502 -0.1943676
000140 08 2f bc be cd a8 62 bf e1 55 08 3f 80 77 92 bf
       -0.36754632 -0.8853882 0.5325604 -1.1442719
000150 43 cb 8a 3d 24 70 c3 bf 98 54 71 bf ac 9a 26 3f
       0.0677705 -1.5268598 -0.94269705 0.6507976
000160 61 12 c8 3d 2f 8a 37 3f 5e 4f 4d be e7 67 1d bf
       0.097691305 0.71695226 -0.20049807 -0.6148667
000170 f5 23 bc 3e 94 0b eb 3d 83 b5 34 3f 9f cc 2b 3c
       0.36746183 0.11476818 0.70589465 0.010485797
000180 2f 4c 94 bf 89 5d e9 3e 74 3f 4f bf 09 3c 51 bf
       -1.1585749 0.45579174 -0.80956197 -0.8173223
000190 73 e2 0b bf a6 5c dd be d6 c0 80 bf 8e ed 84 3d
       -0.5464241 -0.43234748 -1.0058849 0.064906225
0001a0 44 6f 2b 3f 91 d1 27 3e bf b2 42 3e be 63 26 bf
       0.6696665 0.16388537 0.19013499 -0.64995944
0001b0 42 0f 05 3e 9a 9a a5 be 93 16 07 be e6 2a ae be
       0.12994102 -0.32344514 -0.13192205 -0.34017104
0001c0 23 ef fb 3d 8d fc 92 3e ed c2 bc 3e c3 12 06 bf
       0.12301471 0.28708306 0.36867467 -0.5237238
0001d0 57 92 aa 3e 65 76 06 3e 14 53 39 3e ed 88 a6 bc
       0.33314773 0.13131101 0.18098098 -0.020328963
0001e0 9c c0 8a be 2c 4b 3a 3f 0b d8 16 bf 61 bf a0 3e
       -0.27100074 0.72770953 -0.58923405 0.3139601
0001f0 58 5b cc bd 7e f6 8d 3f 65 42 40 bf 22 05 5c bf
       -0.0997836 1.1090848 -0.7510131 -0.8594533
000200 de 1a 47 bf 3d 42 51 bf 07 49 10 bf 07 55 c0 be
       -0.7777537 -0.81741697 -0.5636143 -0.3756487
000210 c9 6d 28 bf 75 8d a3 be be e0 0b 3f 5f 95 ab 3e
       -0.6579252 -0.3194386 0.54639804 0.335124
000220 0b fa 54 bf 57 46 12 3f 45 aa 73 3e 01 48 1e 3d
       -0.83194035 0.5713858 0.23795421 0.038642887
000230 82 de 44 3e 6d d3 84 bf d8 89 0d 3e 90 8f 31 bf
       0.19225505 -1.0377022 0.13822114 -0.69359684
000240 32 9a d6 3e 18 01 a9 3d 73 61 14 bf 22 b0 05 3f
       0.41914517 0.08252162 -0.57961196 0.5222188
000250 94 b7 05 bf 01 83 a4 3e 81 4f b8 3e 75 46 24 bf
       -0.52233243 0.32131198 0.35998157 -0.6417001
000260 1c 21 30 bf 1e 49 99 be 43 ac ef be fb a3 05 bf
       -0.6880052 -0.29938596 -0.46811113 -0.5220334
000270 74 ba 0a bf e2 21 50 be 57 fe eb be b6 f4 47 bf
       -0.54190755 -0.20325425 -0.46092483 -0.78107774
000280 6c 73 89 3e 36 35 22 bf 31 6d d6 3e 26 02 41 3d
       0.26845872 -0.63362443 0.4188018 0.04712119
000290 71 17 fb 3d d8 5f c5 3e e9 d9 f8 3e a1 26 ab b8
       0.122603305 0.38549685 0.48603752 -8.1611106e-05
0002a0 26 9e 1b bf 08 33 37 3e 5d 0f 2e bf ed de a6 3e
       -0.6078819 0.1789056 -0.6799219 0.32591954
0002b0 09 6f 35 bf 5b e6 b9 3d 5f e8 6d bf f8 cf a2 3c
       -0.7087255 0.0907714 -0.92932695 0.019874558
0002c0 74 1d 06 3f b7 e9 f7 be 31 8d 1f bf 7e df f8 3e
       0.5238869 -0.48420498 -0.62324816 0.4860801
0002d0 e7 80 28 bf 40 52 4c 3c 39 1a 6f 3e 5f 8f 9e 3e
       -0.6582169 0.012470782 0.23349847 0.30968758
0002e0 c0 35 13 bf de 31 34 bf 11 6b ef 3e d9 2c 45 bf
       -0.5750389 -0.7038859 0.46761373 -0.7702156
0002f0 d1 2f 95 be 92 b2 6c bf 38 97 db 3e fe 2f 82 3e
       -0.29138044 -0.92459977 0.42888808 0.2542724
000300 22 68 34 be 63 84 89 bd 31 3d 8a bd 8a af 84 be
       -0.17617849 -0.06714704 -0.067499526 -0.25915176
000310 02 87 ce 3d cb 64 e6 3e b6 3a 75 be dd da 5e 3e
       0.100843444 0.44998774 -0.23948178 0.21763177
000320 71 b8 1c bd b7 a1 ec 3b 33 ac be be 55 95 8e bf
       -0.038261835 0.0072214263 -0.37240753 -1.1139323
000330 22 6c 00 3f e8 b0 10 3e ee de 5d 3e fb 26 e4 3c
       0.50165 0.14129984 0.21667072 0.027850619
000340 45 07 a6 be 25 86 b3 be 31 ee 12 ba cc bb 87 be
       -0.3242742 -0.35063282 -0.00056049513 -0.26510465
000350 57 9e 06 be 25 a4 29 3f d4 0d 0d bf e3 d6 e3 bd
       -0.1314634 0.6626609 -0.55099225 -0.11124971
000360 cd c4 a2 bd 06 15 a7 be 54 c1 98 3e 2b fe 5d 3e
       -0.07947693 -0.32633227 0.29834998 0.21678989
000370 d6 1f 6b 3d 2b 1f b6 be e1 63 f7 3e 93 ea c6 bd
       0.057403408 -0.35570654 0.4831839 -0.0971271
000380 e8 34 0e 3f 7c 24 2d be 94 e4 6f be 9f 15 d6 3e
       0.5554948 -0.16908449 -0.2342704 0.4181337
000390 74 97 bd 3e 85 df f6 3d f0 db 19 be 01 a7 a5 3d
       0.37029612 0.12054352 -0.15025306 0.08088494
0003a0 d0 6a d6 3c e9 89 ea 3d a7 16 22 3d eb 78 2b 3e
       0.026173979 0.114520855 0.039572384 0.16745345
0003b0 7b 1f 94 bd 8c bc 84 bf f2 18 ec 3c 58 21 67 3e
       -0.07232567 -1.037004 0.028820489 0.22571313
0003c0 ea 0c b4 be 95 d2 bf 3d 87 27 e4 3e c4 d3 a0 be
       -0.35166103 0.09366337 0.44561407 -0.31411564
0003d0 1e d0 b8 3d ab 4b 2b 3f 4b 62 aa bf e0 51 dd 3d
       0.0902407 0.66912335 -1.3311247 0.10806632
0003e0 84 4c 07 be fd d8 d9 3e 3a d4 6d bf b6 4d 9d 3b
       -0.13212782 0.4254836 -0.9290196 0.0048005236
0003f0 0b bf 0a 3f 36 93 ae 3d a3 a9 d5 be 15 e0 e2 3e
       0.5419776 0.08524172 -0.41730985 0.44311586

a2c_network.critic_mlp.2.bias f4 [64]
000000 35 8b b1 3e 0d f8 06 3d 48 ee 94 3e 95 ac ba 3e
       0.3467652 0.032951403 0.29088044 0.36459795
000010 6b 7b 02 3f 39 a0 83 3d 08 eb c9 bc c9 21 bc bd
       0.5096957 0.064270444 -0.024648204 -0.091861315
000020 0f 93 8c 3e 1f 3c 87 3e f6 61 71 be ec 67 f9 3d
       0.27455947 0.26413056 -0.23572525 0.12178025
000030 6b cd 8f 3e 60 10 0c 3f 24 96 5c 3e 84 13 83 be
       0.2808641 0.54712486 0.21541649 -0.25600827
000040 b2 b8 a3 3e 78 8f 88 3e 79 0b 4f 3e 41 e7 ad bd
       0.3197685 0.26671958 0.2021922 -0.08491374
000050 d5 be bf be bf a4 99 be 8f 35 8d be cd 48 a6 3c
       -0.3745028 -0.30008504 -0.27579924 0.020298386
000060 2b e6 02 bf 14 8e 82 3e 86 58 9a bd 32 95 d7 3e
       -0.5113246 0.25499022 -0.07536416 0.42106014
000070 93 f7 a2 be 9a d6 b7 bd 8b 46 a6 be c9 ac e2 3e
       -0.3182951 -0.08976479 -0.32475695 0.4427245
000080 15 38 8f be f2 29 8f be 29 dd 8a be e0 d4 22 bd
       -0.27972475 -0.2796169 -0.27121857 -0.039753795
000090 84 29 7d be a2 28 5f 3e 7d 48 ce 3e 7c 20 7a 3e
       -0.24722868 0.21792844 0.4028968 0.24426454
0000a0 16 09 4b be 8d 7e 50 3d 30 67 8f be 75 5b a1 be
       -0.19827685 0.05090194 -0.28008413 -0.3151509
0000b0 44 71 57 3e a3 e8 01 bf be 81 8b be e5 7c 19 bf
       0.21039301 -0.507456 -0.27247423 -0.599562
0000c0 24 68 c1 3e ec c9 79 3e 6e 52 90 be d4 3f 95 3e
       0.37774765 0.24393433 -0.2818789 0.2915026
0000d0 3f 6d a7 be eb 4b dc bd 9d 53 9b be 2e 3f 31 3e
       -0.32700536 -0.10756668 -0.3033723 0.17309257
0000e0 c7 78 54 be c3 a3 c0 3c 8f 02 9d be d4 08 a4 bd
       -0.20749198 0.023515588 -0.30666015 -0.08009496
0000f0 72 0d c1 3d 37 78 d1 3e d5 77 99 be b9 e6 b0 3e
       0.094263926 0.4091203 -0.29974237 0.34551027

a2c_network.value.weight f4 [1, 64]
000000 79 c6 97 3e 2b 15 5b bf fd 8c 0f 3f 16 39 d3 3e
       0.2964361 -0.85579175 0.56074506 0.4125449
000010 49 43 08 3f 8a 2d 3b bf 44 81 03 3e 4e 91 11 bf
       0.5322767 -0.7311636 0.1284228 -0.5686234
000020 a8 58 a9 3e 47 27 a1 3e 8a 6e 18 bf b0 7a 58 3e
       0.33075452 0.3147528 -0.5954367 0.21140552
000030 eb 91 c1 3e 9c ce 06 3f 6a a2 9e 3f 5c 53 92 be
       0.3780664 0.5265901 1.2393315 -0.28579223
000040 89 a2 c8 3e 26 e7 c2 3e 94 e8 06 3f 44 5b 1b be
       0.39186504 0.38066977 0.52698636 -0.15171534
000050 d5 f9 b9 be 87 68 b9 be 85 b4 8a be 4a de 75 3d
       -0.3632342 -0.3621256 -0.2709085 0.060026444
000060 99 78 f2 be c2 36 a7 3e 18 8e 63 be f4 a9 c8 3e
       -0.47357634 0.32658964 -0.22222173 0.39192164
000070 bc da e0 be d4 43 27 bc 36 42 dd be fd 8c 05 3f
       -0.4391688 -0.010209043 -0.43214577 0.52168256
000080 be bb b9 be 30 01 72 be b8 ee 5d be 23 77 c3 bc
       -0.36276048 -0.23633265 -0.21673095 -0.02386052
000090 1b 02 9f be 6a 18 55 3e 9e 3d ba 3e 16 1c 89 3e
       -0.31056294 0.20810094 0.36375135 0.2677924
0000a0 fd 22 49 be b4 22 e3 be 6e ca 86 be c2 01 00 bf
       -0.19642253 -0.44362414 -0.26326317 -0.5000268
0000b0 12 b0 98 3e 82 ea 65 bf f8 17 86 be 31 a8 e2 be
       0.2982183 -0.89810956 -0.26190162 -0.44268945
0000c0 c9 e5 f0 3e c8 68 21 3e f0 5e e4 be 5b f4 ed 3e
       0.47050312 0.15762627 -0.44603682 0.4647549
0000d0 a4 6c c7 be 83 1a 4b be 33 22 98 be c5 a1 24 3e
       -0.38950074 -0.19834332 -0.29713592 0.16077335
0000e0 22 33 6a bf 74 0e 1e bf f9 f3 18 bf 41 50 ae bd
       -0.9148427 -0.61740804 -0.5974727 -0.08511401
0000f0 16 a7 79 3e 00 ba c7 3e ac 83 cd be 68 bc 8e 3e
       0.24380144 0.39009094 -0.4013952 0.27878118

a2c_network.mu.weight f4 [4, 64]
000000 d1 5d fc 3a c2 74 88 bc 72 24 e7 bd 9e eb d7 bc
       0.0019254034 -0.016657237 -0.11286248 -0.026357468
000010 c5 a9 8b ba 90 a9 af 3e 0d 62 03 bd 4f 93 2f bb
       -0.0010655454 0.34309053 -0.03207593 -0.0026790684
000020 68 b7 44 bd 78 b4 61 b8 c8 17 37 bf 9f 59 7e be
       -0.048026472 -5.3812255e-05 -0.7152066 -0.24838875
000030 d8 f2 03 3e a5 f3 04 bd 05 6c 92 be af db 3a 3b
       0.12885606 -0.03245892 -0.28598037 0.002851229
000040 da f8 48 3d 02 31 1c 3b 9d 2b bf bc 11 16 20 3e
       0.04906545 0.0023832922 -0.023336226 0.15633418
000050 ca f2 e0 3c c0 b5 5a 3d 37 ff 17 3d 3e 24 65 bb
       0.02745952 0.053395987 0.037108626 -0.003496423
000060 9a a5 8c 3b 7e 4c 40 bd d7 39 84 3a 6d 5d c2 3b
       0.004292202 -0.04694795 0.0010088038 0.0059315474
000070 0f 64 c8 3d 75 e7 74 3d 3c 26 d1 bd 99 84 cd 39
       0.0978471 0.059791047 -0.10212371 0.0003919944
000080 56 59 1a ba c7 26 1d 37 70 6a b4 ba 4a 7b 38 3d
       -0.0005887946 9.366958e-06 -0.0013764631 0.045039453
000090 b9 f4 51 bd 41 fd 7b 3c 1d 7b 6d 3b 16 b3 11 bd
       -0.051258776 0.015380205 0.0036236711 -0.03557118
0000a0 cf af b0 bd 86 aa 49 bd 92 6b bd 3d 86 17 00 3d
       -0.08627283 -0.04923489 0.09249033 0.031272434
0000b0 59 e9 f2 b9 36 3e ec 3e 24 b1 8c 3d a3 4b 92 39
       -0.00046331694 0.46141213 0.068697244 0.00027903644
0000c0 e9 4f 02 bd 46 78 39 3a 13 90 ce be 80 32 6d b8
       -0.03181449 0.0007075112 -0.40344295 -5.6552235e-05
0000d0 82 97 7c 3e a9 26 e8 b5 9b ba 84 3a 05 20 13 3e
       0.2466717 -1.7296599e-06 0.0010126414 0.14367683
0000e0 28 c1 b2 3a 14 c4 3e 3e 5c d7 69 3d 3c f7 87 3d
       0.0013637887 0.18629485 0.05709015 0.06638953
0000f0 79 6c a7 3d 7d 44 20 3d 18 b6 b0 3d e0 79 86 3a
       0.081749864 0.039127816 0.086284816 0.001025971
000100 4e 95 d7 ba 7f ba 62 3e 62 ba 66 bc 12 67 b7 3b
       -0.0016447695 0.22141455 -0.014082523 0.0055970037
000110 99 d9 13 bb 31 dd e9 3d 35 7f 43 3e 1f 8d cc 39
       -0.0022560118 0.11419142 0.19091494 0.00039015056
000120 65 b0 85 3d aa 3f 18 bb 0c 3c 86 be 2c f9 61 3e
       0.06527785 -0.0023231306 -0.26217687 0.22067708
000130 91 50 44 3e ed 11 1c be 07 94 6d 3e 03 d4 a0 ba
       0.19171359 -0.15241213 0.23200999 -0.0012270216
000140 11 36 2e bc 3e dc 81 3a bc be 89 3a 2b bb 7d bd
       -0.010633008 0.0009907556 0.0010509114 -0.061946075
000150 aa 6b db bd ae 8f a4 3d 6e 39 c4 bc b5 a8 55 3e
       -0.10713895 0.08035217 -0.023953166 0.20865138
000160 93 36 53 39 7a 04 19 3b a8 1f 30 39 43 eb 4e bb
       0.00020142859 0.0023348616 0.00016796461 -0.0031573332
000170 a6 ef 78 bd 54 06 03 bc a1 61 31 be f4 5e e5 37
       -0.06077542 -0.007997114 -0.17322399 2.7343143e-05
000180 6f 14 4a 3a b2 78 b6 3a f2 d7 71 ba 3b cb 18 bc
       0.00077087333 0.0013921468 -0.0009225599 -0.009325798
000190 d9 f3 54 bf f3 64 35 bf 7a 54 e5 3a 90 1f 2e bc
       -0.8318458 -0.7085716 0.001749649 -0.010627642
0001a0 23 5f d5 3d 42 2c da 3c 29 46 95 3d d3 56 02 3e
       0.104185365 0.026632432 0.072887726 0.12728433
0001b0 e6 2d 5f ba b2 1f 72 bd 05 a6 6b 3d f4 de 7e 3d
       -0.00085136143 -0.05911226 0.057531375 0.062224343
0001c0 6a 51 ce 3d 75 45 aa ba c7 14 a6 bd f4 98 a0 3a
       0.10074122 -0.001299067 -0.08109432 0.0012252615
0001d0 f3 1b 01 3d 2c 5b 53 ba 67 67 fa 3a ac 9c 6f bc
       0.031520795 -0.0008062597 0.0019104303 -0.014624756
0001e0 02 31 92 3e 53 64 76 3b f5 df 94 bc 0e 89 6f bc
       0.28553015 0.003759642 -0.018173197 -0.014620079
0001f0 f8 e3 cc be 3e 23 b2 bb d3 81 f8 bd 6d 4b 1c bb
       -0.40017676 -0.00543633 -0.12134137 -0.0023848668
000200 63 e4 ae bb f3 fe 0c bd cb be 2b bd 28 35 83 bb
       -0.0053372844 -0.034422826 -0.04193 -0.0040041395
000210 fb 9d 9e 3d 43 1b 14 3d 2a 31 e1 3c f5 39 5f 3d
       0.07744976 0.03615881 0.027489264 0.05449863
000220 3f 82 f5 bd 2f 47 84 bd a0 c5 07 3c 20 9b a4 bc
       -0.11987733 -0.0645889 0.008286864 -0.0200935
000230 38 d5 11 3e 48 c9 d0 3d f6 a1 fd bd cf 9d 7c bd
       0.14241493 0.10194641 -0.12384407 -0.061673936
000240 15 72 47 3d e4 3c 58 bd 00 87 ba 3c 70 72 32 3e
       0.04869278 -0.052792445 0.022769451 0.17426467
000250 66 e6 f4 bd 03 56 3e bc 7a 56 7c 3d 5a 96 cb 3d
       -0.119580075 -0.0116171865 0.061605908 0.09940787
000260 2a e8 fe bd 7e cc 3b 3c c0 db de 3d cc 58 42 3c
       -0.124466255 0.011462329 0.10881758 0.011861991
000270 80 60 09 3d 7e ea 05 3d 8c 50 c4 3c 25 06 5a 3d
       0.033539295 0.032694332 0.023964189 0.053228516
000280 b5 88 61 3d 46 e1 8c 3d da 73 c6 3d 84 47 ea bc
       0.055062015 0.06878905 0.09690066 -0.028598554
000290 d6 94 44 bc 17 f6 60 bc 5a 5b d8 3d 2a 40 b9 b8
       -0.011998376 -0.013730547 0.10564299 -8.833439e-05
0002a0 b3 10 1d be b2 e3 0c bd 26 a6 d6 3b 2e d2 da bc
       -0.15338401 -0.034396835 0.006550568 -0.02671155
0002b0 ac 16 2b 3b 4c 27 f7 3c f1 86 22 ba b7 17 81 3d
       0.0026106043 0.030170105 -0.00061999174 0.06303351
0002c0 95 22 18 3b 04 b8 a9 3d 5a 31 e5 bc 46 47 54 bd
       0.0023213972 0.08287051 -0.027977634 -0.051825784
0002d0 c0 60 43 3d e4 83 25 bd 4a e5 6f bc c2 48 ac 3d
       0.04769969 -0.040408984 -0.014642069 0.08412315
0002e0 88 a1 72 be 7c 35 96 3d 6e ff a4 bd c3 05 db 3d
       -0.23694432 0.0733442 -0.08056532 0.10694458
0002f0 5f 5d 9c bd 65 92 cd 3d 08 ea 98 3d 7b 5d b2 3b
       -0.076349966 0.10037688 0.07466513 0.0054432726
000300 0e b2 13 3e 7d e6 bd bb 00 c0 2c 3c e4 56 18 bd
       0.14423391 -0.0057952986 0.010543823 -0.03719224
000310 79 61 df bd 7c 6a fa bc a0 0d 49 3d 78 a7 07 be
       -0.10907263 -0.030568354 0.04908526 -0.13247478
000320 ff a9 a8 3d bc b3 a4 3d 2a 4f 69 bc 15 b7 63 bb
       0.08235549 0.08042094 -0.014240066 -0.0034746577
000330 ef 24 f4 3d 01 0a 68 3d a0 a2 94 ba b7 58 02 3e
       0.11921107 0.056650165 -0.001133997 0.12729155
000340 c1 1a ab 3d d6 69 9d 3d e3 82 cf 3d ec c3 92 3d
       0.08354712 0.07686202 0.101323865 0.071662754
000350 2e a4 44 3e ea 6e 72 bc 4d d9 c1 3d eb 68 4b 3d
       0.19203255 -0.014796952 0.09465275 0.049660604
000360 eb 09 ca 3d 0a 32 11 3e d4 54 e9 3c 2c 0b b9 3b
       0.09865173 0.14179245 0.028482832 0.0056470837
000370 f3 d3 8d 3c 27 c4 35 3c d9 da 47 bd ac e3 c4 bd
       0.01731298 0.01109413 -0.048792694 -0.096137375
000380 0a 44 9c 3d 02 dc 53 3d 15 dc 0b bd d6 6b ae bd
       0.07630165 0.051723488 -0.034145433 -0.08516662
000390 9f 84 bd 3a f3 cf fb bc 28 27 93 bc b8 8c 27 3d
       0.001445908 -0.030738806 -0.017963007 0.040905684
0003a0 6e c4 b9 bd d3 ff 3a 3d 2f 4b b5 bc 22 9d c1 3b
       -0.09070669 0.04565413 -0.022130577 0.0059086243
0003b0 c7 22 02 be c1 05 2b 3d 51 fc 26 3c a2 72 b5 bd
       -0.12708579 0.041753534 0.010191993 -0.08859755
0003c0 f6 0e 03 3c 9d 9c ce bd f6 c4 34 3d 7c 18 84 bd
       0.007999172 -0.10088465 0.04413315 -0.064499825
0003d0 af 07 ce bc d4 86 0b be 13 b3 e6 3d 2b bb ea 39
       -0.025150148 -0.13625652 0.112646244 0.0004477141
0003e0 be 57 0d be cc 6e 29 3c a5 3b c5 bc 11 41 17 3d
       -0.13803002 0.010341357 -0.024076292 0.036927287
0003f0 a6 ac d0 bc 25 ff b4 ba 73 c7 ea 3c 18 68 f5 bd
       -0.02547295 -0.0013808949 0.028659558 -0.11982745

a2c_network.mu.bias f4 [4]
000000 19 1f d5 3c c4 a4 80 bd 3b 5b b9 3c 4a 07 2f bd
       0.026015805 -0.062814265 0.02262651 -0.04273156

exp_avg f4 [4]
000000 44 12 e4 b9 43 2e 07 bb 50 34 a6 ba 12 08 cd 37
       -0.00043501158 -0.002062694 -0.0012680385 2.4441662e-05

exp_avg_sq f4 [4]
000000 34 79 f4 36 62 e9 1b 37 03 19 a5 36 3a 23 ac 36
       7.2858766e-06 9.293059e-06 4.920295e-06 5.1301004e-06
