logs/rl_games/klask/sim_distance_sp_a0_2/nn/klask.pth (torch, 74138 bytes, 24 tensors)

a2c_network.sigma f4 [4]
000000 ae 20 46 c0 1d 6a 73 c0 6b 67 00 bf c8 50 c4 be
       -3.0957446 -3.8033516 -0.50157803 -0.3834288

a2c_network.actor_mlp.0.weight f4 [64, 12]
000000 3f 7e e2 be dc 39 85 3c 3e a2 53 be 62 e7 f9 3e
       -0.44236943 0.016262941 -0.20667359 0.48809344
000010 72 7a 4a 3f c5 b5 23 be a3 59 24 bf c6 a9 53 3d
       0.79093087 -0.15987308 -0.64199275 0.05167558
000020 75 c5 39 bf e7 ca 05 3f 7c dd fd bd 27 ab e7 3f
       -0.7256692 0.5226273 -0.123957604 1.8099107
000030 53 d4 d5 bf 3e 23 9d bf f2 eb a0 bd 44 8f e5 bd
       -1.6705421 -1.227638 -0.07857503 -0.112089664
000040 1d 5b 74 be 31 9b 3e bd b8 aa d6 ba 7a 25 bc bd
       -0.23862882 -0.04653472 -0.0016377782 -0.091868356
000050 d8 f5 05 40 2b 2d 97 3f 59 a7 97 3b b5 1a 81 be
       2.09313 1.1810659 0.0046281037 -0.25215688
000060 61 18 8d bf 92 41 93 3f 0a 7d 8d bc 41 1c 72 bb
       -1.1023065 1.1504385 -0.017271537 -0.003694311
000070 91 74 4d be 76 a5 94 bd 40 53 75 3d 3e de 16 bc
       -0.20063998 -0.07258122 0.059893847 -0.00920826
000080 ae bc 61 bf 4d a0 df bf 03 67 9f bd b5 55 8d 3d
       -0.8817853 -1.7470795 -0.0778332 0.06901113
000090 a8 48 81 3f 53 3a b4 be a3 88 42 be 07 fa 43 be
       1.0100298 -0.35200748 -0.18997435 -0.19138347
0000a0 68 98 b3 be f3 55 f4 3e 90 47 8e 3e 14 c4 0b 3e
       -0.35077214 0.47721824 0.27788973 0.13649017
0000b0 fc 02 da bd 06 5d 88 3f 49 5b 0c 3f 47 ac 1f 3e
       -0.106451005 1.0653389 0.5482679 0.15593062
0000c0 62 28 39 3c 5d 9d 2d bf d1 cc 7f 3d 3b 41 d9 bc
       0.011301132 -0.6781824 0.062451188 -0.026520362
0000d0 ed 03 61 bf dd 17 67 be af f6 fd 3c eb eb ac 3d
       -0.87896615 -0.22567697 0.031001417 0.08443435
0000e0 c2 c1 0c c0 62 5c a5 bf d4 9c bc bd 24 9d fc 3d
       -2.199326 -1.2918818 -0.092096 0.1233466
0000f0 89 81 8e 3f a6 7a ba be 97 65 50 3e 67 7a 18 be
       1.1133281 -0.36421698 0.20351253 -0.14890443
000100 12 67 c6 be b5 3d bd bd 20 89 90 be b0 83 f3 3b
       -0.3875051 -0.09240285 -0.28229618 0.00743147
000110 75 2d 52 bf 98 3b cd bf 47 84 9a bd c4 2d b2 3e
       -0.8210061 -1.6033812 -0.07544761 0.3480054
000120 3b f8 70 3f 76 72 42 bf 57 07 29 be d2 18 92 bc
       0.9412877 -0.75955904 -0.16506706 -0.0178341
000130 25 aa 70 3e 0b 12 50 3f 40 89 66 3c e1 38 05 be
       0.23502405 0.8127753 0.014070809 -0.13009979
000140 c7 a8 39 40 96 56 88 3f 62 2b 3f be de 04 c9 be
       2.9009264 1.0651424 -0.18668893 -0.39261526
000150 06 92 9b be 47 19 a6 bd 15 f7 01 bf 73 50 aa be
       -0.30384845 -0.0811029 -0.5076764 -0.33264503
000160 bc 4d 2c be 84 da 2d be df 31 43 be 71 9b 89 3e
       -0.16826528 -0.16977888 -0.19061993 0.26876405
000170 03 a5 26 c0 29 ed 03 c0 cf 3f 55 bf 55 86 f7 bf
       -2.6038215 -2.06135 -0.8330049 -1.933787
000180 45 53 4e bf dd 1a 08 bf 02 4d 8e bd e6 54 5a 3e
       -0.8059581 -0.5316599 -0.06948282 0.21321449
000190 e9 6d ac bf 30 84 ef be 78 8b da bc 79 7e 8b be
       -1.3471042 -0.4678054 -0.026677832 -0.27244928
0001a0 06 48 01 bf 5e fb 09 c0 4c e6 8e be 85 1e 49 bf
       -0.50500524 -2.1559672 -0.27910078 -0.78562194
0001b0 ca 6f f8 be d7 4c 0e bf a3 56 08 3e 0e 1c 53 bd
       -0.48522788 -0.55586 0.133143 -0.051540427
0001c0 4e c7 bc bf 55 84 e3 be 34 00 0e be 9c 7b 64 be
       -1.4748323 -0.444369 -0.13867265 -0.22312778
0001d0 be 36 86 3f e7 6e f6 bf 34 48 73 3f 5f 84 55 be
       1.0485456 -1.9252595 0.9503205 -0.20851277
0001e0 d7 05 ad bf 10 e6 2a 3e 21 91 c4 3c d7 d4 7e 3e
       -1.3517407 0.16689324 0.023994984 0.2488588
0001f0 87 14 fb be 88 10 82 be 1d 3e 52 3c e8 c4 20 3e
       -0.490391 -0.25403237 0.012832192 0.15700114
000200 4b d5 a1 3f 0f 60 26 c0 3d da 2a 3d 9e 19 65 be
       1.2643217 -2.599613 0.041712034 -0.22373053
000210 68 60 49 bf 73 de 03 bc de 6c c3 bd b4 8e 02 3e
       -0.7866273 -0.0080486415 -0.09542249 0.1274975
000220 a8 06 54 bf 6f 6e a1 be 1a 51 be 3c 5b d4 14 be
       -0.82822657 -0.31529567 0.023232032 -0.14534132
000230 6d a4 9f 3f 47 ab d4 bf 9d 7c 98 3e c8 12 8c be
       1.2472054 -1.661477 0.29782572 -0.2735808
000240 20 58 7a bd 27 ad 00 3f fa 2f 69 be 31 89 c7 bc
       -0.0611192 0.5026421 -0.22772208 -0.02435741
000250 d5 b2 6b bf 14 72 d8 bd 43 13 cc bd 87 63 dc 3d
       -0.9206975 -0.10568634 -0.099646114 0.10761171
000260 dc 82 4f 3f ea 16 26 c0 69 d0 91 be 8b 99 02 3f
       0.8105905 -2.5951486 -0.28479317 0.5101554
000270 f8 2a 1f 3f b4 0f e8 be 93 19 eb 3d 7e 52 6b be
       0.6217494 -0.4532448 0.11479487 -0.22980687
000280 2d 18 7a be 64 93 67 be 97 bc 97 3d 30 db 42 3d
       -0.24423285 -0.22614819 0.074090175 0.047572315
000290 5e cf f5 bf 55 37 5d 3f 52 dd 2c 3e 01 3e 4b bf
       -1.9203908 0.86412555 0.16881302 -0.79391485
0002a0 34 ee 20 c0 6e ca 08 3f 91 50 97 3e 4e ce 7f be
       -2.5145388 0.53433883 0.29553655 -0.24981043
0002b0 3d 87 b1 bf df bd 00 bf ae e5 13 be 67 f1 46 3e
       -1.3869396 -0.5028972 -0.14443085 0.19428025
0002c0 11 04 44 c0 97 f7 ff bf fa e6 9c be e1 5a 4c bd
       -3.0627482 -1.9997433 -0.3064497 -0.049891356
0002d0 23 00 a9 3f 9c d1 77 3f 4b 8c c0 3d af e3 04 be
       1.3203167 0.96804214 0.09401759 -0.1297748
0002e0 fb 50 02 3f 7d aa fd bd c1 04 47 3c c7 91 f8 bc
       0.50904816 -0.12386034 0.0121471295 -0.03034295
0002f0 56 15 e8 bf 9a 8d a1 bf 0e a6 f6 3d 81 7d 64 3e
       -1.8131511 -1.2621338 0.12043391 0.22313501
000300 52 85 3c bf 18 a1 57 bf c2 d3 e9 3d ef af b8 3d
       -0.7364093 -0.84230185 0.11417343 0.09017932
000310 27 9f d9 bf b7 21 af be 15 4e 7a 3e 88 69 22 be
       -1.7001694 -0.3420541 0.24443848 -0.1586057
000320 7f 97 23 c0 89 e4 40 3f 38 a9 f5 3d 42 9c 77 3f
       -2.5561216 0.75348717 0.119951665 0.96722806
000330 14 ac 93 be 9d f8 1d bf 9e 75 5d 3d 10 c3 17 3f
       -0.28842223 -0.6170748 0.054067247 0.59282017
000340 17 2a 9b 3e f7 50 97 3d 7f 29 b1 bd f7 72 c9 3d
       0.3030555 0.0738849 -0.08650493 0.09836381
000350 04 ef ee bd 97 f8 f8 3f 15 04 5d 3f 6e 00 1c 3f
       -0.11666682 1.9450864 0.86334354 0.60938156
000360 7f 54 40 c0 12 07 b9 be b1 64 2c be 27 c1 05 bf
       -3.0051572 -0.36138207 -0.16835286 -0.5224785
000370 65 6b d5 bf aa 33 33 be 38 dc de 3c f8 b0 18 bd
       -1.6673399 -0.17500177 0.027204618 -0.037278146
000380 29 04 40 c0 43 7c c4 bf 50 cf 8c bf f1 25 d1 bf
       -3.000254 -1.5350422 -1.1000767 -1.6339704
000390 18 6d 6a 3f 57 30 90 bf 44 54 9c bd a5 d9 37 3d
       0.91572714 -1.1264752 -0.0763326 0.044885296
0003a0 88 ce f3 be 2e 69 3c bc ff b4 99 bd da 0a 8a 3d
       -0.47618508 -0.011499686 -0.075052254 0.06740351
0003b0 8f e6 a0 bc 6c 43 89 3f ee f4 b5 bd 95 f3 96 be
       -0.019641189 1.07237 -0.08884607 -0.29482713
0003c0 38 86 2a 3f 91 58 59 bf 08 2c 4e 3e 3d c8 32 bd
       0.6661105 -0.84900767 0.20133984 -0.043647993
0003d0 a4 66 53 3f 7f dd 07 bf b5 1c 56 3d 2e cf 6e 3e
       0.8257849 -0.5307235 0.05227347 0.2332122
0003e0 d8 66 a1 3f bd 8c 1e c0 65 c3 9a 3f 20 2c 84 bf
       1.260951 -2.47734 1.209088 -1.0325966
0003f0 fe 5a 65 3f 05 71 cb bc 63 41 34 3e c0 79 26 3e
       0.8959197 -0.024834165 0.17603068 0.16257381

a2c_network.actor_mlp.0.bias f4 [64]
000000 7d ea 04 be be 4e ce 3e b3 5e 78 3c b5 20 6d be
       -0.12980075 0.4029445 0.015159297 -0.23157008
000010 95 7c a6 be ff dd 09 bf 35 55 c6 3e b7 07 5b be
       -0.32516924 -0.53854364 0.38736883 -0.21389662
000020 45 0c 4d 3d 6e f3 30 be c7 48 57 3e a0 db e0 be
       0.05006053 -0.17280361 0.21023856 -0.4391756
000030 06 a9 ce be 0f a3 37 be 7a 31 d2 bb 27 83 d7 3c
       -0.4036333 -0.17933296 -0.0064145895 0.026307655
000040 7c ec be be ee a2 a7 3e ac 04 04 bf 4e 39 f9 3d
       -0.37289798 0.32741493 -0.5156963 0.12169133
000050 45 ae db bc ee 91 12 3f 22 b6 ef be 84 ad 40 3d
       -0.026816497 0.5725392 -0.46818644 0.047040477
000060 7b a5 20 be fd 57 a1 3e b7 44 cc be 05 ed 09 bd
       -0.15688126 0.31512442 -0.39896175 -0.033673305
000070 50 09 8a bc e0 60 3e 3d fb 39 c2 3a 64 fb b1 3e
       -0.016850144 0.046479106 0.0014818305 0.34762108
000080 73 f3 ab 3d 36 35 e5 3e ba 51 90 be b6 78 97 3e
       0.08396044 0.4476716 -0.28187352 0.29584283
000090 f8 b1 0d be 88 0e 39 be 42 14 87 3e d8 c2 1b 3f
       -0.13837421 -0.1807195 0.26382643 0.6084418
0000a0 8e 32 dc be ee be 81 3e a6 31 ba be 5f 64 9a 3d
       -0.4300732 0.2534098 -0.36366004 0.075386755
0000b0 45 2c e1 3e 70 62 56 3b 11 46 a6 be 47 8e 91 3c
       0.43979087 0.0032712482 -0.3247533 0.017768038
0000c0 de 88 51 3c f6 b8 eb bd d7 a2 a3 3d 0e 0b 2d 3f
       0.012788979 -0.11509888 0.079900436 0.67594993
0000d0 78 b4 47 3f 2a f1 03 bf 15 12 47 be af 05 c2 bd
       0.7800975 -0.5153986 -0.19440491 -0.0947374
0000e0 f2 11 85 3e 9a 76 0c 3e ae 7d e6 be 39 bf a4 3c
       0.25990254 0.13717118 -0.4501776 0.020110713
0000f0 f9 af 08 3f b9 b4 6e 3e 60 44 b9 be 53 db 13 3f
       0.5339351 0.23311128 -0.36184978 0.5775654

a2c_network.actor_mlp.2.weight f4 [64, 64]
000000 da f1 c7 3d f3 bc 67 be 2a b3 e5 3f ff 2a 84 bf
       0.097629264 -0.22630672 1.7945302 -1.0325621
000010 3b 46 02 3e 70 f9 a0 bd 6d fc ad bd c3 cc d7 3e
       0.12722103 -0.078600764 -0.08495412 0.42148408
000020 d5 db fe 3e 4a ec 32 3f 70 c1 89 3f 97 d8 c8 3e
       0.49777094 0.698918 1.0762157 0.39227745
000030 05 48 33 3f 89 c2 56 bf e2 8e 91 3f df bf a9 3f
       0.7003177 -0.8389059 1.1371729 1.326168
000040 ad 73 36 bf 6c bf 27 bf f9 a9 06 3f 46 85 14 bf
       -0.7127026 -0.6552646 0.5260311 -0.5801586
000050 98 fa 03 3f a7 53 23 3f f0 2d 8d 3f d0 8e 90 be
       0.5155425 0.6379952 1.1029644 -0.28233957
000060 9b cf c0 3e 3f 4b 27 3f 21 e0 d6 3d 00 5c 95 3f
       0.3765839 0.6534919 0.10491968 1.1668701
000070 08 d6 a6 3f 83 2e de bd 3a 05 4d bd 45 1a 82 3c
       1.3034067 -0.10848715 -0.050053813 0.015881667
000080 49 66 42 3f 8c ec 28 3e a4 9d 18 be 1f 21 9c be
       0.75937325 0.16496485 -0.14903885 -0.3049402
000090 54 d6 a2 bf 1f e9 8e 3e 84 3b 18 3f 11 49 2a 3e
       -1.2721658 0.27912232 0.59465814 0.16629435
0000a0 f5 32 25 3e 38 a8 75 3f 24 5b 65 3f 64 64 09 be
       0.1613272 0.95959806 0.89592195 -0.13417202
0000b0 76 dd 69 be 9c e2 21 bf 36 df 58 bf 23 5d 45 bc
       -0.22838387 -0.63236403 -0.8471559 -0.012046131
0000c0 56 0a 3d 3f 0a 02 3d bf 8e fa 2d 3f de b7 06 bf
       0.73843896 -0.73831236 0.6796044 -0.5262431
0000d0 17 d8 d8 3e 45 72 3b 3f 57 86 87 3f 25 f2 de be
       0.42352363 0.73221236 1.0587872 -0.43544117
0000e0 f8 84 bb be 2a 48 19 3f c6 4a 7e 3f ec 4d 1f 3f
       -0.36624885 0.5987574 0.99332845 0.62228274
0000f0 2d 33 9d 3e 39 1d 92 bf a6 b5 5c bf 92 ae cb 3f
       0.30703107 -1.1415168 -0.86214674 1.591265
000100 0f 23 ae 3e 9e ef b3 3e aa bd b1 bf 8b 98 7b 3f
       0.34011123 0.3514375 -1.3886006 0.9827964
000110 21 fe 93 be b5 a7 c2 3e e5 56 7f 3e f2 60 38 be
       -0.28904822 0.38018575 0.24935491 -0.18005732
000120 6d 82 c0 be 78 44 39 3e 3c ff be be f0 f7 13 3f
       -0.37599507 0.18092525 -0.37304103 0.578002
000130 01 cd d5 be f1 d7 25 3d 5c 5d ae bf 5f 42 6a bf
       -0.41757968 0.04048914 -1.3622241 -0.91507524
000140 96 1d 4b 3f e9 13 d6 3e d7 cb 94 bd a7 6a 99 bb
       0.7934202 0.41812065 -0.07265442 -0.0046819034
000150 76 7d 1e 3f d1 bf 92 bf 40 a0 45 bf c9 ca c5 bf
       0.6191019 -1.1464788 -0.7719765 -1.545251
000160 5d ec 2f bf 34 35 b1 be a9 0e 6d 3d 30 79 62 bf
       -0.68720037 -0.34610903 0.05787531 -0.8846617
000170 7f 98 52 3a 55 d0 05 3f d7 e9 36 3f 15 f2 a4 3e
       0.0008033588 0.52271014 0.7145056 0.32215944
000180 fd b0 ff be d3 f2 c0 be a7 92 69 3e 72 1c 69 3d
       -0.4993972 -0.3768526 0.2280985 0.056911893
000190 4b a0 95 3f 52 de cb bd 57 0e cb bf 97 48 ae bc
       1.1689543 -0.099545136 -1.5863751 -0.021274848
0001a0 3d 11 06 bf c6 4f 8e bf 07 f7 b9 be e7 b7 ca bf
       -0.52370054 -1.1118095 -0.3632128 -1.5837373
0001b0 4d 5e ff 3e 89 6d 3e 3f a3 15 b4 3f 80 2e 49 3e
       0.49876633 0.7438589 1.4069103 0.19646645
0001c0 68 b2 8f be 56 76 f4 3d a8 da 8b be 63 0d 31 3f
       -0.280658 0.11936633 -0.2731526 0.6916105
0001d0 36 57 32 bf a8 b2 cd be 05 77 5d bf e5 71 74 3e
       -0.69664323 -0.40175366 -0.86509734 0.23871572
0001e0 04 a5 83 be 89 00 a4 39 6f c9 a4 be 7e e1 8c bc
       -0.25711834 0.00031280916 -0.32184932 -0.017197367
0001f0 05 e1 b0 3d 7b ce 77 3f 82 69 90 3e 95 28 9c bf
       0.08636669 0.9679944 0.28205496 -1.2199885
000200 75 d5 84 be 03 23 27 bf 58 2e 27 3f 43 a9 79 be
       -0.25944105 -0.652878 0.6530509 -0.24380974
000210 13 47 83 3e ec a3 2a 3f bd 0b 39 3e bd 37 e0 be
       0.25640163 0.66656375 0.18070884 -0.43792525
000220 34 30 46 3e 86 e1 61 be dd 68 77 bd 26 7b ed bb
       0.19354326 -0.22058687 -0.06040274 -0.0072473465
000230 dd eb 81 3e 21 d7 f0 be d1 1c 87 be 33 78 80 3f
       0.25375262 -0.4703913 -0.26389173 1.0036682
000240 60 54 87 bf ba 58 c0 be fa 9a 8b bf 4a 85 87 be
       -1.0572624 -0.37567693 -1.090667 -0.2646888
000250 bd 08 f8 bd 8f cd cc 3d 6b 2d c4 bf 5b ea 2e 3f
       -0.12111042 0.10000145 -1.532636 0.6832635
000260 20 f6 fb 3e 5c 8e ff 3d bc b5 1b bf 4f 8f 5e 3c
       0.49211216 0.12478325 -0.6082418 0.013583972
000270 46 18 fa be 26 4b 26 bf 92 79 5a bf d4 ed 97 be
       -0.48846644 -0.6495842 -0.8534175 -0.29673636
000280 44 46 07 3d 34 dd e5 bc 41 47 7a bf a7 8e 43 bf
       0.033025995 -0.02805958 -0.97764975 -0.76389545
000290 69 4d 6c bf 2e 84 69 3f 5e 06 04 3f e1 7d e8 be
       -0.9230562 0.91217315 0.51572216 -0.45408538
0002a0 4b 75 a7 3e 62 b3 39 3e c8 19 ef 3e 4c 4f b5 3e
       0.32706675 0.18134835 0.46699357 0.3541206
0002b0 09 bf 3d bf 4a 55 a5 be 2d 40 d7 be 68 2b 2d bf
       -0.7411962 -0.32291633 -0.4204115 -0.6764436
0002c0 b2 9b c8 be 96 bc d0 be 61 2d f8 bd 1a a6 7d be
       -0.39181286 -0.4076888 -0.1211803 -0.24770394
0002d0 43 f3 e0 3d e6 10 58 3f c2 18 1d 3f df 12 32 bc
       0.109838985 0.84400785 0.613659 -0.010868757
0002e0 88 f8 d5 bf 5c 0b 31 be 67 f2 1e 3f 6d 6c fe 3d
       -1.6716471 -0.1728949 0.62088627 0.12423024
0002f0 4b fe cb bd c4 09 6a 3e 91 1a e2 bd 0c 89 dc 3e
       -0.09960612 0.22855288 -0.110402234 0.43073308
000300 a2 3d 88 3e cf d9 0e 3f e5 21 3a be 67 5b de be
       0.26609522 0.558011 -0.18176992 -0.4342911
000310 41 99 6f bc 27 6a 23 be c6 96 cf 3d 14 d3 35 3e
       -0.014623941 -0.15958463 0.101361796 0.17756301
000320 51 1b 57 3e 40 fa fd 3b 70 ae 90 3e 95 9e 8e be
       0.21006514 0.0077507794 0.28258085 -0.27855363
000330 28 4e 86 3d 5c a2 ae be ac 30 99 3e cb 66 ca be
       0.06557876 -0.34108245 0.29919946 -0.3953155
000340 55 69 f5 3d 48 dd 4e 3e e5 a2 69 3e d2 0f f0 3d
       0.11982981 0.202016 0.22816046 0.117217675
000350 fa a9 3b 3e 1d 21 d1 bd 75 f7 ea 3e 12 56 00 be
       0.1832656 -0.10211394 0.4589192 -0.12532833
000360 d7 05 d6 be d6 43 1c 3d 2a b9 fe 3d b8 a1 3d 3d
       -0.4180133 0.03815063 0.12437661 0.046296805
000370 09 b2 5b 3d 96 04 a9 3e 18 5a 91 3e 45 34 ca bd
       0.053636584 0.3301131 0.2838905 -0.09873251
000380 5c 84 9c 3e 35 db 74 3e de 4d 82 3c a5 a4 eb 3e
       0.30569732 0.23911746 0.01590627 0.4602405
000390 42 3f 82 bd cb d3 d1 be 25 18 a1 bd 3c 07 19 3f
       -0.06359722 -0.40981898 -0.07865933 0.59776664
0003a0 6a ac a0 be 50 fe 7b 3e da 52 e4 3d e0 52 54 bc
       -0.31381541 0.24608731 0.11148615 -0.012959212
0003b0 ec b7 c6 3e 04 1b 03 bf 1a b0 fe be a9 65 6a 3e
       0.38812196 -0.512131 -0.4974373 0.22890343
0003c0 df 38 a1 3d c4 2b d7 be e8 84 e4 3d 71 8d 50 bd
       0.078721754 -0.42025578 0.11158162 -0.05091614
0003d0 fd f3 32 3e 15 09 06 be 3c ed 4d bd fe 57 85 be
       0.17475887 -0.13089402 -0.050275072 -0.26043695
0003e0 d5 70 bf 3e 01 51 ba 3e 5d 6a 32 3d c9 12 17 be
       0.37390772 0.36389926 0.043558467 -0.1475326
0003f0 41 d3 8b 3e 7a ae 8e be cf 5d ce be 5b 18 eb 3c
       0.2730961 -0.2786749 -0.40305945 0.028698137

a2c_network.actor_mlp.2.bias f4 [64]
000000 62 6e 04 3f 3a a8 da be cd f7 c7 bc eb d1 ef 3e
       0.5173093 -0.42706472 -0.024410153 0.46839842
000010 e6 b2 d3 3d 84 52 d4 3d 0e f3 83 bd 5a 49 5f 3e
       0.103368565 0.10367301 -0.064428434 0.21805325
000020 f0 01 22 3c 9e 9d 8a bd 8c de 65 be c0 28 96 bd
       0.009888157 -0.06768344 -0.22448176 -0.07331991
000030 c4 d9 30 bd a2 a9 2e bd 28 e9 3e be 33 75 44 3d
       -0.043176427 -0.042642243 -0.1864363 0.047963332
000040 bf 92 c9 3e 4c ca bf 3e f3 be 9c be f7 cf f1 be
       0.3936977 0.37459028 -0.30614433 -0.47228977
000050 dc f2 42 bd 04 8d 21 3e 26 91 ca bc f1 94 d1 bd
       -0.04759489 0.1577645 -0.024727415 -0.102334864
000060 c9 ff ae be 32 cc 0e bf 6b 38 86 3d a8 fb 6a 3e
       -0.34179524 -0.5578033 0.065537296 0.22947562
000070 63 31 44 be 80 40 fe ba 55 ce 98 be 84 64 38 bd
       -0.19159465 -0.0019397885 -0.2984492 -0.045017734
000080 6d a0 8c be 29 f8 a8 3e de 14 d1 be 38 cf 08 bd
       -0.27466145 0.3300183 -0.40836233 -0.033400744
000090 4b f7 35 bf cb 8e b6 3e e3 9a 31 be 7a 85 61 be
       -0.71080464 0.35655817 -0.17344241 -0.22023574
0000a0 c1 40 b3 3e d2 f0 f7 bd 5d 18 78 be fd 83 38 be
       0.3501034 -0.1210648 -0.24228044 -0.180191
0000b0 10 2f a2 bd d2 69 a7 be b7 99 08 bf da 0a 04 3f
       -0.07919133 -0.32697922 -0.5335955 0.5157906
0000c0 62 72 fa bd 58 e3 3d be 94 e9 44 3e dd 62 fc 3e
       -0.12228848 -0.18543756 0.19229728 0.49294177
0000d0 39 79 85 be d1 3b e0 3e df f8 22 3d e8 16 00 be
       -0.26069048 0.43795636 0.039788123 -0.12508738
0000e0 43 48 ba bd b8 d3 44 be cf dc aa 3c 4f 86 04 3f
       -0.09095814 -0.1922139 0.020857243 0.5176744
0000f0 e7 55 32 3e d8 bd e5 3e 31 66 8b be 05 c8 b2 bd
       0.17415582 0.44871402 -0.27226403 -0.08729557

a2c_network.value.weight f4 [1, 64]
000000 11 b5 85 3f 7e a6 95 bf 2e 63 ee bf 32 71 14 3f
       1.0445882 -1.1691434 -1.8624017 0.5798522
000010 1e 93 c0 bf 2b 7b e6 bf 58 82 bb bf 64 3b 97 3e
       -1.5044897 -1.8006338 -1.4649153 0.295375
000020 0e 0a 75 3f 98 c6 16 bf 31 1b bd bf d7 a0 7d bf
       0.9571847 -0.5889678 -1.4773923 -0.9907355
000030 34 c2 ba bf c5 71 bd bf b9 4d fa bf f0 c8 70 3e
       -1.4590516 -1.4800345 -1.9554969 0.23514152
000040 89 c9 4c 3f ae f7 8d 3f 66 b6 1e bf 60 4f 3a bf
       0.7999502 1.1091211 -0.6199707 -0.72777367
000050 63 46 36 bf 62 da 14 3f 88 fe fe 3e ff 5e 89 be
       -0.7120115 0.58145726 0.49803567 -0.2683029
000060 88 a4 16 c0 f8 a4 8c bf 49 83 0f 3f 12 a4 b2 3e
       -2.3537922 -1.0987844 0.560597 0.348908
000070 37 15 d4 be 39 aa 6e 3f c1 1a b2 bf 5f bd cc bf
       -0.41422436 0.9322849 -1.3914415 -1.5995291
000080 0c 8c b1 bf 15 74 e4 3e 49 bd 15 bf dc 1b 8a bf
       -1.3870864 0.44619814 -0.5849195 -1.0789752
000090 88 9c 52 c0 b7 09 1d 3f 32 d1 74 bf a9 1f ae 3f
       -3.290804 0.6134295 -0.95631707 1.3603412
0000a0 97 61 94 3f 86 53 9f bf 3d ba c1 bf 76 43 7c bf
       1.1592282 -1.2447364 -1.513496 -0.9854044
0000b0 53 94 e8 bf 41 ba 69 bf d5 5c 08 c0 f9 95 d0 3f
       -1.8170265 -0.91299826 -2.130666 1.6295768
0000c0 96 bf 44 bf 80 60 64 bf db d0 9c 3f ca 7d 94 3f
       -0.76854837 -0.8920975 1.2251238 1.1600888
0000d0 6e f0 d1 bf bc 5c 0f 3f bb 07 2f bf f1 e4 bb be
       -1.6401498 0.56000876 -0.6837117 -0.36698106
0000e0 54 99 e5 bd a5 e7 0a be ac 48 01 3f 4d 4b 46 3f
       -0.11210886 -0.13564928 0.50501513 0.7745865
0000f0 e5 dd e3 3e 20 03 a7 3f 36 20 cf be f2 43 ad bf
       0.4450523 1.3047829 -0.40454262 -1.353636

a2c_network.mu.weight f4 [4, 64]
000000 67 ce 73 bd 0a 6a 1e bd 87 42 bd 3d 11 17 66 3e
       -0.059523012 -0.038675345 0.09241205 0.22469737
000010 e4 d3 eb 3c a4 63 4a 3d 82 6b b5 3d 19 5c 34 be
       0.02878756 0.04941143 0.08858396 -0.17613257
000020 44 f0 7b 3e 23 21 e9 3d 84 a2 97 3c 2a ee 49 bc
       0.24603373 0.113832735 0.01851011 -0.012324849
000030 7d 37 8b 3d 86 d7 b4 be 49 24 61 3d 6f 77 89 3b
       0.06797693 -0.3532068 0.054966245 0.004195146
000040 64 2b 29 bd c5 8f be 3d 2f 8e c7 3d 19 2d a3 3c
       -0.041301146 0.093047656 0.09743916 0.019918965
000050 07 97 a4 3c 93 81 c6 3e 9f b7 11 3e 08 a8 77 3f
       0.020091547 0.38770732 0.14230202 0.9674077
000060 15 69 0b be 96 d9 0a bd ec 7f c9 3c f1 dd 98 bd
       -0.13614304 -0.033898912 0.02459713 -0.07464207
000070 31 04 59 3d a6 d8 7f 3d 26 60 f0 ba 4b 33 16 3e
       0.052982513 0.06246247 -0.0018339201 0.14668004
000080 48 8a 7d bd 1b a1 db bd 81 23 35 3e dd 2b be bd
       -0.061899453 -0.10724088 0.17689325 -0.0928571
000090 75 59 47 be 99 de 05 be a2 b8 56 3c 56 b0 f3 bd
       -0.19467719 -0.13073196 0.013105543 -0.11898868
0000a0 24 b3 33 3d 7f d4 05 3d 9f 2c 54 3e 3e 13 c0 3e
       0.043872014 0.032673355 0.20720147 0.3751468
0000b0 bb cb 32 bd 58 a6 2e 3e 54 8d 0b 3d 1d 1d 21 3d
       -0.043651324 0.17055643 0.034070328 0.039334405
0000c0 bc 2d 79 3e 86 5c cc 3d df 61 d4 bc 12 11 34 bd
       0.24333853 0.09978585 -0.025925575 -0.043961592
0000d0 6a f5 d4 bd 7e 9f 12 3d 9a 12 ca bb 01 0c 7a bd
       -0.103983715 0.035796635 -0.0061667683 -0.061046604
0000e0 d1 db bf be d9 15 fa 3e b2 63 bb 3e e4 26 89 be
       -0.37472394 0.48844793 0.365995 -0.26787484
0000f0 3f 4a 05 bd 2e 39 33 bd 53 1a 80 3b d3 f0 93 bd
       -0.03254151 -0.043755703 0.003909388 -0.07223668
000100 ac fa 51 be 63 ee ee 3d ad 0a d4 3d 7f 5b 3d 3e
       -0.2050578 0.116665624 0.10353599 0.18491934
000110 42 61 82 bd 6f 36 a4 bb 5d 96 b6 3c 15 8c 8f 3d
       -0.06366207 -0.005011372 0.022288496 0.070091404
000120 88 4a 0a 3e b8 36 b8 3e 04 4e 23 bd d6 68 74 3e
       0.13504994 0.35979247 -0.039869323 0.23868117
000130 0d 1e 26 bd 7b fb 65 3e d0 7c 74 3e 35 99 69 3e
       -0.040556002 0.22459213 0.23875737 0.2281235
000140 5a 81 9b 3d 33 8b 98 3e 23 c3 44 be 71 da 7b be
       0.07593031 0.297937 -0.19215064 -0.24595048
000150 51 5a 49 bc 38 0f 84 3e b0 f0 cc 3e 86 33 2c 3d
       -0.0122895995 0.2579286 0.4002738 0.042041324
000160 19 2c cb 3c 42 d8 ad 3a 12 b8 ac be 78 65 8a 3d
       0.0248013 0.0013263302 -0.33734185 0.06757635
000170 cd 00 5c be 9d 34 d8 bd 6b fc dc bd 7b bd f0 bd
       -0.2148468 -0.1055691 -0.107903324 -0.117548905
000180 eb 3c 95 3d 15 b8 82 3c be 41 ce be 57 63 37 3e
       0.0728701 0.015956918 -0.40284532 0.17908989
000190 0e bd 76 be 27 ab d6 bd 34 8e 4f ba 0c 23 21 be
       -0.24095556 -0.104818635 -0.0007917613 -0.15736026
0001a0 f2 22 b9 bc 15 e0 38 3e 36 d5 a2 3d 5e e9 c2 3e
       -0.022599671 0.1805423 0.07950823 0.3806867
0001b0 d9 2c 5c be db 2a d5 3d f7 9f 09 bf fa c9 41 bd
       -0.21501483 0.10408565 -0.5375971 -0.04731176
0001c0 b6 e4 c3 bd 67 5c ea 3c 53 b4 5f 3c 11 38 d3 bd
       -0.095651075 0.028608514 0.0136538325 -0.10313428
0001d0 fe 9d 34 bd 07 c5 05 3e 54 ea a9 bd 0d 76 95 be
       -0.044095986 0.13063441 -0.08296648 -0.29191628
0001e0 c5 90 0b 3f 59 ac e5 be 29 24 a3 be 00 a4 a3 3d
       0.54517776 -0.44858053 -0.31863526 0.07990265
0001f0 68 23 58 3e 85 a4 fd bb fa 96 93 be dd d4 80 3d
       0.21107256 -0.0077405595 -0.28826123 0.062906004
000200 39 47 83 3c cb 35 0b bd e6 13 06 bd 93 38 20 3c
       0.016025173 -0.033986848 -0.03273382 0.009779113
000210 3a ce e9 3c 77 6b b8 3d 0f e6 c7 3c 85 ea 59 bd
       0.02854072 0.09004872 0.024401693 -0.05320217
000220 7e 96 25 bd 2d 27 da 3c d4 88 6b 3d 9c 1a e4 bd
       -0.040426724 0.026630009 0.057503536 -0.11137888
000230 77 50 79 bd df d1 07 3d 90 d4 bc bd a6 1a 80 bd
       -0.060867753 0.033159133 -0.092202306 -0.06255083
000240 2c 5f b2 bd 8d ea 89 3d 0f 9a 9b 3d fc 98 f6 bc
       -0.08709559 0.0673419 0.07597744 -0.030102246
000250 2a 64 e7 bd 4e 5d 42 3d f2 d7 36 3d 4d 41 88 3e
       -0.11298402 0.047452264 0.044639535 0.2661232
000260 b0 4c 29 3d 1d eb 90 3d 05 6e 03 be 28 af 7d bd
       0.0413329 0.07076094 -0.12834938 -0.06193462
000270 43 fb 3c 3a 80 35 a5 bc 44 40 d8 bc d3 fb 2d 3e
       0.0007209072 -0.020167112 -0.026397832 0.16990595
000280 1f cc 41 3a 09 ef fc bc 38 44 a0 bd cd bc 2f 3c
       0.0007392782 -0.0308757 -0.07825512 0.010726166
000290 03 c7 23 bc 2f c5 ca bc bc c2 c4 3c 1b 3c 04 3c
       -0.009996179 -0.024752228 0.024018638 0.008070971
0002a0 55 12 4a bd 3d 90 23 3d a0 c8 da 3c 67 0d 12 3e
       -0.04933389 0.03993248 0.026706994 0.14262925
0002b0 7c f9 9c bd e1 7b e3 bd 25 49 af bc 52 90 17 bd
       -0.07664773 -0.111076124 -0.021397183 -0.03700287
0002c0 d9 35 82 bd 3f 3c f7 3c ef 5c 4d 3c 4b bf b2 3c
       -0.06357927 0.030180095 0.012534364 0.021819731
0002d0 4c a3 32 bd 40 4b ab 3d 11 ab c9 bd 72 e4 47 bd
       -0.043612763 0.08363962 -0.098470815 -0.048801847
0002e0 1e f3 16 3d f8 8b f5 3d 22 3c 0d bd 72 fa 07 3d
       0.03685295 0.119895875 -0.034481175 0.033197828
0002f0 de d4 34 3d 71 44 c6 3c a7 15 b6 bd 9f 81 ef 3c
       0.04414832 0.024202557 -0.088908486 0.029236613
000300 14 8d 59 bd db a3 cd 3c 0b 70 ec bc 47 fb b0 bc
       -0.05311306 0.025102546 -0.02886202 -0.021604193
000310 39 29 ad 3c e7 60 91 3d 61 b3 38 3d 28 d3 5d 3d
       0.02113782 0.07098561 0.045092944 0.054156452
000320 12 81 0e bd 54 26 f6 3d 1f be e8 3b 2d 85 30 bd
       -0.03479106 0.12019029 0.0071027423 -0.043095756
000330 36 8c ad bc 22 6a 7d 3d 72 5a 9f bd e2 45 86 bd
       -0.021185022 0.061868794 -0.07780923 -0.06556298
000340 c9 e0 ca bd 96 8d a0 3d 0c 6c 96 3c 62 6c 8d bd
       -0.099061556 0.078395054 0.018362068 -0.06905438
000350 ea 20 a9 3c ad e6 40 3d f3 41 ff bc 70 4e 96 3d
       0.020645577 0.04709499 -0.031159377 0.073391795
000360 ff 74 95 3d a1 94 bf 3b 07 0e e9 3b 73 2e 9f 3c
       0.07297706 0.0058465754 0.007112268 0.019431328
000370 08 a5 01 3e f4 3c e8 3d f3 f8 56 3c ec b0 d4 3d
       0.1266061 0.11339751 0.013120878 0.10385308
000380 ea 11 de ba 37 1a 1f bd 03 6c 51 be 76 7d cb 3b
       -0.0016942595 -0.03884336 -0.2045136 0.0062100245
000390 24 4f d0 3c 38 3b ce 3c 8e 5d 97 bd df b0 e8 3a
       0.025428362 0.025174722 -0.07390891 0.0017752907
0003a0 bc 78 e6 3b 06 39 4f 3d 03 de 82 3c 8d 42 96 3d
       0.0070334356 0.05059149 0.015975004 0.07336912
0003b0 70 3a a9 3c 1e 5f a7 3c 5d a3 25 3d 24 fd 81 bd
       0.020657748 0.020431098 0.040439 -0.06347111
0003c0 3e c7 fa 3d 02 22 62 bd 95 f3 81 3d 1d 56 2b 3c
       0.12245034 -0.055208214 0.06345288 0.010457543
0003d0 f8 eb 7a bb 0b ce 82 3d 2c 6b 88 bd ed 71 00 3d
       -0.003828762 0.06386956 -0.066610664 0.031358648
0003e0 f4 4c 84 3d 8d a5 2b 3c 29 49 ec bc b2 35 bb 3d
       0.0645999 0.010476482 -0.02884348 0.09141101
0003f0 e7 2f b2 bd 56 b4 61 3c 79 78 e7 bc da 16 b7 3c
       -0.08700543 0.013775906 -0.028255688 0.022349764

a2c_network.mu.bias f4 [4]
000000 1e 0e 17 3d a4 69 d0 3d 14 12 77 3d 53 45 6a bd
       0.036878698 0.10176399 0.060319975 -0.05719502

exp_avg f4 [4]
000000 16 60 81 ba 82 07 95 ba ee 77 d3 38 f5 b1 18 b9
       -0.0009870555 -0.0011370035 0.00010083603 -0.00014562144

exp_avg_sq f4 [4]
000000 38 15 d5 34 2d 66 3f 35 cc 19 97 34 43 53 8d 34
       3.968978e-07 7.130173e-07 2.8144711e-07 2.6323877e-07

exp_avg f4 [64, 12]
000000 fe 67 9b b8 22 8d db ba 97 43 b5 ba c3 8d e5 b9
       -7.410346e-05 -0.0016750435 -0.0013829347 -0.00043783904
000010 b7 0e 1f b9 a1 c2 90 39 ba 84 3a 3a 4f d9 7b bb
       -0.00015168903 0.0002761083 0.0007115115 -0.0038429087
000020 14 f2 7a 39 ff dd e8 ba c1 39 63 3b 0d 25 c4 3a
       0.00023932039 -0.0017766355 0.0034671875 0.0014964655
000030 f2 c6 cf ba 90 2b d1 ba 44 04 c1 3b 5d f4 99 bc
       -0.0015852137 -0.0015958417 0.005890401 -0.01879328
000040 df 1f 82 ba fd cf 85 3a b6 a4 e2 3a 2e 01 cd bc
       -0.0009927711 0.001020908 0.0017291519 -0.025024977
000050 c4 b4 ce ba 44 66 59 3a 99 0f 21 3b 3d 04 4b bc
       -0.0015770425 0.0008293132 0.0024575947 -0.012391147
000060 59 32 9a 3a 78 f6 af 3b 7a a6 24 bc b0 2e 7f 3c
       0.0011764272 0.0053699575 -0.010049457 0.015575096
000070 03 39 e7 3a 61 e1 80 ba 7c 35 9b bb 54 79 df 3c
       0.0017640892 -0.0009832793 -0.0047366004 0.027279533
000080 10 88 7b 3a ae ab b4 3b d8 8b 5e bc 89 fa 3e 3b
       0.0009595165 0.00551363 -0.013583146 0.002914103
000090 24 ef bc 39 88 6e 4e 39 8a 97 cc 3a f7 a6 88 3a
       0.00036036328 0.00019686867 0.0015609127 0.0010425736
0000a0 6e ed bf 38 4e 5c 62 39 c7 75 4e ba b3 ae 84 3a
       9.1518144e-05 0.00021587426 -0.00078758266 0.0010122865
0000b0 ea 32 ad 39 71 36 85 b9 6a e2 89 3a f3 39 5f 3b
       0.00033035065 -0.000254083 0.0010519747 0.003406164
0000c0 72 4e a5 b9 99 f3 9b 3a 58 20 3f 3b 59 d6 a4 ba
       -0.000315297 0.0011898159 0.0029163565 -0.0012576088
0000d0 ea b8 6a ba 93 8c 1e 3a ca 5c 17 3a f0 b0 68 3a
       -0.0008953946 0.0006048169 0.00057740195 0.00088764634
0000e0 ae 85 55 ba 09 0e a0 39 cf 3e ab 3b 82 7c 09 3b
       -0.0008145225 0.00030528035 0.005225993 0.0020978753
0000f0 f8 89 5c ba c7 96 c2 3b 07 be 3c 38 5d 7d a4 3b
       -0.0008412893 0.005938384 4.499967e-05 0.0050198273
000100 23 bc b2 ba ea bf d4 38 14 bd f9 39 00 44 5f 3c
       -0.0013636391 0.000101446945 0.00047633855 0.013627052
000110 e6 d6 32 bb c3 d7 9e 3b bb aa d6 3a f3 e8 6b 3a
       -0.0027288734 0.004847498 0.0016377786 0.0008999251
000120 d3 12 62 b9 c7 a7 cd b9 b7 59 ce 3a 47 76 b4 bb
       -0.00021560052 -0.0003922565 0.001574329 -0.005507264
000130 f6 ae 36 b9 bf 87 20 3a d2 17 af b9 d9 29 f8 bb
       -0.0001742205 0.00061237434 -0.0003339635 -0.007573348
000140 98 cf f5 b9 14 be 6a 39 f5 39 fb 39 81 e9 85 bb
       -0.0004688471 0.00022386789 0.00047917632 -0.0040866737
000150 f0 0d 64 b9 ae a3 d4 ba 9a 68 ad 38 6c 43 11 bb
       -0.00021748967 -0.0016223097 8.2687664e-05 -0.002216543
000160 3b 59 aa b9 f3 e8 a7 b9 6b 5c 77 3a e5 b6 50 bb
       -0.0003249141 -0.00032026283 0.00094360736 -0.0031847295
000170 ce 0f b1 39 8a 6b 2a bb ac 1a 4e 3a b7 f5 39 3a
       0.00033771846 -0.002600404 0.0007862251 0.00070938043
000180 34 eb 20 ba 19 40 b4 3a 0b 30 36 3b 9e ae 17 bb
       -0.00061385636 0.0013752013 0.0027799632 -0.0023144851
000190 a7 69 2f ba b7 d0 3d 38 ca 0d c0 3a 04 0d 06 ba
       -0.00066914636 4.5255492e-05 0.0014652547 -0.0005113634
0001a0 03 b0 6e ba b4 fd d8 3a 7f 93 13 3b b3 1e e0 ba
       -0.0009105207 0.0016555102 0.0022518334 -0.0017098993
0001b0 cd d2 81 b9 a5 6e 1a 3b da 9f 28 3b ed b5 32 b9
       -0.00024761856 0.0023564484 0.0025730045 -0.00017043175
0001c0 fd 87 a0 b9 e8 f3 71 b8 81 16 8b 3a 30 fa 81 3b
       -0.00030618897 -5.7686033e-05 0.0010611565 0.0039665923
0001d0 b7 73 ab b9 d5 d4 24 3b 44 5f d9 39 3f a9 08 b8
       -0.00032701876 0.0025151272 0.00041460444 -3.258255e-05
0001e0 9c 09 84 b8 3e 20 db 3a 86 0c a2 bb 51 1f 63 3b
       -6.2960404e-05 0.0016717983 -0.0049453406 0.0034656117
0001f0 96 8e 5e 3a 37 16 b2 ba aa 40 8c ba 39 7e fb 3b
       0.0008489875 -0.0013586943 -0.0010700424 0.007674959
000200 5d eb 77 39 ec e8 43 3b 55 63 04 bc 3a 9e 30 bb
       0.00023643435 0.002989347 -0.008080323 -0.002694978
000210 71 11 15 b9 f8 b0 a4 3b 5d fc 77 3b 99 66 1b 3b
       -0.00014216245 0.005025979 0.003783963 0.0023712276
000220 e5 ce 53 39 19 9d a7 b9 07 39 84 b8 8d 7f 42 3c
       0.00020199602 -0.0003196977 -6.304873e-05 0.011871231
000230 50 5c 5d b9 cd 7e a8 3b 9a 7a 65 bb bd 50 0a ba
       -0.00021110591 0.005142069 -0.0035015703 -0.0005276313
000240 2e 92 be b9 57 02 96 3b ae 3b 4e 3b d4 e2 42 3b
       -0.00036348536 0.0045779156 0.0031468677 0.002973725
000250 cb dd a6 b8 fc 43 fb b9 30 7b f6 b8 83 14 2c 3c
       -7.956809e-05 -0.00047925103 -0.000117531396 0.010502937
000260 9c 90 77 ba 1a 92 a2 3b b1 a1 52 bb 5d 5e be ba
       -0.0009443851 0.0049612643 -0.0032139833 -0.0014523972
000270 b7 8d 25 b9 24 e5 f9 ba 9c d7 58 3b f1 b1 86 bb
       -0.00015788419 -0.0019065482 0.0033087498 -0.0041105677
000280 40 aa 47 ba e5 13 30 3a bf 4f 58 3a 72 ff f1 bb
       -0.0007616617 0.00067168317 0.0008251629 -0.007385188
000290 33 22 bb b8 2b b9 3f bb 1f 43 a3 3b 84 09 cc 3a
       -8.923225e-05 -0.0029254656 0.0049823667 0.0015566801
0002a0 2a 4b d8 b9 4b b1 59 3a 74 95 3a bb 5e 9a 18 ba
       -0.00041254732 0.0008304312 -0.0028470429 -0.00058213423
0002b0 91 2b 9e b9 b6 7f ff 38 6a 5a fe b9 f1 80 67 3a
       -0.00030168568 0.000121831356 -0.0004851402 0.00088311645
0002c0 82 b7 16 ba be 8b b0 3a a3 c0 59 ba 4b 4f e0 ba
       -0.00057493907 0.0013469381 -0.0008306598 -0.0017113475
0002d0 13 e3 3a 3b 79 60 15 3b c8 d8 47 bc 00 bf 05 3d
       0.0028516694 0.0022793098 -0.012197681 0.032652855
0002e0 5d 03 0a 3b 31 50 e8 ba dc 57 e3 ba e8 13 23 3d
       0.0021059134 -0.0017724094 -0.001734491 0.039813906
0002f0 4a a1 39 3b 69 a3 37 ba c8 58 b1 bb ba 95 9d 3c
       0.0028324896 -0.0007005246 -0.005412195 0.019236434
000300 af af 0b ba dd 12 35 bb 12 bf 91 3b 87 c8 1f bb
       -0.0005328608 -0.0027629652 0.004447826 -0.0024380998
000310 54 bf 23 ba 25 ec 0b 39 fb 05 6b 3b c5 22 eb bb
       -0.00062464667 0.00013344044 0.003586172 -0.0071757757
000320 c8 c6 4b 39 ef 8a 2e bb 08 af 91 3b 2d b8 66 39
       0.0001943364 -0.0026633104 0.004445914 0.0002200312
000330 61 69 d3 38 0d 37 44 bb 70 4e 40 3b f1 7b 19 bb
       0.000100808924 -0.002994004 0.0029343627 -0.0023419822
000340 3d 51 33 b9 a2 e8 9d 39 e6 42 4d 3a 01 5c 0b bc
       -0.00017101034 0.00030118698 0.0007830098 -0.008505822
000350 d7 60 d1 39 7e 1c 3c bb a1 bc 8b 3b 56 9c 5c 3a
       0.00039935738 -0.0028703506 0.0042644297 0.000841563
000360 4c ef 00 ba 71 26 ff ba 30 a9 87 3a ac a6 f4 bb
       -0.00049184705 -0.0019466412 0.0010350104 -0.007466158
000370 c9 7f 0c ba 62 1d 16 3a 5f 53 8a 3a fd 00 1f bc
       -0.00053596176 0.0005726424 0.0010553411 -0.0097048255
000380 a5 d4 3e 39 36 86 d8 ba 7e 11 d2 3a 52 d2 f8 b9
       0.00018199028 -0.001651949 0.0016026942 -0.00047458947
000390 ce e3 2b ba 41 30 84 bb 38 64 11 3c c4 49 2c bc
       -0.0006557078 -0.0040340726 0.008873992 -0.010515634
0003a0 f4 c2 df ba f6 39 a7 3a c1 a3 91 3b 95 52 9f bc
       -0.001707165 0.0012758363 0.00444457 -0.019448558
0003b0 c9 97 12 ba bc f4 9e bb 9e a1 6e 3c f7 ad 9a 3a
       -0.0005592076 -0.004850952 0.0145649 0.0011801113
0003c0 eb 9b 41 ba d5 2f 6f 3a d5 6b d4 3a 02 c4 cb ba
       -0.00073855993 0.0009124254 0.0016206453 -0.0015546086
0003d0 8d 6c 4d ba 13 fa 32 b9 b5 05 df 3a ce 7d 7e ba
       -0.0007836305 -0.00017068563 0.0017015251 -0.00097080774
0003e0 c1 3d 8d ba 79 43 7f 3a 2e 55 04 3b 99 5b 9f ba
       -0.001077585 0.0009737532 0.0020192373 -0.0012158036
0003f0 8f ad 3a 3a 3c f7 b6 ba 0f a6 ff ba 67 ff 9e 3b
       0.0007121199 -0.001395918 -0.0019504445 0.0048522237

exp_avg_sq f4 [64, 12]
000000 53 d3 ef 35 e1 d4 94 37 1f 29 48 39 97 bb f8 37
       1.7868391e-06 1.7742104e-05 0.00019088805 2.9651257e-05
000010 03 9d 84 36 bd 38 8b 35 a8 7e 14 38 c3 25 4b 37
       3.952185e-06 1.037282e-06 3.5403908e-05 1.2108535e-05
000020 15 d9 21 36 49 e9 c6 37 a9 52 f9 37 a8 c1 b1 37
       2.4117228e-06 2.3712071e-05 2.9721605e-05 2.1190222e-05
000030 ef ad 7e 37 f3 97 f8 38 93 5b 53 3a f0 da 87 39
       1.5180077e-05 0.00011853864 0.0008062657 0.00025912328
000040 cf 5e cf 37 a0 52 de 36 26 d3 83 39 a4 05 08 39
       2.4720472e-05 6.6257344e-06 0.00025143585 0.00012972072
000050 99 f3 8e 37 23 fc 21 39 8e a5 99 39 90 65 40 39
       1.7041153e-05 0.00015448085 0.00029305782 0.00018348382
000060 9b a9 c0 37 95 e4 45 39 b4 6c c2 3a 53 72 cb 39
       2.2967162e-05 0.00018872537 0.0014833421 0.00038804355
000070 c0 fb 0a 38 00 51 36 37 f4 27 07 3a 23 97 33 39
       3.3136224e-05 1.0866905e-05 0.0005155795 0.00017127073
000080 7c ac dd 37 d6 67 78 39 89 b2 02 3a c9 4b 99 39
       2.6425572e-05 0.00023689805 0.000498571 0.00029238898
000090 16 eb 90 35 3b ca 9c 36 95 17 9a 38 3c 06 b5 37
       1.0797255e-06 4.672705e-06 7.347685e-05 2.1579785e-05
0000a0 43 91 df 35 be 57 52 35 2d ba 96 37 a0 4f 01 37
       1.6657071e-06 7.835878e-07 1.7968088e-05 7.707538e-06
0000b0 07 37 b8 35 b8 51 df 36 cc 46 f8 37 fc bc 9d 37
       1.3725083e-06 6.655431e-06 2.9596871e-05 1.8803861e-05
0000c0 c1 bf 3b 36 27 3f d2 37 48 37 a2 39 86 34 95 38
       2.7976787e-06 2.5063358e-05 0.00030940236 7.114657e-05
0000d0 b8 f6 89 36 5e 51 b1 35 f7 e4 8f 38 0c 36 2f 38
       4.11164e-06 1.3211209e-06 6.8614194e-05 4.1773586e-05
0000e0 57 26 69 36 71 9d fc 37 35 22 a5 38 02 f0 1d 38
       3.4742022e-06 3.0114055e-05 7.874185e-05 3.765524e-05
0000f0 2d 24 c1 37 f3 c1 84 39 25 38 df 3a dd 21 ea 39
       2.3024239e-05 0.00025321505 0.0017030282 0.00044657188
000100 65 ee 4a 38 fe 70 0e 37 95 f2 e7 39 d0 d9 85 39
       4.8382575e-05 8.490168e-06 0.0004424049 0.0002553002
000110 96 05 0f 38 d1 93 a5 39 d3 be e5 39 6f cb 03 39
       3.409906e-05 0.00031581384 0.0004382046 0.00012568918
000120 b3 a6 6f 35 69 6d d9 36 0c 4d 85 38 03 c7 8b 37
       8.927702e-07 6.479841e-06 6.356285e-05 1.6662763e-05
000130 73 f5 9d 35 57 f5 a2 34 dd c4 a2 37 10 2a 13 37
       1.1768847e-06 3.035336e-07 1.9403577e-05 8.771676e-06
000140 f6 70 88 35 4f 88 0c 37 e2 2d e5 37 fd c1 55 37
       1.0165666e-06 8.376387e-06 2.7320293e-05 1.2740956e-05
000150 26 0a 98 35 6c 7c 36 37 2d 1a 86 38 c9 b0 a8 37
       1.1327836e-06 1.0877015e-05 6.3944935e-05 2.0109483e-05
000160 02 59 30 36 5f 3c 09 35 89 5d 99 37 c8 d4 16 37
       2.6277853e-06 5.112433e-07 1.8282577e-05 8.990239e-06
000170 5a 6c a4 35 fd 96 77 37 0a 98 57 37 a2 58 64 37
       1.2250487e-06 1.4757502e-05 1.2850398e-05 1.3610495e-05
000180 cc 89 69 35 da 6c 89 36 75 07 36 38 8d 3e 41 37
       8.6999785e-07 4.09559e-06 4.3399126e-05 1.151826e-05
000190 71 d8 67 35 fe 70 93 35 24 2d a6 37 40 05 20 37
       8.636917e-07 1.0985239e-06 1.9809762e-05 9.5379655e-06
0001a0 e1 12 5b 35 21 35 a2 36 17 65 af 37 98 ce 49 37
       8.161133e-07 4.8341612e-06 2.09087e-05 1.2028635e-05
0001b0 32 dc 9f 35 d5 71 8a 37 d7 6b ea 38 9d 90 ec 37
       1.1910508e-06 1.650389e-05 0.00011178076 2.8200733e-05
0001c0 71 09 31 36 dd 3d 18 35 d1 10 da 37 ec b8 8b 37
       2.638055e-06 5.6714435e-07 2.5995456e-05 1.6656202e-05
0001d0 58 71 bd 35 20 22 a9 37 e6 b1 05 38 16 d6 1f 37
       1.4114585e-06 2.016226e-05 3.1875352e-05 9.526984e-06
0001e0 3c f5 a8 36 c1 a8 85 37 05 b6 cf 39 ad 88 b3 38
       5.035339e-06 1.5933418e-05 0.00039617732 8.560843e-05
0001f0 3d f5 cf 36 40 b7 7d 36 40 cb d8 38 6f 7b 3c 38
       6.1976302e-06 3.7806603e-06 0.00010337541 4.493765e-05
000200 6a 36 b0 36 0f fd a8 37 91 d6 0a 39 76 be a1 38
       5.2515434e-06 2.0145e-05 0.00013240638 7.712554e-05
000210 61 ac 23 37 19 88 ea 38 80 4d 3d 3a 07 9b 37 39
       9.755692e-06 0.0001118334 0.0007221326 0.00017509992
000220 d6 a7 aa 37 d1 61 75 36 5c 40 3a 39 10 4f ac 38
       2.0343734e-05 3.6564782e-06 0.00017762318 8.216326e-05
000230 a6 ba 39 37 97 e7 11 39 3b 9b 56 39 25 4d 87 38
       1.1070317e-05 0.00013914552 0.00020466458 6.451671e-05
000240 ff 3c 09 37 6a d2 d0 38 3f 31 18 3a c6 19 00 39
       8.180038e-06 9.9574056e-05 0.0005805678 0.00012216633
000250 e4 69 9b 37 95 35 27 36 eb b9 1c 39 a4 a5 71 38
       1.8526749e-05 2.4916128e-06 0.00014946579 5.7613142e-05
000260 8f 92 1f 37 34 5c 03 39 ba 0a 16 39 e7 ac 3e 38
       9.511262e-06 0.00012527482 0.0001430911 4.5460558e-05
000270 11 01 14 36 2d e1 84 37 b5 55 73 39 40 bb 2e 38
       2.205434e-06 1.5840482e-05 0.00023206214 4.1659223e-05
000280 22 67 a5 36 7f 86 01 35 ab 53 52 38 4d dd 6e 37
       4.9293894e-06 4.825196e-07 5.0145823e-05 1.4237431e-05
000290 5b 52 2e 36 75 14 b4 37 b2 2b 44 38 1f 03 d2 37
       2.5975958e-06 2.1467198e-05 4.6770736e-05 2.5035404e-05
0002a0 68 08 86 35 c0 34 fa 36 89 f0 96 38 30 87 8f 37
       9.986225e-07 7.4567215e-06 7.1973605e-05 1.710988e-05
0002b0 93 16 05 36 91 e6 2b 34 b0 92 4e 37 e0 b6 55 36
       1.9831684e-06 1.6009496e-07 1.231271e-05 3.184592e-06
0002c0 e5 aa ad 35 10 12 18 37 26 17 7c 37 ea ef ff 36
       1.2939241e-06 9.0641115e-06 1.502576e-05 7.627522e-06
0002d0 aa 83 fa 37 ed 6f 76 39 96 d0 fb 3a c2 ee 16 3a
       2.9863633e-05 0.00023502084 0.0019211944 0.00057576236
0002e0 3f 17 4c 38 d4 52 3f 37 5d 53 0d 3a 8a 52 90 39
       4.865904e-05 1.1403772e-05 0.0005391145 0.00027527317
0002f0 4b e0 18 38 2b 3b 9e 39 f6 07 1f 3a 4e 22 c1 39
       3.6448513e-05 0.00030180192 0.0006066555 0.00036837388
000300 cd a5 cd 36 05 39 5e 38 ae 6b 98 39 6d 5f a7 38
       6.128778e-06 5.2982028e-05 0.00029071927 7.980955e-05
000310 8c 72 84 37 f7 93 2c 36 35 d7 d2 38 3b 5b 53 38
       1.5788966e-05 2.5716124e-06 0.00010053666 5.0391285e-05
000320 47 fb f7 36 6e f5 8b 38 0a f8 d7 38 c9 7f 33 38
       7.390426e-06 6.673751e-05 0.000102982 4.2795935e-05
000330 d5 97 ab 36 e0 79 5b 38 6e 24 97 39 d2 d1 7e 38
       5.1138727e-06 5.2327174e-05 0.00028828107 6.075373e-05
000340 fc 19 29 37 eb 14 06 36 6b f6 b7 38 43 7d 01 38
       1.0079235e-05 1.9979732e-06 8.772019e-05 3.0872656e-05
000350 ca bf ca 36 c6 f4 87 38 a8 96 a3 38 08 6f 0c 38
       6.0423963e-06 6.482894e-05 7.8005076e-05 3.3482007e-05
000360 1d ee 4d 36 b9 d8 1b 38 fd a6 80 39 60 b5 87 38
       3.068598e-06 3.715672e-05 0.00024538478 6.471085e-05
000370 6c 99 20 37 4a 9b af 35 f6 a8 67 38 ad fa d5 37
       9.5724645e-06 1.3083711e-06 5.523205e-05 2.5508309e-05
000380 2a 53 89 36 1b 74 50 38 14 35 63 38 b3 a7 af 37
       4.0925997e-06 4.9699196e-05 5.417045e-05 2.0939717e-05
000390 0b d3 8d 37 3b cf d4 38 83 6e a0 3a c8 b6 8a 39
       1.6906784e-05 0.000101475474 0.0012239966 0.00026457594
0003a0 e6 83 d4 37 4b 75 e3 36 f6 49 cf 39 48 f3 d1 38
       2.533379e-05 6.778782e-06 0.00039537222 0.00010011211
0003b0 6f 46 a7 37 2d 18 12 39 51 38 da 39 e6 33 5c 39
       1.994075e-05 0.00013932651 0.0004162216 0.00021000169
0003c0 db 96 26 36 d1 69 95 36 73 55 5a 38 72 58 8b 37
       2.4823737e-06 4.4528647e-06 5.205483e-05 1.6611277e-05
0003d0 c4 cc 26 36 a0 ae fe 35 f4 ca 11 38 f7 5d 26 37
       2.4855117e-06 1.8975297e-06 3.475971e-05 9.916249e-06
0003e0 90 28 2c 36 56 0d bb 36 4f 8b 1a 38 e5 18 d0 37
       2.5653608e-06 5.574587e-06 3.6846202e-05 2.4807125e-05
0003f0 a4 7b 09 36 e2 7b c8 36 91 ba 82 38 4b 57 a8 37
       2.048656e-06 5.9748863e-06 6.233634e-05 2.006781e-05

exp_avg f4 [64]
000000 17 b5 a3 3b e5 fc 96 3c 01 b2 c4 bc 8c 3c ef ba
       0.004995953 0.018431136 -0.02401066 -0.0018252297
000010 57 71 dd bb 71 cf d8 bc f7 49 f8 3b 63 e2 39 3b
       -0.006757896 -0.026466103 0.0075771767 0.0028363697
000020 09 02 d5 bb a8 97 54 bc c7 05 0c bc 33 83 bd bc
       -0.0065004868 -0.012975611 -0.008546299 -0.02313385
000030 5f 04 a9 bc 52 c8 da 3b de e1 47 ba e2 5b e8 bc
       -0.020631967 0.006676712 -0.00076249044 -0.028364126
000040 15 5b 1c 3c fb fc 36 3c da 16 4f 3c f2 d0 6c 3c
       0.0095432 0.011168714 0.012639726 0.014454113
000050 3e 83 e1 bb 24 c7 0b b9 cf a5 50 3c 15 67 0f bc
       -0.0068821004 -0.00013330259 0.012734844 -0.008752604
000060 82 12 d5 bc 49 a0 42 bb 97 68 a8 3a 30 e1 9b bc
       -0.026009802 -0.0029697588 0.0012848553 -0.019028276
000070 ee 4e 6a bc ed 90 09 3c 36 3f 33 3c 9a c5 1b 3c
       -0.014301045 0.008396369 0.010940364 0.009507561
000080 e7 62 d0 bb b5 70 39 3c 27 5d 8a 3c b4 bd 87 3c
       -0.0063594463 0.011318375 0.016890122 0.01656995
000090 af 53 f9 3b 7b 30 0d bd 88 93 be bb e1 c2 91 3c
       0.007608853 -0.034470063 -0.005815927 0.01779312
0000a0 7e 8d 8d bc f6 19 2e bc 5e 99 84 bc 3f fd 4a bc
       -0.017279383 -0.010626307 -0.016186412 -0.01238948
0000b0 bf cb 8c 3c bf 22 32 3c 1c 3e 29 3b 1e 00 3e 3c
       0.017186997 0.010872542 0.0025824374 0.011596708
0000c0 20 47 17 bc 4a 47 6b 3b 91 68 26 bc ee ac b2 3a
       -0.009233266 0.0035900646 -0.0101567665 0.0013631859
0000d0 44 79 41 3b d0 b5 fd bc 80 e4 92 bc 26 86 33 bb
       0.0029521743 -0.030970484 -0.017931223 -0.002739319
0000e0 83 ee 9e 3c da 43 bb bb 3c 2f 70 bc e3 a8 5d bc
       0.01940084 -0.0057148756 -0.014659699 -0.013529035
0000f0 d7 b8 93 3b 7b d1 9a 3b cb 37 14 bb 77 b3 db ba
       0.0045081186 0.004724679 -0.0022616263 -0.0016761859

exp_avg_sq f4 [64]
000000 bb 5b 21 3a 87 f5 85 3b 1c 33 dc 3b 73 f9 7b 39
       0.00061553315 0.004088107 0.00671996 0.00024030152
000010 19 c6 75 3a 18 8b 07 3c 5b fa 59 39 1b f3 c9 39
       0.0009375527 0.008272909 0.00020787997 0.00038518835
000020 05 45 7e 39 5b ae 0e 3a 18 28 89 3a f4 dc 6f 3b
       0.0002424904 0.0005442851 0.0010464219 0.0036600204
000030 55 91 4d 3b ec 8f 05 3a 81 69 82 39 f3 32 03 3c
       0.0031367142 0.00050949934 0.0002487414 0.008007753
000040 55 b8 fb 3a ec f9 e0 3a a3 66 9b 3a ec b6 64 3b
       0.0019204715 0.0017164326 0.001185615 0.003489907
000050 55 9e bb 39 cd 75 c5 39 4b 84 f1 3b 10 e9 04 3b
       0.00035785386 0.00037662536 0.007370507 0.0020280518
000060 8f 1b cd 3b a6 02 f2 39 93 88 ab 39 b7 31 48 3b
       0.0062593888 0.0004615981 0.00032717417 0.003054721
000070 b2 70 0b 3b 94 21 85 3a 64 5e b8 3a b4 16 80 3a
       0.0021276888 0.0010157102 0.0014066217 0.0009772391
000080 15 1a de 39 c3 fc b7 3a bd b7 d6 3a dc dd 67 3b
       0.00042362572 0.0014037121 0.0016381663 0.0035380041
000090 0b d3 20 3a 2d 3a 94 3c 64 2f 11 3a 9b 7e 8e 3b
       0.00061349635 0.018094147 0.0005538373 0.0043485886
0000a0 c6 24 7b 3b 2c 69 63 3a d1 a5 02 3b cf 64 df 3a
       0.003832148 0.00086750346 0.001993526 0.0017043593
0000b0 5b 29 a4 3b be bd a3 3a 1c 13 18 3a 58 45 10 3b
       0.005009813 0.0012492461 0.00058011874 0.0022013988
0000c0 a6 f2 18 3a 1b 27 96 3a ce 31 0a 3a 83 79 b3 39
       0.0005834497 0.0011455746 0.00052717037 0.00034232074
0000d0 92 a0 2c 3a 48 82 05 3c 61 65 a7 3b 2d 1c 83 39
       0.0006585206 0.008148737 0.005108521 0.0002500726
0000e0 00 31 18 3c 1d e7 94 39 05 17 49 3b 02 a3 75 3a
       0.009289026 0.00028400953 0.0030683887 0.00093702984
0000f0 a2 3a 6b 3a 0e d9 fb 39 ea d8 fb 39 4a 6a 02 3a
       0.00089732755 0.0004803617 0.00048036064 0.0004974945
