logs/rl_games/klask/sim_to_real_1/nn/klask.pth (torch, 550002 bytes, 30 tensors)

a2c_network.sigma f4 [4]
000000 1e b2 ca bf 69 00 b3 bf c4 26 27 bf 89 b7 0b bf
       -1.5835607 -1.39845 -0.65293527 -0.5457693

a2c_network.actor_mlp.0.weight f4 [256, 12]
000000 26 32 77 bd ba 8c 7d 3d 91 75 1b 3f c0 cb 0e bf
       -0.06035056 0.061901785 0.6072627 -0.5577965
000010 39 e8 a7 be 1e d9 b1 be 6a b9 00 3f 15 20 1a 3f
       -0.3279436 -0.3473596 0.5028292 0.60205203
000020 47 df 72 bf d8 19 4a be 8e 23 f4 3e d1 61 86 c0
       -0.94871944 -0.19736421 0.47683376 -4.1994405
000030 f3 14 7c bd 78 97 33 3d 08 2b 8c be 22 b4 45 be
       -0.061543416 0.043845624 -0.2737658 -0.19306996
000040 3f a7 29 3d 7d d1 c4 be e2 72 d8 be e9 23 8b 3e
       0.041419264 -0.38441077 -0.4227515 0.27175835
000050 bd 93 96 bf 20 fa d6 bf ea cd 80 bf a2 dc 1d c0
       -1.1763836 -1.6795082 -1.006284 -2.4665914
000060 52 c8 50 bd 7a 19 fb 3d 15 cc 11 3e 66 2f 47 3f
       -0.05097229 0.12260719 0.14238007 0.778067
000070 f2 90 b0 3c 0e 59 a1 bd 8d 47 21 3c b6 c3 93 3e
       0.02155349 -0.07878314 0.009843719 0.28860253
000080 a3 c4 08 3f d6 1a a2 3f ec e5 a4 3f fd 5c 26 40
       0.53425044 1.266444 1.2882667 2.5994256
000090 91 6c 76 be cf 17 4f 3e 0a e2 84 3f 65 20 05 bf
       -0.24064852 0.20223926 1.0381482 -0.52002555
0000a0 3e 99 3e be f6 b8 0e 3e ef ac 08 3e e1 01 25 be
       -0.18613145 0.13937744 0.13347219 -0.16113998
0000b0 76 f2 2d 3f be 60 04 bf c9 26 c0 3c ce cd 2f bf
       0.6794809 -0.51710117 0.023455994 -0.6867341
0000c0 cb b3 12 3e 41 e7 7f bd 2b d8 1f bf 11 fc 3c bf
       0.14326398 -0.0624764 -0.6243922 -0.7382212
0000d0 ad 9b 6e 3e e6 e1 a9 3b 0a f1 cb be a5 0f de bd
       0.23301573 0.0051844 -0.39832336 -0.10842828
0000e0 43 57 bf 3d c4 d7 a8 3f ed c6 8d 3f 83 29 34 40
       0.09342816 1.3190846 1.1076332 2.8150337
0000f0 fe c5 a6 3d 71 25 55 3d bb b3 ce be e0 fd 43 bf
       0.08143233 0.05203766 -0.40371498 -0.7655926
000100 2d cd bf 3e a8 0e 6a be aa 58 77 bb 5e 9e 6c be
       0.37461224 -0.22857153 -0.0037742057 -0.23107287
000110 2d a7 a0 bf c1 8e b1 3f f1 b6 81 bf 21 db cf bf
       -1.2551018 1.387169 -1.0133954 -1.6238748
000120 39 f2 3b 3d 78 3d 3b be 9a b9 15 3e 52 d0 51 3f
       0.0458853 -0.18285167 0.14621583 0.81958497
000130 8c 19 a2 bf b8 3d 28 3c 62 a6 6c 3f 3c 50 d2 3d
       -1.2664046 0.010268621 0.9244138 0.1026921
000140 73 ea 01 be c5 22 06 be 4c 5e 5d c0 8b f6 28 3f
       -0.12687092 -0.13099201 -3.4588804 0.66001195
000150 43 ea b2 3d d0 20 5e 3c f4 a8 71 be 27 ed 53 bf
       0.08736088 0.013557628 -0.23599607 -0.8278374
000160 2d 80 6d 3e f7 f3 1a bf 43 e7 44 be 50 35 b5 3d
       0.23193426 -0.6052851 -0.19228844 0.08848059
000170 a1 9d 89 be 64 12 66 3f fe d9 10 bd c9 24 00 40
       -0.26878074 0.8987181 -0.035364144 2.0022452
000180 7d 17 da 3a 22 5a 64 3c 6d f9 e3 be dd 20 8b 3f
       0.001663908 0.013937505 -0.44526234 1.0869404
000190 b0 7c cd be 4d e2 a2 bd f9 60 71 be 50 fa c2 3e
       -0.40134192 -0.0795332 -0.23572148 0.38081598
0001a0 61 cf 6a 3e af 1d 84 3e fe bb d9 3f 73 ad dd 3f
       0.22930671 0.25803897 1.7010496 1.7318558
0001b0 c4 fb e8 bc 1c 17 38 bd b0 e9 60 3f 33 ed c6 3f
       -0.028440364 -0.044943914 0.8785658 1.5541137
0001c0 c0 d5 14 bf 1e ae b2 3e e5 2f 29 3f e0 e4 8a 3e
       -0.58138657 0.34898466 0.66088706 0.27127743
0001d0 b5 45 c6 bf 6a 18 3f c0 ff 2a 77 3f f9 7f 03 bd
       -1.5490023 -2.985865 0.9654998 -0.032104466
0001e0 0d 0c 01 3e 1b 94 07 bd 21 cd de be 47 0a 96 3e
       0.12602253 -0.03310023 -0.43515876 0.29304716
0001f0 81 ec 2b bc 33 1e c3 be e8 3f d6 be db 61 00 be
       -0.010493399 -0.38108978 -0.41845632 -0.12537329
000200 ea 0c 85 bc 8f 24 25 bd 64 fd 3b 3e 41 85 42 40
       -0.01624151 -0.040318068 0.1835838 3.0393832
000210 a5 28 2a be fc d4 ce 3d 5f 92 64 ba 29 27 a7 3f
       -0.16617067 0.10099217 -0.0008719321 1.3058826
000220 35 81 9b be 8c 07 06 3f 06 fb 62 be 69 71 a7 bc
       -0.30372015 0.52355266 -0.2216607 -0.02043982
000230 31 60 c6 be c8 af d1 bf c3 3d 76 3e 50 d4 60 bf
       -0.38745263 -1.6381769 0.24046998 -0.87823963
000240 36 40 3a be 85 51 e0 3d 1e fd a7 be 14 d9 94 bf
       -0.18188557 0.109530486 -0.328103 -1.1628747
000250 28 bc 21 3f ff 24 11 3f 79 de 22 bf 6f 59 c5 bd
       0.6317773 0.56697077 -0.63620716 -0.09636199
000260 ff df 80 bf 5e e7 5f bf 62 a8 9c bd b5 39 2c 40
       -1.0068358 -0.87462413 -0.07649304 2.6910222
000270 37 34 f0 bd 9d 98 20 3e 31 8c 20 bf f7 0c 48 be
       -0.11728709 0.15683217 -0.62713915 -0.19536196
000280 6b aa 66 3e 68 99 0a bd 5b 06 e6 3e b3 52 ae 3e
       0.22525947 -0.033837706 0.44926724 0.3404747
000290 08 27 09 c0 52 bf 46 bf 02 cd f4 bc c5 25 17 c0
       -2.1430073 -0.7763568 -0.029882912 -2.3616803
0002a0 61 e2 a8 3d 80 95 de 3b 5f c5 82 3f 21 61 9f 3c
       0.08246303 0.006792724 1.0216483 0.019455494
0002b0 e8 bf 19 3e 0b c7 b5 bc 11 23 e7 bd 5f 6a 2c 3d
       0.15014613 -0.022189638 -0.11285985 0.04209363
0002c0 d3 e3 1f 3f 25 66 46 3f bd d9 e5 3f 61 03 1a bf
       0.6245701 0.7749961 1.7957073 -0.60161406
0002d0 9c c3 70 bd 2a 5c c0 3d b2 51 00 3f a5 83 7d 3f
       -0.058780298 0.09392579 0.5012466 0.99029
0002e0 bd 72 e8 be 58 7e a0 bc 4b bb e2 bd e9 63 83 3e
       -0.45400038 -0.019591495 -0.110708795 0.25662163
0002f0 f6 fb 8d be 42 fb d0 3f a8 3e 2e 3f ae be 66 40
       -0.27731293 1.6326678 0.68064356 3.6053882
000300 27 c8 2b 3e c5 b7 01 be c5 36 68 3f 2a c8 2c bf
       0.16775571 -0.12667759 0.9070857 -0.67492926
000310 c3 64 1d be f6 db 72 3c 87 5a b5 bc 0d 9e 8c bd
       -0.15370469 0.014822951 -0.022137893 -0.06866083
000320 72 34 a2 3f 8f 4f db 3f 95 0d b0 3c a1 41 42 3f
       1.2672255 1.7133654 0.021490851 0.7588139
000330 3f a0 26 3e 32 69 28 be 8d 71 8a 3e d6 93 55 3e
       0.16272067 -0.16446379 0.27039757 0.20857176
000340 ff 51 46 3e f5 74 89 3e e8 d0 77 3e d2 f7 0f bf
       0.19367217 0.26847044 0.24200785 -0.5623752
000350 e3 31 5a bf c6 96 5b 3e 85 02 ed be 76 7d 3a c0
       -0.8523237 0.21444234 -0.46290985 -2.9139075
000360 cb 4e 8e 3e a0 0d 47 be c0 3e 8e 3e bf 19 e2 3e
       0.2779449 -0.19438791 0.2778225 0.44160268
000370 45 59 e9 bd 7c 5a 9d be ce b5 30 3e 3c c9 2d 3e
       -0.1139398 -0.30733097 0.17256853 0.16971296
000380 d5 8e f0 3e 1e 5b e1 3f f9 0a c2 3f e3 35 09 40
       0.46983972 1.7605932 1.5159599 2.143914
000390 07 d6 51 3e fe 75 4d be 3c 8d 32 3d 63 2a 47 bf
       0.20491801 -0.20064542 0.043591723 -0.7779905
0003a0 e5 60 e9 3a 7f 35 8f bd 1d 2b 25 be 0b ae 93 3e
       0.0017805366 -0.069926254 -0.16129728 0.28843722
0003b0 1f d5 07 c0 ca 85 0c bf 50 dc 17 3f 84 4e 9c bf
       -2.1223829 -0.54891646 0.59320545 -1.2211461
0003c0 b5 af 6d 3e fa 12 17 be 08 8e 0d bf a3 b6 3d 3f
       0.23211558 -0.14753333 -0.5529485 0.74106807
0003d0 9c 50 b0 3e 3e 38 50 be 94 99 06 3d 08 dc e7 3d
       0.344365 -0.20333955 0.032861307 0.113212645
0003e0 61 d5 8b bf e3 32 51 3f 4b ac a8 3f 3d 1d 71 bf
       -1.0924493 0.8171827 1.317758 -0.9418524
0003f0 f6 4a a5 3c 32 14 06 3d df cb 8e 3f 81 7d 82 bf
       0.020177346 0.032734104 1.1155967 -1.0194551

a2c_network.actor_mlp.0.bias f4 [256]
000000 55 ca 1c 3e fb 42 3b 3c a9 78 90 bd 31 bf 26 3d
       0.15311559 0.011429544 -0.07054264 0.040709678
000010 19 b7 d8 bd 27 0b 40 be 1c 80 9f 3d a2 21 13 be
       -0.10581798 -0.18754254 0.07788107 -0.14368299
000020 49 5d 5b 3c 73 e2 0a 3e 6a b4 0e be 26 f5 e6 3d
       0.01338894 0.13562946 -0.1393601 0.11277227
000030 36 40 af 3d 70 c0 61 bd 17 71 7d bd f4 8c a7 3d
       0.08557169 -0.055115163 -0.06187543 0.081811816
000040 81 06 d9 3d 7c 86 9d 3d b6 c7 0e 3d e5 b7 2c bd
       0.10596944 0.076916665 0.034858428 -0.042167563
000050 ac 44 25 bd 48 0f d7 bc 04 d0 47 3c a5 77 21 be
       -0.040348694 -0.026252404 0.012195591 -0.15768297
000060 62 ba 22 3d 94 9e f2 3d cc 5b 29 3e 99 86 84 bd
       0.03972853 0.118466526 0.16538924 -0.06470985
000070 01 d4 42 3d b6 2d ed 3c 70 da 18 bd a0 20 32 be
       0.047565464 0.02895246 -0.037317693 -0.17395258
000080 e0 56 fe bd f3 f1 db bd dd 1c cd bd b2 f4 cc bd
       -0.12418914 -0.107395075 -0.10015271 -0.100076094
000090 04 86 20 be 4c f8 23 3e a2 d9 23 3e b0 cb 08 3e
       -0.15676123 0.16012686 0.16000989 0.1335895
0000a0 19 80 a3 bd 39 85 c4 3d 5f ed df bb 7f b2 fd bd
       -0.07983417 0.09595723 -0.0068337168 -0.12387561
0000b0 89 59 07 bd a6 12 8d bd 29 f9 0f be a2 95 f7 3c
       -0.03304437 -0.068883225 -0.14059891 0.030222718
0000c0 7b be 72 3d 1f 52 a2 bd 38 a5 0a bd d8 80 d5 3d
       0.059263688 -0.079258196 -0.03384897 0.104249656
0000d0 a3 a1 2e 3e 02 f7 b3 bd ae cc 8a 3d bd 4a 8d bd
       0.17053847 -0.087873474 0.06777321 -0.06899021
0000e0 3b 57 5a bd f0 cd 07 3e 24 12 14 3e 6c bc d4 3c
       -0.053305846 0.13262153 0.14460045 0.025968753
0000f0 be 4b 63 3c 40 b5 60 3d 24 db fb 3b 74 b0 af bd
       0.013873039 0.054860353 0.0076860357 -0.08578578
000100 76 58 80 3d 3e be 7f 3e 9e 2c ed bc 39 2d 07 3d
       0.062668726 0.24974915 -0.02895194 0.033002112
000110 b8 f4 39 3e 2a 05 1a 3d 3a d9 5a 3e d1 37 bb 3d
       0.18159759 0.03760258 0.21371928 0.091415055
000120 c0 88 da 3d ee ac bb 3d 8e a8 84 3d 33 bb 48 3e
       0.10670614 0.09163843 0.06477462 0.19602661
000130 93 ff 0a bc 2b 06 50 be c0 4a 5a 3d 50 d1 dd bd
       -0.008483785 -0.20314853 0.053293943 -0.10830939
000140 10 6e 47 be bb 61 b6 3d 56 c7 be bc e5 5d 0a be
       -0.1947558 0.08905359 -0.02328841 -0.1351238
000150 c7 ae 03 be 85 98 c0 bd 88 33 d0 bc 3f 25 f6 bd
       -0.12859641 -0.09404091 -0.025415197 -0.12018823
000160 5c d1 19 3e a8 73 4f bc 6d d3 24 be 21 6d 85 bd
       0.1502127 -0.012661852 -0.16096278 -0.06514955
000170 2e 34 d6 3d 5f b2 de bb 7f 47 91 bd c0 80 62 3d
       0.10459171 -0.006796166 -0.07093715 0.055298567
000180 42 bc 8b 3d 86 21 c6 3d ff a8 06 3e dd 8f 43 3e
       0.06823017 0.09674363 0.13150404 0.19097848
000190 9b e2 d2 3d 46 92 e2 bd 05 a6 16 3e 87 aa 17 3e
       0.10297128 -0.11063056 0.14711769 0.14811145
0001a0 38 b9 05 3d 42 ee 3d be e8 ef 8c bd e5 06 fe bd
       0.03264734 -0.1854792 -0.06881696 -0.12403659
0001b0 fc ba 27 3d c0 46 32 3e d4 69 de 3c 6f 66 35 3e
       0.040949807 0.17409801 0.027150072 0.17714857
0001c0 b4 fa a8 3b ba 71 18 3e ff a1 82 3d 62 bb c0 bd
       0.0051568393 0.14887133 0.063785546 -0.094107404
0001d0 1a 19 2b be b4 a2 32 be 2b be f8 bd 7a 4e 04 bd
       -0.16708794 -0.17444879 -0.12145647 -0.032301404
0001e0 85 70 12 3d 13 cb a6 3d 14 14 8d bd ad f1 3f 3d
       0.03575184 0.08144202 -0.06888595 0.04686134
0001f0 df ee 2e 3c d9 90 34 bd 96 06 0b 3e 99 c8 55 3e
       0.0106770685 -0.04408345 0.13576731 0.20877303
000200 67 7c 41 3e 9e 80 ee 3d 02 e8 98 3d 41 34 34 be
       0.18895112 0.116456255 0.07466127 -0.17598058
000210 e0 f3 9c 3d d3 e5 8c bd 7b eb c2 3d 2a 59 85 3c
       0.07663703 -0.06879773 0.095175706 0.016277868
000220 3c fd c7 bc e0 9e 89 3d 0d e4 92 3c d6 ee 4d 3c
       -0.024412744 0.06719756 0.017931009 0.01256915
000230 92 95 12 be 76 c2 df 3d 2a 99 22 3d 17 f9 af 3d
       -0.14314869 0.10925762 0.03969685 0.08592432
000240 e8 c1 0f 3d ad 1b fd 3d 27 78 be 3a 8b c0 1d 3e
       0.035097033 0.12358794 0.0014531658 0.1540548
000250 de 98 cb 3c 76 ec 99 3d 2e 0e 7b b9 a1 60 89 3d
       0.024853166 0.075158045 -0.00023942508 0.067078836
000260 c3 4b 85 bd 46 65 0c bd f5 69 ad 3d 00 84 39 bd
       -0.06508591 -0.03427627 0.08467475 -0.0452919
000270 d1 c8 09 3e 20 39 35 3d 47 21 b6 3d 06 e5 14 be
       0.13455512 0.04424393 0.08893066 -0.1454049
000280 29 ed 36 be 97 f5 40 3e 0f 87 e9 bd d9 aa de bc
       -0.17863907 0.18843685 -0.114027135 -0.027181076
000290 52 d0 01 be d7 76 f5 3d 20 d3 b5 bd 62 87 e7 3d
       -0.12677124 0.119855575 -0.088781595 0.11305119
0002a0 b9 2d 88 bc 0d 2b 59 bd 5d ce 0d be fd 9a 44 3c
       -0.016623365 -0.053019572 -0.13848253 0.011999843
0002b0 cc be 39 3d 4c 5b 9a 3d 9b db ee bd 14 74 0b 3e
       0.045347974 0.07536945 -0.1166298 0.13618499
0002c0 e7 e4 c8 bd c6 56 b8 bd 4f fe 71 3d ec b5 8d bd
       -0.09809285 -0.09000926 0.05908042 -0.069194645
0002d0 c9 03 65 3d 4d 39 bf 3d 93 88 25 be 7a 68 07 3d
       0.055911813 0.09337101 -0.1616538 0.03305862
0002e0 aa 31 2f 3e 65 21 b7 3d d5 c6 3e be 4e f9 99 3d
       0.17108789 0.089419164 -0.18630536 0.07518254
0002f0 16 84 1f 3c 77 77 f3 bd 8d 26 df bb 1f dc 32 bd
       0.009736082 -0.118880205 -0.0068100155 -0.043666955
000300 fd 68 19 bd ed a1 9c bd 1a 7d 63 3d a5 22 02 bd
       -0.03745364 -0.076480724 0.055539228 -0.03177132
000310 82 19 2a bd 95 17 63 bd db 02 18 be 4f ec 3f 3d
       -0.041528232 -0.05544241 -0.1484484 0.04685622
000320 b8 1a dc bd 11 09 44 bb 81 b9 5e bd cc 88 b3 3c
       -0.10747284 -0.002991263 -0.05437613 0.021915816
000330 4b ff 8a 3c d0 1c cc 39 90 a0 24 3c 57 cd 6a 3d
       0.016967436 0.0003893138 0.010048047 0.057324734
000340 1d 71 df 3b 23 2e 82 3c b0 17 ae bd 30 26 b4 bd
       0.006818904 0.01589114 -0.08500612 -0.08796346
000350 14 a7 99 bd 62 c4 aa bd ba b0 b4 3c 5b b6 96 3c
       -0.07502571 -0.08338238 0.022056926 0.0183975
000360 6b 46 c8 3d 58 e5 5a bd fd f0 8b 3d 78 c1 d8 3c
       0.09779056 -0.053441375 0.06833074 0.02645944
000370 f3 6e da bb 43 d8 80 bd f5 62 65 bc 02 ad 8c bd
       -0.006666058 -0.06291249 -0.014000644 -0.06868936
000380 7f bc 69 bd 87 d4 47 bd 9f f6 06 be e3 e4 bd 3b
       -0.05706453 -0.048786666 -0.13180016 0.0057951077
000390 a6 38 29 3e 66 ea 8c 3c 76 c3 a9 3d 9f 59 cc 3d
       0.16525516 0.017201614 0.08289234 0.09978031
0003a0 df ae 46 3e b9 4c 3a bd 7e a7 8e bd ae a1 6e 3d
       0.19402646 -0.045483325 -0.0696554 0.05825966
0003b0 d8 ed 89 3c df 60 9f bd 3b be 64 3e 0c c1 a7 bd
       0.016837046 -0.077821486 0.22338192 -0.08191118
0003c0 27 c6 5d 3d 8d 81 74 3c de d7 2f 3e 89 e7 ba bd
       0.05414405 0.014923465 0.1717219 -0.09126193
0003d0 48 a3 37 3d be f3 9a bc 03 50 e6 3d 86 4f 4b 3e
       0.04483345 -0.018915053 0.1124573 0.19854555
0003e0 b2 e3 7f bd eb 48 ec bd 4d 73 79 bc 8f 43 13 3c
       -0.062473007 -0.115373455 -0.015225244 0.008988275
0003f0 87 95 d3 bc 7f 47 be 3d 55 05 01 3e be 33 0d 3d
       -0.025828136 0.092909805 0.1259969 0.034473173

a2c_network.actor_mlp.2.weight f4 [128, 256]
000000 f5 7f c8 bd 79 1b 77 bc 52 f5 5a 3c 6a e4 89 bd
       -0.09790031 -0.015082234 0.013364153 -0.0673302
000010 2a a7 9d 3d 69 7d ac 3c 51 90 7b bd 3b 36 fb bc
       0.076979 0.021055894 -0.061416928 -0.030665508
000020 28 06 bd 3d c3 36 27 be 11 5a 72 bd 83 d4 b7 bd
       0.0922969 -0.16329484 -0.059167925 -0.0897608
000030 23 41 2c bb e0 4a 73 bd 64 4f 8b bd 48 6b ab 3c
       -0.0026283942 -0.05939758 -0.06802252 0.02092518
000040 b0 e9 44 3d fd 50 9e bd 12 dd c2 3d 30 6f 8a bd
       0.048074424 -0.07730291 0.09514822 -0.067594886
000050 4d 04 32 3c f8 89 bc bd 68 f0 02 bd df e9 84 3c
       0.010865283 -0.09206003 -0.03196755 0.0162248
000060 f5 a3 71 3d ff 8d 05 bd 9c 71 26 3e 35 19 d1 bd
       0.058994252 -0.03260612 0.16254276 -0.10209886
000070 d2 ac 15 3d c4 9a e6 3d 1f 4f 03 3e 46 a0 6b 3d
       0.036541767 0.11259988 0.12823151 0.057525896
000080 72 fc 64 bc 4a a4 af bc c6 80 67 bd 65 89 8e bd
       -0.013976203 -0.021440644 -0.056519292 -0.069598
000090 ea bd ff bb a3 5b 18 be 1c 04 64 3d 5b b4 b5 3d
       -0.007804622 -0.14878707 0.05566798 0.08872291
0000a0 cc 0e 4c bd 97 66 36 bc 6e 91 ee ba 3b a3 d5 bd
       -0.0498188 -0.011132858 -0.00182013 -0.10431524
0000b0 57 c8 f8 bc ee 03 d2 bb 21 bf 41 3d 6a 03 eb 3c
       -0.030368967 -0.00640916 0.047301415 0.028688151
0000c0 42 dd 93 3d 14 f4 15 be 77 a5 4b 3d 15 cf 40 3d
       0.07219936 -0.1464389 0.049718346 0.04707249
0000d0 cd 87 de 3d 2f 8f 2e bd de 25 5f bd b6 61 37 bd
       0.10865746 -0.04261702 -0.054479472 -0.04477092
0000e0 c4 f0 32 3e 5d 81 cf bd 5b a7 82 bd 9f 32 f3 bd
       0.17474657 -0.10132096 -0.06379577 -0.118748896
0000f0 01 0e e0 3c 2f 7a 70 3c 95 c3 a1 bd ba a8 4c bd
       0.027350428 0.014677568 -0.078986324 -0.049965598
000100 bf 3a bd bc f4 1e 18 3e 08 68 89 3d 65 80 d3 3c
       -0.023099301 0.14855558 0.067092955 0.02581806
000110 54 66 d7 3d 17 50 89 bd a1 d0 a5 3d 22 6a 28 bd
       0.105175644 -0.06704729 0.080964334 -0.04111684
000120 9c bc 5f 3e 55 d3 25 bc 77 96 84 bc af 42 40 bd
       0.21849293 -0.010121186 -0.016185028 -0.046938594
000130 3b eb 6e bb 67 7d 67 bd cf 92 fe bd 79 9a 28 3d
       -0.0036456126 -0.056516077 -0.12430345 0.04116294
000140 c0 54 00 be 0d d1 4e 3c 2f 63 61 bd dd 94 a2 bd
       -0.1253233 0.012623084 -0.05502623 -0.0793855
000150 84 9b e8 bc 73 a5 a6 b9 a8 70 29 bd 99 e5 c8 3c
       -0.028394468 -0.00031785257 -0.041367203 0.024523543
000160 2e 09 10 3e bd fe b8 3d 02 4a 74 3c e1 40 ff bb
       0.14066002 0.090329625 0.014910223 -0.0077897166
000170 5c 7f b9 3c be 49 e3 3d 0a c4 80 3c f7 37 51 bd
       0.022643737 0.110980496 0.015718479 -0.051078763
000180 9c 4d bf bc 5e b9 36 be 57 b3 ae 3b f1 8f 0e 3e
       -0.023352437 -0.1784415 0.0053314376 0.13922097
000190 1f 19 82 bd 3c 1b 92 bd f2 a0 78 3c bf 1f f6 3d
       -0.06352448 -0.07134101 0.015175091 0.12017774
0001a0 c0 03 cb 3d 09 ea 90 bc 31 77 87 3d 01 75 82 bd
       0.09912825 -0.017689722 0.06614531 -0.06369973
0001b0 49 9f 73 3d 2e 9d a5 bd 36 8d bd 3d eb 1f ad bc
       0.059478078 -0.0808662 0.092554495 -0.021133384
0001c0 ee b7 3c 3b 5a a6 98 3c b6 54 9b 3c a6 53 7d bd
       0.0028796154 0.01863401 0.018961292 -0.06184735
0001d0 60 77 81 bd e4 79 a5 bd d0 46 45 be 06 85 12 be
       -0.06321597 -0.080798894 -0.19265294 -0.14308557
0001e0 a5 e4 97 3c cb d2 0b bd 3b 60 00 3d d0 34 4c 3d
       0.018541643 -0.034136575 0.031341773 0.049855053
0001f0 ee a9 1f 3d bb e7 81 bd 51 31 a1 bd 6b 82 ae bc
       0.038980417 -0.06343027 -0.078707345 -0.021302423
000200 bb ae 06 bd 51 62 08 3e b0 06 57 3d 88 8a e4 3c
       -0.03288148 0.13318755 0.052496612 0.027898088
000210 7c 86 f3 3c 1a 3d 66 bd 04 c2 27 bd d7 c2 bd bc
       0.029727213 -0.056210615 -0.040956512 -0.023164196
000220 84 49 69 3d c0 8e 50 bc 34 34 07 3d 67 2e bb bd
       0.056954876 -0.012729347 0.03300877 -0.0913971
000230 47 7c ff bd 5d ff b5 3d 34 ee b2 bd 3a 40 a6 3b
       -0.12474876 0.08886597 -0.0873684 0.0050735744
000240 8c b1 cd 3d 0a cf 81 be 56 86 1a 3e 69 99 d7 bc
       0.1004363 -0.2535327 0.15090308 -0.026318269
000250 3a 2c 90 3b b3 da 12 3d bf 0d 0e 3e d1 49 d1 bc
       0.0043998035 0.0358531 0.13872431 -0.025547894
000260 b2 bd 08 3e 29 9e 86 bd af 55 e4 bc 5d 6b a2 3d
       0.13353613 -0.065731354 -0.027872888 0.07930634
000270 66 d5 b6 3d a7 8f 03 bd 46 cb c1 3d 9f cd 85 bd
       0.08927421 -0.03211942 0.094625995 -0.0653336
000280 ae 47 90 3c 15 e9 d4 bd e1 06 a1 bd 5a 83 1b bd
       0.017612305 -0.10396019 -0.0786264 -0.037967063
000290 40 d0 72 bd 5f 93 4c bd e4 29 27 bb 66 80 09 be
       -0.059280634 -0.04994523 -0.0025507146 -0.13427886
0002a0 10 d8 f9 bb 17 14 87 3d 55 b7 36 be fe 1d 96 bd
       -0.0076246336 0.06595629 -0.17843373 -0.07329939
0002b0 b0 fb 02 be a7 64 84 bd 38 55 ad bd 1f bf ff bd
       -0.12791324 -0.064645104 -0.0846352 -0.12487625
0002c0 08 b0 d8 bb 54 8f 41 3d 41 a2 10 be 74 47 90 bc
       -0.0066127814 0.04725583 -0.14124395 -0.017612197
0002d0 f6 41 0d bc 7c 39 1e bc 1a 17 39 3d 92 48 85 3d
       -0.008621683 -0.00965726 0.045188047 0.06507982
0002e0 18 b4 e8 3c 4d 7b 30 bd a9 97 20 bd e2 8a d9 3c
       0.028406188 -0.04308634 -0.039207134 0.026555482
0002f0 dd 61 35 bd 00 c0 c1 3d 57 bd 85 be d3 a7 9d bc
       -0.044282783 0.09460449 -0.26121017 -0.019245064
000300 d1 7a 1f 3e 9a d6 dd 3b 91 ae 2e 3d 4c 20 77 bd
       0.15574194 0.0067699673 0.04264695 -0.060333535
000310 aa 2f f1 bc ee bd 91 bd f5 1b 89 bd b6 37 2a 3c
       -0.029441673 -0.07116304 -0.066947855 0.010389259
000320 f5 0c 0a 3c a9 35 2f 3d c1 bc b8 bd 7a c0 20 3e
       0.008425941 0.042775784 -0.09020377 0.15698424
000330 85 21 88 3d 27 02 85 3e 1e 00 d8 3e c5 c2 87 3d
       0.06647018 0.25978205 0.4218759 0.06628946
000340 3e 3e 8b bc 48 20 92 39 47 0d 03 bd a7 bb 50 bd
       -0.016997453 0.0002787134 -0.031995084 -0.05096021
000350 f9 e1 65 bd ad 29 c3 bb 31 67 2a bd e8 3f e1 bc
       -0.056123707 -0.005955896 -0.041602317 -0.027496293
000360 52 24 8c 3d b5 92 eb bd 9a f5 ce bd cb 65 9d 3d
       0.06842865 -0.115025915 -0.101054385 0.07685431
000370 41 4d be 3d c4 f9 cc 3d ce 25 e3 bc e9 02 5c 3d
       0.09292079 0.100085765 -0.027727988 0.053713713
000380 e5 c7 08 be d2 78 c4 3d 10 f1 94 3d 7f b6 4d bd
       -0.13357504 0.09593357 0.072725415 -0.05022287
000390 4b 4c 29 be 36 ed 04 3e a2 9c a8 bd c9 ce ea 3d
       -0.1653301 0.12981114 -0.08233 0.114652224
0003a0 e9 f2 db bc d9 dc cc bd 46 3e 5e bd 81 7b ac bd
       -0.026849227 -0.10003061 -0.054258607 -0.08421994
0003b0 9f e3 cf 3d a4 72 e4 bc 82 02 bb bd d8 e3 4a 3d
       0.10150837 -0.027886696 -0.09131338 0.049533695
0003c0 52 11 94 bd 29 d4 37 3e 46 d1 00 3e c7 a0 e1 bd
       -0.07229866 0.17952026 0.12579831 -0.11016994
0003d0 a9 ef 0b bc 32 7d 11 bc 77 91 74 bd 8e eb 56 bd
       -0.008541026 -0.008879947 -0.05970904 -0.052470736
0003e0 22 5a 0e be 74 35 8b bd e6 17 3c be c3 af 11 3e
       -0.1390157 -0.06797305 -0.18368492 0.14227204
0003f0 fc 76 a9 bd ae 2d 49 3d f5 fe 36 3d ab b6 a4 bc
       -0.082746476 0.04911583 0.04467674 -0.020106634

a2c_network.actor_mlp.2.bias f4 [128]
000000 d9 af f7 bc 95 7f 86 bd 70 75 9b be 72 de 1a 3e
       -0.030235218 -0.06567303 -0.30363035 0.15123919
000010 9c d5 de 3b 48 88 56 3d af e5 9c bd 77 81 11 bd
       0.0068003666 0.05237606 -0.07660996 -0.035523858
000020 e6 ca 23 3e 49 d1 82 be ca 02 81 bc 88 c4 07 be
       0.15995368 -0.25550297 -0.0157484 -0.13258564
000030 cc 18 f4 bd bc d0 25 bc 39 c8 f6 bc 66 44 f4 bc
       -0.11918792 -0.010120567 -0.03012477 -0.029817771
000040 23 00 0d bd ba 24 91 bd 8a 92 7a 3d 9d 65 9c bd
       -0.03442396 -0.07087083 0.061174907 -0.07636569
000050 64 df c5 3d 2b a4 e4 bd a8 b1 00 be f7 88 84 bd
       0.09661749 -0.11164125 -0.1256777 -0.064714365
000060 ee b0 bb bd fa 3b 64 be b1 b7 f1 3c 68 29 3e bc
       -0.09164606 -0.22288504 0.029506536 -0.011606552
000070 7a c9 ae bd 31 5d b8 3c ee 9c fd bd d9 ec f4 bd
       -0.08534522 0.022505375 -0.123834476 -0.119592376
000080 ed ac 5d 3c b4 1a 2d bc 3f 07 ce bd 88 65 fc bc
       0.013529998 -0.010565449 -0.10059976 -0.030810133
000090 e1 58 45 bd b6 f5 a4 be f7 6c 0a be c3 c3 47 bc
       -0.048180465 -0.32218713 -0.1351813 -0.012192669
0000a0 a2 8e bd 3d 17 5c 12 3d bb 4b ba bd ab ec e6 bc
       0.09255721 0.035732355 -0.09096476 -0.028189024
0000b0 d3 f1 62 3d 82 bc 9b bd a8 36 b3 bd 4f b0 17 3d
       0.055406403 -0.076043144 -0.08750659 0.037033375
0000c0 3e ef f6 bd 6a ff c8 3c b9 97 fc bd 77 ac 1f be
       -0.120573506 0.024535853 -0.12333626 -0.15593134
0000d0 86 d7 03 be 8e 21 44 bd 97 1a c7 3c 52 29 d3 bd
       -0.12875184 -0.047883563 0.024304671 -0.103106156
0000e0 07 51 0f be 76 60 eb bb b5 54 43 be da 10 09 be
       -0.13995753 -0.00718313 -0.19075282 -0.13385335
0000f0 c2 36 69 bd d1 44 a2 bd e7 2f a7 bd b0 5f 89 bc
       -0.056936987 -0.07923282 -0.081634335 -0.01676926
000100 21 9a c0 bd 3f e4 3a bd 63 2b 21 be 61 1f ff bc
       -0.09404398 -0.04562783 -0.15739207 -0.031142892
000110 7e 6d 5e bd a3 1f 9b bd 6a 7e f9 bd 0a d9 bf 3c
       -0.05430364 -0.075743936 -0.12182315 0.023418922
000120 9c b7 a6 bc fc d6 80 bc 8c b3 aa bd 10 25 62 be
       -0.020351224 -0.015727513 -0.08335027 -0.2208445
000130 55 a1 ec bd f9 aa c2 bd 8d af 27 be 29 10 74 be
       -0.11554209 -0.09505267 -0.16375561 -0.2383429
000140 d5 85 d2 bd 41 4b f7 bd d5 92 ad bd 86 bc 9e 3c
       -0.10279433 -0.120749004 -0.084752716 0.019377004
000150 b6 ae e4 be 39 fc 0e be 9a e2 5a bc 3f 6f 4a be
       -0.44664544 -0.13963403 -0.01335969 -0.19769
000160 c8 65 f7 bd c9 36 32 bd a7 c0 08 3e f1 ce 0d 3d
       -0.1207996 -0.04350928 0.13354741 0.034621183
000170 51 21 ea bd d6 b1 e5 bd 92 07 af 3c 25 f6 bb 3c
       -0.11432136 -0.1121556 0.021365914 0.02294452
000180 8f bd 56 be f8 85 03 be b4 68 0c be bc e4 ca bd
       -0.20970748 -0.12844074 -0.13711816 -0.09906909
000190 ef fd 2e bd b0 e4 1f be 7a da c6 bd 80 32 b5 3c
       -0.04272264 -0.15614581 -0.0970964 0.022118807
0001a0 19 28 93 bd cf 98 15 3d c6 68 e4 bc 59 ae df bc
       -0.071853824 0.036522683 -0.027881991 -0.027304815
0001b0 ca ef 10 bd 8d 03 a8 bd c4 54 a9 3d 97 56 ed bd
       -0.03538493 -0.08203802 0.08268121 -0.11588781
0001c0 ea 5f 44 bd 43 94 39 be 75 12 24 3d 84 43 2a bd
       -0.047943033 -0.18122964 0.040056664 -0.041568294
0001d0 d5 9a 13 be 9c 7e 54 bd 12 f8 63 bd 33 52 03 bc
       -0.14414532 -0.051878557 -0.0556565 -0.008015203
0001e0 77 9e 58 3b 75 f3 89 bd 9e f7 25 be 40 d7 57 bd
       0.0033053437 -0.06735889 -0.1620774 -0.052695513
0001f0 c5 a3 15 be c2 f1 f1 bd 3a 0d 4e be df 1b c2 bd
       -0.14613254 -0.1181369 -0.20122233 -0.09477972

a2c_network.actor_mlp.4.weight f4 [64, 128]
000000 19 32 e2 bc b6 42 ea be e2 6d 35 bc 7a 28 ff bc
       -0.027611779 -0.4575402 -0.011073561 -0.03114723
000010 e1 68 95 bd 7e 50 57 3d b9 fc e9 bd 36 f9 2d bd
       -0.07295395 0.052566998 -0.11425156 -0.042473994
000020 d0 41 d9 bd 65 54 fd bc 07 06 84 3d 2d 47 93 3c
       -0.10608256 -0.030924032 0.06446462 0.017978275
000030 15 da be 38 d1 18 24 be 16 0e af bd 63 1c 88 bc
       9.100527e-05 -0.16025092 -0.085476086 -0.016615098
000040 0b 53 95 bc 89 be 39 be 3f d5 59 bd 77 23 00 bd
       -0.018228075 -0.1813909 -0.053181883 -0.031283822
000050 23 3c a2 3d 32 5e 00 3e 31 4d f2 bd bd 3e e1 bd
       0.079216264 0.12535933 -0.11831129 -0.109982945
000060 da 6c b7 3c 24 88 c1 3a 15 9c fe 3d c5 27 5b bd
       0.022390772 0.0014765305 0.12432114 -0.053504724
000070 08 e4 1c bf 7e 13 5a 3d 14 28 72 3d 88 74 13 be
       -0.6128545 0.053241245 0.059120253 -0.14399922
000080 7a fd 5b 3c 4e 88 05 3c d5 27 37 bd ed 58 76 3d
       0.013427133 0.008150173 -0.04471572 0.0601434
000090 60 ca 20 3e 02 7c df 3c 3f 02 e1 bd f8 ff 8f 3c
       0.157022 0.027280811 -0.109867565 0.01757811
0000a0 6d 48 ef bd fb d4 9c bd 21 52 04 bd 8c 36 1e bc
       -0.11683736 -0.0765781 -0.032304887 -0.00965656
0000b0 86 4b 72 be 36 1c 06 bd dd d6 53 3d 71 58 0a bc
       -0.23661622 -0.032741748 0.05171858 -0.008443938
0000c0 7e fa bf 3d 2f e1 83 be 25 74 1f be 78 a7 99 bd
       0.093739495 -0.2575774 -0.1557165 -0.07502645
0000d0 15 aa d2 bd 2f f7 5e 3d a9 b7 0d bc a3 c8 13 be
       -0.10286347 0.05443495 -0.008649745 -0.14432006
0000e0 ee 78 82 bd 36 71 d7 3d e4 f5 3e 3d 24 4f 9d 3d
       -0.06370722 0.1051964 0.04662122 0.076811105
0000f0 6d 06 ae bd 88 c2 22 3d 9e 83 13 be d9 e9 d8 3d
       -0.08497319 0.0397363 -0.14405677 0.10591478
000100 2d 25 19 3d 75 1f 30 be 4c 68 a1 3d 77 58 1e bc
       0.03738897 -0.171995 0.07881221 -0.009664646
000110 a9 c3 85 bd e7 77 1c 3c 1f 67 37 3d 7f 82 70 bd
       -0.0653146 0.009550071 0.04477608 -0.0587182
000120 e7 2c ff 3b be 50 94 bc bd 50 4d be 84 d9 24 be
       0.007787335 -0.018104907 -0.2005033 -0.160986
000130 08 91 d6 bc fd e2 07 3d 21 01 de bd 7a cc 5f bd
       -0.026192203 0.033175457 -0.10840059 -0.054638363
000140 68 98 a7 bd 29 62 e8 3c d7 4c 3b 3d 33 64 71 3d
       -0.08183366 0.028367119 0.045727577 0.058933448
000150 54 45 6f 3d 92 cc c1 3d 48 2a 2b be 35 f9 1f be
       0.058415726 0.09462847 -0.16715348 -0.15622409
000160 b2 f9 22 be f6 7f 46 bd 6d 04 e6 bd 4c d3 42 be
       -0.15915564 -0.048461877 -0.11231313 -0.19025916
000170 30 ae ca bd 3e 3b 0e be 92 cd c0 3d 00 44 e5 3b
       -0.09896505 -0.13889787 0.094142094 0.0069966316
000180 21 ae ab 3c 7b 26 2d be a0 46 86 bd 27 8c 64 3c
       0.020957055 -0.1690921 -0.065564394 0.013949431
000190 fc 30 dc bd f8 97 cd 3c 8a 88 26 be 9c 56 c0 bd
       -0.107515305 0.025096878 -0.16263023 -0.093915194
0001a0 9d f1 cc bd 99 05 1e be 8a 33 d0 bd 54 df 06 3b
       -0.100070216 -0.15431823 -0.1016608 0.0020579891
0001b0 a7 b4 ec bc b7 e7 d7 3c a0 54 67 3d a2 88 04 3e
       -0.028894736 0.026355607 0.05647719 0.12942746
0001c0 4c 4e 2a be 4c 5a 3e bd e0 13 83 bc 15 57 af 38
       -0.1663143 -0.046472833 -0.016000688 8.3608706e-05
0001d0 b2 44 a0 be 95 56 81 be 01 cc 0c be da 0c fb 3d
       -0.3130241 -0.2526137 -0.13749696 0.122583106
0001e0 75 42 f4 bd 56 56 a9 bd ef f0 be 3d 21 a5 d2 bc
       -0.11926738 -0.082684204 0.09323298 -0.025713505
0001f0 ed 10 12 be 83 1f 2f 3e c7 b5 b5 3d 10 3f e6 3d
       -0.14264269 0.17101865 0.08872562 0.11242497
000200 75 dd 06 3e 5d 92 00 be 50 54 32 3e 54 d7 80 be
       0.13170417 -0.12555833 0.17414975 -0.25164282
000210 c7 3a b2 bd 20 71 4b be 9a 9c e1 3d 0d c3 1e be
       -0.08702617 -0.19867373 0.110161975 -0.15504093
000220 3a 0a d9 be 25 35 be 3e b1 b8 7a 3d a4 89 64 39
       -0.42390615 0.3714992 0.06121129 0.0002179505
000230 2b 5b 53 bd 64 45 ef 3d 09 d4 e8 bd 19 dd 9a 3d
       -0.051600616 0.11683157 -0.113685675 0.07561702
000240 53 0f 52 bb 86 92 01 3e 0e dc 8a be eb 1c 92 bd
       -0.003205259 0.1265355 -0.27121013 -0.07134422
000250 d0 c4 0a bd 42 d6 88 bd c4 d9 fd 3d ab 83 c9 3d
       -0.0338791 -0.066814914 0.12395051 0.09839567
000260 41 aa 00 bd f5 9f 19 3e aa cd 4f be 40 53 51 3e
       -0.031412367 0.15002425 -0.20293298 0.20441914
000270 76 84 1d 3e 82 a0 b7 bc 0c fd 81 3d ff 8f 5c 3e
       0.15382561 -0.022415403 0.06347093 0.21539305
000280 08 8b d2 bc 9b 4e 3f bc 55 a7 1c 3e 9a df 83 3d
       -0.02570106 -0.011676456 0.15298207 0.06439133
000290 18 75 b7 3c 92 bf 62 3e b3 64 29 3e 5a c7 3e bd
       0.022394702 0.22143391 0.1654232 -0.046576835
0002a0 75 15 36 be 02 30 22 be 76 cf 48 3e bf c0 ad 3d
       -0.17781623 -0.15838626 0.1961039 0.08484029
0002b0 de c0 d8 be ab d4 a8 3d a1 7b cd 3d b2 b7 98 bc
       -0.42334646 0.08243688 0.10033346 -0.01864228
0002c0 7e fd 44 3d e7 50 4c 3c 28 bc 98 bc 17 ef e4 3d
       0.04809331 0.0124704605 -0.018644407 0.11178415
0002d0 3f 81 6b 3d e4 24 e1 3d 59 59 a1 3d 9b 03 3b 3e
       0.057496306 0.109933645 0.0787837 0.18263094
0002e0 b8 b1 f3 bd 37 b7 d9 bd 21 dc 30 3e bf c9 47 3e
       -0.118991315 -0.106306486 0.17271473 0.19510554
0002f0 f2 10 62 3d 8e 59 c0 bb 0f 2d 1e 3e b2 67 f4 3d
       0.05519194 -0.0058700508 0.15446876 0.11933841
000300 25 79 14 3c 77 9b 98 be 12 b8 d8 3d c0 73 22 3d
       0.009062086 -0.2980611 0.105819836 0.03966117
000310 d2 bf 4b bd 68 2b 59 be 7f cb 5a 3e d9 f9 97 be
       -0.04974348 -0.21207964 0.2136669 -0.29682806
000320 4a 52 b5 3c c4 f3 cf bd 2b cf 57 3e 77 76 93 3e
       0.022133965 -0.101539165 0.21075122 0.2880132
000330 30 7e da 3d 57 82 18 3e 56 f2 49 3b 1b 32 3d 3c
       0.106685996 0.1489347 0.003081461 0.011547591
000340 bd 3c 26 bd 36 26 d8 3d 3b d1 21 3e 46 ec 71 3d
       -0.04058527 0.10554163 0.15802471 0.05906322
000350 2f 62 56 3e c2 4c 51 bd 42 13 c1 bd b3 ad 70 3e
       0.20935892 -0.051098593 -0.09427501 0.23503761
000360 4b 78 19 3e b4 e1 b2 3d 1d a3 a2 be 65 87 84 be
       0.14987294 0.08734456 -0.3176507 -0.25884548
000370 ca fc 4e 3e 91 3e 06 3e 83 7f ef bd 61 e6 c9 bd
       0.20213619 0.13109805 -0.11694243 -0.098583944
000380 8f 92 e5 3d f7 58 a0 bd 69 37 ae 3e 01 1b 49 3b
       0.112095945 -0.07829469 0.3402665 0.0030686262
000390 77 b9 5e be 38 eb a5 3d 2a 95 3f 3e 4b dd d9 be
       -0.21750437 0.08101505 0.18709245 -0.42551646
0003a0 1a b7 1f 3e 06 7c 23 be 62 f0 68 bd 8e 0a c1 3d
       0.15597191 -0.1596528 -0.056869872 0.09425841
0003b0 37 1c cc bc f2 ab c1 3d b2 ae bd be ae 09 bc 3d
       -0.024915798 0.09456624 -0.37047344 0.09181534
0003c0 25 6c 3b 3e db 78 14 3e bd 68 27 bd 1a 02 26 3d
       0.18302973 0.14499228 -0.04087137 0.040529348
0003d0 8e c7 49 3d 60 af db bd 40 b7 94 bd 1c ee 93 bb
       0.049262576 -0.107268095 -0.07261515 -0.004514469
0003e0 86 46 8d 3d c7 20 22 be 62 6c b4 bd 4e 58 e8 3d
       0.06898217 -0.15832816 -0.08809735 0.11344968
0003f0 ff c9 1f 3e d3 91 40 3e 63 4b a0 3e 6c 51 82 3d
       0.15604399 0.18805628 0.31307516 0.06363186

a2c_network.actor_mlp.4.bias f4 [64]
000000 d2 f0 ed bd 45 f1 43 be 59 d1 e7 bd 20 77 07 bd
       -0.116181985 -0.19135006 -0.11319227 -0.03307259
000010 5d 69 97 bd be 75 ad bd 13 42 3c bd 4e aa a2 bd
       -0.07393143 -0.08469723 -0.04596145 -0.07942639
000020 c8 73 80 bc 35 c7 45 bd ff 44 aa bd f3 89 b4 bd
       -0.015680209 -0.04828568 -0.08313941 -0.08815374
000030 0d 84 a5 bd 29 20 ed bd 33 04 05 be 43 4d fc bd
       -0.08081827 -0.115784 -0.12989883 -0.12319424
000040 62 75 8b bd 41 55 38 bd 7f 86 14 bd b9 bd ba bc
       -0.06809498 -0.04500318 -0.036261078 -0.022795545
000050 3c 6c 16 3d b4 b7 14 bd e2 74 07 bd 0a 6c af bd
       0.036724314 -0.036308005 -0.033070453 -0.08565529
000060 f3 07 50 3d 00 ff ad bc c4 27 8c bd 0d 36 eb bd
       0.05078883 -0.021239758 -0.06843522 -0.11484919
000070 34 40 78 bc b8 e1 89 bd 41 3c 02 bd 42 aa 02 bd
       -0.015152026 -0.067325056 -0.031795744 -0.03190065
000080 3c a1 8c bd 38 8d 74 bd c9 32 62 bd 06 1d 03 bd
       -0.068666905 -0.05970499 -0.055224214 -0.0320101
000090 cd 62 6f bd 11 fe 42 bd 77 7c c3 bc 2a 7e 71 3d
       -0.058443833 -0.047605578 -0.02386306 0.05895821
0000a0 f9 99 47 bd a7 7a 7b bc 86 e8 e7 bc 14 e4 1a be
       -0.048730824 -0.015349067 -0.028309118 -0.15126067
0000b0 42 d2 46 bd d8 bc 16 bd 86 37 0c be 89 a0 c6 3d
       -0.04854036 -0.03680119 -0.13693056 0.096985884
0000c0 2c 36 84 bc af 5b 4a bd 32 61 81 be 12 d0 6a be
       -0.016139112 -0.049403843 -0.25269467 -0.22930935
0000d0 12 b2 9a bd bc 17 97 bd f8 4b 3a bd 77 0e cf bd
       -0.075534955 -0.07377574 -0.045482606 -0.10110181
0000e0 95 96 3d bd 4e ef 9c bd 27 14 29 bd a3 41 3e bd
       -0.046286184 -0.07662831 -0.041278984 -0.046449315
0000f0 58 a6 4e 3c f6 d1 39 3c dc e2 89 bd 8e e3 b2 bd
       0.012612902 0.0113415625 -0.06732723 -0.08734809

a2c_network.value.weight f4 [1, 64]
000000 8b d1 f4 bd 88 32 5b be a1 ff 45 bd e7 e6 eb 3c
       -0.1195403 -0.21405995 -0.04833949 0.028796626
000010 44 b6 fd ba b0 b7 01 bd d6 ed 94 bd d1 bd 0e be
       -0.0019356688 -0.03166932 -0.07271926 -0.13939597
000020 b7 92 d7 3c c7 7f 14 3c 40 57 cb 3e f9 67 a7 3d
       0.026315076 0.009063668 0.39715004 0.08174128
000030 ea 86 be bd 2a 72 58 3d a4 df 62 be 08 4c ed 3c
       -0.093030766 0.05284325 -0.22155625 0.028966919
000040 fc 05 fc 3d ac 4e 9b 3d 54 14 45 3c aa 08 89 bd
       0.12305829 0.07583365 0.012028772 -0.06691106
000050 e7 e8 15 3e 0e 96 1a bd 2c dc 1f bd a5 93 1b 3e
       0.14639626 -0.03774076 -0.03902833 0.1519304
000060 6a 1e 8e 3d 05 10 df 3c 4a 55 bd 3b d6 50 6b ba
       0.06939395 0.027229318 0.0057779895 -0.0008976584
000070 3d ab f3 3b 9e b3 85 bd 9c aa 88 bc fd 29 e6 3c
       0.0074361847 -0.065284 -0.016682915 0.028096193
000080 0c 2c c2 bc b9 51 1d bd 7a 34 3b 3c 4b 5c 23 ba
       -0.023702644 -0.038408015 0.011426086 -0.0006231709
000090 10 b7 e5 bc 70 de ea 3c 9f 77 a1 3c f5 02 d7 3d
       -0.028041393 0.02867052 0.01971036 0.10498611
0000a0 3d 6f 1c bd df b0 81 bd 42 b3 b5 3c 45 4d 4f bd
       -0.038192023 -0.063325636 0.022180203 -0.0506108
0000b0 6e 75 37 bd 38 d7 b5 3c fa 0a f9 bd 2e e5 af 3d
       -0.044789724 0.02219735 -0.12160297 0.085886344
0000c0 74 ac 1c bc ff cb 78 bd 35 9c 79 be 07 6c 6e be
       -0.0095626 -0.06074142 -0.24375995 -0.23283397
0000d0 54 f3 19 3d 52 7f 2e 3a 27 51 bc 3d 11 53 e8 3c
       0.03758557 0.00066565454 0.09195166 0.028359922
0000e0 2d 5e e2 bc 8b 98 16 be 95 ce c9 3d fe 51 1b 3e
       -0.027632797 -0.14706628 0.098538555 0.15167996
0000f0 d5 2c ca bd ed 0c d5 bc 95 1a e7 3d 06 1e b1 bc
       -0.09871832 -0.02600714 0.11284367 -0.021620762

a2c_network.mu.weight f4 [4, 64]
000000 7a b9 1b be dc 60 7c bd 88 6c eb 3c 1e 08 d3 3b
       -0.15207472 -0.06161581 0.028738275 0.0064401766
000010 55 b8 2f bc 38 1b 83 bb 29 6a 9a bb 1e 92 1e 3b
       -0.0107251005 -0.0040010475 -0.0047123623 0.002419598
000020 d3 47 6a bb b3 a8 c4 3d 85 f1 e6 ba ff de 8e bc
       -0.0035748377 0.09602489 -0.0017619586 -0.017440317
000030 3a 9b 9b 3c 17 45 2f 3c b7 ed b9 3b 20 d8 28 be
       0.018994916 0.010697625 0.00567409 -0.16488695
000040 9f 6f 34 3d a1 45 89 3c e1 c4 98 bc db 64 e1 3c
       0.044051763 0.016756834 -0.018648567 0.027513912
000050 8f 3f 01 bd d1 4b 05 3d 17 59 d0 3a 21 f3 9f 3d
       -0.031554755 0.032543007 0.0015895691 0.07810045
000060 5c ba e1 3b 62 6d 96 bd d4 8b 6d bc 6c ef 0b bc
       0.006888671 -0.07345082 -0.01449867 -0.008540969
000070 19 a1 b0 bb 9b 16 98 3c 2a 34 c3 3c d8 79 60 bc
       -0.005390298 0.018565467 0.023828585 -0.013700925
000080 fc 86 5c ba 0f a0 03 3c 8c f6 b0 bc c1 17 5e 3c
       -0.0008412448 0.008033766 -0.021601938 0.013555468
000090 7e d6 0c bb 3c 94 02 3c 90 79 42 3c 15 d4 14 bd
       -0.0021490152 0.007969912 0.011869803 -0.03633507
0000a0 8e 15 83 3c 78 42 9e bc d4 10 bd 3c 52 4e 8e bc
       0.016001489 -0.019318804 0.023079313 -0.01737133
0000b0 84 4f 75 3b dc 70 8b 3c b4 26 ec 3c 7e 68 cd bb
       0.0037431428 0.017021589 0.028827049 -0.00626856
0000c0 45 f0 c5 3c cd 1f 1e 3d 00 c3 31 3d 63 6d 04 bc
       0.024162421 0.038604546 0.043398857 -0.00808272
0000d0 1e 27 9d 3c 90 62 2d 3c 90 a9 cb ba 20 c8 96 bd
       0.019183692 0.010582581 -0.0015538204 -0.073623896
0000e0 e0 44 38 ba fe d0 31 bc 66 c1 23 3c 20 d4 76 3d
       -0.0007029306 -0.01085305 0.00999484 0.060260892
0000f0 ec 4c c2 bc 51 6b 66 ba 07 6a 7f bd 32 b0 e6 3b
       -0.02371832 -0.0008789795 -0.062356975 0.007040047
000100 d8 58 5e 3d 9f c2 a0 3c 7e 9a 2b 3c 26 e2 ea bc
       0.054283947 0.019624053 0.0104738455 -0.02867229
000110 7c 24 ad 3a 8b c4 f1 bb 23 a1 ac bb 65 a9 61 bc
       0.0013209726 -0.007378166 -0.0052682324 -0.013773297
000120 61 c9 db 3b 8a 23 2b bc b5 87 77 ba 46 64 78 bc
       0.006707356 -0.010445485 -0.0009442524 -0.015160626
000130 a6 e3 c9 39 3b 10 d9 3c ee 38 3a 3d 53 10 e6 3d
       0.0003850732 0.026496997 0.04546445 0.11233582
000140 50 6a 7d 3d 64 37 3a bc 0d 7e 09 bc 7d 15 bb bb
       0.061868966 -0.011365745 -0.008391869 -0.0057093487
000150 66 d0 98 3b c9 36 20 bd fb e2 3d bc 80 e2 c2 3b
       0.004663515 -0.039114747 -0.011589761 0.005947411
000160 3b cb 91 bb fb 03 51 3c 5a 1f 86 bd d0 79 42 3d
       -0.004449276 0.012757297 -0.065489486 0.04747945
000170 66 b2 09 bc 06 02 ef bb 08 90 1e bc 79 c0 8b bc
       -0.00840435 -0.0072939424 -0.009677894 -0.017059552
000180 18 d3 66 bc 01 cb b4 3c e4 fb 0a 3b f4 68 c6 bc
       -0.014088415 0.022069456 0.0021207267 -0.024219967
000190 02 3c 02 3d 52 8f 6f 3c 63 e1 9d bc 14 3f 60 3d
       0.03179551 0.014621573 -0.019272512 0.054747656
0001a0 11 1e ac bc bd f1 8b 3c e9 31 26 3c a5 40 7f bc
       -0.02101043 0.017083043 0.010143735 -0.015579377
0001b0 0c 53 8f 3c de 2d c6 3b 8a fa 88 bc 4d 6d 70 3d
       0.017495655 0.0060479483 -0.016721029 0.058697987
0001c0 98 a0 2b bc b8 c3 75 bc 88 67 d2 bc e5 86 7c 3d
       -0.0104753 -0.015000276 -0.025684133 0.061652083
0001d0 b7 8d 0e 3c b1 df 95 bc 91 57 0b 3e 1a 0d f9 bb
       0.00870078 -0.018295141 0.13607623 -0.007600439
0001e0 6b 50 a3 3c b6 57 1f 3d 6d fe b3 bc d6 6e 29 bd
       0.019935807 0.038902007 -0.021971906 -0.041365467
0001f0 a9 a0 4a 3d 8d 94 8f 3c ff 28 f6 3c 45 88 1b 3d
       0.049469624 0.01752689 0.030048845 0.037971754
000200 c6 6d a1 bd 71 da 38 bd 5d 6c ba 3c 57 c6 07 bd
       -0.07882266 -0.045130197 0.02275675 -0.033148136
000210 f2 c5 45 3d 86 67 8e 3b 55 63 45 bd e6 5b 74 3c
       0.04828448 0.004345837 -0.048190434 0.014914488
000220 70 17 55 bd 96 3e 23 bd c5 1a 0d ba 17 19 10 bb
       -0.052024305 -0.03985461 -0.0005382712 -0.002198761
000230 e2 7b 47 3d 62 50 d2 bb 83 dd d3 3d f6 54 bd 3d
       0.04870213 -0.006418274 0.103449844 0.09244721
000240 9d b1 32 bd 9a 63 91 3c 13 24 3a 3c 33 99 61 bc
       -0.043626416 0.017747689 0.01136114 -0.013769436
000250 f4 c3 2c bc 11 19 66 3d 26 d9 01 bd 90 a1 c0 3d
       -0.010544766 0.05617625 -0.03170123 0.094058156
000260 b2 d2 80 bd 46 c8 41 3c 4b 7a ad bc 04 0f 69 3b
       -0.06290187 0.011827534 -0.021176478 0.0035561929
000270 4e da 67 ba de ab 0a 3c ec 5e 2b bc 8c 34 75 3c
       -0.00088444806 0.008463828 -0.010459643 0.014966141
000280 4d b0 5c 3c 21 df 21 3d c1 24 11 3d f4 8e e2 bc
       0.013469768 0.039519433 0.035435442 -0.027656056
000290 ff 1e e0 ba d2 1a ad bc 2c ac 32 3d 23 95 ce bc
       -0.0017099081 -0.021130953 0.043621227 -0.025217598
0002a0 13 ca be bc a1 5b 41 bd 7d 2a f2 bc 81 ea 57 3c
       -0.023289716 -0.047206525 -0.029561276 0.013178469
0002b0 07 5a 85 bc eb 66 00 3d eb 0c 61 bd e1 f5 30 3d
       -0.01627828 0.03134815 -0.05494396 0.04320324
0002c0 f5 91 6a 3d 59 77 a3 3d 94 a8 a6 3d af 11 c6 3b
       0.0572681 0.07981748 0.081376225 0.0060445885
0002d0 51 23 38 bd 4e 2d 06 bc 2e 91 40 bc 7e 35 34 bd
       -0.044955555 -0.008189512 -0.011753364 -0.043996327
0002e0 b1 63 4c bd 18 95 d5 bc 64 f3 28 bc ba 75 f6 3c
       -0.04989976 -0.02607207 -0.010311935 0.030085433
0002f0 7c 00 cf bc 1f 3a 74 bc 7b 81 02 3d 9e 61 d5 3b
       -0.025268786 -0.014906435 0.031861763 0.006511881
000300 f2 d1 87 3d 26 4e ea bb 6e 4b ef bc bc a5 8b 3c
       0.06631841 -0.0071504293 -0.029210772 0.017046802
000310 f5 70 0e bc a5 2a 59 3d 3a 5c 9d bb 75 46 5a bd
       -0.008693923 0.053019185 -0.004802254 -0.05328985
000320 e2 83 15 3d be de 76 bd 84 59 d4 3a f5 5d 28 3c
       0.036502726 -0.060271017 0.0016200994 0.010276307
000330 75 ac b0 bd 11 42 4a 3d 74 d6 8f bc 09 53 46 3d
       -0.086266436 0.049379412 -0.017558314 0.048419032
000340 01 00 0f 3d 1b 2c 3e bc 51 7e 90 3c e6 f6 5e bc
       0.034912113 -0.011607195 0.017638357 -0.01360867
000350 1f cd 36 bc 71 c1 80 bd 5e 66 87 3c a5 fb 15 3d
       -0.011157303 -0.06286896 0.016528305 0.03661694
000360 da fa 1d bb a4 59 5d 3d c4 34 c4 bd 46 c2 ed bc
       -0.0024105818 0.054040566 -0.09580377 -0.0290233
000370 b2 32 47 3c f4 7b d9 bc a7 1a 5a 3d f8 04 54 3d
       0.012158083 -0.026548363 0.053248074 0.05176255
000380 89 33 2c 3c 53 ec 66 3d af b2 80 bc ec 5c cc 3c
       0.010510334 0.05637772 -0.015710203 0.024946652
000390 03 a1 bb 3d 31 a0 1e 3c d5 71 f6 3b d9 2b 90 3c
       0.0916157 0.009681747 0.007520894 0.017599033
0003a0 d5 11 06 bc ef 52 17 bd b0 f9 96 bd 35 82 b0 3a
       -0.008182962 -0.036944326 -0.07371843 0.0013466539
0003b0 37 b7 b0 3b 33 b0 25 3d f3 af 4f bc 09 92 8c 3d
       0.0053929347 0.04045124 -0.012676227 0.068637915
0003c0 63 4c b8 3b c4 e9 7f bc 17 46 2a bd 80 ab 15 3d
       0.0056243404 -0.015619699 -0.04157075 0.03654051
0003d0 7b d9 97 bc bd 29 95 3b 3e 7a 19 bd b5 ef 44 3b
       -0.01853632 0.0045520947 -0.037470095 0.0030050103
0003e0 74 86 c5 bc e3 c8 8a 3d 91 3b d9 ba 9e ac 13 bd
       -0.024111964 0.06776597 -0.0016573538 -0.036053292
0003f0 94 2a 9d bb 25 85 45 bc d9 84 94 bb 6c 47 cf bb
       -0.0047963355 -0.01205567 -0.0045324382 -0.006325653

a2c_network.mu.bias f4 [4]
000000 0d 34 ba bd ed 74 ed bc 87 a6 b6 be 14 d2 12 3e
       -0.09091959 -0.028986419 -0.35673925 0.14337951

exp_avg f4 [4]
000000 5f 92 38 bc 8a 82 54 bb 60 67 88 bb 5a 60 91 bb
       -0.011265366 -0.003242644 -0.004162714 -0.004436535

exp_avg_sq f4 [4]
000000 65 1f 59 38 2d d4 22 38 1a 94 e9 37 5c 1c fc 37
       5.176607e-05 3.8821414e-05 2.784473e-05 3.0053947e-05
