logs/rl_games/klask/sim_sparse_ro_a0_1/nn/klask.pth (torch, 74138 bytes, 24 tensors)

a2c_network.sigma f4 [4]
000000 bd 8d 05 c0 61 81 1b c0 76 7a 07 bf bd b0 9c be
       -2.086776 -2.4297717 -0.52921236 -0.3060359

a2c_network.actor_mlp.0.weight f4 [64, 12]
000000 89 4f cc bf 51 cf 26 bf dd c3 77 be 50 62 a5 3e
       -1.5961772 -0.6516009 -0.2419581 0.3230157
000010 06 d3 6d 3e 50 fa cb 3e 94 55 75 bd 70 01 ab 3d
       0.2322503 0.3983941 -0.059896067 0.083498836
000020 db bb 26 c0 25 fd 61 3f 18 11 08 3d fe 81 b8 3f
       -2.6052158 0.8827689 0.033219427 1.441467
000030 de 84 de bf 99 ad be bf 8f a4 d3 bc c8 a5 88 be
       -1.7384298 -1.4896728 -0.025835304 -0.2668898
000040 0e 8a 2d bd 30 f4 d3 bd a3 99 d9 3c d2 bb f5 bc
       -0.042367987 -0.103493094 0.026562518 -0.029996786
000050 4a 72 0c 40 2b 85 92 3f 3f 7f a5 bd 9b 1e 4f be
       2.1944757 1.144689 -0.08080911 -0.20226519
000060 ea be af bf fc 94 94 3f 25 d7 98 bd 88 e4 15 be
       -1.3730137 1.1607966 -0.074629106 -0.14637959
000070 90 f3 66 3c 94 a8 d1 3d 5e 59 aa 3a 7c ab 7d 3c
       0.014096156 0.10237232 0.0012996604 0.01548278
000080 bb 63 89 bf ee 66 da bf 7f be 03 be c0 d5 9f bc
       -1.073356 -1.7062662 -0.12865637 -0.019511104
000090 3b 2d 8e 3f 74 5b ae be 4f fb 28 bd 1a 5d 20 bd
       1.1107553 -0.34054148 -0.04125529 -0.03915129
0000a0 5e 67 b4 bd 36 e3 0b 3f b7 18 d6 3c bf 37 e2 3c
       -0.08808778 0.5464357 0.026134832 0.027614472
0000b0 63 ea 00 bf cb bd d4 3f b4 a0 ef bd 4d f0 88 3e
       -0.50357646 1.662042 -0.117005736 0.26745835
0000c0 1b 02 af bf 7a 50 38 be ae ca 91 3e c0 8e 3b be
       -1.3672518 -0.1799945 0.28474945 -0.18316174
0000d0 56 4e 83 be 5f 14 de bc 0a 06 20 3c 97 94 db bc
       -0.25645703 -0.027109323 0.009767065 -0.026804252
0000e0 29 14 49 c0 a2 c0 c8 be 02 3f c5 3e 23 45 a4 bd
       -3.1418555 -0.39209467 0.38524634 -0.08020999
0000f0 f7 f7 39 3f 54 71 7f be c4 fd b8 3e 77 41 18 3d
       0.7264399 -0.24945575 0.36131108 0.037171807
000100 76 86 da bd cd b0 a3 bd 1f a2 75 bc b5 a1 16 3d
       -0.10670178 -0.079927064 -0.014992266 0.03677531
000110 a8 4c 51 bf 50 d8 ca bf ab 92 57 3d d9 07 ba 3c
       -0.81757593 -1.5847263 0.052630108 0.02270882
000120 4c ef f2 3f 36 11 9b bf 6c ef 00 3c 6e bd 24 bf
       1.8979278 -1.2114627 0.007869583 -0.64351547
000130 fb 11 22 be 64 c9 aa 3e 3e 1b 09 3c b1 ed 01 bc
       -0.15827172 0.33356774 0.008368311 -0.007930205
000140 7f e6 6e 40 d3 16 2f 3f 80 22 d1 bd 70 0a 0a bf
       3.7328184 0.683942 -0.102116585 -0.53922176
000150 cd 99 2c bf 18 0c c9 bd eb b5 02 3f 13 d6 23 bf
       -0.6742218 -0.0981676 0.51058835 -0.63998526
000160 1c e4 f9 3d 3b 25 0a 3f 9e ef cd 3c 74 45 e9 bc
       0.122017115 0.5396306 0.025138672 -0.0284755
000170 39 b5 4d c0 9a 9f c7 bf 4a f4 d9 bf 73 2e 16 c0
       -3.214186 -1.5595582 -1.7027676 -2.346585
000180 8e fe 48 be 39 7a 72 be 34 fc 08 bf 94 24 1b be
       -0.19628355 -0.23679437 -0.5350983 -0.15150672
000190 d6 6a eb 3d 5b 1d 22 be f4 3c f6 bb a7 65 0d 3c
       0.11494987 -0.1583151 -0.0075145904 0.008630193
0001a0 de 71 52 3f 51 2d 1a c0 fc 2d a4 bf 7f 3b a2 bf
       0.82205 -2.409016 -1.2826533 -1.2674407
0001b0 20 e3 48 3e 48 59 ba bd 73 29 05 3e 3b bb ac be
       0.19617891 -0.0909906 0.13004093 -0.33736596
0001c0 ea d6 50 be 21 7a 83 be e6 33 c8 bc 9b 34 d6 bb
       -0.20394483 -0.25679114 -0.02443881 -0.006537033
0001d0 6c d8 0d 40 fc 88 e7 bf 4c 21 9e 3f bb 08 51 be
       2.2163343 -1.8088679 1.2353911 -0.20413487
0001e0 7b 41 50 bf ee d8 88 3e b7 f2 a1 bc 6c 35 0e 3e
       -0.81349915 0.26728004 -0.019769056 0.13887566
0001f0 f8 8c 3d be f6 3d 38 be 51 62 b6 bc b8 e4 78 3b
       -0.18510807 -0.17992386 -0.022263678 0.0037978124
000200 99 9e 1e 40 e2 65 3e c0 24 5d e5 3e e6 2a 07 be
       2.47843 -2.9749684 0.44797623 -0.13199958
000210 71 7a 6f bf 12 f0 2a 3e ae a1 bf be d9 26 82 3d
       -0.93546206 0.16693142 -0.3742804 0.06355066
000220 e5 f1 92 3c 5d 2a a1 be 04 f4 c6 b8 fe 5f 04 3c
       0.01793761 -0.31477633 -9.486827e-05 0.008079527
000230 d9 5c a4 3f 49 53 cc bf e4 0f a4 3e 1f 09 23 be
       1.2840835 -1.5962917 0.32043374 -0.15921448
000240 70 06 93 be f4 67 d8 3e 9c e8 0c be be 3d 5d be
       -0.2871585 0.4226681 -0.13760608 -0.21605584
000250 af 52 0a 3e d3 02 32 3e 13 3c e3 ba 33 32 22 bc
       0.13508104 0.1738389 -0.0017336629 -0.009899664
000260 28 80 1b 3f 7f c8 2a c0 8e 44 73 bf 13 3a fc 3e
       0.60742426 -2.6684873 -0.9502648 0.49263057
000270 53 fa 15 bf 70 35 b2 be 2b 1c ce bd 71 53 e0 bd
       -0.5858509 -0.34806395 -0.10063966 -0.10953415
000280 c2 6d 07 3e 80 4a f9 3d 1c ec dc bc 63 55 67 bc
       0.13225463 0.12172413 -0.026968054 -0.014119479
000290 bc 4f 29 c0 be 7d c3 3f f3 7c 80 3e d4 57 c0 bf
       -2.6454916 1.5272748 0.2509533 -1.5026803
0002a0 11 1b 55 c0 21 25 c8 3e 6b e7 61 3e 07 e7 b9 bc
       -3.329777 0.39090827 0.22060935 -0.02269317
0002b0 0c 93 72 3d 7d 73 eb 3e 34 ff 25 3c a3 b6 9d 3c
       0.059222266 0.45986548 0.010131646 0.019252127
0002c0 75 0a 70 c0 3c 23 ff bf d0 fc c3 be 6d fc ed be
       -3.7506382 -1.9932628 -0.38278818 -0.46481648
0002d0 8b a3 a9 3f c8 27 72 3f 53 10 b6 3d bf fc c7 bd
       1.3253034 0.9459195 0.08889832 -0.09765004
0002e0 bb bf 8c bb 81 0b 60 bd 1c 78 9b bb b1 bc 5f bb
       -0.004295317 -0.05469847 -0.0047445428 -0.0034139568
0002f0 b4 61 d2 bf 2b a5 b0 bf a9 70 ef 3e 24 e3 9b 3d
       -1.6436067 -1.3800405 0.4676564 0.07611683
000300 9b b6 cb bd 4a 7f 62 bf db 4b 9f bd 44 1a f0 3d
       -0.099469386 -0.8847548 -0.0777814 0.1172376
000310 23 07 ed bd 5e 84 ce 3d e8 bd 0e bc 0a 76 58 3c
       -0.11573627 0.10083841 -0.008712269 0.013211736
000320 9f 66 f0 bf 77 c0 a7 3f ec 69 2f 3f 66 11 6b 3f
       -1.8781317 1.3105611 0.68521 0.9182342
000330 10 0e 38 bf cb 73 76 bf 42 3b b9 3c f0 84 a8 3e
       -0.7189646 -0.96270436 0.022611264 0.32913923
000340 74 38 2e be 71 25 a9 3e d9 a9 9f bc 78 e7 78 bc
       -0.17013723 0.33036378 -0.01949017 -0.015191905
000350 7a f2 15 bf b9 67 05 40 0c 7d 28 3f 10 e7 f4 3e
       -0.58573115 2.0844557 0.65815806 0.47832537
000360 87 b9 38 c0 a1 8f e4 be 7d b4 6f 3e 44 e9 b6 bc
       -2.8863237 -0.4464083 0.23408695 -0.022328027
000370 3a dd a8 3d a7 8c 3b 3f 3e c4 60 bc 1a b9 d3 bb
       0.082453206 0.73261493 -0.013718663 -0.006461275
000380 a4 02 4f c0 68 37 b2 bf cd 4e d0 bf ca 57 8c bf
       -3.2345362 -1.3923159 -1.6274048 -1.0964291
000390 60 70 8c 3f 91 ba a2 bf 00 dc 00 bd ca 15 3d bc
       1.0971794 -1.2713186 -0.03145981 -0.011540839
0003a0 a3 95 9f bd cd e4 03 be e9 c2 12 bd 36 27 0c 3d
       -0.07792213 -0.1288025 -0.035830412 0.034217082
0003b0 10 18 dd 3e 94 17 a9 3f 13 96 05 3e 45 b6 0d bf
       0.4318242 1.321032 0.1304553 -0.55356246
0003c0 a6 28 fa 3f 50 c1 c2 3d 7c 48 7f 3e 12 1a 9f bd
       1.9543655 0.09509528 0.24929994 -0.077686444
0003d0 5a 0a 39 3f f8 1b 9c 3d 8f c3 29 bd ea 47 df bb
       0.7228142 0.07622522 -0.041446265 -0.0068139927
0003e0 f3 5b 24 40 68 94 12 c0 a2 29 1f 40 81 9e 1d bf
       2.5681121 -2.290308 2.486916 -0.6156998
0003f0 b9 32 c1 3f 9d 9b 80 3d 5c a9 4b 3e c3 99 f3 3d
       1.5093604 0.06279681 0.19888824 0.11894562

a2c_network.actor_mlp.0.bias f4 [64]
000000 62 52 a4 3e 2b 28 f0 3e 85 8d 95 3e b3 9c 96 be
       0.32094103 0.46905646 0.29209533 -0.29416427
000010 16 30 8a be c6 3d 11 bf e8 fe 1d 3f e6 a9 9d 3e
       -0.26989812 -0.56734884 0.6171708 0.30793685
000020 98 31 95 3e d2 2d f4 be 87 f8 5a 3e 17 c5 dc be
       0.291394 -0.47691208 0.21383868 -0.43119118
000030 a5 da 63 be 27 c3 cb 3c d6 56 0d 3f 9a 71 d2 bd
       -0.22251375 0.02487333 0.55210626 -0.10275574
000040 0d 07 06 bf bc df ce 3e 37 75 9c 3e 67 19 c3 3a
       -0.5235451 0.4040507 0.30558178 0.001488489
000050 b5 ec b9 3e 4f c1 1b 3f c3 d0 df 3d 3b 5b 67 be
       0.36313406 0.6084184 0.1092849 -0.22593395
000060 75 5a 86 be b5 5d ee 3e 7d a0 84 be ef 82 ac 3e
       -0.26240888 0.46555868 -0.25903693 0.33693644
000070 6f 8a 6b 3d 67 aa 3d 3e 4a f8 1c 3e 46 65 cc 3e
       0.057505067 0.18522035 0.1532909 0.39921016
000080 96 00 81 3e 28 88 d6 3e ef 8a e3 be 1e f0 b1 3e
       0.2519576 0.41900754 -0.44441935 0.34753507
000090 b3 4d dd be 3a 82 c2 bd 77 61 b3 3e d2 c2 17 3f
       -0.43223342 -0.09497495 0.35035297 0.5928165
0000a0 84 23 c8 be c2 3a a7 3e 1b 37 c0 be 55 c0 ef 3d
       -0.39089596 0.32662016 -0.37542042 0.11706606
0000b0 2d 03 c7 3e 34 55 39 3e e0 20 96 be 13 91 e1 3d
       0.3886961 0.18098909 -0.29321957 0.11013999
0000c0 37 22 c7 3e f3 07 df bd 4b ce cd 3e ec e4 04 3f
       0.3889329 -0.10890188 0.40196452 0.5191181
0000d0 52 ac 49 3f e6 00 f1 be 48 e3 40 bd e4 0b fc bd
       0.78778565 -0.47070998 -0.047091752 -0.123069555
0000e0 81 ca 47 3e cb a5 94 3e 03 68 c1 be 6d c3 9d 3d
       0.19510843 0.2903274 -0.37774667 0.0770329
0000f0 85 60 05 3f 86 e8 2f 3e 63 e8 b2 be eb 21 26 3f
       0.521004 0.17178544 -0.34942922 0.64895505

a2c_network.actor_mlp.2.weight f4 [64, 64]
000000 b5 ef c6 bc 4e 32 02 bf 87 1b 1a 40 83 db 83 bf
       -0.024284223 -0.5085801 2.4079301 -1.0301365
000010 91 1c fe 3e b1 d9 6a 3e d3 3b df be c1 21 0e 3f
       0.4963117 0.22934605 -0.4360033 0.55520254
000020 e4 a0 1c 3f b6 0a 83 3f 42 a5 96 3f 76 67 17 3f
       0.61183 1.0237644 1.1769183 0.59142244
000030 c1 69 5f 3f 49 d4 40 bf 16 ee b8 3f cd de f1 3f
       0.8727074 -0.7532392 1.4447658 1.8896118
000040 55 ac 4b bf f4 a7 74 bf 24 5f 33 3f f3 f2 78 bf
       -0.7955983 -0.95568776 0.7006705 -0.9724571
000050 f0 13 44 3f 8b 95 1e 3f 9c 11 b1 3f ec 3d 55 3e
       0.7659292 0.61946934 1.3833499 0.20824403
000060 28 d0 6b 3f ee aa 3d 3f 46 35 ff 3e 93 da cb 3f
       0.92114496 0.74088943 0.49845332 1.5926079
000070 1d b0 c2 3f 39 35 2f be 52 12 f3 be c3 1a a9 be
       1.5209996 -0.17110147 -0.47474915 -0.3302823
000080 0d 23 69 3f bc 03 a7 3d ef f1 64 3d cf 9a 1f bf
       0.9106911 0.08155009 0.05589479 -0.62345594
000090 ed dc 8a bf 42 c9 89 3f 90 c7 65 3f b5 cc 9c bd
       -1.0848671 1.0764544 0.89757633 -0.07656232
0000a0 40 88 fa 3e fa 6f 7f 3f 34 e9 8e 3f 02 55 32 3f
       0.48932076 0.9978024 1.1164918 0.6966096
0000b0 bf 39 22 bf 0d 1c 58 bf 08 29 21 bf 94 bf 76 3e
       -0.63369364 -0.844178 -0.62953234 0.24096519
0000c0 b0 2d 6f 3f 6a 60 2d bf f3 fd 68 3f 25 90 84 bf
       0.9342909 -0.6772524 0.91012496 -1.035649
0000d0 ed 10 9e 3e a0 64 37 3f 03 ab ce 3f 8f 03 8d be
       0.30872288 0.71637917 1.6145939 -0.27541777
0000e0 28 a4 e4 be 8d 0a 58 3f 56 09 bc 3f c5 90 85 3f
       -0.4465649 0.843911 1.4690349 1.0434805
0000f0 a4 9d 65 3e 70 a3 cb bf 0a 71 43 bf 82 18 d6 3f
       0.22423416 -1.5909252 -0.7634436 1.6726229
000100 ee 26 c7 3e 7d 56 e9 bd 6a ed bb bf b2 d9 3b 40
       0.38896888 -0.113934495 -1.4681828 2.935162
000110 84 c5 2d 3d 5d bc ce 3e 4d 7c b9 bd 30 97 cb be
       0.042424694 0.40378085 -0.090569116 -0.39763784
000120 29 d0 12 bf de 39 87 be f0 61 81 bf 76 2c c4 3e
       -0.5734888 -0.26411337 -1.0108013 0.3831517
000130 96 b1 b9 be c7 a3 98 be 93 b5 aa bf 22 57 73 bf
       -0.362683 -0.29812452 -1.3336662 -0.9505483
000140 09 52 af 3f 84 8e 49 3e 71 72 49 be 72 b5 53 be
       1.369691 0.19683272 -0.19672562 -0.20674685
000150 af 81 c3 be ba 56 ef bf 95 ca d8 3e e4 bf 38 bf
       -0.38184878 -1.8698342 0.42342058 -0.721678
000160 09 48 df be dc 72 04 c0 de 11 27 3e 5b 06 4d bf
       -0.43609646 -2.0695105 0.1631541 -0.8008782
000170 e4 81 29 bf 2d 7d fe 3e 13 b5 dc 3e bc d3 c0 be
       -0.6621382 0.49704877 0.431069 -0.3766154
000180 ac fe 2f bf 01 d7 98 bf 81 31 96 3d b6 49 16 3e
       -0.68747973 -1.1940614 0.07333661 0.14676556
000190 79 cb c3 3f dd b6 dd 3c 8b 21 d0 bf e9 56 96 be
       1.529647 0.027064735 -1.6260237 -0.29363182
0001a0 08 b9 20 3e 44 5e 9d bf 4a 22 0e bf ad 87 5e bf
       0.15695584 -1.2294393 -0.5552107 -0.86925775
0001b0 94 5d 53 bd 88 42 df bd 89 20 93 3f d8 7e 92 3d
       -0.051602915 -0.10901362 1.1494304 0.071531
0001c0 ab 32 1f bf d8 b4 42 bd 0e 62 0b bf e7 e0 03 3f
       -0.6218669 -0.047535747 -0.54446495 0.5151505
0001d0 5b 20 58 bf 20 af 23 bf 7b 3e 56 bf 81 a6 ab 3f
       -0.8442437 -0.63939095 -0.8368909 1.3410188
0001e0 89 71 19 be de 74 36 3c fb cc 75 be 21 c1 02 bf
       -0.14984716 0.011136262 -0.24003975 -0.5107594
0001f0 ea 1c 50 be 81 56 41 3f ec a0 67 3e 0b 1c 1c c0
       -0.2032353 0.7552262 0.2261998 -2.4392116
000200 04 39 4b 3e 12 fc 22 bf e3 11 32 3f 20 84 eb be
       0.19845968 -0.6366588 0.6955854 -0.4599924
000210 a6 65 e1 3e 6b 2e 14 3f 6e e1 46 be ee 5c b0 3d
       0.44022864 0.5788333 -0.19421932 0.08611475
000220 f2 8b 05 3e 22 f9 7b bd 21 15 28 be e8 ae 80 bd
       0.13041666 -0.06151689 -0.1641431 -0.06283361
000230 7b 5a 16 3e d0 d3 c6 bd 59 b3 bf 3e 3d b4 9b 3f
       0.14682953 -0.09708369 0.3744152 1.2164379
000240 59 22 10 bf 4b b1 33 be 84 38 15 3e cf 78 77 bf
       -0.5630241 -0.175481 0.1457234 -0.96668714
000250 92 ea e5 be 05 f5 4e 3e dc d8 f0 3e 70 1e cb 3e
       -0.44905525 0.20210655 0.4704045 0.3967166
000260 1f b5 1b 3f b2 6f b5 bd 9c 7f 47 bf cd 3a 4c 3e
       0.60823244 -0.08859195 -0.7792909 0.19944306
000270 7d 96 c2 3d d3 13 9a be 98 ca 41 be 22 7e fe be
       0.095013596 -0.3009325 -0.1892494 -0.49705607
000280 e1 69 a9 bc 64 15 ab 3d 8b a1 41 be 43 d8 90 be
       -0.02068037 0.08353689 -0.1890928 -0.28289995
000290 ed e2 2c bf 8e 3f 2e 3f 0f 68 94 3e 6b 2a 97 be
       -0.6753376 0.68065727 0.2898564 -0.2952455
0002a0 41 2c c5 bd f3 ac 78 3d 0c 99 4b 3f 52 81 a6 3e
       -0.096275814 0.060711812 0.79530406 0.3252054
0002b0 2d 6b b5 be c5 8d 21 bf 03 8e ad be 94 74 37 be
       -0.3543333 -0.6310695 -0.3389741 -0.17915565
0002c0 2a da ae be c4 51 dd be 12 42 f8 bc 74 66 1c bf
       -0.3415082 -0.43226445 -0.030304942 -0.6109383
0002d0 ee e0 7c 3d c2 64 38 3f 74 63 3d 3f 97 ba 8f bd
       0.061737947 0.72028744 0.7397988 -0.07018011
0002e0 75 27 6c bf ff 64 9a 3e 25 0a 57 3e ce bd f9 3c
       -0.92247707 0.3015518 0.20999964 0.030486014
0002f0 39 65 42 be 21 eb 54 bf b8 d4 b2 bd 93 c0 f6 3e
       -0.18983926 -0.8317128 -0.08731979 0.48193797
000300 28 cf 86 3e 8a 43 d7 3e 1f 60 63 be 08 74 dc bd
       0.26329923 0.42043716 -0.22204636 -0.10764319
000310 da aa ea 3c 8d 8c c8 bd 13 d7 f7 bc 07 15 d3 3c
       0.028645921 -0.09792433 -0.030253923 0.025766863
000320 96 ed c8 3b fb f5 3b 3e 08 d6 34 3e f2 57 08 be
       0.006131838 0.18355553 0.17659771 -0.13314798
000330 e7 7f b3 bb 72 78 80 be e3 e1 5a 3d f6 f1 af be
       -0.0054778936 -0.25091892 0.05343808 -0.3436429
000340 bd dd 7d 3e 4f 64 8d 3e 59 31 11 3e ac 32 a3 3d
       0.24791618 0.27615592 0.14178981 0.07968649
000350 7b 0c fe 3d c2 ec 6a be ca 28 44 3e e4 8d 89 bd
       0.12404724 -0.22941878 0.19156185 -0.067165166
000360 01 79 97 be 9a 62 a7 3d 64 07 13 3e 50 a5 9a bc
       -0.29584506 0.08173104 0.14358288 -0.018877655
000370 1e 23 75 3d 07 15 ce 3e 6c 96 5a 3e 95 01 33 be
       0.059847943 0.40250418 0.21346444 -0.17481072
000380 3c 3b ef 3d c2 c0 99 3d 98 23 a2 3d ed f1 c1 3e
       0.1168122 0.07507469 0.07916945 0.37879887
000390 50 95 da 3e 24 1d a0 be c4 a2 b9 bd 03 ec f0 3e
       0.4269204 -0.31272233 -0.09064248 0.47055063
0003a0 2d 77 89 be 15 2a ba 3c de 1f 4a 3d 03 04 8d 3d
       -0.26848736 0.022725144 0.049346797 0.06885531
0003b0 39 a4 7e 3e 2a 08 c0 be c1 83 ad bd 2f ce f0 3e
       0.24867333 -0.3750623 -0.08472396 0.47032306
0003c0 74 c0 c6 bd d8 dc 53 be a1 3f 97 bd 24 92 81 bd
       -0.09704676 -0.20689714 -0.07385183 -0.06326702
0003d0 5b b0 db bb 31 9e 77 bd d3 ae 85 3d a4 95 46 be
       -0.006704373 -0.060453597 0.06527486 -0.19393021
0003e0 c4 83 90 3e fd ac 26 3e 02 24 75 3e 5f 62 82 be
       0.2822553 0.16276927 0.23939517 -0.25465676
0003f0 66 90 51 3e 12 6c d9 bd 18 58 3b be 4f d4 18 be
       0.2046524 -0.10616316 -0.18295324 -0.1492474

a2c_network.actor_mlp.2.bias f4 [64]
000000 6f 97 d0 3e b3 ea e6 be bb d4 88 bb 22 45 90 3e
       0.40740535 -0.45100936 -0.00417575 0.28177744
000010 1b b2 aa 3e e5 65 2e 3e a3 47 69 bd d3 c2 35 3e
       0.3333901 0.17031057 -0.056953084 0.17750101
000020 f9 e1 37 be cc 3c 88 bd 48 5a 35 bf f8 54 a3 be
       -0.17957295 -0.06652221 -0.70840883 -0.31900764
000030 35 a0 e8 bc 67 76 47 3c e0 fb 03 bf b3 31 2f 3e
       -0.028396705 0.012174225 -0.51556206 0.17108802
000040 cb a4 65 3e b1 a2 76 3e 78 54 69 be e4 75 0a bf
       0.22426145 0.240855 -0.22786129 -0.54086137
000050 3f ac 80 3d d0 6c aa 3d 46 cd 35 bd 4d cf b6 bd
       0.06282853 0.083215356 -0.044385217 -0.08926258
000060 a2 80 92 3d fe 61 cb be 1d bb a8 bd 74 60 dd 3d
       0.07153441 -0.397232 -0.08238814 0.108094126
000070 13 ab 34 be e3 c6 4b 3c 01 21 06 be 0b ce 99 bb
       -0.17643385 0.012437555 -0.13098527 -0.0046937517
000080 d2 f7 12 bf 29 cc 11 3e a3 f0 cf be 01 c7 4d 3e
       -0.57409394 0.14238037 -0.4061328 0.20095445
000090 27 e2 6a bf 4d 31 2d 3e e9 1d 6e bd 38 e3 4f be
       -0.9175133 0.16913338 -0.058133993 -0.20301521
0000a0 c2 12 1d 3e 7b b5 1b 3e 6b 6d cf be 9e 50 3c be
       0.15339187 0.15205948 -0.40513167 -0.18390128
0000b0 3d 1d 35 bd 3d 27 d2 be bc 06 4d bf 24 a6 d5 3e
       -0.044217337 -0.4104556 -0.800884 0.41728318
0000c0 82 9f c2 be 44 f5 cf be 7b f8 6a 3e 2f 16 25 3e
       -0.3801232 -0.4061681 0.2294635 0.16121744
0000d0 d9 ca 4f bd df 8a 75 3e 8a 98 de bc 46 aa 01 be
       -0.05073056 0.23978756 -0.027172346 -0.1266261
0000e0 ec e8 1e be eb 6d 84 be 8f 72 67 bc ef 27 c1 3e
       -0.1551854 -0.2586511 -0.014126434 0.3772578
0000f0 47 26 6e 3d 3b d7 b6 3e a4 d1 7a be 72 cb 64 bd
       0.058141973 0.35711083 -0.24494034 -0.055858083

a2c_network.value.weight f4 [1, 64]
000000 9e 73 af 3f 0a a6 ba bf be 8d 51 bf c8 13 b7 3e
       1.3707159 -1.4581921 -0.81856906 0.3575728
000010 3a ba 89 bf 48 45 b5 bf 6c df 78 bf 05 6c 5d ba
       -1.0759957 -1.4161768 -0.97215915 -0.0008446577
000020 ae 2a 15 3f 39 a0 7e be c2 b7 21 c0 8d b4 0c bf
       0.5826825 -0.24865808 -2.5268407 -0.54963
000030 45 a9 e4 be 96 54 08 bf 30 56 a6 bf 0c 77 a5 be
       -0.44660392 -0.5325407 -1.2995052 -0.32317388
000040 fa b3 4a 3f 22 7b 79 3f bf 6b f1 bf 9a 27 06 bf
       0.7918087 0.9745351 -1.8861006 -0.5240418
000050 91 48 26 bf 7e 7c 95 3e 44 5e 2f 3e 22 4b 7a be
       -0.6495448 0.29196543 0.17125803 -0.24442723
000060 da 21 96 bf 5f 5a a2 bf 81 46 1e 3f 5b 40 c1 3d
       -1.1729081 -1.2683829 0.6182633 0.09436103
000070 1f cb 88 be 0e 1f 80 3f 49 91 89 bf f2 c3 72 bf
       -0.2671747 1.0009477 -1.0747463 -0.9483024
000080 21 55 aa bf 6f 2c 36 3e 79 a4 32 bf d4 65 49 bf
       -1.3307229 0.17790388 -0.69782215 -0.78671
000090 1a 20 36 c0 11 bb da 3e 1d c9 2c bf 89 02 b1 3f
       -2.8457093 0.42720845 -0.67494375 1.3828899
0000a0 4b 95 b6 3f 01 1e 71 bf 1c 56 ac bf 82 a6 e7 be
       1.4264311 -0.9418641 -1.3463778 -0.45244223
0000b0 89 03 42 bf 50 32 dc bf e9 37 0a c0 62 7e af 3f
       -0.75786644 -1.7202854 -2.1596625 1.3710444
0000c0 18 a8 d5 bf d2 a5 96 bf a5 18 93 3f 35 65 73 3f
       -1.6691923 -1.1769354 1.1491896 0.95076305
0000d0 36 ac 6b bf bf 80 b0 3e 14 f4 e2 be 71 5f 7c bd
       -0.9205965 0.34473225 -0.44326842 -0.061614458
0000e0 06 dd 09 bd 57 35 c0 3e d0 ca 65 3f 35 73 4d 3f
       -0.03365805 0.37540695 0.8976259 0.80253917
0000f0 0c 7e 1b 3e 47 7c 91 3f e0 7d d7 be df ee 5e bf
       0.15184802 1.1366051 -0.42088223 -0.8708324

a2c_network.mu.weight f4 [4, 64]
000000 eb 3e b3 bd d1 6e 31 bc 07 dc a0 3c b2 4c 25 3e
       -0.08752235 -0.010829643 0.019636167 0.16142538
000010 ff 5b 75 3d c7 70 4b bb 49 60 16 3e 77 52 85 be
       0.059902187 -0.0031042562 0.14685167 -0.26039478
000020 c0 ba 76 3e 70 0a 33 3e 2b 1f 15 bc e9 6d c0 3c
       0.24094677 0.1748445 -0.009101669 0.02348991
000030 5b 17 85 3d fe 47 d2 be 4d f5 32 3e a1 74 39 3d
       0.06498595 -0.4107055 0.17476387 0.04527724
000040 6f ed 6d bd ce b5 00 3e 60 ad b1 bd 36 a5 64 3d
       -0.058087762 0.12569353 -0.08675647 0.05582162
000050 28 a9 94 3d 0c 9b db 3e b8 34 95 3e 70 fe 79 3f
       0.072588265 0.4289173 0.29141784 0.97653866
000060 c7 07 9d bd 7e 84 40 bb 62 8e 18 3b 4b 26 0f be
       -0.07667499 -0.0029375846 0.0023278226 -0.13979451
000070 df c4 66 3d 20 af 09 3e cf 0d 31 3d aa 35 14 3d
       0.056340095 0.13445711 0.04322606 0.03618399
000080 88 c9 67 bb 15 7b 26 be f9 78 c8 3d 75 51 59 bd
       -0.0035367925 -0.1625789 0.09788699 -0.0530562
000090 12 22 24 be 38 d8 27 be b9 7c 39 3d 93 1a c6 3d
       -0.16028622 -0.16391075 0.04528496 0.096730374
0000a0 a2 fd 0a 3c fd dd 8b 3d 2d 64 61 3e 6a 09 e7 3e
       0.008483322 0.0682945 0.2201087 0.4512437
0000b0 cf 6c c8 bc 32 d2 31 bd dc d0 95 3d 4d 37 30 3d
       -0.024465946 -0.04341335 0.073152274 0.04302149
0000c0 cc 82 27 3e 6b da c1 3d ae 69 c9 bd b9 d3 df bc
       0.16358489 0.09465488 -0.0983461 -0.027322637
0000d0 cb c4 2d be 01 55 e4 bc 74 a8 62 3d f8 dd 8e bc
       -0.16969602 -0.027872564 0.05533643 -0.017439827
0000e0 e6 04 d1 be f9 8f 12 3f 34 9c 91 3e 9b c3 50 be
       -0.4082405 0.57250935 0.28439486 -0.20387118
0000f0 a5 5e 8b bd 72 cc 53 bd 60 9c 58 bd f8 ed 15 bd
       -0.068051614 -0.051708646 -0.052883506 -0.036603898
000100 38 45 20 be bd 3f fe bc 6b 03 d6 bd 88 f9 57 3e
       -0.15651405 -0.031036252 -0.10449871 0.21091282
000110 f9 41 c6 bd ca 36 17 3c b2 f1 7f 3c ad 28 d8 3d
       -0.09680552 0.009229371 0.0156215895 0.10554633
000120 b1 e8 6a 3e 28 92 8a 3e fe fa 4b bd 62 54 81 3e
       0.22940327 0.27064633 -0.04979991 0.2525969
000130 a3 84 b6 bd 0c f2 03 3e f3 99 68 3e 36 75 4f 3e
       -0.08912017 0.12885302 0.22714977 0.20259556
000140 00 b3 e6 3d 10 41 89 3e 66 d4 9d bd 47 d1 44 be
       0.1126461 0.2680745 -0.077065274 -0.19220458
000150 55 9e f3 bc c9 99 9f 3e 60 92 d5 3e 10 59 55 3d
       -0.029738585 0.31172016 0.41713238 0.05208689
000160 54 c3 29 3d a2 d2 ac bd 97 01 97 be 1c a1 c3 3d
       0.041446045 -0.084386125 -0.294934 0.095522135
000170 9e 4d 8e be 25 18 c8 bd 75 a1 0a be cf 31 03 be
       -0.27793592 -0.0977023 -0.13538153 -0.12811969
000180 c4 38 b1 3d 99 10 7f 3d 16 7a b3 be 83 0c 3d 3e
       0.08653405 0.062271688 -0.35054082 0.18461804
000190 32 98 38 be 0a ec 99 bd af 8c 16 3c c2 89 40 3c
       -0.18026808 -0.07515724 0.009188815 0.011751594
0001a0 69 ce 06 3d 24 35 50 3e aa 5a 06 3e fc 3c ba 3e
       0.03291169 0.20332772 0.13120523 0.36374652
0001b0 af 42 0f be f1 f8 75 3e 99 37 d1 be f6 dc 1e bd
       -0.13990282 0.24020745 -0.4086273 -0.038784944
0001c0 36 5b ec bc 25 7c 06 3d f3 8a e2 ba 0c 0c 60 bd
       -0.028852087 0.032833237 -0.0017283842 -0.05469899
0001d0 88 17 91 bd ac cc 21 3e 30 3b ac bd 1b ad ad be
       -0.07084566 0.15800732 -0.084097266 -0.33921131
0001e0 a3 5a ef 3e 0f a1 ea be c5 9b 9d be da 6c f4 3d
       0.46748838 -0.45826003 -0.30782905 0.11934824
0001f0 67 40 76 3e 12 12 59 bc 3b 9b 8e be 82 04 84 3d
       0.24048005 -0.013248937 -0.27852806 0.06446172
000200 52 b9 cf 3c 91 67 1f bc df 3c e3 3c 8e a9 89 3c
       0.025356922 -0.009729282 0.027738987 0.016804483
000210 ad 7f cd ba 66 88 01 3d 27 73 d0 bc 71 0f 3e bd
       -0.0015678309 0.03162422 -0.025445534 -0.046401445
000220 c3 91 16 3c 61 db ee 3c d3 3b 81 3d 79 aa 1b be
       0.009190026 0.029157342 0.06310239 -0.15201749
000230 cd c9 c0 bc ab 3f 93 3d e5 f4 ec bd a6 a5 8e bd
       -0.023533726 0.07189878 -0.115701474 -0.06965189
000240 a7 3a 89 bd 8a bf 5b 3d 5e fc 93 3d ab e2 32 bd
       -0.0670064 0.053649463 0.072258696 -0.0436732
000250 78 eb c3 bd 79 7b 1f 3d a0 12 94 3d b7 8a 5f 3e
       -0.095663965 0.038936112 0.07230115 0.2183026
000260 51 2e 31 3b 0a 33 8f 3d b7 88 ed bd 0c 21 a3 bd
       0.0027035663 0.06992157 -0.11598342 -0.079652876
000270 10 40 1b 3c 97 41 44 3d 9c db a0 bc e1 f2 28 3e
       0.009475723 0.047914114 -0.019635968 0.16498901
000280 50 3a 2b 3d c4 98 e3 bc ff 90 90 bd d6 4b d1 bc
       0.041803658 -0.027782805 -0.07058906 -0.025548857
000290 66 fe 93 bc 1d d6 25 bd 25 7a ca 3c 94 99 2c 3d
       -0.018065643 -0.040487397 0.024716446 0.04213865
0002a0 92 14 36 bd 52 3c c3 bb 6e 4d 74 3c 70 d5 fd 3d
       -0.04445321 -0.0059581185 0.014911039 0.123942256
0002b0 9c 83 b6 bd e4 79 db bd a3 cb 60 bd 48 30 09 bd
       -0.08911821 -0.10716608 -0.054881703 -0.03349331
0002c0 73 9d 7b bd 59 2d a7 3d b6 a8 25 bc eb 06 cc 3c
       -0.061429452 0.08162946 -0.010111025 0.024905642
0002d0 de c4 5b b7 73 78 ae 3d 6d 5d b6 bd 2b a0 1f bd
       -1.3099254e-05 0.085190676 -0.08904538 -0.038971107
0002e0 55 1e 87 3d 1d 86 72 3d 9b ff 01 bd 60 de 2a 3d
       0.06597582 0.05920993 -0.031737905 0.04171598
0002f0 6a e8 15 3d cb 1b 4b 3c 9d f4 c3 bd 49 24 9e bb
       0.0365986 0.012396763 -0.09568141 -0.004826103
000300 3c 6d e6 bc 66 76 19 3d 76 5b a8 bd 91 c2 2a bd
       -0.028128259 0.03746643 -0.0822057 -0.04168946
000310 1a 06 04 bc 12 83 74 3d ec 21 70 3d fd 85 1b 3d
       -0.008058095 0.05969531 0.0586261 0.037969578
000320 49 16 95 bd d1 ca b8 3d 22 15 60 3d 29 51 8c bd
       -0.07279641 0.09023059 0.054707654 -0.068514176
000330 f0 e8 1a bc 03 3a 8d 3d 2a 34 03 bd 28 51 2c bc
       -0.009454951 0.068958305 -0.03203217 -0.010517396
000340 1d c9 ec bd 8a 29 b9 3d bf 22 86 bc 5a 03 5a bd
       -0.11561797 0.09041126 -0.01637399 -0.053225853
000350 b4 b0 73 3c 8a 44 3a 3d 27 9d 01 bc 2f 47 b7 bd
       0.014873672 0.04547552 -0.007911003 -0.08949124
000360 9f f7 ba 3c 48 96 2e 3d e2 4c be bc 46 66 ca bb
       0.022823153 0.042623788 -0.02323002 -0.0061767427
000370 78 8e d6 3d 00 f1 9f 3d d5 d3 7e 3d 58 8d b4 3d
       0.104763925 0.07809639 0.062213738 0.08816022
000380 5d ec 85 bc 19 ad 46 bd 32 b0 42 be 0d 20 16 3d
       -0.016348058 -0.048504923 -0.19012526 0.03665166
000390 ff 4d 7c 3d 63 e4 49 3c e9 ba ac bd 36 36 ff 3c
       0.06159782 0.012322518 -0.08434088 0.03115378
0003a0 a1 8c de bc 4e 2d 55 bd 8c 19 c8 bc e0 cf 64 3d
       -0.027166666 -0.05204516 -0.024426244 0.055862308
0003b0 99 02 56 bb 16 8a 82 ba 15 39 12 bd dc 44 b0 bd
       -0.0032655357 -0.0009959366 -0.03569897 -0.08606884
0003c0 08 af b3 3d 85 a2 33 bd c2 81 84 3d 22 36 78 3c
       0.08773619 -0.043856163 0.06470062 0.015149625
0003d0 04 52 21 3c b1 fb 32 3d e2 2f a9 bd c6 61 91 bc
       0.009846214 0.043697063 -0.08261086 -0.017746817
0003e0 35 fa 3b 3d 6d b4 79 bb 64 dc 10 bd 84 18 81 3d
       0.045892913 -0.0038101927 -0.03536643 0.06303504
0003f0 b6 81 b5 bd e3 4f b0 bb 8c ac ec bc 00 ac 38 3d
       -0.08862631 -0.005380617 -0.02889087 0.045085907

a2c_network.mu.bias f4 [4]
000000 b7 a3 b4 bc bb a7 0f 3e 60 62 26 3d fe aa 84 bd
       -0.022050722 0.14028828 0.04062116 -0.06477927

exp_avg f4 [4]
000000 d8 c3 c8 ba 22 47 79 ba 20 1a 09 b9 c6 3e 35 b7
       -0.0015317155 -0.0009509196 -0.0001307507 -1.0803056e-05

exp_avg_sq f4 [4]
000000 92 b4 1c 36 eb f3 3b 36 31 8c 26 36 4d 3a 2d 36
       2.3350917e-06 2.800715e-06 2.481753e-06 2.5812944e-06

exp_avg f4 [64, 12]
000000 df 9e b9 b9 9e 15 07 b9 74 34 09 bb 21 de 46 3a
       -0.00035404318 -0.00012882656 -0.0020935806 0.00075862004
000010 19 32 4d 38 53 cd c1 b8 e2 65 84 b6 b0 fb 52 38
       4.8922466e-05 -9.241202e-05 -3.9457673e-06 5.0302304e-05
000020 56 91 bc b9 b4 0e 96 b8 47 d3 7b b9 a2 b3 53 3a
       -0.00035966438 -7.155296e-05 -0.00024015932 0.00080757786
000030 93 8b 90 3a 82 e2 e6 39 9e fb 8b 3b d6 fe 0d 3a
       0.0011027924 0.0004403778 0.0042719385 0.00054166967
000040 20 1c d3 b8 41 ac 88 b9 22 5c 50 3a f9 42 cc b5
       -0.00010066503 -0.0002606828 0.0007948299 -1.5218676e-06
000050 8c 34 b0 3a 15 93 20 3a a1 ec 85 3a 43 38 49 3a
       0.0013443395 0.00061254326 0.0010217616 0.0007675925
000060 db 65 3e ba 17 21 a4 3a b0 df 37 bb 25 eb 45 3a
       -0.00072631025 0.0012522069 -0.0028056912 0.0007549993
000070 a9 68 97 b9 e9 3f 0e bb 8f ed a9 b8 39 66 1c ba
       -0.00028878942 -0.0021705574 -8.102797e-05 -0.000596616
000080 bf 32 0c ba 1e 1e 63 3a 69 17 4d ba 9e 1e 43 bb
       -0.0005348138 0.00086638506 -0.0007823618 -0.0029772888
000090 24 87 0e 39 b5 66 e4 b7 ea c3 11 ba e5 73 f5 b8
       0.00013592519 -2.7227545e-05 -0.00055605045 -0.000117040974
0000a0 da 74 bd 38 f5 1e 88 3a 6c a2 8d b9 67 e1 64 3a
       9.0339876e-05 0.0010385202 -0.0002701463 0.00087310973
0000b0 99 1b 0f b8 d6 bd 5e 3a d0 c2 63 ba 35 90 65 3a
       -3.411956e-05 0.00084969157 -0.0008688392 0.0008757145
0000c0 37 8e ab b9 31 c6 db b7 de 3a 8a ba 0e f4 02 ba
       -0.0003272162 -2.6199124e-05 -0.0010546108 -0.00049954734
0000d0 a9 5a 16 b8 39 80 44 b8 ec 2f 41 b9 6e cf a0 b8
       -3.584722e-05 -4.6849458e-05 -0.00018423767 -7.668031e-05
0000e0 f5 78 70 b9 29 39 1b b9 ef e0 70 ba e6 de 20 b9
       -0.00022933244 -0.00014803246 -0.0009188791 -0.00015341825
0000f0 ff c2 8f b8 ce 68 9c 3a 8c 5f 1d b8 de 3d 9b 3a
       -6.855092e-05 0.001193309 -3.7520702e-05 0.0011843999
000100 14 a4 ba 38 5d ec 40 ba 53 2c 2d ba 4f 01 59 39
       8.899733e-05 -0.00073594396 -0.0006606031 0.0002069522
000110 1e 4c 16 b8 92 c4 8a 3a 60 87 a6 b9 97 57 a2 b9
       -3.5833677e-05 0.0010587147 -0.0003176285 -0.00030964307
000120 17 7c 2e 39 27 f0 e1 39 74 fd 36 3a 87 bd b6 3a
       0.0001664016 0.00043094272 0.00069805165 0.0013941982
000130 30 b1 02 38 d7 ea 06 ba 0d 9a cb 38 49 71 85 35
       3.1159434e-05 -0.0005146688 9.7084885e-05 9.942243e-07
000140 aa 58 20 39 da 75 63 3a 44 3c 1d 3a 2f 63 19 3a
       0.00015291819 0.0008676924 0.0005998055 0.00058512663
000150 89 ab 63 b9 78 e9 de b9 d4 7c b9 ba d0 ca 26 b9
       -0.00021712309 -0.00042517087 -0.0014151582 -0.00015906547
000160 b8 66 8c b8 26 68 fb 38 bb f1 01 b9 dd c3 10 ba
       -6.694853e-05 0.00011988012 -0.0001239245 -0.000552235
000170 9c 16 bf b8 a9 94 35 ba 14 84 81 ba 8e 89 4d 39
       -9.111801e-05 -0.0006926754 -0.0009881281 0.00019601567
000180 40 dc 47 36 7c dc f3 39 45 a6 10 3a 3e 11 2f 3a
       2.9781513e-06 0.00046512845 0.000551794 0.00066782895
000190 89 70 86 38 58 5f 55 ba e2 49 7f 39 45 4f 46 b9
       6.410579e-05 -0.00081395125 0.00024346219 -0.00018912282
0001a0 4b 74 ed 38 1b dc 09 3a 91 9f 85 3a 3f 02 ad 39
       0.00011322702 0.00052589335 0.0010194649 0.00032998805
0001b0 17 84 fa 39 8e 31 a0 ba 72 af fe 3a 6b 18 0b bb
       0.0004778213 -0.00122218 0.0019430949 -0.002122427
0001c0 e7 a9 8e 39 b3 d3 b6 3a d0 45 a3 38 cd d3 ad 39
       0.00027210938 0.0013948589 7.785449e-05 0.00033154935
0001d0 29 2a b8 39 27 23 a5 ba 1c b3 9f 3a 93 23 44 3a
       0.00035126627 -0.0012598977 0.0012184116 0.00074821076
0001e0 5c e0 1d 3a 52 d1 90 ba d0 42 18 3b 7a 75 be ba
       0.0006022507 -0.001104871 0.0023233183 -0.001453086
0001f0 6f b2 c7 b8 37 9d 81 3a 2f a1 fd 38 ad bc 0e ba
       -9.522295e-05 0.0009888773 0.00012094003 -0.0005444985
000200 44 18 11 3a aa cc d6 ba 79 b3 3e 3a 51 21 96 ba
       0.0005534927 -0.0016387899 0.00072746683 -0.0011454021
000210 16 0a 85 39 a1 98 a9 3a 43 c4 50 39 54 a9 1f 3a
       0.0002537525 0.0012939164 0.00019909539 0.00060906005
000220 c6 40 74 38 be 9b 72 ba 31 3e 89 39 2f 1f 0b 3a
       5.823446e-05 -0.0009254775 0.00026177012 0.0005307076
000230 04 8d 6c 39 b1 b6 9e 3a da e0 42 3a 27 c6 01 bb
       0.00022559246 0.001210889 0.0007434018 -0.0019801946
000240 f3 68 ef b8 7b dd 31 39 19 36 51 ba 1d fb b3 39
       -0.000114159564 0.00016962543 -0.00079807785 0.00034328635
000250 ab 2c 0e b8 a6 13 b7 37 ba 0c 31 b9 09 90 08 b8
       -3.389704e-05 2.182445e-05 -0.00016884776 -3.255907e-05
000260 fa 26 89 b8 8a b7 a2 b7 46 e1 5f b9 e0 32 14 ba
       -6.539929e-05 -1.9397372e-05 -0.00021350858 -0.0005653333
000270 56 76 67 b8 e0 09 75 38 44 ac 88 39 85 8d 5d ba
       -5.51849e-05 5.842175e-05 0.0002606829 -0.0008451569
000280 71 d7 13 39 fb 3e 01 b9 98 79 94 39 11 f0 97 39
       0.0001409927 -0.00012325861 0.00028319354 0.00028979828
000290 7f 41 1d 39 19 41 81 b7 e0 2e 2e ba 0b a9 aa b9
       0.00014997086 -1.5408312e-05 -0.0006644558 -0.00032550874
0002a0 c0 2c 89 b8 53 67 75 3a 78 bb c2 38 82 cc 6e b8
       -6.5410044e-05 0.0009361405 9.28556e-05 -5.6934085e-05
0002b0 79 d9 ba b8 cb 14 01 bb bf b3 05 3a e6 8e bf b9
       -8.9096786e-05 -0.0019696231 0.00051003316 -0.00036536827
0002c0 70 cc 64 39 63 f0 f0 39 48 1d 11 ba 3e 0d 95 ba
       0.00021819933 0.0004595547 -0.0005535674 -0.0011371744
0002d0 11 e7 d8 ba e4 b0 dc ba 52 41 cc bb 7a 30 ce b7
       -0.0016548355 -0.0016837385 -0.0062333727 -2.4579687e-05
0002e0 04 37 b0 b8 2e 3f b6 3a cf 93 bc ba 7c a2 79 ba
       -8.4025814e-05 0.0013904327 -0.0014387312 -0.0009522808
0002f0 38 08 01 bb 39 4e 1e bb c6 e6 a0 ba 4d 26 23 3a
       -0.0019688737 -0.002415551 -0.0012275807 0.0006223664
000300 22 af 60 b9 dc 1b 32 ba f5 36 a2 38 62 fa bb b9
       -0.00021427547 -0.00067943125 7.7349985e-05 -0.0003585397
000310 87 b2 8d b8 e4 86 6e 3a a1 25 75 b9 8e 42 06 3a
       -6.756657e-05 0.000909908 -0.00023379039 0.0005121612
000320 4a 46 66 b9 40 f9 41 ba 55 79 8e 38 d9 80 8c 3a
       -0.00021960694 -0.0007399507 6.7936875e-05 0.0010719552
000330 20 38 d1 38 bf 18 29 ba a5 89 b3 3a 64 ad ce 39
       9.976351e-05 -0.0006450526 0.0013697637 0.00039420568
000340 9d e4 81 38 5b 37 4f 3a a4 81 a2 37 44 92 53 39
       6.193782e-05 0.0007904672 1.9372274e-05 0.00020177016
000350 d6 d7 57 39 13 3f 3e ba 03 0e 07 3a eb 4e 3b 3b
       0.00020584403 -0.00072573236 0.0005151929 0.0028580974
000360 a5 13 16 39 c0 06 ee 39 cd 35 8d 3a c2 b0 1f b9
       0.00014312433 0.00045399927 0.001077348 -0.00015229269
000370 8a 33 d7 37 1a 93 8d ba 0e 06 59 3a 60 de 03 b9
       2.5653997e-05 -0.0010801286 0.0008278795 -0.00012575975
000380 de 0e 05 3a 4d 46 8b 39 00 7d a2 b9 a0 e8 ae b9
       0.0005075763 0.00026564524 -0.0003099218 -0.00033361185
000390 3d 84 e9 38 4d d7 9c ba 09 0d be b9 bc 42 ad ba
       0.00011134937 -0.001196602 -0.00036249336 -0.0013218741
0003a0 3c 59 ad 39 81 d5 da 3a be 6b 68 38 4f 32 33 3a
       0.00033063616 0.0016695709 5.5413453e-05 0.00068358047
0003b0 97 63 bb 37 25 d3 6b ba fa b9 e2 ba a2 8e 04 3b
       2.2338512e-05 -0.00089960016 -0.0017297857 0.0020226617
0003c0 cf 0c 2e b8 f1 39 0c ba 65 0d 24 3a 52 c3 69 ba
       -4.149676e-05 -0.000534921 0.00062580995 -0.00089173496
0003d0 5e db 30 39 52 13 df 39 6a a0 60 b9 19 6b ef 39
       0.00016866389 0.0004254827 -0.00021422064 0.00045665426
0003e0 f4 78 e4 b7 07 a2 21 ba e0 83 3f 3a 71 e3 ed 39
       -2.7236041e-05 -0.00061658066 0.00073057227 0.0004537362
0003f0 f5 e0 fc b9 4d 12 1c ba ad b5 70 ba 8e d9 7e 3a
       -0.00048232792 -0.0005953655 -0.0009182345 0.0009721749

exp_avg_sq f4 [64, 12]
000000 7c 6c 51 35 0e 41 a2 35 7e c5 0c 38 19 22 c6 36
       7.801643e-07 1.2088874e-06 3.356253e-05 5.9048293e-06
000010 51 a5 12 36 e5 ea 8a 36 50 6c 8c 37 a1 5b 73 37
       2.1851922e-06 4.140066e-06 1.6739737e-05 1.4505263e-05
000020 1d f8 40 35 c3 43 c8 36 d5 1d d2 37 27 cc 52 38
       7.1886626e-07 5.968353e-06 2.5047842e-05 5.0258033e-05
000030 04 66 0b 37 34 17 8b 37 ff 97 c4 39 7a 74 41 38
       8.308798e-06 1.6580896e-05 0.0003749728 4.6123263e-05
000040 a9 b0 84 37 40 bb 20 38 c6 33 4d 39 c7 9f e8 38
       1.581789e-05 3.8321363e-05 0.0001956961 0.00011092383
000050 46 c9 e7 36 38 7b a5 38 37 e8 dd 39 af 4a 9b 39
       6.907768e-06 7.8907644e-05 0.00042325418 0.00029619547
000060 b1 2b 96 37 9b 35 19 38 d1 b7 46 3a 40 65 f8 38
       1.7901739e-05 3.6527967e-05 0.00075804914 0.00011844421
000070 e2 56 4a 38 45 5d d3 38 d6 11 c5 39 57 0a 56 39
       4.824147e-05 0.00010078637 0.00037588057 0.00020412482
000080 8a 70 72 37 13 4b 3a 39 98 d3 23 3a d3 19 05 3a
       1.4450527e-05 0.0001776631 0.00062494865 0.00050773955
000090 d5 f7 60 37 32 16 2e 36 c2 da 50 39 56 22 f5 37
       1.3409143e-05 2.594094e-06 0.0001991792 2.9222265e-05
0000a0 7e 6e 97 37 cf b3 2f 38 22 7e fe 38 05 1c bc 38
       1.8052055e-05 4.189071e-05 0.00012135158 8.9697576e-05
0000b0 4d 78 1a 37 c9 6e 6e 38 f9 2c 35 39 e2 49 1b 3a
       9.207125e-06 5.68468e-05 0.00017278259 0.000592379
0000c0 f8 92 ad 35 5f 7d d3 35 6a 18 71 38 c8 17 ba 36
       1.2932278e-06 1.5757213e-06 5.7481615e-05 5.5460005e-06
0000d0 50 71 8c 36 ff d8 0e 37 63 1d e7 37 a9 88 99 37
       4.1855164e-06 8.514383e-06 2.755103e-05 1.8302659e-05
0000e0 ba 4d bb 35 0e ca 84 37 44 76 54 38 73 b6 4c 38
       1.3955207e-06 1.5829715e-05 5.0654882e-05 4.880731e-05
0000f0 0e 15 51 36 19 09 c2 37 39 a4 2f 39 1d 76 4c 38
       3.1155682e-06 2.3130839e-05 0.00016750478 4.874739e-05
000100 f1 f9 a2 36 82 37 4b 37 0f b4 09 38 90 c0 b6 37
       4.8570732e-06 1.2112667e-05 3.2831038e-05 2.178576e-05
000110 15 cb 56 36 e1 16 34 38 c2 96 7b 39 5e 72 8c 38
       3.2006694e-06 4.2936652e-05 0.00023993387 6.697023e-05
000120 0f e6 96 35 33 9a 5d 36 41 fe 40 38 17 ea 10 37
       1.1242827e-06 3.3021322e-06 4.601316e-05 8.637572e-06
000130 bf 31 1b 36 1c 76 d7 36 0c 6f a5 37 d6 46 87 37
       2.3125756e-06 6.421249e-06 1.9721243e-05 1.612624e-05
000140 ec 88 7b 35 f4 4b 2a 37 4c 1d 50 38 bf df f9 37
       9.3704034e-07 1.0150474e-05 4.961835e-05 2.9787303e-05
000150 10 bb 02 36 19 cd 28 36 fb 46 95 38 81 4f fe 36
       1.9480394e-06 2.5153333e-06 7.118095e-05 7.5790454e-06
000160 0d 21 60 36 10 7d fe 36 48 bd b4 37 60 01 7d 37
       3.339784e-06 7.584349e-06 2.1545813e-05 1.5080295e-05
000170 b5 d4 fa 35 ca b7 55 37 fd 46 5a 38 7b 0b 3e 38
       1.8688357e-06 1.2738581e-05 5.2041363e-05 4.5310222e-05
000180 29 dd a4 35 1c 51 46 36 43 9f 56 38 0f 83 1b 37
       1.2283318e-06 2.955151e-06 5.11699e-05 9.269234e-06
000190 b1 4e 6c 36 68 7e 08 37 e2 60 be 37 94 ea 99 37
       3.5212545e-06 8.135663e-06 2.269488e-05 1.8348255e-05
0001a0 0c 06 56 35 69 ca 66 37 c5 37 0a 38 05 16 ce 37
       7.973001e-07 1.3756196e-05 3.2953703e-05 2.4567367e-05
0001b0 33 03 33 37 e7 ee 41 37 d0 f2 41 39 5b 84 1a 38
       1.0669976e-05 1.155932e-05 0.00018496369 3.6839727e-05
0001c0 c7 b7 09 37 17 c8 b8 37 97 a2 9b 38 40 b2 30 38
       8.208625e-06 2.2027683e-05 7.421261e-05 4.2127678e-05
0001d0 83 6b 0c 37 0a a4 c7 37 eb 6f 19 39 16 6f 15 39
       8.369682e-06 2.3799035e-05 0.0001463291 0.0001425113
0001e0 6f 68 a0 37 f6 68 45 37 7b 79 a2 39 dc 3d 6c 38
       1.9122117e-05 1.1766553e-05 0.00030989558 5.6324396e-05
0001f0 6d 37 83 37 35 2e 2c 38 ac 34 0c 39 bd 0f aa 38
       1.5642227e-05 4.105103e-05 0.00013371062 8.109163e-05
000200 cf d2 7e 37 90 d1 3f 38 d2 82 7d 39 cf d7 ec 39
       1.51886625e-05 4.573312e-05 0.00024176695 0.00045174218
000210 ca 96 8c 36 3c 0e 65 37 39 02 45 39 3d f2 12 38
       4.1898793e-06 1.3652778e-05 0.00018788212 3.5034715e-05
000220 e6 a8 c8 36 4e 3d 58 37 ab ac 61 38 b5 71 05 38
       5.980127e-06 1.2888877e-05 5.380499e-05 3.181557e-05
000230 7b 59 6f 36 2b 51 05 38 53 66 34 39 34 13 00 39
       3.566586e-06 3.1785265e-05 0.00017204256 0.00012214185
000240 47 2b 7c 35 43 95 a4 36 2b d9 2a 38 3b 7a 42 37
       9.394029e-07 4.904957e-06 4.0733412e-05 1.159176e-05
000250 37 5f 88 35 97 84 48 36 7a e2 0d 37 4f 63 b7 36
       1.0160501e-06 2.98795e-06 8.456986e-06 5.465386e-06
000260 3c 8c 84 35 4a ba 25 37 d6 4e 8b 38 10 df 8c 37
       9.87558e-07 9.87814e-06 6.642721e-05 1.6793172e-05
000270 36 7e b8 35 b6 6e 89 36 58 95 82 38 c3 52 80 37
       1.37458e-06 4.0958066e-06 6.2267005e-05 1.5297328e-05
000280 63 67 8d 36 b4 5a 07 37 bd be 04 38 e2 d4 a9 37
       4.2141633e-06 8.0677455e-06 3.164889e-05 2.0245501e-05
000290 29 31 a3 35 ee ef 8c 37 5f cb 2b 38 01 58 4f 38
       1.2158754e-06 1.6801027e-05 4.095898e-05 4.9434606e-05
0002a0 f5 d0 df 36 a1 12 42 37 93 af ad 39 5a 9b 0d 38
       6.6702437e-06 1.15676385e-05 0.00033127944 3.3761702e-05
0002b0 14 b6 df 37 03 2d 83 38 d1 b0 2e 39 20 09 e1 38
       2.6668458e-05 6.254951e-05 0.00016659802 0.00010730536
0002c0 1e 4b db 36 65 43 e9 38 88 a7 84 39 b5 9a 4c 39
       6.5354534e-06 0.00011122859 0.00025301822 0.00019512589
0002d0 14 35 fa 36 5e d5 c1 37 09 2b b0 39 ef ed 8c 38
       7.4567597e-06 2.310675e-05 0.000336014 6.720039e-05
0002e0 92 98 de 36 9e 1c ce 37 44 30 41 39 74 b1 f7 38
       6.633877e-06 2.457044e-05 0.00018423895 0.00011810931
0002f0 a6 f6 e9 36 82 2f 5d 38 0a 05 43 39 7b 6d 45 39
       6.972655e-06 5.273475e-05 0.00018598526 0.00018828169
000300 02 c9 0f 36 96 f8 ea 36 83 59 ba 38 c7 90 9e 37
       2.1425662e-06 7.0026827e-06 8.885844e-05 1.8902485e-05
000310 12 79 9e 36 df d8 44 37 0e 32 03 38 81 5e a8 37
       4.7228614e-06 1.1733005e-05 3.127945e-05 2.0071167e-05
000320 38 82 18 36 01 03 84 37 4f 47 35 38 e8 0c 04 38
       2.2725562e-06 1.5737025e-05 4.3220174e-05 3.1483272e-05
000330 3c ca 2e 37 a8 3d 10 37 f6 58 83 39 87 9b 01 38
       1.0418295e-05 8.597424e-06 0.00025052548 3.0900843e-05
000340 bb 6d 9e 37 86 dd 1b 38 06 24 2d 39 73 38 b3 38
       1.8886165e-05 3.716119e-05 0.00016511985 8.5458996e-05
000350 80 d7 ee 36 e6 85 94 38 27 b9 60 39 af eb 87 39
       7.1180402e-06 7.0821305e-05 0.0002143128 0.00025924805
000360 d4 02 00 36 2d 02 1b 36 98 06 be 38 5a 3d ef 36
       1.9075133e-06 2.3098066e-06 9.061134e-05 7.1298973e-06
000370 04 a1 29 37 29 e2 b2 37 c8 02 7d 38 24 6a 2e 38
       1.0110674e-05 2.1324568e-05 6.032249e-05 4.1583684e-05
000380 cf 3b e5 35 79 3c 26 38 ab 6a 73 38 7f 87 74 38
       1.7079236e-06 3.9633804e-05 5.8035057e-05 5.8300324e-05
000390 c0 31 9e 37 a2 0e 37 38 92 a2 4d 3a 30 46 0d 39
       1.8858234e-05 4.3644228e-05 0.0007844354 0.00013472955
0003a0 ee 76 27 38 73 83 a3 38 f2 68 c4 39 b1 a5 4f 39
       3.9926665e-05 7.79693e-05 0.00037462224 0.00019802783
0003b0 f0 5b 80 37 9a fc 1a 39 0d 5c 2e 3a c3 0f 15 3a
       1.53016e-05 0.00014780686 0.000665129 0.00056862476
0003c0 a8 51 86 36 1a 7a 8d 36 36 4f 83 38 1a cd aa 37
       4.0030172e-06 4.216342e-06 6.261321e-05 2.0361087e-05
0003d0 27 59 a9 36 7b ed 3d 37 c4 40 62 38 bc 59 0c 38
       5.046971e-06 1.1320571e-05 5.3942917e-05 3.3462173e-05
0003e0 f1 09 85 36 d5 e6 65 37 59 1d 29 38 5f 96 da 38
       3.964866e-06 1.3703208e-05 4.0320072e-05 0.00010423059
0003f0 41 a2 39 37 3a c0 3e 36 d7 4c 49 39 01 80 e8 37
       1.1064637e-05 2.8424097e-06 0.00019197479 2.7716162e-05

exp_avg f4 [64]
000000 f0 7f 2c 38 43 6c 4a bb d6 ac 87 bc 83 86 02 3c
       4.1127147e-05 -0.0030887283 -0.016561907 0.00796664
000010 a1 08 15 b9 96 a2 d7 bb 6a e2 86 bb aa 71 a7 3a
       -0.00014212962 -0.006580661 -0.004116346 0.0012774963
000020 30 a6 c6 bb d1 dc 3b 3c 25 0d f3 3b 20 cf 07 bc
       -0.0060622916 0.011466221 0.0074173384 -0.008289129
000030 fd 24 0b ba df 58 17 ba 73 4a 70 bc 51 a2 48 3c
       -0.0005307941 -0.00057734357 -0.014666188 0.0122457305
000040 d6 0f e3 3b db da d5 3b 0e f6 03 bc 39 c5 52 3c
       0.006929378 0.0065263337 -0.0080542695 0.012864404
000050 50 18 5d 3b f8 df cf 3a d0 10 8b bb b8 1e 93 3c
       0.0033736415 0.0015859595 -0.0042439476 0.017958984
000060 51 8e 71 bb 77 0f ca 3a eb 7a a9 ba ad e5 34 bc
       -0.0036858509 0.0015415986 -0.0012930309 -0.011041087
000070 a1 33 32 bc 0b 5d 8f 3b 61 e1 c7 3b d7 9d dd 3b
       -0.010876567 0.0043751053 0.0060998653 0.0067632007
000080 1f 6d 10 3b bb 88 32 3b c4 bf 20 3b 73 a8 df 3b
       0.0022037697 0.0027242142 0.0024528364 0.0068255006
000090 1c 10 49 3c 27 f3 58 bc ac b4 9a 3b 9e 70 f6 3b
       0.012271907 -0.013241566 0.004721245 0.0075207492
0000a0 25 9b f7 3a 72 8c 54 3b 3b 06 98 38 68 4b 23 3c
       0.0018890841 0.0032432345 7.249085e-05 0.009966709
0000b0 ff 3f 48 3c 52 b8 05 bb 4b 8d 8c 3b eb 96 98 3c
       0.012222289 -0.0020404053 0.0042893044 0.01862665
0000c0 93 bf 5e bc 74 d8 6f bb 21 7a fc bb a6 94 83 3b
       -0.01359548 -0.0036597522 -0.0077049886 0.004015523
0000d0 78 d9 34 ba 32 f7 c2 bb 2f 5c 39 bc d9 af 3c 3b
       -0.00068988604 -0.005949878 -0.011313482 0.0028791337
0000e0 91 1d 6a 3c 79 ba a8 bb 42 1e 06 bb 72 7b b2 3b
       0.014289276 -0.0051491824 -0.0020464812 0.0054468447
0000f0 38 ed 7e 3b 1c 48 a2 3b 98 2f c1 ba 49 e4 bf bb
       0.0038898718 0.0049524438 -0.0014738915 -0.005856071

exp_avg_sq f4 [64]
000000 81 8e 94 39 95 d5 2d 3b 5d b4 dc 3b b8 51 37 3b
       0.00028334933 0.002652501 0.006735368 0.0027972292
000010 1d e9 12 3a ce 5b 56 3a 23 d6 cb 39 76 27 05 3a
       0.00056041946 0.0008177132 0.00038878722 0.00050794275
000020 81 12 13 3a 4b e7 be 3a be da 34 3b 06 6e 66 3a
       0.0005610362 0.001456478 0.00275962 0.00087901985
000030 b8 d3 55 39 a5 ae 0b 3a 4f a8 88 3b 2d f2 e5 3a
       0.00020392134 0.0005328453 0.0041704546 0.0017543487
000040 17 d9 3c 3a 4a 68 23 3b 1e 07 be 3a 3b 2f aa 3b
       0.000720398 0.0024933987 0.0014497971 0.0051936186
000050 21 1d 4f 3a 58 d6 1f 3b d4 e8 af 3b 8a 09 b1 3b
       0.0007900764 0.0024389233 0.0053683314 0.0054027485
000060 e3 ff 72 3a 8a ca 0c 3b c0 fb 16 3a 16 e9 35 3b
       0.00092696975 0.0021483027 0.00057595596 0.0027757338
000070 a0 bd 98 3a 25 62 52 3a 84 64 97 3a 79 b7 c6 3a
       0.0011653192 0.0008025489 0.0011550342 0.001516088
000080 09 96 06 3a 34 f9 0d 3b ae 13 f4 39 cb 67 35 3b
       0.00051340513 0.002166343 0.0004655397 0.0027680274
000090 cf b4 1c 3c 11 3a 55 3b 74 d4 5e 3b e4 08 7c 3b
       0.0095645925 0.003253583 0.0034001144 0.0038457448
0000a0 11 e3 a9 39 f6 77 1c 3b 00 60 0e 39 0e 07 9b 3b
       0.0003240337 0.0023875213 0.00013577938 0.0047310656
0000b0 01 06 ec 3b 42 c3 89 3a 4b 86 8d 3a 7c da 4c 3c
       0.007202864 0.0010510462 0.0010797469 0.012503263
0000c0 cd c1 00 3b 3e a8 bf 3a 05 ad e0 3a 4f 2b 09 3b
       0.0019646764 0.0014622284 0.0017141408 0.0020930355
0000d0 28 d7 2e 3a 02 88 80 3a 31 27 c6 3a fc 02 fe 3b
       0.0006669634 0.0009806158 0.0015117881 0.0077518206
0000e0 0d 41 fe 3b 7d 58 06 3a 54 b8 59 39 e6 f7 64 3a
       0.0077592195 0.000512488 0.000207634 0.00087344495
0000f0 79 71 ac 3a f2 ff 78 3a 86 6f 08 3a 72 f7 f4 3a
       0.0013156376 0.0009498588 0.00052046066 0.0018689467
