logs/rl_games/klask/r_score_10_distance_1dt_t_all_selfplay/nn/klask.pth (torch, 550130 bytes, 30 tensors)

a2c_network.sigma f4 [4]
-4.17455 -2.633373 -2.1388888 -1.561768
00000000: ea95 85c0 2f89 28c0 8ee3 08c0 04e8 c7bf

a2c_network.actor_mlp.0.weight f4 [256, 12]
0.0031530517 0.20962025 -0.044040155 -0.012186538 0.225042 0.12916242 -0.025160983 0.0019847932
-1.6089325 0.40879658 -0.5003226 0.3248801 0.11728104 -0.31126896 0.06667876 -0.09962802
0.55342585 -0.571004 -0.0529888 -0.034140576 1.0210096 0.9371136 -0.21102391 0.09427677
0.15071718 0.32117698 0.008765959 -0.0025453765 0.15475935 0.16349477 0.012079404 0.015128318
0.4255841 -1.1817889 0.098573 -0.103857234 -0.036302455 -0.3816684 0.02392573 -0.014683586
0.056511447 0.25337112 0.02416502 0.036030445 3.8196254 -0.091199964 0.39900652 0.025402954
0.13772559 -0.36202234 -0.023633098 -0.061108526 -0.07469163 -0.03720235 0.0099645145 -0.06414488
-1.6342725 -0.98825806 -0.3087721 -0.13856034 0.62374246 -0.3500207 -0.016824441 -0.08737913
-0.13498746 0.0935023 -0.006884546 0.003807609 -0.14431757 -1.3187534 -0.41520795 -0.8402039
0.19959608 0.011820998 -0.030353712 -0.05066885 -0.017735941 -0.050593346 0.006453165 0.068594486
2.0808995 1.3053688 -0.36722 -0.16529682 0.5738757 -0.26066017 -0.19095072 0.09021386
-0.15259172 -0.05761236 0.006158614 -0.009560629 -0.9681081 -1.3486366 -1.0404646 -0.4402071
-0.34289908 0.17839907 0.019849729 0.0346103 0.09005131 -0.24589404 -0.06295691 -0.04629321
-0.07838932 -1.5584253 -0.14483836 -0.60825557 -0.014784962 -0.35253805 0.044120852 0.15298988
-0.05400557 0.048552968 0.034221694 -0.037085325 2.1874046 -0.28606826 1.0643548 0.041989926
-0.30969897 0.4698324 0.012682532 0.033150956 0.1132917 -0.21109442 0.0031401317 -0.031095434
3.2198994 -0.9285999 0.56572825 -0.02442719 0.2949848 0.018130861 0.0364186 0.0255043
0.026879158 -0.04842665 0.025831882 0.017318433 0.033139076 -1.5731171 -0.007890428 -0.63282603
0.09573072 0.31359056 0.0658534 -0.013757132 0.57701224 0.21196076 -0.071391806 -0.04082939
-0.13449378 1.1695001 -0.07104762 0.23326233 0.18561448 -0.6407376 0.03877939 0.012281813
0.13894083 -0.04141692 -0.009843593 -0.0075050155 -1.9085274 -0.17609225 -0.3142223 -0.12972055
0.25175595 0.3576245 -0.08223233 0.003420303 -0.042928737 0.23887606 0.024655683 -0.013438409
-1.4825642 0.720204 -0.32674798 0.3125278 0.5859802 0.63123864 0.007161194 -0.04726713
-0.1203524 -0.00063669495 0.059216995 -0.010653382 -1.6301119 -1.3273844 -0.3812469 -0.3317124
-1.1092455 -0.1803332 0.098665774 -0.11815452 -0.028432136 0.012979172 0.016481878 -0.012702081
-0.52129245 -0.9575007 -0.51143277 -0.07001647 0.13082285 0.032518428 0.018865272 -0.12489674
-0.2507108 0.11208325 -0.0022608966 -0.014557968 -1.4158553 1.5580385 -0.0049103973 0.0051485556
0.21608649 -0.43506688 -0.11816313 -0.03011845 -0.013725192 0.37190527 0.046893883 0.01368421
-0.084431775 -0.7970954 -0.53289497 -1.1152803 0.18822342 -0.731918 -0.008804615 -0.08318399
0.10136905 -0.18344821 -0.020007137 0.0066611283 -2.6313684 0.28870088 0.14285742 0.10257684
-0.20952469 -0.1378171 0.11652904 -0.035775676 0.3774052 0.0048047137 0.012051821 0.012668703
2.2836413 -1.1873119 0.48171484 -0.1660353 0.6200661 0.5317296 -0.08792195 -0.044670075
00000000: 6ea3 4e3b b1a6 563e 7363 34bd 0caa 47bc
00000010: 6971 663e 2743 043e 681e cebc 4e13 023b
00000020: 80f1 cdbf c94d d13e 2415 00bf af56 a63e
00000030: 0b31 f03d a55e 9fbe e08e 883d c609 ccbd
00000040: 51ad 0d3f 512d 12bf c90a 59bd fdd6 0bbd
00000050: 71b0 823f ade6 6f3f a716 58be 2e14 c13d
00000060: 9b55 1a3e 4f71 a43e 199f 0f3c 55d0 26bb
00000070: 3c79 1e3e 2c6b 273e b1e8 453c c4dc 773c
00000080: 29e6 d93e dc44 97bf a4e0 c93d 1ab3 d4bd
00000090: e2b1 14bd 0a6a c3be e4ff c33c 6c93 70bc
000000a0: 8c78 673d dcb9 813e b8f5 c53c a994 133d
000000b0: be74 7440 0cc7 babd 954a cc3e db19 d03c
000000c0: f007 0d3e fe5a b9be 339a c1bc ef4c 7abd
000000d0: edf7 98bd 7e61 18bd 3442 233c 645e 83bd
000000e0: d72f d1bf 7bfe 7cbf 6017 9ebe c3e2 0dbe
000000f0: 96ad 1f3f ea35 b3be 69d3 89bc d4f3 b2bd
00000100: 273a 0abe 227e bf3d c297 e1bb 1489 793b
00000110: fcc7 13be e9cc a8bf 2396 d4be 9a17 57bf
00000120: ea62 4c3e dcac 413c 59a8 f8bc 248a 4fbd
00000130: f74a 91bc f83a 4fbd 1275 d33b 447b 8c3d
00000140: 752d 0540 5316 a73f 4304 bcbe 9243 29be
00000150: 85e9 123f 4075 85be 9688 43be 0bc2 b83d
00000160: 0141 1cbe f0fa 6bbd 33ce c93b 2fa4 1cbc
00000170: efd5 77bf 20a0 acbf f22d 85bf d362 e1be
00000180: 7890 afbe 3fae 363e e69b a23c 88c3 0d3d
00000190: d26c b83d a6cb 7bbe 8def 80bd f39d 3dbd
000001a0: 948a a0bd 7b7a c7bf 8250 14be a3b6 1bbf
000001b0: a03c 72bc de7f b4be 11b8 343d 61a9 1c3e
000001c0: f234 5dbd 7adf 463d 0c2c 0c3d c8e6 17bd
000001d0: 70fe 0b40 8a77 92be c73c 883f a1fd 2b3d
000001e0: dd90 9ebe df8d f03e 65ca 4f3c 4cc9 073d
000001f0: 7b05 e83d 2329 58be abca 4d3b dabb febc
00000200: d512 4e40 b9b8 6dbf 91d3 103f 881b c8bc
00000210: 3f08 973e 2c87 943c ab2b 153d 65ee d03c
00000220: ae31 dc3c 065b 46bd 629d d33c 63df 8d3c
00000230: d7bc 073d e75b c9bf db46 01bc e300 22bf
00000240: 780e c43d f18e a03e 26de 863d 9865 61bc
00000250: 13b7 133f 3e0c 593e de35 92bd b83c 27bd
00000260: bdb8 09be 2eb2 953f 6a81 91bd 52dc 6e3e
00000270: b911 3e3e 6107 24bf 23d7 1e3d a839 493c
00000280: 8146 0e3e caa4 29bd 0647 21bc a2ec f5bb
00000290: a04a f4bf 8751 34be bfe1 a0be 77d5 04be
000002a0: 28e6 803e 8f1a b73e 6d69 a8bd 2a27 603b
000002b0: 0bd6 2fbd ed9b 743e b7fa c93c c62c 5cbc
000002c0: aac4 bdbf 4a5f 383f 834b a7be a503 a03e
000002d0: cc02 163f db98 213f 73a8 ea3b 2e9b 41bd
000002e0: 527b f6bd e0e7 26ba 858d 723d 868b 2ebc
000002f0: 82a7 d0bf bbe7 a9bf cb32 c3be 35d6 a9be
00000300: c2fb 8dbf 44a9 38be 4811 ca3d fffa f1bd
00000310: 83ea e8bc 98a6 543c 0105 873c 641c 50bc
00000320: 6c73 05bf c41e 75bf 42ed 02bf cc64 8fbd
00000330: 6df6 053e 0b32 053d 588b 9a3c ddc9 ffbd
00000340: 2a5d 80be e78b e53d 8d2b 14bb 8b84 6ebc
00000350: bf3a b5bf ce6d c73f 66e7 a0bb 37b5 a83b
00000360: c745 5d3e 16c1 debe 83ff f1bd f8ba f6bc
00000370: a1df 60bc 5e6a be3e cd13 403d bd33 603c
00000380: 91ea acbd 720e 4cbf ce6b 08bf 81c1 8ebf
00000390: a4bd 403e fa5e 3bbf 3b41 10bc 5e5c aabd
000003a0: 949a cf3d d9d9 3bbe 02e6 a3bc 9845 da3b
000003b0: 5768 28c0 9ad0 933e 3749 123e ce13 d23d
000003c0: a48d 56be ed1f 0dbe c7a6 ee3d 8489 12bd
000003d0: 413b c13e dc70 9d3b 0075 453c 6490 4f3c
000003e0: 2e27 1240 d6f9 97bf 54a3 f63e 2805 2abe
000003f0: a7bc 1e3f 6e1f 083f 6c10 b4bd f8f7 36bd

a2c_network.actor_mlp.0.bias f4 [256]
-0.1838294 -0.27547973 0.38654682 0.03461799 0.14594616 0.2106264 -0.22894678 0.04373945
-0.20681654 -0.087662876 0.123386584 0.20669523 -0.27358988 0.26127264 -0.15827516 -0.1144233
0.16959453 -0.26049215 0.06414198 -0.178318 0.22044173 -0.14708999 0.045024622 0.025794012
-0.2957128 0.04185886 0.10011248 0.35473084 -0.13664727 -0.03569565 -0.13621467 -0.13637565
0.14928152 0.06592745 -0.115522034 -0.111949734 -0.09721364 0.033574145 0.2719544 -0.22767136
0.052112795 0.24329409 0.122960776 -0.1689939 -0.03528586 -0.07340928 0.2583995 0.15174828
0.014869592 -0.036058854 -0.055268914 -0.2693416 -0.00010109789 0.055400517 0.03323857 -0.01146582
-0.27390343 0.1919124 0.15958962 0.0014923892 -0.121401824 -0.21921861 0.23064134 0.072500326
0.07646858 -0.36960602 0.032765903 0.27371204 -0.013700385 -0.19152571 0.36820424 0.051803056
-0.10295615 0.25296134 -0.2219523 0.012621932 0.2539738 0.18592343 0.21961305 -0.06743165
-0.2576988 0.29677412 0.079023674 -0.12603231 0.20312233 -0.12796067 0.23970729 -0.32864612
0.061395817 0.20867829 -0.28495538 -0.18553065 0.04440337 0.16945727 -0.28378302 0.15082341
0.334462 0.18665087 0.060682077 0.18738139 0.29300982 -0.16054429 0.077397175 -0.20726876
0.036838815 0.08008004 -0.021107778 -0.096164905 0.00871189 -0.13852216 0.2054504 -0.10619214
-0.16386205 0.18965295 0.047082424 -0.13490094 -0.16952279 -0.0003637666 -0.24202465 0.18921742
0.071559854 0.11862096 -0.25136447 -0.13185382 -0.25750488 -0.15462662 -0.036441825 -0.2852984
0.093794525 0.16782491 -0.24517827 0.067037344 -0.25804436 0.0711196 0.23206486 -0.099615894
-0.06775286 -0.12834853 0.25051335 -0.07593387 0.13268833 -0.088678 -0.024128286 -0.09005933
-0.16798909 0.20257518 0.015282964 -0.23994243 0.20087768 -0.12642334 0.15096009 0.06514643
-0.054827444 -0.07728145 0.111135244 0.1938194 -0.05651175 -0.0027273528 0.06363448 0.15120168
0.1805739 0.14465791 0.23569235 -0.10639427 0.06345982 -0.17740497 0.05245561 -0.15017882
0.01923001 -0.40312317 -0.13358656 -0.17339064 -0.13438931 0.010620206 0.07610913 -0.25783888
-0.18133558 -0.05647555 -0.023020685 -0.038931027 0.18434224 0.038938962 -0.04539143 -0.047910605
-0.0014316259 0.088370875 0.14829403 -0.140492 0.40311038 0.036984038 0.22655727 -0.10621843
-0.14106 -0.22971384 -0.19966912 0.3002979 0.13970962 -0.0134132095 -0.28754255 -0.18268673
-0.05659687 -0.19407724 -0.13852747 -0.08634745 0.28008127 0.18865131 -0.13625713 0.048594598
-0.13878863 -0.14321442 0.083622806 -0.027107105 -0.21670814 -0.065079145 -0.18040125 0.059056897
0.13890545 -0.16099304 -0.25333053 -0.11138037 -0.14850754 -0.024885587 -0.2075322 0.1003774
0.2185854 -0.18885812 0.12035718 -0.03032282 0.1831433 0.0048330696 0.15041237 -0.08173471
0.32743356 -0.0140994955 0.08679162 0.04506669 -0.0029438552 -0.1303275 0.041093167 -0.36279678
-0.20788659 -0.014234215 0.1397708 -0.06619286 0.31811994 0.08900801 -0.046990708 -0.14586687
-0.18890926 -0.013108763 0.18409918 0.17483911 0.018251218 -0.17774293 -0.029020403 -0.03745434
00000000: c63d 3cbe ae0b 8dbe 77e9 c53e 98cb 0d3d
00000010: e972 153e 72ae 573e 0671 6abe 2328 333d
00000020: b7c7 53be 9888 b3bd 1bb2 fc3d eaa7 533e
00000030: f913 8cbe 87c5 853e e212 22be c356 eabd
00000040: 30aa 2d3e 3a5f 85be df5c 833d fe98 36be
00000050: 7abb 613e c29e 16be bd6b 383d f74d d33c
00000060: ab67 97be 3274 2b3d c607 cd3d 489f b53e
00000070: 43ed 0bbe 9a35 12bd dc7b 0bbe 0fa6 0bbe
00000080: 41dd 183e f904 873d d196 ecbd e745 e5bd
00000090: f217 c7bd 0b85 093d 9b3d 8b3e ae22 69be
000000a0: 3a74 553d 1622 793e dcd2 fb3d bd0c 2dbe
000000b0: e887 10bd 9b57 96bd f04c 843e e763 1b3e
000000c0: 979f 733c 73b2 13bd a861 62bd 24e7 89be
000000d0: 8404 d4b8 a7eb 623d 2b25 083d 22db 3bbc
000000e0: 123d 8cbe af84 443e 766b 233e 469c c33a
000000f0: 85a1 f8bd d87a 60be 3e2d 6c3e 0d7b 943d
00000100: 8f9b 9c3d 003d bdbe 8a35 063d fc23 8c3e
00000110: 9477 60bc 511f 44be 4485 bc3e 712f 543d
00000120: adda d2bd 2684 813e 7747 63be 38cc 4e3c
00000130: db08 823e b662 3e3e 3ee2 603e 9b19 8abd
00000140: 19f1 83be c7f2 973e 2ad7 a13d 9d0e 01be
00000150: 4dff 4f3e 1f08 03be d475 753e 4e44 a8be
00000160: 2e7a 7b3d c3af 553e ace5 91be bffb 3dbe
00000170: 4fe0 353d 3586 2d3e 024c 91be 7471 1a3e
00000180: 9a3e ab3e 6821 3f3e c58d 783d e8e0 3f3e
00000190: 6205 963e b965 24be 6982 9e3d 433e 54be
000001a0: 4ce4 163d 0101 a43d 38ea acbc 1bf2 c4bd
000001b0: 51bc 0e3c c1d8 0dbe 9761 523e 447b d9bd
000001c0: 74cb 27be 6234 423e 80d9 403d 7923 0abe
000001d0: 6297 2dbe edb7 beb9 4fd5 77be 36c2 413e
000001e0: f98d 923d 8cef f23d d8b2 80be b004 07be
000001f0: aed7 83be 7156 1ebe 0644 15bd a212 92be
00000200: 5817 c03d 4bda 2b3e 0310 7bbe e04a 893d
00000210: 641e 84be 27a7 913d 69a2 6d3e 6b03 ccbd
00000220: 03c2 8abd cc6d 03be 4943 803e 3883 9bbd
00000230: 73df 073e d09c b5bd afa8 c5bc 0771 b8bd
00000240: 5505 2cbe de6f 4f3e 6665 7a3c 78b3 75be
00000250: e1b2 4d3e 1f75 01be 4895 1a3e 7e6b 853d
00000260: be92 60bd bd45 9ebd e09a e33d 9878 463e
00000270: dd78 67bd 63bd 32bb cb52 823d 9dd4 1a3e
00000280: 5de8 383e 3421 143e 5659 713e 3de5 d9bd
00000290: 39f7 813d a6a9 35be b2db 563d 7ac8 19be
000002a0: 4188 9d3c 2966 cebe eaca 08be 518d 31be
000002b0: 5a9d 09be 5f00 2e3c 1bdf 9b3d 7503 84be
000002c0: 09b0 39be e852 67bd e095 bcbc 2476 1fbd
000002d0: 36c4 3c3e 767e 1f3d 5dec 39bd e93d 44bd
000002e0: 65a5 bbba cafb b43d 64da 173e 23dd 0fbe
000002f0: 7c64 ce3e 937c 173d a1fe 673e 0c89 d9bd
00000300: 0872 10be 1b3a 6bbe 1076 4cbe a5c0 993e
00000310: 0a10 0f3e 14c3 5bbc c738 93be 3b12 3bbe
00000320: 1fd2 67bd 2fbc 46be 25da 0dbe efd6 b0bd
00000330: d066 8f3e cf2d 413e fd86 0bbe 210b 473d
00000340: 9b1e 0ebe cda6 12be 6f42 ab3d b80f debc
00000350: bde8 5dbe 3748 85bd 1bbb 38be a5e5 713d
00000360: 3b3d 0e3e 5cdb 24be 8ab4 81be 641b e4bd
00000370: 5c12 18be dcdc cbbc 5283 54be ab92 cd3d
00000380: dad4 5f3e 0664 41be d37d f63d 9067 f8bc
00000390: eb89 3b3e ba5e 9e3b b305 1a3e 8764 a7bd
000003a0: 5fa5 a73e 9201 67bc cebf b13d d997 383d
000003b0: b2ed 40bb 9274 05be 4f51 283d 80c0 b9be
000003c0: 39e0 54be a036 69bc 1420 0f3e 1f90 87bd
000003d0: 9ee0 a23e d549 b63d 5479 40bd 205e 15be
000003e0: 6e71 41be 23c6 56bc 7f84 3c3e 0609 333e
000003f0: 9483 953c 3e02 36be 32bc edbc b969 19bd

a2c_network.actor_mlp.2.weight f4 [128, 256]
0.004359705 -0.12902108 -0.2740373 -0.397788 -0.076273784 0.10594168 0.02803378 -0.03288656
-0.10027393 -0.096236594 -0.47110602 -0.092258036 0.018137058 0.19997244 -0.006050177 0.10786872
-0.25858736 0.6050247 0.13194144 0.30839658 -0.41350222 -0.0035269146 0.29602215 0.35345703
0.2541729 0.13743806 0.029783301 0.0021465493 0.006378554 0.17582041 -0.27962896 -0.112697065
-0.17613268 -0.19252566 0.29869446 0.43644968 0.22067152 -0.0198357 -0.008042074 0.10885965
-0.040623315 -0.008194572 -0.19304398 0.1526516 -0.6679978 -0.40350124 0.082309425 -0.18709674
-0.11842534 -0.3557019 0.019948097 0.21364975 0.003629013 -0.30582213 -0.41638348 -0.35218212
-0.05961737 -0.13264798 -0.20641008 0.037517186 -0.15008408 -0.14489311 0.32597455 0.06800975
0.2623696 0.43758762 0.0735273 0.019960186 0.0077930414 0.13376965 -0.36445904 0.03736062
0.09115034 -0.165131 -0.24343261 0.23125415 0.05974372 0.075278886 -0.0084932055 -0.19070359
-0.26312134 -0.18272126 0.024422282 0.43640375 -0.165253 0.37095216 0.042268023 0.25581148
0.12646483 -0.16110893 0.397067 0.43370828 -0.20514546 0.14245588 0.061324306 0.16136916
-0.18380228 -0.030693429 -0.045954615 -0.2682881 0.17881463 -0.24337645 0.08468583 0.030676484
-0.24636948 -0.1014812 -0.19421183 -0.062877834 0.33704808 0.34220913 -0.18531987 -0.16779998
-0.121167846 -0.28233647 -0.062818915 -0.12339416 -0.27296418 -0.1711812 0.47687295 -0.017944615
-0.024119591 0.037663355 0.17138825 0.4395413 0.09415172 0.101419315 -0.14248896 -0.10391436
-0.09133216 0.017019195 0.41051936 -0.46905562 0.4567323 -0.13414662 0.18245652 -0.16187903
-0.0069631534 0.43336132 -0.24566571 0.3428563 -0.037556738 0.049851783 0.19906089 -0.043036073
0.084295526 -0.017914848 0.15915713 -0.31308737 -0.23296781 -0.32452312 0.19783182 -0.08255862
0.48533294 -0.16114813 0.1298235 -0.16397935 -0.2369909 -0.14646615 -0.08260331 0.14482734
-0.3977271 -0.10793082 -0.023950076 0.033850018 -0.23455842 -0.13521521 0.04246375 0.052175943
-0.055282094 -0.11251716 -0.22121769 0.5625727 0.2553546 -0.191394 -0.27236196 -0.13179307
0.22967781 0.14521992 -0.30433246 0.14252971 0.008606031 0.055747956 0.15168999 0.15276146
-0.11239988 0.053650234 0.095765226 -0.44035935 0.03406685 0.24488822 0.013498201 0.26920763
-0.27170038 0.11869075 -0.11602088 -0.5614302 -0.017983506 0.07031661 0.016894361 0.366446
0.0822813 0.42727733 -0.32751408 -0.20242243 -0.13185701 -0.27166942 -0.0036028905 -0.07208336
0.3902432 0.34973064 0.1467324 -0.38099113 0.46124536 -0.20403561 -0.2232967 -0.05633128
-0.40340352 0.109304085 -0.00513969 -0.28825122 0.1901901 0.02752898 0.6007076 -0.07643194
-0.052231085 -0.091702715 -0.14418237 0.11833136 -0.186828 -0.0022896281 -0.22131379 -0.15577258
-0.2051995 0.024199456 -0.4926644 -0.16934791 0.17361012 0.12327216 0.30976775 0.30954933
0.43208563 -0.108636454 -0.3576658 -0.10773164 0.035999067 -0.08023969 -0.17549355 0.48076534
0.6826232 -0.052870665 -0.11862342 -0.20051983 0.13977063 -0.049363494 0.31963727 -0.18462498
00000000: dbdb 8e3b 1a1e 04be 9e4e 8cbe deaa cbbe
00000010: 6e35 9cbd f4f7 d83d 19a7 e53c 0fb4 06bd
00000020: 6b5c cdbd b117 c5bd cf34 f1be c8f1 bcbd
00000030: 2b94 943c 93c5 4c3e 9040 c6bb 47ea dc3d
00000040: 9065 84be e6e2 1a3f a81b 073e 28e6 9d3e
00000050: 90b6 d3be cf23 67bb 3790 973e 52f8 b43e
00000060: f322 823e 90bc 0c3e 1cfc f33c 1fad 0c3b
00000070: 3003 d13b 440a 343e 872b 8fbe b8cd e6bd
00000080: 205c 34be 7225 45be 7bee 983e 5576 df3e
00000090: b7f7 613e 7a7e a2bc e7c2 03bc cff1 de3d
000000a0: a264 26bd 8742 06bc 52ad 45be b350 1c3e
000000b0: e701 2bbf b797 cebe d891 a83d 4a96 3fbe
000000c0: fc88 f2bd 8f1e b6be 316a a33c 00c7 5a3e
000000d0: bcd4 6d3b b894 9cbe 3730 d5be 3751 b4be
000000e0: 5831 74bd dfd4 07be 2a5d 53be 9fab 193d
000000f0: a4af 19be dc5e 14be 23e6 a63e b248 8b3d
00000100: 4f55 863e 7c0b e03e 7b95 963d 8b83 a33c
00000110: c55c ff3b e9fa 083e 609a babe 7307 193d
00000120: 08ad ba3d 1a18 29be 6646 79be e3cd 6c3e
00000130: d5b5 743d d12b 9a3d 1627 0bbc cd47 43be
00000140: d7b7 86be 481b 3bbe 3d11 c83c 5070 df3e
00000150: 1538 29be 71ed bd3e 3c21 2d3d b9f9 823e
00000160: ff7f 013e bdf9 24be 5e4c cb3e 030f de3e
00000170: a711 52be f4df 113e 322f 7b3d f53d 253e
00000180: aa36 3cbe c970 fbbc e83a 3cbd 0f5d 89be
00000190: 2f1b 373e ad37 79be c46f ad3d 404d fb3c
000001a0: 4848 7cbe 60d5 cfbd 77df 46be 18c6 80bd
000001b0: 9191 ac3e 0936 af3e 7ec4 3dbe c2d3 2bbe
000001c0: d926 f8bd 688e 90be 34a7 80bd 14b6 fcbd
000001d0: f6c1 8bbe 204a 2fbe b128 f43e 9600 93bc
000001e0: 7396 c5bc e444 1a3d 6780 2f3e 8f0b e13e
000001f0: 9ed2 c03d eeb4 cf3d a0e8 11be 0dd1 d4bd
00000200: 5b0c bbbd d76b 8b3c 982f d23e 0f28 f0be
00000210: d1d8 e93e bb5d 09be e2d5 3a3e 9ec3 25be
00000220: 2a2b e4bb 89e1 dd3e cb8f 7bbe dc8a af3e
00000230: 18d5 19bd 6231 4c3d 9ed6 4b3e 9846 30bd
00000240: 22a3 ac3d 29c2 92bc 16fa 223e fd4c a0be
00000250: 1d8f 6ebe e527 a6be 6d94 4a3e 7e14 a9bd
00000260: 8f7d f83e 0404 25be 74f0 043e 34ea 27be
00000270: bead 72be 39fb 15be ed2b a9bd 9e4d 143e
00000280: e3a2 cbbe d50a ddbd f332 c4bc 51a6 0a3d
00000290: 1530 70be db75 0abe 78ee 2d3d 71b6 553d
000002a0: 7a6f 62bd 666f e6bd e486 62be c404 103f
000002b0: d7bd 823e cafc 43be 0773 8bbe c3f4 06be
000002c0: a930 6b3e 88b4 143e 77d1 9bbe 4ff3 113e
000002d0: 4f00 0d3c f857 643d 9f54 1b3e 806d 1c3e
000002e0: e931 e6bd 59c0 5b3d 8f20 c43d c876 e1be
000002f0: ae89 0b3d fac3 7a3e 8f27 5d3c 95d5 893e
00000300: 501c 8bbe 2314 f33d 5b9c edbd e4b9 0fbf
00000310: 2552 93bc 2802 903d 0b66 8a3c cf9e bb3e
00000320: 1983 a83d 18c4 da3e edaf a7be d347 4fbe
00000330: 8605 07be 4118 8bbe 791e 6cbb 71a0 93bd
00000340: f5cd c73e e50f b33e 0541 163e 4511 c3be
00000350: 5a28 ec3e b6ee 50be e4a7 64be a1bb 66bd
00000360: e88a cebe d2da df3d d86a a8bb aa95 93be
00000370: 32c1 423e 7584 e13c f9c7 193f 5988 9cbd
00000380: 43f0 55bd a2ce bbbd 8ba4 13be b657 f23d
00000390: d74f 3fbe 960d 16bb 15a0 62be d982 1fbe
000003a0: d11f 52be f03d c63c 823e fcbe 8a69 2dbe
000003b0: dac6 313e 1d76 fc3d e199 9e3e 407d 9e3e
000003c0: 543a dd3e ca7c debd f91f b7be 68a2 dcbd
000003d0: c273 133d b554 a4bd 95b4 33be e026 f63e
000003e0: 65c0 2e3f e98e 58bd d6f0 f2bd 1255 4dbe
000003f0: 0820 0f3e 6031 4abd 7fa7 a33e 550e 3dbe

a2c_network.actor_mlp.2.bias f4 [128]
-0.053966273 -0.066322945 0.083415866 0.11129072 -0.18049999 -0.096530125 -0.05294889 -0.29183426
0.42330378 -0.083931394 0.14591375 -0.39079496 -0.19247517 0.2086748 -0.1841664 -0.11333071
0.12118929 -0.15875246 -0.05669029 -0.13301262 -0.08452045 -0.30002558 -0.33936825 -0.041237444
-0.10724021 0.039810073 -0.039656114 -0.0802199 -0.27881518 -0.60910696 0.18101467 0.07808197
-0.16506046 -0.0008043835 -0.09616439 0.10750285 -0.002013021 -0.1256544 0.08364344 -0.42271098
0.09930664 0.009021641 -0.35897005 0.13753074 0.108114034 -0.11230282 -0.0030809517 0.034124218
0.31838298 0.036074053 0.0004568793 0.021939877 -0.362872 -0.1885978 -0.25811467 0.42646268
0.06211274 -0.03856448 -0.2802634 -0.1623243 0.11627884 -0.26302245 -0.36791334 0.114325725
0.06228636 0.06213219 -0.3507154 0.10477344 -0.036439706 0.10663414 -0.16147228 -0.010990612
-0.1670773 -0.19590142 -0.009036106 -0.8304362 -0.008477813 -0.21798407 -0.339949 0.31045145
-0.015323304 -0.040554743 0.0146436775 0.10357765 0.00851403 -0.058363523 -0.027263163 -0.27332842
-0.19924209 -0.23105876 -0.28287724 -0.19348358 -0.43621537 -0.13825509 -0.057635143 -0.21258552
-0.13269536 -0.5410198 -0.23166895 -0.21338394 -0.18190365 -0.24029122 -0.28238243 0.023590468
-0.04495884 0.37358275 -0.035526928 0.2471162 -0.16305028 -0.13007188 0.33227065 -0.4246665
-0.21740486 -0.18591967 0.0967066 -0.5632574 0.13689645 0.07629367 -0.16865629 -0.12027803
-0.019962396 -0.3111077 -0.013199712 -0.3954103 -0.4431068 0.21092732 -0.090302944 -0.15305042
00000000: bd0b 5dbd 53d4 87bd f0d5 aa3d 64ec e33d
00000010: fdd4 38be 96b1 c5bd efe0 58bd 4d6b 95be
00000020: 46bb d83e 39e4 abbd 6a6a 153e 4716 c8be
00000030: 3618 45be d9ae 553e 1e96 3cbe ee19 e8bd
00000040: 1732 f83d 0190 22be 1434 68bd 7634 08be
00000050: 0f19 adbd f49c 99be adc1 adbe 98e8 28bd
00000060: c1a0 dbbd e30f 233d 736e 22bd 554a a4bd
00000070: ddc0 8ebe 6fee 1bbf e95b 393e 71e9 9f3d
00000080: 9c05 29be 43dd 52ba d6f1 c4bd 742a dc3d
00000090: e3ec 03bb 8cab 00be 404d ab3d 936d d8be
000000a0: 4861 cb3d 81cf 133c ecca b7be dcd4 0c3e
000000b0: e46a dd3d 05ff e5bd cbe9 49bb d6c5 0b3d
000000c0: 1803 a33e 63c2 133d 4d89 ef39 42bb b33c
000000d0: 5cca b9be c81f 41be 9b27 84be 5159 da3e
000000e0: ee69 7e3d caf5 1dbd af7e 8fbe 5738 26be
000000f0: 9a23 ee3d e1aa 86be 235f bcbe 9b23 ea3d
00000100: fb1f 7f3d 537e 7e3d f890 b3be 7593 d63d
00000110: cd41 15bd 0063 da3d fd58 25be f811 34bc
00000120: 5016 2bbe 629a 48be 2d0c 14bc 7897 54bf
00000130: 86e6 0abc 3737 5fbe cc0d aebe 7ef3 9e3e
00000140: 980e 7bbc bb1c 26bd 09ec 6f3c 8520 d43d
00000150: 6e7e 0b3c 970e 6fbd ff56 dfbc b4f1 8bbe
00000160: 1e06 4cbe ab9a 6cbe 49d5 90be 8f20 46be
00000170: 9f57 dfbe be92 0dbe d412 6cbd 05b0 59be
00000180: 4be1 07be 4680 0abf a03a 6dbe 5281 5abe
00000190: f344 3abe e70e 76be 6e94 90be cc40 c13c
000001a0: c326 38bd 3d46 bf3e af84 11bd 070c 7d3e
000001b0: a7f6 26be 9031 05be 611f aa3e e36d d9be
000001c0: 619f 5ebe ba61 3ebe 1c0e c63d a331 10bf
000001d0: 952e 0c3e db3f 9c3d 3cb4 2cbe 5454 f6bd
000001e0: 2e88 a3bc 8249 9fbe 9b43 58bc 3873 cabe
000001f0: e5de e2be 55fd 573e c0f0 b8bd 40b9 1cbe

a2c_network.actor_mlp.4.weight f4 [64, 128]
0.0049274797 0.008904533 0.21192952 0.055864397 -0.23372777 -0.033782452 0.054912575 0.12193082
-0.48577023 -0.100691974 0.13284142 0.2081803 0.05071609 -0.14907461 -0.19774957 -0.035409823
0.13478012 -0.10008352 -0.08575938 -0.49900094 -0.55648583 0.013149683 -0.5169988 0.026576651
-0.38679296 -0.08296969 0.053972643 0.15512294 -0.15744248 0.09658644 -0.16775012 -0.031495318
-0.21848553 -0.14578584 -0.03829805 -0.28636646 -0.10942189 -0.44965717 0.06354797 -0.12326359
-0.0042806873 -0.10296666 0.05236777 0.11837995 0.15432753 -0.07857922 -0.16103806 0.011466658
-0.34600964 -0.032800924 0.044767212 -0.23889855 -0.1706517 -0.11446304 0.0065100165 -0.20842488
-0.17662399 -0.011087202 0.01846972 -0.009115077 -0.26353127 -0.10599431 0.08949478 -0.20352219
-0.018528083 -0.16620553 -0.30330268 -0.029676657 0.14620395 -0.13801959 -0.25125095 0.046616666
-0.033856284 0.050914835 0.22319095 0.20023984 0.031058108 0.09677612 0.18367764 -0.5941544
-0.22005303 0.20903148 0.11067959 -0.14277712 -0.19561009 0.05467857 0.11316989 -0.17663382
0.15401725 -0.1597599 0.101723656 -0.1314945 0.022081016 -0.112072 0.035893995 -0.08865727
-0.14682269 0.11117932 -0.23341706 -0.1721067 0.11265604 0.023816258 -0.1660036 -0.047032125
-0.14920178 -0.8301628 -0.17276774 0.078382336 -0.35066515 -0.084163494 -0.0544301 -0.23243813
0.18308987 -0.06617605 0.21949837 -0.071852714 -0.09539468 -0.2870812 -0.10473107 -0.057604972
-0.5944872 -0.13599402 0.035358377 0.1196373 0.008015813 -0.070363216 -0.12896186 -0.10115613
-0.21502507 -0.17543508 -0.19764873 -0.15893598 0.03820839 -0.14397296 0.17197654 -0.22564387
-0.07863094 0.3302058 -0.03839781 -0.08698342 -0.56016415 -0.36162353 0.2144475 0.072958335
-0.8213647 0.38821718 0.12624668 -0.8529635 -0.013174627 -0.013633456 -0.0017158139 0.020194765
-0.10996185 0.028110111 -0.2261468 0.30279958 0.41196084 -0.005379898 -0.9249876 -0.16446388
0.4288316 -0.03434827 -0.012778806 -0.21760307 -0.26146048 0.08540268 -0.005322341 -0.068027996
-0.7008705 -0.3493538 0.23704056 -0.14774957 0.054464668 0.05287916 -1.1067721 -0.128945
0.02143047 -0.048090607 0.04662234 0.14307342 0.21829593 0.2045694 0.0785358 -0.1497462
-0.55090225 0.1418882 -1.2940464 -0.32626194 0.15058252 0.13114649 0.453413 -0.044259485
0.0938135 -0.70502174 0.16956656 -0.2286105 0.11118483 -0.36303315 0.07257477 0.24038622
-0.6505806 0.23111893 0.010752372 -1.1795492 -0.3063189 -0.35404834 0.4381122 -0.40742847
-0.5322477 -0.05230778 0.1679901 0.2855105 0.045904174 0.0462262 -0.30264923 -0.07798786
-0.12603739 0.39352524 -0.24503997 0.096928954 -0.042804476 0.39775988 0.29378465 0.082234636
-0.02017071 0.3258773 -0.021229839 0.027634632 0.029961511 -0.010813394 0.06968282 -0.15924722
0.10670699 -0.075232975 0.033470996 -0.41948268 0.22217016 0.17704603 -0.3388187 0.19470462
0.24447888 -0.023997914 -0.2007428 -0.00023415752 -0.023574447 -1.0697123 0.20246443 0.3347036
-1.2092632 0.5409514 -0.09840155 -0.77224255 -0.19646037 -0.14901617 0.011454297 0.33217138
00000000: b276 a13b 52e4 113c 0d04 593e 11d2 643d
00000010: 5556 6fbe 785f 0abd 02ec 603d deb6 f93d
00000020: e0b6 f8be 9837 cebd 9507 083e 372d 553e
00000030: adbb 4f3d 04a7 18be dd7e 4abe e409 11bd
00000040: cd03 0a3e 97f8 ccbd 9da2 afbd 0d7d ffbe
00000050: db75 0ebf c571 573c 095a 04bf 47b7 d93c
00000060: ba09 c6be 03ec a9bd 6b12 5d3d 8cd8 1e3e
00000070: 9a38 21be 1dcf c53d b0c6 2bbe 3c01 01bd
00000080: acba 5fbe e248 15be 6bde 1cbd a09e 92be
00000090: 9518 e0bd 7739 e6be 7025 823d 9f71 fcbd
000000a0: 0245 8cbb 2fe0 d2bd 967f 563d 3071 f23d
000000b0: 0908 1e3e 24ee a0bd 29e7 24be a6de 3b3c
000000c0: 2d28 b1be 435a 06bd d35d 373d d2a1 74be
000000d0: 52bf 2ebe 996b eabd fa51 d53b 556d 55be
000000e0: ebdc 34be 18a7 35bc cf4d 973c 6757 15bc
000000f0: 92ed 86be 8b13 d9bd 0a49 b73d 1f68 50be
00000100: 35c8 97bc c831 2abe 7d4a 9bbe 761c f3bc
00000110: 7db6 153e 0255 0dbe f7a3 80be 1ef1 3e3d
00000120: e3ac 0abd 138c 503d 2b8c 643e ac0b 4d3e
00000130: 936d fe3c 8f32 c63d fe15 3c3e 811a 18bf
00000140: 9555 61be 590c 563e fbab e23d 2a34 12be
00000150: 034e 48be a3f6 5f3d 9ec5 e73d 7fdf 34be
00000160: b3b6 1d3e 1998 23be 7e54 d03d 7fa6 06be
00000170: 3fe3 b43c 0186 e5bd 9505 133d f191 b5bd
00000180: b058 16be fcb1 e33d e204 6fbe bd3c 30be
00000190: 36b8 e63d 501a c33c d9fc 29be c2a4 40bd
000001a0: 5ac8 18be 8d85 54bf 07ea 30be eb86 a03d
000001b0: 628a b3be e95d acbd 19f2 5ebd 4304 6ebe
000001c0: e97b 3b3e 4f87 87bd 2ec4 603e 8427 93bd
000001d0: 495e c3bd 4ffc 92be 3e7d d6bd 31f3 6bbd
000001e0: 5030 18bf 0442 0bbe f2d3 103d 6704 f53d
000001f0: c254 033c 971a 90bd 940e 04be f22a cfbd
00000200: 882f 5cbe 41a5 33be 6e64 4abe 1dc0 22be
00000210: 6780 1c3d a66d 13be 9e1a 303e 300f 67be
00000220: 4209 a1bd bc10 a93e 0647 1dbd 5d24 b2bd
00000230: eb66 0fbf b826 b9be 2098 5b3e 2e6b 953d
00000240: f544 52bf 67c4 c63e cf46 013e d15b 5abf
00000250: 64da 57bc dc5e 5fbc 29e5 e0ba 7e6f a53c
00000260: ae33 e1bd 2d47 e63c 0793 67be 8c08 9b3e
00000270: 88ec d23e db49 b0bb fdcb 6cbf 3869 28be
00000280: d18f db3e c6b0 0cbd 325e 51bc 57d3 5ebe
00000290: 26de 85be 9ae7 ae3d 0867 aebb 4352 8bbd
000002a0: 406c 33bf 80de b2be c3ba 723e aa4b 17be
000002b0: 5816 5f3d d197 583d b5aa 8dbf 280a 04be
000002c0: f48e af3c a8fa 44bd 11f7 3e3d d781 123e
000002d0: f888 5f3e a47a 513e 61d7 a03d 1157 19be
000002e0: ee07 0dbf 244b 113e 50a3 a5bf ce0b a7be
000002f0: 4e32 1a3e 444b 063e c025 e83e 6f49 35bd
00000300: 4b21 c03d 4e7c 34bf dba2 2d3e df18 6abe
00000310: dfb4 e33d 7bdf b9be 15a2 943d ce27 763e
00000320: 738c 26bf 71aa 6c3e b82a 303c 78fb 96bf
00000330: d5d5 9cbe d345 b5be 3e50 e03e 779a d0be
00000340: 6341 08bf af40 56bd 9905 2c3e 6f2e 923e
00000350: 0406 3c3d af57 3d3d d7f4 9abe 19b8 9fbd
00000360: f20f 01be 247c c93e c2eb 7abe b082 c63d
00000370: bf53 2fbd 2fa7 cb3e f16a 963e a26a a83d
00000380: 0b3d a5bc 64d9 a63e 33ea adbc 0662 e23c
00000390: d871 f53c a92a 31bc deb5 8e3d b411 23be
000003a0: 3289 da3d bf13 9abd e218 093d 6fc6 d6be
000003b0: 9380 633e 8e4b 353e a579 adbe a660 473e
000003c0: ac58 7a3e 4697 c4bc 858f 4dbe 2e88 75b9
000003d0: 331f c1bc 55ec 88bf d652 4f3e 455e ab3e
000003e0: 23c9 9abf ca7b 0a3f c086 c9bd b0b1 45bf
000003f0: e82c 49be b297 18be ceaa 3b3c 5e12 aa3e

a2c_network.actor_mlp.4.bias f4 [64]
-0.67410964 0.18886091 -0.0686132 -0.12504582 0.16065292 -0.12897569 -0.36663955 0.053092238
-0.03578946 -0.29731858 -0.6394457 -0.07335432 0.11545948 0.12874985 0.120094344 0.06393384
-0.23131758 0.017198373 -0.039656233 -0.017579876 -0.0199029 0.12042792 -0.3313593 0.05963351
0.0034123727 -0.21460757 0.059647907 0.070946015 -0.11801315 0.14721991 -0.09436906 0.02939487
-0.11579786 -0.12424278 0.4095341 -0.0013344776 -0.17096204 -0.14260122 0.15552823 0.22836259
0.29059777 -0.3524375 -0.021101357 -0.021194695 -0.8035069 -0.13515733 0.06977958 0.44379622
-0.053693704 -0.10979003 0.025788492 -0.010741885 -0.1639549 -0.16024417 0.46380353 0.11405738
0.055425446 0.0007402351 0.06625578 0.06301194 0.01659657 0.10328884 -0.05955769 0.03969964
00000000: 7392 2cbf c164 413e 1485 8cbd 030c 00be
00000010: 3382 243e 3412 04be 2eb8 bbbe 3f77 593d
00000020: f897 12bd 243a 98be b7b2 23bf ca3a 96bd
00000030: 0576 ec3d 00d7 033e 06f4 f53d bfef 823d
00000040: 84de 6cbe 9ae3 8c3c 936e 22bd ac03 90bc
00000050: 680b a3bc eaa2 f63d eda7 a9be 4442 743d
00000060: 1da2 5f3b 16c2 5bbe 5d51 743d 254c 913d
00000070: e1b0 f1bd d1c0 163e 9144 c1bd 83cd f03c
00000080: 6e27 edbd 0073 febd 74ae d13e a3e9 aeba
00000090: ac10 2fbe 0e06 12be cb42 1f3e e2d7 693e
000000a0: 3bc9 943e b072 b4be c1dc acbc 7fa0 adbc
000000b0: a1b2 4dbf af66 0abe 99e8 8e3d 4239 e33e
000000c0: eeed 5bbd 98d9 e0bd 6342 d33c bbfe 2fbc
000000d0: cbe3 27be 0c17 24be a877 ed3e ea96 e93d
000000e0: cb05 633d 560c 423a 1cb1 873d 670c 813d
000000f0: 88f5 873c 1989 d33d c4f2 73bd 179c 223d

a2c_network.value.weight f4 [1, 64]
-1.040594 1.6361358 -0.26757792 -0.34703657 0.33180046 -0.3816308 -0.16252604 0.37427592
-0.28773317 -0.104658954 -0.51277274 -0.49310905 0.35798067 0.18121183 0.42385077 -0.57090837
-0.4070788 -0.27533484 -0.33417222 -0.22009617 -0.08388132 0.21266797 -0.27097756 -0.4870806
-0.201731 -0.45501694 -0.26244757 -0.2566637 0.34072554 0.21383968 -0.15905017 -0.2950025
-0.3994393 0.3149657 1.0623237 0.50306 -0.41433382 -0.23956229 0.2989919 0.36355934
0.23071691 -0.284647 0.47551733 -0.50821835 -0.93125373 -0.23538679 -0.31290466 0.34623614
0.041001026 -0.11741236 0.31735495 0.19567607 -0.28955606 -0.5897728 0.9839553 0.3955615
0.5230314 -0.029104875 1.1071088 1.509377 0.09179007 -0.4563984 -0.07561963 -0.51018316
00000000: 2f32 85bf e66c d13f f9ff 88be c7ae b1be
00000010: c0e1 a93e 1d65 c3be 3a6d 26be 18a1 bf3e
00000020: c351 93be 6f57 d6bd 1345 03bf ca78 fcbe
00000030: 3e49 b73e 988f 393e f802 d93e 0d27 12bf
00000040: a26c d0be b0f8 8cbe 9f18 abbe e460 61be
00000050: f8c9 abbd a2c5 593e 92bd 8abe a162 f9be
00000060: 9292 4ebe fbf7 e8be 875f 86be 6d69 83be
00000070: 9473 ae3e caf8 5a3e 0cde 22be 910a 97be
00000080: 4f83 ccbe 2f43 a13e 39fa 873f 8ac8 003f
00000090: 9023 d4be d14f 75be 7715 993e 7324 ba3e
000000a0: 0e41 6c3e 40bd 91be 0277 f33e 991a 02bf
000000b0: a566 6ebf 3c09 71be 0a35 a0be dd45 b13e
000000c0: b1f0 273d e475 f0bd 597c a23e 4f5f 483e
000000d0: b140 94be 5afb 16bf 7fe4 7b3f 0987 ca3e
000000e0: 63e5 053f 596d eebc beb5 8d3f 4433 c13f
000000f0: 6ffc bb3d 0dad e9be 77de 9abd 5d9b 02bf

a2c_network.mu.weight f4 [4, 64]
-0.031264503 -0.05197902 -0.0023601074 0.062559724 -0.037707683 -0.058881376 0.04038647 0.026243174
0.06381549 -0.081691206 0.021560805 0.006967128 0.008614652 -0.03975408 0.010175362 -0.011831482
0.012295752 0.003211803 0.018584983 -0.050087485 0.31297392 0.012517597 -0.030859118 0.051195286
0.0154754035 0.047039792 -0.06551345 0.03302043 0.02058037 -0.0017230288 0.039098814 0.022650963
-0.0112964185 0.20411327 0.018991232 -0.05481188 0.10521321 -0.13197133 0.018176561 -0.00480419
0.052284364 0.00072683906 -0.0026774828 0.007406044 -0.08755207 -0.051111627 -0.009662765 -0.011803104
-0.09917534 -0.003052461 0.00016291156 -0.02029283 -0.027578363 0.053317066 -0.14909838 -0.002049322
0.009535872 -0.09711775 0.120678775 -0.0073441993 0.016201077 -0.013494307 -0.14544708 0.005062797
-0.0056023095 -0.123554856 0.051276628 -0.11390308 -0.029452566 0.037222106 0.0069072666 -0.0023974075
0.037161775 0.14220539 -0.055546634 -0.020032052 -0.015879132 -0.029255101 0.012600218 0.0646271
-0.07182445 0.026837658 -0.10090965 -0.027275389 -0.055277638 -0.027249234 -0.011938713 -0.07593209
-0.037318747 0.014497724 0.12944973 -0.093049295 -0.036805432 -0.008467343 -0.00616187 -0.02368377
0.08698735 0.04664646 -0.0089909 0.008572278 -0.098125175 0.08239584 0.012134977 -0.0064900774
-0.081332505 0.08170909 -0.05030504 0.002933286 0.025005376 0.015951369 0.046731435 0.0071668457
0.19816093 -0.049503252 0.051250897 -0.03202593 0.004015057 0.037651118 0.017483337 0.017846959
-0.034731235 -0.47330138 -0.14604446 0.005786401 0.0117150275 0.04670602 0.13106957 -0.06418819
0.032314092 -0.09629117 0.030369405 -0.030370291 0.015113114 -0.016928611 0.008286433 -0.008834991
0.01846711 0.048561137 0.012000812 0.100045614 -0.029149305 -0.0063992157 -0.01776302 -0.0018491115
0.016230656 0.0033147042 -0.0011146131 -0.058175772 0.030463612 -0.0009519739 -0.012711905 -0.042311948
-0.11742826 -0.008219968 0.10896094 -0.037751477 -0.04755463 0.0027087012 -0.020169875 0.0046999417
-0.08552614 0.08849055 0.027039476 -0.027769018 -0.03970964 -0.012634263 0.0130210705 0.0066752676
-0.013293586 0.030919079 0.035178285 0.017504493 -0.0006707525 0.06196899 0.0037589998 0.0030250424
0.013513792 0.046198826 0.011603361 0.02057556 0.04210057 0.0764173 -0.03440372 -0.020017104
-0.07343086 -0.017774658 -0.08537212 0.05304933 -0.019772014 0.00922369 0.039076686 -0.0026766362
-0.022806378 -0.024886046 0.005959622 0.049826358 0.0015724908 -0.07304075 0.007713124 0.012307694
0.013160544 0.10749385 -0.0225416 -0.022482457 0.004904534 0.027396753 -0.03397938 0.08250263
-0.0529796 -0.018565703 -0.005727547 0.02019358 0.057012774 0.029621888 0.041354544 0.04615124
0.0061690114 -0.004109067 0.024131283 0.015119082 0.033797186 0.01242442 0.06326386 -0.035550945
0.027227858 0.018365875 -0.03006208 -0.021797096 -0.12850635 -0.052692708 -7.258263e-05 -0.049032204
-0.0023024366 -0.041572243 -0.019577188 -0.0016350521 -0.023970809 0.06642137 0.025190342 0.0848693
0.02925051 0.021575883 0.0033347923 0.011190203 0.042188484 0.020198517 -9.8506935e-05 0.0086874
0.049517874 0.004150354 0.057468105 -0.014066958 -0.017316114 0.020859886 -0.062142495 -0.027061379
00000000: 350f 00bd f4e7 54bd 08ac 1abb 501f 803d
00000010: 5f73 1abd 992d 71bd 486c 253d edfb d63c
00000020: b2b1 823d b84d a7bd 49a0 b03c 814c e43b
00000030: 7824 0d3c 2dd5 22bd 90b6 263c d5d8 41bc
00000040: 1f74 493c 1d7d 523b 893f 983c 8928 4dbd
00000050: 1e3e a03e 9b16 4d3c 43cc fcbc 26b2 513d
00000060: 8c8c 7d3c ccac 403d ea2b 86bd 6e40 073d
00000070: 2a98 a83c 41d7 e1ba 1426 203d 838e b93c
00000080: 9d14 39bc 1203 513e 8093 9b3c 6c82 60bd
00000090: 067a d73d 7e23 07be 03e7 943c 776c 9dbb
000000a0: 2128 563d 5889 3e3a b578 2fbb 66ae f23b
000000b0: 804e b3bd 6d5a 51bd 9350 1ebc ce61 41bc
000000c0: 711c cbbd cc0b 48bb 3dd3 2a39 263d a6bc
000000d0: 05ec e1bc ff62 5a3d 3fad 18be eb4d 06bb
000000e0: 593c 1c3c ace5 c6bd 6f26 f73d 9ca7 f0bb
000000f0: 1fb8 843c 3a17 5dbc 14f0 14be d2e5 a53b
00000100: 9493 b7bb 540a fdbd 7107 523d 0546 e9bd
00000110: 8246 f1bc 3576 183d 5a56 e23b d31d 1dbb
00000120: f236 183d 4a9e 113e de84 63bd 421a a4bc
00000130: f414 82bc 65a8 efbc 2571 4e3c 375b 843d
00000140: b218 93bd a6da db3c b8a9 cebd a370 dfbc
00000150: ce6a 62bd c939 dfbc 979a 43bc 4982 9bbd
00000160: 8bdb 18bd dd87 6d3c 788e 043e a190 bebd
00000170: 4bc1 16bd 9cba 0abc 83e9 c9bb 7704 c2bc
00000180: 6c26 b23d 5c10 3f3d 914e 13bc bd72 0c3c
00000190: daf5 c8bd 26bf a83d c8d1 463c b7aa d4bb
000001a0: a891 a6bd 1857 a73d a80c 4ebd 5f3c 403b
000001b0: 13d8 cc3c 72ac 823c 7669 3f3d dcd7 ea3b
000001c0: b3ea 4a3e ecc3 4abd 76ec 513d 9f2d 03bd
000001d0: bd90 833b 0f38 1a3d 3739 8f3c c933 923c
000001e0: 5742 0ebd 8f54 f2be ae8c 15be da9b bd3b
000001f0: 63f0 3f3c d04e 3f3d 1a37 063e 1975 83bd
00000200: c85b 043d 4e34 c5bd 42c9 f83c 1ecb f8bc
00000210: ff9c 773c dfad 8abc d2c3 073c a3c0 10bc
00000220: 5648 973c 0be8 463d 0e9f 443c b7e4 cc3d
00000230: 86ca eebc 83b0 d1bb c183 91bc e35d f2ba
00000240: 27f6 843c 823b 593b 3618 92ba b849 6ebd
00000250: d38e f93c e38d 79ba 9845 50bc 4b4f 2dbd
00000260: 3a7e f0bd 0bad 06bc ea26 df3d 4ba1 1abd
00000270: a5c8 42bd 7784 313b 4b3b a5bc f801 9a3b
00000280: 5428 afbd 893a b53d e481 dd3c da7b e3bc
00000290: 93a6 22bd f1ff 4ebc 5456 553c 34bc da3b
000002a0: 57cd 59bc 024a fd3c 1b17 103d 9565 8f3c
000002b0: 70d5 2fba 32d3 7d3d 8d59 763b ca3f 463b
000002c0: f468 5d3c fb3a 3d3d 061c 3e3c 148e a83c
000002d0: a671 2c3d ac80 9c3d eaea 0cbd e9fa a3bc
000002e0: eb62 96bd 299c 91bc 94d7 aebd 414a 593d
000002f0: ebf8 a1bc f61e 173c e00e 203d 816a 2fbb
00000300: 71d4 babc d2dd cbbc ef48 c33b b916 4c3d
00000310: 091c ce3a 6496 95bd 60be fc3b 36a6 493c
00000320: 539f 573c bc25 dc3d 29a9 b8bc 212d b8bc
00000330: 37b6 a03b 286f e03c f62d 0bbd 24f7 a83d
00000340: 2301 59bd 1a17 98bc 26ae bbbb 026d a53c
00000350: 3a86 693d 9aa9 f23c 6263 293d 1509 3d3d
00000360: 6b25 ca3b 5aa5 86bb f8ae c53c 07b6 773c
00000370: eb6e 0a3d cb8f 4b3c 7c90 813d de9d 11bd
00000380: f50c df3c 0874 963c c044 f6bc d38f b2bc
00000390: 2b97 03be 4fd4 57bd 8137 98b8 fed5 48bd
000003a0: 7ae4 16bb a847 2abd 5760 a0bc 3f4f d6ba
000003b0: 6e5e c4bc ed07 883d fa5b ce3c f5cf ad3d
000003c0: c49e ef3c e8bf b03c 888c 5a3b 1d57 373c
000003d0: d5cd 2c3d 5c77 a53c 8295 ceb8 9955 0e3c
000003e0: 41d3 4a3d b1ff 873b ad63 6b3d 1979 66bc
000003f0: 86da 8dbc 5ae2 aa3c 2189 7ebd d3af ddbc

a2c_network.mu.bias f4 [4]
-0.024831457 0.04696338 -0.014391908 0.0011601441
00000000: 576b cbbc ac5c 403d 0acc 6bbc fa0f 983a

exp_avg f4 [4]
4.3417167e-05 9.8241166e-05 0.00018561055 -2.9140725e-05
00000000: d41a 3638 d306 ce38 74a0 4239 3b73 f4b7

exp_avg_sq f4 [4]
1.3797215e-07 1.3080319e-07 1.3245725e-07 1.6407797e-07
00000000: 7f25 1434 e872 0c34 9239 0e34 692d 3034

exp_avg f4 [256, 12]
-5.4753975e-05 -1.807912e-05 0.001171921 -0.0008063778 -0.00014410271 -2.5818626e-05 7.4579e-05 0.0011927532
-1.7530424e-06 -5.4386903e-05 -0.00016404079 0.0005513196 3.758719e-05 -2.3056877e-05 -0.0004245515 0.00036201612
3.9411152e-05 1.2300773e-05 -0.00016822701 -0.00042108592 1.0223796e-05 -5.597606e-05 0.00010604688 -0.0005438161
-2.980405e-05 7.161519e-05 0.0008888561 -0.00015737586 -3.9439037e-05 -9.108144e-05 4.6282254e-05 0.0004803603
7.402934e-05 -3.4343124e-05 -0.0002980576 2.099746e-05 4.9438495e-05 3.6242523e-05 -0.00048044158 0.0006523897
0.00010983496 -2.6393773e-05 -0.00018148504 -0.0008675454 2.4157009e-05 -8.476407e-05 0.0001279583 -0.0022092895
-0.00021025205 0.00015367349 0.0022656408 -0.0016735935 -0.0003099456 -0.00017727002 -0.0003590906 0.0023197553
-8.8896966e-05 -0.00013168243 -0.00036803304 0.00023531586 -0.00026085394 0.00020382789 0.00355565 -0.0024999399
-0.0005053609 -0.00026819351 -0.00056998775 0.004158728 -7.700581e-05 -0.00016257247 -0.00082033826 0.00025440834
4.3833174e-05 -2.8305154e-05 -0.00060191075 0.00045902614 4.2150918e-05 2.0044356e-05 -4.7106794e-05 -0.00045206188
4.6036197e-07 2.0497911e-05 0.00016522675 -0.0005120692 -0.00032148146 0.0002925507 0.0048192744 -0.0035964965
-0.00061036274 -0.0003453463 -0.00045824383 0.0053753154 -8.298767e-05 -0.00021985859 -0.0008683155 0.00020576498
0.000215255 7.843314e-05 -0.0022860044 0.0015906324 0.00043487005 4.3482556e-05 0.0006810899 -0.0025461745
0.00012777418 0.00015374928 0.000600486 0.0005210363 -6.378997e-05 9.524828e-05 0.00065591576 -0.00096487044
-0.00010164887 -8.2450446e-05 -0.00050719816 0.0012275004 -6.2914776e-05 -9.228996e-05 -0.0001110742 -0.0009771057
0.00019570749 1.7738825e-05 -0.0026564044 0.0021736983 0.00045386853 5.688825e-05 0.00023550633 -0.0034683552
0.000120183926 2.0988171e-05 0.00026917845 -0.0017544746 -8.749328e-05 0.00019545686 0.001367372 -0.0009319908
-0.00013434494 -0.00019236862 3.9210267e-05 0.0016155159 9.99937e-06 -2.5630583e-05 -0.00022697439 0.00035183592
2.2356015e-05 -4.5064262e-05 0.00017261047 -0.00032452098 -2.8767645e-05 6.079138e-06 -0.0001547176 0.0005082401
1.037167e-05 -2.3365623e-05 -0.00018000208 0.0002570739 -0.00026743082 9.5232775e-05 0.0026780863 -0.0018837395
-0.00043620422 -0.00015524778 -0.0002611166 0.0028569526 -0.00015427555 -8.5177526e-05 -0.0001841895 0.00033472016
-8.1083715e-05 2.8590126e-05 0.0025375294 -0.0018428308 -0.00025988894 -0.00010118931 0.00023791178 0.0027564308
2.7122498e-05 -2.0456431e-05 -0.00046105956 0.00097269466 -0.00016940765 0.00022642767 0.0037861702 -0.002823614
-0.0004096146 -0.0002638801 -0.00023115538 0.0046248883 4.0522908e-05 -8.469993e-05 -0.0010454745 0.001734662
0.00035497214 -0.00017793315 -0.0076334244 0.0060752537 0.00093148137 0.00036376822 0.00059338415 -0.009211826
1.8890183e-05 0.00023397064 0.0018135654 -0.0011516906 -6.0800412e-05 -0.00010773402 0.0007317288 -0.0007864347
-0.0001774916 6.3132415e-05 7.7999444e-05 0.0013361672 -7.611856e-05 6.872413e-05 -3.8689646e-05 0.0010420806
-3.861902e-05 8.758014e-05 0.00042245624 -0.000462917 -7.670551e-05 -6.859826e-05 6.377214e-05 0.0009125594
-2.8304197e-05 1.663155e-05 -0.00014763647 -0.0001424703 -0.000223397 1.8740633e-05 0.002340008 -0.0021036658
-0.00037745637 -8.529283e-05 -0.00052813115 0.0027857143 -0.00016048725 -0.00015141437 -0.0002486748 0.00014971329
6.923794e-05 9.000683e-05 -0.0014342639 0.0012534667 0.00022172992 -3.6842874e-05 -0.00012291121 -0.0018953092
3.266835e-05 -4.0854185e-05 0.00028028584 -0.0016192369 5.9939895e-05 -1.1282301e-05 0.0011580813 -0.0011462392
00000000: a2a7 65b8 9da8 97b7 259b 993a 1963 53ba
00000010: 471a 17b9 1495 d8b7 4c67 9c38 2856 9c3a
00000020: 144a ebb5 7e1d 64b8 5d02 2cb9 6f86 103a
00000030: f0a6 1d38 446a c1b7 5696 deb9 fbcc bd39
00000040: 674d 2538 6b5f 4e37 1866 30b9 32c5 dcb9
00000050: df86 2b37 d6c7 6ab8 7c65 de38 e18e 0eba
00000060: b603 fab7 1d30 9638 2002 693a 4305 25b9
00000070: 586b 25b8 fa02 bfb8 311f 4238 ded8 fb39
00000080: 3340 9b38 a60b 10b8 9d44 9cb9 b423 b037
00000090: 2e5c 4f38 1d03 1838 c7e3 fbb9 2205 2b3a
000000a0: 3257 e638 3268 ddb7 054d 3eb9 fc6b 63ba
000000b0: c8a4 ca37 5dc3 b1b8 8b2c 0639 bac9 10bb
000000c0: 1b77 5cb9 6a23 2139 257b 143b 7b5c dbba
000000d0: 3280 a2b9 8fe1 39b9 5344 bcb9 0907 183b
000000e0: 326e bab8 3c14 0ab9 8ff4 c0b9 1fbf 7639
000000f0: 39c3 88b9 a2ba 5539 e805 693b 08d6 23bb
00000100: 327a 04ba 539c 8cb9 3b6b 15ba f045 883b
00000110: 2e7e a1b8 3778 2ab9 f80b 57ba 1c62 8539
00000120: 83d9 3738 db70 edb7 8cc9 1dba 72a9 f039
00000130: 34cb 3038 ed24 a837 8994 45b8 b802 edb9
00000140: ab27 f734 eef2 ab37 b840 2d39 623c 06ba
00000150: 838c a8b9 7e61 9939 01eb 9d3b 33b3 6bbb
00000160: c000 20ba 990f b5b9 7240 f0b9 6a23 b03b
00000170: ab09 aeb8 d789 66b9 ab9f 63ba 9ec2 5739
00000180: 13b6 6139 797c a438 cad0 15bb c47c d03a
00000190: 45ff e339 0a61 3638 2b8b 323a b8dd 26bb
000001a0: 1ffb 0539 c237 2139 ef69 1d3a 2796 083a
000001b0: fbc6 85b8 08c0 c738 c3f1 2b3a 5cef 7cba
000001c0: 522c d5b8 3fe9 acb8 7ef5 04ba 14e4 a03a
000001d0: 1df1 83b8 cc8b c1b8 82f0 e8b8 3a12 80ba
000001e0: d436 4d39 d6cd 9437 1217 2ebb 9b74 0e3b
000001f0: 34f5 ed39 4b9b 6e38 40f2 7639 584d 63bb
00000200: 410b fc38 c10f b037 8520 8d39 66f6 e5ba
00000210: 997c b7b8 8df3 4c39 6439 b33a d850 74ba
00000220: f2de 0cb9 8fb6 49b9 b475 2438 b8bf d33a
00000230: f8c2 2737 4201 d7b7 f9ff 6db9 9e76 b839
00000240: 2d89 bb37 6203 3db8 c5fe 3439 7824 aab9
00000250: 0c52 f1b7 66fb cb36 b13b 22b9 6a3b 053a
00000260: fc01 2e37 4b01 c4b7 f1be 3cb9 e0c7 8639
00000270: f535 8cb9 b5b7 c738 d582 2f3b cfe7 f6ba
00000280: 57b2 e4b9 02ca 22b9 7ae6 88b9 b63b 3b3b
00000290: 07c5 21b9 56a1 b2b8 fe22 41b9 617d af39
000002a0: 7d0b aab8 d4d4 ef37 ae4c 263b 248b f1ba
000002b0: b441 88b9 9935 d4b8 f577 7939 3ca5 343b
000002c0: 1f85 e337 da99 abb7 5eba f1b9 6ffc 7e3a
000002d0: 05a3 31b9 376d 6d39 6521 783b 620c 39bb
000002e0: 8ac1 d6b9 6359 8ab9 4d62 72b9 608c 973b
000002f0: 24f7 2938 eea0 b1b8 4e08 89ba 995d e33a
00000300: 8e1b ba39 9193 3ab9 ce21 fabb ec12 c73b
00000310: a82e 743a 25b8 be39 568d 1b3a 33ed 16bc
00000320: 5c76 9e37 0456 7539 28b5 ed3a 53f4 96ba
00000330: f203 7fb8 43ef e1b8 7dd1 3f3a bd28 4eba
00000340: 0a1d 3ab9 f565 8438 a293 a338 5522 af3a
00000350: d7a1 9fb8 fd1f 9038 b146 22b8 6c96 883a
00000360: dbfa 21b8 3bab b738 1e7d dd39 abb3 f2b9
00000370: f5dc a0b8 69dc 8fb8 68bd 8538 d338 6f3a
00000380: cd6e edb7 fb83 8b37 ddce 1ab9 1464 15b9
00000390: ad3f 6ab9 3435 9d37 d25a 193b a8dd 09bb
000003a0: 56e5 c5b9 3ddf b2b8 4872 0aba 8890 363b
000003b0: 7848 28b9 fcc4 1eb9 9160 82b9 5bfc 1c39
000003c0: d633 9138 0dc2 bc38 e9fd bbba 5d4b a43a
000003d0: 2c80 6839 bc87 1ab8 bae1 00b9 066c f8ba
000003e0: 6005 0938 d95a 2bb8 54f3 9239 933c d4ba
000003f0: f967 7b38 1d49 3db7 c3ca 973a 683d 96ba
