logs/rl_games/klask/sim_collision_ro_a5_2/nn/klask.pth (torch, 81818 bytes, 24 tensors)

a2c_network.sigma f4 [4]
000000 a0 4a 2b c0 39 54 2d c0 7b 96 b5 be 8c cc 8f bd
       -2.6764297 -2.7082655 -0.3546637 -0.07021436

a2c_network.actor_mlp.0.weight f4 [64, 22]
000000 f5 12 0d be d9 3c 8b 3f c6 9d a1 be 99 f4 07 be
       -0.13776763 1.0877944 -0.31565684 -0.132769
000010 83 45 f6 bd 99 75 bf bc da c8 d4 3c 1a 62 ca bb
       -0.12024977 -0.023371505 0.02597468 -0.0061762454
000020 0b b1 d2 3e bb 2b 5d be da 25 01 3d be e7 6a be
       0.41150698 -0.21598713 0.03153024 -0.22939965
000030 60 a7 5d bd 32 13 18 3d cc cf 3f bd 9a 61 de 3c
       -0.0541147 0.03712768 -0.04682903 0.02714615
000040 25 0f c7 3d 2d 2a a6 bd 0d ca 3a 3c c1 3b a3 bd
       0.097196855 -0.08113513 0.011400712 -0.079703815
000050 dd 6f 3c 3c e3 98 0c 3e 67 5d 0f 3f fa fc 8d be
       0.01150128 0.13730197 0.56001896 -0.27732068
000060 f7 33 32 3e b8 ca 9c 3d 36 17 fd 3d bc 90 40 be
       0.17402636 0.07655853 0.12357943 -0.18805212
000070 39 b2 aa bd 1b 06 f1 bc ca 8c 1f bf 1f 8c 2e 3f
       -0.083347745 -0.029421857 -0.623242 0.6818256
000080 b6 90 57 be a7 3e a7 3d ec b6 36 3d ff d6 b9 bc
       -0.21051297 0.08166247 0.04460804 -0.022685526
000090 08 38 ca 3c c4 51 13 be c8 94 62 bd 5c a0 58 be
       0.02468492 -0.1438666 -0.05531767 -0.21154922
0000a0 ea 07 31 ba 21 44 b8 bd bc 4f 96 bd 48 9b 7e bd
       -0.00067531934 -0.089973696 -0.07339427 -0.062159806
0000b0 79 ae 1b 3f e6 cb 39 3e a3 be 07 3d 1f 64 39 3d
       0.608131 0.18144187 0.03314079 0.0452615
0000c0 88 50 21 3e d8 15 5d 3d d4 46 85 3d b8 b8 ea bd
       0.15753376 0.05397591 0.0650765 -0.114610136
0000d0 63 39 34 3d 71 0c 4c bf 40 e9 24 be e4 f0 c3 3d
       0.04400004 -0.79706484 -0.16104603 0.095674306
0000e0 bf b8 47 3d 3f de b6 3d ca 71 81 bd cf a4 c7 3b
       0.048760172 0.08929109 -0.06320532 0.0060926448
0000f0 41 aa e4 3d 43 6a f7 bd e6 ab b3 bd ce 9c 01 be
       0.11165286 -0.12080815 -0.087730214 -0.12657472
000100 bc 04 03 bd 51 80 1a be 51 bf 30 bf 15 e1 5b bd
       -0.031986937 -0.15088011 -0.69041926 -0.05368145
000110 d8 04 04 bd f6 af 81 bd f5 00 c4 3d 61 69 43 3e
       -0.03223118 -0.0633239 0.09570495 0.19083168
000120 ee 2c c0 3a f6 35 8d bc f3 f0 ad 3f 69 29 07 bf
       0.0014661828 -0.017237645 1.3589157 -0.5279756
000130 e8 6f 8a 3e 23 5e 9f bf 9b 2b 15 3d cd a1 0a 3e
       0.27038503 -1.2450603 0.03641854 0.13538285
000140 97 92 be 3d ba f8 f1 3c 92 bd bc 3d 52 a1 4d bd
       0.093053035 0.029537547 0.09215845 -0.050202675
000150 ac f1 85 bd 52 35 48 bd c9 be c9 bd f8 61 19 bd
       -0.06540236 -0.048878975 -0.098508425 -0.037446946
000160 1c 4a d3 3e 73 25 81 3f 3d 0a 8a 3e 79 f7 c2 bd
       0.41267478 1.0089554 0.26960936 -0.09519858
000170 9a d8 12 be cd ec c3 bd bb 1a e5 3c cc b9 aa bb
       -0.1434044 -0.095666505 0.027966848 -0.005210137
000180 cb a2 ea be 62 80 09 bf 1f 0c 8e 3e 3a 56 06 bf
       -0.45827326 -0.5371152 0.27743623 -0.5247532
000190 d9 31 36 3e ee 83 a3 3c a3 a6 56 3d f1 be 17 3e
       0.17792453 0.01996037 0.05240501 0.14818932
0001a0 97 a9 52 be 19 c6 16 be 3b 09 0c 3e ad 1a 94 bd
       -0.20572506 -0.14724006 0.13675396 -0.072316505
0001b0 50 c2 48 3e 80 89 1e 3e 21 83 34 bf d3 59 5d 3e
       0.19605374 0.1548214 -0.70512587 0.21616296
0001c0 2e 68 14 bd 91 42 f8 3c aa e4 08 bd d2 5b 88 be
       -0.036232166 0.030305179 -0.033421196 -0.26632553
0001d0 67 6e eb bb a2 d9 13 bd dd a0 76 3f 6c 9b b5 bf
       -0.007184792 -0.036096223 0.9633921 -1.4188056
0001e0 e7 1a 56 3e 27 f5 9e 3e ec 84 c5 bd db 16 4b bd
       0.209087 0.3104641 -0.096444935 -0.049582344
0001f0 c5 0d 30 3d 35 64 47 3d ee 10 1e 3e a4 9b 99 be
       0.04298188 0.04867955 0.15436146 -0.30001557
000200 80 90 5e be b6 20 64 be 9a 9d 9e be 69 ef 01 bf
       -0.2173481 -0.22278103 -0.30979615 -0.50755936
000210 bf b2 a5 be 83 22 b1 bc 22 d6 a2 3e 0d 68 b6 3d
       -0.32362935 -0.021622902 0.31803995 0.08906565
000220 ea 6b 05 3e 0f c9 84 be e4 70 91 3c 26 94 23 3d
       0.13029447 -0.25934646 0.017754026 0.039936207
000230 f8 fd 56 3f 2a 02 bf bf 69 71 b7 3e 8a fa 87 3e
       0.83981276 -1.4922535 0.35828713 0.26558334
000240 d5 74 4b 39 92 94 37 3d be 04 9a 3d 6a f6 3d 3d
       0.00019403112 0.044819422 0.07520436 0.046377577
000250 7a f0 1b be 7b 71 66 be 56 f1 63 be 13 db 9a be
       -0.15228453 -0.22504227 -0.22260031 -0.30245265
000260 5c 2d 9a be bd 4e 0e bf a4 90 a4 bf 71 09 95 bd
       -0.3011273 -0.55588895 -1.2856641 -0.072771914
000270 56 28 dd bd b8 51 f2 bd dd 62 15 3e e9 55 66 bc
       -0.10798709 -0.11831993 0.14588495 -0.0140585685
000280 30 c4 b0 3b 25 fd 2c bd a8 a2 9a 3f 74 5a 44 3e
       0.005394481 -0.042233605 1.2080889 0.1917513
000290 03 05 44 3e f7 24 51 bb b8 00 5d bd 78 05 b7 3d
       0.19142537 -0.0031912902 -0.053955764 0.0893659
0002a0 e1 8c 3c bd 86 f6 62 3c 1d af 26 3e e3 7d da 3b
       -0.04603279 0.013852721 0.16277738 0.006667839
0002b0 ab fb 5a bd 8b 81 f3 bd 41 9a 03 3d 3c eb 30 bd
       -0.053462666 -0.11889943 0.03212953 -0.043193087
0002c0 4a 2a 86 3d e3 18 9e 3e 59 e2 c9 bc b5 f5 26 3e
       0.06551035 0.30878362 -0.024644064 0.16304667
0002d0 8a 67 0e 3e 92 57 be bd 99 2b b6 bc 36 8e af bc
       0.13906685 -0.092940465 -0.022237586 -0.021430116
0002e0 bf 9b a7 be f8 ac d4 bf 8a 07 5f bd 76 1e c2 3e
       -0.32736012 -1.6615286 -0.05445055 0.37913865
0002f0 a3 57 b6 3b 49 60 56 3c 49 41 cb bd 84 24 a1 bd
       0.0055646463 0.01308448 -0.099245615 -0.07868293
000300 93 2c 87 3b 55 28 b2 bd 50 fb 1d be 6f db 22 be
       0.0041251867 -0.08699099 -0.154279 -0.1590402
000310 f7 90 2f be 0f 8d c6 be 67 b1 49 3f 7c 4b 12 3f
       -0.17145143 -0.38779494 0.7878632 0.5714643
000320 1d ac bd bc 32 29 21 3d e7 11 dc bd c1 92 da 3d
       -0.02315336 0.039345928 -0.10745602 0.10672522
000330 93 13 69 3b 4c 0d 78 3c 9f b2 a4 bf b4 73 a9 bf
       0.0035564646 0.015139889 -1.2867011 -1.3238435
000340 37 34 d4 be 9a 23 a1 3e c1 02 db 3a 32 17 32 3d
       -0.41446087 0.31472474 0.0016709195 0.043479152
000350 21 0c c6 3a 86 97 0f bb d4 b8 9d 3b 83 f7 95 be
       0.0015109816 -0.0021910383 0.004813293 -0.292904
000360 25 0e 9c be 9b 4f 82 be ec 4a 88 be 8e 88 f5 be
       -0.3047954 -0.2545136 -0.2661966 -0.47955745
000370 45 82 3d 3f a2 26 3b be 1b bd a6 3c 6f 8d a5 bb
       0.740269 -0.18276456 0.020353844 -0.0050522606
000380 29 f8 12 be 80 fe 30 3c 03 a1 cb bc d7 a1 5a 3c
       -0.14352478 0.010802865 -0.02485705 0.01334425
000390 81 26 57 bf 8f f2 17 bf 1d 34 3a 3d c4 3c af 3c
       -0.8404313 -0.5935449 0.045459855 0.02139128
0003a0 e0 1a 3f bd 3e 2f a3 bd 9c 0f 2b bc a7 58 8e 3b
       -0.04665649 -0.07967995 -0.010440733 0.0043440643
0003b0 a8 02 98 3b cb 04 7b bd bb 6d 0c bd 23 a0 e8 bd
       0.0046389885 -0.061283868 -0.034284335 -0.11358669
0003c0 05 7b e6 bd 71 9e aa bd fc 64 37 be f9 23 85 3c
       -0.11253933 -0.083310015 -0.17909616 0.016252505
0003d0 91 6f 81 bd 7a 77 64 3e 6c 75 f5 bc 75 30 8e be
       -0.06320108 0.22311202 -0.029963218 -0.27771345
0003e0 f3 5a 7b ba 34 97 22 bd 18 0f 93 3d 81 5d 2b 3f
       -0.00095884426 -0.03969498 0.07180613 0.6693955
0003f0 ef e2 95 3e 35 7b 1f 3d ac de c9 bd 31 62 99 b9
       0.292747 0.03893586 -0.098569244 -0.00029255592

a2c_network.actor_mlp.0.bias f4 [64]
000000 76 88 43 3e b0 7f 74 be cb 7b 6e be b1 bd fa 3d
       0.19095024 -0.23876834 -0.23289411 0.12243212
000010 1f 08 7e 3d e6 2e 17 3e 42 9c 4f 3d 9e 97 4d be
       0.062019464 0.14763984 0.05068613 -0.20077369
000020 72 8f a5 3d a7 c8 ee 3d 85 e1 9c be 2f 75 7c be
       0.08084001 0.11659365 -0.30640808 -0.24654077
000030 df 76 0b 3e f7 8f 41 be 52 50 29 3d f1 4a 99 3d
       0.13619564 -0.18902574 0.041336365 0.07484997
000040 dc 3e 83 be d7 46 03 3e e0 55 5f 3e 33 49 d0 3d
       -0.25633895 0.12819992 0.21810102 0.10170212
000050 dd 8c 55 be 3d f5 57 be 5c df 2a 3e 5c cf e1 be
       -0.20854516 -0.21089645 0.16686767 -0.44103515
000060 d4 3c b4 3d c2 1f f8 3d 99 d2 e5 bc 5e 4c cb 3c
       0.088006645 0.12115432 -0.028054522 0.024816688
000070 78 97 34 bf b5 66 dc bd 99 97 68 be 47 ab 79 be
       -0.7054362 -0.10761777 -0.2271408 -0.24381743
000080 fe 12 26 be a5 36 96 be 2b c7 93 be a8 31 a4 be
       -0.16218182 -0.29338565 -0.2886289 -0.32069135
000090 cf 63 85 bb d5 c6 da 3d 9f 01 c5 be b4 cc 98 be
       -0.004070736 0.106824555 -0.384778 -0.29843676
0000a0 df 5b 8b be ab 03 d1 bd 3e 9c bf 3d fb c9 cc be
       -0.2721853 -0.10205778 0.09355973 -0.3999785
0000b0 de ef 1f 3e 32 62 da 3c 3c 94 65 3c 1b 5b d9 be
       0.15618846 0.026658151 0.014012393 -0.4245232
0000c0 d4 81 1c be 55 c2 5e be 83 93 21 be 09 51 da be
       -0.152839 -0.2175382 -0.15778928 -0.4263995
0000d0 69 82 91 be 08 5e b9 bd 15 ef b2 be 1c 5a b5 be
       -0.28419808 -0.09051138 -0.3494803 -0.3542031
0000e0 a4 c2 f0 3d 57 e2 88 be 40 48 22 3e f4 c6 78 be
       0.11755875 -0.26735184 0.15847874 -0.24294645
0000f0 b7 fa b7 3d d5 bd 2a 3e ad 9f c8 3c d6 6c 66 be
       0.08983367 0.16673978 0.024490202 -0.22502455

a2c_network.actor_mlp.2.weight f4 [64, 64]
000000 07 4a 55 3b ae ff 36 be 8f 6a 0c bd ab 15 10 bd
       0.0032545344 -0.17870972 -0.03428131 -0.035176914
000010 e1 0f 39 3e 22 b1 67 3e aa 24 4b 3e f2 92 37 3e
       0.18072464 0.22626165 0.19838205 0.17927149
000020 f8 92 12 3e f3 71 58 bd 6a 3b 77 3c e1 89 ed bc
       0.14313877 -0.052843045 0.015089849 -0.02899641
000030 a7 9e a9 3e 0c 6c 34 3e 0f a2 4d be fc fb 0b be
       0.33128855 0.17619342 -0.20081352 -0.13670343
000040 bf 3a 92 3d 5f 5b 00 3f d9 8e 53 3e 25 03 47 3e
       0.07140111 0.5013942 0.20659961 0.19434793
000050 8b b9 40 bd 1e 78 a3 3e 74 bd 8b bd a6 f0 6e 3d
       -0.047051948 0.3192758 -0.06823245 0.05833497
000060 fa 5f 19 3e 71 59 06 3f ca 2c d8 bd cd bc c1 bc
       0.14978018 0.52480227 -0.10555418 -0.023649598
000070 b0 47 a2 3d 0d 75 c5 3e db 59 0d 3d df fa c8 3c
       0.079238296 0.38565865 0.03450952 0.024533687
000080 e8 ff a6 be 34 09 21 3e cb 39 13 be 14 35 ee bd
       -0.32617116 0.15726167 -0.14377515 -0.116312176
000090 7c ba f8 3c 7c dc 5d 3e 27 a4 70 3d 56 b0 9a bd
       0.03036236 0.2166614 0.058750298 -0.07553165
0000a0 4a c1 73 be 8f 1e 32 be 13 cb 66 3c 74 3c 18 3d
       -0.23804203 -0.1739447 0.014086503 0.037167028
0000b0 39 f9 fc bd 17 b4 16 bd 3c 62 7e bd 7e 2c 9f 3d
       -0.12352223 -0.03679284 -0.062105402 0.07772158
0000c0 fd a0 f4 ba ba 6e fb bb 5a b0 dd bc e4 ab 2f bc
       -0.0018663701 -0.0076731117 -0.02706163 -0.010722134
0000d0 54 2a 44 3e fc 8a 92 3d 44 6d fa bd 1c 1f a0 bc
       0.19156772 0.071554154 -0.12227872 -0.019546084
0000e0 ed 1a 17 3e ab dd 15 be 7a a5 a5 3d 09 8c e8 bb
       0.14756365 -0.14635341 0.08088203 -0.0070967716
0000f0 2f e2 af 3e 0f 6c 11 3c cb 95 2b 3e 06 7a 39 bd
       0.34352252 0.008875861 0.1675636 -0.045282386
000100 5e 0b 37 bf c7 97 b2 bd 18 74 0f be ff f9 32 3e
       -0.7150172 -0.087203555 -0.1400913 0.17478178
000110 29 f7 85 3e 17 4f 31 3e aa 74 99 3e 8d b3 c1 3b
       0.2616513 0.17315327 0.2997182 0.0059112967
000120 67 58 37 ba ce 18 02 bd fe 00 cf bc 6b 9e 38 bd
       -0.0006994069 -0.031761937 -0.025269028 -0.045072954
000130 6b ac f3 bc 90 c0 dd 3d 0f 22 fb be 0e 5a a0 be
       -0.029745301 0.10827744 -0.49049422 -0.31318706
000140 7b 2d 83 3e 55 2a 8a be 24 21 1d bd c1 44 91 3b
       0.25620636 -0.26985422 -0.038361683 0.004433245
000150 db 71 52 3d 1b 0b 2f bd 93 e6 02 be 7a aa 7f bd
       0.051378112 -0.0427352 -0.1278327 -0.06241844
000160 74 19 ec 3d d5 4e a7 3e 14 43 07 bf da 4b 64 be
       0.11528292 0.32677332 -0.5283673 -0.2229456
000170 99 c0 b1 3d 7e 93 ff bd fe 1a 75 3e 0f 90 9c 3e
       0.08679313 -0.12479304 0.23936078 0.30578658
000180 35 37 a2 be 90 7d 20 3e b4 27 7a bd f3 eb b6 bd
       -0.31682745 0.15672898 -0.06107302 -0.089317225
000190 59 a8 19 3d b5 ef 1d 3e 5e 1a 86 bc 5f 82 08 be
       0.037514064 0.15423472 -0.016369995 -0.13330983
0001a0 39 4b 86 bd 95 aa 14 3e 1b 41 39 be 9d 51 8a 3e
       -0.06557316 0.14518197 -0.18091242 0.2701539
0001b0 7a 11 21 be 49 95 02 be 36 c3 ee bd ef 60 28 3e
       -0.15729323 -0.1275226 -0.11658327 0.16443227
0001c0 67 1e 58 be a7 69 4e be ac 3e 87 3e 24 bf 3a 3d
       -0.21105348 -0.2015749 0.26415002 0.045592442
0001d0 45 0a f6 3d b2 1b ad bc a6 9e f0 bb 05 33 f6 3c
       0.120136775 -0.02113137 -0.007343131 0.030053625
0001e0 ef fd 11 be 45 74 86 be 28 71 52 be ba b4 85 be
       -0.14257024 -0.26260582 -0.20550978 -0.26114446
0001f0 fa fc 00 3e b7 66 8c 3c a3 8b 8e bd 93 b9 c5 3c
       0.12596503 0.017138822 -0.06960227 0.02413634
000200 ab 67 86 3e e2 3b 2e 3d e1 dc 05 3e 05 d5 1f be
       0.26250967 0.042537577 0.1307254 -0.15608604
000210 98 69 58 3e 11 1f b9 be fc c5 7a be b2 fb f2 3d
       0.21134031 -0.36156514 -0.24489588 0.11864413
000220 47 7a 42 be 1c 11 9a be 53 29 26 3b d0 b9 68 3d
       -0.18991958 -0.30091178 0.002535422 0.05681783
000230 c5 d9 b3 3e 34 43 03 bd e5 01 96 be cd 9e 4f bd
       0.35127082 -0.03204651 -0.2929832 -0.050688554
000240 10 f4 a5 bd 22 cf 59 3e 2b 17 fc 3c f8 8d a2 bc
       -0.08103192 0.21270421 0.030772766 -0.019843087
000250 61 ca 3c be 97 de f0 3c 0c e9 de bd fe b1 a1 3d
       -0.18436576 0.029403014 -0.10884294 0.078952774
000260 1c 4d d2 be df 65 21 bd a0 79 04 3e 92 e7 22 be
       -0.41074455 -0.039403792 0.12937021 -0.1590865
000270 2b 90 e4 bd 29 70 af 3a 24 ec de bd 6e d9 80 bd
       -0.1116031 0.0013384867 -0.10884884 -0.062914714
000280 58 08 dc bd 9e e2 54 bd b3 fc e3 3c c8 23 b0 bd
       -0.10743779 -0.05197393 0.027830457 -0.08600575
000290 05 bf b2 3d 3f 36 cc 3d fe b6 28 3e 12 5a f5 bb
       0.0872784 0.09971284 0.16476056 -0.007487544
0002a0 40 e3 fe 3c b8 e4 1e be 95 64 1d be a3 21 f1 bd
       0.03111422 -0.15516937 -0.153704 -0.11773994
0002b0 76 98 06 be 77 81 c7 3d d0 68 db 3d f4 c8 05 be
       -0.13144097 0.0974149 0.10713351 -0.13064939
0002c0 0a 20 7b bd d4 b6 d8 3d f9 ce 2f be b5 97 bd 3d
       -0.06130985 0.10581747 -0.17168798 0.092574514
0002d0 aa eb 0a 3c af c5 5d bd 26 75 48 bd 9a 1a b9 bd
       0.008479038 -0.054143604 -0.048939846 -0.09038277
0002e0 39 20 b5 3e ac d8 b1 bb 1b d0 11 3d 52 51 ee bc
       0.35376146 -0.0054274406 0.035598855 -0.02909151
0002f0 86 88 4f 3e 36 b8 60 bd 5f 26 c7 bb 60 ae 4c 3b
       0.20266923 -0.054863177 -0.0060775722 0.0031231865
000300 37 b7 dd be 25 2d 81 be 40 76 a6 be 26 5e b8 3d
       -0.43303844 -0.25229755 -0.32512093 0.090023324
000310 5b 7b e2 be 3e 2e 56 3e 0d dd 9e 3e 83 74 11 be
       -0.44234738 0.20916077 0.31028023 -0.14204602
000320 52 28 a9 3d d2 36 2c 3d 14 f3 3b be ad e6 6f be
       0.082596436 0.04204447 -0.18354446 -0.2342784
000330 37 a6 3d be 62 6b 8e be ad 1c ff 3c b5 76 f3 bd
       -0.18520437 -0.27816302 0.031141603 -0.11887876
000340 37 02 ac 3e de 38 9d bd 49 be 84 3e e8 7b 96 3d
       0.3359544 -0.07676862 0.25926426 0.07347852
000350 65 cb 11 be da 52 9b be 57 cd cf 3d e6 6e 15 bd
       -0.14237745 -0.30336648 0.10146587 -0.036482714
000360 f5 2b 08 3f 4f e1 df 3e c5 b6 47 be c6 51 d3 3d
       0.53192073 0.43726584 -0.19503315 0.103183314
000370 6c 40 90 3e 40 ab 26 be f7 e9 21 3e ab 67 d0 3c
       0.2817415 -0.16276264 0.15811907 0.025440058
000380 e1 2a 00 be 51 46 db bd e3 46 68 be 6a 1a d1 3d
       -0.12516357 -0.10706771 -0.22683291 0.10210116
000390 7f 55 dc bd 41 8c ce bd 44 b8 49 be 28 e5 84 be
       -0.107584946 -0.10085345 -0.19699198 -0.25956082
0003a0 e6 df 39 3d 67 43 08 be d2 83 04 3e fd 4c 13 3e
       0.04537954 -0.13306962 0.1294091 0.14384837
0003b0 1c f3 54 bc b3 84 33 3e 3a 64 24 be 38 e1 e5 bd
       -0.012997415 0.1753109 -0.16053858 -0.11224598
0003c0 26 9d 90 be 68 ee 7c be d2 c6 4f be 19 8a 38 be
       -0.28244895 -0.2470032 -0.20290688 -0.1802143
0003d0 05 15 8a bd 37 ef 5f be ff 9a 2a 3e 06 8d 2d be
       -0.067422904 -0.21868597 0.16660689 -0.16948327
0003e0 d3 07 d7 bd 9a a8 58 be 99 b4 a5 3e 52 98 45 be
       -0.10499539 -0.21158066 0.32364348 -0.19296387
0003f0 ce 97 34 3d f4 f0 b8 3e bd e1 f8 bd 3d e0 f8 3d
       0.044090085 0.36121333 -0.12152431 0.12152145

a2c_network.actor_mlp.2.bias f4 [64]
000000 b2 12 36 be f9 84 9d 3d d2 cc 0b be 66 34 9e 3e
       -0.17780569 0.07691378 -0.13652351 0.30899352
000010 6d 3d fc ba 57 e9 d3 be b4 98 68 be 7f 99 87 be
       -0.001924438 -0.41388962 -0.22714502 -0.26484296
000020 f4 7a af bc 4b c1 af be 42 46 82 be 03 4e e3 3d
       -0.021420933 -0.34327158 -0.25444227 0.11098864
000030 55 ed 09 3e ab 62 88 be ee 18 d4 bd 8e 36 1b be
       0.13469441 -0.26637778 -0.103563175 -0.1515753
000040 56 6a 84 be f0 da 27 3e 60 7c 0a be 59 7f 72 bd
       -0.25862378 0.16392112 -0.13524008 -0.05920348
000050 c9 8d 65 3e 22 0e 26 be 68 b9 c6 3e 59 ef 8c be
       0.22417368 -0.16216329 0.3881333 -0.27526358
000060 ab d7 82 be 7f f0 88 3c f6 25 a4 3d 0b 73 8b be
       -0.25555167 0.01671624 0.08015053 -0.27236208
000070 bf db 0b bc 0f f0 b5 3d ea a4 1b be 23 ad 91 3d
       -0.008536278 0.08883678 -0.15199628 0.07113101
000080 83 10 8a bd 23 06 b1 3c 63 59 c5 3b 7b b0 2f bc
       -0.067414306 0.021609372 0.0060226186 -0.010723229
000090 5a 8c 0b 3e c4 3c c1 3d 1f 71 c2 3c ae 43 a2 be
       0.13627759 0.09435418 0.023735581 -0.3169226
0000a0 55 3b 12 be 17 2a a0 3e 57 ff 67 be df 07 99 be
       -0.14280446 0.31282112 -0.22655998 -0.29888818
0000b0 42 c5 9c be 18 5f 2b be 7c d2 85 3d a8 f2 95 3c
       -0.30619246 -0.16735494 0.06534287 0.018304184
0000c0 47 9a a3 3e 04 71 9e 3e 83 75 a6 be 76 f5 52 3e
       0.31953642 0.309456 -0.3251153 0.20601448
0000d0 ce e1 c3 be 8e b4 59 be 18 f8 c3 be 05 17 a3 be
       -0.38258213 -0.21260282 -0.38275218 -0.318535
0000e0 46 48 3b be 60 5b dd bd 97 f8 a8 bc dd 55 aa be
       -0.18289289 -0.10808444 -0.02062635 -0.33268633
0000f0 dd 1c 84 bc 40 f3 f3 3c c7 40 c5 be 1c 17 cd 3e
       -0.016127044 0.029779077 -0.38525984 0.40056694

a2c_network.value.weight f4 [1, 64]
000000 1b dd ca 3d 60 f1 d6 3e 53 a4 ab be 1c 7d ac 3e
       0.09905454 0.4198103 -0.33523807 0.336892
000010 cd 23 a9 3e a4 dc 1b bf ed 9e 0b bf 5a b4 f3 be
       0.33035126 -0.60883546 -0.54539376 -0.47598535
000020 be 00 66 bd d4 1d e5 be 63 41 d6 be 99 d7 94 3e
       -0.05615305 -0.4474932 -0.4184676 0.29070738
000030 c5 e9 7c 3e e9 b6 d6 be 1e 63 d7 be 91 26 5a 3d
       0.24698551 -0.41936424 -0.42067808 0.053259436
000040 32 5d 77 be 16 f1 0a 3f 43 10 41 bf 07 7b a9 be
       -0.24156645 0.5427412 -0.7541544 -0.33101675
000050 ed e2 9d 3e 8b 9c 4c 3e 7a 40 26 3f c5 a4 e6 be
       0.30837193 0.19981591 0.64942133 -0.45047584
000060 07 50 de be 51 ff 7e be b7 a7 61 bf 06 19 e8 be
       -0.4342043 -0.24902083 -0.8814654 -0.4533159
000070 d5 83 3a 3e a0 38 ab 3e 96 33 59 be ab 1a bb 3e
       0.18214352 0.3344164 -0.21211085 0.36543784
000080 27 ea 80 bd 2d 05 1d bf e4 8f a7 be ad cd 6a be
       -0.06294661 -0.6133602 -0.32726967 -0.22930022
000090 37 bc 61 bf a1 53 62 bf ec d9 37 be ae c3 07 bf
       -0.8817782 -0.8840886 -0.17954224 -0.5303296
0000a0 f5 b4 c1 3d f9 d8 f0 3e c8 0f d3 be 0d d8 fb be
       0.09458343 0.47040537 -0.41222978 -0.4918827
0000b0 4e bd f6 3e e1 7a 32 bf 70 8b 25 3e 22 a3 85 be
       0.48191303 -0.6971875 0.16166472 -0.26101023
0000c0 ee a0 13 3f 9e 2d 01 3f 53 df ab be 33 0e be 3e
       0.57667434 0.5046023 -0.3356882 0.37120208
0000d0 67 8a e7 be 1d d6 ab be f0 0a f0 be 71 83 01 bf
       -0.4522278 -0.33561793 -0.46883345 -0.5059119
0000e0 7b f4 d4 3d 2c eb 3e be bc 44 83 3e 00 b5 e3 be
       0.103981934 -0.18644398 0.25638378 -0.4447403
0000f0 94 c4 2d 3d b9 a8 9f 3e 57 b4 1f bf b3 56 1c 3f
       0.0424238 0.31183413 -0.6238455 0.6106979

a2c_network.mu.weight f4 [4, 64]
000000 67 7c 03 3f 1d 12 e0 3d 6c d8 3d bd 10 74 29 3d
       0.513617 0.10940955 -0.046348974 0.04137045
000010 70 71 f4 3d 4e 5d d4 bd 76 82 78 3d b3 d7 4d 3e
       0.11935699 -0.10369359 0.060671292 0.20101814
000020 bb e2 56 be a5 88 1e bd 3c 35 9c be f8 e9 08 be
       -0.20984928 -0.038704533 -0.30509365 -0.13370502
000030 3c 18 1c 3d 2f e1 f0 bb 80 a3 8b 3d 91 8f f0 be
       0.03810905 -0.0073510627 0.068182945 -0.46984532
000040 4e 64 20 3e 35 96 1b be e8 95 23 3e b1 2a bd 3c
       0.15663263 -0.15194018 0.15975153 0.023091646
000050 9e d7 6c be ec a9 0b 3e 98 ea 1f bb f6 42 00 be
       -0.23129126 0.13639039 -0.0024401303 -0.12525544
000060 ce 99 e1 3d 74 70 2f 3e 31 df b9 3d 02 46 59 be
       0.11015664 0.17132741 0.090757735 -0.21218112
000070 56 7e 42 be 38 e3 6d 3e 87 f4 fd 3d 09 9a 29 3d
       -0.18993506 0.23231208 0.124001555 0.041406665
000080 da 17 a0 3e 78 0d 36 3c 30 6f c3 3d d8 78 56 bc
       0.31268197 0.01111161 0.09542692 -0.013090335
000090 bf 1c 10 be 6d 7f ce 3c 76 e6 4c 3b 72 71 09 3e
       -0.14073466 0.025207246 0.0031265295 0.13422182
0000a0 07 e1 1e 3e ba af 5c 3d 31 b9 41 be f1 8a 93 3e
       0.15515529 0.053878523 -0.18918301 0.2881694
0000b0 39 ab c0 bd 15 8e d9 be bc 62 9c 3e df c4 9c 3d
       -0.09407658 -0.42491212 0.30544078 0.07654738
0000c0 b7 0e 09 be 00 25 02 3e 0b 40 05 3e 14 e9 47 bd
       -0.1338452 0.12709427 0.13012712 -0.048806265
0000d0 ee d0 dd bd 00 19 8d 3e 60 61 37 3e dc c9 80 3e
       -0.10830866 0.27558136 0.1790824 0.25154006
0000e0 0a a3 c7 be 93 71 0b be ce 0c 38 3d 4a a7 0b 3e
       -0.38991576 -0.13617544 0.044934087 0.13638034
0000f0 89 1d 99 be 31 b5 65 be 8c df 90 be 1f 04 85 3c
       -0.29905346 -0.224324 -0.28295553 0.016237317
000100 6c 00 d4 be 95 eb 8f 3d 02 a7 45 be 8d 4a 92 3e
       -0.41406572 0.070273556 -0.1930199 0.28572503
000110 60 db 1c be 9a 4d 85 3c 42 7e a0 be 6a 75 f7 bc
       -0.1531806 0.016272355 -0.31346327 -0.030207355
000120 7f 84 ce 3d c8 00 4a be d8 8d 16 3d d6 a5 f2 bd
       0.100838654 -0.1972686 0.036756366 -0.11848037
000130 5a 79 0a bc 1e 90 f6 3d 00 b3 3e 3d f2 09 84 be
       -0.008451784 0.12039207 0.046557426 -0.25788838
000140 a7 59 c4 be 86 8a a6 3e 8d fb 98 3e 59 d3 be 3e
       -0.3834965 0.3252756 0.29879418 0.3727062
000150 58 b2 c7 3d 8c 16 87 be 3d af e7 bd 4f 21 cd bd
       0.09750813 -0.2638439 -0.11312721 -0.10016119
000160 34 1e b7 bd 57 e4 9d 3e 48 85 61 bd 1a 23 83 bd
       -0.08941308 0.30838272 -0.055058748 -0.064031795
000170 c9 f0 4c bd 7f fd 0e bd 3b 62 42 be ef c3 86 3e
       -0.050034318 -0.03490972 -0.18982784 0.2632136
000180 dd 38 3a bc 10 12 4c 3e 15 cd 06 3e 58 f9 a3 3e
       -0.011366096 0.19928765 0.1316417 0.32026172
000190 02 c8 e3 3d 45 94 ca 3d 64 40 8d 3e 22 60 9f bd
       0.11122133 0.098915614 0.2758819 -0.07782008
0001a0 03 fa 9f be d1 90 25 3e 10 75 39 3d c1 ec 0b be
       -0.3124543 0.16168524 0.045277655 -0.13664533
0001b0 4f 51 a5 bd a0 65 b9 bc 61 ab 59 3e b3 a5 69 3e
       -0.08072149 -0.022631466 0.21256782 0.22817115
0001c0 ec 6b e2 bd 3c 46 c5 3c 06 c6 9e be 97 5a 4b 3d
       -0.11055741 0.024081342 -0.31010455 0.04964694
0001d0 da a3 0c be 12 9d cc be 2a af bd be 81 8b 44 be
       -0.1373438 -0.39963585 -0.37047702 -0.19193842
0001e0 b6 8c 35 bf 89 14 34 be c7 e9 41 be 43 06 12 be
       -0.7091783 -0.17585959 -0.18936835 -0.14260201
0001f0 9b c0 66 3d 22 91 5c be d4 88 4a 3d 08 08 bf bd
       0.056336027 -0.21539739 0.049446896 -0.09327704
000200 01 13 de bd b5 87 15 3e 52 89 b6 bd d4 88 f7 3d
       -0.108434685 0.1460255 -0.089129105 0.12086645
000210 c9 05 bc bd 7d ae 1d 3b 51 55 5d 3d 52 6c 06 bd
       -0.09180791 0.0024060302 0.054036442 -0.032818146
000220 a1 27 4e 3b 56 57 f5 bd e9 7a 2c bd e4 cb 43 bd
       0.0031456726 -0.11979549 -0.042109404 -0.047801867
000230 29 c4 e4 bc 2e 0d ee bc ab a1 12 be e1 c2 b0 bd
       -0.027925568 -0.029059019 -0.14319484 -0.0863092
000240 bd 60 9d 3b cf 51 0a 3c 60 e6 10 bd 9d d6 b6 bd
       0.004802792 0.008442356 -0.035375953 -0.08927653
000250 70 c6 70 3b bd 2f 7f 3c fd 97 d4 bc 5f 22 e3 3d
       0.0036739372 0.015575347 -0.02595138 0.1109054
000260 6c 38 d1 3d 5b 4a a6 3d 56 1c 3f bd 55 69 b3 3d
       0.1021584 0.08119651 -0.046657883 0.08760325
000270 5f 51 29 3c 99 e8 b9 3d c3 06 ad 3d 77 24 c7 3d
       0.010334342 0.090775676 0.08448555 0.09723752
000280 61 ed 27 bd 3c 00 8d bd 92 47 5d 3d fa 48 b2 3d
       -0.040997867 -0.0688481 0.054023333 0.087053254
000290 f3 6e a7 bc ba a4 f2 3c 38 9d 98 3d 77 3d 92 3d
       -0.020438647 0.029619563 0.07451862 0.0714063
0002a0 09 68 ca bd d9 0d b2 3c 15 eb 03 3d 89 58 7f bd
       -0.098831244 0.021735119 0.032206614 -0.062340293
0002b0 07 06 04 bd a9 7a 3a bc 00 34 6d bc c2 6d 13 be
       -0.03223231 -0.0113817835 -0.01447773 -0.14397338
0002c0 f1 c0 25 bd 6b dd 74 ba 2f 5c 35 bd 3d d1 fb bc
       -0.040467206 -0.0009340855 -0.044277366 -0.030739421
0002d0 f3 ac 7f 3d b9 60 a0 bc 2e d3 81 bd 52 03 81 bd
       0.062420797 -0.019577371 -0.063391075 -0.062994614
0002e0 98 c5 80 bd 29 66 25 3e 4f d9 8a bd ad a9 ef bd
       -0.06287688 0.16152252 -0.067797296 -0.11702285
0002f0 a8 63 ee 3d b7 20 62 bd 93 34 aa bd 11 00 b8 3c
       0.11640102 -0.05520698 -0.08310809 0.02246097
000300 16 18 ae bc 71 ce 0c bd 4a 09 d3 bd 9e f4 31 3d
       -0.02125172 -0.034376565 -0.10304506 0.043446176
000310 92 7a c1 3c 8f 25 81 bc 5e d0 7f 3d 8d a0 15 bd
       0.023618016 -0.01576498 0.062454574 -0.036530066
000320 e2 ff 0d bd 3a 2d 30 3d 5d dd 8d bd 75 57 9f bd
       -0.034667857 0.04301188 -0.06926987 -0.07780353
000330 bc dd 6e 3b fb 13 ca 3c 8b bf 3d bd 69 0b 3b bd
       0.0036448082 0.02466773 -0.046325248 -0.04566518
000340 e1 af 36 bd 54 6d b0 3d cd 45 0c 3d 1a 2e 0b 3c
       -0.044601325 0.08614603 0.034246255 0.008494878
000350 39 69 82 3d 00 e6 0f bd ef d2 68 3c f5 c4 a0 3d
       0.06367726 -0.035131454 0.014210447 0.078500666
000360 e0 a1 e9 bd 8e be ab bd 35 82 b7 3c b4 27 fa bd
       -0.11407828 -0.08385955 0.022400955 -0.12214604
000370 27 59 20 3e 16 cf 03 bd 30 27 96 3d 94 8c 54 3e
       0.15659009 -0.032179914 0.07331693 0.20756751
000380 98 73 79 bd e8 e3 aa bc 72 40 33 bc 8b 17 af bd
       -0.060901254 -0.020860627 -0.010940658 -0.08549412
000390 f9 8a 2f bd 22 e9 72 bd cc 49 9c 3c 21 0b 6b bd
       -0.042857144 -0.059304364 0.019078158 -0.05738366
0003a0 48 cf 70 be a0 95 ee 3c 4b ba 27 3c 5d 65 b7 3d
       -0.23516572 0.029124081 0.010237287 0.089548804
0003b0 b5 78 b0 bd f3 66 8d bd fd 26 83 39 a1 11 a3 bc
       -0.08616773 -0.06904402 0.00025015316 -0.019905867
0003c0 0b 05 a1 3d 7d 83 0d be 79 8a 4b 3d 21 c5 e1 bd
       0.0786229 -0.1381969 0.049692605 -0.110239275
0003d0 84 47 0e be d1 d0 fc bc 48 7e cd bd 55 74 45 bd
       -0.13894469 -0.03086129 -0.10033852 -0.048206646
0003e0 ac 2c 2f 3d 8b b6 ad 3c 46 60 28 3e 33 bd 2e bc
       0.04276721 0.021205207 0.16442975 -0.010665226
0003f0 75 f8 48 3d 5e 6e a9 bd 4c 92 ac 3d ee 13 52 bd
       0.049065072 -0.08273004 0.084263414 -0.051288538

a2c_network.mu.bias f4 [4]
000000 04 7a 25 bd 18 53 69 3e 5d ab b8 bc 9e e8 85 3d
       -0.040399566 0.22785604 -0.02254265 0.06538509

exp_avg f4 [4]
000000 79 f6 da ba 0d 8e 38 bb 5e 6a 42 ba ef f8 58 39
       -0.0016705535 -0.002816084 -0.00074163626 0.000206921

exp_avg_sq f4 [4]
000000 2e aa b5 36 63 ee d1 36 73 76 4c 36 f5 b4 6f 36
       5.414032e-06 6.2564372e-06 3.0467315e-06 3.5719106e-06

exp_avg f4 [64, 22]
000000 b2 da 95 3a 86 b9 f0 ba 39 93 1a bb 0d d7 6c 3b
       0.0011432974 -0.0018365837 -0.0023586287 0.0036138922
000010 fd a8 2c ba 3e 74 94 3a e0 ce f8 ba 86 39 8f 3a
       -0.00065864605 0.0011326147 -0.0018982552 0.0010927177
000020 5e c3 ab 3a fd d3 c6 ba 59 ad 08 bb 20 e6 6e 3a
       0.0013104489 -0.0015169379 -0.0020855276 0.0009113271
000030 00 89 c2 b9 9b 97 ca 3b 19 a5 54 bb e4 59 75 3b
       -0.00037104636 0.0061826236 -0.0032447039 0.0037437612
000040 3c 45 6c bb 0e f2 83 bb b0 52 7c 3b ce b5 23 bb
       -0.003605201 -0.004026658 0.0038501434 -0.002498019
000050 b0 f9 0d ba d2 70 5b 3b e6 05 94 b9 ea da 7d 3a
       -0.00054159295 0.0033483994 -0.00028233154 0.0009683805
000060 4a 17 49 b9 4c 95 38 ba 55 d5 cc 38 f4 9d 49 b9
       -0.0001917753 -0.000704129 9.767214e-05 -0.00019227696
000070 62 33 d6 b9 13 be 0a ba ad 50 ee b9 c1 7f fb 39
       -0.00040855544 -0.00052926055 -0.00045455006 0.00047969635
000080 69 27 d2 3a 16 4e 92 ba a4 88 2c ba d1 2c 29 bb
       0.0016033474 -0.0011162187 -0.00065816403 -0.0025814066
000090 02 e2 44 3a 97 11 1c bb 53 78 4e 3a 44 41 19 3b
       0.00075104844 -0.0023814195 0.0007876206 0.0023384849
0000a0 ef a2 9b ba 43 c1 0e 3b f5 0e 03 37 4f 37 e6 b9
       -0.001187412 0.0021782673 7.811691e-06 -0.00043910227
0000b0 6b 7b 65 39 df 92 0a b8 03 00 88 ba 6d a0 1f 3a
       0.00021885119 -3.303855e-05 -0.001037598 0.0006089274
0000c0 bd 8c d0 b9 03 3d 36 39 15 51 a3 ba fd c4 4d ba
       -0.0003977771 0.00017379601 -0.0012460077 -0.0007849483
0000d0 f3 a5 ef 37 cd 11 ab b8 57 28 a1 3a 70 d7 7f ba
       2.8568296e-05 -8.157231e-05 0.0012295347 -0.0009759581
0000e0 b2 92 92 ba 6e f2 85 3a 6a cb ad ba ef 33 19 ba
       -0.0011182635 0.0010219344 -0.0013259475 -0.00058442255
0000f0 c3 4e 97 ba c3 83 85 ba 9f 59 0d 3a f4 37 87 3a
       -0.0011543859 -0.0010186363 0.0005392078 0.0010316358
000100 d3 e1 ad ba e0 d5 96 3a 27 1b 24 39 fd c0 ba b9
       -0.0013266153 0.0011507832 0.00015650374 -0.00035620472
000110 57 72 89 3b 20 18 17 ba 37 49 a0 39 f4 67 98 b9
       0.0041945386 -0.0005763788 0.00030572127 -0.0002906915
000120 99 c4 04 3b 61 6c be 39 91 a3 91 39 f6 cf 8c b9
       0.0020258783 0.00036320373 0.00027778422 -0.00026857824
000130 61 24 55 b9 d3 de c5 3a 7d a5 0d 3b d8 cf 19 3b
       -0.00020326815 0.0015096314 0.0021613531 0.0023469832
000140 bb 1b 23 3b aa 44 75 3b 08 9d 8d 3b bf c3 d5 b9
       0.0024888355 0.003742496 0.004321698 -0.00040772368
000150 28 e0 2b ba 8b 22 6b ba e4 2d 93 b8 dd 61 4f ba
       -0.0006556534 -0.0008969686 -7.018054e-05 -0.0007911006
000160 52 4a 80 3a 60 23 af ba 0a 54 fd b9 2e 37 21 3b
       0.0009787774 -0.0013361983 -0.00048318534 0.002459954
000170 d7 79 e6 b9 30 40 43 3a 1f 42 06 bb 12 82 92 b9
       -0.00043959796 0.00074482244 -0.0020486189 -0.000279442
000180 c7 df 51 3a 7a b7 7d ba a6 c5 4f 3a 81 67 f4 b9
       0.00080060627 -0.0009678524 0.0007925875 -0.00046616423
000190 33 73 20 ba 1f b3 98 3b e9 2f ed ba 65 fc 25 3b
       -0.00061206816 0.004660025 -0.0018095943 0.002532744
0001a0 84 33 c8 ba 42 7f 12 bb 61 3a 5d 3b 5f 36 5d b7
       -0.0015274142 -0.0022353684 0.003375672 -1.3185286e-05
0001b0 10 e1 9a 39 9a cb 20 3b 91 c4 0f 3a 85 e7 bc ba
       0.00029540854 0.0024535418 0.0005484308 -0.001441226
0001c0 c1 3f cf 3a ba aa b3 3a 8b 42 8d 38 42 8a 4b b9
       0.0015811847 0.0013707497 6.7357985e-05 -0.00019411094
0001d0 48 53 23 3a 4b fa 10 3a 94 62 e1 39 55 d9 bf ba
       0.00062303664 0.00055304606 0.0004298879 -0.0014636914
0001e0 32 1e 29 b9 f1 f5 df 39 bd bb 95 3a 59 d5 8c 3b
       -0.00016128345 0.00042717115 0.0011423748 0.004297894
0001f0 9e 25 e7 b6 9d c6 99 3b 3d 63 94 3a 81 fc 5e bb
       -6.8887157e-06 0.004692866 0.0011321079 -0.0034025016
000200 8d 0d e8 39 47 2c 3a bb b9 5a 6c b8 d0 e8 5f 3a
       0.00044260584 -0.002840774 -5.6351277e-05 0.00085414667
000210 71 b3 02 3a 66 ce ab ba 63 8b e8 3a 3d 35 9a 3a
       0.00049858453 -0.0013107776 0.0017741736 0.0011765134
000220 46 3f b6 38 21 5d 87 b9 0c 3f 4c 3a c7 2a ef 38
       8.690222e-05 -0.00025818593 0.0007791377 0.00011404376
000230 40 67 83 39 95 99 aa ba ef ca 43 3a 54 98 07 ba
       0.00025063194 -0.0013015742 0.0007468899 -0.000517254
000240 89 2a 7a 3a 0b f8 89 3b 18 6b 46 3a e1 8a 87 3b
       0.00095430814 0.004210477 0.0007569059 0.0041364287
000250 f3 93 f2 3a df ed 15 bb 3a bf 45 b8 a0 77 e9 ba
       0.0018507227 -0.0022877378 -4.7146554e-05 -0.001781214
000260 fd 1f 8e ba e9 d1 56 3a 6d b8 07 ba d6 98 64 b9
       -0.0010843273 0.0008194731 -0.0005177323 -0.0002180071
000270 d2 46 2d bb 48 28 a3 ba 6a c2 a4 37 ee b9 10 3a
       -0.0026439917 -0.0012447918 1.9640855e-05 0.000552087
000280 5c a3 f1 b8 f1 f4 fe 3a 8b ca 1a ba 17 92 98 3a
       -0.000115222036 0.001945166 -0.0005904815 0.0011640218
000290 03 28 52 ba 88 d8 ed 3a 24 36 0c ba 1a b4 63 bb
       -0.00080168265 0.0018146196 -0.0005348644 -0.00347448
0002a0 ce ee b6 bb 42 59 8b ba bb b5 89 bb d0 6a 5f bb
       -0.005582667 -0.0010631459 -0.004202572 -0.0034090765
0002b0 fa 71 10 3b 75 b0 96 bb 16 18 73 3b d1 26 e2 ba
       0.0022040592 -0.004598672 0.0037093214 -0.0017254
0002c0 4d d1 96 3a 7e 4a de ba c2 06 b5 3a 7b 9c 55 3b
       0.0011506468 -0.0016959456 0.0013811218 0.003259449
0002d0 6a d6 94 b9 af be bd b8 55 61 6a ba be 2a c2 b9
       -0.0002838851 -9.04774e-05 -0.0008940895 -0.0003703441
0002e0 3d 9e 7d 3a 13 49 e4 ba b3 04 80 ba a3 35 99 3a
       0.00096747634 -0.0017416797 -0.0009767025 0.0011688959
0002f0 c1 cf d9 b9 0d 39 db 3b 29 00 4d 3a 8e c6 86 3b
       -0.00041544254 0.0066901506 0.0007820153 0.004113025
000300 5f 35 8b 3a 8c cd 09 bb 4d c3 3b 3a 04 16 c4 37
       0.0010620764 -0.0021027057 0.0007162586 2.3375273e-05
000310 89 6b 25 bb dd 92 6f 3b 0a 11 ae 3a f5 03 9b ba
       -0.0025241098 0.0036556043 0.0013280225 -0.0011826741
000320 8f fe bd 3a 73 ff 72 3b ce e8 dc b9 a3 ce da b9
       0.001449542 0.003707853 -0.00042135123 -0.00041734157
000330 aa 3d e8 ba 59 b9 c8 ba aa a1 86 3a 68 9a 8b ba
       -0.0017718573 -0.0015314027 0.0010271568 -0.0010650875
000340 61 9b 28 bb af d8 53 ba b1 a2 a7 ba 7d 12 ee 3b
       -0.0025727379 -0.00080812996 -0.0012789575 0.0072653876
000350 65 8e 02 3b a4 28 43 3b 6a 24 d0 3a ed 2d d5 ba
       0.00199213 0.0029778862 0.0015879993 -0.0016264297
000360 3a e9 01 bb f1 b2 d6 3a 1d 16 ca bb a7 a8 9e 3b
       -0.0019822852 0.0016380233 -0.006167187 0.0048418823
000370 6d 62 2d b8 22 89 7c 39 2e fb dd ba 33 47 86 b6
       -4.133808e-05 0.00024083679 -0.0016935819 -4.0018e-06
000380 75 83 54 b9 0b b9 9c 38 8d 6b 5b ba e0 44 e3 b9
       -0.00020266867 7.4731266e-05 -0.00083702133 -0.0004334813
000390 0d e7 c0 b9 83 a1 45 39 4e 8b 52 3a ad 71 f0 ba
       -0.0003679324 0.00018847552 0.0008031622 -0.0018344425
0003a0 e6 a5 ce ba d1 2d e8 b9 21 cb 8e ba f4 6a 09 bb
       -0.0015765994 -0.00044284624 -0.0010894277 -0.002096829
0003b0 4e 6b b3 ba 2c d9 8d b8 3f 49 ae 39 dd a0 a3 3a
       -0.0013688595 -6.763855e-05 0.0003324244 0.0012483854
0003c0 b0 4a 77 b9 ea b5 37 3a 41 b6 82 b9 5e 9c ac 39
       -0.00023583579 0.00070080033 -0.00024931322 0.000329229
0003d0 af e8 ee ba d4 6e 94 ba 56 fb a1 b8 a6 f5 65 39
       -0.0018227304 -0.0011324533 -7.723893e-05 0.00021930653
0003e0 01 dc 81 b9 33 bf 09 3a a4 08 98 b9 e6 72 0d 3a
       -0.00024768713 0.0005254626 -0.00028998137 0.00053958443
0003f0 41 52 1d ba 12 95 84 b8 e1 fa 9a b9 49 08 07 bb
       -0.00060013315 -6.322017e-05 -0.00029560088 -0.0020604304

exp_avg_sq f4 [64, 22]
000000 4d 8d 9a 37 f2 a7 97 38 b6 18 6f 3a 18 82 c0 39
       1.8424029e-05 7.231523e-05 0.00091208087 0.0003671802
000010 d3 3e 3e 37 5a 35 30 38 5c 0c 95 39 70 a4 3e 39
       1.133951e-05 4.2011357e-05 0.00028428703 0.0001818107
000020 ba 1f bf 37 1c 21 ac 38 95 8e 2f 3a 6c 90 b7 39
       2.2783748e-05 8.207766e-05 0.00066969666 0.00035012083
000030 0f 62 6a 3a 5b 16 70 3a 4b 71 76 3a 41 f3 6c 3a
       0.00089410035 0.00091586047 0.0009401037 0.0009038933
000040 8c f8 85 3a 00 71 37 3a a2 df 43 3a 3d 42 48 3a
       0.0010221167 0.00069977343 0.00074719836 0.0007639265
000050 14 68 4d 3a 9d 7d 60 3a 54 6f 92 36 5a 3c bb 37
       0.0007835638 0.000856364 4.3640994e-06 2.232024e-05
000060 e4 eb 5c 39 d9 e1 a9 38 ec 8d 46 36 4b c5 70 37
       0.00021068711 8.1006154e-05 2.9586909e-06 1.4351051e-05
000070 80 ba 1d 38 02 c5 d8 37 9b 45 fa 36 51 f5 d1 37
       3.760541e-05 2.5840945e-05 7.4586837e-06 2.5028976e-05
000080 86 c5 33 39 05 10 a7 38 aa e0 35 39 60 ec 2f 39
       0.00017144353 7.9661644e-05 0.00017345199 0.00016777357
000090 c1 a0 44 39 1a a0 58 39 d9 76 7b 39 49 a7 24 39
       0.00018751902 0.00020659008 0.000239815 0.00015702577
0000a0 9d 2e 25 39 05 fc 33 39 c5 ad 3c 39 79 83 2e 39
       0.00015752991 0.00017164655 0.00017993811 0.0001664291
0000b0 84 b8 85 36 6b bb bd 37 45 86 4e 39 aa 10 be 38
       3.9851893e-06 2.2617829e-05 0.0001969571 9.06301e-05
0000c0 1b c8 47 36 20 2b 43 37 fa be ab 38 1d dd 43 38
       2.9769787e-06 1.1632947e-05 8.1894876e-05 4.669755e-05
0000d0 59 1a be 36 06 b2 d4 37 43 a1 2a 39 e1 62 e1 38
       5.6655085e-06 2.5355268e-05 0.00016272538 0.00010747254
0000e0 05 d2 40 39 1a 27 3a 39 cf 23 4f 39 ba 74 2d 39
       0.00018388785 0.00017752909 0.00019754398 0.0001654205
0000f0 b4 d7 5f 39 d5 7d 23 39 36 64 24 39 44 24 34 39
       0.00021347293 0.00015591767 0.0001567759 0.00017179648
000100 e7 9d 33 39 2d e7 4d 39 55 7a b3 36 88 d1 bd 37
       0.00017129593 0.00019636443 5.348857e-06 2.2628126e-05
000110 6d b8 5b 39 b2 77 b4 38 ab 97 69 36 80 84 a4 37
       0.00020954171 8.605364e-05 3.4807988e-06 1.9612024e-05
000120 a6 19 93 38 6b 85 3b 38 e8 d6 d2 36 6a 84 c4 37
       7.0142836e-05 4.470853e-05 6.283506e-06 2.342668e-05
000130 fa 0c 07 39 9f 65 a8 38 6c 91 4b 39 af 65 39 39
       0.00012879437 8.029793e-05 0.00019413762 0.00017680855
000140 57 3c 56 39 87 64 3b 39 5d 3d 75 39 fb 72 84 39
       0.00020431109 0.00017871159 0.0002338788 0.0002526267
000150 23 d5 79 39 9c 70 8a 39 de e0 82 39 b6 5f 83 39
       0.0002382589 0.00026405312 0.0002496307 0.00025057577
000160 4d 9e 47 37 d1 f5 39 38 20 00 10 3a 51 de 6b 39
       1.1898182e-05 4.433637e-05 0.00054931827 0.00022494166
000170 77 69 f0 36 1a f6 f8 37 37 58 2f 39 4e bd e3 38
       7.164835e-06 2.9678504e-05 0.00016722163 0.00010859464
000180 57 d3 8b 37 e1 72 4c 38 1c 2f bc 39 8c 5c 60 39
       1.6668504e-05 4.874438e-05 0.00035893254 0.00021396781
000190 e8 e5 06 3a be af 11 3a 43 cf 13 3a ff 07 0c 3a
       0.0005145953 0.00055574987 0.00056384894 0.00053417677
0001a0 30 22 23 3a aa 8f f5 39 35 dd fd 39 c9 e4 00 3a
       0.0006223051 0.0004683708 0.00048420732 0.0004916904
0001b0 81 0d 00 3a 8b b0 0d 3a a4 7b 41 37 db 60 76 38
       0.0004884825 0.000540503 1.1532484e-05 5.8741174e-05
0001c0 be 4f 02 3a dc e4 3d 39 28 a5 fd 36 55 37 29 38
       0.0004970989 0.00018109701 7.5592143e-06 4.0344272e-05
0001d0 cc 32 be 38 a4 11 8b 38 65 b8 6c 37 2c ed 73 38
       9.069368e-05 6.631322e-05 1.4109629e-05 5.81566e-05
0001e0 d0 61 9c 39 3c 4d 25 39 37 9e eb 39 94 8b d3 39
       0.00029827515 0.00015764398 0.00044940572 0.0004034905
0001f0 9d af f5 39 07 4c f0 39 54 5c 13 3a 04 7f a4 39
       0.00046860884 0.00045833012 0.0005621363 0.00031375152
000200 e9 4f a9 39 18 9f c0 39 f6 9b c1 39 e5 50 b2 39
       0.0003229373 0.00036739628 0.0003692803 0.00034011077
000210 2e 6f 28 37 1f 75 52 38 9b f4 c5 39 09 6f 1b 39
       1.0039466e-05 5.017698e-05 0.00037757013 0.00014823316
000220 70 99 da 36 ec 0c 12 38 3a 58 74 38 ca 30 44 38
       6.5147688e-06 3.4821147e-05 5.82563e-05 4.677548e-05
000230 7f c8 52 37 8d 23 4f 38 fe f9 53 39 b3 6b 07 39
       1.2563657e-05 4.9385755e-05 0.00020215657 0.00012914724
000240 b1 c1 b8 39 53 d8 a2 39 64 a7 bb 39 8f f3 b5 39
       0.00035239526 0.00031060222 0.00035792135 0.00034704476
000250 51 a1 df 39 66 a8 88 39 2c 30 8c 39 79 a2 9b 39
       0.00042654065 0.00026065408 0.00026738772 0.00029684955
000260 11 80 9e 39 23 d4 8f 39 d7 e4 27 37 d1 f6 21 38
       0.00030231525 0.0002743314 1.0007257e-05 3.8615257e-05
000270 19 3d db 39 c7 14 20 39 e2 bb c0 36 d7 e6 c8 37
       0.00041816456 0.00015266529 5.7439183e-06 2.3949351e-05
000280 fa 3f ed 38 64 75 a6 38 f1 19 8d 37 a7 80 32 38
       0.00011312957 7.9373625e-05 1.682059e-05 4.2558324e-05
000290 95 60 a3 39 0e d4 48 39 df e6 bf 39 8f 2f d1 39
       0.00031161742 0.00019152483 0.0003660237 0.0003989902
0002a0 3c 14 c1 39 26 10 d3 39 07 40 fe 39 28 76 9a 39
       0.00036826904 0.00040257088 0.0004849436 0.00029461202
0002b0 ca 39 9c 39 d2 58 be 39 44 97 ba 39 34 22 c0 39
       0.00029797695 0.000363058 0.00035589386 0.00036646577
0002c0 56 7a 9e 37 32 2d aa 38 3a 8c 4c 3a f2 63 aa 39
       1.8892035e-05 8.11465e-05 0.0007802878 0.00032499392
0002d0 b2 0f 4b 37 d3 76 76 38 15 ac 02 39 12 48 ba 38
       1.2103397e-05 5.8761634e-05 0.00012461872 8.882595e-05
0002e0 4c 1c dc 37 a4 6c a8 38 55 9e fb 39 27 f8 83 39
       2.623922e-05 8.0311e-05 0.00047992417 0.00025171155
0002f0 16 63 43 3a e4 17 3c 3a e4 2f 42 3a 2a c1 44 3a
       0.00074534246 0.0007175191 0.0007407649 0.00075055903
000300 ee 70 6a 3a 4d 13 06 3a a8 0e 0c 3a b6 39 1b 3a
       0.00089432194 0.00051145704 0.000534276 0.00059213804
000310 f0 cc 20 3a 73 fc 22 3a 2c 2f c9 37 70 e7 d6 38
       0.00061340537 0.00062174274 2.3983033e-05 0.00010247424
000320 e1 72 78 3a 6c 36 c3 39 18 43 76 37 1d c3 8d 38
       0.00094775675 0.00037233846 1.4678364e-05 6.7597466e-05
000330 e5 c6 55 39 20 ae 08 39 e1 ea 02 38 76 f5 d9 38
       0.00020387357 0.00013034837 3.1213163e-05 0.00010393087
000340 90 7a 11 3a 45 c5 95 39 a5 ef 75 3a ab 77 76 3a
       0.0005549574 0.00028566472 0.0009381718 0.0009401987
000350 fb 5e 64 3a 80 1e 6f 3a 9b 86 8e 3a 49 0c 18 3a
       0.0008711663 0.00091216713 0.0010873856 0.00058001705
000360 6a d0 22 3a 72 2c 38 3a 8a cd 40 3a 35 95 43 3a
       0.00062108657 0.0007025666 0.00073548465 0.0007460893
000370 b1 ac 9a 36 1a 2f 11 38 48 e8 53 39 51 63 d1 38
       4.6096616e-06 3.461456e-05 0.0002020906 9.984396e-05
000380 7f 6d 6c 36 49 65 8e 37 bd 9b 66 38 76 45 12 38
       3.5230476e-06 1.6974884e-05 5.4981316e-05 3.4873803e-05
000390 e7 8c d3 36 95 9b 20 38 a4 04 1d 39 28 72 06 39
       6.304693e-06 3.829187e-05 0.00014974416 0.00012821762
0003a0 9e 51 47 39 d5 d6 2c 39 e3 23 4b 39 07 17 3c 39
       0.00019008524 0.0001648323 0.00019372957 0.00017937656
0003b0 2e d7 69 39 84 4b 20 39 bb 8b 29 39 1d df 37 39
       0.00022300772 0.00015286921 0.0001616915 0.00017535356
0003c0 b4 da 4a 39 ae f6 4a 39 3a cb 83 36 05 e6 b0 37
       0.00019345694 0.00019356117 3.927763e-06 2.1087946e-05
0003d0 e5 73 02 39 82 fe 81 38 3d ba 26 36 e6 c6 54 37
       0.0001244094 6.198605e-05 2.4844333e-06 1.2682494e-05
0003e0 da f9 93 37 48 14 8a 37 de a1 c0 36 5c fb be 37
       1.7640112e-05 1.6460326e-05 5.7408897e-06 2.2766813e-05
0003f0 0a b4 be 38 06 6a 89 38 f0 94 ff 38 db 0c e3 38
       9.093441e-05 6.5524175e-05 0.00012187089 0.00010826598

exp_avg f4 [64]
000000 ec 74 30 3c dc 6d 22 bb 2f 80 13 3b 07 e2 d8 ba
       0.010770064 -0.002478472 0.0022506823 -0.0016546854
000010 78 3b df 3b 4f 10 fb 37 d4 4c 91 b9 8d 8f 44 3b
       0.006812509 2.9929126e-05 -0.00027713797 0.002999279
000020 87 39 19 3b f8 dd 6d 38 6f cd 74 3a 63 75 54 3a
       0.0023380236 5.6711928e-05 0.00093384733 0.000810465
000030 f1 70 36 3c 38 dc eb 3a f5 09 a3 ba f8 ef 1f 3b
       0.011135326 0.0017994707 -0.001243888 0.0024404507
000040 89 f7 21 bb 9e fb 54 3c 65 03 b8 3a 6a 6a ab 3b
       -0.0024714193 0.012999443 0.0014039098 0.0052311914
000050 a9 14 b2 bb a1 68 7f 39 2d e5 cd b8 02 40 9e 3a
       -0.005434592 0.00024357672 -9.817849e-05 0.0012073519
000060 39 d5 d9 bb 93 5e 1b 3c 56 c1 3d 3a 22 6d 3c bb
       -0.0066477326 0.0094829975 0.0007238587 -0.0028751572
000070 a4 d6 d5 b9 b8 21 c9 3b c3 99 55 bb 5c 7b 53 3a
       -0.00040786446 0.006138053 -0.003259287 0.0008067393
000080 12 17 02 bc 74 c3 2a 3b 7a 15 0e 3b eb 23 a0 ba
       -0.007940071 0.002605644 0.0021680281 -0.0012217736
000090 ba b7 91 3b b6 69 92 3b 1a fc 23 3b 2e ef d3 39
       0.0044469507 0.004468168 0.002502209 0.0004042326
0000a0 05 bb 8b ba 9e 87 7a bb b2 64 88 ba 9b de d9 ba
       -0.0010660595 -0.0038227807 -0.0010405986 -0.0016622128
0000b0 d3 ad 33 3a 4a ca 05 3a b5 e4 9e 3b 34 a9 96 ba
       0.000685421 0.0005103691 0.0048490413 -0.0011494518
0000c0 c3 a3 97 39 a1 f3 8b 39 6b 16 2e bb 07 91 02 b9
       0.00028922976 0.00026693664 -0.0026563655 -0.00012451793
0000d0 8a 76 3f 3a a9 30 06 b8 b8 2c f7 ba bc e8 5a 3b
       0.00073037355 -3.1993408e-05 -0.0018857932 0.003340288
0000e0 10 c5 5f 3c 78 9f 35 39 5e b5 a4 3b 22 39 26 ba
       0.013657823 0.00017320912 0.0050265035 -0.0006340911
0000f0 89 42 07 3c 11 28 83 ba 70 18 c6 3a 04 77 13 bb
       0.008255609 -0.0010006448 0.0015113484 -0.0022501359

exp_avg_sq f4 [64]
000000 96 5a 40 3b b3 7e 8a 3a c4 57 55 3a da 23 b8 3a
       0.0029350868 0.0010566324 0.0008138383 0.001404877
000010 47 cf 0a 3b 3d 90 3f 3b d1 70 25 3b 7c 4a dd 3a
       0.0021180676 0.002923026 0.0025244246 0.001688316
000020 15 2d 8a 3b 95 92 9d 3b 6b 20 a0 3a 12 b2 76 3a
       0.0042168 0.0048087337 0.0012216693 0.000941069
000030 bd 24 4b 3b d0 8e d8 3a 52 a9 44 3b b3 12 bc 3a
       0.003099724 0.0016522054 0.003000815 0.0014348835
000040 eb 7b af 39 34 84 4c 3b 8d 90 28 3a a4 95 34 3b
       0.00033470927 0.003120673 0.0006430231 0.0027555013
000050 6a 9f ea 3a 9e 3d 47 3b d4 d6 70 3a e9 cb d8 39
       0.0017900292 0.0030401717 0.00091872853 0.00041350655
000060 49 08 f5 3a 1e 8e a8 3b bb 9c 22 39 af 01 91 39
       0.0018694486 0.005143895 0.0001550791 0.0002765781
000070 0f 95 98 38 34 4b ec 39 1c 21 2d 3a d3 fc 16 3a
       7.275689e-05 0.00045069458 0.000660436 0.00057597196
000080 9f 8b 10 3b e4 a0 cd 39 5c 04 04 3a 1c 21 d0 39
       0.0022055877 0.0003922052 0.000503605 0.0003969752
000090 b7 8e 91 3a 8a ec a8 3a 06 2b c3 39 6e 15 92 3a
       0.0011105154 0.0012887877 0.00037225353 0.0011145303
0000a0 6b ce f6 3a 91 41 80 39 3e 75 19 3a a0 1a 68 39
       0.0018829828 0.00024462913 0.0005853957 0.00022135163
0000b0 f6 39 6d 3a b2 1e 6c 39 3a d8 33 3a 95 8f 23 38
       0.00090494694 0.00022518149 0.00068605284 3.899595e-05
0000c0 4e 97 93 3a f9 f4 93 3a cc 7c a4 3a 93 ec da 38
       0.0011260302 0.0011288218 0.0012549399 0.000104391154
0000d0 ac 18 c9 39 e2 ae 78 39 7e 42 f2 38 2c 7d dc 39
       0.0003835609 0.00023716272 0.00011551844 0.0004205493
0000e0 de a2 af 3b 8b 68 3b 3a 28 40 28 3b 3d 2a 49 3a
       0.0053599915 0.0007149062 0.0025673006 0.00076738355
0000f0 1d 3e ad 3a 47 84 5a 3a f4 f5 b9 39 c3 eb 41 39
       0.0013217364 0.0008335751 0.000354692 0.00018493742
