logs/rl_games/klask/sim_distance_ro_a0_2/nn/klask.pth (torch, 74138 bytes, 24 tensors)

a2c_network.sigma f4 [4]
-2.8302815 -3.489082 -0.51540244 -0.37118003
00000000: 5523 35c0 1f4d 5fc0 6af1 03bf 4f0b bebe

a2c_network.actor_mlp.0.weight f4 [64, 12]
-0.74021494 -0.40614927 -0.05275651 0.4743818 0.33749706 0.15702422 -0.07416025 0.16380571
-1.6715134 0.16259018 0.11121117 1.2742901 -1.8275571 -1.1913812 -0.057858832 -0.17385107
-0.04283661 -0.10193753 0.010660836 -0.039794322 1.8687909 1.251334 -0.08488725 -0.1523026
-0.7037808 0.92597044 -0.07653284 -0.09162512 -0.014405862 -0.054701 0.016413419 0.02493245
-0.33154547 -1.9829761 0.0055532325 0.060449373 0.721842 0.053346682 -0.093280874 -0.15842849
-0.197169 0.5190675 0.028325573 0.024935903 -0.38988894 1.4035925 0.027079271 0.16282474
-0.14172886 -0.73282665 0.17505711 -0.16997512 -0.1620171 -0.1575675 0.02639738 -0.009006812
-1.8600976 -1.082756 0.23797984 0.057982236 0.67114717 -0.39548415 0.23733807 -0.046645314
-0.09900584 -0.009914503 -0.023769863 0.027222114 -0.7520643 -1.7197732 0.0026616445 0.04677105
0.6264531 -0.8353004 0.0126038445 -0.17365232 -0.2334741 0.31372532 0.029119065 -0.023484046
2.5294495 1.2675526 -0.25625348 -0.5188699 0.3054882 -0.38940567 0.21592306 -0.5747884
0.10199423 0.46269876 0.025457092 -0.059457276 -2.467267 -2.0368185 -1.0131648 -2.1746325
-0.16018273 -0.6150445 -0.08887221 0.14923133 0.07481545 -0.07977126 0.0040033064 0.0056785513
0.81573266 -2.2576854 -0.25213596 -0.9134722 -0.6372546 -0.36943898 0.2262601 -0.4560403
-0.17648713 -0.15132706 -0.053478096 0.00071772985 1.121958 -1.786697 0.5521976 -0.31038323
-1.2303681 -0.03717922 -0.028660914 0.29688257 -0.06716649 -0.11926242 -0.035431236 0.0037464001
1.5962164 -2.830155 -0.061665952 -0.24048533 -0.97720385 -0.032913372 -0.23980597 0.077237226
0.035594366 -0.25018787 -0.003734673 -0.007426236 1.2816739 -1.719007 0.28994092 -0.24830149
-0.3230511 0.33403447 0.0049450165 -0.035843935 0.053767353 0.16136153 0.0060802745 0.0055177603
0.5760647 -2.8300028 -0.6430339 0.34351388 0.3890413 -0.16939022 0.017483898 -0.19726335
-0.017839687 0.08974636 -0.029340593 -0.027419394 -1.7759656 1.5702904 0.39949223 -1.1469263
-1.9402031 0.07123206 0.060840722 -0.11324404 0.007725305 0.31449145 0.014253873 0.0033718527
-2.3833892 -2.256882 -0.023865784 -0.4226832 1.408697 0.67689115 0.06456368 -0.12689525
0.04758602 -0.04864249 -0.001080603 0.0044042943 -1.6498145 -1.4609228 0.20647308 0.20319073
-0.012376701 -1.0071934 0.10971249 0.2369385 -0.02531975 0.17398296 0.0010990561 0.006924254
-1.9183012 0.7588252 0.52514845 1.0099558 -0.6043785 -0.71292573 0.092461765 0.26541203
-0.15164614 0.31869447 -0.019409386 -0.016990596 -0.6957375 2.0209606 0.561642 0.4534396
-1.8354825 -0.87237835 0.067207225 -0.20788212 -0.002305069 0.51663446 -0.009297996 -0.005776027
-2.0614336 -1.7391025 -0.7388624 -1.1942868 0.82937634 -1.2316136 -0.015333773 0.02165679
-0.06434959 -0.06613427 -0.028708054 0.059283655 -0.053097527 1.3443121 -0.0076020244 -0.41031495
0.9899657 -0.6255593 0.124727495 -0.22757575 0.68467295 -0.088034116 0.0058170417 -0.0007829833
1.3245164 -2.4945574 0.94937134 -1.1300237 1.0366118 -0.20030455 0.17765039 0.13967909
00000000: ba7e 3dbf ccf2 cfbe 3617 58bd 2ce2 f23e
00000010: 6acc ac3e f5ca 203e 54e1 97bd afbc 273e
00000020: 27f4 d5bf 0a7e 263e afc2 e33d f01b a33f
00000030: 64ed e9bf 2e7f 98bf 62fd 6cbd 0406 32be
00000040: 7175 2fbd a0c4 d0bd c9aa 2e3c 5fff 22bd
00000050: 8a34 ef3f b62b a03f 5ed9 adbd 36f5 1bbe
00000060: fa2a 34bf 660c 6d3f 40bd 9cbd f3a5 bbbd
00000070: 9106 6cbc 280e 60bd 6f75 863c 233f cc3c
00000080: 54c0 a9be 29d2 fdbf e4f7 b53b c399 773d
00000090: a3ca 383f 0d82 5a3d 0b0a bfbd 143b 22be
000000a0: ace6 49be 9ce1 043f 080b e83c 6146 cc3c
000000b0: 869f c7be eba8 b33f 59d5 dd3c 87bb 263e
000000c0: 5f21 11be 879a 3bbf 2c42 333e f50d 2ebe
000000d0: d0e7 25be 6059 21be 513f d83c 4f91 13bc
000000e0: ae17 eebf c097 8abf fdb0 733e c87e 6d3d
000000f0: 4dd0 2b3f e67c cabe c008 733e 280f 3fbd
00000100: 93c3 cabd 7170 22bc 04b9 c2bc e900 df3c
00000110: 4987 40bf 8721 dcbf fc6e 2e3b 0093 3f3d
00000120: 3b5f 203f 3fd6 55bf 5b80 4e3c ead1 31be
00000130: d613 6fbe 9ba0 a03e 1b8b ee3c 9d61 c0bc
00000140: 80e2 2140 2a3f a23f a833 83be a8d4 04bf
00000150: f368 9c3e 2e60 c7be ef1a 5d3e 5525 13bf
00000160: 5ae2 d03d dae6 ec3e 648b d03c 7989 73bd
00000170: b4e7 1dc0 3c5b 02c0 62af 81bf 2e2d 0bc0
00000180: f106 24be 8e73 1dbf a202 b6bd 19d0 183e
00000190: d838 993d 1d5f a3bd 2b2e 833b 2413 ba3b
000001a0: dbd3 503f eb7d 10c0 f717 81be 50d9 69bf
000001b0: 1e23 23bf 1b27 bdbe bab0 673e 1d7e e9be
000001c0: 0bb9 34be 7bf5 1abe d90b 5bbd 0926 3c3a
000001d0: 529c 8f3f 7db2 e4bf d25c 0d3f 8dea 9ebe
000001e0: b47c 9dbf 3d49 18bd 4bca eabc fe00 983e
000001f0: 968e 89bd db3f f4bd 5820 11bd 2a86 753b
00000200: d250 cc3f 4221 35c0 7095 7cbd c941 76be
00000210: 082a 7abf 2cd0 06bd b28f 75be 8d2e 9e3d
00000220: 66cb 113d a018 80be 6ac1 74bb c857 f3bb
00000230: e40d a43f 6c08 dcbf 2373 943e bf42 7ebe
00000240: f466 a5be 9106 ab3e ce09 a23b 17d1 12bd
00000250: 283b 5c3d f53b 253e 0a3d c73b 54ce b43b
00000260: fa78 133f c41e 35c0 df9d 24bf 0de1 af3e
00000270: 6c30 c73e a174 2dbe 643a 8f3c 67ff 49be
00000280: 8924 92bc f1cc b73d af5b f0bc a39e e0bc
00000290: d752 e3bf 47ff c83f 3f8a cc3e 7bce 92bf
000002a0: 9358 f8bf 1de2 913d 1f34 793d 7eec e7bd
000002b0: 8e24 fd3b 0605 a13e 1489 693c 4dfa 5c3b
000002c0: 7389 18c0 c170 10c0 2d82 c3bc ef69 d8be
000002d0: 2f50 b43f bd48 2d3f f639 843d d4f0 01be
000002e0: 8fe9 423d 593d 47bd 05a3 8dba e651 903b
000002f0: 1f2d d3bf 85ff babf ae6d 533e 3b11 503e
00000300: a6c7 4abc b7eb 80bf f1b0 e03d 02a0 723e
00000310: 5d6b cfbc 9728 323e 340e 903a dae4 e23b
00000320: e58a f5bf 5e42 423f 2170 063f 3b46 813f
00000330: 8db8 1abf 4d82 36bf 985c bd3d 16e4 873e
00000340: 2049 1bbe ec2b a33e 6f00 9fbc dd2f 8bbc
00000350: da1b 32bf 6b57 0140 c5c7 0f3f 3c29 e83e
00000360: 17f1 eabf 3054 5fbf f1a3 893d 0ddf 54be
00000370: a410 17bb 2842 043f 9f56 18bc d444 bdbb
00000380: 87ee 03c0 e99a debf 1626 3dbf 64de 98bf
00000390: 0252 543f 84a5 9dbf 813a 7bbc 9569 b13c
000003a0: b8c9 83bd 6771 87bd 272d ebbc 6bd3 723d
000003b0: cb7c 59bd 6b12 ac3f 671a f9bb cd14 d2be
000003c0: 646e 7d3f a724 20bf 2171 ff3d 9e09 69be
000003d0: ba46 2f3f 3b4b b4bd e29c be3b 1f41 4dba
000003e0: c189 a93f d4a6 1fc0 000a 733f 9ea4 90bf
000003f0: b2af 843f a31c 4dbe fce9 353e 0908 0f3e

a2c_network.actor_mlp.0.bias f4 [64]
0.06946666 0.5148038 0.015938845 -0.33716917 -0.4870521 -0.5754727 0.58129376 0.15292977
0.24840985 -0.3106925 0.35065937 -0.4635404 -0.31711152 -0.1031602 0.26783186 -0.02845234
-0.37037167 0.48392606 -0.089752935 0.122198746 0.17145096 0.70652646 -0.006421787 -0.10706048
-0.30540863 0.44911465 -0.32177898 0.09369258 -0.037593957 0.19430755 0.13003571 0.4867074
0.33844426 0.5098236 -0.39691517 0.4420664 -0.42883125 -0.21433331 0.25342202 0.69611067
-0.41817853 0.39321613 -0.43635127 0.094230674 0.49494067 0.03560525 -0.3467355 0.1446207
0.25495312 -0.17345536 0.33436906 0.6248953 0.85634667 -0.56612176 -0.257528 -0.23470286
0.37994608 0.11348272 -0.37734908 0.15233147 0.6178274 0.27568758 -0.4572341 0.5888572
00000000: 8944 8e3d 2fca 033f 2e92 823c 70a1 acbe
00000010: e55e f9be 2e52 13bf abcf 143f 9f99 1c3e
00000020: 275f 7e3e 1613 9fbe a089 b33e 2b55 edbe
00000030: 715c a2be a845 d3bd 4221 893e e214 e9bc
00000040: 5ba1 bdbe 28c5 f73e 63d0 b7bd 5643 fa3d
00000050: d790 2f3e ebde 343f db6d d2bb 8642 dbbd
00000060: 855e 9cbe 5bf2 e53e 37c0 a4be e5e1 bf3d
00000070: 1ffc 19bd 8ff8 463e 1528 053e b631 f93e
00000080: 9148 ad3e cd83 023f 7738 cbbe 8756 e23e
00000090: c58f dbbe 317a 5bbe 88c0 813e 4f34 323f
000000a0: 7f1b d6be a053 c93e 6f69 dfbe 03fc c03d
000000b0: dd68 fd3e d0d6 113d 5187 b1be 7317 143e
000000c0: 3789 823e 489e 31be 6c32 ab3e 23f9 1f3f
000000d0: 8939 5b3f 5bed 10bf b6da 83be f255 70be
000000e0: 4b88 c23e a169 e83d e633 c1be c8fc 1b3e
000000f0: f029 1e3f ec26 8d3e 971a eabe 58bf 163f

a2c_network.actor_mlp.2.weight f4 [64, 64]
0.13525382 -0.360011 2.3728054 -1.1309845 0.319764 0.015003839 -0.22987206 0.51514316
0.61852056 0.7663145 1.2008427 0.22722742 0.7414566 -0.97349745 1.4540046 1.9489111
-0.8214656 -0.6443896 0.65855396 -0.8687416 0.6749798 0.74852574 1.2477715 0.014619282
0.6397224 0.78031284 0.27194947 1.5550202 1.4062369 -0.03500838 -0.10038444 -0.15457171
0.9137935 0.11978692 -0.23237573 -0.2923778 -1.388979 0.72289413 0.91696656 0.1335787
0.30463105 1.0857457 0.9975935 0.7080205 -0.34073383 -0.84863037 -0.8867176 0.15915683
0.9300162 -0.7935336 0.90498555 -0.6482655 0.44663402 0.70205534 1.45998 -0.33996847
-0.3220977 0.90088075 1.1013167 0.89803654 0.41385904 -1.0953149 -0.92239946 1.7380515
0.2544444 -0.06360926 -1.1967984 2.1677587 -0.024726668 0.4307308 -0.0052796057 -0.18043175
-0.40673646 -0.12303481 -0.80700916 0.41326374 -0.26710513 -0.24422356 -1.0587138 -1.0510015
1.0582008 0.104488224 0.043913182 -0.14914814 -0.27487788 -1.608876 0.4141215 -0.6310434
-0.45139447 -1.6137965 0.21744592 -0.59515834 -0.4885944 0.3564399 0.33350012 -0.1428575
-0.5055035 -0.8861255 0.054403603 0.08101008 1.4241499 0.08785816 -1.350905 -0.30715486
0.107021526 -1.0771538 -0.48961326 -0.6781285 -0.054160055 0.11715744 1.0431688 0.22612107
-0.38259017 0.08284115 -0.3703856 0.45659053 -0.8406233 -0.6558856 -0.61338854 1.0326874
-0.18178286 0.10800832 -0.16542907 -0.43516368 -0.22334056 0.65476155 0.25587592 -1.8846837
0.29636502 -0.6815303 0.6004256 -0.33577332 0.20211232 0.564212 -0.23739177 -0.09553277
0.03000758 0.09195643 -0.17821252 0.013459562 0.2635599 -0.18973427 0.20538688 1.0125264
-0.36832634 -0.18712305 -0.06845216 -1.1833104 -0.3619258 0.065580234 0.3203741 0.33956727
0.64352703 -0.03937346 -0.70497847 0.0588499 0.07443664 -0.210442 -0.12872103 -0.401704
-0.17048684 -0.110380016 -0.1618675 -0.28653187 -0.40606353 0.648444 0.21301433 -0.3411561
0.0980529 -0.033068337 0.6795089 0.15440623 -0.36763567 -0.36833212 -0.1820195 -0.07039103
-0.40302625 -0.2878152 -0.17585433 -0.45097017 -0.04744112 0.80371004 0.6640499 0.18753798
-0.9955693 0.23523664 0.29768157 -0.09634925 -0.21024261 -0.67929417 -0.020940706 0.3443754
0.32194892 0.54773796 -0.049735747 -0.3918948 -0.036295865 -0.24183539 0.113990225 0.16779453
0.18656239 -0.021552598 0.31390932 -0.31486508 -0.06589579 -0.33123705 0.27420458 -0.27484655
0.09475416 0.35530248 0.2510917 0.09310623 0.21186405 -0.050238118 0.26482823 -0.1020758
-0.39610255 0.1436187 0.12007916 0.15350372 0.04678267 0.44742602 0.29252893 -0.091958374
0.3235038 0.22750777 -0.08235123 0.5183442 -0.012119437 -0.3403633 0.016855923 0.6212157
-0.40760902 0.23851566 -0.001786679 0.21993575 0.37817606 -0.46997523 -0.41714936 0.36220264
0.094731934 -0.46136293 0.17654492 0.028508415 0.1932575 -0.17565201 0.024580866 -0.3624097
0.37921137 0.32380927 0.100516275 -0.062175833 0.34887066 -0.048425462 -0.3987361 0.083534464
00000000: fa7f 0a3e 5d53 b8be 0bdc 1740 1ac4 90bf
00000010: 1bb8 a33e a9d2 753c 9563 6bbe 6ce0 033f
00000020: 5d57 1e3f 302d 443f 37b5 993f 4eae 683e
00000030: 1ad0 3d3f 2137 79bf d31c ba3f eb75 f93f
00000040: 924b 52bf b8f6 24bf fe96 283f d965 5ebf
00000050: 7acb 2c3f 629f 3f3f fab6 9f3f b785 6f3c
00000060: d9c4 233f 95c2 473f f63c 8b3e e70a c73f
00000070: 92ff b33f f264 0fbd 5b96 cdbd 0c48 1ebe
00000080: 5fee 693f d852 f53d e7f3 6dbe 8bb2 95be
00000090: 10ca b1bf 970f 393f 52be 6a3f dbc8 083e
000000a0: 9af8 9b3e b7f9 8a3f 4a62 7f3f d540 353f
000000b0: aa74 aebe d73f 59bf edff 62bf 02fa 223e
000000c0: 8b15 6e3f 0525 4bbf 22ad 673f baf4 25bf
000000d0: 37ad e43e e6b9 333f a0e0 ba3f 5910 aebe
000000e0: fde9 a4be 1fa0 663f f2f7 8c3f b9e5 653f
000000f0: 55e5 d33e 4733 8cbf 5f22 6cbf 7978 de3f
00000100: 8946 823e 9245 82bd b130 99bf 8fbc 0a40
00000110: 958f cabc bf88 dc3e 8b00 adbb 1ac3 38be
00000120: c33f d0be adf9 fbbd 2798 4ebf 4e97 d33e
00000130: 01c2 88be be15 7abe ef83 87bf 3887 86bf
00000140: 2073 873f ecfd d53d 4fde 333d 4aba 18be
00000150: cbbc 8cbe a6ef cdbf bc07 d43e 0f8c 21bf
00000160: 2d1d e7be e290 cebf 25aa 5e3e 4c5c 18bf
00000170: 0c29 fabe 4a7f b63e 87c0 aa3e 3d49 12be
00000180: ad68 01bf 1fd9 62bf 50d6 5e3d 9de8 a53d
00000190: 8b4a b63f fbee b33d 74ea acbf 6743 9dbe
000001a0: 1a2e db3d 2de0 89bf 97ae fabe d499 2dbf
000001b0: efd6 5dbd 3df0 ef3d 8e86 853f 488c 673e
000001c0: dce2 c3be 9fa8 a93d 2ea3 bdbe 3cc6 e93e
000001d0: 1733 57bf 1ee8 27bf 0807 1dbf 1a2f 843f
000001e0: 4925 3abe 7733 dd3d 3d66 29be c6cd debe
000001f0: 63b3 64be 749e 273f 2b02 833e 513d f1bf
00000200: 28bd 973e c578 2ebf 7eb5 193f 7bea abbe
00000210: 88f6 4e3e 3370 103f d416 73be afa6 c3bd
00000220: 75d2 f53c a753 bc3d 587d 36be 7f85 5c3c
00000230: 53f1 863e b349 42be f050 523e 779a 813f
00000240: 4595 bcbe 2f9d 3fbe a530 8cbd b776 97bf
00000250: 574e b9be ee4e 863d 1308 a43e c3db ad3e
00000260: 30be 243f 1146 21bd 7879 34bf 980c 713d
00000270: 3d72 983d 1c7e 57be 72cf 03be 26ac cdbe
00000280: 1a94 2ebe eb0e e2bd 98c0 25be 4eb4 92be
00000290: 8fe7 cfbe 6d00 263f 6e20 5a3e 03ac aebe
000002a0: f5cf c83d aa72 07bd 4cf4 2d3f ab1c 1e3e
000002b0: be3a bcbe 0796 bcbe 5263 3abe 2c29 90bd
000002c0: 7559 cebe 845c 93be 2813 34be 90e5 e6be
000002d0: 9f51 42bd f1bf 4d3f 2dff 293f f509 403e
000002e0: a1dd 7ebf e0e1 703e b869 983e c152 c5bd
000002f0: d749 57be 39e6 2dbf d88b abbc f951 b03e
00000300: 7dd6 a43e 8e38 0c3f b6b7 4bbd 6fa6 c8be
00000310: f9aa 14bd b2a3 77be b573 e93d 54d2 2b3e
00000320: 360a 3f3e 138f b0bc b9b8 a03e ff35 a1be
00000330: 5ff4 86bd e797 a9be 8b64 8c3e b0b8 8cbe
00000340: 780e c23d 35ea b53e 178f 803e 7bae be3d
00000350: e4f2 583e 7cc6 4dbd 9197 873e 1e0d d1bd
00000360: f4cd cabe c810 133e 10ec f53d 1430 1d3e
00000370: 2f9f 3f3d 0615 e53e 5ac6 953e ac54 bcbd
00000380: 4aa2 a53e ccf7 683e c3a7 a8bd 35b2 043f
00000390: 9a90 46bc 1944 aebe 6f15 8a3c fe07 1f3f
000003a0: 21b2 d0be 733d 743e 002f eaba d636 613e
000003b0: 4ba0 c13e 98a0 f0be 9a94 d5be a072 b93e
000003c0: d102 c23d c337 ecbe 31c8 343e 7b8a e93c
000003d0: 4be5 453e 1fde 33be d05d c93c c48d b9be
000003e0: fe27 c23e 54ca a53e 7adb cd3d 16ac 7ebd
000003f0: 2d9f b23e c759 46bd 2327 ccbe 1e14 ab3d

a2c_network.actor_mlp.2.bias f4 [64]
0.60064983 -0.44831336 -0.090739936 0.48698455 0.056481637 -0.079767756 -0.019611089 0.26494884
-0.03141413 -0.16977228 -0.67704165 -0.22741358 -0.15578267 -0.12795329 -0.4561873 0.05008786
0.37352964 0.3197352 -0.34155497 -0.4234762 -0.057947632 0.17309734 -0.04023178 -0.107469864
0.057848535 -0.47096562 0.0777581 0.24628176 -0.21489674 0.10663436 -0.22409624 -0.061686426
-0.6125678 0.34142646 -0.43046454 -0.0007126433 -0.8998181 0.37948108 -0.19855124 -0.115690924
0.14146319 0.017978575 -0.47735846 -0.17244929 -0.14796637 -0.45330444 -0.7865152 0.56556636
-0.3886111 -0.35500407 0.1937028 0.43637118 -0.18437776 0.4630756 -0.13639948 -0.12763797
-0.12938078 -0.19248126 0.06778505 0.42233893 0.18168217 0.505018 -0.29467976 -0.03738695
00000000: 30c4 193f 5489 e5be dcd5 b9bd 0a56 f93e
00000010: 4a59 673d 475d a3bd 6fa7 a0bc 60a7 873e
00000020: 1aac 00bd c9d8 2dbe 9a52 2dbf 1bdf 68be
00000030: 7e85 1fbe 3006 03be 6291 e9be ee28 4d3d
00000040: 473f bf3e 55b4 a33e 4be0 aebe dfd1 d8be
00000050: 7f5a 6dbd 6e40 313e 14ca 24bd 2919 dcbd
00000060: 96f2 6c3d 6822 f1be a43f 9f3d 4931 7c3e
00000070: e40d 5cbe 1e63 da3d 7c79 65be e8aa 7cbd
00000080: 3ed1 1cbf 73cf ae3e d965 dcbe afd0 3aba
00000090: 7b5a 66bf 584b c23e 0451 4bbe 5def ecbd
000000a0: badb 103e ce47 933c 5468 f4be 8c96 30be
000000b0: 7f84 17be 8517 e8be 0f59 49bf f5c8 103f
000000c0: 09f8 c6be 18c3 b5be 075a 463e 0b6c df3e
000000d0: 86cd 3cbe 3f18 ed3e 4eac 0bbe 87b3 02be
000000e0: 657c 04be cf19 45be e3d2 8a3d cf3c d83e
000000f0: e40a 3a3e dc48 013f 44e0 96be 0f23 19bd

a2c_network.value.weight f4 [1, 64]
1.3239172 -1.1398921 -0.8475082 0.5517388 -0.74750614 -1.176746 -1.0653015 0.29994664
0.14898081 -0.4707117 -1.6919099 -0.8277344 -0.6006964 -0.82076806 -1.6659214 -0.098691106
0.63169485 0.8936932 -1.1903048 -0.5781588 -0.69519514 0.36223608 -0.03953192 -0.25685406
-1.1584929 -1.0917233 0.55158365 0.27769485 -0.404335 0.48694944 -1.0738671 -1.0101548
-1.1078191 0.40311307 -0.61440337 -0.6610644 -3.0823476 0.60606724 -0.71934676 1.0232767
0.8571244 -0.80857 -1.2162588 -0.74290913 -0.854148 -1.2923108 -2.4328573 1.3054005
-0.9995454 -0.7376766 0.96205086 0.8402192 -0.5711328 0.55177164 -0.41781586 -0.2608596
-0.30109578 0.23293771 0.783781 0.7292955 0.35611147 1.0319731 -0.3700871 -0.8837888
00000000: 1e76 a93f fce7 91bf 4cf6 58bf c13e 0d3f
00000010: 905c 3fbf 9d9f 96bf cd5b 88bf 9b92 993e
00000020: 6d8e 183e 2001 f1be 8190 d8bf 67e6 53bf
00000030: 3dc7 19bf db1d 52bf ea3c d5bf 901e cabd
00000040: c1b6 213f 14c9 643f e85b 98bf 3702 14bf
00000050: 4ff8 31bf 0277 b93e 39ec 21bd 6082 83be
00000060: 7f49 94bf 97bd 8bbf 9634 0d3f 052e 8e3e
00000070: ff04 cfbe 7051 f93e 7a74 89bf c14c 81bf
00000080: 04cd 8dbf d664 ce3e 8a49 1dbf 843b 29bf
00000090: 2f45 45c0 3927 1b3f 1c27 38bf bbfa 823f
000000a0: 816c 5b3f 72fe 4ebf 5eae 9bbf 4b2f 3ebf
000000b0: 71a9 5abf 716a a5bf efb3 1bc0 5d17 a73f
000000c0: 35e2 7fbf 60d8 3cbf f748 763f 9b18 573f
000000d0: c235 12bf e840 0d3f f6eb d5be 648f 85be
000000e0: 3a29 9abe 3987 6e3e dfa5 483f 1cb3 3a3f
000000f0: 3e54 b63e b217 843f 0e7c bdbe fc3f 62bf

a2c_network.mu.weight f4 [4, 64]
-0.07173983 -0.06088686 0.028998476 0.20425485 0.07936753 0.0237129 0.11452948 -0.20526277
0.2866207 0.15243146 0.058952197 0.021356838 0.065164976 -0.42420876 0.14530548 0.03029313
-0.04155035 0.1319668 -0.014504744 0.036563043 0.047595583 0.44262323 0.21859406 1.0314548
-0.11578619 -0.037289016 0.0016538718 -0.09929043 0.04602283 0.129089 0.015484839 0.121364936
-0.046846002 -0.117312804 0.17887585 -0.052443124 -0.18533213 -0.13049972 0.045710854 0.032808248
0.042226095 0.07535319 0.20201863 0.42700264 0.038185496 0.059767134 0.085956745 0.04779664
0.199788 0.10255123 -0.08156436 -0.034153566 -0.16045028 0.015891671 0.05296279 -0.004898398
-0.41590852 0.5731204 0.34172353 -0.22333223 -0.021391809 -0.027856885 -0.0017626091 -0.061680224
-0.19515467 0.013172773 -0.06469212 0.19218387 -0.085602544 -0.0022685763 0.052785728 0.07516878
0.176561 0.3033594 -0.065630026 0.26100293 -0.070641406 0.19266684 0.2284133 0.19570935
0.08402912 0.3160517 -0.11136141 -0.22295868 -0.03291508 0.27371058 0.37825868 0.06266327
0.07164258 -0.07535799 -0.33568338 0.0701808 -0.23473665 -0.07579049 -0.13401805 -0.10035204
0.12362466 0.026391901 -0.4111621 0.20146231 -0.21226615 -0.09258675 0.018110698 -0.071800165
0.050124332 0.23822941 0.11693583 0.40040913 -0.122823395 0.21046372 -0.41861096 -0.05539805
-0.05382511 0.057768743 -0.0054667005 -0.07995957 -0.13354687 0.13834003 -0.10173274 -0.3475804
0.49076745 -0.42994297 -0.304917 0.09683806 0.22714345 0.0048896377 -0.29939634 0.089579314
0.019464511 -0.03900906 0.011328088 0.01557336 -0.00057771965 0.030736892 0.014840969 -0.05827243
0.016349228 0.019986194 0.04514196 -0.14911956 -0.041022908 0.05518256 -0.09496545 -0.04237183
-0.07382678 0.06721025 0.07353161 -0.02653441 -0.09365474 0.05209476 0.08918569 0.20045495
0.022402404 0.08112992 -0.11198406 -0.0699614 0.0076072062 0.060210526 -0.014621221 0.12730472
-0.0006048814 -0.03241006 -0.06686029 -0.015765589 -0.0033316838 -0.033273213 0.026130019 0.042832058
-0.027087847 -0.0136255715 0.010109684 0.113365754 -0.12409737 -0.1634709 -0.04822683 -0.03963772
-0.08099601 0.052548368 -0.0069496753 0.014077929 0.026971137 0.08384045 -0.09671162 -0.043546397
0.06270873 0.073637314 -0.03915686 0.031622786 0.04071244 0.021221915 -0.086398445 0.01786738
-0.031913474 0.040450674 -0.062998734 -0.035572816 0.023085829 0.065228745 0.104884766 0.060285855
-0.10968238 0.08510377 0.049286976 -0.07284305 -0.0049059275 0.07251529 -0.039222084 -0.0027501404
-0.112154186 0.09924373 0.0070656035 -0.075192355 0.012039105 0.07748465 -0.02597833 -0.042988904
0.011409943 0.07211406 -0.0149102425 0.025379192 0.118882746 0.09099341 0.05522124 0.082471594
-0.024094772 -0.035639424 -0.20307411 0.04474431 0.054937627 0.024627797 -0.08931202 0.017125145
-0.02308742 -0.07375959 0.0009849194 0.04235093 -0.022699963 -0.024924953 -0.043101486 -0.08886409
0.09031867 -0.060802143 0.05529826 0.0069063134 0.016944371 0.053874098 -0.08538304 -0.0021565536
0.040705346 -0.004718959 -0.0282891 0.071484685 -0.082570024 0.005214866 -0.02676271 0.052815832
00000000: 55ec 92bd 8064 79bd 368e ed3c 2f28 513e
00000010: 728b a23d 8e41 c23c 6f8e ea3d 6730 52be
00000020: f3bf 923e fe16 1c3e dc77 713d 89f4 ae3c
00000030: 3775 853d e431 d9be f6ca 143e 4c29 f83c
00000040: b330 2abd 4e22 073e 4ea5 6dbc 21c3 153d
00000050: 96f3 423d 839f e23e 1fd7 5f3e b606 843f
00000060: 4f21 edbd 5ebc 18bd bbc6 d83a c858 cbbd
00000070: 6f82 3c3d e82f 043e 1fb4 7d3c 2e8e f83d
00000080: 98e1 3fbd b241 f0bd 3b2b 373e 9ace 56bd
00000090: b5c7 3dbe b8a1 05be 4e3b 3b3d f161 063d
000000a0: 45f5 2c3d c652 9a3d f9dd 4e3e 17a0 da3e
000000b0: 6568 1c3d 62ce 743d 170a b03d 69c6 433d
000000c0: 3a95 4c3e 6106 d23d 370b a7bd 9ce4 0bbd
000000d0: 144d 24be 402f 823c 83ef 583d be82 a0bb
000000e0: f6f1 d4be 05b8 123f 63f6 ae3e 34b1 64be
000000f0: e03d afbc 1f34 e4bc 5907 e7ba 67a4 7cbd
00000100: a0d6 47be 9dd2 573c 4d7d 84bd d9cb 443e
00000110: 6350 afbd 65ac 14bb d935 583d 17f2 993d
00000120: 68cc 343e ec51 9b3e 0969 86bd 2da2 853e
00000130: 71ac 90bd 754a 453e 2de5 693e 0868 483e
00000140: 7617 ac3d 87d1 a13e 7311 e4bd 484f 64be
00000150: f7d1 06bd cb23 8c3e 1fab c13e 9a55 803d
00000160: 58b9 923d 4a55 9abd b1de abbe f4ba 8f3d
00000170: ce5e 70be 0b38 9bbd 073c 09be 5f85 cdbd
00000180: ed2e fd3d d433 d83c d783 d2be 234c 4e3e
00000190: 4c5c 59be 1f9e bdbd e35c 943c f70b 93bd
000001a0: 2c4f 4d3d 69f2 733e 0d7c ef3d 6d02 cd3e
000001b0: d58a fbbd cd83 573e 2d54 d6be 11e9 62bd
000001c0: b877 5cbd eb9e 6c3d 0222 b3bb d8c1 a3bd
000001d0: 83c0 08be 02a9 0d3e 4159 d0bd 0ff6 b1be
000001e0: df45 fb3e 7c21 dcbe 151e 9cbe 0853 c63d
000001f0: 4b98 683e 4139 a03b 7a4a 99be 5c75 b73d
00000200: 0a74 9f3c f7c7 1fbd 7299 393c 6827 7f3c
00000210: 1c72 17ba efcb fb3c 8927 733c 12af 6ebd
00000220: d1ee 853c 16ba a33c c7e6 383d ccb2 18be
00000230: a307 28bd 1c07 623d 3f7d c2bd 168e 2dbd
00000240: 7f32 97bd 87a5 893d be97 963d b15e d9bc
00000250: 0ece bfbd 5161 553d fda6 b63d 1044 4d3e
00000260: 3f85 b73c 7227 a63d e657 e5bd ec47 8fbd
00000270: df45 f93b 509f 763d d98d 6fbc 2b5c 023e
00000280: e790 1eba 69c0 04bd 0cee 88bd d626 81bc
00000290: 6158 5abb 7e49 08bd 9f0e d63c ab70 2f3d
000002a0: 55e7 ddbc ca3d 5fbc 17a3 253c 4e2c e83d
000002b0: c326 febd ea64 27be 7f89 45bd 295b 22bd
000002c0: 3ce1 a5bd f53c 573d 1aba e3bb 1da7 663c
000002d0: 93f2 dc3c 8bb4 ab3d be10 c6bd b55d 32bd
000002e0: 6f6d 803d 29cf 963d f262 20bd e586 013d
000002f0: 16c2 263d 95d9 ad3c abf1 b0bd 9d5e 923c
00000300: b4b7 02bd 9baf 253d 7b05 81bd cdb4 11bd
00000310: 7e1e bd3c a696 853d d3cd d63d 4dee 763d
00000320: 28a1 e0bd e34a ae3d 24e1 493d bd2e 95bd
00000330: e7c1 a0bb e582 943d 56a7 20bd b33b 34bb
00000340: 18b1 e5bd 4c40 cb3d 9486 e73b 73fe 99bd
00000350: ab3f 453c 46b0 9e3d 82d0 d4bc 2215 30bd
00000360: c5f0 3a3c 89b0 933d 174a 74bc 06e8 cf3c
00000370: cc78 f33d c15a ba3d ab2f 623d dee6 a83d
00000380: 6662 c5bc a5fa 11bd a9f2 4fbe cf45 373d
00000390: 4706 613d 3cc0 c93c 38e9 b6bd 084a 8c3c
000003a0: d421 bdbc 450f 97bd 6918 813a 2b78 2d3d
000003b0: 46f5 b9bc 6a2f ccbc 2f8b 30bd 60fe b5bd
000003c0: fff8 b83d ab0b 79bd 6e80 623d 5b4e e23b
000003d0: ecce 8a3c 16ab 5c3d 4edd aebd f754 0dbb
000003e0: a6ba 263d 7fa1 9abb 8bbe e7bc 9066 923d
000003f0: 791a a9bd 77e1 aa3b 793d dbbc 6a55 583d

a2c_network.mu.bias f4 [4]
0.014464433 0.11918792 0.038993042 -0.05564074
00000000: 3bfc 6c3c cc18 f43d 2bb7 1f3d 8be7 63bd

exp_avg f4 [4]
-0.00052989443 -0.000950399 0.00027338043 0.00028198224
00000000: 9de8 0aba 3224 79ba 8054 8f39 04d7 9339

exp_avg_sq f4 [4]
9.088302e-07 1.3177028e-06 6.155942e-07 5.911663e-07
00000000: 56f6 7335 ecdb b035 503f 2535 a4b0 1e35

exp_avg f4 [64, 12]
-0.00011985051 -4.717351e-05 -0.00036767087 4.440996e-05 4.29483e-05 -0.00017313108 -0.00069325656 -0.00033964528
-9.021534e-05 -0.00019494559 3.9572104e-05 -1.0827393e-05 4.6045097e-05 -1.32290115e-05 0.0019913649 -0.0016601715
-0.00020056599 -1.0952243e-05 0.0003770968 0.00064755493 0.00013417107 0.0001575382 1.8866373e-05 -0.0010688335
1.152444e-06 4.666878e-05 -0.00053569063 0.00063250615 0.00017855212 0.0002269081 -7.225438e-05 7.2335206e-05
-1.6457363e-05 -5.287562e-05 0.0005230721 -4.215152e-05 4.7863545e-05 -0.000117331845 0.00024363486 0.000104763385
-1.0023717e-05 0.000113377566 -0.000118486925 -0.00016702524 7.252211e-05 -8.729365e-05 -5.259837e-05 0.00033206382
-1.9246329e-05 -8.10955e-05 7.742609e-05 -0.00013614983 1.0676487e-05 3.900739e-05 -0.00040513475 -8.5457286e-05
6.883885e-05 -0.00018631663 -6.665899e-05 8.3130304e-05 0.00042411065 0.00048973545 0.0011704426 0.0013167053
4.559207e-07 7.35031e-05 0.00038497162 -0.0001757272 0.0006073293 0.0003644807 -0.00059791066 0.0015134432
-3.376604e-05 -0.00016796279 0.0002835244 -0.00060357543 -2.3252924e-05 7.306018e-05 -7.6261575e-05 0.00021438787
-1.406911e-05 -8.222047e-05 0.00010960004 -0.00036349474 -6.383848e-05 -2.3318766e-05 -0.00036034654 -0.00015722169
2.2404502e-06 -7.55729e-05 -0.000219388 -0.0002717731 -6.238412e-05 -7.665763e-05 -3.8773964e-05 0.00025963492
-2.734653e-05 1.1902906e-05 0.00033341232 -0.00033026916 -7.266788e-05 -5.1429433e-05 -0.00087006495 0.00017555915
6.763378e-05 -0.00014573167 -0.00016564743 -4.9056973e-05 6.7583846e-05 2.6765636e-05 0.0005247285 -4.7640806e-05
-1.5365069e-05 -2.3931566e-06 -0.00039000495 -5.481801e-06 0.00019225001 -0.00013460297 -0.00011712378 0.00012300418
9.180015e-05 0.00034506884 0.00022896669 5.5445747e-05 -3.1352723e-05 -0.00021023421 0.0003034677 0.00038082458
3.6121826e-05 0.00033795403 0.00025557043 -0.0003819623 0.0003654875 0.00033501923 0.00166012 0.0006674225
1.199848e-05 0.00020372184 0.0004967763 3.645583e-05 0.00054257514 0.00032395753 8.701287e-05 0.0005444849
0.0002157888 0.00027934025 0.0006704501 0.0007833031 1.646062e-05 7.2525334e-05 -2.1602502e-05 2.411903e-05
0.000313389 0.00016883215 -0.00022290027 0.00058058713 -5.5015254e-05 -0.00020630723 -8.800691e-05 -0.0003021939
-0.00010500608 3.629262e-05 -8.075008e-06 -0.00019116244 -8.157678e-05 -0.00018430181 -0.0004565649 -0.00020754307
-4.6083305e-06 -1.2278223e-05 0.0003561848 -0.00047255142 -2.469211e-05 0.00013080546 0.00033283612 8.5855953e-07
2.0644298e-05 -1.5084223e-05 0.00012869076 -0.0003354321 -0.00047504506 -6.9617067e-06 -0.0045471666 0.0022811804
0.00033924344 -0.00028094472 -0.0018691143 -0.0008621224 -0.0006357144 -0.00051656074 0.00023980737 0.0010734693
-2.6330688e-05 2.039417e-05 0.00019011763 3.2330914e-05 -3.7852613e-05 -0.0001786152 -0.0002555347 -0.00012395016
-1.3322466e-06 -5.3417392e-05 -0.000109664885 6.1665596e-05 -0.00020190339 -9.358987e-05 -0.0003299348 -0.00065385265
-2.613222e-05 -0.00031244874 -0.00042710456 -6.8385525e-05 -0.00026405437 -0.0001313776 -0.00021581155 -0.00028745487
-3.4228455e-05 -0.00018773123 0.0008782096 -0.00078782643 -0.000108659886 0.00023411213 -2.3752424e-05 0.000105479565
6.424692e-05 -0.00017483837 -0.00013069088 -0.00022069701 -0.0003432234 -0.00040734402 -0.00063665805 -0.001438739
-8.972481e-05 -0.00029240682 -0.0015136239 -0.0003105465 -0.00030988178 -0.0005599072 -0.0004926744 -0.0005878807
1.7029153e-05 9.2671115e-05 0.0005712274 -0.00021594988 -0.0001065413 -0.00019095647 -0.0008049195 -1.6999735e-05
0.00012399742 -0.00014734443 -0.0002543452 0.00040090614 -0.00019505036 -5.7292636e-05 -0.00121822 -8.731131e-05
00000000: 4158 fbb8 2cdc 45b8 f3c3 c0b9 d544 3a38
00000010: 6323 3438 858a 35b9 a9bb 35ba 6b12 b2b9
00000020: fe31 bdb8 4f6a 4cb9 39fa 2538 4da7 35b7
00000030: 8c20 4138 2cf2 5db7 8f81 023b 1d9a d9ba
00000040: 064f 52b9 87bf 37b7 13b5 c539 adc0 293a
00000050: 46b0 0c39 d730 2539 3a43 9e37 1a18 8cba
00000060: adad 9a35 39be 4338 976d 0cba c5ce 253a
00000070: b839 3b39 2eee 6d39 4687 97b8 abb2 9738
00000080: eb0d 8ab7 c4c6 5db8 c61e 093a dacb 30b8
00000090: 17c1 4838 0e10 f6b8 3c78 7f39 6ab4 db38
000000a0: 892b 28b7 1ec5 ed38 2f7c f8b8 7f23 2fb9
000000b0: 0317 9838 6c11 b7b8 129d 5cb8 da18 ae39
000000c0: 2d73 a1b7 d111 aab8 d15f a238 71c3 0eb9
000000d0: 2a1f 3337 de9b 2338 4468 d4b9 8837 b3b8
000000e0: 945d 9038 fd5d 43b9 46cb 8bb8 3e56 ae38
000000f0: 2b5b de39 9761 003a 8969 993a 4c95 ac3a
00000100: 44c5 f434 ad25 9a38 04d6 c939 6943 38b9
00000110: 2e35 1f3a c517 bf39 1bbd 1cba ba5e c63a
00000120: 02a0 0db8 2b1f 30b9 00a6 9439 4339 1eba
00000130: 460f c3b7 e337 9938 9fee 9fb8 4ecd 6039
00000140: 5e0a 6cb7 c76d acb8 13d9 e538 7093 beb9
00000150: 06e1 85b8 ab9c c3b7 e5ec bcb9 e0db 24b9
00000160: a45a 1636 e47c 9eb8 850b 66b9 c57c 8eb9
00000170: 38d4 82b8 40c3 a0b8 3aa1 22b8 9c1f 8839
00000180: 3a66 e5b7 98b2 4737 d8cd ae39 fa27 adb9
00000190: 4565 98b8 efb5 57b8 1215 64ba 4d16 3839
000001a0: 9cd6 8d38 8ccf 18b9 a5b1 2db9 86c2 4db8
000001b0: cdbb 8d38 c486 e037 ef8d 093a edd1 47b8
000001c0: 3ce4 80b7 1e9a 20b6 9479 ccb9 50f0 b7b6
000001d0: b896 4939 3624 0db9 5aa0 f5b8 affa 0039
000001e0: d584 c038 5bea b439 c716 7039 6b8e 6838
000001f0: bb80 03b8 5172 5cb9 bf1a 9f39 69a9 c739
00000200: 8481 1738 6c2f b139 15fe 8539 1d42 c8b9
00000210: e79e bf39 85a5 af39 6298 d93a f7f5 2e3a
00000220: 144d 4937 2a9e 5539 183a 023a 26e8 1838
00000230: 9a3b 0e3a d8d8 a939 ae7a b638 c3bb 0e3a
00000240: 5d45 6239 6a74 9239 25c1 2f3a 9556 4d3a
00000250: ea14 8a37 be18 9838 0537 b5b7 3953 ca37
00000260: 5c4e a439 8908 3139 56ba 69b9 8b32 183a
00000270: 2ec0 66b8 2d54 58b9 5a90 b8b8 c76f 9eb9
00000280: b636 dcb8 e738 1838 e579 07b7 c772 48b9
00000290: 3314 abb8 2441 41b9 1b5f efb9 eb9f 59b9
000002a0: 42a1 9ab6 91fe 4db7 51be ba39 c7c0 f7b9
000002b0: e721 cfb7 d328 0939 8280 ae39 c377 6635
000002c0: 4b2d ad37 3f12 7db7 2af1 0639 efdc afb9
000002d0: 780f f9b9 9b98 e9b6 6600 95bb db7f 153b
000002e0: 7cdc b139 c34b 93b9 12fd f4ba 0e00 62ba
000002f0: 12a6 26ba ce69 07ba cd74 7b39 a7b3 8c3a
00000300: b9e0 dcb7 2614 ab37 505a 4739 0e9b 0738
00000310: efc3 1eb8 a74a 3bb9 49f9 85b9 9ef8 01b9
00000320: a5cf b2b5 7d0c 60b8 e3fb e5b8 7752 8138
00000330: 07b6 53b9 ae45 c4b8 19fb acb9 4f67 2bba
00000340: 8436 dbb7 29d0 a3b9 01ed dfb9 336a 8fb8
00000350: c770 8ab9 68c2 09b9 794b 62b9 8ab5 96b9
00000360: 8690 0fb8 b8d9 44b9 a637 663a 2386 4eba
00000370: 55e0 e3b8 ff7b 7539 f13f c7b7 e934 dd38
00000380: 4dbc 8638 d154 37b9 110a 09b9 e76a 67b9
00000390: aaf2 b3b9 ca90 d5b9 66e5 26ba 1294 bcba
000003a0: a42a bcb8 2e4e 99b9 ca64 c6ba d8d0 a2b9
000003b0: a177 a2b9 bcc6 12ba d226 01ba 021c 1aba
000003c0: d4d9 8e37 6d58 c238 6cbe 153a 9b70 62b9
000003d0: ed6e dfb8 7d3b 48b9 3c01 53ba a79a 8eb7
000003e0: 4e05 0239 7880 1ab9 a359 85b9 b630 d239
000003f0: 6f86 4cb9 804d 70b8 aeac 9fba e71a b7b8

exp_avg_sq f4 [64, 12]
7.873895e-07 3.303967e-06 2.2370052e-05 2.8791637e-06 6.6111977e-07 1.8347966e-06 1.2905677e-05 7.938431e-06
9.21236e-07 3.965421e-06 1.2795124e-05 7.4173813e-06 8.710015e-06 3.6783047e-05 0.0003285614 6.1525345e-05
6.889918e-06 2.7545397e-05 0.00014308939 9.266302e-05 9.778935e-06 6.531567e-05 0.00026587615 0.0002795191
5.6897916e-06 3.3270437e-05 0.0002736257 3.9117735e-05 5.4671345e-06 1.6462596e-05 8.985385e-05 5.986697e-05
6.636822e-06 4.0666102e-05 0.00014959958 8.0438265e-05 2.2100821e-06 1.8259791e-06 6.66477e-05 1.8127497e-05
2.7029234e-06 1.3386787e-05 2.058314e-05 2.009172e-05 2.2623085e-06 1.6380727e-05 5.2828465e-05 0.0002349524
8.4036463e-07 2.6094835e-06 2.6469379e-05 6.91453e-06 7.8268505e-07 2.841062e-06 9.728088e-06 7.5666935e-06
1.0425904e-06 4.6317664e-06 1.8185752e-05 3.3405162e-05 1.34427e-05 8.9175745e-05 0.00030150457 8.397385e-05
1.0685756e-05 3.6480622e-05 5.462653e-05 4.7897447e-05 1.8206876e-05 0.00011937525 0.00030174974 0.00018837553
1.519515e-06 8.267968e-06 5.226887e-05 6.8999043e-06 1.1592475e-06 4.16418e-06 1.5099541e-05 1.0551383e-05
1.7661507e-06 1.3761329e-05 5.975794e-05 3.023526e-05 4.2166124e-07 1.8483663e-06 1.4538818e-05 2.731652e-06
3.8441206e-07 1.0123958e-06 5.957878e-06 3.5710295e-06 4.5917267e-07 2.3148855e-06 5.9233375e-06 4.631985e-06
6.9217566e-07 1.5961144e-06 1.8843406e-05 3.0049064e-06 6.1193447e-07 1.7154105e-06 1.4454481e-05 9.789708e-06
6.7184254e-07 2.7688072e-06 1.077811e-05 1.1979358e-05 9.165705e-07 4.5570364e-06 2.2806644e-05 5.3147164e-06
8.538786e-07 2.3321843e-06 1.0941641e-05 8.336679e-06 1.012681e-06 5.4908833e-06 1.3437478e-05 1.087236e-05
3.1574086e-06 6.7807073e-06 0.00011987155 3.6740916e-05 2.6845219e-06 1.3148476e-05 4.5938963e-05 3.4042045e-05
3.508494e-06 1.6582082e-05 7.7646495e-05 0.00019383238 9.401122e-06 6.85869e-05 0.000307222 8.430931e-05
8.9425685e-06 3.0334435e-05 4.855224e-05 3.9015096e-05 1.1194152e-05 8.5894426e-05 0.00019234934 0.00016583192
4.6806304e-06 3.3824468e-05 0.00011670513 2.62334e-05 4.1193953e-06 1.3624511e-05 1.8316296e-05 1.5554158e-05
5.813834e-06 4.342159e-05 0.00014491078 5.2070092e-05 8.7619384e-07 2.8389607e-06 2.3688375e-05 2.72989e-06
6.8733664e-07 2.62932e-06 1.136869e-05 7.41395e-06 1.1662912e-06 4.740109e-06 1.23072205e-05 1.0530402e-05
8.286087e-07 2.7741482e-06 2.4614614e-05 4.572307e-06 8.390433e-07 2.0424766e-06 1.3671767e-05 8.231326e-06
8.562952e-07 3.7613447e-06 1.3172162e-05 1.0539719e-05 1.3430642e-05 4.4522516e-05 0.0006438272 0.00010532783
9.298791e-06 2.8827104e-05 0.00032969596 0.0001892451 1.5170433e-05 6.684261e-05 0.00033770042 0.00027599485
8.6695854e-07 4.9783243e-06 2.2885106e-05 4.0322416e-06 1.0328255e-06 2.4603628e-06 9.923653e-06 6.608317e-06
1.0369847e-06 5.036582e-06 1.47343e-05 8.474361e-06 6.678073e-06 3.772382e-05 0.00015607734 4.713442e-05
6.6577977e-06 2.6112664e-05 4.2188378e-05 3.4054592e-05 7.916462e-06 5.547328e-05 0.00011403173 0.00017474912
1.3636462e-06 3.3787833e-06 4.1568925e-05 8.206822e-06 1.4625552e-06 5.081138e-06 2.1413836e-05 1.3095739e-05
1.5118402e-06 6.6859866e-06 2.1673124e-05 2.379431e-05 1.3299117e-05 8.271439e-05 0.0004750949 8.7822715e-05
1.1580128e-05 3.8726463e-05 0.00014300809 9.36637e-05 1.6173764e-05 0.00010870988 0.00035724012 0.00020903749
1.4588403e-06 2.5291022e-06 4.849556e-05 7.5302296e-06 9.065424e-07 2.8900533e-06 3.0452195e-05 2.09552e-05
1.4894235e-06 4.7139138e-06 2.1441581e-05 2.6553957e-05 2.5859167e-06 7.5720195e-06 8.4922365e-05 3.4754696e-05
00000000: ff5c 5335 b9b9 5d36 52a7 bb37 a837 4136
00000010: ce77 3135 2243 f635 7685 5837 4d2f 0537
00000020: db4a 7735 b50e 8536 a4aa 5637 d2e2 f836
00000030: 3b21 1237 7f47 1a38 c442 ac39 2b07 8138
00000040: f22f e736 4a11 e737 440a 1639 1454 c238
00000050: 3510 2437 15fa 8838 4b65 8b39 6b8c 9239
00000060: f0ea be36 dc8b 0b38 6b75 8f39 5912 2438
00000070: 5472 b736 2819 8a37 eb6f bc38 ab19 7b38
00000080: deb1 de36 e590 2a38 d5dd 1c39 f7b0 a838
00000090: ec50 1436 2a14 f535 36c5 8b38 8110 9837
000000a0: df63 3536 d097 6037 f5a9 ac37 a48a a837
000000b0: 2ad2 1736 5869 8937 2294 5d38 8e5d 7639
000000c0: 6b95 6135 961e 2f36 8f0a de37 5c03 e836
000000d0: b519 5235 13a9 3e36 d235 2337 67e5 fd36
000000e0: 22ef 8b35 926a 9b36 9b8d 9837 851c 0c38
000000f0: f587 6137 dd03 bb38 4213 9e39 1e1b b038
00000100: f946 3337 c502 1938 ca1e 6538 7ee5 4838
00000110: f8ba 9837 1959 fa38 2a34 9e39 ac86 4539
00000120: 23f2 cb35 a7b6 0a37 463b 5b38 ba85 e736
00000130: 7197 9b35 09ba 8b36 0954 7d37 d805 3137
00000140: 7a0c ed35 75e0 6637 99a4 7a38 baa1 fd37
00000150: ae60 e234 6215 f835 bfeb 7337 6d51 3736
00000160: 3161 ce34 a8e1 8735 c8e9 c736 d2a5 6f36
00000170: 3684 f634 6e59 1b36 15c1 c636 736c 9b36
00000180: f3cd 3935 133a d635 e811 9e37 e6a7 4936
00000190: d143 2435 0e3d e635 8681 7237 7a3e 2437
000001a0: ab58 3435 bfcf 3936 a1d3 3437 f3fa 4837
000001b0: 3f0a 7635 a5e8 9836 e550 bf37 1155 b236
000001c0: 1736 6535 9f82 1c36 fe91 3737 c3dd 0b37
000001d0: 74eb 8735 543e b836 8771 6137 6e68 3637
000001e0: dee3 5336 d585 e336 8c63 fb38 421a 1a38
000001f0: bc27 3436 4698 5c37 96ae 4038 5ec8 0e38
00000200: 7873 6b36 c019 8b37 25d6 a238 7c3f 4b39
00000210: 83b9 1d37 50d6 8f38 a412 a139 37cf b038
00000220: 0a08 1637 b476 fe37 92a4 4b38 24a4 2338
00000230: 84ce 3b37 3822 b438 62b1 4939 2be3 2d39
00000240: 4f0e 9d36 bfde 0d38 97bf f438 cc0f dc37
00000250: 5639 8a36 d494 6437 f2a5 9937 4d7a 8237
00000260: 7414 c336 941f 3638 31f3 1739 d665 5a38
00000270: 9533 6b35 f984 3e36 66b6 c637 2733 3736
00000280: 6a81 3835 6073 3036 27bc 3e37 58c5 f836
00000290: 7689 9c35 3a0d 9f36 1c7b 4e37 bbab 3037
000002a0: 8e6d 5e35 812b 3a36 7b7b ce37 d16b 9936
000002b0: 9e3a 6135 7b11 0936 cb5f 6537 4719 0a37
000002c0: 28dc 6535 696b 7c36 01fe 5c37 c0d3 3037
000002d0: 2b54 6137 b0bd 3a38 83c6 283a 73e3 dc38
000002e0: 0102 1c37 bcd1 f137 0bdb ac39 1870 4639
000002f0: 8384 7e37 da2d 8c38 620d b139 67b3 9039
00000300: f0b8 6835 7b0b a736 64f9 bf37 b14c 8736
00000310: 9d9f 8a35 b61c 2536 c47d 2637 03bd dd36
00000320: 862e 8b35 e9ff a836 5633 7737 1a2d 0e37
00000330: 3614 e036 a539 1e38 b1a8 2339 33b2 4538
00000340: 0c66 df36 850c db37 6df3 3038 d7d5 0e38
00000350: f2d0 0437 fbab 6838 5224 ef38 dc3c 3739
00000360: 8706 b735 0ebf 6236 4b5a 2e38 08b0 0937
00000370: 044d c435 a57e aa36 dda1 b337 c5b5 5b37
00000380: 6fea ca35 3058 e036 aece b537 e499 c737
00000390: 461f 5f37 f376 ad38 2816 f939 762d b838
000003a0: 4548 4237 396e 2238 71f4 1539 516d c438
000003b0: e5ac 8737 2cfb e338 f54b bb39 1331 5b39
000003c0: 5fcd c335 a5b9 2936 b667 4b38 2eac fc36
000003d0: 1f59 7335 bdf2 4136 9773 ff37 f3c8 af37
000003e0: 34e8 c735 362c 9e36 72dd b337 30c0 de37
000003f0: b689 2d36 2713 fe36 5918 b238 92c5 1138

exp_avg f4 [64]
-0.0016176411 -0.0017529305 0.0033377178 0.00088583486 6.888692e-07 -0.00047874832 0.00032919756 -0.00075506023
-0.0012077711 -0.0005639617 -0.0012741453 0.00073230226 0.000487688 0.00021323186 0.0010962753 -0.00027615076
-0.0017390819 -0.0028894602 0.00091478083 -0.0039649303 -0.002466929 -0.0011857919 0.0021351038 -0.0051604593
0.0015389168 0.0011381076 0.0008872027 0.0011036542 0.0034423133 -0.002699687 -0.002566155 0.00025142278
-0.0011508714 -0.0016729203 0.000801521 -0.003470374 0.0001045823 0.0029253652 -0.00194589 -0.0031733068
0.00050655217 -0.002873779 0.0005669563 -0.0039428473 -0.003670649 0.0045915362 0.0014586153 -0.0031454894
0.0011355857 0.0056392057 0.0010373474 -0.0015957507 -0.0023675559 0.00035306995 0.002895193 0.0019302865
-0.0042060874 0.00019594053 0.000434608 -0.0002938128 -0.0020900466 -0.0008746701 0.0031907947 0.0010139967
00000000: 0707 d4ba 96c2 e5ba 9dbd 5a3b 5f37 683a
00000010: bbea 3835 8300 fbb9 2698 ac39 3cef 45ba
00000020: 134e 9eba d4d6 13ba 3901 a7ba f9f7 3f3a
00000030: 60b0 ff39 fe96 5f39 e5b0 8f3a 54c8 90b9
00000040: e8f1 e3ba 195d 3dbb e7cd 6f3a 3fec 81bb
00000050: 33ac 21bb 936c 9bba 19ed 0b3b 1219 a9bb
00000060: 7bb5 c93a 8e2c 953a 2a93 683a 7da8 903a
00000070: 6f98 613b 3bed 30bb f02c 28bb 65d1 8339
00000080: d6d8 96ba e445 dbba 2a1d 523a 376f 63bb
00000090: 3253 db38 7cb7 3f3b 3c0d ffba 41f7 4fbb
000000a0: 24ca 043a 0356 3cbb cb9f 143a 0033 81bb
000000b0: 458f 70bb 9974 963b 022f bf3a 8e24 4ebb
000000c0: efd7 943a 16c9 b83b 9af7 873a 8228 d1ba
000000d0: ff28 1bbb 3f1c b939 47bd 3d3b ab01 fd3a
000000e0: 38d3 89bb 6375 4d39 19dc e339 e30a 9ab9
000000f0: 2af9 08bb 1e4a 65ba a71c 513b 15e8 843a

exp_avg_sq f4 [64]
0.0001312547 0.0019004144 0.001139391 0.0008814793 0.00020169195 0.0024980116 0.00028172607 6.868433e-05
0.00011454211 0.0001618236 0.00091762026 0.0021382817 0.0009389134 0.00018652999 0.00013345186 0.0019548582
0.00017289781 0.0018448856 0.0003486316 0.002696918 0.0001988938 0.00086189515 0.0009526198 0.0016571792
0.0018789561 0.00033372908 0.0002910515 0.0003941713 0.0016162649 0.0005059713 0.0007709768 0.00050070486
0.0004136007 0.0010563054 0.0001357757 0.0022388883 0.00023328108 0.004288438 0.0006110045 0.0027654034
0.0011260515 0.0010680056 0.00048488795 0.0014803961 0.0035460824 0.000715177 0.00036941393 0.0011702178
0.00033986475 0.0013209245 0.00013060577 0.0011071227 0.0008270482 0.0024942097 0.0015696989 0.0013207663
0.004305965 0.0002865927 0.0012146932 0.0006749917 0.0013427563 0.0010344398 0.0004956981 0.00048318598
00000000: 6aa1 0939 5317 f93a 9e57 953a 1313 673a
00000010: 457d 5339 aeb5 233b a2b4 9339 9e0a 9038
00000020: 5436 f038 31af 2939 748c 703a 6a22 0c3b
00000030: 6921 763a 4397 4339 36ef 0b39 141d 003b
00000040: e74b 3539 17d0 f13a 8bc8 b639 c7be 303b
00000050: 268e 5039 cef0 613a 3cb9 793a b535 d93a
00000060: 4e47 f63a 5cf8 ae39 4598 9839 c7a8 ce39
00000070: dad8 d33a 29a3 043a 611b 4a3a bc41 033a
00000080: 8cd8 d839 ba73 8a3a 035f 0e39 50ba 123b
00000090: ea9c 7439 0686 8c3b d12b 203a c53b 353b
000000a0: 0598 933a 52fc 8b3a 8f38 fe39 da09 c23a
000000b0: 6465 683b b77a 3b3a e6ad c139 fe61 993a
000000c0: e02f b239 df22 ad3a 38f3 0839 e01c 913a
000000d0: 44ce 583a e575 233b 5bbe cd3a 901d ad3a
000000e0: 0d19 8d3b d241 9639 5736 9f3a edf1 303a
000000f0: 6dff af3a 0a96 873a bdf1 013a 2054 fd39

exp_avg f4 [64, 64]
0.0004465403 -0.00033976883 0.00016726798 0.00011172541 0.00032706207 0.00013026445 -0.0007475704 -0.0001527924
-0.00022224202 2.628883e-05 -0.00021346736 0.00026294132 -5.413995e-06 0.00019601684 0.00024323883 0.00013188309
0.000385957 -4.9438604e-05 0.00011879594 -0.00015830014 -0.00018110302 -0.0003096176 0.00039213678 -3.0649317e-05
0.00029722822 -0.00015351205 5.0920706e-05 0.00011117843 4.7555866e-05 0.00041834364 5.506114e-05 -0.000512795
-0.00023592306 -0.00030244028 0.00042119148 -0.00010832696 0.00045614992 2.6099677e-05 -5.474065e-05 -0.00033257104
0.00015328039 -0.00016856767 5.8309408e-05 0.00012207027 -0.0004386347 -0.0001895201 0.00019879985 0.00023357852
-0.00018456348 1.2300716e-05 -0.00017758981 -0.0006729793 -0.0002145593 0.00027516056 0.00016131498 -0.00028316455
0.00017255235 7.978651e-05 0.00030330935 -6.962013e-05 -0.00018910163 -0.0002784549 0.00014642779 -0.00018226751
-2.2069667e-05 -3.4190518e-05 1.8104245e-05 -8.6313486e-07 2.6063522e-05 3.204207e-05 -3.6285535e-05 4.427926e-05
2.4498382e-05 2.812942e-05 1.3701467e-05 3.5575056e-05 3.7283913e-05 2.0029356e-05 1.1893995e-05 8.890251e-06
-5.743739e-06 -6.0496386e-05 3.760233e-05 -9.204054e-06 2.7868553e-05 -1.8830993e-05 3.3467688e-05 1.6671669e-05
2.7487695e-05 -7.804621e-06 3.288879e-05 3.086168e-05 1.564312e-05 -2.9793791e-05 -2.8489843e-05 -2.739795e-05
2.3931649e-05 -1.9283618e-06 2.6750604e-05 -4.211258e-05 -5.507176e-06 2.7937696e-05 2.5997093e-05 -5.4410273e-05
3.1070307e-05 1.0230833e-05 3.3136293e-05 6.47413e-06 -4.8950005e-05 -1.0961124e-05 8.580941e-06 -1.0499121e-05
2.2140855e-05 1.7634891e-05 2.26486e-05 -6.5396314e-05 -4.015717e-05 4.7569956e-05 3.7363832e-05 -4.0798136e-06
-2.9046882e-05 5.1914384e-07 4.202753e-05 2.9471139e-05 -4.5863875e-05 -3.879797e-05 2.2246615e-05 -2.2199913e-06
5.411177e-05 -3.536392e-05 -1.2007342e-06 5.489529e-06 -5.6612607e-05 -2.9846311e-05 -8.179912e-06 -9.5877964e-05
-2.784392e-05 -7.2655595e-05 -3.4618722e-06 -1.145469e-05 5.266255e-06 -3.5627305e-05 -5.6245073e-05 2.5661843e-06
2.483786e-07 1.5404225e-05 -8.225915e-05 -1.4153713e-05 -6.603593e-05 -1.5752568e-05 -5.5171004e-05 -3.4178433e-06
1.1851162e-05 -1.8933751e-07 -2.8723132e-05 -2.0731512e-05 -2.74075e-05 3.0782572e-05 -1.4142998e-05 2.7612998e-06
-3.752116e-05 -4.4317625e-05 -3.846161e-05 2.5263378e-05 4.9475137e-05 1.1100346e-05 2.3839219e-05 -1.2681053e-05
1.673428e-05 -3.0352134e-05 -8.378048e-05 8.410491e-06 -1.43900015e-05 1.71594e-05 7.776196e-06 8.139759e-05
-3.456925e-05 1.2792888e-05 -6.249439e-06 4.3067623e-05 -2.7724539e-06 -1.2836401e-05 -1.8270226e-05 2.3605953e-05
-1.6825003e-06 -1.03238735e-05 1.3155676e-07 -1.0380068e-05 -2.5253192e-07 1.4035289e-05 -2.5573604e-06 1.5267908e-05
-0.00050717447 -0.00037571864 -0.0001048343 0.00025914217 0.0002891822 0.00042471764 -0.00027006087 -1.51471995e-05
-0.00025070965 0.00039455533 -0.00039696187 0.00022462159 0.00014038433 9.9332276e-05 -0.00041418226 -2.8823924e-05
-2.7303204e-05 -0.00057755335 3.3872853e-05 -7.262844e-05 -9.950883e-05 -0.00059625524 -0.00025082382 0.00011258168
5.220181e-05 -0.00040595062 0.00017507114 -0.00019774867 4.068526e-05 -0.00063985225 -0.00016950529 -0.00019468312
-0.0003248606 -0.0003625802 0.00024951523 -0.000465273 0.000120038734 0.00015039311 -0.00038084912 -0.0005933393
0.0001704835 -0.00059659913 0.00046719305 -0.00022760293 -0.00025361578 9.31418e-05 0.0002974598 -0.00045628453
-0.0001760296 0.0002478898 -0.0003364125 -0.00042426932 -0.00090826006 0.000110992776 9.997418e-05 0.00038619543
-0.0004361175 -0.00014971317 8.289666e-05 -0.00014410763 -0.0005928436 -0.00024730695 0.00038573542 -0.00056292245
00000000: a01d ea39 0023 b2b9 a864 2f39 1f4e ea38
00000010: 8779 ab39 9997 0839 9af8 43ba e636 20b9
00000020: a309 69b9 d586 dc37 35d6 5fb9 63db 8939
00000030: dda9 b5b6 df89 4d39 ed0d 7f39 194a 0a39
00000040: 465a ca39 4c5c 4fb8 1622 f938 5ffd 25b9
00000050: 79e6 3db9 2c54 a2b9 b597 cd39 748d 00b8
00000060: 4cd5 9b39 14f8 20b9 b193 5538 7728 e938
00000070: b976 4738 2255 db39 73f1 6638 176d 06ba
00000080: 1d62 77b9 d990 9eb9 5dd3 dc39 982d e3b8
00000090: 6827 ef39 a1f0 da37 5399 65b8 ee5c aeb9
000000a0: e4b9 2039 8ac1 30b9 4091 7438 faff ff38
000000b0: 8ef8 e5b9 eab9 46b9 ee74 5039 c2ec 7439
000000c0: 6287 41b9 2c5f 4e37 6737 3ab9 e06a 30ba
000000d0: 53fb 60b9 6d43 9039 a926 2939 b475 94b9
000000e0: 2bef 3439 0e53 a738 7e05 9f39 0601 92b8
000000f0: 9549 46b9 96fd 91b9 698a 1939 101f 3fb9
00000100: 4022 b9b7 ca67 0fb8 92de 9737 2db2 67b5
00000110: fda2 da37 e964 0638 4c31 18b8 7eb8 3938
00000120: e081 cd37 78f7 eb37 5adf 6537 6d36 1538
00000130: 4c61 1c38 b704 a837 528c 4737 5627 1537
00000140: 58ba c0b6 80bd 7db8 32b7 1d38 1c6b 1ab7
00000150: 43c7 e937 40f7 9db7 a85f 0c38 23da 8b37
00000160: 6095 e637 98f0 02b7 12f2 0938 7a71 0138
00000170: 5839 8337 aeed f9b7 79fd eeb7 a6d4 e5b7
00000180: d3c0 c837 0169 01b6 7c66 e037 0aa2 30b8
00000190: 48ca b8b6 bf5b ea37 5514 da37 9636 64b8
000001a0: 7d51 0238 18a5 2b37 d3fb 0a38 5a3c d936
000001b0: ab4f 4db8 abe5 37b7 dcf6 0f37 6225 30b7
000001c0: 20bb b937 a4ee 9337 80fd bd37 6125 89b8
000001d0: 6f6e 28b8 da85 4738 1cb7 1c38 55e5 88b6
000001e0: b4a9 f3b7 4b5b 0b35 b746 3038 ca38 f737
000001f0: f65d 40b8 01bb 22b8 3e9e ba37 29fb 14b6
00000200: 12f6 6238 b853 14b8 ea28 a1b5 b232 b836
00000210: 5373 6db8 775e fab7 743c 09b7 1712 c9b8
00000220: 5d92 e9b7 ad5e 98b8 8352 68b6 852d 40b7
00000230: c9b4 b036 876e 15b8 b0e8 6bb8 b636 2c36
00000240: e558 8534 5238 8137 8b82 acb8 bc75 6db7
00000250: c57c 8ab8 6224 84b7 6a67 67b8 1a5e 65b6
00000260: 5ad4 4637 b34c 4bb4 75f2 f0b7 95e8 adb7
00000270: 28e9 e5b7 891c 0138 b747 6db7 c54e 3936
00000280: 0a60 1db8 b0e1 39b8 d751 21b8 b1ec d337
00000290: 8683 4f38 9f3b 3a37 55fa c737 b5c0 54b7
000002a0: 9860 8c37 b69c feb7 4db3 afb8 c91a 0d37
000002b0: 966c 71b7 88f1 8f37 8276 0237 00b4 aa38
000002c0: 73fe 10b8 09a1 5637 46b2 d1b6 82a3 3438
000002d0: 650e 3ab6 ec5b 57b7 0343 99b7 6605 c637
000002e0: 45d2 e1b5 b334 2db7 0c42 0d34 0d26 2eb7
000002f0: b993 87b4 1b79 6b37 1e9f 2bb6 9513 8037
00000300: e7f3 04ba 1afc c4b9 7cda dbb8 79dd 8739
00000310: 619d 9739 a3ac de39 f596 8db9 ba20 7eb7
00000320: ae71 83b9 52dc ce39 521f d0b9 6688 6b39
00000330: 2234 1339 9c50 d038 9a26 d9b9 e8ca f1b7
00000340: 2f09 e5b7 f366 17ba b312 0e38 1950 98b8
00000350: 65af d0b8 034e 1cba 0181 83b9 d419 ec38
00000360: 44f3 5a38 c5d5 d4b9 4d93 3739 c15a 4fb9
00000370: 77a5 2a38 c2bb 27ba 3bbd 31b9 da23 4cb9
00000380: 0d52 aab9 b118 beb9 5ed1 8239 e3ef f3b9
00000390: 4ebd fb38 d8b2 1d39 b4ac c7b9 548a 1bba
000003a0: d1c3 3239 1765 1cba 97f1 f439 b2a8 6eb9
000003b0: bcf7 84b9 2055 c338 61f4 9b39 7939 efb9
000003c0: 9694 38b9 35f7 8139 8560 b0b9 7770 deb9
000003d0: 4d18 6eba cbc4 e838 3ba9 d138 467a ca39
000003e0: b3a6 e4b9 53fc 1cb9 ced8 ad38 991b 17b9
000003f0: 0f69 1bba faa8 81b9 883c ca39 1691 13ba
