scripts/reinforcement_learning/rl_games/checkpoints/r_score_10_t_all_selfplay.pth (torch, 550130 bytes, 30 tensors)

a2c_network.sigma f4 [4]
00000000: 4935 85c0 1541 31c0 01cd d1bf 250d e2bf
-4.1627545 -2.7695973 -1.6390687 -1.7660261

a2c_network.actor_mlp.0.weight f4 [256, 12]
00000000: 4951 f63d 6b5f 99bd 22f9 6a3d 7fa8 f73b
00000010: ec66 ed3e 1dc8 a13d 2de9 e4bc 8deb 0abc
00000020: fd3f a5bf 3beb d03e afd4 b7be ac2c cf3e
00000030: edc9 3cbe c0b0 913b e8bf 97bd 7a53 80be
00000040: b526 053e a1d7 3dbe edca 273d e603 0fbe
00000050: 4754 8b3f 73f3 873f 9458 e1be 52b6 953e
00000060: 8e46 c13d c848 ba3e 83d8 af3d 1ba9 d1bc
00000070: 4275 eb3d 4c79 12be 9a90 f83b e81a e43d
00000080: d7d0 c53f e5cf 4dbf 0f2a 013f a9f7 a23d
00000090: d902 923e 99c4 9fbe 8b2d a4bd 28c9 bfbb
000000a0: 2bc5 99be 2566 943e 4b59 1b3d 32fc 6d3d
000000b0: a9ae 3c3f 05e0 11bf 607b 123f 5f21 e0be
000000c0: 3ca9 b53a 103d 0bbf c599 8d3d 87ae 1ebd
000000d0: c9db 8d3e e21e 4dbe 465c b43d fa15 23be
000000e0: d9b0 dd3e 173c 85bf f9fa 5b3f 9052 323d
000000f0: 8884 1f3f ca82 f7be 0cee 95bd 1063 28be
00000100: 45aa 4ebe 6b21 e73d e5f2 e43c 1155 ca3d
00000110: fd35 37bf 9cb1 7dbf d2da ae3d 90fe dabd
00000120: cdb4 ed3d 61c8 dc3e 5f89 083e 254c 14be
00000130: 7de7 cfbe 0752 ae3e a740 da3c a197 703c
00000140: 89d3 b83f 280f 903f 814a 02bf 96cc ebbe
00000150: dfd1 1b3f 8f1c a33d 199d b3bd 5457 85bc
00000160: 096e 44bd e70b 863d 83b2 96bc bbd0 d6bd
00000170: 3083 c2be 2f3c a9bf 2387 4cbf ee38 afbe
00000180: 2fb1 21bf 4712 9dbe 7399 023e 5ef1 d83c
00000190: 7545 303e 1093 29be 7df6 ecbd 11ec afbd
000001a0: 07cf 3e3e 70c6 83bf 3b21 14be afb2 9bbe
000001b0: 0a6b b23d 99dd 283d 3b9c a1bc 9821 0bbe
000001c0: 2209 1abe f1eb 85be 9bc4 bcbd d84e 39bd
000001d0: 58f0 4140 abbf d13d 4249 b53e 0ba2 2e3e
000001e0: 5c15 85be a75c bf3e d329 d5bd 232d 3f3d
000001f0: 6979 3fbd f6ab 7bbe f0a1 9f3d 9327 c4bd
00000200: 8127 a03f 2937 3ebf 3131 353f 7107 17be
00000210: d258 08be bf66 9fbd 73d2 533e 92d5 2b3e
00000220: 9136 2b3f 49ba 40be 1054 f4bc 92d5 4fbd
00000230: 968e 393f 5a92 75bf 5221 4a3f d7ec 91be
00000240: 10a6 ab3e 9888 643e d488 a63c 7cc8 86bb
00000250: a78a d33e 4da5 813e 77f4 503d a6e7 66bd
00000260: 6f5a b73f 2038 753f 4376 aabe 92fd 863e
00000270: d1d3 543e db7f 10bf 5aab a53c bf8e b8ba
00000280: dac8 8e3e 634f 103d 3614 80bd a1fd 16bd
00000290: 3c72 97be e9f7 efbe 48b1 243f 43f7 35bf
000002a0: 0e73 9f3d 54b6 083e 2d64 8dbc caf5 c4bb
000002b0: 36d7 d73c dcbe 253e cc2f 38bb ece8 393c
000002c0: 9710 39c0 22c5 c3bc fdab 71bc 6ed7 743c
000002d0: af43 8c3e 13ef 973e 50f3 20bd dd8c d8bc
000002e0: edf3 573e 579a 37bd dea8 b03c 215d 94bb
000002f0: 6a61 01c0 a442 abbd 36bb 34bc 837b 843e
00000300: 626d 973d 541a f4be e49a 9bbd 182c b4bd
00000310: 2afa 993b f0df 43bd 9ae1 213e 2518 9dbd
00000320: 2602 12c0 8bc5 00bf 64f9 09bf a17e 9b3e
00000330: 9603 be3d 6485 fbbe 6e62 a23c 4db9 91bc
00000340: 565a 27be cb62 fa3d 7be0 85bd 6256 3cba
00000350: ec9c 3fbf e2e8 893f 120c ba3e d251 003e
00000360: ed73 b0bd a05b 33be 8ad7 cbbd 6458 3a3e
00000370: f5df 2e3e 052c 303e e3e9 2a3d af72 023d
00000380: 26d3 0ebf b6a9 9dbf 727b 7ebf 4a5e 23bf
00000390: 3c23 f9bd 4c59 80bd c431 223d dbaf b2bd
000003a0: 3095 f1bd 166a 89be 6959 cbbd 350f 893c
000003b0: d9ce 8ebf 55e7 6b3f 958e c53d d077 a9be
000003c0: b941 03bd baaa 13be cca8 34bd 7731 8bbd
000003d0: 0ea4 9a3e 1bb2 19be ddd3 ed3c 1da4 ea3c
000003e0: 691f e53f cbd3 25bf 5266 2a3f 8170 f5bd
000003f0: 5839 b03e 02b7 8e3e 6a82 41be d21d bb3a
0.12027223 -0.07488903 0.057366498 0.007557928 0.46367586 0.07899497 -0.027943218 -0.008479011
-1.2910153 0.40804467 -0.35904452 0.4046377 -0.18436404 0.004446119 -0.0740965 -0.25063688
0.13003047 -0.18539287 0.04096501 -0.13966331 1.0885094 1.062117 -0.44012892 0.29240662
0.09437285 0.36383653 0.08586218 -0.025593331 0.114969745 -0.14304084 0.007585597 0.111379445
1.5454358 -0.80395347 0.504548 0.07957394 0.28517798 -0.3120468 -0.08016499 -0.005852837
-0.3003324 0.2898418 0.037926953 0.05810184 0.7370401 -0.5698245 0.57219505 -0.4377546
0.001385964 -0.5439005 0.06914095 -0.03874066 0.27706745 -0.20031312 0.08806662 -0.15926352
0.43298987 -1.0408963 0.8592983 0.04353577 0.623116 -0.48341972 -0.073207945 -0.1644404
-0.2018214 0.11285671 0.027947852 0.098795064 -0.71566755 -0.99099135 0.085378304 -0.10693085
0.11606751 0.43121627 0.13333653 -0.14482172 -0.406063 0.34046957 0.026642157 0.014684589
1.4439555 1.1254625 -0.50894934 -0.46054524 0.6086711 0.079644315 -0.087701984 -0.016276993
-0.0479565 0.06545239 -0.018395668 -0.10489031 -0.37990713 -1.3221492 -0.798937 -0.3422312
-0.63160986 -0.30678007 0.12753849 0.02648228 0.17213996 -0.16560006 -0.115704514 -0.08589948
0.18633662 -1.0294933 -0.14465801 -0.30409762 0.08711822 0.041226957 -0.019727817 -0.13587034
-0.15042546 -0.26156572 -0.09217187 -0.045241207 3.0302944 0.10241636 0.35407454 0.17054002
-0.25992858 0.37375376 -0.10408368 0.046673905 -0.046746645 -0.24577317 0.07794559 -0.09577861
1.2512056 -0.7430292 0.70778185 -0.14748932 -0.13315132 -0.07783269 0.20685749 0.1678069
0.66880137 -0.18821062 -0.02982524 -0.050740786 0.72483194 -0.9592644 0.7895709 -0.28501007
0.33525133 0.22317731 0.020328917 -0.004113255 0.4131672 0.25321427 0.05101439 -0.05637326
1.4324473 0.95788765 -0.33293352 0.26365334 0.20783927 -0.5644509 0.020223308 -0.0014080628
0.27887613 0.03523196 -0.06253855 -0.036862973 -0.2957934 -0.46868828 0.6433301 -0.71080416
0.07785617 0.13350803 -0.017259682 -0.0060107457 0.026347738 0.16186088 -0.002810466 0.011347037
-2.8916376 -0.023897711 -0.014750478 0.014943941 0.27395388 0.29674587 -0.03929454 -0.026434356
0.21089144 -0.044824924 0.021564897 -0.0045277034 -2.0215707 -0.0836232 -0.011030963 0.25875482
0.0739391 -0.47676337 -0.075979024 -0.08797473 0.0046990113 -0.047820985 0.15808716 -0.07670621
-2.2813811 -0.50301427 -0.53896165 0.30370048 0.09278028 -0.49125206 0.019822326 -0.017788554
-0.16343054 0.122258745 -0.06536957 -0.0007184503 -0.7484882 1.0774195 0.36337334 0.12531212
-0.08615861 -0.17515421 -0.0995322 0.18197781 0.1707762 0.17204292 0.041726958 0.031847652
-0.55790937 -1.2317417 -0.9940711 -0.6381575 -0.121649235 -0.06267032 0.03959824 -0.08724948
-0.117960334 -0.2683875 -0.09929163 0.016730884 -1.1156875 0.9214986 0.09646336 -0.33099222
-0.0320451 -0.14420596 -0.04410629 -0.06796544 0.3020329 -0.15009348 0.029031688 0.028642708
1.7900211 -0.64776295 0.6656238 -0.11984349 0.3441875 0.27874 -0.18897405 0.0014275855

a2c_network.actor_mlp.0.bias f4 [256]
00000000: 9fda 61be 6798 b53c 9684 cebb dc6c 4c3e
00000010: 0939 573d c4de ab3e 2be3 5ebd 638f d8bd
00000020: f9b3 8c3d af58 2fbd 5fe7 4f3d 8ce5 093d
00000030: f6c8 c2be 467f 3d3e a055 bc3c 27cb 42be
00000040: b345 81bd 3dcf 393e becc c03d 7d08 4bbe
00000050: cd78 f53d 90c7 70bd 11f7 18be 46ba 12be
00000060: 1d2c 04be 34e8 843e b40a 07bd a481 e03e
00000070: 7985 30be 08b1 6c3d 8da2 7bbe dc22 bfbe
00000080: 8a67 213e 2b1e adbd 90ec 54be 96d2 0bbe
00000090: ae39 46be 17e3 b83d 3697 263d 053e a83c
000000a0: 548a 413e fb14 2cbd aeec 1dbd 4238 79be
000000b0: 7ab3 ecbd 39db 403d 8f11 f13e 9fe4 57be
000000c0: 6230 a3bd 1c75 c4bb 0d7b 5f3d eb6f 02be
000000d0: 19ae 563e 861d 6d3e a0a4 2d3d 9ac5 0abe
000000e0: 9b06 ac3d a8d6 d0bd ceec e23d 523e 1a3e
000000f0: 650d bbbd 4b81 dc3e 1bb9 7a3e d8a8 4c3d
00000100: 2b04 debc c1b4 3cbe 0187 583d 6a73 24be
00000110: 844e e339 33ca afbe 9ecc 843d 507b 4fbe
00000120: 4602 973d 24b7 463e faa8 82be c51f 31be
00000130: 37a3 07bd fae8 573e 348e 68bd 5c26 92be
00000140: 88a0 b4bd 1fc0 99bd 1429 ad3e 21d7 79be
00000150: 3c1a 543e 7328 f13c 220e e1bd 58f5 15be
00000160: 4e64 bcbd d72e 743d ac61 5e3d 85c0 1d3d
00000170: 256e 88bd 60b6 86bd c2df 5fbd c264 793c
00000180: 88fe 013e adc3 773e a44c a33e 7d2b 443e
00000190: 5438 7f3e 7640 0f3e 62e8 a13d 77cd 64bd
000001a0: 5c0e ffbc e99e c63e 80ce cfbd c904 073e
000001b0: a907 c4bc 6e91 a7bd b1cc 4bbe 2b5e 023e
000001c0: bf7c e53d 005b 81bd 0df3 693e 3337 ac3e
000001d0: f417 a33e e573 23bd e48a 413e 0a2b 853e
000001e0: 5715 2ebd bc36 423e 0664 29be c126 49bc
000001f0: fa9a 17be 53fa 20be a14f 16bd 1bba 14bd
00000200: cf5e 273d 2846 c5be b238 a3bc bb20 0f3e
00000210: ba45 17be a657 543e 61d2 c03d 048a 49be
00000220: 041b 003e 1744 f4bd 8dc6 3bbc c3e5 123d
00000230: c7da 32be d7e9 d4bd d2fb 44be 6753 86bd
00000240: 2da6 b4bd b00c 913e 97cf 433e 674b f9bd
00000250: 8b93 2b3e bd2c 243e edff 56be e683 293c
00000260: f7a4 42be 3823 d73d 711e c93d 6159 373e
00000270: f024 76bd 503f 33be a40d 1a3e 9eb8 433e
00000280: fb96 45be e1fb 95be 127a 863e 457e 5bbd
00000290: 2dde b4be b9fc 90bd 26d2 3d3e d015 cc3d
000002a0: a23b bdbd 0ff3 78be f7df 003e 9cf0 9dbb
000002b0: cc08 8ebb c9dd 443e 049b 17bd a61f 273d
000002c0: 3841 543d f869 87bd 3980 d2bd 027d cb3d
000002d0: 4431 0d3e 0cd7 2cbc 6d36 b3bd f2d5 3b3e
000002e0: 0fbb 9bbc e989 893e db44 7fbe c772 c43d
000002f0: d1bf 9b3d 8330 3abe d1e6 493e edb3 1a3e
00000300: 13d3 843d ef1d 4e3e d97a 60be a061 243d
00000310: 4053 89bd 9fa3 373e 9659 813e f8f2 32bd
00000320: def2 8a3e 7f2a 9e3b 30c8 31be e01e 3c3e
00000330: b68d 213d d80a ab3e 838b 803e 975a 003e
00000340: 2160 343e 194a 443e 792e adbd db4e 443e
00000350: 413b cabe 45f5 d83c 3e40 123e df75 e2bc
00000360: 5337 e03d 370b c03c 1b54 be3d d941 c13d
00000370: b4df d63d 0692 a83e a0e5 f23d 1300 6f3e
00000380: 3134 63bc 5631 13be e314 5cbe eca3 e8bd
00000390: e61e 98bc cf9e ffbc 8f88 1b3d 6018 82bd
000003a0: c17d de3c fdef 3cbe 7dc4 823c 0c72 fdbd
000003b0: 6c87 babd cdaf 9e3e d191 af3c e873 523e
000003c0: 2ab0 ef3d 0c50 16be 8649 efbd a486 753e
000003d0: 812f d03d 02d6 85be ba8e 0e3d 606c 193d
000003e0: 22c8 b43d a3d1 bbbe b402 cc3e 5b01 273c
000003f0: adba 06be 388b 173e 1858 bc3b 9e1c b73e
-0.22056054 0.022167398 -0.0063024266 0.19963402 0.052544627 0.33568394 -0.054415863 -0.10574224
0.068702646 -0.042809185 0.050757762 0.03366618 -0.38043946 0.18505582 0.022990048 -0.19022809
-0.06312122 0.18145461 0.094140515 -0.19827457 0.119859315 -0.058784068 -0.14937998 -0.1432887
-0.12907453 0.25958407 -0.03296919 0.43848908 -0.17238416 0.057786018 -0.24573727 -0.37331283
0.15762153 -0.0845302 -0.20793366 -0.13654551 -0.1935794 0.09027689 0.04067155 0.020537386
0.18900424 -0.042012196 -0.038555793 -0.24337867 -0.1155767 0.047084067 0.4708371 -0.21083306
-0.07968213 -0.005995406 0.05456071 -0.12738006 0.2096485 0.23155794 0.042393327 -0.13551942
0.083996974 -0.101971924 0.11080323 0.15062836 -0.09133414 0.43067393 0.24484675 0.04996571
-0.027101597 -0.18428327 0.052863125 -0.16059652 0.00043355313 -0.34333953 0.0648434 -0.20261884
0.073734805 0.194058 -0.25519544 -0.17297275 -0.03311464 0.21084967 -0.05677624 -0.2854489
-0.088196814 -0.07507347 0.33820403 -0.24398471 0.20713133 0.029438233 -0.10989024 -0.14644372
-0.09198819 0.059614982 0.054292366 0.03851368 -0.066616334 -0.06577754 -0.05465675 0.015221776
0.12694752 0.24195738 0.3189441 0.19157214 0.24923831 0.13989434 0.07905652 -0.05586001
-0.031134777 0.38793114 -0.101468086 0.13185419 -0.023929434 -0.081820354 -0.19902302 0.12731235
0.11205434 -0.06316185 0.22846623 0.33635864 0.31854212 -0.039905448 0.18900639 0.260094
-0.04250082 0.18966192 -0.16542062 -0.012277306 -0.14805213 -0.15720491 -0.036697034 -0.036310297
0.0408619 -0.38530087 -0.019924495 0.1397733 -0.14772692 0.2073656 0.094151266 -0.19681555
0.12510306 -0.119270496 -0.011460912 0.03586365 -0.1746627 -0.10396164 -0.19236687 -0.065588765
-0.08820758 0.28329992 0.19122158 -0.12172585 0.16755502 0.16032691 -0.20996065 0.010346388
-0.19008242 0.10504764 0.09820259 0.17905189 -0.06009382 -0.1750462 0.15044266 0.19113395
-0.19295876 -0.2929373 0.26265007 -0.053587217 -0.35325757 -0.07079453 0.18537197 0.09965098
-0.0923989 -0.2431147 0.12585436 -0.0048199426 -0.0043345448 0.1922523 -0.03701307 0.040801667
0.05182001 -0.06612009 -0.10278363 0.09935953 0.13788325 -0.010549318 -0.08750615 0.18343332
-0.019010095 0.2686303 -0.2492861 0.095922045 0.076049455 -0.18182568 0.19716956 0.15107699
0.06485572 0.20128606 -0.21921863 0.040132165 -0.06705332 0.1793351 0.2526366 -0.043688744
0.27138418 0.0048268433 -0.17361522 0.18371153 0.039441787 0.3340671 0.2510644 0.12534557
0.17614795 0.19168891 -0.084561296 0.19170706 -0.39498332 0.026484141 0.14282319 -0.027644096
0.10948052 0.023442848 0.092933856 0.094363876 0.10491887 0.32923907 0.11860204 0.23339872
-0.013867424 -0.14374289 -0.21492343 -0.113593906 -0.018569421 -0.031203656 0.03797203 -0.063523054
0.027159574 -0.18450923 0.015962834 -0.12375268 -0.09107861 0.309935 0.021431835 0.20552027
0.117035225 -0.14678973 -0.11683945 0.23977143 0.10165311 -0.26139838 0.034804083 0.03745687
0.08827235 -0.36683378 0.39845812 0.010193194 -0.13157149 0.14799201 0.0057478063 0.3576402

a2c_network.actor_mlp.2.weight f4 [128, 256]
00000000: b620 583e ee0f b4bd c711 943d f81c edbb
00000010: 3d2d 0dbe a8d7 ac3e 1d8f 853d aab5 af3e
00000020: bf35 82be 8042 9cbe 465d 3abe 6617 71bd
00000030: b207 063e f276 51bb 0901 433e 4f92 ba3e
00000040: 9007 343e 1393 80be 8113 033e 941c e2bd
00000050: 937f 38be d0a2 41be 861a ef3d e4a4 8c3d
00000060: dead 85be d923 54be 15cd 36be 8dad 06bd
00000070: 0497 563d 9ce3 bbbe 42ba 4dbe 35ea 4dbd
00000080: b802 813d 6f86 a0bd 45c1 4dbe 0dcc dcbd
00000090: 58f0 88bb 4102 7e3e af2b 203f 6b0b 24be
000000a0: 86b1 613e 56e4 ad3e 0261 163d 3cd4 543e
000000b0: 1229 b2be e7d6 1cbe b9e3 e73d 0f76 83bd
000000c0: 2f9c f4bd 2156 aabe 3296 353e 638b 63be
000000d0: e766 3cbe 25c1 74bc 8cd6 9fbc 28e4 8c3e
000000e0: 33ab 16be 6227 923e a19a 11be 675d 3b3c
000000f0: e4cd 8dbe 5544 9abe 7d5e 773e 0290 a1bd
00000100: d130 253c 3b33 133e 0b83 30be bf12 f3bc
00000110: 3bdb ba3d 6375 eebd 1ba7 9ebe 0252 453d
00000120: 0ee9 18be 88e1 b7bd c652 813e dc0e 743e
00000130: 7732 ee3e dd8e 77bd 8d2d d03c dfbe a6be
00000140: 5cb0 0abe dc75 7cbe 8470 683e 5bb1 47be
00000150: f1ff 21be 67ba 9cbe 14fc 24be 83b9 98bc
00000160: f436 1a3e 569f 04be c00b fc3c 23f4 92bd
00000170: 5c91 b2bd 38ae 343e 7a34 483e f6ad 63be
00000180: f45c aabe f96d 863e 4d06 6b3e f970 e6be
00000190: 6d90 e53e 9ffe c3bd 0512 643d 7c96 6dbe
000001a0: 672c c33e 2849 603e 53f5 a9be 787a 37bf
000001b0: 021b c9bd 8191 a7be c264 823f 3a39 27be
000001c0: 97fa 8fbc 6f3d b8bd 4313 0e3e 3719 923e
000001d0: c59d 9cbd cb6b 1dbe 22f9 86bd ab16 2abd
000001e0: a577 b23e 8228 df3d 5bd7 7bbe e604 d2bd
000001f0: b36c 3c3e 94ac d5bc cff9 ff3d 9ac4 91bd
00000200: 5e12 583b 0dbd 95bd 0279 7f3d f17f 873d
00000210: 4129 babe 268d 753d a910 72be 55d2 0bbe
00000220: 9c1c 5bbe 7521 863e 72e2 11be b3d1 35bd
00000230: e844 38bc cea4 20be 7a97 05be 0480 663d
00000240: 8962 5fbd 6aa1 483e a614 d2be cac2 82be
00000250: 2ff2 b4be bf4b 6cbe 557e 98be 5f96 323c
00000260: 11c5 01be de30 743e e48e e5bd 9948 f33d
00000270: 0ca9 7c3d 5092 8ebc b50b 91be 91d2 5a3c
00000280: 1f3b b1be 8bbf 6c3e 96a7 ffbd 8682 2a3e
00000290: af1d 4cbd 0820 303e 8c05 b63d 65cb f23e
000002a0: 997e 83bd 5f5e 8e3d f8f9 123e 9bcb c03d
000002b0: dc08 5b3d 41ad 803e 933a 143e a640 70be
000002c0: d57d 203e 6f1f 25be 1523 9d3e fb18 cdbe
000002d0: 32b0 4fbe d792 923c 4c8e 2cbd 10bc 0b3e
000002e0: 28ca b13d 3e27 153d 4895 a93d ea65 a13d
000002f0: 7b6c f23e ce14 b4be 8401 8fbd 6c57 3a3e
00000300: 9fdd 0fbe 61ca 78bc 32a9 543e e1d9 4d3e
00000310: 7df0 6c3e 0b7f 1fbf 6866 283e d237 58be
00000320: 96bb a23e 5af6 623e 8872 2e3b b75f 48be
00000330: 4f88 243e 8e2f d13d db2f d33d ca07 ca3e
00000340: dc81 a9be 68c7 263d dbe5 7e3c 256b 46b9
00000350: 6c78 1bbe 8eb8 4b3c ebfd dc3c 5ab0 cd3b
00000360: f873 c03d 7c19 3c3e 15fc 2abc 7034 8dbe
00000370: 1e05 ba3e e41e 573e e199 f03d d248 c53c
00000380: a387 333e a41c 27be db0e 5abe 27a1 993e
00000390: f97f 8dbe 6761 fe3e b04e c1be 120a 0abe
000003a0: e8db c63e d972 003e a4a6 dfbd 6704 bdbe
000003b0: 16c0 92be f305 493e 9acf c23d 9012 283e
000003c0: c076 e83d a4b7 ef3c 077c 85be d9d5 713e
000003d0: 3816 c1be fca2 7f3e 3839 f83d 5c19 e3bd
000003e0: cc15 d73d 6f68 5a3e 8d95 183e 6998 21be
000003f0: bb70 90be 81e5 5fbc f926 0b3e c4a6 193d
0.21106228 -0.08792101 0.07229953 -0.0072361194 -0.13786788 0.33758283 0.06521437 0.34318286
-0.2543163 -0.30519485 -0.18199643 -0.058860205 0.13088873 -0.0031961766 0.19043364 0.3643975
0.1758101 -0.2511221 0.12800409 -0.11040607 -0.18017416 -0.18909764 0.11674981 0.06867388
-0.26109213 -0.207168 -0.1785167 -0.032880355 0.052390113 -0.3669709 -0.20090583 -0.050272185
0.06299347 -0.07838141 -0.20093258 -0.10781107 -0.004179042 0.24805547 0.62566656 -0.1601998
0.22040376 0.3396327 0.036713608 0.20784086 -0.3479696 -0.15316354 0.113227315 -0.06419002
-0.11943852 -0.33268836 0.17733076 -0.2222114 -0.18398629 -0.014938627 -0.019511484 0.2751782
-0.14713745 0.28545672 -0.14219142 0.011435843 -0.27696145 -0.30130258 0.24157138 -0.078887954
0.0100824395 0.14375012 -0.17237489 -0.029672025 0.09123846 -0.116434835 -0.30986866 0.048173912
-0.14932653 -0.089785635 0.25258464 0.23833793 0.46522877 -0.06043898 0.025412345 -0.32567498
-0.13543838 -0.24654335 0.22699171 -0.1950125 -0.1582029 -0.30610964 -0.16111785 -0.018643146
0.15060025 -0.12951407 0.030767322 -0.07175472 -0.08719131 0.17644584 0.19551268 -0.2223433
-0.33274043 0.26255777 0.22951622 -0.45008066 0.4483675 -0.095700495 0.055681247 -0.23201936
0.38119814 0.21902907 -0.3319498 -0.7167125 -0.098196045 -0.32728198 1.0186999 -0.16330424
-0.017575545 -0.089960925 0.13874535 0.28534862 -0.0764728 -0.15373151 -0.06590487 -0.041525524
0.34856907 0.10896398 -0.2459387 -0.102548406 0.1840084 -0.026083268 0.12498819 -0.07117577
0.0032969932 -0.07311449 0.06237126 0.066162 -0.363596 0.059949063 -0.23639168 -0.13654454
-0.21397632 0.261974 -0.14246538 -0.044389438 -0.011246897 -0.15687868 -0.13046065 0.05627443
-0.05453733 0.19592825 -0.41031379 -0.25539237 -0.3534102 -0.2307577 -0.29783884 0.010900109
-0.12672831 0.23846766 -0.11208895 0.11879081 0.061684653 -0.017403752 -0.28329244 0.013355867
-0.34615418 0.23119943 -0.12483136 0.16651353 -0.049832996 0.17199719 0.08887777 0.47420803
-0.06420631 0.069515936 0.14353168 0.09413835 0.053475246 0.25132182 0.1447547 -0.23462161
0.15673001 -0.16125272 0.30690828 -0.4005812 -0.20282057 0.017892284 -0.042127892 0.13645959
0.08681136 0.036414377 0.08280426 0.07880767 0.4734839 -0.35172123 -0.06982711 0.18197411
-0.14049385 -0.01518497 0.20767668 0.20102645 0.23138614 -0.6230323 0.16445315 -0.21115044
0.31783742 0.22164288 0.002661856 -0.19567762 0.16067623 0.102141485 0.10311862 0.39459068
-0.33106887 0.040717512 0.0155577315 -0.00018922666 -0.15182656 0.012434138 0.026976546 0.0062771263
0.09397119 0.18369097 -0.010436078 -0.2757907 0.3633203 0.21007878 0.117481 0.024082575
0.1753221 -0.1631952 -0.2129473 0.30005762 -0.27636698 0.49683687 -0.37755346 -0.13480404
0.3883965 0.12543811 -0.10920456 -0.3691742 -0.28662175 0.19631176 0.09512253 0.16413331
0.11350775 0.029262371 -0.26071188 0.23616733 -0.37712264 0.24964517 0.121202886 -0.11088821
0.10502204 0.21328901 0.14900799 -0.15780796 -0.28211007 -0.013665558 0.13589086 0.037512556

a2c_network.actor_mlp.2.bias f4 [128]
00000000: bec0 c83b 19c1 64bc 9196 d6ba eb4c 99bd
00000010: 2790 13bd 9acc bb3d 27f4 35be a12f 993e
00000020: b207 53be 39dc 0d3e acfb 67be 8f10 163d
00000030: 990c 723e 15aa 62be d604 14bf 13e3 b5bd
00000040: 1eeb 2ebe 8cad 0bbd 55c6 d0bb 2e23 a0bd
00000050: b88b 083e b822 b8bd d8ec bf3d 4f05 0abf
00000060: 671a 783e 1ff9 3cbe ae46 643d 98cc 133a
00000070: c7e8 9ebd 7554 dcbd 5acc 50bd aa9e d7be
00000080: d7e2 37be 6b04 0b3e 39a3 e93d f779 46be
00000090: 4c15 b8bd 8b69 293e f611 8cbe 38a9 eebe
000000a0: 8fcb 883c bea3 043e ff0a d5bc beff b1bd
000000b0: efb6 68be 37ed a3bc 999b ea3d d50a 86be
000000c0: 9c24 3f3e 503a 5bbe e3d1 373e b615 0dbd
000000d0: 697d 50be 0366 143e 79f7 993d 2ebe 0d3e
000000e0: 0b1b 113e 298a 96be 2e01 ff3d 8a36 c9bd
000000f0: 5323 4fbf e939 bd3d 6186 263e 6e35 f13d
00000100: e107 5bbc abae 0d3e 6e27 01bf 6e9f 22be
00000110: b87c 603e c1f8 113e 5614 cbbe 4336 06be
00000120: d72d 8fbe 5613 aebe a9ba bebd 5deb 54bd
00000130: c4da 8ebc 100a 003e bfc3 a0bc 2a01 603d
00000140: 46a5 bf3c 340c 04be e5ad d2be 71fa fbbd
00000150: 19dd 72bf f59a bf3d 47b1 9abd fa58 893e
00000160: d5b1 763e 0c97 4cbe c2c5 8a3e b229 c9be
00000170: 2664 d3bc 6cb4 4fbd c549 973d bf34 1bbe
00000180: d287 9abe 601a 81bc bc2e 3abd e98d cf3c
00000190: c7e6 bfbe 2e06 463d 2655 e5bd 132c 633e
000001a0: 68cf 94bd b368 443e c56c a4be d247 c3be
000001b0: cffa e6be ff23 a13c 5e79 b6be e8a0 5f3d
000001c0: 4835 183e e26c 27be b61e 3cbe ac34 ca3d
000001d0: 78a6 65be 10c3 c23c 4735 13bf 9f41 26be
000001e0: 3f63 01be f328 56be 0373 833e 3b16 85be
000001f0: ed2f 51be 6bd4 f93d 86b5 a3be fe69 f9be
0.0061264923 -0.013962054 -0.0016371777 -0.07485374 -0.036026146 0.09169884 -0.17768918 0.2991915
-0.20608404 0.1385354 -0.22654599 0.036636885 0.23637618 -0.22135194 -0.5781988 -0.088812016
-0.17081878 -0.034101054 -0.0063712993 -0.0781921 0.13334548 -0.08990997 0.09371346 -0.5391435
0.24228822 -0.18454407 0.055731468 0.0005638092 -0.077592425 -0.107582964 -0.050976135 -0.4211324
-0.17957626 0.13575904 0.114080854 -0.19382463 -0.08988437 0.16544168 -0.27357453 -0.4661348
0.016698627 0.12953088 -0.02600622 -0.08691357 -0.22726034 -0.020010574 0.11455459 -0.2618014
0.18666309 -0.21408963 0.17951159 -0.034444533 -0.2036034 0.1449204 0.07517905 0.13842079
0.14170472 -0.29402283 0.12451397 -0.098248556 -0.80913275 0.09239561 0.16262199 0.11777769
-0.013368578 0.13836162 -0.5045079 -0.1588113 0.21922576 0.14255048 -0.39663953 -0.13106637
-0.2796466 -0.33999127 -0.09312946 -0.051982272 -0.0174383 0.12503839 -0.019624589 0.05468861
0.023394238 -0.1289528 -0.41148296 -0.12303627 -0.9486862 0.093557276 -0.07553344 0.26825696
0.24091275 -0.19979495 0.27104002 -0.39289623 -0.02580459 -0.050709173 0.07387117 -0.1515684
-0.30181748 -0.015759647 -0.045454726 0.025336223 -0.37480757 0.048345737 -0.111978814 0.22184782
-0.07266122 0.19180565 -0.32114235 -0.38140732 -0.45113227 0.019670485 -0.3563947 0.05459681
0.14864075 -0.16350129 -0.1837109 0.098733276 -0.22426784 0.023774654 -0.5750317 -0.1623597
-0.12635516 -0.20914058 0.25673684 -0.25993523 -0.20428438 0.12198719 -0.3197443 -0.48713678

a2c_network.actor_mlp.4.weight f4 [64, 128]
00000000: e311 8cbc 92b4 cf3c 82fd c03c f799 e23d
00000010: bc67 0cbf c1ed 853d 01da 703e 05ac 7a3e
00000020: 9c58 be3d 148b a5be 20d8 0a3e e398 ee3c
00000030: 7fb2 943d 48e9 24be 36be 133d 4d72 3d3d
00000040: 8327 1bbd 6d09 f6bc ca79 09be 7f99 8e3e
00000050: 8b29 a6be ddaf 60be 64b9 8bbe 5420 1f3e
00000060: 2986 96be 3efd 0f3e b05e a7be f691 a7be
00000070: 07c7 ec3d 3aaa ca3e 7fef 15be 05cc c73d
00000080: 2533 00be 540b 003e 20fa 53be 7710 193f
00000090: bc55 d93d 79cc 06be 0767 db3d bf29 ab3e
000000a0: c697 eb3d a940 1a3d 1bd7 bebc cd2b 423e
000000b0: 43a6 44be 2d43 85bd ede4 9fbe b326 fabd
000000c0: 0067 143d 68bf 6abe b582 48be 1139 a23d
000000d0: 8014 2d3e 2fac 08bd 4297 abbe 4483 a63a
000000e0: 06ec f83d 8fb8 c53e 4a06 c0be 8fe7 8c3e
000000f0: 1ba2 cabe c235 d93d 271c 84be 3609 88bf
00000100: 9228 ccbe 65b3 16bf dfb7 7a3e b2e1 e63d
00000110: 52ed ec3d 4129 f83d 4713 ad3e d843 ebbd
00000120: a485 f63e 06a3 7cbd 1c7e 50bd 3d81 a03e
00000130: a618 dc3e 62bd 9d3d 2857 0e3e 5c39 2abe
00000140: c1e7 24be 2084 1abf 0ee2 67be 5f1c 2abe
00000150: 3c6a 1f3e c8c2 11be c8a8 26bc a92a 263e
00000160: 5c12 3fbe e248 d63c 582c 053e 222b 0fbf
00000170: 794d 3ebe 1505 8b3d 4224 df3d 85e1 6a3e
00000180: eed6 a43e 6196 f93d e3d2 833d 9d4b 3e3d
00000190: cf11 9b3e 1ddd bc3d 0952 113e 07fb 1abf
000001a0: 3996 9bbf f1ec 4dbc cf1d f33e 469a 3d3c
000001b0: 1a4f b73e d413 54bf 57a2 d33d 8369 81be
000001c0: 8c93 06bf b6a2 bc3b 58cd a13e b6dd 61be
000001d0: 2c0b e1be 286d 6c3e 6573 b53d b966 8fbc
000001e0: e57d 0bbe 0538 f13d 0f76 8bbd a361 8d3e
000001f0: cd92 df3e 8854 9bbe 9fc5 2bbc 1536 a23d
00000200: bfa3 7a3e fa11 e0bd 0601 9dbe bf6b cb3c
00000210: aa64 20bc 6bb8 26bd d8a8 3e3e b69c 00ba
00000220: f97d c6bd 85c9 2bbe 0128 3dbe 3099 e5be
00000230: fc13 17bf f83f 36be 9e18 9ebd 7615 9b3d
00000240: 72e4 48bd 241a 57bd 38b9 063e 12c4 aabe
00000250: c34b 053c 1d62 b6bd 0d06 a7bb 9c5e 49be
00000260: c191 5cbe 79f2 cd3c 712e e63d 63e4 05be
00000270: 43ac 363e 1103 fcbd 6aaf 71be 1f9a 65be
00000280: 2989 cfbe 87d9 e93c 5168 093e aa2d 113e
00000290: d1f8 c8bc e1a1 58be bf33 33bd eab6 3a3e
000002a0: 9d83 683d c613 f03c e087 aebd f7d5 8b3e
000002b0: c45d fabe 11cb 2ebe 1a06 b1bd 9560 a8bd
000002c0: 4ad0 2cbe dfdb 36be 8f6d 33be 68f3 443e
000002d0: b422 773e ea42 d7be 39fb debc c124 163e
000002e0: cad2 43bd 837d 6e3e ad25 133d b7ec 013e
000002f0: cacb 9bbe 6b21 b3bd d93f 443e 60d7 b0be
00000300: 5eb3 613d a922 f5bc fdba 26be ac0b 0abe
00000310: d051 abbe 2ac7 033d 606e 753e 0196 50be
00000320: 5929 30bd a583 4ebe 510e 9bbe bee4 853e
00000330: e60c fabc 491c 653b 5841 34be ae09 f5bd
00000340: 22f0 4c3e fda0 3ebe 1ea1 1ebd c54b 3ebe
00000350: 631c 87be cf04 03bf 8100 ee3d aa6a 53be
00000360: 7d6c 89bd 7a34 8b3d d915 f7be 1838 a0be
00000370: 924a 403d 803a e7be 7b6a 85bf 7d22 46be
00000380: bfd7 de3d a597 393e 870d a2be 4940 833c
00000390: 7ad6 1c3c 34a2 cebe 59b5 f7bd 154f a8bc
000003a0: 85f4 42be fc1d da3c 6db2 b53e 5065 5ebd
000003b0: a504 5f3e c236 49be 291f 823b bd01 653d
000003c0: 81bf a43d affc d2bc 1835 7bbe 3a36 c8bd
000003d0: 3a5d 8cbe db6b d9be c6e7 f1bd 2e70 13be
000003e0: 251c bbbd a073 1c3e 4fec 97be cb23 d23d
000003f0: c8fb 3f3e c81e a8bd f042 f9be 58be 82be
-0.017098373 0.025354657 0.023558382 0.11064523 -0.54845786 0.065394886 0.23520662 0.24479683
0.09294245 -0.3233267 0.13559008 0.029125636 0.07260608 -0.16104615 0.03607007 0.046251584
-0.03787948 -0.030033791 -0.13425365 0.27851483 -0.3245357 -0.21942087 -0.2728988 0.15539676
-0.2939923 0.14061448 -0.32689428 -0.32728547 0.11561399 0.39582998 -0.14642142 0.097557105
-0.1251951 0.12504321 -0.20700884 0.5979075 0.10612056 -0.13163938 0.1071301 0.33430287
0.11503558 0.03765932 -0.02329593 0.18962021 -0.19204049 -0.065069534 -0.31229344 -0.122144125
0.03623104 -0.22924578 -0.19581111 0.07921041 0.16902351 -0.033367332 -0.33513838 0.0012703915
0.12154393 0.3861737 -0.37504798 0.27520415 -0.39576802 0.106059566 -0.2580273 -1.0627811
-0.39874703 -0.58867484 0.24484204 0.11273517 0.11568703 0.121172436 0.3380377 -0.114875495
0.48148835 -0.06167891 -0.050901517 0.313486 0.42987555 0.077021375 0.13900435 -0.16623443
-0.16104032 -0.60357857 -0.22644827 -0.16612385 0.15567869 -0.1423446 -0.0101720765 0.16227211
-0.18659347 0.0261578 0.13005197 -0.5592519 -0.18584241 0.06788079 0.108955875 0.22937591
0.32195228 0.121868856 0.06436708 0.04645883 0.30287024 0.092218615 0.1419145 -0.6053929
-1.2155219 -0.012568698 0.4748368 0.011572426 0.35802537 -0.82842755 0.10333698 -0.25275812
-0.5256889 0.0057567013 0.31601977 -0.22057232 -0.43953836 0.23088515 0.088599004 -0.017505037
-0.13622244 0.11778263 -0.06809627 0.27613553 0.43666688 -0.3033793 -0.010484128 0.079204716
0.24476527 -0.10940929 -0.30664843 0.02483165 -0.009789625 -0.04070322 0.18619096 -0.0004906164
-0.09691996 -0.16776092 -0.18472292 -0.44843435 -0.5901487 -0.1779784 -0.07719539 0.07572453
-0.049045987 -0.052515164 0.13156593 -0.33352715 0.008135739 -0.089054324 -0.005097157 -0.19664997
-0.21539976 0.025140034 0.11239327 -0.13075404 0.1783915 -0.12305272 -0.23602071 -0.22422074
-0.40534332 0.028546108 0.134187 0.14177576 -0.024532707 -0.21155502 -0.04375052 0.18233839
0.05676614 0.029306304 -0.0852201 0.2731168 -0.48899662 -0.17069651 -0.08643742 -0.082215466
-0.16876331 -0.17857312 -0.17522262 0.19233477 0.24134332 -0.4204324 -0.027219402 0.14662458
-0.047808446 0.23290066 0.035924602 0.12687956 -0.30428916 -0.08746608 0.19164981 -0.34539318
0.0551027 -0.029923754 -0.16282268 -0.13481015 -0.33460855 0.03217236 0.23967886 -0.20369722
-0.043008182 -0.20167406 -0.3028436 0.2615108 -0.030523729 0.0034959486 -0.17603052 -0.11964737
0.20013478 -0.186161 -0.038727872 -0.18583591 -0.26388845 -0.5117921 0.1162119 -0.20646158
-0.067101456 0.067971185 -0.48258856 -0.31292796 0.046946116 -0.4516182 -1.042312 -0.19349094
0.10880994 0.18124254 -0.31650946 0.016021864 0.00957262 -0.40358126 -0.12095136 -0.020545522
-0.1903859 0.026625626 0.3548769 -0.054295838 0.21779115 -0.19649795 0.0039709997 0.05590986
0.08044339 -0.025755255 -0.24531972 -0.09775968 -0.27414876 -0.424651 -0.118117854 -0.14398262
-0.091362275 0.15278482 -0.29672477 0.10260733 0.1874839 -0.08208996 -0.48683882 -0.25535846

a2c_network.actor_mlp.4.bias f4 [64]
00000000: ca91 24be 0fa4 743e c0b1 c2bd 37e7 07be
00000010: fe8d 573d cddc 793c cb38 35bd 7257 21be
00000020: b01b bebd 532f ca3b 6121 15be a1f3 693d
00000030: 125e ee3c 7dca ce3b d997 77bc e713 2cbe
00000040: 355a 55bd b048 7b3d 8b8f 11be a3e9 a0bb
00000050: 32cb 903e 70a4 c33d d7ce 7d3d 30a0 513e
00000060: 1e5d 413d 9798 6dbb c5fa e9bd db65 543d
00000070: a5d4 06be 189e 3d3e 10d1 47be 5a3a b1bc
00000080: cb34 a5bb 8150 65be e002 703e 0112 4dbd
00000090: db15 c53c 8c88 eebc 6ad0 8f3d 0230 c03d
000000a0: 6c7b f4bb 8618 88bd 3b81 eabd 59f9 8d3e
000000b0: 394b 0bbe d68a 62bd 7232 6c3c f8b1 953e
000000c0: 27de 1a3c dd14 1e3d 6d82 57be 37b5 31bd
000000d0: 7a78 1dbc fcbf 64bd e91a 723e 8e6a a4be
000000e0: e7e0 123e 8055 a83d f017 b23d c06f 8f3e
000000f0: f6bb c5bd a5a6 2abd 4288 a33c 74bb ee3d
-0.16071239 0.23890708 -0.09506559 -0.13271795 0.05262565 0.015250397 -0.044243615 -0.15756014
-0.09282625 0.0061701923 -0.14563514 0.05711711 0.02909759 0.0063107596 -0.015111887 -0.16804467
-0.05208798 0.061348617 -0.14214914 -0.004910664 0.28280026 0.09552848 0.061964836 0.20471263
0.047207944 -0.003625428 -0.114247836 0.05185495 -0.13167055 0.18517339 -0.19513345 -0.02163427
-0.005041694 -0.22393991 0.23438597 -0.050065998 0.024058273 -0.029117845 0.07022174 0.09384157
-0.007461002 -0.066453025 -0.1145043 0.277293 -0.13602914 -0.055308186 0.014416324 0.29237342
0.009452379 0.038594116 -0.21045847 -0.04338571 -0.009611243 -0.055847153 0.23643078 -0.32112545
0.14343606 0.08219433 0.08695972 0.28014946 -0.09654991 -0.04166283 0.019962434 0.116568476

a2c_network.value.weight f4 [1, 64]
00000000: 1924 37bf 6b88 e63e 8d4e 423e f128 173f
00000010: 2dd2 0e3e 1564 003f ab48 c8be 77b0 debe
00000020: 8d0c 9d3e 8ad6 933e d4b3 3ebf 35fb 8a3e
00000030: d409 e9be 2331 ad3e bf85 5a3e 6aee e73e
00000040: 5787 ac3e 48e5 333e ec6f 37be e386 f03d
00000050: 42d0 ca3e 57f5 8ebe d28a 203b bb46 0e3f
00000060: 1864 293f 364e 24bf 34aa 213f a959 0d3f
00000070: 26da 213e 4887 e73e 2362 0ebf 2dfa 1d3e
00000080: 4173 5b3e 0422 93bf d0c2 f23e 0038 15be
00000090: ea02 1cbf 3491 be3e 49cd 04bf 4163 f93e
000000a0: b9fd d93e cb67 c0be 5ccf 86be f0e4 e43e
000000b0: 2526 98bf 9677 183f bdf7 503c 33d8 fb3e
000000c0: 7f9e 9f3e 6c25 053e 07da 24bf c7f9 a8be
000000d0: 634e 1abe 2b5c 9a3e 7305 d03e d4e2 2fbf
000000e0: de63 8fbe d3a8 a33e 943d 2ebe 3230 fb3e
000000f0: 8c02 ed3d cdc4 0bbe 93cb bd3e b578 acbe
-0.71539456 0.45025954 0.18975277 0.59046847 0.13947363 0.50152713 -0.3911794 -0.43494007
0.30673638 0.28874618 -0.74493146 0.2714478 -0.4551531 0.3382655 0.21340083 0.45299083
0.33697006 0.17567933 -0.17913789 0.117444776 0.39612013 -0.27921554 0.0024496806 0.55576676
0.66168356 -0.6418184 0.63150334 0.55214936 0.15805873 0.452204 -0.55618495 0.15427466
0.21430685 -1.1494756 0.47414255 -0.14572144 -0.60941947 0.37220156 -0.5187574 0.48708537
0.42576388 -0.37579188 -0.26330078 0.44705915 -1.1886641 0.59557474 0.012754378 0.49188384
0.3117561 0.13002557 -0.64395183 -0.33003065 -0.15068965 0.30148444 0.40629157 -0.6870549
-0.2800588 0.3196474 -0.17015678 0.49060208 0.115727514 -0.13649292 0.37069377 -0.33685842

a2c_network.mu.weight f4 [4, 64]
00000000: 215a f8bc 63c7 bdbc 4a69 8d3d 16f2 003d
00000010: 6dfc efbd ac1c 8f3c 8495 783d e1a9 20bc
00000020: d5b2 753d 58fd 173d ac0f 2f3d ec2b 443d
00000030: baf3 2fbd e9ba 023b 34ef 82bd e495 3aba
00000040: 7146 0c3d d417 78bc d6d0 57bc 230c 193c
00000050: e239 42bd c355 c4bc 8abe a9be 363a 16bc
00000060: 98a9 dc3d 7757 873c b6f0 e7bc c42c 88bc
00000070: a2af 053e 15ca 853b 17cf bf3d 24b6 b8bd
00000080: a6bf a7bc 4771 433c 60b7 61ba 6079 4f3e
00000090: b3ad 83bd 0371 413d 53d2 163c 3de8 523c
000000a0: a05f 8e3c e7a5 9ab9 e583 04bd b253 1fbd
000000b0: 1abc 243c 058d e93d 247f 743c 33f6 a5bd
000000c0: f5f8 23bd 5462 efbd 8d56 fbbc d48e 43bd
000000d0: 05e5 debc cf38 df3d 5587 aabc e5f9 5ebb
000000e0: db39 89bc da85 86bd fc5d 07bd b1d2 0e3d
000000f0: ff27 e1bc a5d0 6f3c 1fc2 01be 2a36 8ebc
00000100: ba39 9ebc 933d 02be de1f b13d 510c 563d
00000110: 8e0f 72be 2d7e c0bd eee7 23be cf73 67bc
00000120: b359 38be 18f0 9abb d8ea 99bd 704f 123a
00000130: 38e4 ca3d 36f4 8ebc ce81 ee3b 3a4b 45bd
00000140: 0e31 84bd 4834 8fbc 6c70 903c 6ecd 0c3c
00000150: f2d7 9bbc 9107 883d b08a 133e a4b9 a33d
00000160: 84fc 42bc cc38 08bd ae6c 28bd b662 3a3d
00000170: 83c2 1f3d 3f5a 343d 87dd 003e 70a7 38bc
00000180: fa89 acbd a963 1bbd 8c7c 1fbc 13ac 6dbd
00000190: f612 42be f2b3 da3b 82a1 d1bd cdb0 863a
000001a0: d1f4 2ebd 26de 96bc 106e 9a3c bd5a 9c3d
000001b0: f7cc 51bd 9e59 583d 7905 5cbe 0a99 b03d
000001c0: d97e 45bd 2b1c 09be 8409 b93c 31d5 85bc
000001d0: 1c21 00bd 3b60 a5bc e942 0bbd 52ea 593d
000001e0: 7f77 9f3c d198 86bc cb5f 7ebc 89aa b83c
000001f0: 4039 35bf 3a73 9f3b 3ef4 c73d caf3 bebd
00000200: bb55 66bd d49a 083d d961 dabc 0797 9d3d
00000210: 6d1a 473d 7514 d6bb 4cca 823c 5947 553c
00000220: 11bc 36bc 8db4 dabb 2318 9dbc 84ee 1d3d
00000230: 8efb fb3c 179e f63c b57a 7d3c 045e 013d
00000240: c32f 0fbd 993e 663c f1fc 72bc 51fb ac3b
00000250: f478 98bc 0fb4 70bd c375 103d 053c 99bc
00000260: 452f 03bd 047f 4a3d 2494 4f3d 505b 9dbc
00000270: 977c 8ebc fd52 973c 7c3f d9ba 30a9 3bbc
00000280: c1d1 1e3d 12f1 6bbd 29bd 943c ba21 14bc
00000290: dc61 273c f466 fb3c 62e8 883c 05f9 d7ba
000002a0: 0074 343c 8b08 1ebd afa7 8fbd 5221 ed3c
000002b0: 7e41 843c 821e 0e3d 1e8e 9dbd 8d2c 9f3d
000002c0: 6079 1e3d 1793 403c c228 8c3d b4e9 dfbb
000002d0: 8717 9e3d c3da 1abd ce8a e33c 4bdd d63c
000002e0: e9a3 0c3d 713b 6fbd 5c95 533d d6e1 0cbd
000002f0: 1a60 b7bd cca9 c6bc 3acb 433d 8e78 743c
00000300: a379 23bb 95e2 bd3c 77fc 1cbd c21e 78bd
00000310: dce0 f239 2cec 023d e2ae 4a3c 2c40 993d
00000320: a863 cf3c 8c3f 133d 6c9a 70bd f322 e13b
00000330: f0e8 13bd 780a 413c 29fc 0bbd b881 1a3d
00000340: 1719 8ebc 5e2f e73b 615a 35bd 23cc c43b
00000350: 32de 2ebd f1f0 01bd 648d 823d 02ec 3fbd
00000360: acdb 203c 42ec ab3b 1455 e53b 0227 93bc
00000370: 483f eabb ac1a 903d 8fdd 853d c308 023d
00000380: bb9f 2b3d f2c7 39bd e1fa e83c 2822 f33a
00000390: d692 b73c ca60 933d a872 19bd 58f4 aabc
000003a0: 6c58 c63b fddc 76bc b963 f0bb 730a a53d
000003b0: 73fc 8c3d 62c3 bc3d afbb 2b3d 0ded 7bbc
000003c0: 9c5e aa3a fb2f 07bd ad06 86bc 607f 643b
000003d0: a4d6 cb3c 1d01 edb9 f5da a93c 139d a73b
000003e0: e243 983c ea0e ddbd 3d6f f23c 5782 0fbd
000003f0: acfe 9bbc f5c0 06bd 9e20 9a3b 9bf4 d6bc
-0.030316414 -0.023166364 0.06904848 0.03148087 -0.11718068 0.017469727 0.060689464 -0.009806127
0.059985 0.03710684 0.042739555 0.04789345 -0.042957045 0.0019947833 -0.063932806 -0.00071176724
0.034246866 -0.0151424 -0.013172349 0.0093412725 -0.047418483 -0.023966676 -0.33153182 -0.009169152
0.10774535 0.016521199 -0.028313022 -0.016622908 0.1305528 0.004082928 0.09365671 -0.090191156
-0.020477127 0.011928863 -0.0008610394 0.20261145 -0.06429615 0.047226917 0.009205419 0.012872753
0.017379582 -0.00029496776 -0.032352347 -0.038898177 0.0100546125 0.114038505 0.014922891 -0.081035994
-0.040032346 -0.116886765 -0.030680919 -0.047743633 -0.027208814 0.10899507 -0.020816484 -0.003402346
-0.01675122 -0.06568499 -0.033048615 0.0348689 -0.027484892 0.014637147 -0.12671708 -0.017359812
-0.019314636 -0.12718801 0.08648656 0.05225784 -0.23638746 -0.09399066 -0.16006443 -0.014126732
-0.18002968 -0.0047283284 -0.07515496 0.0005581295 0.099068105 -0.017450433 0.0072786575 -0.048167445
-0.06454669 -0.017480984 0.017631732 0.0085939 -0.01902387 0.06642068 0.14408374 0.079943925
-0.011901025 -0.03325729 -0.04111927 0.045504294 0.03900386 0.044031378 0.12584506 -0.011270389
-0.084247544 -0.03793684 -0.009734284 -0.05802543 -0.18952546 0.006674283 -0.10235883 0.0010276079
-0.042713944 -0.018416476 0.01885131 0.076344945 -0.05122086 0.05281984 -0.21486463 0.0862294
-0.048216674 -0.13389651 0.022587545 -0.01633701 -0.031281576 -0.020187488 -0.033999357 0.05320198
0.01946616 -0.01643029 -0.0155257685 0.022542255 -0.7079048 0.004866031 0.097633824 -0.09323843
-0.056234103 0.03335078 -0.026657986 0.07694822 0.048609186 -0.0065332004 0.015965603 0.013017499
-0.011153237 -0.0066743554 -0.019176548 0.038557544 0.030759599 0.03010468 0.01547115 0.0315838
-0.03495766 0.01405301 -0.014830814 0.0052789827 -0.018612362 -0.058765467 0.035268556 -0.018705377
-0.0320275 0.049437538 0.050678387 -0.01920858 -0.017393393 0.01847219 -0.0016574706 -0.011453912
0.038774256 -0.05760295 0.018156605 -0.009041244 0.010216203 0.03068874 0.016712371 -0.0016477412
0.011013985 -0.038582366 -0.07014405 0.028946552 0.01614451 0.034697063 -0.07693122 0.07772169
0.03868997 0.011753819 0.068437114 -0.0068332795 0.07719331 -0.037806284 0.027776148 0.026228568
0.034336004 -0.058406297 0.051656112 -0.03439506 -0.08953877 -0.024250887 0.047801234 0.014921321
-0.0024944327 0.023179332 -0.038326707 -0.060576208 0.0004632537 0.031963512 0.012370797 0.07482943
0.025316074 0.035949275 -0.05874102 0.0068706213 -0.03611082 0.011782281 -0.034176026 0.037721366
-0.017345948 0.007055207 -0.044275645 0.0060057803 -0.04269237 -0.03172392 0.06374624 -0.046855934
0.009817999 0.00524667 0.0069986675 -0.017962936 -0.007148657 0.07036337 0.065363996 0.031746637
0.041900378 -0.0453567 0.02843994 0.0018549608 0.022408884 0.071961954 -0.03746286 -0.020868465
0.006053021 -0.015067336 -0.0073361066 0.08058634 0.06884088 0.09216954 0.041927036 -0.0153763415
0.0012998166 -0.033004742 -0.016360605 0.003486596 0.024882622 -0.00045204992 0.02073429 0.0051151603
0.018587057 -0.1079386 0.029594058 -0.03503641 -0.019042335 -0.032898862 0.0047035953 -0.026239684

a2c_network.mu.bias f4 [4]
00000000: cfd5 26be ed27 4d3e a409 823d 2b43 afbd
-0.16292499 0.20034762 0.06349495 -0.08557733

exp_avg f4 [4]
00000000: 4a85 3c39 fffb 4e39 d484 2039 ac84 7838
0.00017978731 0.00019739567 0.00015308271 5.9251368e-05

exp_avg_sq f4 [4]
00000000: 143b 1934 2df2 fc33 9041 3534 b1bb 0434
1.4270728e-07 1.1778716e-07 1.688079e-07 1.236174e-07

exp_avg f4 [256, 12]
00000000: 8b30 0f38 6e6c 0ab9 c8fe a6b8 2c7a cb37
00000010: 4a81 8a38 e11e 8738 e37a eeb9 8864 e8b9
00000020: 0f81 0038 ee7e 25b8 dfc0 8bb9 0d5b 0239
00000030: 4c5c b437 ca2d 8b38 63bd 63b9 cd47 b736
00000040: f5c0 e9b8 8111 71b8 f248 163a 3614 3339
00000050: 78c9 9ab7 4509 aa37 2d98 14b8 2621 72b9
00000060: d8f2 c6b8 4ca8 e3b8 81c7 8139 ef3e 49b9
00000070: 8e7d 0e38 62bd c938 29e9 a0b9 553d 41b8
00000080: ec42 0eb8 0824 9637 3237 8e39 8fa4 b239
00000090: 584a f2b7 f6c0 9137 ed7e 4539 5735 d038
000000a0: 3a6d 3038 fcc6 a638 db85 a3b7 983a 31b8
000000b0: 0d96 fe35 81d9 bb37 1278 4439 7b91 a838
000000c0: 9f65 12b8 93ec c8b7 4e9d c338 15c3 c538
000000d0: 7136 8537 a3ab ef37 33e2 0239 8430 31b8
000000e0: df87 0ab6 9958 7037 7157 0539 613b 39b9
000000f0: ae1e a0b8 4d79 7ab9 a1c5 7139 3cd3 1ab9
00000100: 714c 1e39 12ae 9239 1b4c c9b9 f47b 59ba
00000110: 55bb 1bb6 7d78 10b8 a47f f537 b5a8 d139
00000120: 6e1e 5338 4758 14b7 0e47 5036 53aa 4db9
00000130: 804f 0038 576d f1b6 3eec 2cb9 cf92 2536
00000140: 4ff5 9137 fdbf 54b8 c6b8 3fb8 ef51 4738
00000150: 608a b2b7 dafe fdb8 1885 e939 46fa 51b9
00000160: 7c18 4c38 cf22 9d38 c407 27ba 65cc 9cb9
00000170: 46c7 9e37 2a60 b0b8 a617 c236 eebc 9639
00000180: a08b a7b4 9244 9739 30ce cbb8 32d4 da39
00000190: 39c3 3bb9 a3bf 39b9 d5b6 473a 1720 563a
000001a0: 76f3 9bb7 c0a1 e838 53e9 4639 a8d2 1db9
000001b0: 92ad 91b8 3abc 2c36 851e 86b9 74d0 a339
000001c0: 129a 4e36 859e d738 1021 7c39 e9f6 0b3a
000001d0: 39ae a7b7 1e1f 0539 b942 8a39 f2d6 f939
000001e0: 4bfe 96b8 e349 a638 0221 4c39 c578 cab6
000001f0: 2346 59b8 1f12 69b8 c97a 4b38 94f3 9a39
00000200: 25d3 22b8 cebf 9a38 f560 9639 55b5 99b7
00000210: 0f5c bfb7 b514 cf38 603b 4339 2db0 2b39
00000220: a61a 2eb8 162c 0bb8 3df4 8b39 ca23 c638
00000230: e492 2ab7 1477 4738 2496 6839 bd1a 50b9
00000240: e442 9b37 1930 75b8 80bd 2ab9 bc13 0539
00000250: ed2a 1338 cc17 1338 edb9 a5b9 6077 04b7
00000260: 4e8f 9b37 3498 2f36 4c94 c2b8 aa7d 7039
00000270: 68ee 13b7 cd81 0d38 af01 3439 326c a438
00000280: bf70 0c38 336e 4f38 f393 0438 a933 2eb9
00000290: 5e0c ad36 7ddf 9636 37bc d138 7af1 b8b8
000002a0: 6f4a 2737 33ad c7b8 d946 0139 fd22 95b9
000002b0: cdbd 6c38 75d1 7937 638e beb9 0a9d dfb9
000002c0: ec25 9436 10dd bab8 85f4 cbb9 33e9 76b9
000002d0: 8435 dab7 4937 79b9 bd0c d438 0153 c5b7
000002e0: 7ca8 0d39 7759 1039 d159 68ba 4a44 22ba
000002f0: 6580 9937 0d8f 7fb8 8994 9cb9 c5de e639
00000300: e1b9 8736 3be8 65b8 5037 5bb8 96d7 8e39
00000310: 19db 8235 535e 4a37 58b5 67b9 c74e 19b9
00000320: 65c7 6d37 d3e8 b6b7 507e f7b8 42a9 f2b6
00000330: 39fd 1338 1496 21b7 9f34 1cb9 1f44 b7b9
00000340: 83cb 1938 36f7 8ab7 3f00 7b39 4661 e9b8
00000350: dd5a 37b6 4e78 92b7 eba1 23b9 51bc 0aba
00000360: 64c2 2336 4909 2139 a816 e5b8 cf70 e339
00000370: 61d4 edb8 a9e7 91b8 52ea a939 ce50 cf39
00000380: f475 eb35 44d4 c537 ebac 1639 ec5f 1d39
00000390: 487e b338 1b6c 7138 e255 5fb8 a27a 7f37
000003a0: cb98 1038 7b41 18b8 d7e8 60b9 5e14 8039
000003b0: 9a4d 1138 c185 b5b7 79a3 9ab9 f858 dbb7
000003c0: 3cbe 6cb8 c9da 1839 37ae 7d39 c605 cd38
000003d0: e0f4 8db8 3939 14b8 405a 073a 42e6 c239
000003e0: d458 16b8 cbf8 df38 e1c5 c739 0249 63b9
000003f0: 951f 5d38 3739 a337 af11 6338 4300 afb9
3.4139066e-05 -0.00013201099 -7.9629535e-05 2.4256376e-05 6.604435e-05 6.443053e-05 -0.00045486455 -0.0004432539
3.0637773e-05 -3.9457278e-05 -0.00026655846 0.00012431685 2.1500651e-05 6.6365654e-05 -0.00021718959 5.4621837e-06
-0.00011146247 -5.747518e-05 0.00057329156 0.000170783 -1.8452047e-05 2.0269896e-05 -3.5427674e-05 -0.00023091267
-9.486609e-05 -0.00010855551 0.0002475344 -0.00019192298 3.397237e-05 9.619702e-05 -0.00030691296 -4.6071906e-05
-3.3917764e-05 1.7898172e-05 0.00027125474 0.0003407341 -2.8883267e-05 1.7375201e-05 0.00018834668 9.928148e-05
4.2063395e-05 7.9525606e-05 -1.9493446e-05 -4.225466e-05 1.8968145e-06 2.239342e-05 0.00018736746 8.037962e-05
-3.4903755e-05 -2.3952021e-05 9.327625e-05 9.430029e-05 1.5880187e-05 2.8570945e-05 0.00012482032 -4.2245272e-05
-2.064269e-06 1.4325743e-05 0.00012716443 -0.00017665095 -7.635109e-05 -0.00023887046 0.00023057174 -0.00014765275
0.00015096531 0.00027976983 -0.0003839441 -0.00082963635 -2.3205841e-06 -3.444449e-05 2.9265713e-05 0.00039989283
5.033466e-05 -8.842041e-06 3.1035775e-06 -0.00019613774 3.059162e-05 -7.1950885e-06 -0.00016491205 2.467237e-06
1.7399578e-05 -5.072354e-05 -4.5710032e-05 4.7521604e-05 -2.128369e-05 -0.0001211145 0.00044540386 -0.00020025027
4.8660193e-05 7.492827e-05 -0.00063717016 -0.00029906924 1.8927862e-05 -8.410246e-05 5.7844036e-06 0.00028750993
-3.1207765e-07 0.00028852053 -9.7182e-05 0.00041738298 -0.00017906436 -0.00017714365 0.00076184917 0.0008168234
-1.859081e-05 0.0001109275 0.00018969672 -0.00015051162 -6.946469e-05 2.573956e-06 -0.0002558121 0.00031245092
3.0786073e-06 0.000102815255 0.0002404491 0.00053392217 -1.998908e-05 0.0001269546 0.00026371123 0.00047653128
-7.199923e-05 7.929259e-05 0.00019467252 -6.0341285e-06 -5.180215e-05 -5.5568406e-05 4.8513324e-05 0.0002955465
-3.8820453e-05 7.379019e-05 0.00028682468 -1.832346e-05 -2.2811842e-05 9.874386e-05 0.00018618768 0.00016373461
-4.150965e-05 -3.318124e-05 0.00026694118 9.448042e-05 -1.016699e-05 4.7556197e-05 0.00022181176 -0.00019846387
1.8508588e-05 -5.8457346e-05 -0.00016283058 0.0001269122 3.508751e-05 3.5069694e-05 -0.00031609778 -7.895607e-06
1.8544171e-05 2.6165626e-06 -9.278263e-05 0.00022934997 -8.817391e-06 3.3737906e-05 0.00017166765 7.840282e-05
3.3483604e-05 4.9455277e-05 3.160904e-05 -0.00016613178 5.1572415e-06 4.496366e-06 0.00010000954 -8.818782e-05
9.971306e-06 -9.52132e-05 0.00012328791 -0.00028445563 5.644355e-05 1.4890325e-05 -0.0003634571 -0.00042650878
4.4151584e-06 -8.910347e-05 -0.00038901358 -0.00023547262 -2.6012545e-05 -0.00023767086 0.000101113204 -2.3522882e-05
0.00013509573 0.00013766238 -0.00088634813 -0.00061899854 1.829881e-05 -6.0929964e-05 -0.00029865306 0.00044034995
4.0449527e-06 -5.4814136e-05 -5.2265183e-05 0.00027244975 9.749521e-07 1.20621e-05 -0.00022097433 -0.00014620564
1.4172726e-05 -2.1804508e-05 -0.00011801405 -7.231866e-06 3.5283363e-05 -9.631291e-06 -0.00014896922 -0.00034955234
3.6667578e-05 -1.6565999e-05 0.00023937317 -0.000111284244 -2.7322014e-06 -1.7460578e-05 -0.0001560521 -0.00052923436
2.4402043e-06 0.00015357615 -0.00010923791 0.00043380863 -0.00011340599 -6.957289e-05 0.00032408774 0.0003954232
1.7543193e-06 2.3583074e-05 0.00014369532 0.0001500842 8.558907e-05 5.755956e-05 -5.3247328e-05 1.5227737e-05
3.4474575e-05 -3.6300607e-05 -0.00021449044 0.00024429237 3.4642966e-05 -2.1639165e-05 -0.00029494966 -2.6148264e-05
-5.6443954e-05 0.00014577353 0.0002419286 9.776237e-05 -6.7690155e-05 -3.5339242e-05 0.00051632896 0.0003717412
-3.5845515e-05 0.0001067981 0.0003810367 -0.00021675605 5.271992e-05 1.9457757e-05 5.4137487e-05 -0.00033378796
