logs/rl_games/klask/sim_collision_ro_a0_4/nn/klask.pth (torch, 29978 bytes, 24 tensors)

a2c_network.sigma f4 [4]
0	0xbfd2608d	-1.6435715
1	0xbfeaca95	-1.8343073
2	0xbe520ce5	-0.20512731
3	0xbe2c943e	-0.16853425

a2c_network.actor_mlp.0.weight f4 [32, 12]
0	0x3fb77b73	1.4334549
1	0x3ee1006b	0.4394563
2	0x3e409f05	0.18810661
3	0xbd66aaee	-0.056315355
4	0x3dfa70a7	0.12228518
5	0xbe295167	-0.16534959
6	0xbc13287b	-0.008981819
7	0x3d046262	0.032320388
8	0xbf8c4110	-1.0957355
9	0xbf92c1ae	-1.1465356
10	0xbed275a2	-0.41105372
11	0x3d944334	0.072393805
12	0xbfac0f7d	-1.3442227
13	0xbf44824b	-0.7676131
14	0xbdaf6927	-0.08564978
15	0xbd5d2b43	-0.053996336
16	0x3dc79c3a	0.09746595
17	0x3ca8a356	0.020585697
18	0x3de9f901	0.11424447
19	0xbd9ef12f	-0.07760846
20	0x3f87aa38	1.0598822
21	0x3f5926d6	0.84824884
22	0xbd40ddeb	-0.047086637
23	0x3eb75d80	0.35813522
24	0xbfc4cf27	-1.5375718
25	0x3e33d9f7	0.17563616
26	0xbd7c4495	-0.061588842
27	0x3e0b17a7	0.13583241
28	0xbce3dbdb	-0.027814796
29	0xbe4177c9	-0.1889335
30	0x3c845e30	0.016158193
31	0xbca93e56	-0.020659607
32	0x3f8dce49	1.1078578
33	0xbf8d4024	-1.1035199
34	0x3da45eae	0.08025871
35	0xbeb28b54	-0.34871924
36	0x3e297d04	0.16551596
37	0xbf96d4bc	-1.1783671
38	0x3d87cc87	0.06630807
39	0xbd0b321d	-0.03398334
40	0xbe01475a	-0.12624875
41	0x3e35b90a	0.17746368
42	0x3c132105	0.00898004
43	0x3d0e58ea	0.034752764
44	0xbe7a82bc	-0.24463934
45	0x3f4b7c08	0.7948613
46	0x3e4e2433	0.20130996
47	0xbf0b5cd8	-0.54438543
48	0x3f5ceb55	0.8629659
49	0xbfaedd1a	-1.3661225
50	0x3dd9d4bd	0.1063628
51	0xbcde590f	-0.027142076
52	0x3ddb6bfb	0.10713955
53	0xbe1cda2b	-0.153176
54	0x3c86842f	0.016420452
55	0xbcc5841c	-0.024110846
56	0xbf1f1530	-0.62141705
57	0x3ef9eb0f	0.48812148
58	0x3e60bbc2	0.21946624
59	0x3ee478e2	0.44623476
60	0x3fa77c94	1.3084893
61	0xbf91eb93	-1.1400017
62	0x3dd0fcde	0.102044806
63	0xbdd0f99f	-0.102038614
64	0xbd803c66	-0.0626152
65	0xbd2f31c9	-0.04277209
66	0xbb3bd34d	-0.002865988
67	0xbad96cb0	-0.0016588178
68	0xbfc40234	-1.5313172
69	0xbe7dc089	-0.24780478
70	0xbebb9feb	-0.36645445
71	0xbeb3a787	-0.3508875
72	0x3e7cb432	0.24678114
73	0x3f22745d	0.63458806
74	0x3e08c69b	0.13357012
75	0x3d7848de	0.060616367
76	0xbd95a09f	-0.07306027
77	0xbc7fd357	-0.015614352
78	0x3d6faa4c	0.058512017
79	0xbcec91d2	-0.028878126
80	0xbf22b5d4	-0.635587
81	0x3f38d282	0.7219621
82	0xbcea38c0	-0.028591514
83	0xbf2381c6	-0.63869894
84	0x3f25f05e	0.64819896
85	0xbe8bebbb	-0.27328286
86	0xbd88eca7	-0.06685763
87	0x3e10abdd	0.1412806
88	0xbd8aea31	-0.0678295
89	0xbe7ac427	-0.24488889
90	0x3c8461b4	0.01615987
91	0xbbddfc20	-0.0067744404
92	0xbed47fda	-0.41503793
93	0xbfb9ea27	-1.4524583
94	0xbe28622e	-0.16443703
95	0xbf37da21	-0.71817213
96	0xbf3e913f	-0.7444038
97	0xbfc44133	-1.5332397
98	0x3d098322	0.033572324
99	0xbd16c06f	-0.036804613
100	0xbdc3e751	-0.095656045
101	0xbe4d2b25	-0.2003599
102	0x3a48d364	0.0007660894
103	0xbb98fba0	-0.004668668
104	0xbeb9d6ae	-0.362966
105	0xc01e16b8	-2.4701366
106	0xbe354f3c	-0.17706007
107	0xbf6f8134	-0.93556523
108	0xbf1c1f8d	-0.6098564
109	0xbf76c078	-0.96387434
110	0xbdfda422	-0.123848215
111	0xbc526de0	-0.012843579
112	0x3d89c499	0.06726951
113	0xbe2c3def	-0.16820501
114	0x3c96902c	0.018379293
115	0xbac1746c	-0.0014759428
116	0x3f9b4584	1.213059
117	0x3eb5ac3e	0.35482973
118	0x3efa2f80	0.48864365
119	0x3e08274a	0.13296238
120	0xbf0115f0	-0.504241
121	0xbd89d0f0	-0.06729305
122	0xbbd77aeb	-0.0065759323
123	0x3f006e1b	0.5016801
124	0xbdf6b0a7	-0.120454125
125	0x3d0f5b5d	0.03499924
126	0x3aeca1b8	0.0018053567
127	0x3adc865a	0.0016824708
128	0x3e00764e	0.1254513
129	0xc04b4c84	-3.1765451
130	0xbcf136a7	-0.029445006
131	0xbfb808b6	-1.4377658
132	0x3e388cd1	0.18022467
133	0xbf91b4b4	-1.1383271
134	0xbdb30174	-0.087405115
135	0xbe1305bd	-0.14357658
136	0x3e89a3a9	0.26882675
137	0xbdc09dc1	-0.09405089
138	0x3b620867	0.0034489871
139	0x3c3ef247	0.011654443
140	0x3f328416	0.697328
141	0xc015c629	-2.3402197
142	0x3e90d274	0.28285563
143	0xbf735b02	-0.9506074
144	0xbf7c4a37	-0.9855074
145	0x3eb3eea3	0.35143003
146	0x3e9da375	0.3078877
147	0xbef61fa7	-0.48071024
148	0xbd268f7b	-0.040664177
149	0x3e4d31e0	0.20038557
150	0x3c392da0	0.011302382
151	0xbbeb1310	-0.0071739033
152	0x3f77defd	0.9682463
153	0x3f23ef56	0.6403707
154	0x3eb8fa10	0.36128283
155	0x3ed7c5d0	0.42143106
156	0x3e9df241	0.30848888
157	0xbf399f79	-0.7250896
158	0x3d499962	0.049218543
159	0xbd079fda	-0.03311143
160	0x3d997d5b	0.07494613
161	0xbe0d1679	-0.13778104
162	0xbd8e170e	-0.06937991
163	0xbd8b8ef4	-0.068143755
164	0xbef8ef28	-0.48619962
165	0x3c943325	0.018090794
166	0x3e27fc8c	0.16404933
167	0xbeb8a627	-0.36064264
168	0x3e25d122	0.16193059
169	0x3f99e642	1.2023394
170	0xbceffc6a	-0.029295165
171	0xbe32d7d7	-0.17465149
172	0x3e39fd04	0.18162924
173	0xbcca4e1b	-0.024695447
174	0x3e0792a0	0.13239527
175	0x3d081534	0.033223346
176	0xbf3e37de	-0.74303997
177	0x3df3a44c	0.118965715
178	0x3e2d9689	0.16951956
179	0xbea756ab	-0.3268331
180	0x3f69a64b	0.9126937
181	0x3f2e41f0	0.6806936
182	0x3b2c3afe	0.002628028
183	0xbda2b91e	-0.079454646
184	0xbc4b9d24	-0.012427602
185	0xbbb1e52c	-0.0054289307
186	0x3c9e78e1	0.019344749
187	0x3d2020a2	0.03909362
188	0xbf4833c6	-0.78204
189	0xbf01c3b1	-0.50689226
190	0x3dfac2be	0.122441754
191	0x3eded752	0.4352365
192	0x3e9f08ba	0.31061345
193	0xbee1287f	-0.4397621
194	0xbe8e6f71	-0.27819398
195	0xbecd0e4a	-0.40049964
196	0xbdc63f0b	-0.09679993
197	0x3e3a6bd0	0.1820519
198	0x3ccb582f	0.024822323
199	0x3c53bfcb	0.012924145
200	0xbf917006	-1.1362312
201	0xbe1e4fa2	-0.15460065
202	0xbeb6d0e3	-0.35706243
203	0x3ee98fbf	0.45617482
204	0x3fabc6e1	1.3420068
205	0x3eb0983d	0.3449115
206	0x3cff2477	0.031145317
207	0xbc1e3c30	-0.0096579045
208	0x3e1b75b8	0.15181625
209	0x3e50dba1	0.20396282
210	0x3b6a1361	0.0035717117
211	0xbd58d45f	-0.052936908
212	0xbfb503a1	-1.4141732
213	0x3f205060	0.6262264
214	0x3e3e1d93	0.18565969
215	0x3cd47c5d	0.025938207
216	0x3f7894e7	0.97102207
217	0xbf695ddd	-0.9115885
218	0x3d7c74b9	0.061634753
219	0x3e257a34	0.16159898
220	0x3ddaf8fa	0.1069202
221	0x3c2bfbd7	0.010497055
222	0x3cfe5862	0.031048004
223	0x3d5ea0e3	0.054352652
224	0xbf67b62d	-0.90512353
225	0x3d90029a	0.07031746
226	0xbeaa4db5	-0.3326241
227	0xbe7546cb	-0.23952787
228	0x3daddda6	0.08489542
229	0xbe1fe9f2	-0.15616587
230	0x3e139eb6	0.14416012
231	0x3d67778b	0.05651049
232	0x3d0fa1ac	0.03506629
233	0x3a1ffa2e	0.00061026483
234	0xbc6e708c	-0.0145532
235	0x3c16cf08	0.0092046335
236	0xbf3ad2a5	-0.7297767
237	0x3eb787bd	0.35845748
238	0x3d0fd64d	0.035116483
239	0xbede0713	-0.43364772
240	0xbef8e726	-0.48613852
241	0xbfa36a7c	-1.2766871
242	0xbd3e7ec4	-0.046507612
243	0xbe1e0ba9	-0.15434135
244	0x3e7d4044	0.24731547
245	0xbc5768a6	-0.013147509
246	0x3c021f5c	0.007942047
247	0x3bda955c	0.006670637
248	0x3f634022	0.88769734
249	0xc0141bf4	-2.3142061
250	0x3dcf3445	0.101173915
251	0xbf8df043	-1.1088947
252	0xbf6ae2c2	-0.91752255
253	0x3f8e2180	1.1103973
254	0xbe182779	-0.14858808
255	0x3d2b5f76	0.041839086

a2c_network.actor_mlp.0.bias f4 [32]
0	0xbe06301a	-0.13104287
1	0x3e423dc9	0.18968882
2	0xbe960b53	-0.29305515
3	0xbcf1b9bb	-0.029507509
4	0xbe17ca04	-0.14823157
5	0xbe2787f7	-0.1636046
6	0x3d111ad7	0.035425987
7	0xbf366953	-0.7125446
8	0xbc8de2c2	-0.01732004
9	0xbe5ec4a3	-0.21754698
10	0x3e5df5de	0.21675822
11	0xbc81e477	-0.01585601
12	0x3d9cf242	0.076633945
13	0xbe909cf9	-0.2824476
14	0xbe0c01a3	-0.136725
15	0x3df9bc44	0.12194112
16	0x3dab4183	0.08362105
17	0x3d91a443	0.071114086
18	0xbe932db9	-0.2874582
19	0x3f00b9e8	0.5028367
20	0x3d9ca9a7	0.07649546
21	0x3effdedd	0.4997472
22	0xbe01fda8	-0.12694418
23	0x3e73ab29	0.23795761
24	0x3ea4ed60	0.32212353
25	0xbe1f6458	-0.15565622
26	0xbf064c0a	-0.52459776
27	0xbdb26745	-0.08711103
28	0xbdab0a8e	-0.083516225
29	0x3d6bd49a	0.0575758
30	0xbefe97bf	-0.49725148
31	0xbe00542a	-0.12532106

a2c_network.actor_mlp.2.weight f4 [32, 32]
0	0x3eee9dc5	0.46604744
1	0xbe687ad1	-0.227031
2	0x3e77517b	0.24152176
3	0xbf2ff0a1	-0.68726546
4	0x3dcbcd83	0.099513076
5	0xbe2bf47c	-0.16792482
6	0xbe1cb7de	-0.15304515
7	0x3ee61975	0.44941297
8	0xbebfe1dd	-0.37477008
9	0x3e360c3b	0.17778103
10	0xbe3b05d3	-0.1826394
11	0xbe3edcf7	-0.18638979
12	0xbdc263d6	-0.094916984
13	0x3dc9a7e7	0.09846478
14	0x3ea3a7e9	0.31964043
15	0x3ed9a6b7	0.42510006
16	0x3cf9b63c	0.030482404
17	0xbe785ac1	-0.2425337
18	0xba2dd9eb	-0.00066318986
19	0xbee531cb	-0.44764552
20	0xbe58ba6a	-0.21164861
21	0xbf01757c	-0.5056989
22	0x3eb396ef	0.3507609
23	0xbec61a44	-0.38691914
24	0xbf151967	-0.58241886
25	0x3d88df3f	0.06683206
26	0x3eca33b3	0.39492568
27	0x3f00e8b3	0.5035507
28	0x3dcbd623	0.09952953
29	0x3dd001ec	0.101566166
30	0x3f2a747d	0.66583997
31	0x3e3103cb	0.17286603
32	0xbf14766c	-0.579932
33	0x3e9986bf	0.29985616
34	0x3f429e7e	0.7602309
35	0xbf30ebe9	-0.6910997
36	0xbe4f008c	-0.20215052
37	0xbf4286ee	-0.75987136
38	0xbe9f5a04	-0.31123364
39	0xbe2845c6	-0.16432866
40	0x3e5336ad	0.20626326
41	0x3e54690f	0.20743202
42	0x3f041a1a	0.5160233
43	0x3d0e1a6a	0.03469316
44	0x3e8da836	0.27667397
45	0xbecafddd	-0.39646807
46	0xbe2dd61b	-0.16976206
47	0xbd3719ec	-0.044702455
48	0xbe3a4449	-0.18190111
49	0xbf0e282d	-0.55530053
50	0xbf27dd21	-0.6557179
51	0xbe7b4ace	-0.24540254
52	0x3e18f330	0.14936519
53	0x3d9a73ac	0.07541594
54	0xbe9b80e9	-0.30371788
55	0xbee144b8	-0.4399774
56	0xbf2317c4	-0.6370814
57	0x3cb39391	0.021920951
58	0x3dca264b	0.09870585
59	0xbe8d7d38	-0.27634597
60	0x3f2af2b3	0.6677658
61	0x3ce43cf0	0.027861089
62	0x3edf09a3	0.4356204
63	0x3e9a7d9b	0.30173954
64	0x3d3bbecd	0.04583626
65	0xbe054d69	-0.13017811
66	0x3d4dbfe6	0.050231837
67	0x3d597199	0.05308685
68	0x3e52a2d6	0.2056993
69	0x3e7ab9f4	0.24484998
70	0x3e1566a2	0.14589933
71	0x3eaa2289	0.33229473
72	0xbe2f88ef	-0.1714208
73	0x3e6a08b5	0.22854884
74	0xbf19a493	-0.60016745
75	0xbd298053	-0.041382145
76	0xbe48bfe6	-0.19604453
77	0x3ec0bfcf	0.37646338
78	0x3c2ce287	0.010552055
79	0xbf012be6	-0.5045761
80	0xbe99d821	-0.30047706
81	0xbe7776f6	-0.24166474
82	0x3ed094d9	0.40738562
83	0xbec3fcb4	-0.38278735
84	0xbe18554b	-0.14876287
85	0xbec6e076	-0.38843125
86	0xbda8f9e4	-0.08250788
87	0xbea2be80	-0.31785965
88	0xbe79adc3	-0.24382691
89	0xbea0e360	-0.31423473
90	0x3f1e6983	0.6187975
91	0x3df99c1d	0.12187979
92	0x3d8b6b86	0.06807618
93	0xbdd03e9c	-0.10168192
94	0x3eb45b10	0.35225725
95	0x3e9790a6	0.29602545
96	0xbec9365f	-0.39299294
97	0x3ede17e6	0.43377608
98	0xbefb7255	-0.49110666
99	0xbe146b1f	-0.14493988
100	0x3be9a193	0.007129857
101	0xbe721b4d	-0.23643227
102	0xbda0c855	-0.0785071
103	0xbeeb3a8b	-0.45943102
104	0x3db1ae90	0.08675873
105	0x3c1268bc	0.008936103
106	0x3f09dff4	0.5385735
107	0xbcb4867b	-0.022036782
108	0x3efb5f72	0.49096256
109	0xbf0f939f	-0.56084627
110	0xbea5e23e	-0.32399172
111	0x3e8ba4fa	0.27274305
112	0x3dac135f	0.08402132
113	0x3e7015bb	0.2344579
114	0xbef95851	-0.48700193
115	0x3e6e86ff	0.23293684
116	0x3e86fb34	0.26363528
117	0x3d51574d	0.051108647
118	0x3eedcf5e	0.4644727
119	0x3f1946a5	0.5987342
120	0x3ee48a67	0.44636843
121	0xbef37049	-0.47546604
122	0xbf09ef3f	-0.53880686
123	0xbe548983	-0.20755582
124	0x3e13527b	0.14386933
125	0x3ec75656	0.38933057
126	0xbf23071c	-0.63682723
127	0xbf00633c	-0.5015142
128	0xbe271664	-0.16317135
129	0x3e34c1f3	0.17652111
130	0xbddfca57	-0.10927265
131	0x3f50b499	0.8152557
132	0x3ed982c9	0.42482594
133	0x3f0633b2	0.5242263
134	0x3e460ab5	0.19340022
135	0xbe985b70	-0.2975726
136	0x3d2777bf	0.040885683
137	0x3e22ae53	0.15886812
138	0xbf9ba4ec	-1.2159705
139	0xbd32c463	-0.04364432
140	0xbf0adba0	-0.5424137
141	0x3e3a7043	0.18206887
142	0xbeb3bd47	-0.35105345
143	0xbf4d4c0d	-0.8019417
144	0xbe50a307	-0.2037469
145	0xbe67b2eb	-0.22626846
146	0x3eec6d6c	0.46177232
147	0x3e39f2f0	0.1815908
148	0xbd8d4777	-0.068983965
149	0x3e4eaa7a	0.20182219
150	0xbedf3812	-0.43597466
151	0xbe33aba3	-0.17545943
152	0x3d9c97b8	0.076461256
153	0xbe8d116a	-0.27552348
154	0x3dbcdcc5	0.09221796
155	0xbe8cc176	-0.2749135
156	0xbe23b4ba	-0.1598691
157	0x3db89cf2	0.0901431
158	0xbe89bce5	-0.26901928
159	0xbe15cdbc	-0.14629263
160	0xbf1654ae	-0.5872296
161	0x3f21e385	0.6323779
162	0xbe4d05b2	-0.20021704
163	0x3db67d89	0.08910663
164	0xbe213b5b	-0.15745299
165	0xbe9625ff	-0.29325864
166	0xbe33350f	-0.17500709
167	0xbeef27a7	-0.4670994
168	0x3e2d01bb	0.16895191
169	0xbcdfe3e0	-0.027330339
170	0x3e59cfcb	0.21270673
171	0x3df7d11c	0.12100431
172	0x3eeefe61	0.4667845
173	0xbecd2703	-0.40068826
174	0xbed7c255	-0.4214045
175	0xbe6b7dfe	-0.22997281
176	0xbc262afb	-0.010142083
177	0xbdf677c7	-0.120345645
178	0xbf1bbce5	-0.60835105
179	0x3e2dd32c	0.16975087
180	0x3e818d83	0.25303277
181	0x3e19b12a	0.15008989
182	0x3eaebf4b	0.3413032
183	0x3e327c00	0.17430115
184	0xbd0b0294	-0.033938006
185	0xbe46d05c	-0.1941542
186	0xbebab8a1	-0.36468986
187	0xbef03201	-0.4691315
188	0x3ed809ee	0.42195076
189	0xbcfc061f	-0.030764638
190	0xbf04e1d2	-0.51907074
191	0xbe859004	-0.26086438
192	0xbd3a78f2	-0.0455255
193	0x3de446fe	0.11146353
194	0xbe5de0b3	-0.21667747
195	0xbeb5453f	-0.35404393
196	0xbf0929ca	-0.5357939
197	0xbf01704f	-0.50561994
198	0x3c043b5f	0.008070796
199	0xbe9a7d95	-0.30173936
200	0xbf7607e6	-0.961058
201	0xbd955e42	-0.07293369
202	0xbfee2652	-1.8605444
203	0xbf31a516	-0.69392526
204	0xbd1b9340	-0.037982225
205	0xbe0a8b1c	-0.13529629
206	0xbe17d423	-0.14827017
207	0xbe52b0d5	-0.20575269
208	0xbe9607f9	-0.29302958
209	0xbf781f27	-0.96922535
210	0xbed24d3e	-0.41074556
211	0xbd5964da	-0.053074695
212	0xbf06ff98	-0.52733755
213	0x3e99e2e6	0.30055922
214	0xbe0e8214	-0.13916808
215	0xbe0b9e76	-0.13634667
216	0xbea5392f	-0.3227019
217	0xbe9848bc	-0.29742992
218	0xbe2c8daf	-0.16850923
219	0xbeab7913	-0.3349081
220	0x3cf659c8	0.030072108
221	0xbecbe554	-0.398234
222	0x3e0f9be4	0.14024311
223	0x3ea7e2c0	0.32790184
224	0xbd912b3c	-0.070883244
225	0x3e0b1aed	0.1358449
226	0x3ef56a73	0.47932777
227	0x3ed89550	0.42301416
228	0x3dd8cb02	0.10585596
229	0x3c31ae78	0.010844819
230	0xbd4c8fb8	-0.04994175
231	0x3f0191f4	0.5061333
232	0xbd6b27c2	-0.057410963
233	0x3f020377	0.50786537
234	0xbeb76b44	-0.35824025
235	0x3e6495b0	0.22322726
236	0xbc46d251	-0.012135104
237	0x3efefb7d	0.49801245
238	0xbd8dcf38	-0.069242895
239	0xbf000421	-0.500063
240	0xbdc2b2a9	-0.09506733
241	0xbf1740d9	-0.59083325
242	0x3e0eac1a	0.13932839
243	0xbde860a8	-0.11346561
244	0x3eb49a37	0.35273907
245	0x3d957343	0.07297375
246	0xbe3b563c	-0.18294615
247	0xbe158b76	-0.14603981
248	0xbe82d097	-0.25549766
249	0x3d3d6f2e	0.046248607
250	0x3e1ddb84	0.1541577
251	0xbe866a16	-0.26252812
252	0x3ea9e386	0.331814
253	0x3db1933d	0.086706616
254	0x3edfb89f	0.43695542
255	0x3eb2a77f	0.34893414

a2c_network.actor_mlp.2.bias f4 [32]
0	0xbef8f8fa	-0.48627454
1	0xbe675b1e	-0.22593352
2	0xbeb2bbff	-0.34909055
3	0x3eb0700f	0.34460494
4	0xbcb151e8	-0.021645501
5	0x3e994d6a	0.29941875
6	0xbdc27bd3	-0.09496274
7	0xbe36bdb5	-0.17845805
8	0xbf07fdb5	-0.531215
9	0xbe9119a6	-0.2833988
10	0xbdc20bbe	-0.09474896
11	0xbe1b6581	-0.1517544
12	0xbe719f42	-0.23595908
13	0xbe0aa59b	-0.13539736
14	0xbebb1845	-0.36541954
15	0x3e61b9a5	0.22043474
16	0xbd89ec8c	-0.06734571
17	0x3dfe2913	0.12410178
18	0xbe42beaa	-0.19018045
19	0xbec9d62b	-0.3942121
20	0xbe599ec4	-0.2125197
21	0xbd9e490f	-0.077287786
22	0x3ee09224	0.43861496
23	0x3edb104a	0.42785865
24	0xbeec7322	-0.4618159
25	0xbddc7469	-0.10764391
26	0xbe1f3528	-0.15547621
27	0xbe759346	-0.23981962
28	0xbe1c8492	-0.15284947
29	0xbb1da239	-0.002405299
30	0xbe0844b2	-0.13307455
31	0x3de542d6	0.111943886

a2c_network.value.weight f4 [1, 32]
0	0xbef45096	-0.47717732
1	0x3d353eb9	0.04424927
2	0xbef61cfe	-0.48068994
3	0x3f116898	0.5680022
4	0xbf6027cc	-0.87560725
5	0x3f061198	0.52370596
6	0xbf558c4d	-0.83417207
7	0xbf0e7452	-0.5564624
8	0xbf12197c	-0.57070136
9	0xbf7613ad	-0.9612377
10	0xbf6d9142	-0.9279977
11	0xbf7ad28d	-0.97977525
12	0xbf24cb10	-0.6437235
13	0xbf885f69	-1.0654117
14	0xbee183b2	-0.44045788
15	0x3ebc53fa	0.3678282
16	0xbf367b3c	-0.7128179
17	0x3f332da7	0.69991535
18	0xbf01de4a	-0.5072981
19	0xbec492dc	-0.38393295
20	0xbf125728	-0.5716424
21	0xbf8c6350	-1.0967808
22	0x3f1ca2b2	0.61185753
23	0x3f32460f	0.6963815
24	0xbf2ee14b	-0.6831252
25	0xbec64d84	-0.38731015
26	0xbec699d3	-0.38789234
27	0xbebe9e87	-0.37230322
28	0xbf183848	-0.5946088
29	0xbe22101e	-0.1582646
30	0xbf9081ca	-1.1289608
31	0x3f33fef5	0.7031091

a2c_network.mu.weight f4 [4, 32]
0	0xbd87ff95	-0.06640545
1	0x3faa54a9	1.3307086
2	0xbccaaad7	-0.024739666
3	0x3d05a757	0.03263029
4	0x3c24d5d4	0.010060746
5	0x3f152ea0	0.5827427
6	0x3ee35c69	0.4440644
7	0x3e1d67c5	0.15371616
8	0x3e6b3ec5	0.22973163
9	0xbecdedf1	-0.40220597
10	0x3e4ba65e	0.19887683
11	0x3e921641	0.28532603
12	0xbe05dd83	-0.13072781
13	0xbe348b67	-0.17631303
14	0xbdf4cc1c	-0.11952993
15	0xbee1a081	-0.44067767
16	0x3d6614e3	0.056172263
17	0x3d35fbd6	0.044429623
18	0x3cd88d5a	0.02643459
19	0xbec4a42b	-0.384065
20	0xbe86bef8	-0.26317573
21	0xbe89081e	-0.26764005
22	0xbc79fd1f	-0.015258103
23	0xbe5ff69e	-0.2187142
24	0x3e2a559b	0.16634218
25	0xbf462aad	-0.7740887
26	0x3d162b31	0.036662284
27	0xbe1a8a36	-0.15091786
28	0x3e147a59	0.14499797
29	0x3ecf4308	0.40480828
30	0xbe3cac77	-0.18425165
31	0xbf55d811	-0.83532816
32	0xbf173259	-0.590612
33	0xbf01fe02	-0.5077821
34	0x3e0592f8	0.13044345
35	0x3d81212c	0.06305155
36	0x3f5ec439	0.8701816
37	0x3e3abcd4	0.18236095
38	0x3e47f4ab	0.19526927
39	0x3e3d86c9	0.18508448
40	0xbf203431	-0.6257964
41	0xbe91074a	-0.28325874
42	0x3b353986	0.0027652695
43	0x3cc4d87e	0.024029013
44	0x3edaa397	0.42702934
45	0xbd984e1d	-0.07436774
46	0xbe3df7b0	-0.18551517
47	0x3f2bbe6b	0.6708743
48	0x3ef6deb5	0.48216787
49	0xbed95de8	-0.42454457
50	0x3e64f014	0.22357208
51	0xbf0cb46b	-0.54962796
52	0x3e8479f8	0.25874305
53	0x3ac7ac7e	0.0015233902
54	0xbe6a1981	-0.22861291
55	0xbe45c9e9	-0.19315304
56	0xbe7ee336	-0.24891362
57	0x3e31bb04	0.17356497
58	0xbea10a58	-0.31453204
59	0xbe17c07e	-0.14819524
60	0x3eb13265	0.3460876
61	0x3f06a197	0.52590317
62	0xbe164028	-0.14672911
63	0xbf03a0e4	-0.51417375
64	0xbc3b96c8	-0.011449523
65	0xbe4edea0	-0.20202112
66	0xbd750b12	-0.05982501
67	0xbd85e2b3	-0.0653738
68	0x3dab8e85	0.08376793
69	0x3c8b3190	0.016991407
70	0xbcf180d5	-0.029480377
71	0x3d87d17a	0.06631751
72	0x3d30ba8e	0.043146662
73	0xbd14da63	-0.036341082
74	0x3e166f89	0.14690985
75	0x3d727670	0.059194982
76	0xbc99febb	-0.018798223
77	0x3cff873d	0.031192416
78	0xbe42033e	-0.1894655
79	0xbd85a9b0	-0.06526506
80	0x3ded4139	0.11584706
81	0x3d258d69	0.040418062
82	0x3cb2fc10	0.021848708
83	0xbb72bfce	-0.0037040594
84	0xbd160615	-0.036626894
85	0xbe400fb7	-0.18755995
86	0xbd82b390	-0.06381905
87	0x3db1e076	0.08685391
88	0x3d573987	0.052545097
89	0xbdadaa2c	-0.08479723
90	0xbdae9838	-0.08525127
91	0x3dde7916	0.10862939
92	0x3d52f7f1	0.051505987
93	0x3da9549d	0.08268092
94	0x3d044ab9	0.032297824
95	0xbe4586a5	-0.19289644
96	0x3d88ec9f	0.06685757
97	0x3e34d52e	0.17659447
98	0xbda66d51	-0.08126319
99	0x3df5cafb	0.12001606
100	0x3d178c99	0.03699932
101	0x3e35e271	0.17762162
102	0x3c9679e3	0.018368667
103	0xbef30b47	-0.4746954
104	0xbd97a644	-0.074047595
105	0x3df59d64	0.119929105
106	0x3db138ee	0.086534366
107	0x3e2c42e2	0.16822389
108	0x3d914f2b	0.07095178
109	0x3d02d5f1	0.03194231
110	0x3d3a7ae2	0.045527346
111	0x3c7b9a08	0.015356548
112	0x3dfef7b4	0.12449589
113	0x3cb570b6	0.022148471
114	0x3db352c6	0.08756022
115	0x3ce8377a	0.028346766
116	0x3ca2c1a0	0.019867718
117	0xbe8421fd	-0.2580718
118	0xbe39898b	-0.18118875
119	0xbd4ab937	-0.04949304
120	0xbdc1d27e	-0.09463976
121	0xbb01dab5	-0.0019814197
122	0x3cac0966	0.021000575
123	0x3d8557ab	0.06510862
124	0x3e4444b6	0.19166836
125	0x3e10f903	0.1415749
126	0x3c6d5804	0.014486317
127	0x3d1d387f	0.038383957

a2c_network.mu.bias f4 [4]
0	0x3d301ed6	0.042998157
1	0x3d7d7ff0	0.06188959
2	0xbcad3f34	-0.021148302
3	0xbe01cc48	-0.12675583

exp_avg f4 [4]
0	0xbc467253	-0.012112218
1	0xbbc97d28	-0.006148953
2	0x3a50d9cc	0.00079670246
3	0xbb112d0e	-0.0022152099

exp_avg_sq f4 [4]
0	0x387e3f6e	6.0617393e-05
1	0x3898b160	7.2809635e-05
2	0x381e4d54	3.7742153e-05
3	0x37c14c75	2.3042996e-05

exp_avg f4 [32, 12]
0	0x37078082	8.076548e-06
1	0x3982f1ec	0.00024975778
2	0x3c1c3b08	0.0095355585
3	0xbbbc9c50	-0.0057559386
4	0xba13974c	-0.000563015
5	0x364d7545	3.061564e-06
6	0xbc8c539e	-0.017129716
7	0x3c50b099	0.012737417
8	0xba02812a	-0.00049783534
9	0xb9dac5cf	-0.0004172758
10	0x3a64cc63	0.0008727966
11	0xbac65d82	-0.0015134069
12	0x3a2a1624	0.00064882846
13	0xba8f522e	-0.0010934526
14	0xbc635ee3	-0.013877603
15	0x3c26b159	0.010174119
16	0x3a49c814	0.00076973555
17	0x3a4b4ef7	0.0007755602
18	0x3c2574fa	0.01009869
19	0xbb9dc87a	-0.0048151584
20	0x3a4d3b6b	0.00078289834
21	0x39dc054d	0.0004196562
22	0x3b549dbd	0.0032442652
23	0x3b1b7f44	0.002372698
24	0x3b03b541	0.002009705
25	0x3b5a4e12	0.0033310694
26	0x3bd9b8e4	0.006644355
27	0x3a72e46e	0.0009265606
28	0xb9533425	-0.00020141953
29	0xbadf9b8a	-0.0017059904
30	0x3bbde3b9	0.005794969
31	0xbcb5e9b5	-0.022206167
32	0x3b35f0cb	0.0027761932
33	0x3b406e19	0.0029362498
34	0xbc4af525	-0.012387549
35	0xbb216e3c	-0.0024632355
36	0xbbc90435	-0.0061345347
37	0xbb9300ae	-0.004486165
38	0xbb98922e	-0.004656098
39	0xbbbe39d4	-0.0058052335
40	0x3aaae290	0.0013037492
41	0x3b21c527	0.0024684162
42	0x3acdd2d8	0.0015703095
43	0x3c95d7cd	0.018291378
44	0xbbc08618	-0.00587536
45	0xbb418933	-0.002953124
46	0x3cc4847a	0.023988951
47	0x3b2602c5	0.002533124
48	0xbb39cd2f	-0.0028351059
49	0xbb1f2c2d	-0.0024287805
50	0xbc0fc4a2	-0.008774908
51	0x3ad3b00a	0.0016150486
52	0x3aa5d16a	0.0012650911
53	0x3b100e69	0.0021981245
54	0xbb92e87c	-0.0044832807
55	0x3cad9482	0.021188978
56	0xbb2954d8	-0.0025837924
57	0x39adfbd5	0.0003318476
58	0x3c52466c	0.012834173
59	0x3b2601b9	0.0025330617
60	0xbb5d4a1a	-0.0033766092
61	0xbb33f0c5	-0.0027456742
62	0xbb7b45b8	-0.0038341116
63	0xbbd2a36f	-0.006428174
64	0x3a0b63be	0.0005317292
65	0x3b0268cb	0.0019898887
66	0xbbf8a2ea	-0.0075877802
67	0x3cba743a	0.0227605
68	0xbb6d4dbd	-0.0036209666
69	0xba976438	-0.0011550253
70	0x3c5d6139	0.013511949
71	0xbb00736a	-0.0019600042
72	0xbac8191a	-0.001526627
73	0xb97f7c22	-0.00024364938
74	0x3ba427f8	0.0050096475
75	0xbb97030a	-0.0046085166
76	0xb8e67667	-0.00010989309
77	0xb99e89dc	-0.00030238822
78	0xbabb92c8	-0.0014310712
79	0xba0891e8	-0.000520973
80	0xbab5facd	-0.0013883949
81	0xba5e092c	-0.00084699946
82	0x3b0d6745	0.0021576446
83	0xba614e94	-0.0008594778
84	0xba34b033	-0.0006892711
85	0x3a564960	0.0008174386
86	0x3b8144e3	0.0039449795
87	0xbbb0a59b	-0.0053908355
88	0xb9613497	-0.00021477263
89	0xb9bcee03	-0.00036035487
90	0xbacc529b	-0.0015588583
91	0x395e07a6	0.00021174419
92	0xb9a10a67	-0.00030716063
93	0x3a987a27	0.0011633084
94	0x3a8321f4	0.0010004626
95	0xbb170729	-0.002304504
96	0x3a391899	0.0007060855
97	0xbb0fdd2a	-0.0021951892
98	0xbc61c7eb	-0.013780574
99	0x3bd1a5c4	0.0063979346
100	0x3a331b74	0.0006832399
101	0x3aa7d4b3	0.0012804478
102	0x3a2bbfdb	0.0006551721
103	0x3be22c14	0.006902227
104	0x3a3b0d00	0.0007135421
105	0xba2fb75c	-0.0006703043
106	0x3b843cb8	0.0040355586
107	0xbb24a601	-0.002512336
108	0xbb1ee914	-0.0024247812
109	0xb9b223d7	-0.00033977508
110	0xbb9a6461	-0.004711673
111	0xbab3c1f1	-0.0013714415
112	0x3a101ed5	0.00054977584
113	0x394e45d0	0.00019671698
114	0x3bf1b0f5	0.0073758313
115	0xbb8dc314	-0.0043262336
116	0xbb0449bb	-0.0020185548
117	0x39fefd70	0.0004863548
118	0x3be5de54	0.007015029
119	0xba25241e	-0.00062996324
120	0x3c16684b	0.009180139
121	0xbaf05a85	-0.0018337524
122	0xbcddb3a9	-0.027063208
123	0x3ceb9dfe	0.02876186
124	0xb9f9d8b3	-0.00047654434
125	0x3b1c1616	0.0023816875
126	0xbc94fa60	-0.018185794
127	0x3c14d9a3	0.009085092
128	0x3bf3d5f6	0.0074412776
129	0xb9578207	-0.00020552437
130	0xbcbf29b0	-0.023335308
131	0xbbaeb34d	-0.005331433
132	0x3a9b8cf3	0.0011867568
133	0xba9cbfe9	-0.0011959049
134	0xbbda136a	-0.0066551464
135	0x3b2904d2	0.0025790227
136	0x3a02b821	0.0004986544
137	0x3a7dcf2a	0.0009682054
138	0xbb678079	-0.0035324378
139	0x3c005c0d	0.007834447
140	0x3a6f720b	0.000913412
141	0xb9066f35	-0.00012820664
142	0xbb3b3c92	-0.0028570038
143	0xbb939f33	-0.004505062
144	0x3b22347f	0.0024750528
145	0x3b008b5e	0.001961432
146	0xbc229d98	-0.009925269
147	0x3bf7beb1	0.007560574
148	0xb9e27469	-0.0004319281
149	0xba9c2566	-0.0011913001
150	0x3afdb76f	0.0019357036
151	0xbb416adb	-0.0029513154
152	0x3b4ce734	0.0031265737
153	0x3b5bcc0e	0.0033538374
154	0xbbf38014	-0.0074310396
155	0xbba2823a	-0.004959372
156	0xbb418b41	-0.0029532465
157	0xba7a1270	-0.00095394906
158	0x3b901f9a	0.0043982984
159	0xbc15e634	-0.009149123
160	0x399342d3	0.00028087813
161	0x3a18e3ae	0.0005832267
162	0xbad6d782	-0.0016391131
163	0x3bfcce67	0.0077150348
164	0xbb28cdb5	-0.0025757377
165	0xb9a8a66a	-0.00032167445
166	0x3c1a33cc	0.009411763
167	0xbb14027c	-0.0022584489
168	0x39d4b51f	0.00040570737
169	0x3ac9beff	0.0015392004
170	0x3bf45ca2	0.0074573318
171	0xbb4c1cfa	-0.00311452
172	0xba47bfa7	-0.0007619806
173	0xba845187	-0.0010095098
174	0xbb3f149b	-0.002915657
175	0xbb8c36df	-0.004279002
176	0x3a07bd7d	0.0005178077
177	0x3a392b22	0.0007063617
178	0xbb8fd8b2	-0.0043898458
179	0xbaf59b10	-0.0018738229
180	0x3b491291	0.0030681232
181	0x39fda86a	0.000483814
182	0xbaf3f5f5	-0.001861273
183	0x3b73d630	0.0037206523
184	0xba6fd49b	-0.0009148807
185	0x390e929c	0.00013596792
186	0xbca123e8	-0.019670442
187	0x3c6dbb0c	0.0145099275
188	0x3b225bd6	0.0024773977
189	0x39951605	0.000284359
190	0xbc8b3f7b	-0.016998043
191	0xbb39396a	-0.0028262981
192	0x3827ded5	4.002343e-05
193	0xbac7e4a8	-0.001525064
194	0xbc29b4f3	-0.010358083
195	0x3b84c775	0.0040520974
196	0x39b4322d	0.0003436966
197	0x3abfabd6	0.0014623355
198	0xbc254891	-0.010088102
199	0x3c96ff06	0.018432152
200	0xb9c0b359	-0.00036754718
201	0x3984c88e	0.00025326427
202	0xbae24db9	-0.0017265595
203	0x3a5c0dec	0.00083944085
204	0xb9971e03	-0.00028823325
205	0xba8ba119	-0.0010652869
206	0xbae645fb	-0.0017568463
207	0x3ab2045a	0.0013581619
208	0xb923f453	-0.00015635909
209	0x3a817d0a	0.0009879183
210	0xbc5f2fad	-0.013622207
211	0x3ca564c4	0.02018965
212	0xb9921075	-0.00027859551
213	0xb9026ff4	-0.00012439472
214	0x38f38de7	0.00011613574
215	0x3b47d893	0.0030494079
216	0xbb7272f6	-0.0036994792
217	0xba8a5717	-0.0010554519
218	0x3b98f473	0.0046678125
219	0xbc22d462	-0.009938331
220	0x39d1a618	0.00039987336
221	0x3a8d807e	0.001079574
222	0xbac868aa	-0.0015289981
223	0x3c2de935	0.010614683
224	0xbb72c9f8	-0.0037046652
225	0x3982b319	0.0002492897
226	0x3c2f21c0	0.010689199
227	0xbb336753	-0.0027374818
228	0xba158a30	-0.00057044905
229	0xbaecd628	-0.0018069195
230	0xbb54bf73	-0.0032462745
231	0x3b0d4db3	0.0021561205
232	0x39996222	0.0002925555
233	0x3a5ac35d	0.00083451514
234	0xb68c70f3	-4.185474e-06
235	0x3bd1e113	0.0064050048
236	0xba5bcf61	-0.0008385089
237	0xbad7e58b	-0.0016471607
238	0x3ba383d1	0.004990079
239	0x3b636291	0.0034696201
240	0x3b08c1e1	0.0020867514
241	0xbad12347	-0.0015955948
242	0xbc54a43f	-0.012978612
243	0x3ba79820	0.0051145703
244	0x3a1238fb	0.0005577949
245	0x3a968508	0.0011483738
246	0x3b002df3	0.0019558638
247	0x3b9f56bd	0.004862635
248	0x3a8c7df4	0.0010718689
249	0xb9a55071	-0.00031531186
250	0xb9d56d9d	-0.00040708194
251	0xbb9357ef	-0.0044965665
252	0x3a5444b1	0.0008097394
253	0x3a2488dd	0.0006276498
254	0x3b29b42c	0.0025894744
255	0x3acef288	0.0015788833

exp_avg_sq f4 [32, 12]
0	0x381d0020	3.7431833e-05
1	0x392f2e34	0.00016706513
2	0x3a999f30	0.0011720415
3	0x39e8bd6b	0.00044391616
4	0x376c3cf5	1.4080889e-05
5	0x38f50f61	0.00011685375
6	0x3a09840a	0.00052458106
7	0x39de5c7f	0.00042412055
8	0x3842b05e	4.641746e-05
9	0x3933ef6a	0.00017159959
10	0x3a87163b	0.0010306308
11	0x3a2f2740	0.0006681569
12	0x38370cec	4.3642634e-05
13	0x39843f78	0.0002522429
14	0x3a95e400	0.0011435747
15	0x39fe4996	0.0004850148
16	0x3771a6a3	1.44035175e-05
17	0x398615a7	0.00025574604
18	0x39cd9d6b	0.00039217932
19	0x399ee61c	0.00030307553
20	0x38759a61	5.855633e-05
21	0x396b01cf	0.0002241202
22	0x3a712e2d	0.0009200301
23	0x3a84f9e6	0.0010145276
24	0x37c13616	2.3032579e-05
25	0x3905005d	0.00012684004
26	0x3a222767	0.0006185681
27	0x39460f52	0.00018888459
28	0x370c8afa	8.377008e-06
29	0x3892eec2	7.0062946e-05
30	0x39e5a778	0.00043803058
31	0x3996cb6a	0.00028761785
32	0x37df9529	2.665313e-05
33	0x39184598	0.00014521775
34	0x39c73b54	0.0003800044
35	0x39349d69	0.00017224778
36	0x389e4a06	7.547815e-05
37	0x39bae225	0.00035645175
38	0x3b46961d	0.0030301877
39	0x3a67a30a	0.00088362454
40	0x3806dcd7	3.2153763e-05
41	0x395756ac	0.00020536286
42	0x3a95bf21	0.0011424759
43	0x3a6097c3	0.0008567536
44	0x38be763e	9.08193e-05
45	0x39cf2942	0.00039512856
46	0x3ace8494	0.0015756064
47	0x3a8c0090	0.001068132
48	0x37d1959f	2.4984414e-05
49	0x38898926	6.558215e-05
50	0x3a50bacf	0.0007962407
51	0x39d3be61	0.000403869
52	0x3784a271	1.5811269e-05
53	0x38b83b41	8.7848406e-05
54	0x39ddc9c1	0.00042302723
55	0x398d6121	0.00026965982
56	0x37f23585	2.887357e-05
57	0x38cf9f44	9.900195e-05
58	0x39fc47e8	0.0004811876
59	0x3a597fa1	0.0008296911
60	0x381ea28a	3.782151e-05
61	0x393cb557	0.00017996632
62	0x3a961c42	0.0011452513
63	0x39c5f73a	0.00037758966
64	0x377b312b	1.4972214e-05
65	0x38bad7ec	8.90939e-05
66	0x3a45e166	0.00075485406
67	0x39fd1123	0.00048268688
68	0x383d1b8d	4.508677e-05
69	0x395eea23	0.00021258793
70	0x3a2f9aab	0.00066987675
71	0x39db2713	0.00041800048
72	0x379883dd	1.8181216e-05
73	0x38bc0586	8.9655674e-05
74	0x3a1dbd05	0.0006017241
75	0x394edcb1	0.00019727905
76	0x3700a2fb	7.667341e-06
77	0x38fb2b2a	0.000119766526
78	0x39248a78	0.00015691842
79	0x38c8f3d5	9.5821604e-05
80	0x37cdfbfc	2.4555244e-05
81	0x389ed72c	7.574106e-05
82	0x39b72d07	0.00034938028
83	0x39a2a616	0.00031022792
84	0x36f76b75	7.3736833e-06
85	0x38c9059f	9.585474e-05
86	0x394d86b0	0.00019600498
87	0x38a50f37	7.870647e-05
88	0x35acb101	1.2866514e-06
89	0x3830e54f	4.217523e-05
90	0x38170621	3.6006913e-05
91	0x37b01121	2.0988811e-05
92	0x3719e44f	9.172668e-06
93	0x38ec353f	0.00011263275
94	0x3923ea55	0.00015632187
95	0x39207cb6	0.00015305248
96	0x37f675da	2.9380364e-05
97	0x38e5c93c	0.00010957054
98	0x3a703d64	0.00091644214
99	0x39f16f76	0.00046050147
100	0x37769c9f	1.4699209e-05
101	0x3955360a	0.00020333394
102	0x3980ecb2	0.00024590414
103	0x39199aa3	0.00014648824
104	0x3829776c	4.040396e-05
105	0x38aef700	8.342974e-05
106	0x3a3309cc	0.0006829768
107	0x3a54a8b8	0.0008112299
108	0x37b4941d	2.1526643e-05
109	0x38fefd33	0.00012158826
110	0x3a6ec5a0	0.0009108428
111	0x39937f20	0.0002813274
112	0x3703d581	7.857919e-06
113	0x38654966	5.4666212e-05
114	0x397853d7	0.00023682356
115	0x3946b303	0.00018949439
116	0x37ccc032	2.4408193e-05
117	0x391871da	0.00014538263
118	0x3a1611bd	0.0005724689
119	0x3999890d	0.00029284545
120	0x39b69352	0.00034823507
121	0x3ae6eaa3	0.0017617535
122	0x3c696b2c	0.014246743
123	0x3ba1c98c	0.0049373563
124	0x392d128f	0.0001650548
125	0x3b02848c	0.001991543
126	0x3b61eacc	0.0034472225
127	0x3b1380bb	0.002250715
128	0x39eb0258	0.0004482444
129	0x3ac64320	0.0015126206
130	0x3c148364	0.009064529
131	0x3baf6237	0.0053522843
132	0x379657e7	1.7922326e-05
133	0x389b83f5	7.415555e-05
134	0x3a2a69ab	0.0006500731
135	0x3974d00c	0.00023347157
136	0x37249b0a	9.81126e-06
137	0x390a38a7	0.0001318181
138	0x392c2394	0.00016416452
139	0x38be0f89	9.0628e-05
140	0x37c3a6b4	2.3323439e-05
141	0x3874e067	5.8383124e-05
142	0x39d48582	0.00040535262
143	0x39c632ec	0.00037803443
144	0x3883bc62	6.281656e-05
145	0x39be6a60	0.0003631888
146	0x3b08999f	0.0020843518
147	0x3a43fab5	0.0007476018
148	0x37d33efb	2.5182488e-05
149	0x39ba1e1d	0.0003549912
150	0x3a0b81cd	0.0005321771
151	0x39b8ae0f	0.000352249
152	0x38aa2d5a	8.114679e-05
153	0x39b9cc88	0.00035438337
154	0x3a92446c	0.0011159307
155	0x3ac5c6fa	0.0015089207
156	0x38245ae5	3.91853e-05
157	0x39a2e788	0.00031071552
158	0x3a99c1b3	0.00117307
159	0x39d51629	0.00040643036
160	0x372b4e3a	1.0210608e-05
161	0x39382440	0.00017561112
162	0x39c3bcc3	0.00037333937
163	0x397dbdf4	0.00024198723
164	0x384f64c2	4.9446484e-05
165	0x39ac1ecf	0.0003282935
166	0x3a3b3008	0.0007140641
167	0x3a0c36fc	0.00053487695
168	0x37573bad	1.2828893e-05
169	0x389450ed	7.0722635e-05
170	0x39a45585	0.00031344235
171	0x38f007e9	0.00011445565
172	0x3687d337	4.047902e-06
173	0x38b4d608	8.622935e-05
174	0x38dcbc6b	0.00010525513
175	0x388bbff4	6.6637906e-05
176	0x37952ca7	1.7782977e-05
177	0x38709a0a	5.736392e-05
178	0x395a5d7a	0.00020824923
179	0x395cf4db	0.00021072051
180	0x38c7af60	9.5217256e-05
181	0x39fcb455	0.00048199543
182	0x3b900205	0.004394772
183	0x3aa8ae7c	0.0012869383
184	0x3832b400	4.2606145e-05
185	0x39a2c571	0.00031046153
186	0x3a94eff8	0.001136302
187	0x3a623e7a	0.00086305256
188	0x38ebae83	0.000112381786
189	0x3a084708	0.0005198573
190	0x3b359a64	0.0027710432
191	0x3abdbfdf	0.0014476738
192	0x38071a59	3.2211046e-05
193	0x391942ec	0.00014616147
194	0x3a8e04e8	0.0010835202
195	0x39de356c	0.00042382942
196	0x37891e6a	1.6345835e-05
197	0x392cf41a	0.00016494133
198	0x39c483be	0.0003748219
199	0x396b64d9	0.00022448915
200	0x3821088d	3.8393355e-05
201	0x391956df	0.00014623579
202	0x3a276801	0.0006386042
203	0x3a4b8d1e	0.00077648635
204	0x381105ce	3.45761e-05
205	0x390021c4	0.0001221961
206	0x3aa9e281	0.001296118
207	0x3a05258b	0.00050791417
208	0x3790585f	1.7207289e-05
209	0x38d8a7d9	0.00010330947
210	0x39fdacfd	0.00048384807
211	0x39b5cdee	0.0003467644
212	0x38200eae	3.8160644e-05
213	0x39104da2	0.0001376183
214	0x3a75c38f	0.0009375149
215	0x3a512b21	0.0007979144
216	0x3891cc72	6.95222e-05
217	0x3a0f36c4	0.0005463178
218	0x3b1d6b93	0.0024020418
219	0x3a38963c	0.00070414296
220	0x37b5e4ce	2.1683427e-05
221	0x3997bfa2	0.00028943742
222	0x3a574865	0.0008212387
223	0x3a0a8435	0.00052839826
224	0x38b978b4	8.84397e-05
225	0x3a1d00c3	0.0005989188
226	0x3acadbe1	0.0015476906
227	0x3a6b0e2f	0.0008966652
228	0x368bb2e6	4.1633493e-06
229	0x38381c32	4.3895277e-05
230	0x38e30c57	0.00010826502
231	0x382277b4	3.8735292e-05
232	0x35bc1943	1.4014444e-06
233	0x37970f48	1.8007719e-05
234	0x38449b56	4.687471e-05
235	0x38067907	3.2060805e-05
236	0x36a660bf	4.9584482e-06
237	0x38655bec	5.4683464e-05
238	0x38be7631	9.081921e-05
239	0x38bfa916	9.1390844e-05
240	0x381001f1	3.4334083e-05
241	0x392eef89	0.00016683167
242	0x3a8fd578	0.0010973653
243	0x39d5bee3	0.00040768748
244	0x37863048	1.5996528e-05
245	0x398d7416	0.00026980106
246	0x399c3e71	0.0002980116
247	0x394070f4	0.00018352625
248	0x3847dbfb	4.765017e-05
249	0x3901f253	0.00012392671
250	0x3a466ff3	0.00075697823
251	0x3a2c64a2	0.0006576275
252	0x36d81292	6.4394635e-06
253	0x37a7f43f	2.0021687e-05
254	0x3928ed4b	0.00016110127
255	0x38bc71d9	8.985744e-05

exp_avg f4 [32]
0	0x37ac015f	2.0504636e-05
1	0x3c296094	0.010337967
2	0xbcb8a970	-0.022541732
3	0x3cc6c35c	0.024263076
4	0x3cc4390a	0.02395298
5	0x3ca750b4	0.020424224
6	0xbbab09a7	-0.0052196565
7	0xbb94c92a	-0.004540582
8	0x3c683b0b	0.014174233
9	0x3b55f4f4	0.0032647224
10	0x3cd8c582	0.026461367
11	0x3c1d1e76	0.009589782
12	0xbc028808	-0.007967003
13	0x3bade88f	0.005307264
14	0xbc45abcb	-0.012064884
15	0x3b54a2fb	0.0032445777
16	0x3c8eb592	0.017420564
17	0x3c6575d4	0.014005143
18	0x3c00ffc6	0.007873481
19	0x3c189b36	0.009314349
20	0x3c5001b3	0.012695718
21	0xbc31856f	-0.010835036
22	0x3c3cccc3	0.011523428
23	0x3c8681fc	0.016419403
24	0x3cb0e2c9	0.021592515
25	0xbc31981d	-0.010839489
26	0xbb49111d	-0.0030680366
27	0xbb87972e	-0.004137895
28	0xbc3ad2a7	-0.0114027625
29	0x3ca5ef44	0.020255692
30	0xbc8cbfaa	-0.017181236
31	0xbcc6cc1d	-0.02426725

exp_avg_sq f4 [32]
0	0x3c079a98	0.008276604
1	0x3c969dca	0.018385787
2	0x3b9b73d3	0.004744032
3	0x3c6c9ebe	0.014442144
4	0x3bc02343	0.0058635785
5	0x3bc1f6e8	0.005919326
6	0x3c0c7e8c	0.008575093
7	0x3b522124	0.003206321
8	0x3c6ef956	0.0145858135
9	0x3b849bf1	0.00404691
10	0x3e12c394	0.1433242
11	0x3c1b27ab	0.009469907
12	0x3ccf09e0	0.025273263
13	0x3c53f2c3	0.012936297
14	0x3bcd3722	0.006262676
15	0x3cb8ddcf	0.022566704
16	0x3c3f8348	0.011689015
17	0x3bea5df4	0.0071523134
18	0x3cac84a7	0.021059347
19	0x3aad2222	0.0013209025
20	0x3c9ebe16	0.01937775
21	0x3a950c30	0.001137143
22	0x3c2e8713	0.010652321
23	0x3c254afa	0.010088677
24	0x3c38f2db	0.01128837
25	0x3b321dff	0.0027178524
26	0x3c110291	0.00885071
27	0x3bf1949e	0.007372453
28	0x3bbc0946	0.00573841
29	0x3c419489	0.011815199
30	0x3bb0f40c	0.0054001864
31	0x3c2e1970	0.010626182

exp_avg f4 [32, 32]
0	0x3a0a0aa3	0.0005265867
1	0xba731630	-0.00092730206
2	0x3a0eeb0c	0.0005451895
3	0x396005e3	0.00021364498
4	0xba181a04	-0.00058022165
5	0x3a143fc7	0.00056552555
6	0x3a365e0a	0.0006956762
7	0x3a924c86	0.0011161722
8	0x39812b68	0.00024637138
9	0xb9bb230b	-0.00035693528
10	0x3884857b	6.319113e-05
11	0x3839a49f	4.4260752e-05
12	0xb9522bbb	-0.00020043452
13	0x3a0f4c70	0.0005466407
14	0x3a1b36fd	0.00059209747
15	0xba33da10	-0.0006860802
16	0xba71c0b4	-0.00092221354
17	0xb8f0c8be	-0.00011481483
18	0x3a05ef31	0.00051091897
19	0xb9e410d3	-0.00043500084
20	0x392ed0c6	0.00016671707
21	0xb917d34b	-0.00014479195
22	0xb8dd439d	-0.00010550695
23	0xb9af521a	-0.00033439772
24	0xba049784	-0.0005057978
25	0x39e40ac7	0.0004349558
26	0x39f42e29	0.000465737
27	0x39a48610	0.00031380402
28	0xb9626aea	-0.00021592868
29	0xba8548eb	-0.0010168826
30	0x3a263852	0.000634079
31	0x3a6119a4	0.00085868896
32	0x3b668157	0.0035172307
33	0xbabc2066	-0.0014352917
34	0x3b3b908e	0.0028620097
35	0xbb3151e3	-0.0027056865
36	0xbb11c7b8	-0.0022244286
37	0x3aafa1eb	0.0013399696
38	0x3b12c230	0.0022393577
39	0x3be29821	0.006915108
40	0xbbb34001	-0.0054702763
41	0xbaa1b336	-0.0012336734
42	0xbb78fb14	-0.003799145
43	0xbb976857	-0.0046205926
44	0xbbbb5c52	-0.0057177925
45	0x3a90ecf5	0.0011056947
46	0x3a9ace6e	0.0011810788
47	0xbb82ff27	-0.0039977017
48	0xbb8b4922	-0.0042506615
49	0xba9d4759	-0.0011999413
50	0x3b81d516	0.0039621694
51	0xbbf9d9e1	-0.00762485
52	0xbbac0715	-0.0052498677
53	0xbb7e4474	-0.0038798125
54	0x3b2fdc8e	0.0026834342
55	0xbb007561	-0.0019601213
56	0xbb5cf66b	-0.0033716212
57	0x3a4d2933	0.00078262686
58	0x3b03fdea	0.0020140358
59	0x3accbd84	0.0015620445
60	0xba84bacc	-0.0010126471
61	0xbb59c841	-0.0033230933
62	0x3bc8fb25	0.0061334544
63	0x3bb40d54	0.005494753
64	0xb7811f32	-1.5392525e-05
65	0x36dfbce9	6.66791e-06
66	0x38613209	5.369078e-05
67	0x37b9afa3	2.2135506e-05
68	0x388b2f8f	6.636895e-05
69	0x361e322d	2.357304e-06
70	0x373561da	1.0811224e-05
71	0xb64e3058	-3.0724532e-06
72	0xb8a2ef63	-7.769351e-05
73	0x38884845	6.4984466e-05
74	0xb99f240e	-0.00030353706
75	0xb911320e	-0.00013846924
76	0x3955032e	0.00020314447
77	0x388e1522	6.775024e-05
78	0x38be718a	9.081054e-05
79	0x37de1d08	2.6477981e-05
80	0x37532fd7	1.2587719e-05
81	0x383673fd	4.3500204e-05
82	0xb8302a41	-4.2001022e-05
83	0xb823f3b8	-3.908921e-05
84	0xb922c0d3	-0.00015521357
85	0xb875eab4	-5.8631136e-05
86	0xb73b4f8c	-1.11645895e-05
87	0xb899992e	-7.3241405e-05
88	0xb8e869f6	-0.00011082359
89	0xb522daa7	-6.0667884e-07
90	0x38d99075	0.000103742736
91	0x38c25d19	9.267982e-05
92	0x386ee48e	5.695648e-05
93	0x37660b27	1.3711665e-05
94	0x375fb1e2	1.3333252e-05
95	0xb891a569	-6.944949e-05
96	0xba85c194	-0.0010204786
97	0x3a97a9d4	0.0011570998
98	0xba71abce	-0.00092190213
99	0xb89957c7	-7.311958e-05
100	0x39110271	0.00013829187
101	0xba48162e	-0.00076326996
102	0xba902350	-0.0010996852
103	0xbac99f9d	-0.0015382651
104	0x3aa4d699	0.0012576162
105	0x399cd6ba	0.00029914622
106	0x3b67f7d5	0.0035395522
107	0x3b09c848	0.0021023918
108	0xbaa20277	-0.0012360354
109	0xba9f1404	-0.0012136702
110	0xbab7cf19	-0.0014023512
111	0x3a6880dd	0.00088693
112	0x3a8f4568	0.0010930719
113	0x3779325a	1.485328e-05
114	0xba2d90d8	-0.00066210097
115	0x3ae7ad93	0.001767563
116	0x3b082207	0.0020772235
117	0x3adf85e5	0.0017053453
118	0xba2d2a9f	-0.00066057773
119	0x3a7c193a	0.0009616796
120	0x3ada1ab5	0.0016640039
121	0xb9bdfc64	-0.00036236935
122	0xbad6fe99	-0.001640278
123	0xba766d59	-0.00094004493
124	0xb9824523	-0.00024847043
125	0x3aad674b	0.0013229636
126	0xbab32c7e	-0.0013669876
127	0xba8697d6	-0.0010268639
128	0xbad18ff6	-0.0015988338
129	0x3af6d985	0.0018833136
130	0xb9ccf87b	-0.00039095044
131	0x3a43c3ae	0.0007467818
132	0x3b276fc7	0.0025548802
133	0xba8717bb	-0.0010306755
134	0xbb108ffc	-0.0022058478
135	0xbb475e64	-0.0030421251
136	0x3b029088	0.0019922573
137	0x3b085307	0.0020801441
138	0x3a85ffc8	0.0010223323
139	0x3b159bf9	0.0022828563
140	0x3b3a29fc	0.0028406372
141	0xb9fc16e5	-0.00048082243
142	0xba9633d5	-0.0011459539
143	0x3b16afcb	0.0022992964
144	0x3ac75ce7	0.0015210182
145	0x3a1e0ffb	0.0006029603
146	0xbafeb85f	-0.0019433609
147	0x3b2c9d87	0.002633901
148	0x3b02a8aa	0.0019936957
149	0x3a64fcf6	0.0008735204
150	0xbae82e59	-0.0017714008
151	0xb998b185	-0.00029123962
152	0x3a0c40b3	0.0005350217
153	0xb9c594f2	-0.0003768574
154	0xb99d2a14	-0.00029976724
155	0xb932e5c7	-0.00017061002
156	0x3a12627b	0.0005584133
157	0x3b28478c	0.002567741
158	0xbb01e461	-0.0019819962
159	0xbb849b20	-0.0040468127
160	0xbaa3c755	-0.0012495319
161	0x3abeb316	0.0014549221
162	0x38f8d831	0.0001186583
163	0xb9df0721	-0.00042539186
164	0x3a029166	0.00049807725
165	0xbab4d8be	-0.0013797504
166	0xba721105	-0.00092341035
167	0xb797f81d	-1.811614e-05
168	0xba340580	-0.00068672746
169	0x3abdcc64	0.0014480469
170	0x3b1fa1dd	0.0024357953
171	0x3acc082e	0.0015566403
172	0xbb0ad93b	-0.0021186608
173	0xba5c6c88	-0.00084085064
174	0xba7357af	-0.000928278
175	0x39d083d8	0.00039771083
176	0xb9f66942	-0.000469992
177	0x38af2560	8.351612e-05
178	0xb9c1487b	-0.0003686583
179	0xb931f6e6	-0.00016972012
180	0x3a4c0efe	0.00077842164
181	0x3aaeba7f	0.0013330727
182	0xba706bca	-0.0009171335
183	0xb9392add	-0.00017658943
184	0x39c4763f	0.00037472133
185	0xb9b946fb	-0.00035338834
186	0xba5ed3c8	-0.0008500186
187	0xb97e389c	-0.00024244416
188	0xb9809e1b	-0.0002453186
189	0x3abd6ab8	0.001445136
190	0x3989797e	0.00026221195
191	0xb9a9f1cd	-0.00032414348
192	0x3aac4999	0.0013144492
193	0xba37cf78	-0.0007011811
194	0x39aeaa77	0.00033314872
195	0xba0546f9	-0.0005084123
196	0x3a031ac4	0.0005001242
197	0x3a40772f	0.00073419785
198	0xb9a3ee78	-0.00031267456
199	0x3a2234a4	0.00061876536
200	0xba4e031f	-0.00078587414
201	0xb78867e3	-1.626084e-05
202	0xbafa81e4	-0.0019112197
203	0xbaa53a35	-0.0012605848
204	0xb7de5bd4	-2.6507223e-05
205	0x39cf1a66	0.00039501785
206	0x3952af31	0.00020092425
207	0x39d3a991	0.00040371393
208	0xb635c666	-2.7086585e-06
209	0x39d1fcec	0.00040052028
210	0x39f7a12d	0.00047231597
211	0xba6f10f8	-0.0009119655
212	0xbad58547	-0.001629033
213	0xbac296c7	-0.001484596
214	0x39c6e35e	0.00037934905
215	0xb9f039b8	-0.0004581937
216	0xb9a882a5	-0.00032140795
217	0x3982e31b	0.0002496474
218	0x3a46ce12	0.00075838075
219	0x3aaf1b6a	0.001335961
220	0xba130e4f	-0.0005609737
221	0xb6364ee1	-2.7166027e-06
222	0x3a3639d0	0.0006951364
223	0xba275309	-0.00063829176
224	0xb9c97883	-0.00038427496
225	0x39246d09	0.00015680878
226	0x399b84d0	0.00029662857
227	0x39e73a68	0.0004410327
228	0x397baaf3	0.00024000909
229	0x38a5f669	7.9137106e-05
230	0x39ac8e77	0.0003291254
231	0x395588a9	0.00020364173
232	0x3907d316	0.00012953239
233	0x3a055a64	0.00050870166
234	0xba83b892	-0.0010049513
235	0x36d851a9	6.446808e-06
236	0x3a9e8bbc	0.0012096087
237	0x3a0fa3aa	0.0005479405
238	0x3a3fe3c4	0.00073200115
239	0xb895ddf0	-7.146213e-05
240	0x395d5847	0.00021109088
241	0x3908c88b	0.00013044679
242	0xb970e791	-0.00022974449
243	0xb8feed85	-0.00012155905
244	0x378ca44e	1.676581e-05
245	0x391d8b9d	0.00015024697
246	0xb922946b	-0.00015504814
247	0xb99c71a2	-0.00029839302
248	0xba2ef8b3	-0.00066746323
249	0x3520a7ac	5.984864e-07
250	0x3a176db4	0.000577654
251	0x39a3e1f1	0.00031258122
252	0x39dd6348	0.00042226375
253	0x383020fa	4.199238e-05
254	0x390d0b5d	0.00013451041
255	0x37d5fe82	2.5510093e-05

exp_avg_sq f4 [32, 32]
0	0x351eb58f	5.912379e-07
1	0x370eb18e	8.5052e-06
2	0x36842fb8	3.9394617e-06
3	0x36299d13	2.5274392e-06
4	0x368f1bed	4.264983e-06
5	0x35d3a70f	1.5769346e-06
6	0x36add4fe	5.1805973e-06
7	0x3759bff8	1.2978904e-05
8	0x36dc94bf	6.5738272e-06
9	0x35b2d42d	1.3323785e-06
10	0x371938bb	9.132719e-06
11	0x36bea3dd	5.6815175e-06
12	0x3695bd24	4.462565e-06
13	0x369a8396	4.6048763e-06
14	0x36d74e08	6.4165833e-06
15	0x36c7a665	5.950033e-06
16	0x37447c75	1.1711488e-05
17	0x34b2cb95	3.330321e-07
18	0x360cde83	2.0991145e-06
19	0x369e6720	4.7207723e-06
20	0x36ea45b9	6.98186e-06
21	0x36091101	2.0424488e-06
22	0x3722bef4	9.700412e-06
23	0x3623b156	2.4392116e-06
24	0x369eba6d	4.7304698e-06
25	0x36097dbe	2.0487782e-06
26	0x36891f0f	4.086534e-06
27	0x35c7b901	1.4880499e-06
28	0x35dabfe1	1.629811e-06
29	0x37111f83	8.65001e-06
30	0x36b0d261	5.2697e-06
31	0x370c2bb2	8.354824e-06
32	0x37e03ed6	2.6732141e-05
33	0x38691909	5.5574845e-05
34	0x379ab939	1.8444482e-05
35	0x3835ec8d	4.3374068e-05
36	0x381f5ff4	3.7997917e-05
37	0x38104797	3.439895e-05
38	0x3835b44e	4.3321685e-05
39	0x390bdc67	0.00013338179
40	0x3a31b91e	0.0006779599
41	0x383d8a46	4.518989e-05
42	0x3a8a5afd	0.0010555681
43	0x3a03046b	0.0004997912
44	0x38d68af7	0.000102301994
45	0x38087311	3.253209e-05
46	0x38a4e79d	7.863271e-05
47	0x37c1d32a	2.3105724e-05
48	0x38dfdc8b	0.00010674548
49	0x373ec97a	1.1371792e-05
50	0x3813f25b	3.5273242e-05
51	0x39a66d53	0.0003174344
52	0x3a3b0a52	0.0007135022
53	0x39425cef	0.00018535902
54	0x39030094	0.00012493349
55	0x37dafa68	2.610423e-05
56	0x38913405	6.923828e-05
57	0x378e6283	1.6973592e-05
58	0x389105a8	6.915192e-05
59	0x37c27f43	2.3185863e-05
60	0x37e37fb2	2.7119971e-05
61	0x38212048	3.8415455e-05
62	0x38b6c1a7	8.714507e-05
63	0x3905ad35	0.00012748393
64	0x33d3eced	9.86855e-08
65	0x3513cb06	5.5057205e-07
66	0x34ea97b7	4.3696284e-07
67	0x345e5004	2.070447e-07
68	0x345ad1a9	2.0379106e-07
69	0x344eedf8	1.9271818e-07
70	0x34999ea3	2.8613894e-07
71	0x3607c37b	2.0230352e-06
72	0x367942d2	3.7142786e-06
73	0x34af0842	3.2602298e-07
74	0x36be3b23	5.6693257e-06
75	0x362f0aa3	2.6083223e-06
76	0x34fd8dfc	4.722823e-07
77	0x34e13fb0	4.1955855e-07
78	0x35661654	8.571417e-07
79	0x3483c1dc	2.4541703e-07
80	0x3551f06c	7.8208427e-07
81	0x3384560c	6.162381e-08
82	0x34a5060b	3.0738042e-07
83	0x364628ba	2.9528005e-06
84	0x36877764	4.0372124e-06
85	0x35a0eaad	1.1989229e-06
86	0x3528c82b	6.287616e-07
87	0x34d70b9d	4.005532e-07
88	0x3599fd2c	1.1473071e-06
89	0x33f44bd5	1.1375929e-07
90	0x35892f81	1.0221121e-06
91	0x34882a8f	2.536294e-07
92	0x34777868	2.3047471e-07
93	0x34b5a607	3.3834678e-07
94	0x3598b602	1.1377854e-06
95	0x35983edf	1.134318e-06
96	0x36dda4ac	6.6054836e-06
97	0x386326df	5.415722e-05
98	0x3821d26c	3.8581362e-05
99	0x37b37cb4	2.1396532e-05
100	0x376f3a04	1.4259018e-05
101	0x379ceee0	1.8707884e-05
102	0x37aa49ec	2.0300002e-05
103	0x39559f59	0.00020372625
104	0x3a147cb5	0.0005664335
105	0x38270641	3.9821727e-05
106	0x3a5c64a2	0.00084073294
107	0x39bfdc26	0.00036594382
108	0x37f640dd	2.935569e-05
109	0x38294c23	4.0363648e-05
110	0x38b959aa	8.838189e-05
111	0x3786cb77	1.606879e-05
112	0x38c5a3e5	9.42422e-05
113	0x36978ea0	4.5167544e-06
114	0x37ea567a	2.7935243e-05
115	0x39cf53c2	0.0003954452
116	0x3a1aedee	0.0005910088
117	0x39343c03	0.00017188494
118	0x3893cb77	7.0474045e-05
119	0x3841df5b	4.62228e-05
120	0x390dda65	0.00013528166
121	0x36e74873	6.8927707e-06
122	0x38f6c6c1	0.00011767215
123	0x37e9574e	2.7816419e-05
124	0x37fb5e69	2.9965495e-05
125	0x37a990c3	2.021378e-05
126	0x3911067e	0.00013830696
127	0x39032da8	0.00012510142
128	0x379b6bdd	1.8527668e-05
129	0x38843491	6.304042e-05
130	0x3832de5d	4.26456e-05
131	0x381fd836	3.8109916e-05
132	0x3813d3e5	3.5244873e-05
133	0x3800998e	3.0660587e-05
134	0x3824ce0a	3.9292536e-05
135	0x39454677	0.00018813634
136	0x39e0cf2f	0.00042878973
137	0x383c3f23	4.4881494e-05
138	0x3a2a2ec9	0.0006491957
139	0x399942e8	0.00029232283
140	0x38b38fb8	8.562155e-05
141	0x383a75fe	4.4455745e-05
142	0x38992c97	7.303914e-05
143	0x37e426b3	2.7197739e-05
144	0x38f5204a	0.00011688525
145	0x3745179a	1.174761e-05
146	0x380974f0	3.2772252e-05
147	0x39a2adff	0.00031028685
148	0x39ecda78	0.000451762
149	0x3929d2d4	0.00016195636
150	0x38c5367b	9.40384e-05
151	0x384c6bfa	4.873795e-05
152	0x38ed3e76	0.00011312675
153	0x378504e4	1.5857113e-05
154	0x38db0f2f	0.00010445562
155	0x37d315a5	2.516324e-05
156	0x37fc8440	3.0102325e-05
157	0x3839d6ce	4.430749e-05
158	0x38f7a8a3	0.00011809289
159	0x38e01282	0.000106846
160	0x377c8701	1.50518035e-05
161	0x38c49ba9	9.375002e-05
162	0x388b198c	6.632795e-05
163	0x380d742e	3.372522e-05
164	0x37c85b90	2.3884495e-05
165	0x380c417d	3.343959e-05
166	0x381eaa1f	3.7828573e-05
167	0x39b041a6	0.00033618248
168	0x3a699a04	0.0008911195
169	0x3898a412	7.278485e-05
170	0x3aa9f431	0.0012966451
171	0x3a16067e	0.00057230133
172	0x386dd4a3	5.6703237e-05
173	0x388bd0e3	6.666945e-05
174	0x3919a8df	0.00014654126
175	0x37faabc1	2.9882302e-05
176	0x3934d8ec	0.00017246947
177	0x36f7507c	7.3705432e-06
178	0x384d1348	4.8893766e-05
179	0x3a23e577	0.00062521495
180	0x3a70b51a	0.00091822597
181	0x39877a70	0.0002584043
182	0x38e196bf	0.00010756915
183	0x38a42cd6	7.828481e-05
184	0x3963ccf3	0.00021724757
185	0x373edb1c	1.1375898e-05
186	0x3941a897	0.00018468719
187	0x383eac25	4.5459852e-05
188	0x38380b32	4.3879445e-05
189	0x38193b26	3.653313e-05
190	0x396df7ca	0.0002269439
191	0x396004ea	0.00021364135
192	0x36a5ea00	4.9446244e-06
193	0x37dba71e	2.6184654e-05
194	0x37a3aff3	1.9513047e-05
195	0x370635f4	7.999584e-06
196	0x3737e49b	1.0960876e-05
197	0x37034bdd	7.825872e-06
198	0x37441158	1.16865485e-05
199	0x387ae5cb	5.9818656e-05
200	0x37a2f015	1.9423702e-05
201	0x36e1ee08	6.733233e-06
202	0x37e57fa1	2.735836e-05
203	0x37ad2b22	2.0643292e-05
204	0x37a7a991	1.9986912e-05
205	0x3795f0d6	1.7874332e-05
206	0x378d52f3	1.6847136e-05
207	0x3769463b	1.3904234e-05
208	0x37f57d10	2.9264513e-05
209	0x36596553	3.2394498e-06
210	0x371ff6f9	9.534641e-06
211	0x37fcfc91	3.0158351e-05
212	0x37b45e3c	2.1501553e-05
213	0x3795f19b	1.787469e-05
214	0x37cdd7f5	2.4538467e-05
215	0x374fc5be	1.2384202e-05
216	0x37d0692c	2.4844507e-05
217	0x3727ece1	1.0009128e-05
218	0x37de5dc2	2.6508122e-05
219	0x36ca4092	6.027586e-06
220	0x36b2c2ff	5.327514e-06
221	0x37cdaf2d	2.4519477e-05
222	0x37f2b803	2.8934335e-05
223	0x37a0acd9	1.9153975e-05
224	0x362782a5	2.4960984e-06
225	0x36979569	4.5175443e-06
226	0x36254a3f	2.4630133e-06
227	0x373685a3	1.087916e-05
228	0x36961f2d	4.4739777e-06
229	0x36c294ac	5.7989582e-06
230	0x369841e6	4.5376246e-06
231	0x37a3876a	1.9494171e-05
232	0x3916b9a6	0.00014374274
233	0x36b11b90	5.2782198e-06
234	0x396a2083	0.0002232809
235	0x39020ecd	0.0001240328
236	0x371016b0	8.588351e-06
237	0x3662b0bc	3.3779497e-06
238	0x372a9c38	1.0169162e-05
239	0x35f18aa8	1.7996254e-06
240	0x37232acf	9.725524e-06
241	0x359c927c	1.1665538e-06
242	0x369d0a34	4.6801524e-06
243	0x3891566b	6.9302354e-05
244	0x3938460c	0.00017573702
245	0x383f68e5	4.563564e-05
246	0x37c018c2	2.2899712e-05
247	0x36a39179	4.874714e-06
248	0x378127ef	1.5396594e-05
249	0x361e1a53	2.3559157e-06
250	0x37658697	1.36808e-05
251	0x3657bcc5	3.2147375e-06
252	0x36e265ba	6.7471674e-06
253	0x3640e721	2.8744764e-06
254	0x3775a70c	1.4642032e-05
255	0x377df938	1.5138001e-05
