scripts/reinforcement_learning/rl_games/tournament/checkpoints/r_score_10_distance_1dt_t_all_selfplay_2.pth (torch, 550130 bytes, 30 tensors)

a2c_network.sigma f4 [4]
00000000: df0a 81c0 8f1c 20c0 1e8b 05c0 d699 c3bf
-4.032577 -2.501743 -2.086616 -1.5281322

a2c_network.actor_mlp.0.weight f4 [256, 12]
00000000: 78b9 963c 653c 693e b5cd 5abd cdde a23b
00000010: a1c2 943e 4cb8 263e e04c 98bd df27 a53c
00000020: 5e82 cabf 16e2 db3e dc6f 06bf a632 9d3e
00000030: 1170 133e 991b a0be 12ab 7a3d ee88 00be
00000040: ecc3 d03e 52ed ecbe 069f d6bb 24a4 62bd
00000050: 0d42 843f 4465 753f 8b32 4fbe b7d4 ae3d
00000060: 638a 1f3e 9765 a33e 890f b83c 1654 df3b
00000070: e295 9ebc c3ce 253d 2918 1d3c 5aa5 883b
00000080: 2680 c13e b221 9abf b753 c73d 6344 e1bd
00000090: b3ed 10bd cd3c aabe 8122 5c3d 68ac 953c
000000a0: f443 d3bd 1ec1 753e 594b 43bc 8c6c da3c
000000b0: d0c4 6c40 842d 90bd d7f7 d03e ef0a 8a3c
000000c0: 82c9 113e 2c6d bebe 39b2 00bd 8849 70bd
000000d0: d734 38bd 24ff 2dbd 286e c7bb 43bf 6cbd
000000e0: e7f6 d0bf 7b08 7cbf 16ef 9dbe 6f23 07be
000000f0: c0cd 1e3f 42a9 b2be 0940 70bc 36d5 b5bd
00000100: 8300 c8bd b54a a23d 7299 82bc 02fd 443c
00000110: 979b 14be bd0d a9bf aa3b d3be 05ca 56bf
00000120: 2cc2 133e e2be fdba 7f1b 30bd 5249 48bd
00000130: b37d b0bd ddfe 133d de5b 83bc d423 0839
00000140: 9f50 0240 fcc2 a63f a2ba adbe c486 15be
00000150: ca2d 0d3f 9eac 86be 23de 48be 71a8 b33d
00000160: e138 01be 66ce 62bd a154 ed3a a330 fb3b
00000170: 9686 79bf 09cb adbf 334a 85bf bab8 dcbe
00000180: 318d b5be a8e7 113e 63e2 cc3c e95c 873c
00000190: dd5e 313d c478 48be cacc 4abd b976 53bd
000001a0: 85b9 cdbd 5f2c c7bf 0ef8 07be 10ca 19bf
000001b0: fc35 383c 2289 9dbe b866 1d3d 9a7b fe3d
000001c0: 80e5 6abe f72b a83b bd17 573d 2418 273d
000001d0: e34f 0940 1a89 6ebe 892a 893f 86aa 583c
000001e0: 132c 98be f731 f33e c416 6f3b 6103 f63c
000001f0: 2874 533d 2556 6abe 2fe3 26bc 4952 3ebc
00000200: 8d55 4b40 6b19 6cbf 5326 0c3f 067c 3bbd
00000210: 234e 973e 8121 1fbc 9b7b 3b3d e5fc 9a3c
00000220: 0ba9 1a3e 3ea7 acbc 00c7 95bb 12b7 153d
00000230: 4a29 b13c 86a2 c9bf 1cb2 e1bc bfa4 20bf
00000240: 5ffb 043e 0e62 a13e cdbd 753c 0951 54bc
00000250: 4f70 183f 5615 5c3e 4d5f a4bd c2dc 803d
00000260: a52e b4bd 5e85 983f a380 a9bd 17a8 5c3e
00000270: 3b66 453e 6f18 26bf 8996 213d 73ad 343c
00000280: 431d 203e 3b2a 5fbd 9dbe 803c 73ed 7ebc
00000290: 5905 f1bf b609 49be dd06 9ebe 9b73 09be
000002a0: 7585 7d3e 2456 c03e d198 a1bd 84df 493c
000002b0: b0e0 9fbb 6aed 7d3e 45dc 37bc 7ad3 8ebc
000002c0: ae18 bbbf cad4 3c3f d321 afbe 41ba a03e
000002d0: 81d0 103f ddaf 1b3f 2eba ad3c 96a5 36bd
000002e0: c053 25be 1d69 433c c70f 973d dd72 b4bc
000002f0: 7bdd d2bf d9ce a9bf 72c8 c8be 5f70 abbe
00000300: 85b6 8cbf f8d3 3cbe 9579 ce3d 7583 e5bd
00000310: 1f3c 803b be95 803c 9963 b43c cc7b dfbc
00000320: 217c 04bf 888c 77bf 4516 03bf bcf5 99bd
00000330: bd37 c13d 753b 383d b93c fc3c 5bce d8bd
00000340: 87ca edbd 8309 083e 1f7a 9c3c 41d4 63bb
00000350: c0e4 acbf 8a67 c73f 15a7 9cbc b043 943b
00000360: e3b8 263e 95c9 f5be 4226 98bd 1400 46bd
00000370: 1755 783e 667d e53e c5b6 8cbd 9dee 4a3d
00000380: 8ffb 11be ef20 5ebf 6445 01bf 4f45 8bbf
00000390: 04cf 4a3e d60e 35bf a92c cfbb 330b a5bd
000003a0: 3faf 483d c21c 2bbe bf21 9bbc 698e a4bb
000003b0: 0369 27c0 1507 a23e 5f82 163e 62d6 bc3d
000003c0: 8ce8 58be 33ec 11be 96c8 b73d c5cf 2fbd
000003d0: 494a 883e c82e 47bd a0f0 923c d515 093c
000003e0: ca05 0e40 a67f 97bf 76c4 f03e fcac 3ebe
000003f0: 9b99 1b3f 9e0a 073f d5ae a5bd bd64 53bd
0.018398985 0.22776945 -0.053418834 0.0049704076 0.2905474 0.16281241 -0.07436538 0.020160614
-1.5821035 0.42945927 -0.52514434 0.30702704 0.14398219 -0.31271055 0.0611983 -0.12552235
0.40774477 -0.4627481 -0.006549719 -0.055332318 1.0332657 0.95857644 -0.20234124 0.08536666
0.15580134 0.31913444 0.022468345 0.0068154437 -0.01935858 0.040480386 0.00958828 0.004170102
0.37793082 -1.2041533 0.09732764 -0.10999372 -0.035382938 -0.33249512 0.053743843 0.018270686
-0.103156954 0.2399945 -0.01191982 0.026663087 3.6995125 -0.070399314 0.40814087 0.016850917
0.14237025 -0.37192667 -0.031419966 -0.058663875 -0.044972267 -0.04247965 -0.0060861297 -0.05779959
-1.6325349 -0.9845044 -0.3084647 -0.1319711 0.620327 -0.34894758 -0.014663705 -0.088785574
-0.097657226 0.079244055 -0.015942309 0.012023212 -0.14512478 -1.3207318 -0.41256458 -0.8390201
0.1442954 -0.0019359256 -0.042994972 -0.04889805 -0.08617725 0.03613173 -0.016035017 0.00012983318
2.0361707 1.3028255 -0.33931452 -0.1460219 0.55147994 -0.2630357 -0.19615988 0.08772362
-0.12619354 -0.05537262 0.0018106886 0.00766571 -0.97470987 -1.3577586 -1.0413269 -0.43109685
-0.35459283 0.14248526 0.025010293 0.016523795 0.04330336 -0.19577318 -0.04951171 -0.051626895
-0.10045151 -1.5560416 -0.13278219 -0.6007395 0.01124334 -0.30768687 0.03842804 0.12425919
-0.2293911 0.005132194 0.052512873 0.040794507 2.145501 -0.23294488 1.0716106 0.01322425
-0.29721126 0.47499058 0.0036482075 0.030030908 0.051624447 -0.22884424 -0.010186001 -0.011616298
3.1770966 -0.92226285 0.5474598 -0.045772575 0.295518 -0.009712578 0.045772176 0.018919418
0.15103547 -0.021075841 -0.004570842 0.036551543 0.021626133 -1.5752723 -0.02755075 -0.6275138
0.12986515 0.31520122 0.014998865 -0.012958773 0.5954637 0.21492514 -0.0802599 0.06292106
-0.08797959 1.19157 -0.08276489 0.21548496 0.19277279 -0.6488103 0.039450202 0.011027682
0.15636162 -0.054483633 0.015715891 -0.015559542 -1.8829757 -0.1963261 -0.3086461 -0.13423006
0.24757941 0.3756572 -0.078904755 0.012321357 -0.0048790798 0.24797598 -0.01122195 -0.017434824
-1.4616907 0.7376219 -0.34205493 0.313921 0.5656815 0.6081522 0.021206941 -0.04459151
-0.1614523 0.011926916 0.07376056 -0.022027427 -1.647384 -1.326625 -0.39215428 -0.3348417
-1.09932 -0.18440235 0.10081784 -0.11206714 0.003913417 0.015696403 0.022020148 -0.02728071
-0.51751906 -0.9669881 -0.51205856 -0.07517573 0.09434459 0.044978578 0.030790674 -0.10586234
-0.11610895 0.13284878 0.0191012 -0.0034763964 -1.3507309 1.5578473 -0.01912264 0.0045246705
0.16281466 -0.48005357 -0.07429172 -0.04833992 0.24251209 0.44822234 -0.06870798 0.049543966
-0.14256118 -0.86769 -0.50496507 -1.0880526 0.19805533 -0.7072576 -0.0063224626 -0.08058777
0.048995253 -0.16710189 -0.01893699 -0.0050218594 -2.6157844 0.31646028 0.1469817 0.09220578
-0.2118246 -0.14250259 0.089738056 -0.042922754 0.26619175 -0.0486286 0.017937005 0.008367022
2.2191033 -1.183583 0.47024888 -0.18620676 0.6078126 0.52750576 -0.08089987 -0.051609743

a2c_network.actor_mlp.0.bias f4 [256]
00000000: 15d8 45be c979 87be 37ba ce3e 504d 103d
00000010: a83c 1f3e 1f18 573e 8abf 74be 1506 3b3d
00000020: 86bf 5abe f0bd edbd 1c49 e33d 6469 4e3e
00000030: d74c 8fbe 768b 893e b0e0 25be f4b9 eebd
00000040: c713 2a3e de8b 8abe 5eeb 363d 350c 3dbe
00000050: b3a1 643e 390b 18be 0447 cf3c 6932 d03c
00000060: 1142 99be 8d07 093d 1a01 c33d 4dd7 bb3e
00000070: f070 0fbe 1a69 1abd d8a3 26be e76e 10be
00000080: 4784 1b3e f481 993d 92a1 e9bd 393e 0cbe
00000090: 59e4 d2bd bd64 dd3c 9479 8d3e 7e01 6dbe
000000a0: 1a7d 5a3d 1819 7c3e 7608 043e b54a 4ebe
000000b0: 6f7f 27bd e3e2 86bd b88f 843e ce20 1b3e
000000c0: 5b84 443c 6468 a9bc 5a66 82bd a3f3 94be
000000d0: 3c40 adba 3cbc 333d 2d7a c03c 9adb 34bc
000000e0: e5ca 8fbe 31fb 433e c8af 143e f1bf 24bc
000000f0: 9392 05be 4f37 6bbe 40b0 713e 5a82 6c3d
00000100: ef51 b63d 4abf c0be c1ba 2b3d 4983 873e
00000110: 5379 04bc d8a8 59be 4cb7 bf3e 21b7 163d
00000120: 0923 fdbd f840 833e 4610 74be dd0c 443c
00000130: d73c 853e fb0a 343e dd64 5b3e d346 b7bd
00000140: 3d43 8fbe d098 963e 1cc1 533d 0d56 18be
00000150: 6556 543e b8c8 0bbe 9e4f 723e 72e7 aabe
00000160: df65 903d 8fbb 5e3e 1f2d 99be 18c9 4bbe
00000170: 224e 2c3c 0988 343e 1d56 93be e1a3 143e
00000180: 0793 ac3e 9cdf 453e 8807 593d f811 413e
00000190: 69ac 973e 9d9a 1cbe e260 a53d 3b4a 4abe
000001a0: 78ab a23c 7903 c03d b685 eabc ef8f ccbd
000001b0: cc3e 173c ffc4 27be 934e 583e f1b5 02be
000001c0: ba12 30be 0d10 4b3e 6bff 4f3d 7e5f 16be
000001d0: 814e 35be 04ff 4fbb 2a20 7fbe 50e7 663e
000001e0: 6ecb 9e3d c764 023e 21c5 99be 6fb6 17be
000001f0: 423b 86be 245d 1bbe a75b e9bc d497 93be
00000200: 615e c03d 4104 2e3e a18e 8abe 7d11 713d
00000210: d78a 8dbe 8f0b 9b3d 3541 873e 40e4 f7bd
00000220: f219 98bd 1787 09be a06c 8c3e 57e1 a2bd
00000230: 7833 123e d64c b6bd 7afc b0bc 2624 cfbd
00000240: 58ab 27be cfac 563e ae23 d03b 0a2f 7fbe
00000250: fafd 4a3e c9fe 15be df68 0a3e 79fa c03d
00000260: cf4c a1bd 1e14 96bd 2260 e13d ab79 543e
00000270: 3fa8 43bd e1c8 70bb 2508 953d 1c05 233e
00000280: cf26 353e 45e0 193e 0b35 6d3e 99c5 dfbd
00000290: 91ed c23d 643b 56be 57e5 4d3d 9233 1ebe
000002a0: 1f35 4a3c 8719 d3be bcbb 02be 8d60 35be
000002b0: 912d 13be f42e 7c3c fee0 fd3d b262 8dbe
000002c0: f3ef 35be bcd7 8cbd 663d 9fbc 4e81 1abd
000002d0: ea2c 393e 6856 183d 011f 93bd 605a 4dbd
000002e0: 6f4d e4bb 77bb c43d b61c 1e3e af68 01be
000002f0: a03e d13e f0e1 4f3d e8c6 6c3e 5723 dabd
00000300: 29f4 22be b7f1 74be 7895 4abe 8439 9c3e
00000310: de0c 183e 8851 afbc da77 91be d673 50be
00000320: ce75 6ebd 401c 4fbe f8fc 1abe 8e16 b0bd
00000330: aae0 913e 95d5 533e 0e36 16be 0b99 4b3d
00000340: 8193 0fbe 22cd 1fbe 2b74 c53d f9e2 22bd
00000350: b5ee 73be 7bfc d6bd 95c9 3bbe 942f 953d
00000360: 7f84 073e f353 3dbe 2278 85be f985 0ebe
00000370: fc8d 1ebe 5676 1bbd 8c21 6ebe da99 bd3d
00000380: de78 603e fbd3 47be f19f 073e 1f62 23bd
00000390: 82c5 373e 2065 e53b 542d 193e aa8a aebd
000003a0: 3ad7 ab3e e2d1 f5bb 6641 ab3d aebc 8b3c
000003b0: 83dd 95bb f4b0 12be 8065 1a3d 0cdc bebe
000003c0: a036 60be ae54 e9ba b70c 0e3e ea64 6abd
000003d0: 3d85 a23e 4a38 ba3d 378e 50bd 1f9e 21be
000003e0: 44cd 4fbe 06bb 6fbc dc72 333e e6fd 2f3e
000003f0: e590 f73c 3f89 42be 3544 1dbd 274e 02bd
-0.1932071 -0.26460102 0.40376446 0.03522998 0.15550482 0.21005295 -0.23901191 0.045660097
-0.21362123 -0.11608493 0.11097929 0.20157391 -0.27988312 0.26864213 -0.16198993 -0.116565615
0.16609107 -0.27059835 0.044658057 -0.18461688 0.22327308 -0.14848031 0.025302418 0.025414662
-0.29933217 0.033454467 0.095216945 0.366877 -0.14007926 -0.03769789 -0.16273439 -0.14104806
0.15187179 0.0749549 -0.1140777 -0.13695611 -0.1029746 0.027025575 0.2763182 -0.231451
0.053341962 0.24618948 0.12893853 -0.20145686 -0.040893015 -0.06586244 0.258909 0.15149233
0.011994447 -0.02067966 -0.06367178 -0.2909213 -0.0013217996 0.043880686 0.023495758 -0.011038685
-0.28084484 0.1913879 0.1452018 -0.010055528 -0.13044195 -0.22970317 0.2360239 0.0577415
0.08902346 -0.37645942 0.04192615 0.2646735 -0.008085567 -0.21255815 0.37444532 0.03679574
-0.12360198 0.25635505 -0.23834333 0.0119659575 0.2602298 0.17582314 0.21425195 -0.089490555
-0.27980986 0.29413462 0.051697835 -0.14876576 0.20736082 -0.13650787 0.23663184 -0.33379704
0.0705068 0.21751235 -0.29917237 -0.1990093 0.010516675 0.17630018 -0.28776637 0.1451564
0.33705923 0.19323581 0.052985698 0.18854511 0.29623726 -0.15293355 0.080751196 -0.19754879
0.019857153 0.09375662 -0.028628211 -0.09988391 0.009231281 -0.16383742 0.21123724 -0.12764718
-0.17194644 0.19830342 0.050780695 -0.14684865 -0.17705728 -0.0031737695 -0.24914613 0.22549176
0.07753645 0.12733756 -0.3003321 -0.14815687 -0.26217085 -0.15172249 -0.028486086 -0.28826773
0.09393001 0.1699381 -0.27061942 0.05885457 -0.2764499 0.07570564 0.26416937 -0.12104082
-0.07426824 -0.13430439 0.27426624 -0.079531364 0.14277446 -0.08901374 -0.021604765 -0.10114317
-0.16373956 0.20964359 0.0063519096 -0.24920288 0.19823447 -0.14647974 0.13516568 0.09422774
-0.07875978 -0.07328056 0.11004664 0.20749538 -0.047767874 -0.0036740827 0.07276944 0.15919918
0.17690586 0.15026958 0.23164766 -0.10926361 0.095179684 -0.20921093 0.050267544 -0.1544936
0.012341767 -0.41230413 -0.12766927 -0.17712612 -0.14372851 0.015392054 0.123964295 -0.2761436
-0.17767315 -0.068770856 -0.019438457 -0.03772097 0.1808354 0.03719178 -0.07183648 -0.050135016
-0.0069672386 0.096060686 0.1544064 -0.1263759 0.40868092 0.05075258 0.23122752 -0.10651272
-0.15913452 -0.23920332 -0.1978358 0.3051263 0.14848658 -0.021401182 -0.28411752 -0.20356688
-0.058217816 -0.2022562 -0.15135562 -0.08598052 0.28491718 0.20686944 -0.14669058 0.0497065
-0.14021112 -0.15605596 0.09641298 -0.03976724 -0.23821528 -0.104973756 -0.18338616 0.072844654
0.13234137 -0.18489055 -0.26068217 -0.13918294 -0.1548385 -0.03795465 -0.23254985 0.092578605
0.21921107 -0.19514458 0.13244607 -0.039888497 0.17946437 0.0070005804 0.14958698 -0.08522542
0.33562642 -0.0075018266 0.08362083 0.017057743 -0.0045735254 -0.14325315 0.037694454 -0.37277257
-0.21895838 -0.0017801726 0.13872038 -0.057225145 0.31742278 0.090927675 -0.050916877 -0.15782975
-0.20293146 -0.014631992 0.17524284 0.17186698 0.030220458 -0.18997668 -0.038395125 -0.031812813

a2c_network.actor_mlp.2.weight f4 [128, 256]
00000000: 9cbc a8bc a95f 0fbe 8f29 8cbe 02db c0be
00000010: be9c bcbd 7f4a be3d 835e c63c fd36 54bc
00000020: 0973 fbbd be5d 84bd 381d e2be 784d d4bd
00000030: 684e 87bc 25f9 3e3e b4d3 76bc 9b61 a43d
00000040: 9f39 9dbe 2520 113f a2e3 e83d 648b 923e
00000050: 4e05 d9be 2f2c 643c d5f7 963e b876 ad3e
00000060: e457 653e 742e e73d 54a5 83bc 9981 0abc
00000070: a880 0dbb 7803 1b3e b24d 88be 22bf e9bd
00000080: 30cd 69be 5e7f 41be da56 a83e 4eab d83e
00000090: 2423 543e 4de4 1abd 3f27 94bc 4148 e73d
000000a0: 38e3 8abd 1f4e baba 3612 65be d03c 093e
000000b0: 4802 28bf f078 d3be 46b2 a83d a93b 2dbe
000000c0: a90e 11be 345c b4be ef27 00bc 644c 5d3e
000000d0: 01ba e0bc ebf9 a9be 41f4 c6be 823d a6be
000000e0: 3c0a 75bd c1a4 0abe c68d 77be 78e1 bc3c
000000f0: 5f9f cdbd 5973 19be 15b0 a13e f9b2 963d
00000100: 25f7 863e 83a0 dc3e 13ff 923d 9379 1b3c
00000110: 96a2 1ebc 17d3 043e 6664 b8be 7521 3d3d
00000120: b295 bc3d 4b07 33be ef54 7ebe 8077 643e
00000130: 2f4c 4a3d 2a40 8d3d 20e3 87bc 9697 28be
00000140: 35ff 80be 8f63 54be 1697 3f3c 18a9 d43e
00000150: 5935 43be 5a05 aa3e 20b1 cb3c 12df 653e
00000160: 52c2 e43d 46f0 3dbe e08b b93e d912 c93e
00000170: b59d 2ebe 8571 e13d eb0d 343d 9e73 253e
00000180: 4a54 20be d8b6 2dbd 427b 42bd 8a7a 60be
00000190: 1f0c 273e 7983 99be 8f34 843d f696 1b3d
000001a0: 1aa3 8fbe 2b81 18be 0603 33be cba0 bfbd
000001b0: 7907 a23e 15ef a93e be0f 34be 2678 10be
000001c0: 8860 13be 56f1 80be c532 44bd e2e9 debd
000001d0: b836 8bbe d48e 43be afb5 da3e 5d1f f2bc
000001e0: 0f0e efbc af04 033d 591d 373e 4a8a dd3e
000001f0: ca32 9c3d 11fa e03d 42d2 09be 3e4f e2bd
00000200: 0638 d9bd 5b14 9d3c de4c bf3e 0de4 e3be
00000210: 02a8 e13e d690 20be e6d9 2c3e abc4 1ebe
00000220: 950e 21bd 071b e03e dcbc 7abe edb3 9d3e
00000230: 07c5 e9bc 5d19 113d aab4 363e fffa 75bd
00000240: dace a33d d7e4 03bd e217 393e 8f4c 9bbe
00000250: fd1c 8fbe 04c8 92be 1096 4d3e 3828 d5bd
00000260: 9f2d ea3e a635 3fbe 6223 1c3e 3b04 32be
00000270: 4bb7 7abe cd67 0cbe 3dc7 dcbd 4e35 023e
00000280: daed bdbe a35f f9bd 624f 48bd 11a9 1e3c
00000290: 05c8 83be d0d9 1dbe 287a 973c 0e3c 133d
000002a0: 7c10 77bd 5df4 e6bd 8963 8abe 2f49 083f
000002b0: 2945 7c3e 9cc1 fdbd 5ae8 9bbe 28d6 0fbe
000002c0: 9915 3a3e 2599 043e e993 9dbe 8de4 093e
000002d0: f591 093c d69b 823d 394a 5c3e 5121 b43d
000002e0: 3440 00be 15b7 693d 80c9 c63d d597 e1be
000002f0: 87ea bd3c 8a60 6c3e deb5 373c bfb8 623e
00000300: 3a31 86be 2185 0c3e d294 e4bd e871 13bf
00000310: 7a26 0bbd d784 153e deca 933c b45d ab3e
00000320: 9074 db3c 87c1 ca3e b251 b7be a7f6 52be
00000330: cf6e 0fbe 2ed0 9bbe 6337 9dbb ebff bdbd
00000340: 36d0 b63e 8e42 ab3e 361c 1e3e 838d b5be
00000350: ef5d e33e c96e 4dbe 46c4 5ebe b4db 92bd
00000360: 01eb c6be 9efc b53d 4963 6cbc 8bc4 89be
00000370: b28f 2d3e 1fb8 bb3b ce66 0c3f 6714 9bbd
00000380: 500f 84bd 5661 cfbd 127e 17be e46b df3d
00000390: ed35 09be 8c2f 63bc 0e13 70be 3226 0fbe
000003a0: 6843 64be 0244 183d 1e3e e9be 6687 42be
000003b0: c3c1 443e 5d26 b63d 22f8 913e 2e37 853e
000003c0: 4c01 c73e 6111 f8bd 2f1e ccbe f0be 06be
000003d0: 3f7f 913d b160 88bd 49de 44be 35b7 ee3e
000003e0: 2ac6 223f 6bef 88bd 1067 1cbe 0843 50be
000003f0: 6521 023e 3de8 a7bd 71ae bb3e 4f18 5dbe
-0.020597748 -0.14001335 -0.27375457 -0.3766709 -0.09209584 0.09291553 0.024214989 -0.012952563
-0.122778006 -0.064631924 -0.44162917 -0.103663385 -0.01651688 0.18649729 -0.015065122 0.08026429
-0.30708024 0.56689674 0.113715425 0.28621972 -0.4238686 0.01392655 0.29485956 0.33879638
0.22396809 0.11288157 -0.016070046 -0.00845375 -0.0021591578 0.15138042 -0.26621777 -0.11413409
-0.22832179 -0.18896243 0.32878762 0.42318195 0.2071653 -0.03781538 -0.01808512 0.11293078
-0.0678162 -0.0014213956 -0.22370228 0.13402104 -0.6562848 -0.41303205 0.08237128 -0.1691729
-0.14165749 -0.35226595 -0.007822021 0.21611172 -0.027432444 -0.33198485 -0.38858226 -0.32468802
-0.059824213 -0.13539411 -0.24175176 0.02305673 -0.10040163 -0.14985408 0.31579652 0.07358355
0.2636043 0.4309121 0.07177558 0.009489435 -0.009682318 0.1297115 -0.36014098 0.046174485
0.092082396 -0.17483251 -0.24837087 0.2231121 0.04938906 0.06897004 -0.016587794 -0.16464075
-0.25194708 -0.20741104 0.011693737 0.41535258 -0.1906332 0.33207208 0.024864733 0.22448376
0.11169876 -0.18548688 0.3623953 0.39272192 -0.17052348 0.1100798 0.043958586 0.16157386
-0.15657154 -0.0424107 -0.04748083 -0.21921745 0.16313218 -0.29983118 0.06455337 0.037985764
-0.28054124 -0.14893024 -0.17481622 -0.09356841 0.31646326 0.33190218 -0.1758413 -0.14108333
-0.14392292 -0.25184125 -0.04789998 -0.10884453 -0.27190185 -0.19097453 0.4271674 -0.02955597
-0.029181508 0.03198689 0.17882289 0.4326957 0.07626875 0.109851964 -0.13459113 -0.110502705
-0.10606389 0.019174745 0.37363333 -0.44509926 0.44073492 -0.1568025 0.16879997 -0.1550471
-0.039320547 0.4377062 -0.24486107 0.30801335 -0.028536333 0.03542458 0.17842355 -0.06005382
0.07998438 -0.03220066 0.18075517 -0.30331847 -0.27951804 -0.28668225 0.20076776 -0.10408062
0.4573793 -0.18672809 0.15247872 -0.17384426 -0.24483983 -0.13711472 -0.10780189 0.12715647
-0.3709553 -0.121764444 -0.04890383 0.009683863 -0.2573854 -0.1541512 0.018490866 0.035945944
-0.060318455 -0.11277077 -0.27029064 0.5323667 0.24635758 -0.12390444 -0.30450708 -0.14046538
0.18172301 0.12949045 -0.3077691 0.13466091 0.008396615 0.063773796 0.21512689 0.08795417
-0.12524492 0.057059366 0.09706402 -0.4406115 0.02318312 0.23083702 0.011212794 0.22140788
-0.26209432 0.1372266 -0.11161198 -0.5759568 -0.03397224 0.14601456 0.01804107 0.33469927
0.02678898 0.39600775 -0.35804516 -0.20601903 -0.14007114 -0.30432266 -0.0047978624 -0.09277328
0.35705727 0.33449215 0.15440449 -0.35459527 0.44407603 -0.20061792 -0.2175456 -0.07170811
-0.3885117 0.088860735 -0.014427968 -0.26907763 0.16949347 0.005728736 0.5484437 -0.07572251
-0.06448233 -0.10125987 -0.14794186 0.109092504 -0.13399477 -0.0138663165 -0.23444769 -0.13979414
-0.22291338 0.037174232 -0.45555204 -0.18996963 0.19214539 0.08894036 0.28509623 0.2601866
0.38868177 -0.1211269 -0.39866778 -0.13158774 0.071043484 -0.066590674 -0.1922542 0.4662415
0.63583624 -0.0668629 -0.1527369 -0.2033807 0.12708052 -0.08198593 0.36656526 -0.21591304

a2c_network.actor_mlp.2.bias f4 [128]
00000000: ef89 45bd b07b 7abd 68f6 af3d 7f19 c63d
00000010: 7169 40be 3b10 cfbd 57b7 a4bc 4c82 8cbe
00000020: 721a df3e 0e6d 86bd b0ad 173e af2b c7be
00000030: 1530 36be ff3b 633e d25b 20be 5fd2 2dbe
00000040: bf14 053e da58 e4bd f661 87bd e28c 1fbe
00000050: bfca abbd bb24 c9be 89bd 8fbe 50ac 3bbd
00000060: 43ec c4bd 4cfb 493d ef33 42bd 0aaa 37bd
00000070: 216c 89be 79cd 16bf 8a60 2b3e c5c0 bc3d
00000080: cc53 31be c0cf 2e3d 8c5d e5bd b5a9 123e
00000090: dd33 c43c 9a4a 02be e0df b63d c85e b6be
000000a0: d044 da3d 2f25 fe3c 5ae5 abbe 71e8 fd3d
000000b0: 841e 063e 05c3 fcbd 4106 0f3c 840e 9dbb
000000c0: 2c0f 9d3e b5ba 823c 9c80 c23c 25cf 873c
000000d0: 5f99 bcbe 343a 43be acff 6ebe 6e7e de3e
000000e0: ba8a 803d c252 ac3b 0960 9abe c3f1 63be
000000f0: feb3 bd3d 11d9 72be 2d50 a8be f17f db3d
00000100: af23 9e3c 8a72 bb3d cdde b1be 60c2 d73d
00000110: 49ef 05bd 61f2 cf3d fd43 52be 8f9c 613c
00000120: 7b29 5ebe 4d90 3dbe 01f5 183d dc91 64bf
00000130: beb9 7dbd 005f 67be fbb4 b3be a40c a13e
00000140: d68b b6bc 0693 44bd 1584 213c 35be b73d
00000150: 3ec5 05bc 0d7c afbd 2ee9 1bbd 80b1 95be
00000160: eb29 0bbe c9d0 56be 808c 94be d2e5 1abe
00000170: ef58 f7be a364 16be c205 8bbd 9ab0 7fbe
00000180: f8a3 03be 0ad2 e7be 7573 85be 0cf8 67be
00000190: 7c1f 2abe 65da 67be 5276 95be ef80 a83c
000001a0: a4be 8cbd 7387 c13e 0198 ccbc 78d2 673e
000001b0: c6be 33be eb11 11be cc9e 783e 9323 c9be
000001c0: 40a9 54be 6ce5 48be 85e9 843d 2e5e 09bf
000001d0: 8fcb ed3d 8d8b 8c3c 7607 37be d9fd 18be
000001e0: c34a ddbd e569 abbe 4fd2 04bd bb39 cfbe
000001f0: aacf e5be c817 5d3e cdcf fdbd 76d6 04be
-0.048227247 -0.061153114 0.0859192 0.09672832 -0.18790223 -0.101105176 -0.020106955 -0.2744316
0.43574864 -0.06563769 0.1481235 -0.38900515 -0.1779178 0.22190855 -0.15660027 -0.16974781
0.12996195 -0.111497596 -0.066104814 -0.15581086 -0.0838828 -0.39285836 -0.2807429 -0.045818627
-0.09615376 0.04931192 -0.04741281 -0.044839896 -0.26840308 -0.58907276 0.16736045 0.09216455
-0.17317122 0.042678595 -0.11199483 0.1432255 0.023950512 -0.1272377 0.089294195 -0.35619187
0.10657656 0.03102359 -0.3357342 0.1239785 0.13097578 -0.123418845 0.008729518 -0.00479299
0.30675638 0.01595817 0.023742966 0.016578266 -0.36835763 -0.19065171 -0.23339719 0.43455833
0.0627646 0.005258889 -0.30151394 -0.22260194 0.092628464 -0.23715617 -0.3287367 0.10717762
0.019304125 0.09152706 -0.34740296 0.10535121 -0.032698903 0.10153652 -0.20533748 0.013770237
-0.21695511 -0.18512078 0.03734303 -0.89285064 -0.061944716 -0.22594833 -0.35099015 0.31454957
-0.022283476 -0.047991775 0.009858151 0.08971826 -0.008164702 -0.08568583 -0.038064174 -0.29236984
-0.13590209 -0.20978083 -0.29013443 -0.15126732 -0.48310038 -0.14686827 -0.067882076 -0.24969712
-0.12855518 -0.45277435 -0.2606465 -0.22653216 -0.16613573 -0.22641905 -0.29191834 0.020569293
-0.06872299 0.37798652 -0.024974825 0.22638881 -0.17553243 -0.14166991 0.24279326 -0.39284953
-0.20767689 -0.19618767 0.06489853 -0.5365933 0.11611091 0.017156387 -0.1787394 -0.14940585
-0.10805275 -0.3347923 -0.03242713 -0.40473732 -0.44884998 0.21591103 -0.123931505 -0.12972435

a2c_network.actor_mlp.4.weight f4 [64, 128]
00000000: f8b7 0f3d c1ce 7fbb 5c6e 7c3e 4c74 ce3d
00000010: b8a5 6ebe 8ce0 19bd df85 983d 4fc4 1f3e
00000020: ece9 fbbe b692 c7bd 2250 0d3e 7d88 f03d
00000030: dc5c 3f3c a598 3cbe 616e 80be d267 acba
00000040: aaa0 d93d 0d8b bfbd 4a03 9ebd abb1 c5be
00000050: 5904 0cbf 6abb b83d 9574 08bf 809f 1f3d
00000060: 24d2 a9be e1e4 ddbd d2ab 313e afbb e63d
00000070: f442 18be 3aeb ac3d 891c 36bc c0b2 b2bc
00000080: eb95 19be b808 b1be a28d 82bc f339 99be
00000090: d363 d5bd 88f9 e3be f388 1b3c 31bd a7bd
000000a0: 93c0 b9bc 4488 a0bd 8560 e43d 9988 9f3d
000000b0: f97a fd3c db45 96bd e59e 15be e054 d43c
000000c0: 7107 abbe fab5 813c 9285 c83c eff5 30be
000000d0: 93f0 3dbe 25a5 46bd b7ad 5fbe 028c 52be
000000e0: 755e 50be 17e4 5abb fbef 143d 0810 91bd
000000f0: 4d20 20be da1a a1bd 21b2 5a3d fa81 32be
00000100: 5d16 113d 31e0 5dbe 3dbf 66be 492b 01bd
00000110: addf 143e b311 f0bd 190e 8bbe 3d84 a73d
00000120: 0865 6bbd 5d5f b23c faa7 8f3e f366 523e
00000130: 4a1d 3e3c 7dec cc3d 82ea 4e3e e9db 23bf
00000140: 41ff 41be ace2 653e 643e ac3d 34b1 f4bd
00000150: 0199 a8bd f97a 9e3d c4fd df3d b9b4 31be
00000160: 2a26 323e 3b5c 1bbe f2c2 e03d 788e f8bd
00000170: 3338 0d3d e13c d4bd a79e e43c ecdc 9ebd
00000180: 3c1e 0abe 36e6 ae3d b5fb 4dbe acd8 22be
00000190: ad82 253e ed8d 153d d0d9 22be 7fd7 92bd
000001a0: e318 19be da14 4cbf 1315 09be 3f82 a63d
000001b0: fcfd c8be d18a 95bd a570 f3bc 8a97 64be
000001c0: ef4f 7a3e f3b0 21be 4c50 523e 1c34 e8bd
000001d0: 924e e0bd 3157 8cbe 63ce 70bd 532b 853c
000001e0: 13cb 12bf b411 d8bd cee3 cf3c 0728 a43d
000001f0: b33a 883c 2425 98bd 80d0 0fbd 828e 94bd
00000200: 8695 85bd 762c 2abe 609d 47be 976e 41be
00000210: 2a7d 6dbd 5100 28be cab2 6a3e 56de bebe
00000220: b556 adbd 5b77 9e3e 73f5 e63d f0fa 14be
00000230: 49d9 13bf 6bc9 88be b807 a13e c528 1d3e
00000240: 33d6 49bf c8e9 b83e 130b f73d 4be1 6bbf
00000250: bf6b f0bc 2012 9bbd 0b26 72bd a639 7a3d
00000260: cdf3 2cbe e4fd 9a3c 96f0 20bd cc2b 763e
00000270: 497d a73e 5298 83bd 841b 55bf 885c a0bd
00000280: 1d89 e83e 81f2 90bd 1f2b 60bd 06a0 f7bc
00000290: 2c42 92be b4b9 213d 38e1 f2bc 2433 02be
000002a0: 0c31 44bf fd05 b9be a906 b53e da1b acbd
000002b0: d025 353d 5331 bf3c bb96 9abf bf20 15be
000002c0: d0ec 8a3e 88a3 923d ca50 eb3c 647a f83d
000002d0: 0d50 413e e1f7 483e 5356 9b3a a974 bfbd
000002e0: 3073 95be 8352 a63d 906f b3bf 1850 c5be
000002f0: 92e6 3d3e f7ef a63d 01c8 c83e 7ee7 4dbc
00000300: d7bf c33d 2749 2ebf 5eb8 dc3d e6f9 963d
00000310: 7447 823e fef7 08bf 675e 8d3a 8180 9e3e
00000320: 7ffb 2dbf 87c3 8c3e a35b 953d 88df 9ebf
00000330: 52b9 07be c852 a4be d488 c13e a54c c9be
00000340: 8783 17bf 8594 6a3d 8973 ad3e e4e2 983e
00000350: f24f febb a0ba 233e 1e95 82be 8fa2 10be
00000360: 5389 73bd c73d ad3e 1ac0 9bbe de95 133d
00000370: 9e80 08be c403 983e ccb1 b43e 6f7a d03c
00000380: 45a6 a2bd 48fa 853e 175c 0f3d 1888 e1bc
00000390: 99fa 513d c8a7 ddbc 1350 eabc 2559 12bd
000003a0: cf7c 893d d5f3 30be a3a8 e43d def3 8ebe
000003b0: 9c09 3a3e 3430 eb3d d7d9 0abe 2ad0 1a3e
000003c0: ab00 a33e d2d4 83bb 17c2 db3c d7b0 73bd
000003d0: 2274 d53d a7f2 90bf cfad 193e 4ec2 883e
000003e0: 3c22 80bf 179b f03e 4736 03bd b0de 28bf
000003f0: 1e52 91be 68f4 cebc 26b9 45bd 0529 8b3e
0.035087556 -0.0039033147 0.24651474 0.100807756 -0.23305404 -0.03756766 0.07447409 0.1560223
-0.49201906 -0.0974478 0.138001 0.11744783 0.011679854 -0.18417604 -0.25084212 -0.00131535
0.10626347 -0.09352694 -0.07715471 -0.38612112 -0.54694134 0.090201214 -0.5330289 0.03897047
-0.33168137 -0.10834671 0.173507 0.112662666 -0.1486929 0.084433034 -0.011115202 -0.02181375
-0.14998595 -0.34576964 -0.015936676 -0.29927024 -0.104194306 -0.44526315 0.0094931 -0.08190382
-0.022674834 -0.078384906 0.11151222 0.07789726 0.030942427 -0.073375426 -0.14611395 0.025919378
-0.33404115 0.015833843 0.024477754 -0.17281316 -0.18548803 -0.048497338 -0.2184361 -0.20561221
-0.20348532 -0.0033400112 0.036361676 -0.07083136 -0.15637322 -0.0786645 0.053392533 -0.17432395
0.035421718 -0.21667553 -0.22533889 -0.03153542 0.1453845 -0.11722126 -0.27159193 0.08179519
-0.057469398 0.021773988 0.28057843 0.20547085 0.011603663 0.10006044 0.20206645 -0.6400743
-0.18945028 0.2244975 0.084103376 -0.11947861 -0.08232308 0.07738299 0.10937074 -0.17354096
0.17397371 -0.15171902 0.10974683 -0.12136549 0.034477424 -0.10363174 0.027907683 -0.07756981
-0.13488096 0.08540003 -0.2011555 -0.15902966 0.1616313 0.036512304 -0.15903401 -0.07170009
-0.149509 -0.79719317 -0.13386945 0.08130311 -0.39256275 -0.07301868 -0.029716799 -0.22323433
0.24444555 -0.15790157 0.20538443 -0.11338064 -0.10952486 -0.27410272 -0.058790576 0.01625601
-0.57341117 -0.105502516 0.02537718 0.08015447 0.016629552 -0.07428959 -0.03511095 -0.07253744
-0.0652266 -0.16618523 -0.19493628 -0.18889843 -0.057980694 -0.1640637 0.22919765 -0.37279004
-0.08463804 0.30950436 0.112772845 -0.1454885 -0.57753426 -0.2671617 0.314512 0.15347584
-0.7884247 0.3611586 0.12062659 -0.92140645 -0.029348252 -0.075718164 -0.05911831 0.061090134
-0.16889878 0.018919893 -0.03929194 0.24040145 0.32712772 -0.06425537 -0.8324511 -0.07830149
0.4541711 -0.07077504 -0.054728623 -0.030227672 -0.2856611 0.03948374 -0.029648408 -0.12714821
-0.7663734 -0.3613738 0.35356644 -0.0840375 0.044225514 0.02333895 -1.2077249 -0.14563273
0.271338 0.07160097 0.028725047 0.12132719 0.18878193 0.19625808 0.0011851288 -0.09348423
-0.29189444 0.081212066 -1.4018421 -0.3853767 0.18544987 0.081512384 0.3921509 -0.012567399
0.09558075 -0.6808037 0.10777353 0.07371883 0.2544514 -0.53503406 0.001078558 0.30957416
-0.6796188 0.27492926 0.07292869 -1.2411966 -0.13254288 -0.32094407 0.37799704 -0.39316288
-0.5918507 0.057270546 0.3387721 0.29860604 -0.007760995 0.1598916 -0.25504392 -0.14124511
-0.059457134 0.33836195 -0.3042 0.036031596 -0.13330314 0.29690373 0.35291898 0.025449006
-0.0794187 0.26167512 0.034999933 -0.027530715 0.05126438 -0.027057543 -0.028602635 -0.035729546
0.067132585 -0.17280515 0.111649774 -0.2792043 0.18167728 0.114838034 -0.13559662 0.15118471
0.31836447 -0.004023173 0.026825948 -0.05949482 0.10422541 -1.1324052 0.15007709 0.26710743
-1.0010448 0.46993324 -0.032034185 -0.65964794 -0.28382963 -0.025263026 -0.048272274 0.27179733

a2c_network.actor_mlp.4.bias f4 [64]
00000000: 8ebd 2ebf 48ff 7d3e dd81 43bd 1987 dfbd
00000010: 85ec 103e ba57 dcbd 7746 c3be cf58 2f3d
00000020: 5334 21bd 15a9 99be 324b 1ebf 47bf 46bd
00000030: 33d1 d13d 8fad 0f3e d11d e03d 3985 6b3d
00000040: 8fa8 37be 9e52 c83c 1ef5 07bd 8fa9 fabc
00000050: 5064 acbc a765 be3d 4a9a afbe c213 773d
00000060: 5fd3 f23c 18e9 56be abbc 653d 7f37 b83d
00000070: dc2a f3bd 9fea bf3d 07d1 9bbd 9671 133c
00000080: 38ca bcbd b746 d7bd 32ff d63e 19d4 633c
00000090: a00f 17be 4699 0ebe 9d2c 2c3e 169f 5e3e
000000a0: e330 913e 8010 b6be 23fe 84bc b2d6 83bc
000000b0: cc37 51bf 9269 f4bd 3683 b93d 4eb7 e53e
000000c0: 2a50 5ebd 2af4 bfbd d08a d73c e2b9 bdbc
000000d0: 51d4 2abe 8f81 12be 38b7 eb3e c24d cc3d
000000e0: 2f9a 503d 8ad2 0fbc e3d6 083d a80d 803d
000000f0: 65fd 3a3d f5aa d03d 98e4 79bd f9cb a13c
-0.6825799 0.24804413 -0.04773127 -0.1091444 0.14152725 -0.1075892 -0.38139698 0.042809304
-0.03935654 -0.30011812 -0.6183349 -0.04852226 0.1024498 0.14031051 0.10943187 0.057500098
-0.17935394 0.024453457 -0.033192746 -0.03059843 -0.021043926 0.092967324 -0.342974 0.060321577
0.029641805 -0.20987356 0.05608813 0.0899496 -0.11873409 0.09370922 -0.07608228 0.008999249
-0.09218258 -0.10511535 0.41991574 0.0139055485 -0.14752054 -0.13925657 0.16813894 0.21740374
0.2835761 -0.35559464 -0.016234463 -0.016093586 -0.81725764 -0.119341984 0.090582296 0.44866413
-0.05427567 -0.093727425 0.026311308 -0.023159925 -0.16682555 -0.14307235 0.46038222 0.099757686
0.05092829 -0.008778224 0.033408057 0.06252605 0.045651812 0.101888575 -0.06100902 0.019750582

a2c_network.value.weight f4 [1, 64]
00000000: 90a8 83bf 541d d13f 76e9 8dbe 0431 b9be
00000010: 4659 973e 50a3 dcbe 636b 39be 1a25 a53e
00000020: 5bab c4be c938 25be bb4b 05bf 82c3 04bf
00000030: 30e2 ad3e a638 603e 4b4f c93e 1520 0cbf
00000040: 98fe c5be 05f7 98be efda a4be a941 5ebe
00000050: 40e4 89bd 2312 693e 4aa6 8dbe 7d0b d7be
00000060: c8a4 40be 3f32 fcbe 1bff 93be 6368 73be
00000070: 2cdd ad3e 6981 673e f2d8 47be 54c5 a0be
00000080: f195 c9be 7fe9 a13e 9836 813f 2efd 013f
00000090: b180 d2be 77af 6fbe 2d41 ad3e 1647 bc3e
000000a0: 1989 743e 4b74 a2be dad2 c23e ffa8 ecbe
000000b0: aa88 83bf c858 87be 135a c1be e97a bb3e
000000c0: 311a 5f3d ef6d 12be 6dd4 a53e 489d 563e
000000d0: c1e2 98be a1a1 03bf ae38 7b3f bb4a be3e
000000e0: 0d3a ec3e d542 a6bc ce62 8d3f 81ef ba3f
000000f0: 05ed dc3d 624a d6be 7d2e 40bd f5a0 efbe
-1.0285816 1.6337075 -0.2771718 -0.36170208 0.29560298 -0.43093348 -0.18107371 0.3225487
-0.38411984 -0.16134943 -0.5206868 -0.5186082 0.3396163 0.2189661 0.39318308 -0.54736453
-0.38670802 -0.2987596 -0.32198283 -0.21704735 -0.06732988 0.22760825 -0.2766593 -0.42000952
-0.18812859 -0.49257085 -0.28905568 -0.23770289 0.33957803 0.2260796 -0.19516352 -0.3140055
-0.3937221 0.31623456 1.0094786 0.50776947 -0.4111381 -0.23406778 0.33838788 0.36772984
0.23880424 -0.3172935 0.38051492 -0.46222684 -1.0276082 -0.26434922 -0.37764034 0.3661721
0.054468337 -0.14299749 0.3238863 0.20958436 -0.298605 -0.514185 0.9813336 0.3716639
0.4613804 -0.02029554 1.1045778 1.4604341 0.107873954 -0.41853625 -0.046919335 -0.46802488

a2c_network.mu.weight f4 [4, 64]
00000000: b08e 46bd b89d 76bd 69e1 673b 73f7 633d
00000010: 0d31 eebc accc 75bd e639 303d 4699 f03c
00000020: ebbd 7b3d 15af c2bd fe20 793c d68f e43b
00000030: 86a9 133c 8fb0 47bd 7e7b 6e3c c105 3ebc
00000040: 2a38 873c 47da acba 75f2 0f3d 5e33 4ebd
00000050: 456a 9b3e 4136 743c 6976 e1bc 2321 4a3d
00000060: c6de 8f3c 69a1 353d 8286 93bd fa73 0d3d
00000070: 7c4f 9b3c 4f0e 87ba ad1e 093d 9b9b ec3c
00000080: 1efc a7bc 1c2a 4f3e dd8d 653c 89f5 8fbd
00000090: 0816 dc3d 2dc6 06be aa3d bd3c 10b1 23bb
000000a0: abd9 5c3d 767c 153c b3f3 b53a 330b 023c
000000b0: 1c01 c9bd 990d 4fbd eeea 11bc f8a7 8fbb
000000c0: 8169 c9bd d384 933b e9d4 c43b 27a2 cabc
000000d0: 3b8e ffbc ba84 633d 3a39 18be 5dac efba
000000e0: 5fa4 1e3b 3580 d5bd e85d dc3d 5d26 83bc
000000f0: 0447 803c 7aea 623b f97c 17be 6eb0 133d
00000100: 0e5f 22bc 6bad f4bd 06ed 6f3d 208c f0bd
00000110: 5b5c 01bc f955 0c3d 0254 7639 9b8d edbb
00000120: 7ab8 153d 3075 193e 8f61 70bd a07d 25bd
00000130: aa94 bfbc 6b05 6ebd 844a db3c 7882 6f3d
00000140: d312 74bd f06d e03c 2fdc d4bd 26e5 b9bc
00000150: 6ca8 0ebd 0a1d 50bd 4e01 e3bb c451 97bd
00000160: 3e55 37bc b940 bf3c 1f55 fa3d 0017 cfbd
00000170: 5e72 09bd 7447 1abc 8e1a 2f3b f265 d5bc
00000180: 6b30 9a3d bf82 1b3d 50e9 a1bc 8354 a73c
00000190: 6109 dabd acef 263d 7a1a c53c ea4e 703b
000001a0: c1a7 a4bd b783 ab3d 28ea 66bd 580a c23c
000001b0: cb97 353c b524 1b39 8b90 493d 0503 533c
000001c0: e2e5 503e 1ba0 f0bc ea4d 1c3d af76 13bd
000001d0: 5008 15bc 363e 673d 5617 c53c 0c1a 313c
000001e0: 0130 04bd f4db e1be a5b2 12be d473 3ebc
000001f0: 292e 333c 25fd 243d ca53 1b3e 6a9c 6fbd
00000200: a2fd e23c a137 c1bd e7b6 6b3b c022 80bc
00000210: 8c48 233d cdd6 32bc e09b 42bb 120f a2bc
00000220: 81fc 9c3c c8cf 173d 2899 643c cf84 633d
00000230: db96 b4bb bddf e7bc ce91 16bc 0a26 84bc
00000240: 9aee b73c f915 fa3b b48b 1c3a 721d c2bd
00000250: f8a3 fb3c 953c 21b7 1aaf 4bbc 1741 2dbd
00000260: 2771 e8bd c24a 743c 84ca e73d 9006 2cbd
00000270: 982e 91bd 2cec 533b afb8 0abb 4c24 db3c
00000280: 2d18 96bd b953 9a3d 069e a33c 7876 11bd
00000290: 9cbe 1ebd 73f6 7dbc 504a af3b d7b3 0a3c
000002a0: e3be c53b 7017 8dba 743f 0c3d 07c9 ce3c
000002b0: 2cdb 1cbc ff44 603d 1eff a0b9 db5b a3bc
000002c0: 127c 0f3c 6ade 0c3d d5f7 da3c 14f3 2c3c
000002d0: 90f3 603d 8d20 bc3d 3e4f 33bd 9051 77ba
000002e0: 2627 88bd a667 39bc a072 a5bd 11bd 3b3d
000002f0: 0f06 a9bc 0701 023d 17a9 203d 4630 2cbc
00000300: efd6 1bbb df48 6ebc ace6 b3bc e6e5 e93b
00000310: aaef f9bb b2a1 bebc 33e5 9e3b 3cc5 1e3c
00000320: f76e 8d3c 653f a63d 50a3 6cbc 0959 533a
00000330: 36bf 86bc 70a7 e13b c1e8 ecbc 2283 bf3d
00000340: 49e8 57bd 6f84 d9bc 9960 e83c 61ec e1bc
00000350: 0033 1a3d 92e0 cd3c 8876 af3c 0225 2e3d
00000360: 28dd a73c a9e0 94bc 8309 033d ab2b 6d3d
00000370: 4b1d 113d 4da8 5d3c 4e02 9d3d d803 39bc
00000380: abcd 373d 3292 6b3c 5efa e2bc facf 99bc
00000390: 9f5f 02be f697 b7bc b97f ce3b 8827 febc
000003a0: d037 7abc 4f0d 6e3b 46a1 6ebc f1d0 03bc
000003b0: 887c b9bc 8174 933d e51d 4139 d14f 383d
000003c0: 38a7 d93b 8266 0f3d 63b3 543c 5adf 123d
000003d0: b5a5 783d 6928 613d 0c25 063c 3a03 b63c
000003e0: 2d92 713d a527 423c c345 823d dcce d3bb
000003f0: 234b 12bc dfaa 8c3c eaf5 83bd 9744 06bd
-0.04847592 -0.060209006 0.0035382158 0.055655908 -0.029076124 -0.060009643 0.043023966 0.029369961
0.061460417 -0.095060505 0.01520562 0.0069751544 0.0090125855 -0.048752364 0.01455581 -0.0115980515
0.016506273 -0.001318761 0.035143334 -0.050341956 0.30354515 0.014905513 -0.027522283 0.049348008
0.017562281 0.044343386 -0.0720339 0.034534432 0.0189588 -0.0010303947 0.03347652 0.028882792
-0.020505961 0.20230907 0.014010874 -0.07029254 0.107463896 -0.13161536 0.023100693 -0.0024977364
0.05391852 0.009123912 0.0013881832 0.00793724 -0.09814665 -0.050550077 -0.008906109 -0.004384037
-0.098345764 0.004501918 0.006006826 -0.024735523 -0.03119575 0.0555465 -0.1486558 -0.0018285621
0.002420686 -0.10424844 0.10760099 -0.016009504 0.015658863 0.0034624622 -0.14793767 0.03605693
-0.009910358 -0.11947139 0.058575653 -0.11745477 -0.007895554 0.034261677 0.00023491684 -0.0072495467
0.036552884 0.1498611 -0.05868679 -0.04040301 -0.023386318 -0.058110636 0.02676893 0.058474034
-0.059588265 0.027396172 -0.10393559 -0.022692274 -0.03482859 -0.050808944 -0.0069276458 -0.073886424
-0.011189757 0.023346292 0.12223267 -0.10111809 -0.033556335 -0.00941645 0.0026718709 -0.026049588
0.07528766 0.037966486 -0.019764572 0.02042604 -0.1064632 0.040755913 0.024060477 0.003666813
-0.08039809 0.08374732 -0.056375653 0.023686573 0.011083554 0.00014795626 0.049210113 0.012879138
0.20400193 -0.02937322 0.038160242 -0.036001857 -0.00909622 0.056455813 0.024058979 0.010809433
-0.032272343 -0.44113123 -0.1432596 -0.011624295 0.010936298 0.04028048 0.15168682 -0.058498777
0.027708832 -0.094344385 0.0035967173 -0.01564157 0.039864108 -0.01091547 -0.002969496 -0.019782577
0.019163372 0.03706339 0.013952531 0.055546578 -0.0055111474 -0.028304929 -0.009190036 -0.01613142
0.022452641 0.007632014 0.0005971745 -0.094782725 0.030717835 -9.610453e-06 -0.012431884 -0.042298403
-0.11349707 0.014910402 0.11317924 -0.041998446 -0.07088965 0.0032336814 -0.002116721 0.026750706
-0.0732883 0.075355 0.019972812 -0.03551337 -0.038755998 -0.015500653 0.005349435 0.008465729
0.0060347184 -0.0010764431 0.0342402 0.025242342 -0.009573739 0.0547533 -0.00030707655 -0.019941261
0.008757608 0.034391798 0.026729504 0.010556001 0.05491978 0.09185896 -0.043776743 -0.0009434456
-0.06648092 -0.011316216 -0.080785036 0.045834605 -0.020632772 0.03173926 0.039223757 -0.010509556
-0.0023779233 -0.014543741 -0.021960579 0.0071380017 -0.007627447 -0.023270462 0.0048491 0.009690579
0.017264826 0.0811756 -0.014443234 0.00080622785 -0.016448598 0.006886415 -0.02891958 0.093511835
-0.05271176 -0.026552407 0.028366374 -0.027578535 0.037646294 0.025131498 0.021418825 0.042515762
0.020491198 -0.018173533 0.031991493 0.057902973 0.035428327 0.013528896 0.07666455 -0.01129242
0.044873875 0.014378117 -0.027707275 -0.018775929 -0.12731789 -0.022411328 0.006301847 -0.03102471
-0.015272096 0.003632385 -0.014564818 -0.008045421 -0.022642389 0.07199956 0.00018417051 0.044997994
0.0066422485 0.03500987 0.012982222 0.035857536 0.060704906 0.05497018 0.008187544 0.022218335
0.058977295 0.011850272 0.06360962 -0.0064638685 -0.008929047 0.017171321 -0.06443389 -0.032780256

a2c_network.mu.bias f4 [4]
00000000: 4001 89bc ed0d 413d 9773 23bc bfd3 5ebc
-0.016724229 0.04713242 -0.009976289 -0.013600289

exp_avg f4 [4]
00000000: 35fc b2b8 46bb 4eb7 a347 08b7 05cc a739
-8.534679e-05 -1.232216e-05 -8.122911e-06 0.0003200473

exp_avg_sq f4 [4]
00000000: 409a 2e34 b4f1 4434 0f09 4e34 cd4a 4834
1.6261129e-07 1.8341854e-07 1.918854e-07 1.8653664e-07

exp_avg f4 [256, 12]
00000000: df30 a3b7 b0bf e1b8 50aa 9739 d274 e638
00000010: 0e50 9fb8 3593 8438 6710 c0b9 ba95 813a
00000020: dc9e 97b8 1d3b 8336 30c7 f237 3bfd 69b9
00000030: 051b feb7 88a4 7938 2f90 c6b8 fd7b 9a38
00000040: 4e92 b8b6 5b95 6ab8 b302 043a 2da9 33ba
00000050: 6a44 9137 678c 89b8 164a b639 350d dfb9
00000060: b754 ddb6 4750 23b9 37de 8fb9 b4be feb8
00000070: e836 ccb8 d87b 2339 742d 9eba a861 253a
00000080: cecc 07b9 e690 ce38 212b 83ba 74fa 3039
00000090: b1ff 5bb8 0392 ce37 2eac 9f38 f7b6 4639
000000a0: 2455 a8b7 5cac bf37 3226 7d38 4e72 15ba
000000b0: 4494 1ab8 76fa 2638 a53e b139 6d26 1539
000000c0: d546 13b9 7dbf 85b8 2179 343a 1e7d 5a3a
000000d0: 6d10 3cb9 d6e4 3c37 b434 c7ba 5d88 d93a
000000e0: 83c2 35b9 bf7f a8b8 0666 43b7 7d81 5539
000000f0: 30ea 4eb9 a523 56b9 6003 b03a 0cc4 ce3a
00000100: 47b5 a6b9 516d ce38 1a41 e9ba 40e0 4b3b
00000110: dffd 8eb9 26fa ccb8 22a0 b239 ac16 bd39
00000120: 8440 19b7 522e 3037 7fa3 7639 0f8d 3e39
00000130: 044f bb37 8bb1 6eb7 b802 3e3a f69b 80b9
00000140: 3c12 2c38 efc4 a9b7 cd63 083a e515 e837
00000150: 2cfc 79b9 34fa 69b9 7d8b ca3a 581e f03a
00000160: f343 cab9 93b3 d038 8906 16bb 801d 863b
00000170: 8b27 b7b9 f9e0 ceb8 b675 063a a050 0a3a
00000180: a36e 0339 81a8 6b38 f9a9 a2ba 7f26 9aba
00000190: 8e2e 4339 b755 5837 22c5 013a 4b22 8fba
000001a0: 4454 bc38 53da f938 93c8 c6b9 fdd5 13ba
000001b0: a1d1 eeb8 5595 82b8 df26 433a 0934 753a
000001c0: 83cc 3ab9 4432 4f38 1e2b 62b9 214d 8c3a
000001d0: c902 03b9 27b7 51b8 36e8 463a 8405 e439
000001e0: 85f2 6b38 761f 2539 c392 bdba 20a9 91ba
000001f0: a852 3539 b4de 50b8 d157 da39 364b 2bbb
00000200: aff3 b138 0ec6 b238 e8ce 2fba 1b1d 21ba
00000210: 5f87 82b8 a554 f6b8 cfe6 7339 6f38 dd39
00000220: 7aee 0cb9 d38c b438 8533 86ba e6b5 ca3a
00000230: cc40 1fb9 cb19 d937 f5b3 53b9 84c3 51b8
00000240: 1a4f 45b5 39e5 b7b7 8f1f a338 4c60 2138
00000250: 2bc7 79b7 4062 f0b6 d902 7d39 ddf1 5a39
00000260: 4a2f e336 49c9 24b8 5bdb c638 4772 02ba
00000270: 6e14 22b9 2873 82b8 96ee ae3a 057b b03a
00000280: 5817 52b9 deee 94b7 25a3 81ba c5f1 163b
00000290: df5a 24b9 7a4d c6b8 e79c 3e3a a050 093a
000002a0: fd0e 13b8 74a6 5fb9 920c 373a e021 f539
000002b0: 0935 13b9 cea2 0439 d447 40ba bea8 0e3b
000002c0: ced6 02b9 d860 9237 4281 77b8 b933 17b9
000002d0: f9f8 04b9 227e f9b9 b97b 7d3a b08d 9b3a
000002e0: f3d6 bdb9 8d41 a439 7761 0cbb 35ae 883b
000002f0: 53fe bfb9 e1ff 90b7 59a3 b7b9 2cee 8e37
00000300: 946e 8439 b345 0f3a a501 43bb 7a79 4ebb
00000310: c331 173a fbbd 9db9 c5c5 113b 7772 e2bb
00000320: 5127 e239 72e5 f538 e7ec 15ba b88b 86b9
00000330: 672e ee33 135a bbb8 1c40 383a 21cb bf39
00000340: f756 6eb8 bc1e 96b5 87eb 3f3a e555 a23a
00000350: b5ae 7bb7 b5df 02b8 f2de 5b3a 5ebe 5ab9
00000360: af2f 21b8 043e c537 e60c 413a b67b ce39
00000370: d8ae 00b8 5f8b 03b7 8952 c8b8 a3d6 8b3a
00000380: 4f62 81b7 ed7e 0137 3f0e 133a 1fe0 1b3a
00000390: a7a3 1fb9 2c46 16b8 77cc a83a 45f2 ca3a
000003a0: 619d 41b9 fb60 27b8 6935 f7b9 c687 f83a
000003b0: 4d47 f3b8 1285 1eb9 5f90 753a cf70 30b9
000003c0: a089 c4b7 9e2c e238 fa4f 66ba b221 9eb9
000003d0: 73ed 2d38 8846 5eb8 642a 1db9 864c beba
000003e0: a781 3bb7 6de1 7a37 60d1 7db9 73a9 20b9
000003f0: d569 5733 0c09 d8b8 2909 133a a3b9 9339
-1.9453872e-05 -0.00010764541 0.00028927857 0.00010989014 -7.596622e-05 6.32167e-05 -0.00036633314 0.0009886541
-7.229831e-05 3.910986e-06 2.8941402e-05 -0.00022314947 -3.0291741e-05 5.9519458e-05 -9.468232e-05 7.366387e-05
-5.5006594e-06 -5.5929046e-05 0.00050358026 -0.0006853517 1.7317205e-05 -6.558821e-05 0.00034768943 -0.00042543715
-6.5961754e-06 -0.00015574797 -0.00027440648 -0.00012147185 -9.737705e-05 0.00015591027 -0.001206799 0.00063088024
-0.00012950899 9.849835e-05 -0.001000736 0.00016877969 -5.24518e-05 2.4625106e-05 7.613782e-05 0.00018950911
-2.0066807e-05 2.2849235e-05 6.0355473e-05 -0.00057009317 -3.6854544e-05 3.9810744e-05 0.00033806745 0.00014224062
-0.000140454 -6.377602e-05 0.00068845047 0.0008334684 -0.00017935196 1.1258953e-05 -0.0015198202 0.0016596426
-0.00017333966 -8.034659e-05 -1.164666e-05 0.00020361501 -0.00019732933 -0.00020421909 0.001342874 0.0015774979
-0.0003179705 9.843207e-05 -0.0017795891 0.0031109005 -0.000272735 -9.774072e-05 0.00034070114 0.0003606578
-9.134532e-06 1.0501202e-05 0.00023521295 0.0001817236 2.2328932e-05 -1.4227243e-05 0.000724833 -0.00024530262
4.1024978e-05 -2.0238074e-05 0.000520286 2.766675e-05 -0.00023840432 -0.0002231382 0.0015452948 0.001831959
-0.00038579068 9.951661e-05 -0.002289208 0.004092872 -0.00034933942 -9.86475e-05 0.00051292346 0.0005276296
0.00012534349 5.6185298e-05 -0.0012410275 -0.001176074 0.00018613992 1.289456e-05 0.00049503346 -0.0010920254
8.980234e-05 0.00011913911 -0.00037914942 -0.0005639492 -0.00011387771 -6.226698e-05 0.0007444452 0.0009353762
-0.00017814529 4.939946e-05 -0.00021569102 0.0010704139 -0.00012494171 -5.0000057e-05 0.0007587703 0.00043491658
5.625423e-05 0.00015747346 -0.0014463294 -0.0011113025 0.00017292297 -4.9798473e-05 0.00041645629 -0.0026137359
8.485407e-05 8.524592e-05 -0.00067065516 -0.00061459997 -6.224098e-05 -0.000117459604 0.00023260269 0.0004219445
-0.0001344028 8.6092994e-05 -0.0010238743 0.0015465587 -0.0001518756 2.5880427e-05 -0.00020189567 -5.001157e-05
-7.3503327e-07 -2.192204e-05 7.778324e-05 3.8475075e-05 -1.4887929e-05 -7.163995e-06 0.00024129021 0.00020880201
6.7706324e-06 -3.928811e-05 9.482234e-05 -0.0004976135 -0.00015457135 -6.2203326e-05 0.0013346251 0.0013464397
-0.00020035857 -1.7754206e-05 -0.000989054 0.002303229 -0.00015674111 -9.455807e-05 0.0007271305 0.00052381493
-3.506149e-05 -0.00021328946 0.0006982769 0.0004675528 -0.0001403877 0.0001264915 -0.0007334922 0.0021768059
-0.00012477787 1.7449653e-05 -5.900977e-05 -0.0001441975 -0.0001268125 -0.00047586957 0.000966962 0.0011867788
-0.0003620904 0.00031329357 -0.0021420398 0.0041711577 -0.00036619845 -1.728529e-05 -0.00035026183 1.7038627e-05
0.0002525939 0.0005465403 -0.002975562 -0.003150551 0.0005767608 -0.0003008692 0.0022243124 -0.006910618
0.00043135372 0.00011725248 -0.00057192 -0.0002566257 1.1091179e-07 -8.9336325e-05 0.0007028596 0.00036581702
-5.6824614e-05 -1.1184816e-06 0.0007321168 0.0012385218 -1.5001443e-05 -3.120276e-05 0.00083874085 -0.00020861017
-3.84298e-05 2.3513108e-05 0.0007364288 0.00039383554 -3.0680414e-05 -7.840658e-06 -9.5521165e-05 0.0010668825
-1.5423777e-05 7.718551e-06 0.0005609728 0.00059461774 -0.00015224387 -3.582814e-05 0.0012878318 0.0015483579
-0.00018464543 -3.9906223e-05 -0.00047151305 0.0018961362 -0.00011600424 -0.00015117627 0.0009367521 -0.00016826692
-2.3429107e-05 0.000107848304 -0.0008785721 -0.00030161213 4.1467556e-05 -5.2994612e-05 -0.00014988479 -0.0014518655
-1.1176256e-05 1.4953647e-05 -0.00024205958 -0.00015321914 5.0154842e-08 -0.00010301368 0.000560897 0.00028176335
