scripts/reinforcement_learning/rl_games/tournament/checkpoints/r_score_10_t_all.pth (torch, 550130 bytes, 30 tensors)

a2c_network.sigma f4 [4]
-3.0041046 -2.0039427 -1.4602143 -1.5814862
00000000: 4043 40c0 9940 00c0 4de8 babf 246e cabf

a2c_network.actor_mlp.0.weight f4 [256, 12]
0.20836526 -0.08640041 0.021684181 0.006864921 0.26185048 0.080223866 -0.044844545 0.010672504
-1.3490466 0.48717147 -0.34600505 0.42581517 -0.21581088 -0.006318756 -0.116323546 -0.22743548
0.047574345 -0.19067355 0.08414678 -0.10141319 1.0827411 1.0626934 -0.38789397 0.30686176
0.07448643 0.40600672 0.07953221 -0.027300082 0.067355625 -0.10426657 0.0075947363 0.098154165
1.6522464 -0.87297064 0.47343668 0.091754735 0.17221725 -0.3377032 -0.1047833 -0.009674161
-0.24985567 0.23011501 0.03489119 0.053515088 0.8191269 -0.66744703 0.53315556 -0.40495637
0.013033029 -0.44503465 0.11235083 -0.09641326 0.19212501 -0.10218031 0.082203306 -0.09531538
0.57661784 -1.1483794 0.8153566 0.06358177 0.60746473 -0.48704147 -0.06478574 -0.16274625
-0.2590417 0.08741326 0.023626175 0.07881741 -0.70811045 -1.0403591 0.09238853 -0.12453686
0.113036 0.1917605 0.14108531 -0.14836225 -0.17980139 0.13469401 -0.010867303 -0.056943297
1.3707687 1.1706796 -0.43590015 -0.43072557 0.6016524 0.030472608 -0.1130832 -0.013128348
-0.02089485 0.021682873 -0.026283264 -0.07452734 -0.41781062 -1.3104354 -0.7241427 -0.27139065
-0.58734727 -0.3448746 0.14139652 0.024489852 0.14507206 -0.16371399 -0.107780375 -0.069696
0.18971346 -1.0540183 -0.120910026 -0.25892 0.012193783 0.051776897 -0.0138604315 -0.11529341
-0.11961277 -0.22004727 -0.056507118 -0.038469918 3.1338673 0.06152938 0.33950633 0.17633368
-0.31673506 0.37696844 -0.06424777 0.056811076 -0.1547213 -0.26566538 0.054441135 -0.052090924
1.3407967 -0.7920556 0.64587706 -0.16800714 -0.121315025 -0.089803696 0.11918329 0.15200509
0.32746673 -0.20739375 0.004755588 -0.03847133 0.8321751 -1.0540409 0.76711965 -0.26309526
0.29771662 0.13220844 0.019612286 -0.043977518 0.32601964 0.19363134 0.0038305914 -0.06046604
1.4156893 1.0014567 -0.3257917 0.28436348 0.17151587 -0.62807584 -0.003992443 -0.015762797
0.19568874 -0.0312655 -0.03765577 0.0014988161 -0.23133425 -0.53579205 0.56700534 -0.61935115
0.108593725 0.14445694 0.0014674924 -0.022844078 -0.016379694 0.15660116 -0.0055387574 0.006394054
-2.990677 0.017294683 -0.015575894 0.015725136 0.32067874 0.31215677 -0.02553219 -0.0042986483
0.05606199 -0.043740854 0.02279447 -0.00032976008 -2.055751 -0.051774025 -0.037122186 0.2814926
0.14226022 -0.5091382 -0.0737538 -0.10864068 -0.04570319 0.015877975 0.11577766 -0.045766037
-2.39983 -0.42311084 -0.5046465 0.3039294 0.053546496 -0.36997682 0.065987036 -0.04512271
-0.25684348 0.23803614 -0.06390116 -0.019446846 -0.7839355 1.1049346 0.3588473 0.12445756
-0.079212815 -0.26396003 -0.11667103 0.16292438 0.09366812 0.17078345 0.0211472 0.04257006
-0.62496364 -1.2252712 -0.9373124 -0.5576154 -0.097709425 -0.17152202 0.10709994 -0.11569125
-0.11344346 -0.28222483 -0.07182607 -0.008510858 -1.1950113 0.97295904 0.07717504 -0.31612048
-0.092729576 -0.12073139 -0.048286233 -0.03948344 0.18606836 -0.1686637 0.022356907 0.027311916
1.9080448 -0.7243474 0.6305555 -0.12300952 0.2139602 0.27659547 -0.18243831 0.042935066
00000000: b45d 553e b3f2 b0bd 06a3 b13c 22f3 e03b
00000010: 4411 863e 694c a43d eaae 37bd badb 2e3c
00000020: 8fad acbf 8a6e f93e 9327 b1be 7204 da3e
00000030: 87fd 5cbe 910d cfbb 0a3b eebd d9e4 68be
00000040: 51dd 423d ed3f 43be 2655 ac3d b8b1 cfbd
00000050: 4397 8a3f 5606 883f 0a9a c6be fc1c 9d3e
00000060: 578c 983d 1de0 cf3e c9e1 a23d 6ca4 dfbc
00000070: bff1 893d b689 d5bd 44dd f83b 0d05 c93d
00000080: cf7c d33f 017b 5fbf 4b66 f23e e8e9 bb3d
00000090: b859 303e 6fe7 acbe a098 d6bd 5f80 1ebc
000000a0: 2ada 7fbe 45a3 6b3e 10ea 0e3d a332 5b3d
000000b0: 4db2 513f cfdd 2abf e27c 083f 7156 cfbe
000000c0: 7c88 553c 95db e3be 3118 e63d 5174 c5bd
000000d0: 6bbc 443e e943 d1bd 355a a83d b634 c3bd
000000e0: 3a9d 133f 19fe 92bf 36bb 503f 2937 823d
000000f0: cf82 1b3f 805d f9be 63ae 84bd f4a6 26be
00000100: 1da1 84be b905 b33d ae8b c13c 066b a13d
00000110: ba46 35bf 7d2a 85bf 3336 bd3d 2e0d ffbd
00000120: 6b7f e73d dd5c 443e ab78 103e 46ec 17be
00000130: db1d 38be 3aed 093e c60c 32bc 603d 69bd
00000140: 5975 af3f d4d8 953f 4e2e dfbe 1088 dcbe
00000150: e405 1a3f b1a1 f93c 2a98 e7bd 4818 57bc
00000160: ad2b abbc 48a0 b13c 0050 d7bc caa1 98bd
00000170: 46eb d5be 59bc a7bf 6a61 39bf b7f3 8abe
00000180: 645c 16bf 6793 b0be 40ca 103e f19e c83c
00000190: c58d 143e a4a4 27be f5bb dcbd c7bc 8ebd
000001a0: 3f44 423e 12ea 86bf ad9f f7bd 2a91 84be
000001b0: 6fc8 473c 0314 543d dd16 63bc f41e ecbd
000001c0: 8af7 f4bd 1254 61be 0274 67bd a292 1dbd
000001d0: 4891 4840 3b06 7c3d c6d3 ad3e d190 343e
000001e0: 192b a2be 0202 c13e 5694 83bd bbb2 683d
000001f0: 436f 1ebe 4b05 88be abfd 5e3d 4b5d 55bd
00000200: 3a9f ab3f 28c4 4abf 3358 253f 100a 2cbe
00000210: 0374 f8bd 00eb b7bd 5e16 f43d 39a7 1b3e
00000220: b8a9 a73e 075f 54be c3d4 9b3b 1d94 1dbd
00000230: 6d09 553f d0ea 86bf f461 443f 6cb4 86be
00000240: 506e 983e a661 073e f2a9 a03c c521 34bd
00000250: 0cec a63e 4b47 463e a90a 7b3b 3dab 77bd
00000260: 4f35 b53f bc2f 803f 2bce a6be 1798 913e
00000270: dba1 2f3e 94c9 20bf 0ad3 82bb fb20 81bc
00000280: a162 483e 4110 00bd f03c 1abd ec73 c43a
00000290: e3e2 6cbe ab29 09bf 4327 113f cc8d 1ebf
000002a0: 6366 de3d 85ec 133e e058 c03a 8123 bbbc
000002b0: b52e 86bc 0e5c 203e 777e b5bb 3685 d13b
000002c0: 4167 3fc0 94ad 8d3c 0932 7fbc 00d2 803c
000002d0: 0130 a43e 03d3 9f3e e228 d1bc addb 8cbb
000002e0: 42a1 653d 9c29 33bd 78bb ba3c a6e3 acb9
000002f0: 6d91 03c0 0011 54bd 6f0d 18bd cc1f 903e
00000300: aaac 113e e256 02bf 3b0c 97bd 017f debd
00000310: 4533 3bbd 8712 823c d61c ed3d 2b75 3bbd
00000320: d196 19c0 fca1 d8be 8330 01bf a29c 9b3e
00000330: 9253 5b3d 9a6d bdbe 3624 873d 97d2 38bd
00000340: fd80 83be bfbf 733e 9dde 82bd fe4e 9fbc
00000350: ffaf 48bf 7f6e 8d3f d5ba b73e 9be3 fe3d
00000360: 543a a2bd c525 87be 39f1 eebd a6d5 263e
00000370: 12d5 bf3d dbe1 2e3e e53c ad3c f15d 2e3d
00000380: 9efd 1fbf b0d5 9cbf b5f3 6fbf e2bf 0ebf
00000390: e11b c8bd 78a3 2fbe 3757 db3d 89ef ecbd
000003a0: 0b55 e8bd c67f 90be 8c19 93bd 2071 0bbc
000003b0: 21f6 98bf d813 793f f30d 9e3d 8bda a1be
000003c0: 01e9 bdbd 0542 f7bd c9c7 45bd 63b9 21bd
000003d0: b488 3e3e 2db6 2cbe d525 b73c 3dbd df3c
000003e0: d03a f43f d56e 39bf 166c 213f 6aec fbbd
000003f0: 6218 5b3e ec9d 8d3e 1cd1 3abe aedc 2f3d

a2c_network.actor_mlp.0.bias f4 [256]
-0.23318298 0.02916739 0.012926714 0.21832334 0.04165974 0.33053902 -0.015706616 -0.093168445
0.07736614 -0.01734618 0.06591073 0.07058132 -0.35867226 0.20744418 0.039630722 -0.1908166
-0.080414064 0.15905453 0.12869146 -0.16337806 0.14109586 -0.05570038 -0.18949106 -0.13500068
-0.1279219 0.2559978 -0.026569622 0.44299638 -0.1850119 0.030526163 -0.23963113 -0.31051233
0.17939144 -0.069810234 -0.17520681 -0.14777555 -0.19352582 0.13730145 0.044239014 0.0016313731
0.17395352 -0.038077418 -0.020650329 -0.25018045 -0.10442969 0.075676404 0.4693845 -0.16872767
-0.045833625 0.02895965 0.08272616 -0.1139705 0.21667796 0.21389365 0.05117235 -0.12801297
0.1164246 -0.087663986 0.11869544 0.16015194 -0.110764995 0.44067478 0.24261089 0.059781037
-0.044514615 -0.21609302 0.079016306 -0.13712342 -0.0006724384 -0.29807645 0.08962418 -0.19737472
0.07562756 0.20998253 -0.28951657 -0.17026784 -0.027183222 0.2115288 -0.026233843 -0.29406652
-0.105496496 -0.06801076 0.34216344 -0.30422038 0.2332471 0.032140493 -0.10297166 -0.16164899
-0.0956061 0.07830123 0.059114367 0.048143588 -0.05011809 -0.053766042 -0.088534385 -0.0018465566
0.108458035 0.2488057 0.31951687 0.20492338 0.2540418 0.16033 0.09437958 -0.033811677
-0.01643573 0.38230854 -0.10712578 0.13132481 -0.025521344 -0.066640496 -0.20541501 0.15170524
0.13327381 -0.07346129 0.22407198 0.32392967 0.30971512 -0.03429152 0.1810343 0.23040526
-0.037357967 0.20607731 -0.20799907 -0.04718214 -0.1604615 -0.18579815 -0.037074827 -0.017596558
0.06430005 -0.36704195 -0.020867063 0.1718855 -0.15052986 0.20543635 0.12023342 -0.19550523
0.13152404 -0.1575092 0.0050562853 0.055925045 -0.15750612 -0.09790887 -0.16524325 -0.07156222
-0.09759911 0.2858869 0.1991566 -0.12831227 0.16098437 0.17965838 -0.20831428 0.018577993
-0.19491969 0.08645074 0.066758275 0.16453837 -0.06258914 -0.15581892 0.17682007 0.18871126
-0.18359601 -0.30302146 0.25295892 -0.0775138 -0.3902813 -0.061708804 0.20197207 0.10535006
-0.10920766 -0.23139209 0.12216068 0.0059225005 0.010130158 0.21138012 -0.03979707 0.017383697
0.0666132 -0.027750537 -0.09002731 0.10073057 0.14451453 -0.013946322 -0.07348203 0.17034172
-0.016188858 0.343439 -0.2258544 0.11489954 0.0783391 -0.18259141 0.22335672 0.18529058
0.08061928 0.20454615 -0.21717428 0.057241578 -0.073440544 0.18860385 0.252723 -0.04352322
0.26153234 0.009325678 -0.16573842 0.18804395 0.026728056 0.3505138 0.2456768 0.12684947
0.18130222 0.20619261 -0.09265939 0.1968358 -0.4132605 0.029771645 0.15587418 -0.05644604
0.112812474 0.022508819 0.10431833 0.116185345 0.108874455 0.32052243 0.14232627 0.2610973
-0.016113067 -0.13695942 -0.1924596 -0.1342966 -0.011267612 -0.036160488 0.044871848 -0.06256437
0.026833024 -0.19329005 0.036056723 -0.12043747 -0.1176957 0.3063169 0.012238615 0.2020956
0.13423148 -0.15077674 -0.1236133 0.25088564 0.16333155 -0.26907694 0.052980322 0.04020647
0.088175364 -0.37504864 0.40822232 0.032233156 -0.12609307 0.14245953 -0.03290707 0.36462885
00000000: 85c7 6ebe 73f0 ee3c 91ca 533c 2790 5f3e
00000010: 67a3 2a3d 693c a93e 29ab 80bc 19cf bebd
00000020: 2472 9e3d 9319 8ebc 34fc 863d f08c 903d
00000030: e4a3 b7be 3f6c 543e d353 223d 6d65 43be
00000040: 21b0 a4bd 31df 223e b2c7 033e 944c 27be
00000050: 6f7b 103e 1526 64bd f209 42be 9e3d 0abe
00000060: f5fd 02be 2512 833e 89a8 d9bc 6cd0 e23e
00000070: c273 3dbe 0112 fa3c dd61 75be 79fb 9ebe
00000080: 64b2 373e abf8 8ebd 6a69 33be 7952 17be
00000090: a22b 46be c098 0c3e f833 353d ccd3 d53a
000000a0: df20 323e 11f7 1bbd e12a a9bc a717 80be
000000b0: 3cdf d5bd 3bfc 9a3d 2a53 f03e f2c6 2cbe
000000c0: 0abc 3bbd ca3c ed3c 556c a93d 5e69 e9bd
000000d0: d4e0 5d3e f006 5b3e 199a 513d d515 03be
000000e0: 0570 ee3d 2d89 b3bd 9816 f33d dffe 233e
000000f0: c2d8 e2bd 20a0 e13e fd6e 783e f6dc 743d
00000100: f554 36bd 7d47 5dbe 4dd3 a13d 156a 0cbe
00000110: 9446 30ba 7a9d 98be e28c b73d 991c 4abe
00000120: 9fe2 9a3d a905 573e 843b 94be b15a 2ebe
00000130: 59af debc 019b 583e 5be8 d6bc e38f 96be
00000140: 8c0e d8bd 3a49 8bbd 0c30 af3e c6c2 9bbe
00000150: 54d8 6e3e c0a5 033d cee2 d2bd 5087 25be
00000160: 22cd c3bd 655c a03d e821 723d 3632 453d
00000170: a048 4dbd c839 5cbd 8451 b5bd 2808 f2ba
00000180: 3f1f de3d ecc6 7e3e b797 a33e 6fd7 513e
00000190: c411 823e 8c2d 243e 154a c13d 1d7e 0abd
000001a0: 39a4 86bc f2bd c33e c364 dbbd 037a 063e
000001b0: 2312 d1bc d07a 88bd 5058 52be 9e58 1b3e
000001c0: ee78 083e df72 96bd 2073 653e 1cda a53e
000001d0: fb92 9e3e 4475 0cbd 0e61 393e 5bef 6b3e
000001e0: ab04 19bd ee05 533e b5fd 54be 0f42 41bd
000001f0: 0550 24be df41 3ebe c6db 17bd a826 90bc
00000200: bfaf 833d ecec bbbe 67f1 aabc c102 303e
00000210: 8024 1abe e85d 523e f03c f63d 8632 48be
00000220: 3dae 063e 174a 21be 32af a53b a911 653d
00000230: 4949 21be 7284 c8bd 8735 29be 378f 92bd
00000240: 0be2 c7bd c55f 923e b5ef 4b3e 4b64 03be
00000250: 16d9 243e 5ef8 373e 5750 55be e030 983c
00000260: 0799 47be 160d b13d 90b8 883d bf7c 283e
00000270: bc2e 80bd ff8e 1fbe 5210 353e 863d 413e
00000280: 9800 3cbe a125 9bbe d583 813e 8ebf 9ebd
00000290: f3d2 c7be 5fc2 7cbd c4d1 4e3e c6c1 d73d
000002a0: 44a8 dfbd 0cf2 6cbe 612f fa3d 8911 c23b
000002b0: f6f8 253c 0874 583e 4102 23bd 4168 8e3c
000002c0: 806c 883d 1855 e3bc 3d60 b8bd d44b ce3d
000002d0: 9efb 133e 1d7f 64bc bf7d 96bd 0f6e 2e3e
000002e0: 7f9e 84bc 3dd7 af3e 6046 67be 7350 eb3d
000002f0: 4070 a03d 3ef9 3abe a0b7 643e d0bc 3d3e
00000300: b91b a53d 8c74 513e ef62 5ebe 2576 6a3d
00000310: ff67 96bd 5e21 413e e964 813e 6745 32bd
00000320: 91e7 853e bbca 183c 55b7 29be 988e 403e
00000330: ccf4 da3c 8b76 b33e b392 7b3e d4e4 013e
00000340: 4aa7 393e 2824 533e 35c4 bdbd 538f 493e
00000350: e196 d3be aae3 f33c 7b9d 1f3e f633 67bd
00000360: 3a0a e73d 6a64 b83c d9a4 d53d 95f2 ed3d
00000370: 92f9 de3d 841b a43e fabd 113e 8cae 853e
00000380: 8dff 83bc 173f 0cbe 2114 45be 0c85 09be
00000390: ca9b 38bc 051d 14bd 8bcb 373d c021 80bd
000003a0: eed0 db3c d4ed 45be 37b0 133d eca7 f6bd
000003b0: 710a f1bd 92d5 9c3e 7984 483c 26f2 4e3e
000003c0: fa73 093e 3865 1abe f828 fdbd 1574 803e
000003d0: 6340 273e 74c4 89be e501 593d 8aaf 243d
000003e0: 4995 b43d 6006 c0be 8402 d13e ea06 043d
000003f0: 8b1e 01be e9e0 113e 90c9 06bd a2b0 ba3e

a2c_network.actor_mlp.2.weight f4 [128, 256]
0.18874055 -0.12011835 0.07609453 0.0067771208 -0.13016403 0.33884895 0.05567783 0.33934546
-0.2341486 -0.31327266 -0.14133818 -0.034412786 0.11399681 0.008868944 0.18859017 0.3492008
0.15546344 -0.25690165 0.14315835 -0.11295179 -0.1696245 -0.19048774 0.095765814 0.062010817
-0.26914766 -0.2037987 -0.16176194 -0.026407935 0.036114823 -0.3558776 -0.22128113 -0.054820508
0.07096689 -0.075861044 -0.20711535 -0.11663631 -0.0122835925 0.2648728 0.6288006 -0.17085731
0.21428522 0.34949887 0.03426215 0.1896285 -0.36095425 -0.16181372 0.119222246 -0.0700865
-0.08227713 -0.34276274 0.2013423 -0.22616665 -0.17658316 -0.022101026 -0.01981894 0.26893035
-0.1625971 0.30135542 -0.120576255 0.03146005 -0.26538786 -0.29128945 0.25688434 -0.0723715
0.0091625005 0.122927025 -0.16991185 -0.03579389 0.101166755 -0.12299164 -0.28148186 0.06134949
-0.15274735 -0.07718632 0.23223233 0.22766702 0.47458425 -0.049548853 0.018657198 -0.33675742
-0.1449483 -0.1971741 0.23181501 -0.21027109 -0.14485796 -0.29486015 -0.13250868 -0.03783
0.14545138 -0.14488733 0.013710729 -0.08042834 -0.07672287 0.19822074 0.1718397 -0.23916261
-0.32164302 0.27087855 0.23907408 -0.42428875 0.45759574 -0.08027466 0.06065507 -0.2356556
0.36800376 0.22754246 -0.34239596 -0.69415903 -0.099700935 -0.33031186 0.9983737 -0.1525889
0.008808599 -0.07087822 0.13103536 0.28716004 -0.07055578 -0.12391057 -0.07365739 -0.027248982
0.34063366 0.090057306 -0.25799212 -0.12024219 0.16024557 -0.031225285 0.14402626 -0.070127994
0.017888583 -0.08513014 0.05845136 0.07995613 -0.36538705 0.06606166 -0.2144709 -0.14327635
-0.20254618 0.23178658 -0.11545247 -0.04078526 -0.019571142 -0.15304329 -0.13492806 0.05251964
-0.041891977 0.20327596 -0.38582453 -0.27621248 -0.34696582 -0.2173921 -0.29793397 0.007297888
-0.1319385 0.23069727 -0.10030206 0.11463953 0.058023583 -0.030525384 -0.26200446 0.010115401
-0.35224378 0.21319039 -0.12942597 0.1508348 -0.06785965 0.18044677 0.10332369 0.48029053
-0.04366441 0.055688683 0.14220582 0.082753554 0.061762452 0.257409 0.14768867 -0.22692324
0.13064846 -0.16834232 0.30750778 -0.40662754 -0.1880476 0.054026704 -0.037822008 0.13983601
0.10383095 0.0418749 0.06925799 0.093418844 0.4871403 -0.35606918 -0.055219322 0.19023068
-0.14528534 -0.012144358 0.19892256 0.21607466 0.22848983 -0.5955731 0.16614138 -0.20795572
0.3220886 0.19621018 -0.01978131 -0.17950068 0.17406999 0.10757681 0.11279214 0.39303187
-0.31367522 0.051227946 -0.016656741 0.015348792 -0.16253969 0.008384294 0.025319478 -0.008590322
0.09817365 0.16932428 -0.03299473 -0.26967004 0.36030567 0.21408018 0.093241766 0.042662207
0.19368467 -0.15637858 -0.21481466 0.27900973 -0.2708261 0.5001561 -0.35273272 -0.10391317
0.3905328 0.11105913 -0.08926227 -0.37079477 -0.28336963 0.20102236 0.094804205 0.16823378
0.09836919 0.012600111 -0.26255852 0.24407594 -0.36301655 0.2441859 0.13528433 -0.11235429
0.096497014 0.19944516 0.15419443 -0.1325631 -0.2875539 -0.01760614 0.12593898 0.04572683
00000000: 3445 413e 9c00 f6bd 73d7 9b3d 9c12 de3b
00000010: b849 05be 9c7d ad3e 700e 643d b0be ad3e
00000020: a7c4 6fbe 4665 a0be f5ba 10be 6cf4 0cbd
00000030: 2977 e93d 0c4f 113c c81d 413e 72ca b23e
00000040: cf31 1f3e 9d88 83be 1a98 123e 4553 e7bd
00000050: 0cb2 2dbe 380f 43be de20 c43d 0eff 7d3d
00000060: b9cd 89be 9bb0 50be eca4 25be 7455 d8bc
00000070: 23ed 133d 9735 b6be 8597 62be 788b 60bd
00000080: 1757 913d 095d 9bbd 0c16 54be 05df eebd
00000090: 1f41 49bc 689d 873e 13f9 203f 38f5 2ebe
000000a0: 966d 5b3e 84f1 b23e 7856 0c3d f92d 423e
000000b0: ffce b8be 7fb2 25be cb2a f43d 8389 8fbd
000000c0: e980 a8bd 997e afbe ad2c 4e3e 3b98 67be
000000d0: 37d2 34be 360d b5bc 545b a2bc 3db1 893e
000000e0: db7f 26be 424b 9a3e aff0 f6bd 41dc 003d
000000f0: ebe0 87be e423 95be 5886 833e 8237 94bd
00000100: 501e 163c 2ac1 fb3d 5ffd 2dbe 9d9c 12bd
00000110: 8430 cf3d 0ae3 fbbd 641e 90be 9a49 7b3d
00000120: cd69 1cbe dd13 9ebd 50ce 6d3e 8b21 693e
00000130: b5fc f23e bdf3 4abd fbd6 983c 786b acbe
00000140: 546d 14be 02e8 49be ea60 6d3e 4e51 57be
00000150: a555 14be e9f7 96be 5bb0 07be a1f3 1abd
00000160: 35f1 143e 585d 14be f7a2 603c 9db7 a4bd
00000170: e120 9dbd 61fa 4a3e bff6 2f3e 0be7 74be
00000180: 65ae a4be 98b0 8a3e d6cf 743e 603c d9be
00000190: fd49 ea3e 0a67 a4bd 7371 783d b44f 71be
000001a0: fd6a bc3e e400 693e 864e afbe 68b4 31bf
000001b0: 0130 ccbd a31e a9be 6b95 7f3f 4440 1cbe
000001c0: f151 103c 9a28 91bd 222e 063e a406 933e
000001d0: 8c7f 90bd d3c4 fdbd b0d9 96bd 4239 dfbc
000001e0: 8967 ae3e f76f b83d 8b17 84be 8a41 f6bd
000001f0: 6a17 243e 2bcc ffbc 9f7b 133e 449f 8fbd
00000200: 148b 923c b658 aebd b16a 6f3d 0ac0 a33d
00000210: 0314 bbbe 564b 873d 429e 5bbe 09b7 12be
00000220: 4468 4fbe 7659 6d3e 5872 ecbd 720e 27bd
00000230: a953 a0bc 61b7 1cbe 952a 0abe d61e 573d
00000240: ec96 2bbd 9327 503e cb8a c5be b96b 8dbe
00000250: 81a5 b1be 099c 5ebe cd8a 98be 1f23 ef3b
00000260: e31a 07be e83b 6c3e 2b6b cdbd 21c8 ea3d
00000270: 23aa 6d3d 5f10 fabc 7325 86be 11bb 253c
00000280: 4c59 b4be 954e 5a3e 3e88 04be 7074 1a3e
00000290: 00fa 8abd 0ac7 383e 5f9b d33d a4e8 f53e
000002a0: 74d9 32bd d119 643d 679e 113e b27a a93d
000002b0: a0fa 7c3d 1dcb 833e b33b 173e 915e 68be
000002c0: b6c8 053e ee61 2cbe a971 9d3e 7c31 d0be
000002d0: 8d8f 40be 1b4b 5d3d 40eb 1abd 2c31 0f3e
000002e0: 52a5 d43d 0485 2b3d 22d7 8d3d 6152 bf3d
000002f0: 746a f93e b34e b6be a82d 62bd d5cb 423e
00000300: aec5 14be 21f9 46bc 5bb2 4b3e ad42 5d3e
00000310: 3df9 693e 7b77 18bf f720 2a3e 58f2 54be
00000320: cce8 a43e 52eb 483e 6a0c a2bc 07cf 37be
00000330: 673f 323e 3b51 dc3d 91ff e63d 793b c93e
00000340: 0a9a a0be 65d4 513d b873 88bc 8079 7b3c
00000350: ce70 26be 475e 093c cb6a cf3c 6cbe 0cbc
00000360: 440f c93d 5863 2d3e 7b25 07bd 3112 8abe
00000370: fc79 b83e d637 5b3e 8af5 be3d 91be 2e3d
00000380: 4655 463e b521 20be 60f8 5bbe 5dda 8e3e
00000390: b8a9 8abe 3b0a 003f 6299 b4be 6ed0 d4bd
000003a0: eaf3 c73e f872 e33d 23cf b6bd d0d8 bdbe
000003b0: d315 91be ced8 4d3e b528 c23d 7a45 2c3e
000003c0: c975 c93d b270 4e3c 126e 86be 0bef 793e
000003d0: 4edd b9be de0b 7a3e fa87 0a3e 021a e6bd
000003e0: 3aa0 c53d 5a3b 4c3e 25e5 1d3e 9fbe 07be
000003f0: 443a 93be c03a 90bc 26f6 003e 0e4c 3b3d

a2c_network.actor_mlp.2.bias f4 [128]
0.012213676 -0.0827355 -0.050638694 -0.11032808 -0.038621336 0.05057354 -0.19036925 0.2696942
-0.19396314 0.06292839 -0.26016065 0.0636416 0.24895374 -0.19668971 -0.62224144 -0.10478384
-0.15061536 -0.058562648 0.0054020504 -0.089568265 0.12978445 -0.07157435 0.13565199 -0.57158095
0.2587393 -0.13302979 0.033781722 -0.043982178 -0.080794014 -0.096829005 -0.06061187 -0.41722706
-0.19074795 0.094267175 0.111609235 -0.2178406 -0.116258 0.12601686 -0.26234758 -0.41852412
-0.007782351 0.103222705 -0.035938453 -0.11233216 -0.21760465 -0.019414213 0.1302247 -0.24540554
0.22318538 -0.16927703 0.21410955 -0.055700168 -0.19643532 0.1682596 0.07025503 0.12359806
0.12764353 -0.2961755 0.12647948 -0.08708387 -0.82376736 0.14327735 0.18350123 0.12669411
0.03380399 0.11842716 -0.46183527 -0.21902332 0.23706539 0.13630518 -0.4029869 -0.077808805
-0.2485274 -0.32639575 -0.14046426 -0.0975408 -0.056429476 0.07573968 -0.011042305 0.051962584
0.03125185 -0.16134167 -0.42263782 -0.14169948 -0.94894814 0.033290148 -0.09664622 0.2696593
0.24964674 -0.19694485 0.26651174 -0.3783196 -0.023777777 -0.04767789 0.0485539 -0.16647188
-0.26139504 -0.021566432 -0.05949338 0.010793275 -0.4501653 0.050870705 -0.111648805 0.20675005
0.016868483 0.1431891 -0.26029688 -0.37530196 -0.40220347 0.09311692 -0.29330552 0.083045386
0.17059599 -0.16255601 -0.17583553 0.09242721 -0.21373542 -0.00059164787 -0.5518707 -0.10945492
-0.16365372 -0.23137534 0.2776331 -0.2635254 -0.22850831 0.11433742 -0.33477813 -0.4191987
00000000: df1b 483c 3b71 a9bd 856a 4fbd b0f3 e1bd
00000010: 6831 1ebd 3326 4f3d 28f0 42be 5c15 8a3e
00000020: 469e 46be 9ae0 803d c733 85be 8756 823d
00000030: bbed 7e3e 0769 49be 374b 1fbf e998 d6bd
00000040: ea3a 1abe 63df 6fbd af03 b13b 916f b7bd
00000050: 37e6 043e 9395 92bd 5be8 0a3e 2153 12bf
00000060: 7a79 843e f638 08be b45e 0a3d a826 34bd
00000070: 5577 a5bd 494e c6bd 2744 78bd c99e d5be
00000080: 6e53 43be 260f c13d 6293 e43d 9b11 5fbe
00000090: ad18 eebd 900a 013e 6c52 86be cb48 d6be
000000a0: 1803 ffbb 6d66 d33d 3334 13bd 670e e6bd
000000b0: c1d3 5ebe 8e0a 9fbc a059 053e 974b 7bbe
000000c0: b58a 643e f556 2dbe 893f 5b3e dc25 64bd
000000d0: 5726 49be 3f4c 2c3e dfe1 8f3d fb20 fd3d
000000e0: fcb4 023e 51a4 97be d683 013e 0759 b2bd
000000f0: 6be2 52bf 4cb7 123e bfe7 3b3e 1abc 013e
00000100: 0d76 0a3d f089 f23d ac75 ecbe a647 60be
00000110: 45c1 723e 9693 0b3e 4d54 cebe 395a 9fbd
00000120: f77d 7ebe 581d a7be ddd5 0fbe 79c3 c7bd
00000130: 9822 67bd 681d 9b3d c9ea 34bc b8d6 543d
00000140: f101 003d c036 25be fc63 d8be ab19 11be
00000150: 44ee 72bf 405b 083d 74ee c5bd c910 8a3e
00000160: 65a3 7f3e e9ab 49be 3a74 883e 1bb3 c1be
00000170: 9dc9 c2bc e449 43bd 74e0 463d 9b77 2abe
00000180: 92d5 85be 16ac b0bc 55af 73bd 47d6 303c
00000190: 117c e6be cd5d 503d 21a8 e4bd 49b6 533e
000001a0: c62f 8a3c 2aa0 123e a245 85be 9427 c0be
000001b0: 9ded cdbe 15b4 be3d 242c 96be b313 aa3d
000001c0: b7b0 2e3e 1575 26be 3b0e 34be 7a4a bd3d
000001d0: 75dd 5abe d118 1bba 6647 0dbf e729 e0bd
000001e0: d794 27be a8ed 6cbe ed25 8e3e cdec 86be
000001f0: 15fe 69be bd29 ea3d 0a68 abbe 36a1 d6be

a2c_network.actor_mlp.4.weight f4 [64, 128]
0.024075022 -0.016131617 -0.088643774 0.10797554 -0.5646617 0.086426534 0.21764512 0.22679153
0.07894098 -0.33529904 0.07908234 0.006567314 0.19901027 -0.17445803 0.04454704 0.076624
-0.06720399 -0.047955804 -0.15498431 0.20785953 -0.33382636 -0.23597392 -0.28725937 0.14497238
-0.286474 0.13583057 -0.33244815 -0.27049235 0.0978708 0.33600143 -0.15793937 0.111072645
-0.1793124 0.13399293 -0.24579425 0.5858368 0.10725875 -0.10544207 0.101464756 0.34562522
0.11278872 0.03551779 -0.07810849 0.17348829 -0.18419057 -0.10909106 -0.34295148 -0.096727885
0.050944995 -0.2553178 -0.20274764 0.08613042 0.18547112 -0.038415674 -0.32221296 0.016119363
0.13132584 0.44084406 -0.35535482 0.26604676 -0.38879725 0.08891741 -0.3059968 -1.2121888
-0.46533832 -0.62343365 0.23201558 0.09722001 0.12499855 0.12845193 0.38610733 -0.19415575
0.50268054 -0.06771087 -0.09528383 0.2955014 0.33411872 0.07621836 0.07224263 -0.13879927
-0.16651674 -0.65491563 -0.26591143 -0.24136157 0.15815952 -0.1832095 0.0013117073 0.13277967
-0.18763101 0.052093644 0.14995717 -0.46311748 -0.14171696 -0.016598128 0.063436255 0.21327247
0.35913932 0.13076709 0.05325292 -0.0027058744 0.23781256 0.07562744 0.16804807 -0.5985882
-1.3499496 -0.010540882 0.47594097 -0.045824636 0.42610306 -1.0117358 0.093023874 -0.28534392
-0.49650913 -0.0069022197 0.33387816 -0.207709 -0.45945618 0.1401192 0.06794391 -0.06957095
-0.14400667 0.12229545 -0.040447272 0.257014 0.45741296 -0.313276 0.008409408 0.036190946
0.16293234 -0.12489758 -0.21375427 0.047548693 -0.07558745 -0.024535611 0.10759838 0.04746045
-0.029776974 -0.14278533 -0.33982918 -0.54373294 -0.7510127 -0.21015276 -0.108907156 0.06767771
-0.0852369 -0.026147962 0.09787 -0.39440662 -0.058940742 -0.12284168 -0.09334333 -0.22660917
-0.339033 0.05491645 0.032628085 -0.14808564 0.19963002 -0.05935325 -0.1782337 -0.2574379
-0.4376687 0.052776232 0.043677777 0.004495802 -0.018364523 -0.22829577 -0.04483947 0.1770152
0.0877581 0.03675189 -0.10635625 0.26152357 -0.5882767 -0.080424115 -0.12222009 -0.10184128
-0.20802958 -0.20430535 -0.15110308 0.21243629 0.2290913 -0.4545572 -0.07002051 0.1530981
-0.033555828 0.18042783 -0.026684728 0.11065035 -0.24513738 -0.0383665 0.11068598 -0.2252562
0.027641848 -0.07736522 -0.18894088 -0.10469802 -0.47227255 0.05225278 0.14583626 -0.26236695
-0.086929284 -0.13619189 -0.24833508 0.24629273 0.014825885 0.041251324 -0.22140296 -0.17822872
0.13799809 -0.135207 -0.12021382 -0.16282009 -0.29573938 -0.6320965 0.1564463 -0.10484836
-0.0517147 0.0883313 -0.5487618 -0.38432896 0.02828836 -0.48718 -1.0678111 -0.23239054
0.0798612 0.22115804 -0.37570035 -0.03573944 0.027672147 -0.49844283 -0.25290325 -0.11497453
-0.09967415 0.037885588 0.26806197 -0.24898738 0.11656742 0.0027667312 0.010042668 -0.022154467
0.013828757 -0.06409342 -0.30318388 -0.15413517 -0.21567613 -0.46604267 -0.14990409 -0.1759033
-0.187993 0.17375122 -0.41210964 0.09750945 0.06817066 -0.08673268 -0.67098504 -0.27678275
00000000: fb38 c53c 7426 84bc de8a b5bd 4822 dd3d
00000010: ab8d 10bf 6500 b13d 5dde 5e3e 0a3c 683e
00000020: cfab a13d 51ac abbe ecf5 a13d 9f32 d73b
00000030: 59c9 4b3e 20a5 32be f576 363d 0bed 9c3d
00000040: 3fa2 89bd 4e6d 44bd 35b4 1ebe 21d9 543e
00000050: 4aeb aabe 26a3 71be a913 93be a473 143e
00000060: b8ac 92be 2b17 0b3e a536 aabe f97d 8abe
00000070: 7c70 c83d 6108 ac3e dcba 21be 0e7a e33d
00000080: ab9d 37be 7135 093e 7db1 7bbe 67f9 153f
00000090: 7aaa db3d 03f2 d7bd c1cc cf3d caf5 b03e
000000a0: c6fd e63d 1a7b 113d 58f7 9fbd eaa6 313e
000000b0: 749c 3cbe 226b dfbd 5697 afbe 4519 c6bd
000000c0: b3ab 503d 04b9 82be 149d 4fbe 2565 b03d
000000d0: 24ec 3d3e c159 1dbd 19f9 a4be c10c 843c
000000e0: 487a 063e 50b6 e13e 11f1 b5be 4837 883e
000000f0: 6f10 c7be 551a b63d 9dab 9cbe 0129 9bbf
00000100: d340 eebe 5999 1fbf 7e95 6d3e 491b c73d
00000110: 3dff ff3d e788 033e dcaf c53e c4d0 46be
00000120: acaf 003f ffab 8abd 2b24 c3bd f64b 973e
00000130: 9c11 ab3e 5f18 9c3d f2f3 933d 6521 0ebe
00000140: 5d83 2abe 8da8 27bf 8b25 88be 7d27 77be
00000150: 92f4 213e 459b 3bbe 98ed ab3a 65f7 073e
00000160: 5822 40be 2560 553d 5f8e 193e bc1d edbe
00000170: 401e 11be ccf8 87bc deea 813d 1964 5a3e
00000180: 1ce1 b73e cfe7 053e bc1f 5a3d 0a55 31bb
00000190: 2385 733e 8fe2 9a3d cb14 2c3e 143d 19bf
000001a0: 26cb acbf aab3 2cbc 89ae f33e 9db2 3bbd
000001b0: 2e2a da3e 8f80 81bf 4d83 be3d 9918 92be
000001c0: 7236 febe 042c e2bb 14f2 aa3e abb1 54be
000001d0: d73d ebbe 687b 0f3e 2d26 8b3d 377b 8ebd
000001e0: 7c76 13be 0976 fa3d 0aac 25bd 5797 833e
000001f0: 0832 ea3e b665 a0be 9dc7 093c f53c 143d
00000200: bcd7 263e 4dca ffbd 66e2 5abe 6bc2 423d
00000210: 98cd 9abd e8fe c8bc 8a5c dc3d e465 423d
00000220: d7ee f3bc 5136 12be 17fe adbe 1532 0bbf
00000230: 5e42 40bf 4932 57be b70a dfbd 9c9a 8a3d
00000240: af90 aebd 4034 d6bc 1170 c83d aaef c9be
00000250: d96b 71bd 6b94 fbbd ca2a bfbd 3c0c 68be
00000260: bc95 adbe 12f0 603d 07a5 053d c3a3 17be
00000270: d06b 4c3e 651c 73bd e582 36be e7ce 83be
00000280: 1d16 e0be e42b 583d 78e7 323d 8551 933b
00000290: 3271 96bc 5ec6 69be 98a9 37bd 7943 353e
000002a0: 85ba b33d 2689 163d 4ed1 d9bd 6be6 853e
000002b0: 4d99 16bf 66b5 a4bd 874e fabd 2992 d0bd
000002c0: b505 55be 6c35 51be c4ba 1abe e688 593e
000002d0: e996 6a3e b9bb e8be ea66 8fbd c0c5 1c3e
000002e0: d671 09bd 13c2 383e ee99 dabc a79c e23d
000002f0: 4b05 7bbe 3126 1dbd 55af e23d 90a9 66be
00000300: 2871 e23c a871 9ebd b879 41be ea6b d6bd
00000310: b5cd f1be 0307 563d 1a56 153e f654 86be
00000320: fb07 b2bd e375 0bbe 8d4b 7ebe 2934 7c3e
00000330: 45e8 723c 26f7 283d 75b7 62be 9781 36be
00000340: 5f4f 0d3e b473 0abe aa32 f6bd 4fba 26be
00000350: 276b 97be 14d1 21bf 7533 203e bdba d6bd
00000360: cbd2 53bd 0ae7 b43d a77b 0cbf c4c6 c4be
00000370: febc e73c a86f f9be 09ae 88bf c9f7 6dbe
00000380: 458e a33d 4177 623e cc5b c0be 8563 12bd
00000390: b3b0 e23c e633 ffbe 897c 81be c477 ebbd
000003a0: f621 ccbd eb2d 1b3d 6b3f 893e 8cf6 7ebe
000003b0: e6ba ee3d 0c52 353b 018a 243c 497d b5bc
000003c0: 0392 623c 6943 83bd eb3a 9bbe 9cd5 1dbe
000003d0: 34da 5cbe 259d eebe 7580 19be ff1f 34be
000003e0: 3d81 40be d7eb 313e 0900 d3be 09b3 c73d
000003f0: 0f9d 8b3d e7a0 b1bd adc5 2bbf 78b6 8dbe

a2c_network.actor_mlp.4.bias f4 [64]
-0.16983233 0.2707551 -0.08805815 -0.10047814 0.05162955 0.04054519 -0.04010336 -0.113671154
-0.077485405 -0.038852688 -0.148564 0.032546587 0.04024404 -0.028782325 -0.018485049 -0.15418376
-0.11055122 0.04502617 -0.17498247 -0.0016572058 0.2586309 0.124211915 0.06694896 0.25009316
0.10146002 -0.0038075808 -0.060050186 0.10371635 -0.14172748 0.15813969 -0.16376033 -0.009264927
0.03841117 -0.20618263 0.2479093 -0.06179106 0.0028967352 0.007285393 0.12975308 0.09307321
0.01380947 -0.01937695 -0.118907034 0.28381246 -0.12159226 -0.0459374 -0.0029340968 0.3196723
-0.0026600098 0.033603072 -0.2254629 -0.05690133 0.018928047 -0.05748474 0.24509563 -0.3123223
0.15537268 0.12352283 0.11193404 0.28718477 -0.10832303 -0.06322838 0.026748277 0.1255543
00000000: 87e8 2dbe 6aa0 8a3e d557 b4bd 7cc7 cdbd
00000010: 8279 533d b712 263d 6c43 24bd 6ccc e8bd
00000020: abb0 9ebd ff23 1fbd 2921 18be 924f 053d
00000030: efd6 243d e9c8 ebbc f56d 97bc 59e2 1dbe
00000040: ae68 e2bd 5c6d 383d 9b2e 33be 9936 d9ba
00000050: 456b 843e d162 fe3d 891c 893d 360c 803e
00000060: 45ca cf3d 9b88 79bb 2ff7 75bd 3d69 d43d
00000070: 0221 11be 5fef 213e cab0 27be eccb 17bc
00000080: 0855 1d3d 8a21 53be efdb 7d3e 9f18 7dbd
00000090: 27d7 3d3b 4eba ee3b fedd 043e 2b9d be3d
000000a0: 1e41 623c 69bc 9ebc 8885 f3bd de4f 913e
000000b0: 5d05 f9bd db28 3cbd fa49 40bb 16ac a33e
000000c0: 8f53 2ebb 60a3 093d bfdf 66be 5e11 69bd
000000d0: fe0e 9b3c 1e75 6bbd 59fa 7a3e b5e8 9fbe
000000e0: 041a 1f3e 8af9 fc3d ad3d e53d e209 933e
000000f0: 77d8 ddbd e27d 81bd 341f db3c 4e91 003e

a2c_network.value.weight f4 [1, 64]
-0.74224025 0.53348744 0.19545087 0.47865704 0.15335873 0.5552267 -0.3392714 -0.29756898
0.24685362 0.3180972 -0.89693004 0.27124396 -0.44280612 0.37554878 0.25429678 0.42800882
0.35027364 0.16648436 -0.16430058 0.14438403 0.42791906 -0.31154108 0.10405061 0.66066444
0.739923 -0.7998216 0.56262714 0.5001264 0.19603565 0.47536972 -0.458403 0.14298779
0.25402012 -1.0688343 0.50501555 -0.19011258 -0.6620749 0.45374733 -0.5513786 0.5133192
0.31908354 -0.3692398 -0.35549226 0.47888553 -1.3223301 0.4082773 0.018499643 0.49593478
0.34842134 0.12088117 -0.65690804 -0.37719145 -0.1351648 0.27086684 0.44692877 -0.76151705
-0.32984844 0.4147207 -0.21388777 0.51760304 0.36046815 -0.13662311 0.2751278 -0.2716376
00000000: 7503 3ebf a292 083f 4624 483e 8912 f53e
00000010: 120a 1d3e 5623 0e3f fbb4 adbe f65a 98be
00000020: 32c7 7c3e a3dd a23e 359d 65bf 7de0 8a3e
00000030: 7cb7 e2be ee47 c03e 3033 823e f923 db3e
00000040: 1157 b33e e07a 2a3e 693e 28be 68d9 133e
00000050: 3518 db3e 5082 9fbe 7c18 d53d 4e21 293f
00000060: 986b 3d3f 1cc1 4cbf 5508 103f 4908 003f
00000070: 92bd 483e a963 f33e ccb3 eabe 646b 123e
00000080: ed0e 823e 90cf 88bf b348 013f dfac 42be
00000090: be7d 29bf 9251 e83e 2627 0dbf e368 033f
000000a0: eb5e a33e 000d bdbe 1503 b6be 7c30 f53e
000000b0: 1d42 a9bf b909 d13e 908c 973c 2aeb fd3e
000000c0: 4864 b23e 8c90 f73d 202b 28bf 3d1f c1be
000000d0: a468 0abe 0faf 8a3e d9d3 e43e c8f2 42bf
000000e0: e5e1 a8be 4656 d43e 6505 5bbe a281 043f
000000f0: 488f b83e eee6 0bbe 8ddd 8c3e 1514 8bbe

a2c_network.mu.weight f4 [4, 64]
-0.024398418 -0.017948996 0.0696893 0.036808867 -0.09538725 0.052065965 0.025340576 -0.009969766
0.043095425 0.028981477 0.041446395 0.059715196 -0.020004224 0.005025486 -0.06296197 0.013977446
0.019019846 -0.012797887 0.00063489866 0.0020102586 -0.049049933 -0.027695458 -0.33751163 -0.009144093
0.07997508 0.021501811 -0.047728542 -0.028188689 0.1108383 0.0029552532 0.066863246 -0.08980542
-0.013202319 -0.01696356 -0.01097981 0.20087695 -0.057614572 0.051590603 0.007934776 -0.0054855444
0.025579326 0.00095709 -0.026043208 -0.044702362 0.006870912 0.11432568 0.00836681 -0.05720146
-0.039829805 -0.11475329 -0.021364212 -0.053732626 -0.030155476 0.090249 -0.008895427 -0.003536118
-0.02193347 -0.051261757 -0.044053502 0.026953982 -0.038793806 0.012109236 -0.12844092 -0.032664664
-0.027266013 -0.10606577 0.08293484 0.09728192 -0.20032276 -0.053424347 -0.10840726 -0.010519644
-0.16989252 -0.010168882 -0.07397778 -0.0112189315 0.08416864 -0.019204527 -0.011461568 -0.06682028
-0.032349978 -0.022941165 0.018151293 0.0071249213 -0.016165253 0.030968225 0.104971915 0.07252208
0.015851397 -0.03544972 -0.026488082 0.0030747221 -0.015535649 0.04496554 0.09876223 -0.030286653
-0.10351374 -0.035749324 -0.005348975 -0.04486295 -0.1250894 0.005893983 -0.087642506 0.008144787
-0.03615787 -0.03460772 0.030014811 0.06676033 -0.018115398 0.057724338 -0.21121667 0.07431798
-0.04677889 -0.12944931 0.00870029 -0.0025553382 -0.045299474 -0.0010961278 -0.010006259 0.0560544
0.030734224 -0.0038079133 -0.015651884 0.030657096 -0.63751674 -0.004402032 0.060215563 -0.090379566
-0.042364687 0.025977556 -0.025233828 0.07542467 0.026563229 -0.008102231 0.010291757 0.014312324
-0.0078346385 0.007410243 -0.019874688 0.028104257 -0.003067198 0.021172637 0.0082410285 0.03803241
-0.009669328 0.018034572 -0.00530636 0.00468875 -0.014467961 -0.035924718 0.009065401 -0.03235052
-0.03184782 0.043556932 0.041842792 -0.013175858 0.0036378922 0.021791363 -0.005102465 0.00843904
0.0544327 -0.027233295 0.01553393 -0.014524134 -0.00077363587 0.013873875 0.026724057 0.039278746
-0.01088832 -0.01715609 -0.054074645 0.028970797 0.019085348 0.029051293 -0.054409172 0.059647705
0.019990847 -0.014805255 0.070846595 0.006439051 0.052112896 -0.04686203 0.0072661 0.022683758
0.032712556 -0.04027414 0.032336406 -0.045749955 -0.059035927 -0.021449897 0.01462589 0.026753873
-0.0022734369 0.022776965 -0.044002336 -0.04468717 0.00049932394 0.014456198 -0.00067585264 0.07632078
0.013299762 0.016349308 -0.045764163 0.03161123 -0.033557255 0.020234901 -0.010729218 0.035915457
-0.006277363 0.010850431 -0.041506615 0.0069610165 -0.041510284 -0.035097227 0.045701146 -0.045951128
-0.01534727 0.031233877 -0.0052820523 -0.018902635 -0.031082774 0.07512887 0.064654715 0.022488272
0.051802795 -0.045252454 0.02917296 -0.008149636 0.0029360205 0.06378206 -0.016879464 -0.014736656
-0.0012607398 -0.02992792 0.00612921 0.05291388 0.07487788 0.09144209 0.04340218 -0.023863647
-0.010352935 -0.030931218 -0.010867414 0.018352088 0.045420233 -0.0015627559 0.006925172 0.007093967
-0.0008165889 -0.06552144 0.01318552 -0.044518866 -0.007350684 -0.026277484 -0.01324548 -0.0037687004
00000000: 31df c7bc c609 93bc 44b9 8e3d e5c4 163d
00000010: 645a c3bd 1f43 553d 0a97 cf3c 3b58 23bc
00000020: d484 303d 906a ed3c b2c3 293d ec97 743d
00000030: e6df a3bc d5ac a43b 35f2 80bd a801 653c
00000040: 82cf 9b3c 3bae 51bc 546f 263a 8bbe 033b
00000050: 95e8 48bd 96e1 e2bc 53ce acbe 1bd1 15bc
00000060: fac9 a33d 9124 b03c 017f 43bd f7eb e6bc
00000070: 31ff e23d ecac 413b 99ef 883d e7eb b7bd
00000080: 8a4e 58bc 2af7 8abc a9e4 33bc b0b2 4d3e
00000090: 42fd 6bbd ab50 533d dd00 023c 15c0 b3bb
000000a0: bc8b d13c 39e5 7a3a 9158 d5bc d319 37bd
000000b0: 6325 e13b 9523 ea3d f214 093c 144c 6abd
000000c0: 9424 23bd c603 ebbd 0004 afbc be16 5cbd
000000d0: 9e08 f7bc 78d4 b83d 20be 11bc 37be 67bb
000000e0: d2ad b3bc d9f7 51bd 7271 34bd 99ce dc3c
000000f0: 41e6 1ebd d165 463c 0486 03be 62cb 05bd
00000100: f95c dfbc 0339 d9bd bed9 a93d be3b c73d
00000110: 6921 4dbe 7dd3 5abd a004 debd 965a 2cbc
00000120: 4ef8 2dbe 629b 26bc aa81 97bd 9ccf 37bc
00000130: 9c60 ac3d d052 9dbc 4dc9 3bbc 12d9 88bd
00000140: 6981 04bd 1cef bbbc 05b2 943c 2c78 e93b
00000150: fe6c 84bc 13b1 fd3c 84fb d63d 7586 943d
00000160: cada 813c ba33 11bd 89fd d8bc 4781 493b
00000170: 3c89 7ebc c92d 383d da43 ca3d b71b f8bc
00000180: 03ff d3bd e26d 12bd 7446 afbb 36c2 37bd
00000190: 7017 00be 5022 c13b ea7d b3bd b671 053c
000001a0: 461a 14bd d3c0 0dbd 9fe1 f53c a4b9 883d
000001b0: be66 94bc 5b70 6c3d 2f49 58be 0634 983d
000001c0: 399b 3fbd 5c8e 04be a98b 0e3c 7677 27bb
000001d0: f18b 39bd f2ab 8fba 4bf1 23bc 4c99 653d
000001e0: 57c6 fb3c 2f8e 79bb 6138 80bc 9724 fb3c
000001f0: 4c34 23bf ec3e 90bb 98a4 763d ec18 b9bd
00000200: 9886 2dbd e2ce d43c 2cb7 cebc 4078 9a3d
00000210: 219b d93c 38bf 04bc c29e 283c 3d7e 6a3c
00000220: db5c 00bc a0d1 f23b 3ed0 a2bc e63a e63c
00000230: 0b03 49bb 3d72 ad3c 6105 073c dfc7 1b3d
00000240: 1a6c 1ebc 3dbd 933c f9e0 adbb 16a4 993b
00000250: 070b 6dbc cc25 13bd 0c87 143c fb81 04bd
00000260: dc72 02bd c168 323d 5963 2b3d 8edf 57bc
00000270: b469 6e3b cd83 b23c 9432 a7bb e643 0a3c
00000280: d3f4 5e3d 5c18 dfbc 0682 7e3c a2f6 6dbc
00000290: d3cd 4aba 404f 633c 69ec da3c c0e2 203d
000002a0: ed64 32bc ee8a 8cbc 607d 5dbd 2a54 ed3c
000002b0: e058 9c3c fafc ed3c 27dc 5ebd 2751 743d
000002c0: d8c3 a33c be91 72bc 0518 913d adfe d23b
000002d0: 5574 553d 66f2 3fbd 7718 ee3b 4ad3 b93c
000002e0: 9afd 053d 7ff6 24bd 2e73 043d 4e64 3bbd
000002f0: a8cf 71bd b2b7 afbc 6ea1 6f3c f02a db3c
00000300: f1fd 14bb c296 ba3c cb3b 34bd e509 37bd
00000310: 10e5 023a b0d9 6c3c b42b 31ba 124e 9c3d
00000320: 3fe7 593c fcee 853c 3473 3bbd c77a 013d
00000330: 5573 09bd aac3 a53c 9ac9 2fbc 161c 133d
00000340: 56b2 cdbb 02c6 313c d702 2abd 3d19 e43b
00000350: b006 2abd 1cc2 0fbd 2031 3b3d 4037 3cbd
00000360: 1e73 7bbc 30de ff3c 1115 adbb b3d9 9abc
00000370: 4da1 febc 2add 993d b169 843d 5339 b83c
00000380: 2b2f 543d a35a 39bd 22fc ee3c 0d86 05bc
00000390: 406a 403b 2ba0 823d cd46 8abc 0472 71bc
000003a0: 683f a5ba 662b f5bc 8ad7 c83b 3abc 583d
000003b0: 9359 993d fe45 bb3d 7cc6 313d b27d c3bc
000003c0: 5b9f 29bc 7763 fdbc 3d0d 32bc 1e57 963c
000003d0: 910a 3a3d 63d5 ccba 8eec e23b 8274 e83b
000003e0: 5a10 56ba 1b30 86bd 1408 583c 6a59 36bd
000003f0: 02de f0bb e143 d7bc 9203 59bc 4dfc 76bb

a2c_network.mu.bias f4 [4]
-0.15418424 0.2115602 0.048232444 -0.09065072
00000000: 79e2 1dbe 3da3 583e 628f 453d 16a7 b9bd

exp_avg f4 [4]
0.0006643797 0.0004952736 -0.0001622996 -8.3122584e-05
00000000: c429 2e3a 40d5 013a f82e 2ab9 1952 aeb8

exp_avg_sq f4 [4]
9.112049e-07 8.3812523e-07 8.0238647e-07 8.868413e-07
00000000: 8699 7435 87fb 6035 9463 5735 450f 6e35

exp_avg f4 [256, 12]
0.0003233969 -6.477477e-05 0.00013063526 0.0006652722 -0.00010568655 -0.00014307554 0.00031999737 -7.691921e-06
0.0001267944 -0.00022026054 -0.00048480116 -0.0019175792 -0.0001137521 0.00030946825 0.000727561 -0.0011976201
-6.7693174e-05 -0.00021075862 -0.0002137306 -8.208648e-05 -0.00011268329 0.00017465129 4.2618663e-05 -0.00088543294
-0.0001469982 -0.00031442993 0.0007513695 0.00096052204 -7.894377e-05 0.0005522417 0.00049766665 0.00040710942
-3.9731127e-05 -9.838025e-05 0.00096047827 0.001662643 -9.512883e-05 -0.00021835089 -0.00055784703 0.0012448513
0.00011571859 0.0003571804 0.0001286856 0.0002521244 4.272948e-05 -4.5031436e-05 0.00022047987 0.002159307
-5.6554924e-05 -2.7868486e-05 0.00046247637 4.0213064e-05 -5.9392546e-06 0.00016393581 -6.666738e-05 0.00023476403
-1.2050245e-05 2.5675185e-05 0.0004232449 0.00066487485 0.0002427389 -0.00045492427 -0.0014781214 0.002867421
0.00020988449 0.0003336118 6.923403e-05 0.0005648549 0.00024293594 -0.0004156929 -0.0004261935 0.002071868
-4.2927364e-05 -5.9979502e-05 -0.00051205757 0.00037619044 -1.7681392e-05 0.00010213359 0.00040272172 -0.0001320301
-1.405192e-05 -3.9556753e-07 -0.00010833879 0.0007570729 0.00016968648 -0.00043029463 -0.0007024347 0.0014812977
0.00019894137 0.00036893314 0.0003216155 0.00016128662 0.00014081446 -0.00020597398 4.7501675e-05 0.000188416
-0.0002526968 0.00029017875 0.00072584965 -0.0021029902 6.630871e-06 -0.00021377543 -0.0010875532 -7.4840944e-05
-0.00015235449 0.00043898288 0.0005617339 -0.00011199782 -0.00032174384 0.00012234578 0.0019825213 -0.00047853304
-0.00030017935 0.00032822604 0.00021620594 0.0006202909 -0.00021760621 0.00018647985 0.0012461382 0.0017344765
-0.00039389927 -0.00026115868 0.0003308812 -7.0501424e-05 -7.9805664e-05 0.0004292799 0.00015078275 0.0002127519
-0.00017274887 0.00011293721 0.0010469542 0.0019187054 -0.00021868091 -0.0001459389 0.00013728795 9.9262616e-05
3.712667e-05 0.00034678014 2.1066868e-05 0.00021864264 -4.5174547e-05 0.00012179444 0.000641479 0.0014502069
0.000112948124 -4.2026477e-06 0.0005624147 0.0001622044 -0.00014194187 4.2782423e-05 0.0004361024 0.00032810416
3.0024481e-05 -0.00011938404 0.00010928624 -0.0008671889 4.412847e-05 -0.00015179641 -0.0006975275 0.0010896563
0.00014649 0.0002401528 1.3819454e-05 0.0002489119 9.983745e-05 -6.0628547e-05 -3.001424e-06 0.0014850138
0.00027822342 -0.0001871586 -0.0016638421 0.0010386852 0.00022220232 -0.00039389863 0.00039443365 -0.0005179164
0.00019269019 -0.00031829308 -0.0013740634 -0.00085827685 0.0003363404 -0.00036313114 -0.00035571438 0.0015601313
-0.000113054244 1.3258379e-05 0.0006312046 5.2016043e-05 0.00011535364 -0.0004937704 -0.00036685314 -0.0014825234
0.00018446622 0.000103055994 0.00012351516 -0.0008346887 5.7238754e-05 -0.00039517126 -0.00027600385 -0.00016261525
7.116016e-05 -1.2051061e-05 -0.00036439893 -0.002321891 5.3612683e-05 0.0001964968 -0.00015089723 -0.00023354126
-9.5775744e-05 -0.00025174776 0.0001608929 -0.00024687752 -1.7950128e-05 -8.530052e-05 -0.00048557197 -7.4999836e-05
-0.00022979878 7.898981e-05 -0.00038759143 -0.0009972063 0.00024952053 -4.3123433e-05 -0.00070911675 -0.00012356321
-6.96675e-05 0.00036917013 0.00035373087 0.00023864162 0.00012938515 -1.7634795e-05 -0.00029280392 0.00019526684
-4.4023822e-05 -0.00015691466 0.00018008176 -0.00022432457 4.1671698e-05 -0.00014655977 -0.00038772865 0.00023124761
-0.0004553448 -6.593118e-05 0.0008451964 -0.00026287613 7.9431675e-06 0.00055018615 -3.0933086e-05 0.00031171643
-0.00018182486 0.00028272645 0.0012365582 0.0023659088 -6.767801e-06 -0.00015063075 -0.0003721818 0.0012778838
00000000: 998d a939 b1d7 87b8 23fb 0839 a965 2e3a
00000010: 09a4 ddb8 8c06 16b9 52c5 a739 8d0c 01b7
00000020: 1df4 0439 bdf5 66b9 e92c feb9 4857 fbba
00000030: 328e eeb8 2040 a239 cbb9 3e3a 76f9 9cba
00000040: 7ff6 8db8 16ff 5cb9 df1c 60b9 d825 acb8
00000050: 6150 ecb8 9922 3739 71c1 3238 661c 68ba
00000060: 8723 1ab9 12da a4b9 8ef7 443a 8bcb 7b3a
00000070: 9d8e a5b8 50c4 103a d875 023a 4d71 d539
00000080: f9a4 26b8 7f51 ceb8 9bc8 7b3a 0bed d93a
00000090: e77f c7b8 1ff5 64b9 7b3c 12ba 472a a33a
000000a0: f2ad f238 f143 bb39 c7ef 0639 902f 8439
000000b0: 6e38 3338 23e0 3cb8 9d30 6739 2983 0d3b
000000c0: 6335 6db8 1ec7 e9b7 8778 f239 73aa 2838
000000d0: cf49 c7b6 2fe6 2b39 c7cf 8bb8 fd2a 7639
000000e0: 682b 4ab7 0a61 d737 f8e6 dd39 ff4a 2e3a
000000f0: ba87 7e39 e782 eeb9 86bd c1ba 57eb 3b3b
00000100: 7014 5c39 9ee8 ae39 bd31 9138 c512 143a
00000110: 9fbc 7e39 5bf1 d9b9 b972 dfb9 2dc8 073b
00000120: e80c 34b8 8092 7bb8 9a3b 06ba 6d3b c539
00000130: 8052 94b7 8e30 d638 6524 d339 8f71 0ab9
00000140: 89c0 6bb7 635e d4b4 f233 e3b8 4d76 463a
00000150: deed 3139 2b99 e1b9 9823 38ba 1a28 c23a
00000160: eb9a 5039 5e6d c139 809e a839 0c1f 2939
00000170: 98a7 1339 b8fa 57b9 893c 4738 8991 4539
00000180: 647c 84b9 2223 9839 f246 3e3a 52d2 09bb
00000190: c07e de36 e828 60b9 3b8c 8eba edf3 9cb8
000001a0: 59c1 1fb9 4927 e639 5341 133a 5fe0 eab8
000001b0: baaf a8b9 f249 0039 30ed 013b 9ee3 fab9
000001c0: 6461 9db9 c115 ac39 57b5 6239 059b 223a
000001d0: 392d 64b9 ce89 4339 7655 a33a 6057 e33a
000001e0: 4484 ceb9 20ec 88b9 1f7a ad39 2ada 93b8
000001f0: 575d a7b8 f910 e139 701b 1e39 2716 5f39
00000200: ec23 35b9 b4d8 ec38 f439 893a 127d fb3a
00000210: b64d 65b9 2d07 19b9 f4f4 0f39 362b d038
00000220: 75b8 1b38 0bd0 b539 c1b8 b037 7043 6539
00000230: cd79 3db8 e46b ff38 ed28 283a de14 be3a
00000240: 90de ec38 7804 8db6 036f 133a 6915 2a39
00000250: 3bd6 14b9 4771 3338 aca4 e439 6505 ac39
00000260: 15dd fb37 d25d fab8 9a30 e538 1054 63ba
00000270: 9516 3938 8a2b 1fb9 47da 36ba ccd2 8e3a
00000280: 1c9b 1939 87d1 7b39 1ada 6737 6480 8239
00000290: d35f d138 684b 7eb8 126c 49b6 cba4 c23a
000002a0: 84de 9139 0140 44b9 4715 daba 7e24 883a
000002b0: fbfe 6839 2e84 ceb9 fdcb ce39 c8c4 07ba
000002c0: e10c 4a39 93e0 a6b9 eb19 b4ba fcfd 60ba
000002d0: d856 b039 a362 beb9 2d7f bab9 527d cc3a
000002e0: 8917 edb8 4e70 5e37 6c77 253a cd2b 5a38
000002f0: 04ea f138 5f70 01ba 3256 c0b9 3b51 c2ba
00000300: 466d 4139 c41f d838 d983 0139 03cf 5aba
00000310: a513 7038 fd2e cfb9 9cb4 90b9 b383 2ab9
00000320: d23b 9538 ea2e 4ab7 cc0c bfb9 de2a 18bb
00000330: 2ede 6038 b50a 4e39 2b3a 1eb9 c1e2 74b9
00000340: 36db c8b8 03fd 83b9 5cb5 2839 576f 81b9
00000350: 9b93 96b7 5ee3 b2b8 5e94 feb9 3b49 9db8
00000360: 24f6 70b9 55a7 a538 a435 cbb9 b1b4 82ba
00000370: 14d2 8239 6fdf 34b8 05e4 39ba bf90 01b9
00000380: 741a 92b8 2d8d c139 f474 b939 df3b 7a39
00000390: 90ab 0739 6fee 93b7 7a83 99b9 8bc0 4c39
000003a0: 38a6 38b8 7589 24b9 54d4 3c39 ab38 6bb9
000003b0: a5c8 2e38 d7ad 19b9 0f48 cbb9 0f7b 7239
000003c0: 58bb eeb9 8844 8ab8 2c90 5d3a a3d2 89b9
000003d0: a543 0537 5e3a 103a 26be 01b8 df6d a339
000003e0: 3da8 3eb9 e73a 9439 0214 a23a 5d0d 1b3b
000003f0: f816 e3b6 a2f2 1db9 6521 c3b9 aa7e a73a
