scripts/reinforcement_learning/rl_games/tournament/checkpoints/sim_distance_ro_a0_3.pth (torch, 550130 bytes, 30 tensors)

a2c_network.sigma f4 [4]
000000 f2 ab 28 c0 f5 0e 2a c0 40 aa b6 be b1 78 ca be
       -2.6354947 -2.657163 -0.35676765 -0.39545205

a2c_network.actor_mlp.0.weight f4 [256, 12]
000000 6d 86 50 3f f9 8d 82 3d ed db 77 3d be dc 34 3c
       0.8145512 0.063747354 0.060512472 0.011038957
000010 15 29 08 3e 12 34 a6 3c 4a b9 50 bb 4f 76 20 ba
       0.13296922 0.020288501 -0.0031848722 -0.0006121145
000020 47 8f 46 bf f4 08 70 be ff e6 ac be ed f9 a4 3e
       -0.77562374 -0.23440915 -0.33769986 0.32221928
000030 90 3c 25 bf 13 b1 95 be 0d eb 55 bd c1 cf 23 be
       -0.64545536 -0.2923666 -0.052226115 -0.1599722
000040 5d ad 11 3e cb ea 24 be af 0d 5c 3d 4e 7e ad bd
       0.14226289 -0.16105191 0.053723987 -0.08471356
000050 ad c2 46 3f 9e f4 9a 3e e8 7d 0f be 17 cb 7d 3f
       0.776408 0.30264753 -0.14012873 0.99138016
000060 2e ec 93 be 97 bc 03 3f 9e 6b 00 3d d9 e2 2c bd
       -0.28891128 0.5145964 0.03135263 -0.042208526
000070 86 5e 03 3e 31 6b af bc 73 a8 c7 3c 9d 3e 73 3d
       0.12829027 -0.021413418 0.024372315 0.059385885
000080 07 3b 5a 3f 4d ba 0d bf 36 76 c7 3e 49 1f 57 be
       0.8524632 -0.553624 0.38957375 -0.21008028
000090 f8 db 89 3e 5a 4f ef be b0 6c 2c bd 8b c4 21 bd
       0.26925635 -0.46740228 -0.04209584 -0.03949408
0000a0 37 3b 01 be 31 66 44 3e 29 c2 3e bc 23 ca ce 3b
       -0.12620245 0.19179608 -0.011642971 0.0063107177
0000b0 2d ea ce 3d 7b 87 13 3e 46 1c a3 3e 57 1d 0f be
       0.10103259 0.1440715 0.31857508 -0.13976036
0000c0 90 f1 86 3e 5d de ac be e0 28 09 3a 68 bf 9e b9
       0.26356173 -0.337634 0.0005232226 -0.00030278717
0000d0 44 33 fd 3c 02 b2 01 be 51 2e 4d 3c 57 e4 01 bd
       0.030908234 -0.12665561 0.01252325 -0.031711902
0000e0 61 37 ed be a7 cd b2 be 02 8e 09 3e f7 00 37 3e
       -0.46331313 -0.34922525 0.13433078 0.17871462
0000f0 bc 2f 0b 3f 33 41 a6 be 16 37 95 be 29 2a a5 be
       0.5436971 -0.32471618 -0.2914359 -0.32258728
000100 c5 f1 50 be b5 a8 ef 3d 1b 0a 9d 3d 82 2e 3f 3e
       -0.20404728 0.117021 0.07667943 0.18670085
000110 6a 1b e8 be 5d cc c9 be 4a 45 61 3e c1 9e 01 be
       -0.45333415 -0.3941373 0.21999088 -0.12658216
000120 c2 ac 91 3d f7 10 9a bc 68 22 f5 bb d8 ab bc bd
       0.07113029 -0.018806918 -0.007480908 -0.09212464
000130 e6 b7 25 bd 3d c2 aa 36 79 d8 90 ba de 32 f6 bb
       -0.040458582 5.089007e-06 -0.0011050842 -0.007513388
000140 a3 e0 04 3f 6b 5e 23 3f 72 1f 27 be 63 9b 10 bd
       0.5190527 0.63815945 -0.16320589 -0.03530444
000150 94 0a 27 bf c0 ca c5 bd 51 79 da bd 05 67 a9 be
       -0.65250516 -0.09657812 -0.106676705 -0.3308641
000160 6c 0f 91 be 0b 72 b1 3d db a0 0a bd 6c fb 7d bd
       -0.28332078 0.0866433 -0.03384481 -0.062007353
000170 db 1f 72 bf 8b dd 1b bf 34 38 8e bf e7 16 02 bf
       -0.9457986 -0.6088492 -1.1110902 -0.50816196
000180 8b 82 a5 bf 32 84 64 be e5 21 8b 3d 65 d2 9c 3d
       -1.2930464 -0.22316054 0.06793574 0.07657317
000190 fd e6 8a 3d b2 42 66 be d7 31 c9 bc 73 5c 2e bd
       0.06782339 -0.2248638 -0.024559898 -0.042568635
0001a0 d5 80 3a bd d0 b9 2b bf 04 e5 93 be 21 35 f8 be
       -0.04553302 -0.670804 -0.28885663 -0.48478034
0001b0 8f 4b 67 be 58 3c 92 be 16 26 07 bd 9f 83 4d be
       -0.22587417 -0.28561664 -0.032995306 -0.2006974
0001c0 20 a5 0c be 63 97 97 bd 78 ad 54 bd 54 d5 aa bd
       -0.13734865 -0.074019216 -0.051923245 -0.0834147
0001d0 52 09 8c 3f a0 ed 03 3e c1 0e 19 3f c5 b4 1f 3f
       1.0940344 0.12883615 0.5978814 0.6238521
0001e0 ae 1d 20 bf 6f 20 b1 3e c2 6b 3a 3d fc 4a 8a bd
       -0.6254529 0.34595057 0.045512922 -0.067525834
0001f0 ba 82 56 be b0 d6 64 be d2 47 01 3c 9d dd 0b bd
       -0.20948306 -0.22347522 0.007890658 -0.034146894
000200 d0 59 18 3f 21 77 2d bf 5e f6 ee 3e 61 08 1e bf
       0.59512043 -0.677599 0.46672338 -0.61731535
000210 73 cb 2d 3e e6 4b ac 3d 1c 86 81 3d 17 ed 0d 3e
       0.16972141 0.08412914 0.063244075 0.13859974
000220 fe 08 d4 3d 24 d3 27 be d0 68 26 3c 38 9f 5c bc
       0.103532776 -0.16389138 0.010156825 -0.013465695
000230 d0 b1 c9 3c c2 da 50 bf 0e e3 bd 3e a1 05 1d bf
       0.02462092 -0.815838 0.3708729 -0.61336714
000240 31 5b 4b 3c 4a 39 a7 3e 35 e4 ff bb 94 ce 48 bd
       0.012411878 0.32660896 -0.007809187 -0.049025133
000250 48 91 94 3e e9 85 54 3d 9d 1a 2c bc 47 e7 22 bd
       0.2901709 0.05188552 -0.010504392 -0.039771345
000260 a3 e5 d9 3e 76 fd 00 bf 9d 8f 62 bd 29 f9 10 3d
       0.4255801 -0.5038675 -0.05531274 0.035393868
000270 39 fd d7 3e e7 58 da be d9 3d 48 bd 1f 7e f8 bc
       0.4218538 -0.42645952 -0.048887108 -0.030333577
000280 36 dd 8d 3d 8d 7c 8c bd 0d 14 10 bd b3 45 41 bd
       0.06926958 -0.06859694 -0.035175372 -0.04718561
000290 81 e0 47 bf 1b a3 91 3e 9e bb a6 3e 47 40 84 be
       -0.7807694 0.28444752 0.32565016 -0.2583029
0002a0 73 00 4f 3f 4e a9 56 3e 20 70 1b 3d e0 7e ed bd
       0.8086006 0.20963022 0.037948728 -0.11596465
0002b0 23 68 13 3e bc 77 01 3e 27 22 d5 3a 8a 66 4a 3c
       0.14395194 0.12643331 0.0016260789 0.012353549
0002c0 1c 1f 12 be 57 0d 25 3d 28 59 b4 bd dd a2 7d bf
       -0.1426968 0.040295925 -0.08806068 -0.99076635
0002d0 cb bd 82 3f bf 1a f7 3e 6d c3 dc bb 16 a4 89 bc
       1.021417 0.48262593 -0.0067371638 -0.016801875
0002e0 5d c4 c0 bd f5 66 07 bd 38 8b 0e 3c 1b 2a 61 3c
       -0.09412453 -0.03305717 0.0087001845 0.013742949
0002f0 8f df 23 bf 12 3c 0d bf 13 e7 95 3e b6 2d 9b 3d
       -0.64013 -0.55169785 0.29277858 0.07577078
000300 81 f2 ea bd 29 e8 02 be d6 a9 c4 bd 1a 2c 88 be
       -0.11472035 -0.12783875 -0.09602706 -0.26596147
000310 ad 30 7c bd b2 43 e6 3d 36 78 81 3d 26 1e cf 3d
       -0.06156986 0.112433806 0.063217565 0.10113172
000320 e4 42 fb be ca 52 21 bf 0d 36 7d bd 32 3d f4 3e
       -0.4907447 -0.6301695 -0.061819125 0.47702938
000330 ca 7a ac 3e 5f 55 ae 3c 2d b6 a4 bc 7e c6 e2 bb
       0.3368743 0.021280942 -0.0201064 -0.006920635
000340 79 47 26 be 8e 83 ec 3d 1b 33 77 bd 72 04 39 bd
       -0.16238202 0.115485296 -0.060351472 -0.045170255
000350 5e c5 60 bf 89 dd 09 3f 5c ed 84 3e 6c b8 38 3e
       -0.8780116 0.5385366 0.2596234 0.18039101
000360 67 b3 34 bf 53 cd fa be 90 d4 a0 be 9a 07 60 3e
       -0.70586246 -0.48984775 -0.31412172 0.218779
000370 d2 dc 02 3e 69 2f 8c 3e 03 21 b9 3d bf f7 6d 3d
       0.12779549 0.2737992 0.090394996 0.058097597
000380 d3 28 bf 3c ea a1 ad be 65 89 cf be 12 a8 e4 be
       0.023334896 -0.33912593 -0.4053451 -0.44659477
000390 c8 76 ca 3e 5b b1 b6 be cb b1 5c bb 3b 70 2a be
       0.39543748 -0.35682186 -0.0033675309 -0.16644375
0003a0 01 d2 d5 bd 6e b0 4f be d7 64 60 bd f9 fb c4 3c
       -0.10440446 -0.20282146 -0.05478367 0.024045931
0003b0 52 1d 0d bf 82 1d 00 3f 02 7e 6e be 62 47 76 be
       -0.55122864 0.50045025 -0.23290256 -0.24050668
0003c0 98 04 02 3e 52 84 b9 be cb c1 55 3e 23 cd 9e be
       0.12697065 -0.36233765 0.20874707 -0.31015882
0003d0 8d 63 14 3e 31 50 0c be 00 0e 1e 3d f4 cf 2f 3d
       0.144911 -0.13702466 0.03858757 0.04292293
0003e0 36 f2 68 3f cd 23 19 bf 3c b4 25 3f 06 3f a0 be
       0.90994585 -0.5982025 0.6472814 -0.31298083
0003f0 ce 86 a1 3f 0a 37 e6 3e 52 61 fe bb 55 79 b8 bd
       1.2619264 0.44963866 -0.0077630663 -0.09007517

a2c_network.actor_mlp.0.bias f4 [256]
000000 55 33 11 3c c7 fc 10 3e 2f 5e 0c 3d 9f db 4d be
       0.008862336 0.14158927 0.034269508 -0.2010331
000010 a1 45 2a be dc d6 c1 3d d1 4d 54 be 11 0c a6 3d
       -0.16628124 0.09464809 -0.2073281 0.0810777
000020 98 ab 76 bd 44 55 d3 3c 0c 42 27 3d 3a 43 f9 3c
       -0.06022224 0.025797494 0.04083447 0.030427564
000030 ca 48 92 bd 35 8e e7 bc b6 f4 37 bc 11 ec 5c 3d
       -0.0714279 -0.028266052 -0.011227777 0.053936068
000040 28 7e 43 3e c8 51 25 be 16 8a a3 3d f0 1e c5 3b
       0.19091094 -0.16144478 0.07985322 0.006015651
000050 52 e8 fe 3d 20 e4 a4 3d 9c d6 41 bd c7 f6 b6 bc
       0.12446655 0.08051324 -0.047323808 -0.02233447
000060 33 80 1d be cc ff f9 bd f6 7f d4 bc 64 47 a4 bc
       -0.15380935 -0.122069925 -0.025939923 -0.020053573
000070 75 da 2c 3e 22 9f 2f 3d 78 69 29 3e ae 06 de bd
       0.1688021 0.04287637 0.1654414 -0.10841118
000080 38 6b 2d bd bd 31 fa 3b cf 27 8d 3d cc 48 fd bc
       -0.04233858 0.007635324 0.068923585 -0.030918501
000090 3b f3 f1 3d 0e 66 62 bb eb 2a 3a 3d 92 32 55 3d
       0.11813971 -0.0034545693 0.045451086 0.05205018
0000a0 d6 36 0d be b6 d9 86 bd e2 38 3b be bb bb ee bd
       -0.1379045 -0.06584494 -0.18283418 -0.116569005
0000b0 4c b7 a6 3c 35 a9 0d bd a6 1e b7 3c 75 25 2b 3e
       0.020351075 -0.034585197 0.022353482 0.16713507
0000c0 cc cb 6a 3c c1 0e 2d 3e 34 7a 01 be 02 88 0f 3d
       0.0143308155 0.1690016 -0.12644273 0.035041817
0000d0 a4 df 8e 3b 4c f4 70 bc 55 a9 41 3d 8a c0 6f 3e
       0.004360156 -0.014706682 0.04728063 0.23413292
0000e0 03 85 ba 3d a0 2a 91 3c bb 42 35 bd 6f 81 f6 bb
       0.09107401 0.01772052 -0.044253092 -0.007522754
0000f0 c0 be 4e bd bf 01 8b bd 05 dd f5 bd 3a 0d 71 bd
       -0.050474882 -0.067874424 -0.12005047 -0.058850504
000100 4e c4 0d 3d 9d e4 d2 bd 45 b5 bd bc 12 6c 81 bd
       0.03461104 -0.10297511 -0.023157725 -0.06319441
000110 0f e7 76 bd b7 7f a4 bd 79 aa a4 bc 03 f3 34 be
       -0.06027895 -0.08032172 -0.020100819 -0.17670827
000120 2d 61 71 3d c9 6c 6e bc e3 da 39 3d b6 57 45 be
       0.058930565 -0.014552304 0.045374762 -0.1927174
000130 01 98 31 bd dc fe 3f 3d 14 3b cb bd 21 2d de bd
       -0.043357853 0.046873912 -0.09923378 -0.108484514
000140 f2 0c 3b 3e 6f d2 a6 bc 5a 40 85 3d 81 76 24 bd
       0.18266657 -0.020364014 0.06506415 -0.040152077
000150 38 75 20 be 36 29 9b 3d 4d b2 c4 bd db 82 05 bc
       -0.15669715 0.0757622 -0.09604321 -0.008148874
000160 57 cc 54 bd 3a 3a 4e bd d1 46 44 3b 78 f4 bf bd
       -0.051952686 -0.050348498 0.0029949436 -0.093728006
000170 8c a6 80 3c ff bb 78 bd 61 35 01 3e dd d2 a1 3c
       0.015704416 -0.060726162 0.12618019 0.019753868
000180 29 3c aa 3d b0 87 0b 3d 0b 9f 13 3e 82 a8 16 3e
       0.08312256 0.03406495 0.14416139 0.14712718
000190 b8 c6 14 bd 2d 7e bd bd d2 8f 23 be c4 c5 14 be
       -0.036322325 -0.09252582 -0.15972832 -0.14528567
0001a0 d0 6a 9c bd 52 ba dc 3b 39 a2 41 3d 15 ea 9b bd
       -0.0763756 0.0067360783 0.04727385 -0.07613007
0001b0 b4 90 44 be 6b ef 12 be 68 88 59 3d fd 8b 7f 3d
       -0.19195825 -0.14349143 0.053108603 0.062389363
0001c0 a3 de d2 bd bd 76 83 bd d5 34 ad 3d 03 ce 1c 3d
       -0.10296371 -0.06419132 0.084573425 0.038282406
0001d0 de 70 d8 bd 59 c4 a5 bd 14 98 1e be 08 7c e9 bd
       -0.10568403 -0.08094091 -0.154877 -0.1140061
0001e0 db d6 40 be 68 b6 70 bb 44 43 71 bc 6e 19 d0 bd
       -0.18831961 -0.0036729816 -0.01472551 -0.101611
0001f0 f8 6f ff bc 01 00 4f 3e 20 87 11 3d 25 4d 38 be
       -0.03118132 0.20214845 0.035529256 -0.17998178
000200 c2 bf 0b bc 2b 22 3c be c5 83 75 bd 30 c7 6a 3c
       -0.008529605 -0.18372409 -0.05994012 0.014329717
000210 0b 6f 1b 3d 80 1b 21 be 31 03 94 bd 05 ae fe bd
       0.037947696 -0.15733147 -0.07227171 -0.12435535
000220 56 60 73 bd af 5e 01 bd 9d df f8 bd 6f a6 7f 3d
       -0.059418045 -0.031584438 -0.12152026 0.062414583
000230 82 b1 2a 3b 7f f9 4c be 56 5b 2e be 42 bc 04 3e
       0.0026045744 -0.2001705 -0.1702703 0.1296244
000240 4d c4 03 3e d3 41 0c 3d b6 85 02 3d 12 d3 02 3e
       0.12867852 0.034242462 0.031865798 0.1277583
000250 38 4b f1 bd 09 35 01 bd 1e d4 18 3c 96 2c 09 be
       -0.11781925 -0.03154472 0.009327916 -0.13395914
000260 8d ac 49 be f9 0b 90 3d c0 bc 40 3d ac 83 27 3d
       -0.19694729 0.070335336 0.047055006 0.040897056
000270 e9 fd ce 3c 61 4c 32 be f8 e2 b0 bd c2 df 54 bc
       0.025267558 -0.17411949 -0.08637041 -0.012992801
000280 96 d1 75 bd f1 34 db bc 2f 9c 22 3c bf 83 3a 3e
       -0.06001433 -0.026758643 0.009924932 0.1821432
000290 2d 59 25 3e c2 4d 13 3e b0 e4 9b bd 0b dc 9b bd
       0.16147299 0.14385131 -0.07611978 -0.07610329
0002a0 1f 6b 1a 3d 21 31 f1 ba 80 24 e3 3d 03 96 00 be
       0.037699815 -0.0018401482 0.11090946 -0.12557225
0002b0 a8 aa b4 3c 20 82 56 be 35 73 0a be da 3f a6 bd
       0.022054031 -0.20948076 -0.1352051 -0.081176475
0002c0 21 e3 83 bd 27 55 8f bc 90 ff 88 bd fd 2b 3c 3c
       -0.06439806 -0.017496658 -0.0668937 0.011485097
0002d0 2e 48 02 be a2 d2 f7 3c d3 17 5b 3e d5 27 d0 3d
       -0.12722847 0.030251805 0.21395807 0.10163847
0002e0 65 43 ad 3d 64 ae fb 3c 82 5e 71 bd 93 6a 27 be
       0.0846012 0.030722804 -0.05892802 -0.16349249
0002f0 fa df 96 3c 62 29 80 3d 8e 57 05 3e 50 61 7c bd
       0.018417347 0.06257893 0.1302168 -0.061616242
000300 77 25 7c bd 17 26 13 bd 5e f5 9f 3c 54 df df 3b
       -0.061559167 -0.035924997 0.01952618 0.0068320427
000310 5f 4e 26 bd 4a 7b 3f bc 4a e5 d9 3d aa 00 bb 3c
       -0.040602084 -0.011687109 0.106394365 0.022827465
000320 39 ca b5 3d b8 e5 ac 3d f9 5f 19 3d 5a e2 82 3d
       0.088764615 0.08442253 0.037445042 0.063908294
000330 34 9d fb bc ca 29 f2 3d f7 9b 17 be a3 29 06 bc
       -0.030714609 0.11824377 -0.1480559 -0.008188638
000340 c9 0b 9b bd 61 9c a8 bc 59 8e c1 bd bf 85 04 be
       -0.07570607 -0.02058238 -0.09450979 -0.12941645
000350 eb 27 2d be b4 ca 18 3e d2 9e d1 bd fd 9e f9 3d
       -0.16909759 0.14921075 -0.10235371 0.12188528
000360 dd 95 83 bd d1 ac 0c ba 18 25 19 3b 5b ea ab bd
       -0.064250685 -0.0005366328 0.0023368057 -0.08394309
000370 4b f3 43 3d b2 df c0 bd 88 74 5a bd 41 cb 31 bd
       0.047839444 -0.094176665 -0.05333379 -0.04340673
000380 d3 f7 a0 bd 52 8d 13 be 28 15 27 bd 27 22 ef 3d
       -0.07859769 -0.14409378 -0.04079166 0.11676436
000390 6f b6 0a be 7f 29 9c 3c a5 bf ee bd e1 6b 98 bd
       -0.13546155 0.019062756 -0.11657647 -0.07442451
0003a0 a9 f3 6a bb d2 62 9f bc b8 6e 3e 3d 7d 25 05 3e
       -0.00358508 -0.0194563 0.04649231 0.13002582
0003b0 4c cc 27 3e 1d a6 10 3c 0d 07 a7 3d cd 1e 4e be
       0.16386527 0.008828667 0.08155642 -0.20128937
0003c0 4f 5d d5 ba cb 64 1d 3e 3e 35 13 3d e7 1c 99 3d
       -0.0016278418 0.1537048 0.035939448 0.07476216
0003d0 24 c2 fa 3d 2f a9 64 ba 49 7c d9 3d 11 3b 83 bd
       0.12244061 -0.000872272 0.10619409 -0.064077504
0003e0 aa 43 29 3c a2 6b c1 3c 6c 0a fb bc b4 97 96 bd
       0.010331074 0.023610894 -0.030644618 -0.07353154
0003f0 0f cf 8e 3d 50 1b 03 3e 8e 2a 92 3d 34 4f 4f be
       0.06973087 0.12803388 0.07137023 -0.20245057

a2c_network.actor_mlp.2.weight f4 [128, 256]
000000 e8 ef fd 3d db d9 e0 3e f4 f1 13 be cb 15 2c be
       0.12399274 0.4391621 -0.14447767 -0.16805188
000010 c1 e4 f1 3c 29 44 2a 3d 3c 83 a9 bd bd 6b 91 bd
       0.029528024 0.04156891 -0.08276984 -0.071006276
000020 da 34 f8 bd ae 49 48 3e 69 8a 1c be d4 b6 47 be
       -0.12119456 0.19559357 -0.15287174 -0.19503337
000030 c4 b8 c5 bd bc 2f 7d be 6f 06 08 bf b6 e4 25 be
       -0.09654382 -0.2472524 -0.53134817 -0.16200528
000040 1d a7 3c 3e 8f 16 75 bd d8 e1 15 3d 2c 4d 21 be
       0.18423124 -0.059835967 0.036592335 -0.15752095
000050 92 5d 12 3d 3b 14 62 be 84 28 68 3e 88 ab c0 bd
       0.035733767 -0.2207803 0.22671705 -0.09407717
000060 01 ce c1 ba 28 39 b2 bd 66 9b 6d bd 65 45 c7 be
       -0.0014786125 -0.08702308 -0.058009528 -0.3892013
000070 71 32 ae 3e ac 63 70 3e ac 53 79 3e 88 3d 9b be
       0.3402286 0.23475522 0.24348325 -0.30320382
000080 a4 6f 80 be 01 2b 97 be 12 00 fa 3d cf 34 11 3e
       -0.25085175 -0.29524997 0.12207045 0.14180301
000090 bb cb 8d 3c 73 c1 61 be 11 6d 87 3d 0c aa 78 3e
       0.01730906 -0.22046451 0.066126 0.24283618
0000a0 2a 7d e2 3d 78 f8 80 be c9 7f 2c bb db 68 7c 3d
       0.110590294 -0.25189567 -0.0026321283 0.061623435
0000b0 02 36 20 bd 63 80 9f be 8e 57 b6 3c a0 9f 72 3d
       -0.039114006 -0.3115264 0.022258546 0.05923426
0000c0 fc 1e 37 bd 61 1f 0c be 5b ac 83 be c8 92 80 3e
       -0.044707283 -0.13683845 -0.25717434 0.25111985
0000d0 4c 3c ce 3d ef 16 8a 3e 7e 4b 3a 3e 67 1d 23 3e
       0.100700945 0.26970622 0.1819286 0.15929185
0000e0 7b dc f2 3c 0c e8 f8 bd ba b6 47 be 9c 9f 8a be
       0.029646149 -0.121536344 -0.19503298 -0.27074897
0000f0 1e 2c af 3c aa 02 d4 bd e9 57 9d be 97 a0 b4 be
       0.021383341 -0.10352071 -0.30731133 -0.3527877
000100 3a ee 8f 3e 11 44 33 3e 08 dc c0 3e 2c 2d 16 bf
       0.2811144 0.17506434 0.3766787 -0.58662677
000110 87 08 32 be cf a4 c5 bd 52 d9 a3 be 1b fd c9 bd
       -0.17386065 -0.09650575 -0.3200174 -0.09862729
000120 11 cd dd bd f8 65 b2 be 46 b4 2a 3e 81 57 35 be
       -0.10830129 -0.3484342 0.16670331 -0.17709161
000130 c3 95 78 be 92 47 8d be 67 ff 68 be 1a 6a d8 bd
       -0.2427588 -0.27593666 -0.22753678 -0.10567112
000140 b4 f0 ae 3e 94 b6 e9 bd 87 da 07 bc 03 be 3b 3e
       0.34168017 -0.11411777 -0.008291847 0.18334202
000150 0e 24 ab bd 2f 05 66 3e 1b 8a 3a bd 06 f4 58 3e
       -0.08356486 0.22462915 -0.045541864 0.21186838
000160 23 58 24 be 3f b5 aa 3d ac 62 65 3e 5f 51 94 bd
       -0.16049246 0.08335351 0.22400922 -0.07242083
000170 f9 4f 4c 3e cf 10 6d bd 7c 4e d8 3e 9e b6 b3 3d
       0.19952382 -0.057877358 0.4224738 0.08775066
000180 c5 18 71 bd 39 bb 0e be b5 e3 a9 bd a5 08 d0 3d
       -0.058861513 -0.13938607 -0.08295385 0.10157899
000190 48 82 03 bf f6 f9 db bd 2f bc 1c be 9c a4 29 be
       -0.5137067 -0.10741036 -0.15306161 -0.165667
0001a0 59 c2 65 be bc 8b 43 be 68 81 64 3e a5 f4 5c bc
       -0.22437419 -0.19096273 0.2231499 -0.013486062
0001b0 3f 24 e8 bd f9 81 5c bd 91 1c a0 bd f6 85 89 3e
       -0.113350384 -0.05383489 -0.078179486 0.26860017
0001c0 ca cc 93 be 71 8b b1 bd ee e1 a8 3d 7c 20 f1 3c
       -0.2886718 -0.086691745 0.08246218 0.029434435
0001d0 eb 14 64 bd ed a7 82 be d4 c7 3a 3c 0d cb 95 be
       -0.05568401 -0.25518742 0.011400182 -0.29256478
0001e0 20 c5 4c be 71 22 9c 3e 6a 5c e9 3d 60 ff 83 3d
       -0.19997072 0.30495027 0.1139458 0.06445193
0001f0 82 b7 06 3e ed 40 37 3e 9a f0 62 be 9f 13 60 bb
       0.1315594 0.17895861 -0.22162095 -0.0034191383
000200 8a e3 24 bd 2c f9 09 bd c3 48 b1 3e f9 8a 79 be
       -0.04025606 -0.033684894 0.34625825 -0.2436942
000210 e9 09 48 3e a3 f9 4a be a4 76 6c be c0 1d 84 bc
       0.1953503 -0.19821791 -0.23092133 -0.016127467
000220 45 11 33 be e2 d0 58 3e ad 8d 5c be 17 ff 09 be
       -0.17487057 0.21173432 -0.2153842 -0.13476215
000230 2d 26 96 be 23 25 78 be c8 c6 96 bd 05 3b 8e 3e
       -0.29326 -0.24232917 -0.07362133 0.27779403
000240 3a b1 5e 3e 99 73 3f be 71 af 0e 3e ec c4 ac 3e
       0.21747294 -0.18696441 0.13934113 0.3374399
000250 73 27 ec 3c 70 51 ce bd c0 28 d1 bd 74 b8 6c be
       0.028827405 -0.10074127 -0.102128506 -0.23117238
000260 38 55 6f bd fe 62 15 3e fc 41 ad 3e c1 e9 54 3d
       -0.05843088 0.14588544 0.33839405 0.051980738
000270 2c 3d 38 be e6 7b 6c bd 08 77 aa be 16 64 9d 3d
       -0.17992085 -0.057735346 -0.3329394 0.076851055
000280 64 c8 0b be b6 00 10 3b d9 35 5f 3d 35 24 24 3e
       -0.13650662 0.002197308 0.054494713 0.16029437
000290 54 b1 5f 3e 78 87 b4 3c a6 6b 85 bd ae f9 11 be
       0.21844989 0.022037253 -0.06514673 -0.14255401
0002a0 61 02 6b 3e 73 7c d5 3e 52 6a ce 3c 4a 44 97 bd
       0.22950126 0.4169651 0.025197182 -0.07386072
0002b0 6f d3 f2 bd 3b 3e 89 bd cf 11 2c be f9 04 f1 3c
       -0.11856734 -0.06701323 -0.16803668 0.029421316
0002c0 27 95 ee bd 0e ba cc bd 58 29 46 be bf 22 fa bc
       -0.11649542 -0.099964246 -0.19351709 -0.030534146
0002d0 fa f2 74 be 25 63 b6 be f7 af 82 3e 0b 53 a6 3d
       -0.23920813 -0.35622516 0.25524876 0.08121308
0002e0 31 66 f1 bd 4a 3b a9 bd 41 1b a8 3e df 1a 51 be
       -0.117870696 -0.082632616 0.32833293 -0.20420407
0002f0 a9 4e d4 be 10 76 99 3d 46 ca a8 3c 1e a3 83 be
       -0.41466263 0.07493222 0.020604264 -0.25710386
000300 ca eb 4f 3d 70 98 83 3e 02 c9 5a 3d 05 ab 69 be
       0.050761975 0.25702238 0.053414352 -0.22819145
000310 ff a0 c3 be 59 95 67 be 40 54 6b 3e e1 08 2e 3e
       -0.38208768 -0.22615565 0.22981358 0.16995575
000320 21 55 ef 3d ca 48 3b 3d cb 48 ac 3e 68 0d 6e bd
       0.11686159 0.045723714 0.33649287 -0.058118254
000330 03 1f a3 be 12 e1 10 be c4 5d b5 bd c3 98 91 be
       -0.31859598 -0.14148358 -0.08855775 -0.2843686
000340 c6 75 a1 3a 43 35 07 3e 50 ca 3e 3e ef bd 9f be
       0.0012318424 0.13203911 0.18631864 -0.31199595
000350 04 c2 84 bd 62 05 eb 3c 11 b8 a8 bc 0d 9c de 3d
       -0.06482318 0.02868909 -0.020595582 0.10869608
000360 b6 04 58 be 59 fd 76 bd a3 9b a8 3e 76 46 cd bc
       -0.21095547 -0.060300205 0.3293124 -0.025058012
000370 91 86 64 3c b2 b3 1d 3e 19 8f 7e 3d e4 16 af be
       0.013948099 0.1540058 0.062148187 -0.34197152
000380 11 aa d9 be 14 a7 4c be e5 be 78 be 9e 54 00 3e
       -0.42512563 -0.1998561 -0.2429157 0.12532279
000390 6a da 18 be ab d7 fb 3b 0d 3c b8 be 5b a1 5f be
       -0.14927068 0.0076856217 -0.35983315 -0.21838896
0003a0 bd 86 52 be 9d 10 10 3e 8e 49 06 be d2 e2 22 3e
       -0.20559211 0.14068837 -0.13113996 0.15906838
0003b0 c2 e4 18 3e 81 a5 00 bd fc 0f 6c 3e 6a 9b 9b bd
       0.14931014 -0.031407837 0.23052973 -0.07598002
0003c0 3c 4b 69 3e 47 bf ca 3d fb 30 98 be 7c 99 82 be
       0.22782606 0.098997645 -0.2972487 -0.25507724
0003d0 f1 4a 8b be bd 50 68 3d 99 04 8d 3c 8e 9d 07 be
       -0.27205613 0.056717623 0.017214106 -0.13243696
0003e0 03 42 6c 3e a7 6f fa 3d ce fc a9 be 0d eb 07 be
       0.23072056 0.12228327 -0.33200687 -0.13273259
0003f0 a0 6c c9 3b 3a 43 74 3e 6c 59 ef 3d 95 32 b2 be
       0.0061469823 0.2385377 0.11686978 -0.34804216

a2c_network.actor_mlp.2.bias f4 [128]
000000 57 74 18 3e 5d 89 56 3e 93 be 9f be 00 7e 20 3e
       0.1488813 0.20950837 -0.31200084 0.15673065
000010 4d 1f a1 3d d1 fa 21 be f2 ca d9 bd 49 fc b3 bb
       0.07867298 -0.15818335 -0.10634412 -0.005492721
000020 72 6f a0 3d 5b 2d 56 3e fe aa 42 be b3 d9 32 3e
       0.078337565 0.20915739 -0.19010541 0.17465858
000030 47 3e 5e 3e 4a b6 ea bc 7e a9 2b be c6 9c 8b bd
       0.21703444 -0.028651375 -0.16763875 -0.068170115
000040 7d 55 a9 3d 81 69 04 3e 21 88 8c 3d 38 aa 38 be
       0.08268259 0.12930872 0.06861902 -0.18033683
000050 13 c2 d2 3b a7 8e 9d bc 16 18 24 be b7 d0 31 be
       0.006431827 -0.019233061 -0.16024813 -0.17364775
000060 79 0d b3 be a6 2e 06 be 24 c0 8c be 23 f3 d1 3d
       -0.34971216 -0.13103732 -0.27490342 0.10251453
000070 83 ac 01 be 35 de 1e bd 2e d2 4f be 17 e6 52 be
       -0.12663464 -0.038786132 -0.20295021 -0.20595585
000080 db 8e 10 be 1a f5 b6 bd 1b 96 ad be 90 8c ea 3d
       -0.14116995 -0.08933468 -0.33903584 0.114525914
000090 df 9e ee 3d 2f b9 7d bd 55 e5 38 3e 97 21 02 bd
       0.11651396 -0.061944183 0.18056233 -0.031770315
0000a0 7a f2 fb 3c 2c fe 66 3d 1b cc b0 3d 31 b7 e0 3d
       0.03075527 0.05639474 0.0863268 0.10972441
0000b0 22 b6 37 3e 89 32 f4 bd be 5e 57 3d ea c9 d7 bc
       0.17940572 -0.11923701 0.052580588 -0.026341397
0000c0 4f f2 55 3e 88 94 fe 3d e6 08 0c 3e 76 a6 1f 3e
       0.20893215 0.12430674 0.1367527 0.15590844
0000d0 95 8e 25 3e 94 f7 50 3d 8d ae 29 be b3 cc 1d 3e
       0.16167672 0.05101736 -0.16570492 0.15410118
0000e0 d0 8a 48 3e 08 44 9b bd 97 90 6a 3d ed 25 fb 3d
       0.19584203 -0.07581335 0.057266798 0.12263093
0000f0 35 4c 40 3e dd b6 28 3e 7e 02 bd 3c e7 5a c1 3d
       0.1877907 0.16476007 0.023072477 0.09441166
000100 16 ef 12 be 58 0c 53 3e 76 78 b1 3c bf 5b a9 3d
       -0.14349017 0.20610178 0.021663886 0.08269452
000110 5c ac b9 bd f4 82 bb be 15 6b 05 3e b8 78 70 be
       -0.09066078 -0.36623347 0.1302913 -0.2348355
000120 5a 3d 38 be 45 f4 68 bc e7 fe cf bd d5 f2 69 be
       -0.17992154 -0.014218395 -0.10156041 -0.2284654
000130 d1 3c dd 3c 72 5d 8a bc d8 be c2 be 10 a1 21 be
       0.027006539 -0.016890261 -0.38036227 -0.15784097
000140 03 a6 62 3d 9a a3 44 3c c4 b2 25 3e 57 48 6b 3d
       0.055334102 0.012001896 0.16181475 0.057442036
000150 71 16 76 3e bc 2a a0 3d 60 01 7e 3d b6 76 ae bc
       0.24031998 0.07820651 0.06201303 -0.02129684
000160 43 7b 15 3e aa ca 0d be 09 08 a7 3b cf d2 85 3b
       0.14597802 -0.13846841 0.0050973934 0.0040839682
000170 43 19 fe 3d eb 3f 6e bd 53 e0 88 3c b7 be 4f 3e
       0.12407162 -0.058166426 0.016708529 0.20287596
000180 69 c1 21 3e da c9 aa bd b4 ab 2d be 4e 8e 83 3d
       0.15796436 -0.083392814 -0.16960031 0.06423627
000190 f8 cf bf 3d 07 eb 3b bc ee 4a bc 3a 6d c9 36 be
       0.09365839 -0.011469609 0.0014365593 -0.17850275
0001a0 9e 5e 31 be 8f 63 63 3e 57 ee a3 3d c7 34 6e 3d
       -0.1732125 0.22205947 0.08004444 0.0581558
0001b0 d3 de 2d 3e 2e 4a 2d bd 7f 5b d2 3a ec 42 1f be
       0.16979532 -0.04230707 0.0016048996 -0.15552872
0001c0 ea 15 d2 bc bf d3 08 3b 9e db 0b 3e 5c b4 81 be
       -0.025645215 0.0020878164 0.13657996 -0.25332916
0001d0 81 0a 46 3e 8a 99 21 3d 2d 23 61 be ea e8 5f bd
       0.19339944 0.039453067 -0.21986075 -0.054665484
0001e0 e3 cc ef bd 2a 4a 17 3e 14 93 06 be a7 57 e6 bd
       -0.11709001 0.14774385 -0.13142043 -0.11247187
0001f0 57 79 f1 3b 1e 12 50 3d 9f a5 22 3e 19 04 8d 3c
       0.007369201 0.050798528 0.15883492 0.017213868

a2c_network.actor_mlp.4.weight f4 [64, 128]
000000 ea dd 59 bd bb 81 71 be 19 74 98 3e a4 ec 59 be
       -0.05319015 -0.23584644 0.29776075 -0.21281677
000010 5e 25 e6 be 86 b6 ec bd ef 18 52 3e a1 e1 71 3e
       -0.44950384 -0.11558251 0.20517324 0.23621227
000020 99 e3 f9 be c4 84 d4 bc 16 79 8b 3e e8 27 d8 3d
       -0.48806456 -0.025942214 0.2724082 0.105544865
000030 a1 db cb be de fb 1a 3e 1a 7d 5a be 96 bb 66 39
       -0.39816 0.15135142 -0.21336785 0.0002200439
000040 8b 86 4b 3e 56 bb 9b 3d bd 77 82 be 1d 62 ce bc
       0.19875543 0.07604091 -0.25481978 -0.025193268
000050 c9 14 94 3d 0d c2 12 3d 0e 3d 4a be 49 c5 b5 3e
       0.07230527 0.035829592 -0.19749853 0.3550208
000060 26 c9 64 3e d9 29 d2 3d 5c 42 72 3e c6 37 da bd
       0.22342357 0.10261888 0.23658127 -0.10655169
000070 13 51 cd bd 86 de 9b 3d 0c d1 22 3e 9f b7 3e 3e
       -0.10025229 0.07610802 0.15900058 0.18624733
000080 56 9a 9b 3d a8 ba 12 bd 9b e7 03 3e f2 46 19 3e
       0.075977966 -0.03582254 0.12881319 0.1496847
000090 47 a3 6e 3b 08 ce fa bd 53 9b d9 bd 62 02 31 3e
       0.003641324 -0.122463286 -0.10625329 0.17286065
0000a0 30 f0 60 be 59 88 80 bd a1 1e 1e bf 86 e9 ef be
       -0.21966624 -0.06276006 -0.61765486 -0.46857852
0000b0 59 60 b6 bd 4f 1a c0 3d d0 78 ca bb 2a 25 31 3c
       -0.089050956 0.09380018 -0.0061789528 0.010812083
0000c0 69 b0 4c be 9e 3c f3 be 54 89 e4 bb cb d2 e5 bd
       -0.1998917 -0.47507185 -0.0069743786 -0.11221846
0000d0 b5 ec 6f bd eb a3 a7 bd 68 a0 c7 bd 4f ff 6f bd
       -0.05857535 -0.08185562 -0.09747392 -0.05859309
0000e0 c2 ce 12 be 35 fc 55 3d 12 7f 39 be dc 4b 9d bd
       -0.14336684 0.052242476 -0.1811488 -0.07680485
0000f0 db ec 84 be b1 94 0a be 76 8a 70 3e db c9 ce bd
       -0.25961956 -0.13533284 0.23490319 -0.100970946
000100 7b 51 ac bd 8b 6b 2a be f1 53 16 3c 03 31 0b bc
       -0.08413979 -0.16642587 0.009175287 -0.008495572
000110 2a d5 f5 3b 80 0b d0 3d e0 8a 96 3c be 4e 57 3e
       0.007502218 0.101584435 0.018376768 0.21026132
000120 27 b2 56 3e 22 4d d0 3c ec f7 67 bc 0b 18 6e 3e
       0.20966397 0.025427405 -0.01415823 0.23251359
000130 94 9b 27 3e 37 e2 89 3e 75 ae 7c 3e 68 69 82 3d
       0.16367942 0.269304 0.24675925 0.06367761
000140 67 b8 3c 3e 1d ee 26 be 5f 64 7d bd dc 94 be be
       0.18429719 -0.1630177 -0.0618633 -0.37222946
000150 eb a5 77 be ac fb 6a 3d 76 7f 3d bd 48 3e 33 bd
       -0.24184386 0.05736892 -0.046264134 -0.043760568
000160 ff ae b7 3d 96 c6 51 be a6 c6 4c 3d ab 7a b7 3b
       0.08968925 -0.20485911 0.049994133 0.00559934
000170 a9 e0 3a 3e ac 79 3f bd 71 cc 0f be 00 4b 75 3d
       0.18249764 -0.046746895 -0.14042832 0.05988598
000180 b8 c5 1e 3e 35 28 8c bd 06 af 30 3e c6 c1 15 be
       0.15505111 -0.068436064 0.17254266 -0.146247
000190 9c 8d aa bd 42 80 4f 3c 00 f8 35 3e 36 5b 4f bd
       -0.08327791 0.012664856 0.17770386 -0.050624095
0001a0 a3 50 9a 3d 42 14 8c be 69 e5 5f be d0 70 8c bc
       0.075349115 -0.27359205 -0.21864857 -0.017143637
0001b0 c5 b8 4b 3d 6d 91 50 3d 88 cb 3b bd 3d 83 81 bc
       0.049736757 0.05091994 -0.0458484 -0.01580965
0001c0 07 7c 6f 3b 5c b2 85 3e bf 3e fe bd d7 11 08 3e
       0.0036542432 0.2611264 -0.124143116 0.13288055
0001d0 89 03 f6 bc 05 c3 6e bd 09 18 6a 3e 3d 02 aa 3e
       -0.030030983 -0.058291454 0.22860731 0.33204833
0001e0 36 e2 ec 3d 18 5e e7 be f2 39 45 3d 68 54 50 3d
       0.11566584 -0.45188975 0.048150964 0.050861746
0001f0 7f db b2 3d 38 f5 6d be 6f bd 09 be d3 75 d4 3d
       0.08733272 -0.23238075 -0.1345117 0.10374036
000200 4b 4f e7 3d 27 72 26 3e 5e 11 7f be a2 78 19 3e
       0.11294421 0.16254483 -0.24908969 0.14987424
000210 55 c9 8d 3d b7 c6 0b be 98 fc b4 bd ad e4 db 3d
       0.06923167 -0.13650022 -0.08837241 0.10736976
000220 f6 ca 2a 3e d6 20 e3 3c 58 df 8a be e1 87 80 3e
       0.16678986 0.027725618 -0.27123523 0.25103667
000230 ae f6 d7 3d aa c9 5b 3d dd 12 48 3e 2c 63 e6 bd
       0.10545097 0.05365912 0.19538446 -0.11249384
000240 d7 e3 1c bc 01 7c 1d 3e 94 7e c6 3d 79 83 87 bd
       -0.009575806 0.15379335 0.096921116 -0.06616873
000250 c1 c8 79 3d f7 4d 6f bd a6 51 9e bd c8 a7 75 be
       0.06098247 -0.058423962 -0.07730417 -0.23989785
000260 63 75 6c be 29 68 00 bc 83 5d 39 be 34 30 05 3e
       -0.23091654 -0.007837334 -0.18102078 0.1300667
000270 8e c5 12 bd 1f 86 67 3d 66 2e a0 be b3 dd 39 be
       -0.035832934 0.056524392 -0.312854 -0.18150978
000280 47 09 ea bd 63 8a 28 bd a9 ba 82 bd 2d f5 4b bd
       -0.11427551 -0.0411476 -0.06383259 -0.049794365
000290 64 75 f8 bb 2d 33 28 3d a0 19 89 3d 64 7a 03 be
       -0.0075823534 0.04106443 0.06694341 -0.12839657
0002a0 0e de 52 3d a3 3a ed 3c 90 24 1e 3e 6d 0d cc 3d
       0.0514813 0.028958624 0.15443635 0.09963498
0002b0 93 af dd 3d 74 0d 4a be 8c eb 60 bd ba 04 4d bd
       0.10824504 -0.19731694 -0.054912135 -0.050053336
0002c0 97 b9 19 3e 93 be 4e 3e 29 70 3a 3e 04 a2 ad 3d
       0.15012203 0.20189886 0.18206848 0.08478168
0002d0 40 84 04 3e 37 d4 4e bc d1 86 e1 bd 2b 19 1d 3e
       0.12941074 -0.012623838 -0.11012042 0.15341632
0002e0 c6 76 96 3d 72 90 95 3c f3 51 b5 3c d4 a1 ef 3c
       0.07346873 0.018257353 0.022133803 0.02925197
0002f0 84 6e 77 3e d8 0f 63 3d 1f 3f 8b bd b2 74 27 bd
       0.24163252 0.05543503 -0.06799149 -0.040882774
000300 c0 45 f3 bd 6e 80 59 3e 97 42 c9 3c 8f 3b 63 3d
       -0.11878538 0.21240398 0.024567885 0.05547672
000310 c5 96 85 bd 87 5c c8 be fd 93 26 bd 91 54 74 be
       -0.06522898 -0.39133093 -0.040668476 -0.23860385
000320 26 5c b6 bd 2a a7 d1 3c 53 6c fb 3b 3b 34 93 be
       -0.08904295 0.025592405 0.0076728254 -0.28750786
000330 9b 8d 11 bc 64 40 26 be 0b a3 a0 be a9 27 15 be
       -0.008883859 -0.162355 -0.31374392 -0.1456591
000340 55 5c fe 3d 4a 02 00 3e 97 72 8d 3d a7 dc e9 3d
       0.12419955 0.12500873 0.06906622 0.11419039
000350 8b 7b 84 3d 96 8b b5 3e 58 ed 88 3d 8f 02 0e bd
       0.064688765 0.35458058 0.06685895 -0.03467041
000360 2d 8a 9b 3d a7 ee 25 be da 46 8a 3d d3 4e af 3c
       0.07594714 -0.1620432 0.06751795 0.021399891
000370 5a 7e 3e 3e e6 63 92 3d 74 45 11 bd 3f 6c 91 3d
       0.18602887 0.0714796 -0.035466626 0.071007244
000380 12 90 a3 3c a6 7d 1e 3d 3d 88 68 be 1e 04 67 3e
       0.019966159 0.038694046 -0.22708221 0.22560164
000390 79 8a 5b 3d 89 79 94 bc 6c b4 2f bd ab f4 16 be
       0.053598855 -0.018124359 -0.042896673 -0.14741771
0003a0 16 32 35 bd e2 28 02 3e a9 57 08 3e 3e 22 13 bd
       -0.04423722 0.12710908 0.1331469 -0.035921328
0003b0 69 19 06 3e 71 69 42 bd 0c e7 8a 3c 19 8b 31 bd
       0.1309563 -0.047463838 0.016955875 -0.043345544
0003c0 f5 6c aa 3d 23 ff 4f 3d eb 03 eb 3d bd 66 24 be
       0.08321563 0.050780427 0.11475357 -0.16054817
0003d0 f1 ae 4d 3e a1 9e f8 3b d9 2d 7d be d0 da 61 be
       0.20086266 0.0075872694 -0.2472452 -0.22056127
0003e0 87 d8 0c be a6 78 e2 3e 7c c1 02 bd a1 0e 1b 3e
       -0.13754474 0.44232672 -0.031922802 0.15142299
0003f0 16 c8 3e bd 67 94 2f 3e cb ef 34 3e 91 3d 1b 3e
       -0.046577536 0.17146455 0.17669599 0.15160204

a2c_network.actor_mlp.4.bias f4 [64]
000000 46 b2 5b be 12 45 5a 3e 66 25 ce 3c f9 1e e1 bd
       -0.21454725 0.2131541 0.025164317 -0.10992236
000010 81 e2 9c 3e ff fd 14 bd e6 21 a0 3a 51 a3 e1 3d
       0.3064156 -0.036375042 0.0012217134 0.11017478
000020 a8 9b fe 3b d6 5c b7 3b 0a dd 8b be 11 6f 97 3d
       0.0077700205 0.0055957837 -0.27317077 0.07394231
000030 3b c2 b9 bc 41 fd 8b 3e c3 12 4e bd 67 9c c2 3d
       -0.022675624 0.27341655 -0.05031086 0.09502488
000040 b5 2b 87 3d c7 7e 07 be 2f 83 0e 3d 51 64 67 3e
       0.06600133 -0.13231955 0.034793075 0.22596861
000050 97 7c 96 3d de c6 68 bd bf f5 90 3d a3 69 81 bc
       0.073479824 -0.05683028 0.07078122 -0.015797442
000060 6d 87 61 be a7 3c fb bd 8b e1 f2 ba 9e 22 2d 3e
       -0.22024317 -0.12267428 -0.0018530352 0.16907737
000070 31 99 45 3e c1 a5 68 3e 35 f7 21 bd f1 ac 7d 3e
       0.19296719 0.2271948 -0.039542396 0.24773003
000080 1d c4 25 be 42 30 53 be 88 ff 5b 3d 47 c3 2e bc
       -0.16188093 -0.20623878 0.05371049 -0.010666675
000090 0c ca 25 3d 2c e0 9a be d1 75 00 3e 25 1b d6 3d
       0.04047589 -0.30249155 0.12544943 0.10454396
0000a0 2c 0e 9f 3e 31 d0 19 be e1 e6 5c be aa 90 3b 3e
       0.310655 -0.15020825 -0.21572448 0.18316904
0000b0 af e3 f4 bd 14 53 64 3d 1e 67 a1 bd fc 7c 1f 3d
       -0.1195749 0.055743292 -0.07880996 0.038937554
0000c0 89 ae be be 4a bd b0 3d 52 2a 1f bd c9 f6 27 bd
       -0.37242535 0.08629854 -0.03885872 -0.041006837
0000d0 97 2e 01 3e d6 ea 23 be 72 86 58 3e 82 40 6a 3d
       0.12615429 -0.16007552 0.21145037 0.057190426
0000e0 d3 a9 6d be 9d 47 8d bc ee 3f bd 3d 9b 6e 8e 3d
       -0.23209314 -0.017246062 0.09240709 0.0695469
0000f0 fd 6c cc bd ed 9e c9 bc 22 51 88 bd 12 f1 0d 3e
       -0.09981725 -0.024611915 -0.066561 0.13861492

a2c_network.value.weight f4 [1, 64]
000000 62 90 a3 be 80 22 6b 3e 9f c5 83 3e c0 37 ba be
       -0.31946093 0.2296238 0.2573671 -0.3637066
000010 a7 9c a6 3e 96 03 ec be 92 7f 97 3e 9a 2b 5b 3e
       0.3254139 -0.46096486 0.29589516 0.21403351
000020 d8 57 8d 3e 47 0d 81 bf 9f 6a 73 bf 7d aa 77 3e
       0.27606082 -1.0082177 -0.95084566 0.2418613
000030 98 6a 08 bf 5c 05 9a 3e 23 98 8a bf 62 49 3b 3e
       -0.5328765 0.30082214 -1.0827678 0.18289712
000040 18 50 70 3e ee 45 97 bf 77 81 ea be cb 43 8a 3e
       0.23468053 -1.1818216 -0.458019 0.27004847
000050 df f0 a7 3e f7 93 bb be 73 db fe be 45 c8 d3 be
       0.32800958 -0.36636326 -0.497768 -0.4136373
000060 a4 78 aa be d3 dc d5 be 08 54 c4 bc 45 3a 83 3e
       -0.33295166 -0.41770038 -0.02396585 0.25630394
000070 a0 12 58 3e 18 85 7f 3e a7 93 d0 be c6 73 9c 3e
       0.21100855 0.24953115 -0.4073765 0.30557078
000080 5b b1 96 bf c3 83 1c bf 2a 21 ca be 95 4c cf be
       -1.1772875 -0.6113855 -0.39478427 -0.40488115
000090 72 e3 39 3f e2 e8 95 bf f4 5f a2 3e 74 4d 71 3e
       0.7261268 -1.1711695 0.3171383 0.23564702
0000a0 b4 97 90 3e 99 e5 cb be 29 f2 69 bf 70 42 84 3e
       0.2824074 -0.39823607 -0.9138513 0.25831938
0000b0 29 7c 20 bf 31 b8 fc be ac b7 04 bf 09 0d 53 3d
       -0.62689453 -0.49359277 -0.5184276 0.051526103
0000c0 96 d1 d0 bf 89 1b 81 3e 9a ab 8d bf f9 18 ae be
       -1.631396 0.2521632 -1.1067994 -0.34003428
0000d0 2a 8f 9c 3e e8 1b 1a bf 50 28 98 3e 61 53 8d 3e
       0.30577976 -0.6019883 0.29718256 0.27602676
0000e0 83 08 57 bf 40 be a3 bf 6b 8d 98 3e d5 10 22 bf
       -0.8399736 -1.2792435 0.29795393 -0.63306934
0000f0 3e 03 84 bf 07 88 e2 be 23 86 69 bf 98 8e 76 3e
       -1.031349 -0.44244406 -0.912203 0.24077833

a2c_network.mu.weight f4 [4, 64]
000000 11 b4 4b bd c4 70 b8 3c fb 23 35 3d ed 3a 01 3a
       -0.04973227 0.022514708 0.044223767 0.000492974
000010 e8 67 86 bd e0 30 46 3c d8 ff b5 3d c8 c9 47 bc
       -0.06562787 0.012096614 0.08886689 -0.0121941045
000020 0f e2 44 be 44 f5 3e 3d d3 0e 0c be d1 cb b4 3b
       -0.1922686 0.046620622 -0.1367753 0.005517461
000030 f5 3d 51 bd 8b 0b 01 bd 8d ee 29 3d 42 e8 0c 3e
       -0.051084477 -0.03150515 0.041487265 0.13760474
000040 f3 23 49 3d 9b be 07 be 7a e5 87 3c 24 39 09 3e
       0.04910655 -0.13256304 0.016588915 0.13400704
000050 d2 6d 86 bd ee c8 82 bc 34 5f ce 3d 8f 13 de 3c
       -0.06563915 -0.015964951 0.10076752 0.027108936
000060 12 a6 d5 bc 7e 22 1a 3b 39 2d 7e be 29 79 66 3d
       -0.026080165 0.0023519094 -0.24821939 0.05626789
000070 7f 07 54 3c 33 83 b9 3b d4 32 cf 3c ef f3 91 3d
       0.01294124 0.005661392 0.025292791 0.07126605
000080 13 9c 0e 3d ed 24 6e 3c 6a c7 1d 3e 32 15 f3 3b
       0.034816813 0.014535171 0.15408102 0.007418298
000090 40 2e 9e 3d 76 00 e8 3d 7c ee cf bc a6 91 a4 bc
       0.07723665 0.11328213 -0.025382273 -0.020088982
0000a0 6f 14 29 bd ba d3 a1 3d 41 82 37 3e 37 51 be bd
       -0.041279253 0.07901712 0.17920782 -0.09292834
0000b0 03 da 68 3d 0f e9 7b be c1 9a 15 bc 0b 9b c8 be
       0.056848537 -0.24600624 -0.0091311345 -0.39180788
0000c0 99 2e 50 bc 36 db 52 3d cc 9b f8 3b 78 57 f5 bd
       -0.012706422 0.051478587 0.007586932 -0.11979574
0000d0 c2 b6 c3 3c a0 d4 e5 3b 10 0b 27 be 87 8d 5e 3c
       0.023890857 0.0070138723 -0.16312814 0.013583547
0000e0 2d 33 c8 bd b1 06 80 bd 7f f5 8d 3c 3b d5 df 3c
       -0.09775386 -0.06251276 0.017328976 0.027323356
0000f0 df fb a1 bd 7f cf b3 3c 78 cf ab ba 75 b3 48 3c
       -0.07909369 0.021949528 -0.0013108095 0.012249817
000100 e1 a5 0b be 79 0c d5 3d 71 56 34 be 52 35 f9 bc
       -0.13637497 0.104027696 -0.176111 -0.030420933
000110 81 88 6e bd 9c 24 87 bd 16 f1 84 bc 9c 44 6f 3c
       -0.05823565 -0.065987796 -0.01622824 0.01460376
000120 0d 65 65 be 0b 8a 3d 3b 8c 9c 5a 3c 73 21 47 3a
       -0.22401829 0.0028921391 0.013342988 0.0007596232
000130 83 a2 88 bc 67 63 40 bc 00 af 3d bd 94 09 e6 3b
       -0.016679054 -0.011742449 -0.04630947 0.007020185
000140 c7 b8 45 bd c5 93 a4 bd 08 70 17 3c c0 5f 5f bc
       -0.04827192 -0.08035997 0.009243019 -0.013633668
000150 c8 15 2c bd 70 d9 87 3d 18 c7 c9 bc 90 49 47 3c
       -0.04201296 0.0663327 -0.024631068 0.012163535
000160 8b d3 9e 3d 02 c8 2b bd 14 f1 da 3d 44 41 42 bc
       0.07755192 -0.04193879 0.10690513 -0.011856381
000170 a4 86 a9 3d 47 3a a1 3d 34 94 ed bc a6 8a 8e 3c
       0.08277634 0.07872444 -0.029001333 0.017400097
000180 04 e9 39 3d 35 70 ed 3c 82 a4 02 bd 40 81 59 3d
       0.045388237 0.028984169 -0.031895168 0.053101778
000190 d6 68 86 bd e2 d3 33 bd 3a b6 83 bd 53 93 37 bd
       -0.065629646 -0.04390324 -0.06431241 -0.044818234
0001a0 1d 0d a4 3c 9a 2b bc bd a9 f0 f4 3d 9d 9c d7 3d
       0.020025784 -0.09188004 0.11959965 0.105279185
0001b0 e7 9d 51 bd 96 74 c7 bc de fd b0 3c ac 48 38 3e
       -0.051175978 -0.024347585 0.021605428 0.17996472
0001c0 f4 ac 2f bd 45 de e1 3b ce a2 59 bd b1 56 ba bd
       -0.04288955 0.0068929517 -0.05313378 -0.09098566
0001d0 cd f7 f7 bc 55 0d 8a 3c 26 2f 36 3c ad d6 e2 bc
       -0.030269528 0.01685206 0.0111196395 -0.027690256
0001e0 6d 5d 14 bc bd 0d 6d 3b c7 3c 12 bd 03 db b1 3c
       -0.009055478 0.0036171519 -0.035702493 0.021710878
0001f0 77 3d b1 bc 7d c9 42 3d 3f e7 a8 3d b6 4e d5 bb
       -0.021635754 0.047555435 0.08247232 -0.006509627
000200 58 bf f9 bc 3f 08 02 3d 00 83 10 3d d2 de e1 3c
       -0.030486748 0.031746145 0.03528118 0.02757207
000210 ac bc da 3c d3 44 a5 3c a3 34 7b 3b 05 76 43 bc
       0.026701294 0.02017442 0.0038330934 -0.0119299935
000220 83 b1 0e 3c 9d 9f d8 bb 1f cf 02 bd 99 9a cf b8
       0.008709314 -0.0066108243 -0.031935807 -9.899325e-05
000230 d4 95 bd bc e9 2a 70 38 bf 51 86 bb 01 d1 fb 3c
       -0.023142733 5.7260422e-05 -0.0040991004 0.03073931
000240 8c 9c dd 3a e1 ec ef 3c 83 73 82 3c ad c8 ba bc
       0.0016907617 0.029287757 0.01592422 -0.022800768
000250 22 7f bc 3b 67 98 26 bc 72 8a 4e bc 69 df 9b 3a
       0.00575246 -0.0101681715 -0.01260625 0.0011892143
000260 f8 e4 3b 3c ba 8e 8a bc ae ee 06 bd af e3 c9 bc
       0.011468165 -0.01691376 -0.032942466 -0.0246447
000270 71 b8 b9 bb 8f 20 93 bc cb b4 00 3d e7 f8 06 bd
       -0.005667739 -0.017959861 0.031422418 -0.032952216
000280 fe be 21 bc 25 59 b6 bc 8e 95 5c 3d d1 80 8f bb
       -0.009872196 -0.022259304 0.053853564 -0.00437937
000290 21 37 85 ba d4 f6 4a 3c c1 ef 8a 3b 74 d3 08 3b
       -0.0010163524 0.01238795 0.0042400067 0.002087799
0002a0 ff dc 6f bc 50 f4 38 ba ec 68 31 bc 59 61 88 3c
       -0.014640092 -0.00070554484 -0.010828238 0.016647981
0002b0 60 1a 16 bd 7b 78 4f 3c b9 a1 09 3c 2c 75 8c 3b
       -0.036646247 0.012663002 0.008400374 0.004286429
0002c0 c7 5a 16 bc 4f c2 40 3c 52 ff 11 bd 49 a2 5b bc
       -0.009176916 0.011765077 -0.035643883 -0.013405391
0002d0 af fe 58 bc 3f f8 bb 3c f9 53 df 3c cc 72 9f ba
       -0.013244315 0.022945521 0.027261721 -0.001216495
0002e0 f2 44 0f bb 6a da c2 bc 4a d4 8c bc 70 cf b2 3c
       -0.0021861163 -0.023785789 -0.017191071 0.02182743
0002f0 fd bb 03 3b 79 ae a7 3c 3a a9 6a bc 40 ea a5 bb
       0.0020101063 0.020468937 -0.014322573 -0.005063325
000300 de 60 dd 3c 9c e5 3a 3d 54 a9 dc 3c d6 e9 50 3c
       0.027023729 0.04562913 0.02693621 0.012751063
000310 d1 81 6b bc 10 8a 96 3c 9a 8b 85 3c 33 d7 94 bb
       -0.014374212 0.01837638 0.016301919 -0.0045422553
000320 df db 0e 3d 1a bd de 3c 83 be 19 bd 73 34 84 3c
       0.034877654 0.02718978 -0.0375352 0.016138291
000330 4c 64 17 bd 5a a7 b8 bc fb 26 57 bd a3 3b 29 3d
       -0.036960885 -0.022540737 -0.05252741 0.04131664
000340 24 88 69 3d eb cf 4f bc d8 3a 08 3d 84 f2 75 bd
       0.0570146 -0.012683849 0.033259243 -0.060045734
000350 06 fa a5 bb 7e 34 07 bc 99 0b 00 3d a8 c4 09 bd
       -0.0050652055 -0.008252261 0.03126106 -0.03363481
000360 70 ef 6c bd fc 2b f4 bb bf 5b 2c bd 08 60 fd bc
       -0.057845533 -0.0074515324 -0.042079683 -0.03092958
000370 71 70 8f bc 4f 0a 0c bd 6f e8 37 3c 79 de 83 3c
       -0.01750967 -0.03418952 0.01122485 0.016097294
000380 5d 31 8c 3c 27 05 49 bc c7 e4 0d 3d 8d 45 ff bc
       0.017113382 -0.012269295 0.034642007 -0.031161094
000390 b2 a4 5d bd 66 d5 82 3d d6 e4 5e bc f8 c0 3a 3c
       -0.054112144 0.06388359 -0.013604363 0.011398546
0003a0 0b 11 37 3d bd 23 01 3c 28 15 85 3d dd 29 ab 3c
       0.044693988 0.007882056 0.06498176 0.020893985
0003b0 ce 58 c7 bc 5a 54 20 bd c9 9c 1d bc 8d c2 01 3d
       -0.024334338 -0.039142944 -0.0096199 0.03167968
0003c0 91 80 49 bd 42 a3 1d 3b 0b e8 c2 bb 63 28 39 bc
       -0.049194876 0.0024053608 -0.005948072 -0.011301133
0003d0 41 f2 72 bc 0b 70 30 3b dc c9 02 3d ad f2 80 3c
       -0.014828266 0.0026922252 0.03193079 0.015740717
0003e0 5a b1 84 bb 5e 2d ef bc 7c cf c1 bc 44 94 a4 bb
       -0.0040494623 -0.029196437 -0.023658507 -0.0050225575
0003f0 11 18 f4 3c e8 1a 62 3c c7 6d 7e bc e9 7f 81 bc
       0.029796632 0.01380036 -0.015529103 -0.015808063

a2c_network.mu.bias f4 [4]
000000 54 5b 95 3c f9 88 c1 3c 33 34 8f 3c 88 60 e0 3b
       0.018232025 0.023624884 0.017480945 0.006847445

exp_avg f4 [4]
000000 ce f6 16 ba 93 38 52 b9 ae a0 33 b8 de d5 a2 b8
       -0.00057588227 -0.00020048236 -4.282657e-05 -7.764598e-05

exp_avg_sq f4 [4]
000000 10 c8 8b 34 45 0f 79 34 9c 92 52 34 17 bf 31 34
       2.6036332e-07 2.3195487e-07 1.961111e-07 1.6553928e-07

exp_avg f4 [256, 12]
000000 26 f2 49 38 b1 8e b8 b9 24 95 03 ba 27 48 e8 b8
       4.8147653e-05 -0.00035201528 -0.0005019477 -0.000110760615
000010 18 77 b0 38 6f 32 6c 39 90 1e 45 b8 98 02 57 39
       8.414517e-05 0.00022525502 -4.6996924e-05 0.00020504964
000020 d3 db eb 37 04 0a fc b9 98 70 80 b9 b2 48 15 b9
       2.8116547e-05 -0.00048072648 -0.0002449795 -0.00014236828
000030 70 4e 23 b8 3c 5f 6a 39 2a a8 81 39 1b ec 25 b6
       -3.893528e-05 0.00022351457 0.0002473009 -2.4724347e-06
000040 60 20 5a b8 2a cf 07 b9 d8 2b 98 38 79 9e ae b8
       -5.20054e-05 -0.00012951778 7.256091e-05 -8.3264844e-05
000050 9c 56 27 b8 0c 71 96 39 52 ad 17 39 08 fb 0b 39
       -3.9896564e-05 0.00028694456 0.00014465049 0.0001334959
000060 52 51 23 b8 6c 9a 23 38 63 95 d8 39 e8 65 90 39
       -3.8937964e-05 3.9006045e-05 0.00041310032 0.00027541746
000070 f1 c9 37 b6 95 87 1b b6 f2 12 68 39 cb dc 2e 38
       -2.738667e-06 -2.317572e-06 0.00022132302 4.1690462e-05
000080 6d 45 42 b8 8a d4 a3 b7 70 74 a1 37 30 c8 0c b9
       -4.6317862e-05 -1.9530085e-05 1.9246916e-05 -0.00013426016
000090 f4 d0 b8 b7 fa 47 89 b6 1b fa b1 b8 84 98 a9 b8
       -2.203181e-05 -4.0912973e-06 -8.4866035e-05 -8.086956e-05
0000a0 7e 76 a1 38 61 7a 3c b8 0e a1 b2 38 fd 97 7d b7
       7.699149e-05 -4.4936667e-05 8.5177e-05 -1.5115363e-05
0000b0 42 99 c3 b7 e8 8b dc 38 3e b2 7a b8 4c 55 3b 38
       -2.3317178e-05 0.00010516477 -5.9770646e-05 4.4663713e-05
0000c0 fb 26 85 b6 15 63 9d b8 d3 5c c5 b8 69 ba b5 b8
       -3.968247e-06 -7.504799e-05 -9.410982e-05 -8.665474e-05
0000d0 83 5f a8 38 1c f2 06 37 df 88 37 39 1e ae b9 38
       8.028655e-05 8.043393e-06 0.00017503228 8.853919e-05
0000e0 2b 16 18 b8 24 a8 fd 36 69 e5 25 b9 99 59 99 38
       -3.626027e-05 7.5595617e-06 -0.00015821088 7.3122974e-05
0000f0 85 8a 0f 38 e0 f5 83 b8 44 e6 e3 b8 2c 33 70 38
       3.4222863e-05 -6.2923646e-05 -0.00010867094 5.7268117e-05
000100 b8 73 16 b7 96 bd df 37 fe 9e 76 b6 49 68 cf b8
       -8.96764e-06 2.6671954e-05 -3.6749402e-06 -9.889954e-05
000110 f3 b4 6b 38 f0 6e e7 b8 2c 1a 86 b7 0c 26 94 b7
       5.619689e-05 -0.00011035602 -1.5986232e-05 -1.7660692e-05
000120 5a 24 00 b8 82 0f 2b 37 b8 a9 4d b7 8d 7b 9b b8
       -3.0551433e-05 1.0196005e-05 -1.2258468e-05 -7.413989e-05
000130 ab 8f 17 38 eb 71 83 b7 f4 bc de b6 f4 fd 4d 38
       3.6135007e-05 -1.5669464e-05 -6.6381126e-06 4.911232e-05
000140 98 bb 28 b8 7d 45 af 38 55 d8 c4 b8 1e 43 9d 38
       -4.022903e-05 8.3575935e-05 -9.386303e-05 7.498845e-05
000150 ec f0 86 36 19 24 f8 b5 4b 02 70 38 17 d6 5f 38
       4.021558e-06 -1.8487946e-06 5.7222594e-05 5.336673e-05
000160 38 61 94 b7 fc b0 fc b6 e8 58 02 38 df 64 45 b8
       -1.7688246e-05 -7.530789e-06 3.1077216e-05 -4.7062404e-05
000170 1d 9f 12 37 f4 ce e2 b7 02 c0 90 38 ee c3 89 37
       8.739325e-06 -2.703767e-05 6.902219e-05 1.642291e-05
000180 75 39 3d b8 43 5e 66 39 67 0c 20 3a 16 31 04 39
       -4.5114622e-05 0.00021969625 0.0006105364 0.00012606787
000190 d3 6d ed b7 97 7c 3f b9 f8 b1 72 39 6a 11 c4 b8
       -2.8303743e-05 -0.00018261593 0.00023145217 -9.349252e-05
0001a0 e1 a8 39 b8 b4 b7 bd 39 1e 15 41 39 9d 67 3f 39
       -4.4264718e-05 0.0003618576 0.00018413781 0.00018253778
0001b0 7d 9b 9f b7 06 1c 21 39 1f 8b 47 39 22 ad 62 37
       -1.9026682e-05 0.00015364596 0.00019029946 1.351096e-05
0001c0 82 b1 ba b6 24 03 c0 b8 17 2d 6c 38 2a 2c 4a b8
       -5.5638966e-06 -9.1558584e-05 5.6308778e-05 -4.8201684e-05
0001d0 c0 cc e9 b7 a5 46 67 39 af 2d 3e 38 c6 e5 bc 38
       -2.7871109e-05 0.00022056194 4.5342076e-05 9.007337e-05
0001e0 40 03 31 b8 7e 12 20 39 f3 3a f4 39 15 e8 42 39
       -4.2203115e-05 0.00015265678 0.00046583227 0.00018587739
0001f0 e7 e8 f2 b7 f8 c2 d2 b8 2b c4 74 39 1b ef aa b8
       -2.8957102e-05 -0.00010049896 0.00023342732 -8.1507686e-05
000200 cd d1 20 b8 7f d5 3f 39 e9 60 c1 38 df 3d 4b 38
       -3.8342365e-05 0.00018294713 9.221008e-05 4.8456594e-05
000210 e1 23 da b6 fb 19 58 b8 ac 80 99 38 44 c4 e4 38
       -6.501083e-06 -5.152261e-05 7.3195755e-05 0.000109084445
000220 be b3 e2 37 84 18 2b 37 bb 68 21 39 b7 d6 96 b7
       2.7024998e-05 1.0198102e-05 0.00015393172 -1.7981378e-05
000230 a3 60 72 b6 4f 2f aa b8 c5 3c df b7 36 28 95 b8
       -3.611706e-06 -8.1150436e-05 -2.661197e-05 -7.1123635e-05
000240 04 49 66 b8 af ce 64 b8 f4 18 7e 39 7c d6 e6 38
       -5.4904274e-05 -5.4551925e-05 0.00024232623 0.000110072055
000250 08 30 9a 38 f0 ea b5 37 0c ba 82 39 f4 c7 11 39
       7.352239e-05 2.1686283e-05 0.00024934148 0.00013902766
000260 3d d3 bd b8 08 45 4a b8 9a 1c f9 b8 e2 34 d9 b8
       -9.0515685e-05 -4.8224843e-05 -0.00011878573 -0.000103572165
000270 22 aa 9f 38 86 45 2b b9 4f 13 01 ba 20 ef e8 b8
       7.6134005e-05 -0.0001633373 -0.00049238367 -0.000111071626
000280 6f 89 87 37 79 43 97 38 7c 9c 9c b8 f8 f6 08 b9
       1.6157252e-05 7.212809e-05 -7.467807e-05 -0.00013061974
000290 77 88 c0 38 c7 09 1d b9 ab dc 1a b9 35 65 27 37
       9.180692e-05 -0.00014976329 -0.0001476879 9.97754e-06
0002a0 75 5d a1 37 b4 d1 3f b9 15 f4 7d b9 2b ca bf 37
       1.9236215e-05 -0.000182933 -0.00024218888 2.2863116e-05
0002b0 e9 36 03 38 e4 bb e2 38 2f f5 01 b9 d2 9b 73 38
       3.1283973e-05 0.00010811517 -0.00012393737 5.8080834e-05
0002c0 87 c6 8c 37 83 78 82 b9 13 0d da b8 6c 54 09 b9
       1.6781747e-05 -0.0002488532 -0.00010397485 -0.00013096788
0002d0 5a 43 00 39 41 5f 37 ba 99 65 31 ba 0a 67 73 39
       0.00012232122 -0.000699509 -0.00067671534 0.00023212671
0002e0 d1 86 d9 38 86 32 03 3a b7 4d 91 b8 31 9f dd 39
       0.00010372478 0.0005004782 -6.928614e-05 0.00042271012
0002f0 4a f4 e4 38 5a 3a 92 ba ba ee cd b9 65 e0 12 ba
       0.000109173896 -0.0011156306 -0.00039278512 -0.00056028954
000300 15 bc e5 37 b4 ea 85 37 ee 31 b7 38 ad 2c 8d 38
       2.738651e-05 1.5964128e-05 8.73542e-05 6.7317254e-05
000310 ac 12 0d b8 d9 eb 9d 35 7e d1 9a 38 1b e4 25 b8
       -3.363441e-05 1.1766052e-06 7.382313e-05 -3.9551505e-05
000320 15 b7 e9 37 e0 e4 da b7 26 df 61 38 93 21 40 37
       2.7861019e-05 -2.6094203e-05 5.3852003e-05 1.1451909e-05
000330 f2 c0 91 37 ca 66 1b b9 10 77 ba b9 ac aa 17 b9
       1.7375194e-05 -0.00014820244 -0.00035565393 -0.00014464062
000340 8e 13 2f 38 0d e4 ea 38 9b 92 88 b8 bc f2 04 39
       4.1741463e-05 0.00011200467 -6.512293e-05 0.00012678927
000350 c6 7b 8c b6 bb 9a 0f b9 77 68 24 b9 45 27 fa 37
       -4.1867343e-06 -0.00013695184 -0.00015679175 2.9820609e-05
000360 c1 35 bc b5 93 83 02 39 44 92 69 39 69 7e 21 38
       -1.4022736e-06 0.00012446781 0.000222751 3.850312e-05
000370 14 97 13 b8 5c 10 db b8 83 db 6f 38 c0 01 fc b8
       -3.5188234e-05 -0.00010445781 5.7186477e-05 -0.00012016622
000380 72 2a 72 37 36 bf 28 39 75 dc 19 39 8d 35 03 39
       1.4434207e-05 0.0001609296 0.00014673344 0.00012513083
000390 bf 40 18 38 82 dd 9a b8 84 3d bf b9 8e 84 82 b8
       3.6299924e-05 -7.384551e-05 -0.00036476192 -6.223573e-05
0003a0 23 69 1a b7 82 40 04 38 e4 31 3a b9 7c bc be b8
       -9.203594e-06 3.153133e-05 -0.00017756928 -9.095014e-05
0003b0 b9 ad 90 38 bd ae 35 b8 77 fd 07 b7 3c 78 96 38
       6.8988134e-05 -4.33165e-05 -8.105641e-06 7.174953e-05
0003c0 cb b1 98 b6 4b 1e a1 38 ba f4 d3 38 fa 95 ad 38
       -4.550651e-06 7.682721e-05 0.00010106848 8.277218e-05
0003d0 c4 e9 53 b7 74 e8 86 b8 48 d0 e8 38 85 65 0c b9
       -1.2631008e-05 -6.432916e-05 0.000111014175 -0.0001338926
0003e0 00 ab e6 36 ff 72 a8 38 c3 67 c1 36 f2 0a 2b 38
       6.874441e-06 8.032284e-05 5.7639277e-06 4.077977e-05
0003f0 b0 b4 2c 37 39 14 d5 b8 b7 38 6f b9 89 ee 1e 38
       1.02940685e-05 -0.00010160398 -0.00022813944 3.789229e-05
