logs/rl_games/klask/sim_distance_ro_a0_1/nn/klask.pth (torch, 29978 bytes, 24 tensors)

a2c_network.sigma f4 [4]
0	0xbff4f111	-1.9136068
1	0xc004bba8	-2.0739536
2	0xbe85232e	-0.26003402
3	0xbe3d5657	-0.18489967

a2c_network.actor_mlp.0.weight f4 [32, 12]
0	0x3fbf140d	1.4927994
1	0x3ee34287	0.44386694
2	0x3e3c30a6	0.18377933
3	0xbd950348	-0.072760165
4	0x3df8ccb0	0.12148416
5	0xbe302d62	-0.17204812
6	0xbc542c23	-0.012949976
7	0x3cd92c96	0.026510518
8	0xbf87c002	-1.0605471
9	0xbf92827a	-1.1446068
10	0xbeddbd44	-0.4330846
11	0x3d8d09f6	0.068866655
12	0xbfaa6dcf	-1.3314761
13	0xbf463b65	-0.7743438
14	0xbdba4985	-0.09096054
15	0xbd4aec26	-0.049541615
16	0x3df2ae95	0.11849705
17	0x3d126d08	0.03574851
18	0x3dded145	0.10879759
19	0xbda920cc	-0.08258209
20	0x3f888fce	1.0668886
21	0x3f5bae5d	0.8581293
22	0xbd752a48	-0.059854776
23	0x3eb342de	0.35011953
24	0xbfc2d909	-1.5222484
25	0x3e41a7e7	0.18911706
26	0xbd832a83	-0.06404593
27	0x3decc52e	0.115610465
28	0xbd28dd87	-0.04122689
29	0xbe2fb8c4	-0.17160326
30	0x3cba6e32	0.022757623
31	0xbbe817d6	-0.0070829196
32	0x3f93a6b6	1.1535251
33	0xbf8cd4b4	-1.1002412
34	0x3dcfaff6	0.10140984
35	0xbeb2419b	-0.34815678
36	0x3dfc3045	0.12313894
37	0xbf950381	-1.1641694
38	0x3da18fbc	0.07888743
39	0xbd776d4e	-0.060406975
40	0xbe040b54	-0.12894946
41	0x3e2f9664	0.17147213
42	0x3c847eb4	0.016173698
43	0x3d20813e	0.039185755
44	0xbe891e4f	-0.26780936
45	0x3f4f5372	0.809867
46	0x3e77487f	0.24148749
47	0xbf0a8608	-0.54110765
48	0x3f4fe5df	0.8121013
49	0xbfadc295	-1.3575007
50	0x3dea7f1e	0.11450027
51	0xbcb1cebe	-0.021705028
52	0x3ddb0819	0.10694904
53	0xbdeb5909	-0.114915915
54	0x3c7d6106	0.015465027
55	0xbcac3fee	-0.021026578
56	0xbf2335b1	-0.637538
57	0x3f0d16af	0.5511274
58	0x3e7e251d	0.24818845
59	0x3ef27bce	0.4736008
60	0x3fb214c3	1.3912586
61	0xbf8ffe78	-1.1249533
62	0x3db058f2	0.08610715
63	0xbe0a44b7	-0.13502775
64	0xbdb179f1	-0.086658366
65	0xbd33bb15	-0.043879587
66	0xbb7ac59a	-0.0038264752
67	0xbbeb6e2e	-0.0071847653
68	0xbfb81a96	-1.4383113
69	0xbe6461bb	-0.22302906
70	0xbece74f0	-0.4032359
71	0xbeb6cb7b	-0.35702118
72	0x3e8dde26	0.27708548
73	0x3f243fde	0.64159954
74	0x3e135293	0.14386968
75	0x3c5780c9	0.013153263
76	0xbdb64f61	-0.08901859
77	0xbd2c2e52	-0.042036362
78	0x3d62a3a7	0.055331852
79	0xbc35026f	-0.0110479435
80	0xbf1f2728	-0.6216912
81	0x3f2fa878	0.6861644
82	0x3b4c1fb8	0.0031146836
83	0xbf262216	-0.6489576
84	0x3f459886	0.7718586
85	0xbe8a16bd	-0.26970473
86	0xbe312125	-0.172978
87	0x3d6b488d	0.057442237
88	0xbdc4b284	-0.09604362
89	0xbe62f1f4	-0.2216261
90	0xbb113de1	-0.0022162127
91	0xbbf72467	-0.0075421813
92	0xbe92da20	-0.2868204
93	0xbfb9addc	-1.4506183
94	0xbe936e1c	-0.28794944
95	0xbf4394e8	-0.7639909
96	0xbf2dfbac	-0.67962146
97	0xbfc01a8c	-1.5008101
98	0xba594adf	-0.000828905
99	0xbdcbbb72	-0.09947862
100	0xbddda5a3	-0.10822608
101	0xbe44790e	-0.19186804
102	0x3b108d4b	0.0022056873
103	0xbb9dcc2a	-0.004815598
104	0xbe8f790b	-0.28022036
105	0xc0190af2	-2.391293
106	0xbe99874d	-0.2998604
107	0xbf7610dc	-0.96119475
108	0xbf488f1e	-0.7834338
109	0xbf7413c1	-0.9534264
110	0xbdf3602a	-0.11883576
111	0x3bc6a833	0.0060625314
112	0x3d7e96a8	0.062155396
113	0xbe14726f	-0.14496778
114	0x3cbefdad	0.023314321
115	0x3bda6300	0.0066646338
116	0x3f86bfed	1.0527321
117	0x3ec62307	0.386986
118	0x3f05e80f	0.5230722
119	0x3e255e7a	0.16149321
120	0xbefd0c95	-0.49423662
121	0xbd713b95	-0.058894712
122	0xbbaac30a	-0.0052112387
123	0x3ef49f40	0.47777748
124	0xbde68467	-0.112557225
125	0x3d2c5b27	0.042079117
126	0xba26ae56	-0.00063583755
127	0x3bbc9dea	0.0057561295
128	0x3e079612	0.13240841
129	0xc048d12e	-3.1377673
130	0xbd252b1b	-0.04032431
131	0xbfbd24e7	-1.4776887
132	0x3e0c0226	0.13672695
133	0xbf8efdd8	-1.1171217
134	0xbd6c4809	-0.057685886
135	0xbe3d99ee	-0.18515751
136	0x3e8c33be	0.27383226
137	0xbda2fc91	-0.079583295
138	0xb86f8501	-5.710591e-05
139	0x3c028a09	0.00796748
140	0x3f24f329	0.6443353
141	0xc011511e	-2.270576
142	0x3ec2f30b	0.38076052
143	0xbf7b108e	-0.98072135
144	0xbf6ec3fd	-0.93267804
145	0x3ea72705	0.32646957
146	0x3e9a875f	0.30181405
147	0xbeddf605	-0.4335176
148	0xbcd465db	-0.025927475
149	0x3e6668f0	0.22500968
150	0x3c0ace4a	0.008472035
151	0xbc1e6eb0	-0.009669945
152	0x3f81f53f	1.0152968
153	0x3f213195	0.6296628
154	0x3ec100de	0.37695974
155	0x3ed890cf	0.4229798
156	0x3e88210c	0.26587713
157	0xbf374462	-0.7158872
158	0x3d9a48bf	0.075334065
159	0xbdaefd5c	-0.08544418
160	0x3d74493d	0.059640158
161	0xbe05fa31	-0.13083722
162	0xbd5b0edf	-0.05348098
163	0xbd667b42	-0.05626989
164	0xbf04c785	-0.5186694
165	0x3cd608e4	0.026127286
166	0x3e4d7a06	0.2006608
167	0xbeb5be02	-0.35496527
168	0x3e2026b9	0.15639772
169	0x3f997cbc	1.1991191
170	0x3cd72373	0.02626202
171	0xbe6316a0	-0.221766
172	0x3e1aae66	0.1510559
173	0xbcf93f51	-0.0304257
174	0x3e096d73	0.13420658
175	0x3d481804	0.048851028
176	0xbf4329c5	-0.7623561
177	0x3d9fcd1b	0.07802793
178	0x3e60f49f	0.21968316
179	0xbea2a0f7	-0.3176343
180	0x3f68a6eb	0.90879697
181	0x3f2cbf58	0.6747947
182	0x3b7898d7	0.0037932897
183	0xbd912413	-0.07086959
184	0xbc330c62	-0.010928245
185	0xbad8f66f	-0.0016552935
186	0x3cb6c1e6	0.022309255
187	0x3d377795	0.044791777
188	0xbf4bf2be	-0.7966727
189	0xbf02c8ea	-0.5108782
190	0x3dec2cf0	0.11532009
191	0x3eddef5d	0.43346682
192	0x3e6cff0f	0.23144172
193	0xbee0c58e	-0.43900722
194	0xbe9df82e	-0.3085341
195	0xbed011d6	-0.40638608
196	0xbd9d2a6c	-0.07674107
197	0x3e423c49	0.1896831
198	0x3cf0bfc4	0.029388316
199	0x3c785c34	0.015158702
200	0xbf9af3e8	-1.2105684
201	0xbe117b1e	-0.14207122
202	0xbed20e90	-0.41026735
203	0x3ee7a1dc	0.45240676
204	0x3faa2b45	1.3294455
205	0x3ead72a9	0.3387654
206	0x3d17e7b9	0.037086222
207	0x3bbb3079	0.0057125655
208	0x3e1626ad	0.14663191
209	0x3e638eb8	0.22222412
210	0x3c145235	0.009052803
211	0xbd44b0f0	-0.048020303
212	0xbfb652df	-1.424404
213	0x3f1e347b	0.6179883
214	0x3e54bb9d	0.20774694
215	0x3ce41e71	0.027846547
216	0x3f8a27de	1.0793417
217	0xbf67566a	-0.9036623
218	0x3c8fd757	0.017558737
219	0x3e0eb31a	0.1393551
220	0x3da03a98	0.07823676
221	0x3c457e8f	0.0120541
222	0x3cb4881f	0.022037564
223	0x3d3c809f	0.0460211
224	0xbf4ac4e1	-0.79206663
225	0x3dae7c46	0.08519797
226	0xbec3b2b5	-0.3822228
227	0xbe6e1da7	-0.23253499
228	0x3bfc556e	0.0077006137
229	0xbe14903c	-0.14508146
230	0x3e35475a	0.17703
231	0x3da00140	0.078127384
232	0x3d77500b	0.06037907
233	0xbd41e702	-0.047339447
234	0xbc250a7c	-0.0100733
235	0xbac0c9c1	-0.0014708565
236	0xbf4cad7a	-0.79952204
237	0x3eadd478	0.33951163
238	0x3d99a0b9	0.075013585
239	0xbee051de	-0.4381246
240	0xbef6da80	-0.48213577
241	0xbfa0ef7f	-1.2573088
242	0xbd3d03df	-0.04614627
243	0xbe54922b	-0.20758884
244	0x3e7f3346	0.24921903
245	0x3b24bb58	0.002513608
246	0x3b5362d5	0.0032254953
247	0x3bf1aa0d	0.007375008
248	0x3f6319fa	0.8871151
249	0xc00fa892	-2.2446637
250	0x3dfe9c2d	0.12432132
251	0xbf926d0f	-1.1439532
252	0xbf762f52	-0.96165955
253	0x3f8e2a8b	1.1106733
254	0xbe0b40d2	-0.13598946
255	0x3d1273ce	0.03575497

a2c_network.actor_mlp.0.bias f4 [32]
0	0xbe14b6d3	-0.14522867
1	0x3e623513	0.22090559
2	0xbe9a0bee	-0.30087227
3	0xbd3234c8	-0.043507367
4	0xbdda4df8	-0.106594026
5	0xbe2ef382	-0.17085078
6	0xbbd4891b	-0.006486071
7	0xbf368c10	-0.7130747
8	0x3b9c9007	0.0047779116
9	0xbe5c5243	-0.21515755
10	0x3e769dc1	0.24083616
11	0x3c6989d6	0.014254054
12	0x3df613c3	0.12015488
13	0xbe9759f5	-0.2956082
14	0xbe265434	-0.16243058
15	0x3e104635	0.14089282
16	0x3de471ef	0.111545436
17	0x3dd88b00	0.10573387
18	0xbe9aa7c4	-0.3020612
19	0x3ef73114	0.4827963
20	0x3ddc6ba4	0.10762718
21	0x3ee29f6b	0.4426225
22	0xbd9584d9	-0.07300729
23	0x3e8b9310	0.27260637
24	0x3eaf4ed3	0.34239826
25	0xbe20d2c2	-0.15705398
26	0xbf08b4e0	-0.53400993
27	0xbdcc0851	-0.09962524
28	0xbd6535f0	-0.055959642
29	0x3ddb6b0e	0.107137784
30	0xbf00cfef	-0.5031728
31	0xbe2096fc	-0.15682596

a2c_network.actor_mlp.2.weight f4 [32, 32]
0	0x3ecdb22e	0.40175003
1	0xbe6d479a	-0.23171845
2	0x3e802a0e	0.25032085
3	0xbf2cd08f	-0.67505735
4	0x3ddcbc9b	0.10778161
5	0xbe3de9f1	-0.18546273
6	0xbe149f15	-0.1451381
7	0x3ee8b5e5	0.45451275
8	0xbebfbe94	-0.37450087
9	0x3e387c98	0.18016279
10	0xbe2c70da	-0.16839924
11	0xbe3ac4c0	-0.18239117
12	0xbd94c3c7	-0.07263904
13	0x3ddbf1b6	0.10739462
14	0x3ea9577f	0.33074567
15	0x3ed9b738	0.42522597
16	0x3c8a5883	0.016887909
17	0xbe4918ec	-0.19638413
18	0xbc86c3a2	-0.016450707
19	0xbede466b	-0.434131
20	0xbe4fbcf9	-0.20286931
21	0xbf0114c1	-0.5042229
22	0x3eafb999	0.34321287
23	0xbec9c026	-0.3940441
24	0xbf14dc19	-0.5814834
25	0x3d9bfe77	0.07616895
26	0x3ecd702f	0.40124652
27	0x3f03f21e	0.51541317
28	0x3dd51df2	0.10406102
29	0x3ddc5efa	0.10760303
30	0x3f29abb2	0.6627761
31	0x3e319831	0.17343213
32	0xbf0e67e9	-0.55627304
33	0x3e98386b	0.29730543
34	0x3f3e8bc3	0.7443201
35	0xbf35fefe	-0.7109221
36	0xbe59d0aa	-0.21271005
37	0xbf422cd5	-0.7584966
38	0xbe9c921a	-0.30580217
39	0xbe26d848	-0.16293442
40	0x3e44a2cf	0.19202732
41	0x3e4c2562	0.19936135
42	0x3f01733a	0.50566447
43	0x3cb7a7ac	0.02241882
44	0x3e927608	0.28605676
45	0xbed5742b	-0.41690192
46	0xbe33243c	-0.17494291
47	0xbd63adbb	-0.055585604
48	0xbe45e913	-0.19327192
49	0xbf118d27	-0.56856006
50	0xbf2501d5	-0.6445592
51	0xbe847539	-0.25870684
52	0x3e0f09e1	0.13968612
53	0x3d88c213	0.06677642
54	0xbe94b778	-0.29046226
55	0xbeda3ef4	-0.42626154
56	0xbf2120fc	-0.62940955
57	0x3b80e200	0.0039331913
58	0x3dabb2ec	0.08383736
59	0xbe980876	-0.29693955
60	0x3f2ae307	0.66752666
61	0x3c4b0a92	0.012392657
62	0x3ee27966	0.44233245
63	0x3ea5fd19	0.3241966
64	0x3ddc1abe	0.10747288
65	0xbe15e58d	-0.14638348
66	0x3dd185cc	0.10230598
67	0x3c3b0e4e	0.011416985
68	0x3e3d3c19	0.18479957
69	0x3e95d8ce	0.2926697
70	0x3e0f5449	0.13996996
71	0x3ec1e59f	0.378705
72	0xbe1f684e	-0.15567133
73	0x3e39b600	0.18135834
74	0xbf19d62a	-0.60092413
75	0xbd88c318	-0.06677836
76	0xbe6c7cc3	-0.23094468
77	0x3ecc95cc	0.39958036
78	0x3cf20154	0.029541649
79	0xbf09b8b4	-0.5379746
80	0xbe8c5de3	-0.2741538
81	0xbe97ffe8	-0.29687428
82	0x3eecb213	0.4622961
83	0xbed0196d	-0.40644398
84	0xbe2201c1	-0.15820982
85	0xbee2c40a	-0.4429019
86	0xbd54de09	-0.05196956
87	0xbeb0d2cf	-0.34535834
88	0xbe8e3858	-0.27777362
89	0xbe7c50d8	-0.24640214
90	0x3f28f71c	0.6600206
91	0x3e0fce5a	0.1404356
92	0x3da29695	0.079388775
93	0xbe029f4d	-0.12756081
94	0x3ec0c4eb	0.37650236
95	0x3e9dcbaf	0.3081946
96	0xbee0a008	-0.43872094
97	0x3ee0046b	0.4375337
98	0xbf0648c1	-0.52454764
99	0xbe17bfdd	-0.14819284
100	0xbd538d5c	-0.051648483
101	0xbe71fb09	-0.23630919
102	0xbd913c5e	-0.07091592
103	0xbf00844f	-0.50201887
104	0x3dcba3a8	0.09943324
105	0xbd1d5d79	-0.03841922
106	0x3f0d6609	0.5523382
107	0xbc8d70ea	-0.017265756
108	0x3ecf1e41	0.4045277
109	0xbf16fe62	-0.5898191
110	0xbeb07259	-0.3446224
111	0x3e8c8416	0.27444524
112	0x3dd0d68a	0.1019717
113	0x3e63fb6b	0.22263877
114	0xbf040a1d	-0.5157793
115	0x3e845f3f	0.25853917
116	0x3e8a2944	0.26984608
117	0x3dad31ee	0.08456789
118	0x3eccf68f	0.4003186
119	0x3f1c5906	0.6107334
120	0x3eed937b	0.4640158
121	0xbefb1df0	-0.49046278
122	0xbf12705a	-0.57202685
123	0xbe6978b9	-0.22799958
124	0x3db4eea0	0.088345766
125	0x3eb994ae	0.36246246
126	0xbf2995fd	-0.6624449
127	0xbf06e91d	-0.5269945
128	0xbe237063	-0.15960841
129	0x3e29e124	0.1658979
130	0xbd998983	-0.074969314
131	0x3f553061	0.83276945
132	0x3eea5643	0.45768937
133	0x3f043837	0.5164828
134	0x3e43f196	0.19135126
135	0xbe8d1797	-0.2755706
136	0x3d6221c0	0.055207968
137	0x3e4405f2	0.19142893
138	0xbf9a2b14	-1.2044396
139	0xbcdcaa50	-0.02693668
140	0xbf08799b	-0.53310555
141	0x3e5b81bc	0.21436208
142	0xbea91021	-0.33020118
143	0xbf503c4b	-0.81342
144	0xbe6ea380	-0.23304558
145	0xbe70d753	-0.2351964
146	0x3ef13ee8	0.47118306
147	0x3e2eba2d	0.17063208
148	0xbd670367	-0.05639973
149	0x3e398ca1	0.18120052
150	0xbedfca86	-0.437092
151	0xbe573220	-0.21015215
152	0x3d468bd1	0.048473183
153	0xbe727420	-0.2367711
154	0x3e027360	0.12739325
155	0xbe84ed32	-0.25962216
156	0xbe060093	-0.13086157
157	0x3dba311a	0.09091397
158	0xbe7f4e96	-0.24932322
159	0xbe15ced0	-0.14629674
160	0xbf1c0f0c	-0.6096046
161	0x3f217dde	0.63082683
162	0xbe6680ec	-0.22510117
163	0x3dbfe92d	0.093706466
164	0xbe4c83aa	-0.19972101
165	0xbe9607a6	-0.2930271
166	0xbe239269	-0.1597382
167	0xbefee967	-0.49787447
168	0x3e333661	0.17501213
169	0xbd6c9d87	-0.057767417
170	0x3e616eac	0.22014874
171	0x3e0397ad	0.12850828
172	0x3ed98f97	0.42492363
173	0xbed7c167	-0.42139742
174	0xbedef316	-0.43544835
175	0xbe71b631	-0.23604657
176	0xbc39c75e	-0.011339037
177	0xbdee7076	-0.11642544
178	0xbf20e3b7	-0.62847465
179	0x3e3f499b	0.18680422
180	0x3e84f86c	0.2597078
181	0x3e36008f	0.1777365
182	0x3e9697a9	0.29412583
183	0x3e40a668	0.18813479
184	0xbc85254a	-0.016253132
185	0xbe55dfe7	-0.20886193
186	0xbec94476	-0.39310044
187	0xbef5bee8	-0.47997212
188	0x3ec03bc5	0.375456
189	0xbd5460bf	-0.051850077
190	0xbf086dd9	-0.53292614
191	0xbe8af9dc	-0.27143753
192	0xbcda16a5	-0.026622126
193	0x3dac4a28	0.08412582
194	0xbe30bce7	-0.1725956
195	0xbea13942	-0.31488997
196	0xbefd81bc	-0.49513042
197	0xbef02c06	-0.46908587
198	0x3cb68e04	0.022284515
199	0xbe8143df	-0.25247094
200	0xbf67bf98	-0.90526724
201	0xbcedaccc	-0.02901306
202	0xbfe9e64b	-1.8273405
203	0xbf23eb98	-0.6403136
204	0xbd9857b8	-0.07438606
205	0xbda9a0ca	-0.08282621
206	0xbe02c3c7	-0.12769996
207	0xbe7f8573	-0.2495325
208	0xbeaa85d3	-0.33305225
209	0xbf7d7fef	-0.99023336
210	0xbebbcf71	-0.36681703
211	0xbdc7f31b	-0.097631656
212	0xbef2429f	-0.47316453
213	0x3e7994b2	0.24373129
214	0xbe17dbf4	-0.14829999
215	0xbe2cd286	-0.16877183
216	0xbeb7b108	-0.35877252
217	0xbe82290b	-0.25421938
218	0xbded9852	-0.116013184
219	0xbe9d1949	-0.30683354
220	0x3ce15c60	0.027509868
221	0xbecc1275	-0.39857832
222	0x3e42848a	0.18995872
223	0x3eb39b74	0.3507954
224	0xbd8288dc	-0.0637376
225	0x3e0066be	0.12539193
226	0x3f09ac18	0.5377822
227	0x3edff001	0.43737796
228	0x3c865b61	0.016400995
229	0x3d900efa	0.070341066
230	0x39ac0a27	0.0003281396
231	0x3f102bdc	0.56316924
232	0xbd15aa58	-0.036539406
233	0x3ee04a61	0.43806747
234	0xbeb4f08a	-0.35339767
235	0x3e5c3b09	0.21506895
236	0xbc835ee7	-0.016036464
237	0x3f07ae36	0.530002
238	0xba54cf22	-0.00081180234
239	0xbf100795	-0.5626157
240	0xbc29a329	-0.010353842
241	0xbf13fb79	-0.5780559
242	0x3e2d2009	0.16906752
243	0xbddb3ff4	-0.107055575
244	0x3eb6923e	0.3565845
245	0x3dcbc6bb	0.09950014
246	0xbe33339a	-0.17500153
247	0xbdfb704c	-0.12277278
248	0xbe8a160c	-0.26969945
249	0x3dd3c0ac	0.103394836
250	0x3e2c90a3	0.1685205
251	0xbe62d567	-0.22151719
252	0x3ea9706b	0.3309358
253	0x3cf022bd	0.02931344
254	0x3ed58e0e	0.41709942
255	0x3eca5a36	0.3952195

a2c_network.actor_mlp.2.bias f4 [32]
0	0xbefbf790	-0.49212313
1	0xbe6b4b05	-0.22977836
2	0xbec0d194	-0.37659895
3	0x3ebbe5c8	0.36698747
4	0xbd225863	-0.039635073
5	0x3ea17092	0.31531197
6	0xbe126bda	-0.14298955
7	0xbe4407ec	-0.19143647
8	0xbefc5433	-0.4928299
9	0xbea76513	-0.326943
10	0xbe2df2ba	-0.16987124
11	0xbe52b7e4	-0.20577961
12	0xbe7c814b	-0.24658696
13	0xbe435721	-0.19076206
14	0xbec5a365	-0.38601223
15	0x3e6d34ab	0.23164622
16	0xbda97089	-0.082734175
17	0x3e0565d0	0.1302712
18	0xbe27a120	-0.16370058
19	0xbec7fcef	-0.3906016
20	0xbe586752	-0.21133164
21	0xbe0599de	-0.13046977
22	0x3eec3de2	0.46140963
23	0x3ee74317	0.45168373
24	0xbecccdec	-0.40000856
25	0xbdf58823	-0.11988857
26	0xbe39f98b	-0.181616
27	0xbe7f26d5	-0.24917157
28	0xbe25da52	-0.16196564
29	0xbc4dc912	-0.012560146
30	0xbe2e07dc	-0.16995186
31	0x3df490b1	0.1194166

a2c_network.value.weight f4 [1, 32]
0	0xbf002a63	-0.50064677
1	0xbc138cf9	-0.0090057785
2	0xbf00f79f	-0.5037784
3	0x3f162f4e	0.5866593
4	0xbf5d4ffd	-0.8645018
5	0x3f0a845f	0.5410823
6	0xbf507555	-0.81429034
7	0xbf17e763	-0.59337443
8	0xbf1bdbb1	-0.608821
9	0xbf773d67	-0.9657807
10	0xbf6b1e8d	-0.9184349
11	0xbf755bc7	-0.95843166
12	0xbf2d0afb	-0.6759488
13	0xbf8412bf	-1.0318221
14	0xbeed3a6c	-0.46333635
15	0x3ec6a180	0.3879509
16	0xbf3c9dc3	-0.73678225
17	0x3f383343	0.7195322
18	0xbf095d5f	-0.536581
19	0xbed19ec8	-0.40941453
20	0xbf195174	-0.5988991
21	0xbf89dc19	-1.0770293
22	0x3f2231ad	0.6335705
23	0x3f377f58	0.71678686
24	0xbf395644	-0.72397256
25	0xbed286d4	-0.4111849
26	0xbecd21a2	-0.40064722
27	0xbeca3cdf	-0.39499566
28	0xbf1ecec1	-0.6203423
29	0xbe8663b1	-0.26247934
30	0xbf8cd88b	-1.1003584
31	0x3f395a39	0.72403294

a2c_network.mu.weight f4 [4, 32]
0	0xbd85e974	-0.06538668
1	0x3fa93ce0	1.3221703
2	0xbcb98d81	-0.022650482
3	0x3d030a49	0.03199223
4	0x3c67f766	0.0141581055
5	0x3f15558f	0.5833368
6	0x3ee42800	0.44561768
7	0x3e0ec0e9	0.13940777
8	0x3e6b047d	0.22950931
9	0xbed1f82e	-0.4100966
10	0x3e51ce37	0.20488821
11	0x3e978c22	0.295991
12	0xbe0f4126	-0.13989696
13	0xbe35c405	-0.17750557
14	0xbdf1d9c6	-0.11809115
15	0xbee4b080	-0.4466591
16	0x3d667dd4	0.056272343
17	0x3d58c9ac	0.052926704
18	0x3cce2a92	0.025166783
19	0xbec3db64	-0.3825332
20	0xbe84cede	-0.25939077
21	0xbe8dee58	-0.27720904
22	0xbc7c4978	-0.015398376
23	0xbe61363a	-0.21993342
24	0x3e2a1825	0.16610773
25	0xbf470c3b	-0.7775304
26	0x3d162266	0.0366539
27	0xbe19b9a8	-0.15012228
28	0x3e161848	0.146577
29	0x3eceb33f	0.4037113
30	0xbe445438	-0.19172752
31	0xbf547ba3	-0.83001155
32	0xbf17e513	-0.59333915
33	0xbf036861	-0.51331145
34	0x3e02a104	0.12756735
35	0x3d7c92f9	0.0616636
36	0x3f5cd326	0.86259687
37	0x3e3ae788	0.18252385
38	0x3e35f215	0.17768128
39	0x3e313e84	0.17309004
40	0xbf1f8e8c	-0.62326884
41	0xbe97d85c	-0.29657257
42	0xbc472ff2	-0.012157427
43	0x3ce76187	0.028244747
44	0x3ed72386	0.4201929
45	0xbdc6f0d3	-0.09713902
46	0xbe41bdbb	-0.18920033
47	0x3f2a19eb	0.664458
48	0x3ef54f3a	0.47912008
49	0xbed2be0f	-0.41160628
50	0x3e663a28	0.22483122
51	0xbf0e2642	-0.55527127
52	0x3e811c9c	0.2521714
53	0xbc86b3db	-0.016443184
54	0xbe6ad6f4	-0.2293356
55	0xbe46b2fe	-0.19404218
56	0xbe8563ed	-0.260528
57	0x3e2aa426	0.1666418
58	0xbea45f34	-0.32103884
59	0xbe1af2de	-0.15131709
60	0x3eacf556	0.33780926
61	0x3efbd87f	0.4918861
62	0xbe33d85d	-0.17563005
63	0xbf0178ba	-0.5057484
64	0xbbdd8bc2	-0.006761045
65	0xbe604e2c	-0.2190482
66	0xbd7ce84b	-0.06174497
67	0xbd76f30b	-0.060290378
68	0x3d9ef6eb	0.077619396
69	0x3cb3a883	0.021930939
70	0xbc83f4c7	-0.01610793
71	0x3d9da68e	0.076977834
72	0x3d66658f	0.056249198
73	0xbd284205	-0.041078586
74	0x3e139434	0.14412004
75	0x3d71be85	0.059019584
76	0xbcf2cb74	-0.02963803
77	0x3d16148b	0.036640685
78	0xbe449757	-0.19198357
79	0xbd896ae9	-0.067098446
80	0x3dda4595	0.10657803
81	0x3ce3e6db	0.027820041
82	0x3ccaea39	0.02476989
83	0xbb603ed0	-0.0034217127
84	0xbd17a0aa	-0.037018456
85	0xbe474a89	-0.19462027
86	0xbd7587ed	-0.059944082
87	0x3dba2dc0	0.09090757
88	0x3d4a5b76	0.04940363
89	0xbdd3857a	-0.10328193
90	0xbdb62aca	-0.0889488
91	0x3de640d3	0.11242833
92	0x3d3b2236	0.045686923
93	0x3d55792e	0.05211752
94	0x3d03bfaa	0.032165207
95	0xbe541576	-0.20711312
96	0x3d80cffe	0.06289671
97	0x3e3d3db5	0.1848057
98	0xbdb33b38	-0.087515295
99	0x3dfc6863	0.12324598
100	0x3d577313	0.052599978
101	0x3e3c4cee	0.18388721
102	0x3c8a934a	0.016915936
103	0xbee8815d	-0.45411196
104	0xbd92116d	-0.0713223
105	0x3dfe2aec	0.124105304
106	0x3db91637	0.0903744
107	0x3e382d71	0.17986085
108	0x3d86c042	0.06579639
109	0x3d084df0	0.033277452
110	0x3d211967	0.039330866
111	0x3c9a3f98	0.018829152
112	0x3df64cbe	0.12026356
113	0x3c324e4f	0.010882928
114	0x3db13b28	0.08653861
115	0x3cc99b86	0.024610292
116	0x3cb4ac04	0.02205468
117	0xbe815163	-0.25257406
118	0xbe37d465	-0.17952116
119	0xbd41fb9a	-0.047359087
120	0xbd8c9ec1	-0.068662174
121	0xbba20d95	-0.0049454668
122	0x3c660069	0.014038184
123	0x3d7f27f1	0.06229395
124	0x3e4b5258	0.1985563
125	0x3e0a73dd	0.13520761
126	0x3c90eac9	0.01769008
127	0x3ce19aea	0.02753969

a2c_network.mu.bias f4 [4]
0	0x3d2b431f	0.04181206
1	0x3d83d566	0.06437187
2	0xbca0047b	-0.019533386
3	0xbdf47220	-0.1193583

exp_avg f4 [4]
0	0xbb429d35	-0.0029695753
1	0xbc608d9d	-0.013705638
2	0xb9dbfc88	-0.00041959086
3	0x3a904c90	0.0011009146

exp_avg_sq f4 [4]
0	0x3888496c	6.498661e-05
1	0x38b882e4	8.798184e-05
2	0x3852e178	5.0277886e-05
3	0x38221be2	3.8649778e-05

exp_avg f4 [32, 12]
0	0xbc0570fe	-0.008144615
1	0x3c1c6962	0.00954661
2	0x3c68f52f	0.014218613
3	0x3b75da0f	0.0037514006
4	0x39d2972b	0.0004016695
5	0xbc0d439d	-0.008622077
6	0xbb1f5355	-0.0024311144
7	0x3a02d185	0.0004990327
8	0xbc118965	-0.008882855
9	0x3c0ce92f	0.008600517
10	0x3ba0c6b3	0.0049064993
11	0x3d03f2b7	0.032213893
12	0x3c329b2b	0.010901253
13	0xbbb512b0	-0.0055259094
14	0xbce72193	-0.028214252
15	0xbb1055fe	-0.0022023912
16	0xb919154f	-0.00014599155
17	0x3babb840	0.00524047
18	0x3a8574ac	0.0010181866
19	0x3a9b3369	0.0011840883
20	0x3c4013da	0.011723483
21	0xbbc19517	-0.0059076655
22	0xbb7c7f51	-0.0038528035
23	0xbd434706	-0.047675155
24	0xbbefba79	-0.0073159304
25	0x3bff5e17	0.007793199
26	0x3c45256b	0.012032847
27	0x3bac1c13	0.00525237
28	0x37147672	8.849065e-06
29	0xbbc34ddd	-0.0059602098
30	0x3b30f99b	0.0027004245
31	0x3bdfc267	0.0068285945
32	0xbc0a7166	-0.008449888
33	0x3bfc12bc	0.007692663
34	0xbbb6900b	-0.0055713705
35	0x3bf1941c	0.0073723923
36	0x3c33dee2	0.010978432
37	0xbcc2899c	-0.023747258
38	0xba8c568e	-0.0010706948
39	0xbc8d8c90	-0.01727894
40	0xbb0eba0c	-0.0021778373
41	0x3c9c3eb9	0.019072877
42	0xb9a5fe96	-0.00031660934
43	0xbac03a08	-0.0014665732
44	0x3c1b1d58	0.009467445
45	0xbc5c68ef	-0.0134527525
46	0xbc296a10	-0.010340229
47	0xbc29db28	-0.010367192
48	0x3c1a9395	0.0094346
49	0xbbfa0020	-0.0076294094
50	0xbc84c574	-0.016207434
51	0xbc1ce9a9	-0.009577193
52	0xba937bb4	-0.0011252076
53	0x3b8637de	0.0040960154
54	0x398bd6a8	0.00026672077
55	0x3b34e09c	0.0027599698
56	0x3c1f33a0	0.009716898
57	0xbc17ced2	-0.009265618
58	0xbc0d8254	-0.00863703
59	0xbce37001	-0.027763369
60	0x3bf3b345	0.007437142
61	0xbc5ef788	-0.013608821
62	0xbba30efd	-0.004976152
63	0xbc43ff28	-0.011962689
64	0xba891b10	-0.0010460336
65	0x3c1a4926	0.009416854
66	0xbb40f58e	-0.0029443237
67	0xbb02176a	-0.0019850382
68	0x3bd17ab2	0.0063928002
69	0xbc50f22d	-0.012753052
70	0xbbc5c308	-0.0060352124
71	0xbbcb7e80	-0.0062101483
72	0xbb6066d2	-0.0034240973
73	0xbb8650d6	-0.004098992
74	0x3c92e76a	0.017932612
75	0xbb32fa09	-0.0027309677
76	0xba0fc0e8	-0.00054837624
77	0x3b63397a	0.003467171
78	0x3966777c	0.0002197902
79	0xbb263d23	-0.002536603
80	0xbb9abd4e	-0.004722274
81	0x39d87964	0.00041289174
82	0x3a3fac83	0.0007311778
83	0x3c996caa	0.018728573
84	0xbb0a46a6	-0.0021099239
85	0xb9edc366	-0.00045349746
86	0x3bf268fb	0.0073977686
87	0xbb5fbbad	-0.0034138963
88	0xb9dcb14c	-0.00042093766
89	0xba6884a8	-0.0008869865
90	0x394249f4	0.00018528831
91	0x3b75b568	0.003749216
92	0xbb699fe0	-0.0035648271
93	0xbac49528	-0.0014998065
94	0xbb13dadd	-0.0022560873
95	0x3b26c720	0.0025448278
96	0x3c155489	0.009114393
97	0xba94172a	-0.0011298407
98	0xbcd2ead4	-0.02574674
99	0xbab8c401	-0.00140965
100	0x398293d3	0.0002490567
101	0x3ac86f9c	0.0015292051
102	0x3a153afc	0.0005692688
103	0x3b524b36	0.0032088286
104	0x3c2ac1ac	0.010422152
105	0xbb88c3cf	-0.004173733
106	0xba8f6aeb	-0.0010941898
107	0xbd2904f8	-0.041264504
108	0x3b8d3369	0.004309107
109	0xbc2eeb6d	-0.010676247
110	0xba6b1c6a	-0.00089687726
111	0xbbe468ba	-0.006970492
112	0xbaa5647b	-0.0012618446
113	0x3c0d6dd0	0.008632138
114	0x3b03152f	0.002000164
115	0x3b999a03	0.004687549
116	0x3b536d35	0.0032261137
117	0xbbd9452b	-0.00663056
118	0xbc029334	-0.007969666
119	0xbb911795	-0.00442786
120	0x3bf07fe2	0.0073394636
121	0x3cee824b	0.029114863
122	0xbd7836a8	-0.060599
123	0x3c6c0d07	0.014407403
124	0x3b4a37cc	0.0030856011
125	0xbcbeb00b	-0.023277303
126	0xbaa0273b	-0.0012218723
127	0x3bde1c81	0.0067783003
128	0x3c48a7b8	0.0122470185
129	0x3c635c78	0.013877027
130	0x3c3cf256	0.011532387
131	0xbd8d1278	-0.06888288
132	0x3ba96e90	0.005170651
133	0x3b583c3a	0.0032994882
134	0xbca62695	-0.02028207
135	0x3a726d2f	0.0009247837
136	0x39eb187a	0.0004484093
137	0xbb0d76fe	-0.0021585817
138	0xb9cc9784	-0.000390228
139	0x3b43a117	0.0029850656
140	0x3bcc94ba	0.0062433155
141	0x397e8c0b	0.00024275498
142	0xbb96104d	-0.00457958
143	0xbcf0d16f	-0.02939674
144	0x3b98b198	0.0046598427
145	0x3c1f5509	0.009724864
146	0xbcddf9a7	-0.027096583
147	0x3ba9e133	0.0051843165
148	0x3a552080	0.0008130148
149	0xbc176f68	-0.00924287
150	0xb9d56298	-0.00040699984
151	0x3b60d162	0.003430449
152	0x3bc852a3	0.0061133667
153	0xbb138729	-0.0022510982
154	0x3b199143	0.002343253
155	0xbd4c602e	-0.04989641
156	0x3787c04b	1.6182797e-05
157	0xbc1624e1	-0.009164066
158	0x3c406388	0.01174248
159	0xbc296718	-0.010339521
160	0xba9d1c03	-0.0011986498
161	0x3bd707dc	0.006562216
162	0x38382a03	4.3908145e-05
163	0x3b10fd90	0.0022123791
164	0xbb0622d9	-0.0020467548
165	0xbbc7e7c4	-0.0061006267
166	0xbc24c524	-0.010056768
167	0x3c266417	0.010155699
168	0xbbd9266e	-0.0066268956
169	0x3b35f449	0.0027764014
170	0x3c75b8a4	0.014997635
171	0x3a825b67	0.0009945453
172	0xb9094baf	-0.00013093532
173	0xbb5d7eb2	-0.003379744
174	0xbad6da96	-0.0016392048
175	0xba967c0a	-0.0011481058
176	0xbbf90f29	-0.007600684
177	0x3ad5e1cb	0.0016317902
178	0x3a2fb22f	0.00067022716
179	0x3ccbd8d2	0.024883661
180	0xbbabc8ff	-0.0052424665
181	0x3cb30c02	0.021856312
182	0xbc497f53	-0.012298423
183	0x3c453d98	0.012038611
184	0x3b08aa9b	0.0020853642
185	0xbc9c75eb	-0.019099196
186	0xbb603056	-0.0034208498
187	0xbb040b86	-0.002014847
188	0xbace4ede	-0.0015740057
189	0x3c31627f	0.010826706
190	0x3c60b075	0.013713946
191	0xbba1be47	-0.004936013
192	0x3bb53eeb	0.005531182
193	0x3b8b3f1c	0.0042494666
194	0xbcbb4bf5	-0.022863368
195	0x3a09b2c3	0.0005252773
196	0x39acbcbe	0.0003294702
197	0xbbb01e2c	-0.0053746905
198	0xbad66592	-0.0016357175
199	0xba48c3c7	-0.00076585676
200	0x3bfe2fd6	0.0077571673
201	0xbb6e0361	-0.0036317932
202	0xb9f02275	-0.0004580204
203	0xbcfa2e48	-0.030539647
204	0x3ac9d0be	0.0015397293
205	0x3bfd9ad5	0.0077394047
206	0xbc812d3f	-0.015768645
207	0x3ab45d04	0.0013760631
208	0x39bd2a57	0.00036080435
209	0xbc1ec9a7	-0.009691632
210	0xbae99237	-0.0017820065
211	0xbb278755	-0.0025562842
212	0x3b7b23fc	0.003832101
213	0xbba22480	-0.004948199
214	0x3b802938	0.0039111637
215	0xbc9ac2d3	-0.018891728
216	0x3b4d4c29	0.0031325913
217	0xbc84f1dc	-0.016228609
218	0x3c2bde6d	0.010490042
219	0xbc3bc040	-0.01145941
220	0xbac982c8	-0.0015374059
221	0x3c3abd4e	0.011397673
222	0xba3874d8	-0.0007036454
223	0x3ad03cf7	0.001588731
224	0xb9504767	-0.00019863025
225	0xbc39c070	-0.011337385
226	0xbc50c98f	-0.012743368
227	0x3c407518	0.011746667
228	0x3b681bcf	0.0035416966
229	0xbb3222da	-0.0027181418
230	0xbbf72701	-0.0075424914
231	0xba3d2d01	-0.0007216484
232	0x37c32014	2.3260749e-05
233	0x3b056293	0.0020352944
234	0xba15a923	-0.0005709102
235	0xbba178a8	-0.0049277134
236	0x3b972ef8	0.0046137534
237	0xba9326c8	-0.0011226768
238	0x3b61c862	0.0034451713
239	0xbc1252a7	-0.008930839
240	0x3c171799	0.009221935
241	0xb7e8b48f	-2.7740634e-05
242	0xbcefb7de	-0.02926248
243	0x38d7dd03	0.000102931655
244	0x396d70a7	0.00022644048
245	0x3a446539	0.000749189
246	0x39d64642	0.00040869607
247	0x3b75bd62	0.0037496914
248	0x3c263e7a	0.0101467315
249	0xbb86b8e3	-0.0041113957
250	0xbba2441b	-0.0049519665
251	0xbd31539f	-0.043292638
252	0xbb4c029b	-0.0031129483
253	0x3b247986	0.0025096848
254	0x3bbe1cbd	0.0058017657
255	0x3ba1ccec	0.0049377587

exp_avg_sq f4 [32, 12]
0	0x37fd7681	3.0215133e-05
1	0x3933ed89	0.00017159259
2	0x3aef0f57	0.0018238825
3	0x3a21d2b4	0.000617306
4	0x37af8270	2.0922365e-05
5	0x3901f98c	0.00012395362
6	0x3a8ea491	0.0010882785
7	0x3a25d1ef	0.0006325533
8	0x3885dbea	6.3828964e-05
9	0x3970e886	0.00022974805
10	0x3ab15dca	0.001353198
11	0x3aae5b12	0.0013302288
12	0x3803b331	3.139972e-05
13	0x392ca30c	0.00016463938
14	0x3abc9437	0.0014387433
15	0x39f2e3e0	0.00046327617
16	0x37d5ffe6	2.551074e-05
17	0x392e6d55	0.00016634662
18	0x3a5cb89e	0.0008419844
19	0x3a0e03d2	0.00054174394
20	0x381cbf45	3.7371432e-05
21	0x39812517	0.0002463243
22	0x3a8426c8	0.0010082358
23	0x3ad3dff4	0.0016164766
24	0x37ee9af6	2.844397e-05
25	0x390fa257	0.00013698019
26	0x3aa3fc8d	0.0012511179
27	0x39d9dc7d	0.00041553742
28	0x37c4f5b5	2.3479437e-05
29	0x38a2b664	7.758735e-05
30	0x3a341807	0.00068700354
31	0x39bbc0b1	0.00035810986
32	0x38059a36	3.185329e-05
33	0x391fe21d	0.00015247655
34	0x3a6ef973	0.00091161503
35	0x3a069a3a	0.0005134676
36	0x38c1156f	9.2069495e-05
37	0x39cd057f	0.00039104742
38	0x3b9a5931	0.0047103395
39	0x3a838fe4	0.001003739
40	0x38a99ba1	8.087536e-05
41	0x39890aa6	0.0002613861
42	0x3b2e7641	0.0026620778
43	0x3ad32d8e	0.0016111599
44	0x390583de	0.00012732993
45	0x3a12eeed	0.0005605061
46	0x3b632445	0.003465907
47	0x3af4584a	0.0018642035
48	0x37dff6f8	2.6698675e-05
49	0x3892b9d2	6.996434e-05
50	0x3aa2c4a8	0.0012418227
51	0x399fea1c	0.00030501268
52	0x37b4edc3	2.1568389e-05
53	0x38ac70ab	8.222585e-05
54	0x3a563f0b	0.0008172846
55	0x39ea09c5	0.00044639237
56	0x383164fe	4.2294145e-05
57	0x391e2cba	0.00015084716
58	0x3a66f88f	0.0008810842
59	0x3a82b0ac	0.0009970865
60	0x3835e06c	4.3362772e-05
61	0x392c3058	0.00016421208
62	0x3b08e806	0.002089025
63	0x3a036631	0.0005012481
64	0x3823edd7	3.9083734e-05
65	0x38e0de32	0.000107225394
66	0x3aad8e45	0.0013241252
67	0x3a3426f2	0.00068722584
68	0x3888ab21	6.5168606e-05
69	0x395b4862	0.00020912432
70	0x3aa8e75f	0.0012886337
71	0x3a4b1024	0.00077462406
72	0x3713b40a	8.803801e-06
73	0x3839aaf3	4.4266646e-05
74	0x39c1379f	0.0003685327
75	0x38dbbc4e	0.00010477808
76	0x371ef5b9	9.474746e-06
77	0x385b27c7	5.2250714e-05
78	0x3916b1a4	0.00014371291
79	0x38d81d98	0.00010305195
80	0x3803af23	3.1395943e-05
81	0x3871265f	5.7494613e-05
82	0x39862414	0.00025585352
83	0x39a0500f	0.00030577226
84	0x37704326	1.4320749e-05
85	0x38d98c94	0.00010373551
86	0x3a12d78a	0.0005601576
87	0x39600184	0.0002136287
88	0x3793b4cb	1.7607954e-05
89	0x38522062	5.009806e-05
90	0x3901d2a7	0.00012380873
91	0x38a9b506	8.092266e-05
92	0x37d309e8	2.5157773e-05
93	0x38f3bd61	0.000116224175
94	0x3a0fe9f0	0.00054898765
95	0x39a47e7b	0.00031374753
96	0x3760012d	1.3351714e-05
97	0x3843b3bb	4.665901e-05
98	0x39da95cc	0.00041691808
99	0x391700a5	0.00014400722
100	0x36fe7f0c	7.58458e-06
101	0x38a9003b	8.058591e-05
102	0x39250011	0.00015735651
103	0x3900a574	0.00012268667
104	0x3880ddae	6.144807e-05
105	0x3877534d	5.896697e-05
106	0x39ca8f7b	0.00038635344
107	0x3a1f8145	0.00060846313
108	0x380cfd36	3.3614422e-05
109	0x39458e10	0.00018840306
110	0x3ad42317	0.0016184774
111	0x39c5fbc6	0.00037762354
112	0x38134114	3.510814e-05
113	0x38d020cd	9.9243225e-05
114	0x3a4dc717	0.0007849796
115	0x39f90fdd	0.000475048
116	0x381eaeaf	3.7832822e-05
117	0x398e26a3	0.00027113137
118	0x3ac90eeb	0.0015339529
119	0x3a243bcd	0.00062650145
120	0x395b1627	0.0002089372
121	0x3aa4e2cf	0.0012579801
122	0x3c2e59ed	0.010641557
123	0x3b2aa0b4	0.0026035728
124	0x398467ab	0.0002525424
125	0x3a892cdf	0.0010465643
126	0x3b72d952	0.0037055803
127	0x3b306a4a	0.0026918822
128	0x39ad54af	0.00033060226
129	0x3ab34a53	0.0013678767
130	0x3c12526d	0.008930785
131	0x3b8f3e2a	0.004371424
132	0x3701ac52	7.729121e-06
133	0x3814130a	3.530368e-05
134	0x399ac256	0.0002951796
135	0x38a9fb28	8.1053295e-05
136	0x36f8558f	7.4009363e-06
137	0x38602249	5.3437692e-05
138	0x38a5b5ac	7.901652e-05
139	0x389e27e6	7.541459e-05
140	0x3719cc75	9.1671145e-06
141	0x382d2e9a	4.1289815e-05
142	0x39605503	0.00021393974
143	0x39a571f2	0.00031556148
144	0x381f2ab1	3.7948314e-05
145	0x39665cde	0.00021969105
146	0x3ae0ca09	0.0017150055
147	0x39f48ffa	0.00046646578
148	0x383c0962	4.483143e-05
149	0x395202d2	0.00020028211
150	0x3a5c8438	0.0008412036
151	0x39fd014e	0.00048256892
152	0x3840044d	4.5780373e-05
153	0x39a720c1	0.00031877126
154	0x3aa2a5aa	0.0012408991
155	0x3acbfcbb	0.001556299
156	0x382a39b9	4.0584917e-05
157	0x398edf3f	0.00027250682
158	0x3af2a125	0.001851116
159	0x3a04242a	0.0005040789
160	0x385d958d	5.2829786e-05
161	0x391e34a6	0.00015087667
162	0x3a3a3500	0.00071032345
163	0x39df8ec6	0.0004264025
164	0x389812c7	7.251422e-05
165	0x39a40131	0.00031281405
166	0x3acd727b	0.0015674377
167	0x3a55e24e	0.0008159027
168	0x373f015b	1.1384803e-05
169	0x383b15bf	4.4604527e-05
170	0x39d7369b	0.0004104868
171	0x38e0ccac	0.000107192755
172	0x371c0b4e	9.300957e-06
173	0x3871ee34	5.768072e-05
174	0x39892685	0.00026159376
175	0x3947b554	0.00019045669
176	0x381a08cf	3.6724665e-05
177	0x389a124c	7.3467e-05
178	0x39c0b874	0.00036758522
179	0x39fbeedc	0.00048052415
180	0x38e2fc59	0.00010823523
181	0x3a18eae1	0.00058333395
182	0x3bbef925	0.00582804
183	0x3ab3f3db	0.0013729291
184	0x38ef0536	0.00011397379
185	0x39c01897	0.00036639415
186	0x3b44a95a	0.0030008168
187	0x3af20e16	0.0018467333
188	0x3919cb9b	0.00014667066
189	0x3a4b18dc	0.000774754
190	0x3ba54189	0.005043213
191	0x3b23d007	0.002499582
192	0x37ce3a59	2.4584284e-05
193	0x38f8055d	0.000118265605
194	0x3a79825a	0.000951802
195	0x39a06f37	0.0003060044
196	0x37d9e79e	2.5976271e-05
197	0x38e06c8f	0.00010701373
198	0x3a094cdc	0.0005237588
199	0x399aea0e	0.00029547553
200	0x38458d1f	4.709989e-05
201	0x393c1d15	0.00017939911
202	0x3a27495d	0.00063814764
203	0x3a4deb57	0.0007855198
204	0x3817d85e	3.6202713e-05
205	0x3926f2c3	0.0001592143
206	0x3aff718b	0.0019488794
207	0x3a181e45	0.00058028504
208	0x38292999	4.033148e-05
209	0x390e8dfb	0.00013595067
210	0x3aabb2ed	0.0013099589
211	0x3a3e0dc7	0.0007249978
212	0x384dfd46	4.9111688e-05
213	0x39981c8e	0.00029012974
214	0x3ad814cc	0.001648569
215	0x3ab276d9	0.0013615742
216	0x38b169a6	8.459696e-05
217	0x3a01e383	0.00049548614
218	0x3b6c94b9	0.0036099388
219	0x3a6a51c4	0.00089385756
220	0x38d24d58	0.00010027987
221	0x399036ce	0.00027506653
222	0x3ad0677f	0.0015899985
223	0x3a6ff330	0.0009153364
224	0x391dad95	0.00015037351
225	0x3a1d2906	0.00059951877
226	0x3b381354	0.0028087692
227	0x3ab98002	0.0014152529
228	0x3719931d	9.153763e-06
229	0x386e132c	5.6761477e-05
230	0x39b2bcdd	0.0003409152
231	0x38f3cd4e	0.00011625384
232	0x37252b3e	9.8448345e-06
233	0x37fc0ba8	3.0046169e-05
234	0x390f32b8	0.00013656437
235	0x38b0f336	8.4376356e-05
236	0x37651433	1.3654167e-05
237	0x389e5bb0	7.551105e-05
238	0x39ab739d	0.000327018
239	0x398f20cd	0.00027299524
240	0x37888959	1.627642e-05
241	0x389f6085	7.599689e-05
242	0x3a217e9e	0.000616053
243	0x3923a366	0.00015605762
244	0x3766e14e	1.3761526e-05
245	0x38ef4185	0.00011408612
246	0x3983266d	0.00025014897
247	0x39458f62	0.00018840798
248	0x37a44506	1.9582465e-05
249	0x38c7e534	9.531752e-05
250	0x39df25d6	0.00042562064
251	0x3a283a3e	0.000641737
252	0x36e7fbc0	6.913644e-06
253	0x380f506b	3.4168752e-05
254	0x39a4ac96	0.00031409104
255	0x38954f2d	7.119621e-05

exp_avg f4 [32]
0	0xbd9b88f7	-0.07594483
1	0x3d49f853	0.049309086
2	0xbd4881c6	-0.048951887
3	0x3e189293	0.14899664
4	0x3ce89b14	0.02839426
5	0x3d91d993	0.07121577
6	0x3ccb7d2a	0.024839956
7	0xbc38da2b	-0.011282484
8	0x3c863a16	0.01638512
9	0x3d8b3ef0	0.06799114
10	0xbe3393ed	-0.17536898
11	0xbc68cfa6	-0.0142096635
12	0xbd905e28	-0.07049209
13	0x3d3cacd0	0.046063244
14	0xbd012685	-0.031530876
15	0xbe1da58c	-0.15395182
16	0xbd344baf	-0.04401749
17	0xbda9d8b4	-0.08293286
18	0x3dad8bd3	0.08473935
19	0x3c946e76	0.018119078
20	0x3c3e293b	0.01160651
21	0xbb5aff4b	-0.0033416327
22	0xbbd3d7b0	-0.006464921
23	0xba895b84	-0.0010479544
24	0xbcdd85a4	-0.027041264
25	0xbdb17038	-0.08663982
26	0x3cd27e12	0.02569488
27	0xbda266ec	-0.07929787
28	0x3cd8881e	0.026432093
29	0x3b91bd3b	0.004447607
30	0xbd474f4d	-0.04865961
31	0xbce27212	-0.027642284

exp_avg_sq f4 [32]
0	0x3c0f49fa	0.008745665
1	0x3c3f067b	0.01165926
2	0x3bb1bad3	0.0054238825
3	0x3c919681	0.017771961
4	0x3bc2e8eb	0.005948176
5	0x3be6c313	0.0070422976
6	0x3b68f9bd	0.0035549246
7	0x3b5d2188	0.003374191
8	0x3bc0895c	0.0058757495
9	0x3bde853b	0.0067907847
10	0x3d9003df	0.07031988
11	0x3b773658	0.00377216
12	0x3c5ae6f3	0.013360727
13	0x3c203f92	0.009780781
14	0x3b864fbe	0.0040988615
15	0x3cce8768	0.025211051
16	0x3bf58c78	0.007493552
17	0x3c1c57ee	0.009542448
18	0x3c92503c	0.017860524
19	0x3b061cc9	0.0020463935
20	0x3c053fb5	0.008132865
21	0x3ac1b99f	0.0014780051
22	0x3b9a214a	0.0047036754
23	0x3bdab24f	0.006674088
24	0x3c1d44af	0.009598895
25	0x3b7154d9	0.0036824255
26	0x3beb9b1a	0.0071901204
27	0x3c128ecc	0.008945178
28	0x3c0020fe	0.007820366
29	0x3bd02177	0.0063516456
30	0x3bb11b3e	0.005404859
31	0x3bdc72f7	0.006727572

exp_avg f4 [32, 32]
0	0x397a304e	0.00023859853
1	0x39caf503	0.0003871099
2	0xb982fa3e	-0.00024981977
3	0xba8dc374	-0.0010815696
4	0x3a9aab1a	0.001180026
5	0xba4b02fd	-0.0007744281
6	0xb9d30315	-0.00040247352
7	0xb9e42740	-0.00043516792
8	0xbb480769	-0.0030521995
9	0x39a99496	0.00032344897
10	0xbb924a6b	-0.0044644377
11	0xbb8087d8	-0.003922444
12	0x3a9e2e19	0.0012068182
13	0xb913b57a	-0.00014086618
14	0x39c1a3a1	0.00036933742
15	0x3a70b83d	0.0009182727
16	0x3a3e1991	0.00072517345
17	0x39b31756	0.00034158927
18	0xb95a1884	-0.00020799233
19	0xbab2061d	-0.0013582144
20	0xbb8ea8a1	-0.004353598
21	0xbafdb0a3	-0.001935501
22	0x3b04d404	0.0020267973
23	0xb9df3454	-0.00042572862
24	0xba403658	-0.00073323166
25	0xba069928	-0.00051345164
26	0x3a54ac40	0.00081128255
27	0x39ced4e2	0.00039449992
28	0x3aa142ce	0.0012303235
29	0x3a7d3fe3	0.0009660704
30	0xb854e383	-5.0756626e-05
31	0xba0a4a0d	-0.00052753167
32	0xb9231910	-0.00015554228
33	0xbb73d2d6	-0.0037204525
34	0x3afdb60d	0.0019356624
35	0xb9ef95e4	-0.0004569731
36	0xbaccd7e1	-0.0015628302
37	0xbad50a00	-0.0016253591
38	0x3babbb11	0.005240806
39	0x3b4b90a7	0.0031061561
40	0xbc3fbfb5	-0.011703421
41	0x38ba4cca	8.883474e-05
42	0xbc3ede19	-0.011649632
43	0xbc6cc820	-0.01445201
44	0xbae3b9ef	-0.0017374138
45	0x3b0e4957	0.0021711194
46	0x3bc7b82c	0.006094953
47	0xbae2a5c0	-0.0017291829
48	0xbb696eb9	-0.0035618974
49	0x3b0fdc0d	0.002195123
50	0x3b0c949d	0.0021450885
51	0xbb5e06e8	-0.0033878628
52	0xbc81c615	-0.015841523
53	0xba0d1a93	-0.0005382683
54	0x39c7a9b4	0.00038082676
55	0xbb66a7a2	-0.0035195132
56	0xbb9193fe	-0.004442691
57	0x3a0b3071	0.00053096475
58	0x3b6f4adb	0.0036513123
59	0x3b566446	0.0032713576
60	0x3ac18ffe	0.0014767644
61	0xbb0eb1b3	-0.0021773397
62	0x3a8f8b34	0.001095152
63	0x3b80cd24	0.0039307047
64	0x380ee2d5	3.4066692e-05
65	0x3a12f9f5	0.00056067045
66	0xba072121	-0.0005154778
67	0xb9230851	-0.0001554799
68	0x39d35631	0.00040309274
69	0xb68a185c	-4.1155563e-06
70	0xb9c039ce	-0.00036664162
71	0xba4522c9	-0.0007520137
72	0x37a7c192	1.999809e-05
73	0xb952b21a	-0.00020093509
74	0xb9bd899d	-0.0003615142
75	0xb9bd3a8b	-0.00036092507
76	0x39e6bac7	0.00044008179
77	0xb9c1367d	-0.00036852426
78	0xb9e4cd9a	-0.00043640734
79	0x39cf605f	0.0003955392
80	0x3a2dd625	0.00066313363
81	0x39172e19	0.00014417655
82	0xb96d8625	-0.00022652054
83	0x39e3596d	0.0004336344
84	0xb98e160c	-0.00027100777
85	0xb989a254	-0.0002625162
86	0x3a11a008	0.00055551575
87	0x39e8b1e9	0.00044383042
88	0x3a0f739e	0.00054722454
89	0xb9a03e8e	-0.00030564185
90	0xb9c3b92f	-0.0003733127
91	0xb95d8419	-0.00021125413
92	0x3907dfbc	0.00012957951
93	0x3a0dec0e	0.0005413898
94	0xba0eeaed	-0.0005451877
95	0xba3b658f	-0.00071486173
96	0xbb111208	-0.0022135992
97	0xba90f35b	-0.0011058854
98	0x3a8ee1e5	0.0010901062
99	0x3b3af86e	0.0028529423
100	0xbb8a8bb9	-0.004228082
101	0xb8e20333	-0.00010777116
102	0x3acd6d44	0.0015672822
103	0x3a96ff2d	0.001152014
104	0x3bc7e24d	0.006099975
105	0x398a9af2	0.00026436854
106	0x3c6228c9	0.013803669
107	0x3c45e50e	0.012078537
108	0xbb7799dd	-0.0037780919
109	0xb8b34817	-8.548813e-05
110	0xba57f4c1	-0.00082380703
111	0xbb2b015e	-0.0026093344
112	0xbb7fe16f	-0.003904428
113	0xba64fa19	-0.0008734777
114	0xb9d55c55	-0.0004069532
115	0x3b39980f	0.0028319394
116	0x3c52ca31	0.012865589
117	0x3c03553f	0.00801593
118	0xbbdd8d88	-0.0067612566
119	0x3a3b95ff	0.0007155835
120	0x3adc7027	0.0016818092
121	0x3a9f3c1b	0.001214865
122	0xbb4bef6f	-0.0031118055
123	0xbaa3c118	-0.001249346
124	0xbb3d9a6f	-0.002893116
125	0xbb25067c	-0.0025180867
126	0x39f52dad	0.00046764073
127	0x3b872ffc	0.004125593
128	0xbb8e6e90	-0.004346676
129	0x3c85ea97	0.016347213
130	0xbc6614ca	-0.014043042
131	0x3b8c4285	0.0042803907
132	0x3bccae80	0.006246388
133	0xb99b63b0	-0.00029638177
134	0xbb5a915d	-0.0033350803
135	0xbca72e17	-0.02040772
136	0x3bfdd2aa	0.0077460604
137	0xbb8ccfab	-0.004297217
138	0x3c22ce8d	0.009936941
139	0x3bde2229	0.0067789746
140	0x3c253772	0.01008402
141	0xbc2088f1	-0.009798274
142	0xbc425366	-0.011860704
143	0x3ba77d7b	0.005111394
144	0x3c28a858	0.0102940425
145	0x3bd9b125	0.0066434317
146	0xbbe3d248	-0.0069525577
147	0x3ca2fb04	0.019895084
148	0x3c30e537	0.010796837
149	0x3c02a1e9	0.007973173
150	0x3bdd9e62	0.0067632655
151	0x3c845093	0.016151702
152	0x3cac311b	0.021019509
153	0xbbf9a2a2	-0.0076182643
154	0xbc880dd3	-0.016608154
155	0xbc0126eb	-0.007882814
156	0x3acba95d	0.0015538145
157	0x3c69f44f	0.014279439
158	0xbc88bd6c	-0.016691886
159	0xbc4136fc	-0.011792894
160	0xbb93ca64	-0.004510211
161	0x3b7f012b	0.0038910608
162	0xbb79d8ab	-0.003812353
163	0x3bd88825	0.0066080266
164	0xbba8f893	-0.0051565855
165	0x3a88c150	0.0010433588
166	0x3b10f318	0.0022117551
167	0xbbc34609	-0.0059592766
168	0x3c7b34f1	0.015332446
169	0xbb38ede5	-0.0028217968
170	0x3cefd813	0.029277837
171	0x3cb71e0c	0.022353195
172	0xbb66eaec	-0.003523524
173	0xbb813def	-0.0039441506
174	0xbbb7c197	-0.0056077945
175	0xbb075470	-0.0020649694
176	0xba949cf3	-0.0011338278
177	0x3ad66482	0.0016356858
178	0xbb33dd77	-0.0027445236
179	0x3c6d2fa3	0.0144766895
180	0x3cd3f5c2	0.025874022
181	0x3c8b872a	0.017032225
182	0xbc128c47	-0.008944578
183	0x3c00b7d8	0.007856332
184	0x3c41664d	0.011804176
185	0xb971d534	-0.00023062975
186	0xbc43616d	-0.011925084
187	0xbb94b998	-0.004538726
188	0xbba786a3	-0.0051124855
189	0x3a654b49	0.0008746875
190	0xbbdeb50d	-0.0067964853
191	0x3a92ab43	0.0011189956
192	0xbb4efe9c	-0.0031584864
193	0x3c03dbeb	0.008048038
194	0xbbef5f67	-0.007305074
195	0xba10f99b	-0.0005530358
196	0x3b8181fe	0.003952264
197	0xbb631d18	-0.0034654792
198	0xbb071f63	-0.0020618073
199	0xbc41b68b	-0.011823307
200	0xbbcd49d5	-0.006264905
201	0xbaa8072c	-0.001281952
202	0xbbfacfed	-0.007654181
203	0xbbf2b5bf	-0.0074069197
204	0x3beb4360	0.0071796626
205	0xbba6168d	-0.005068606
206	0xbb892163	-0.004184888
207	0x3b7cad9d	0.003855563
208	0x3b9bcb77	0.0047544795
209	0x3b74d15c	0.0037356233
210	0xbb97824f	-0.0046236883
211	0x3be40d29	0.0069595766
212	0xbbe045ac	-0.006844243
213	0x3ae3ef29	0.0017390001
214	0x3baa6684	0.005200209
215	0x3bbee703	0.0058258786
216	0x3bf26720	0.0073975474
217	0xbbaf2c70	-0.0053458735
218	0xbbd9747b	-0.0066362
219	0xbb4b51e9	-0.0031024164
220	0x3b4ccdd8	0.0031250622
221	0x3bfbea31	0.00768783
222	0xbc0d0645	-0.008607452
223	0xbbc11eba	-0.0058935555
224	0x3a0d64b4	0.0005393729
225	0x3a82c94d	0.0009978205
226	0xba3d8410	-0.00072294567
227	0x3a3c4448	0.00071818056
228	0xb80a529e	-3.2978707e-05
229	0x3ad6766a	0.0016362194
230	0xb9dba1ec	-0.00041891576
231	0xba295f17	-0.0006461008
232	0x3bb00d71	0.005372696
233	0xbabad083	-0.0014252815
234	0x3ba8d44e	0.005152262
235	0x3b6b9998	0.0035949703
236	0xb97ea713	-0.00024285568
237	0xba1ae5e3	-0.00059088896
238	0xbabca3c8	-0.0014392072
239	0x3952b585	0.00020094782
240	0x3b035997	0.0020042413
241	0xb99c2d84	-0.0002978855
242	0xb82a37ad	-4.058301e-05
243	0x3b2c9452	0.0026333523
244	0x3b9bdd41	0.0047566
245	0x3a23f386	0.00062542444
246	0x39002562	0.00012220957
247	0x3ace9568	0.0015761079
248	0x3b038f6e	0.0020074504
249	0x39b5bfc0	0.00034665875
250	0xbabadd78	-0.0014256677
251	0xba6ec2ef	-0.0009108027
252	0xba684688	-0.00088606076
253	0x397c79d3	0.00024077976
254	0xbaa2ffd4	-0.0012435862
255	0xbaf41776	-0.0018622715

exp_avg_sq f4 [32, 32]
0	0x35af0164	1.3038921e-06
1	0x37638f8a	1.3563675e-05
2	0x36f0656a	7.1643635e-06
3	0x36b69a5a	5.4419916e-06
4	0x370a147b	8.2302095e-06
5	0x369701f7	4.5003794e-06
6	0x370f1b3a	8.529803e-06
7	0x379d2950	1.8735096e-05
8	0x3765e8c3	1.3703658e-05
9	0x35d9cba5	1.6227028e-06
10	0x37985b99	1.8162465e-05
11	0x3780021d	1.5259773e-05
12	0x3706ad30	8.027346e-06
13	0x36fc5049	7.5195317e-06
14	0x370b150d	8.289947e-06
15	0x3720820d	9.567023e-06
16	0x3776d2f7	1.4711862e-05
17	0x358a7cdb	1.0318139e-06
18	0x36816512	3.8562657e-06
19	0x367c2c4d	3.7576713e-06
20	0x378e7981	1.6984299e-05
21	0x36997816	4.573735e-06
22	0x37a016ab	1.9084042e-05
23	0x3692fc23	4.3804916e-06
24	0x36e14f89	6.7147816e-06
25	0x369ce20b	4.675477e-06
26	0x36c233c1	5.7876755e-06
27	0x3606adc3	2.0068699e-06
28	0x367ede82	3.7978466e-06
29	0x3786fe87	1.6092568e-05
30	0x36ea5bfc	6.984452e-06
31	0x37299a34	1.0109088e-05
32	0x38835eca	6.2642226e-05
33	0x390bd9bb	0.00013337184
34	0x38a742a8	7.975596e-05
35	0x38a57aa1	7.8906545e-05
36	0x38d802a4	0.000103001745
37	0x38af1250	8.348061e-05
38	0x38d904f8	0.00010348292
39	0x39ac5a0d	0.0003287349
40	0x3a25288b	0.0006300292
41	0x387a1dbd	5.963234e-05
42	0x3a862481	0.0010234268
43	0x3a32198e	0.0006793969
44	0x3988d006	0.0002609493
45	0x38ace53b	8.2442966e-05
46	0x39162902	0.00014320391
47	0x38978425	7.224855e-05
48	0x391650a3	0.00014335154
49	0x38234aca	3.893188e-05
50	0x38c9f54c	9.630117e-05
51	0x39aed644	0.00033347507
52	0x3a5fead8	0.00085417693
53	0x395bf1dd	0.00020975569
54	0x3917896a	0.00014451673
55	0x3893b423	7.043059e-05
56	0x391776bc	0.00014444714
57	0x3843483b	4.6558893e-05
58	0x39189f7f	0.00014555267
59	0x3822c01c	3.8802726e-05
60	0x384b067b	4.8405007e-05
61	0x39257728	0.00015780015
62	0x39207ef4	0.00015306083
63	0x393c7cd4	0.00017975579
64	0x34137684	1.3733558e-07
65	0x34f279c4	4.516461e-07
66	0x34a2ed01	3.0347294e-07
67	0x3423fe3c	1.5273048e-07
68	0x3463c316	2.1211994e-07
69	0x344d2f33	1.9109284e-07
70	0x34b3ab12	3.3465818e-07
71	0x35930b8d	1.0955715e-06
72	0x361c4871	2.3287978e-06
73	0x34815070	2.4086648e-07
74	0x365f35cf	3.326091e-06
75	0x36096b88	2.0477182e-06
76	0x34f19444	4.4997626e-07
77	0x34a95360	3.1539366e-07
78	0x352a16d0	6.336313e-07
79	0x344c82f3	1.904662e-07
80	0x353d2a9e	7.047e-07
81	0x33b9b5cf	8.6478046e-08
82	0x347568a5	2.2855473e-07
83	0x35aa489b	1.2687118e-06
84	0x363a3504	2.774702e-06
85	0x350a1188	5.143452e-07
86	0x34ef47e9	4.456954e-07
87	0x34cb34b7	3.7850052e-07
88	0x35410317	7.19026e-07
89	0x33eb5ef2	1.0960311e-07
90	0x352a752c	6.350044e-07
91	0x344d772b	1.9135466e-07
92	0x3419a723	1.431004e-07
93	0x34af9ee1	3.271189e-07
94	0x3518be8f	5.690171e-07
95	0x353cfbeb	7.0402047e-07
96	0x375cad41	1.3153361e-05
97	0x38479dd2	4.759228e-05
98	0x37e8eb3c	2.7766095e-05
99	0x37bd71b9	2.2583512e-05
100	0x37c8cbe7	2.3936807e-05
101	0x37cb6b42	2.4249432e-05
102	0x3824a5c8	3.9255043e-05
103	0x3901894e	0.00012353549
104	0x39dd6e53	0.00042234603
105	0x37d823d8	2.5765898e-05
106	0x3a23f9b6	0.00062551664
107	0x39bb34b1	0.00035706678
108	0x38336176	4.2767693e-05
109	0x38005d3d	3.0604413e-05
110	0x3899701e	7.316492e-05
111	0x3795defe	1.7866023e-05
112	0x3899fceb	7.342718e-05
113	0x3752a7e6	1.2556067e-05
114	0x37dbd023	2.6203756e-05
115	0x395efff5	0.00021266921
116	0x3a058697	0.0005093603
117	0x38d7cab9	0.00010289759
118	0x387e7efe	6.067659e-05
119	0x3834e5e1	4.3129436e-05
120	0x38c2e0d7	9.2925206e-05
121	0x37198fb1	9.152966e-06
122	0x38a30460	7.7732606e-05
123	0x37c5b61c	2.3569031e-05
124	0x37da65c7	2.6035019e-05
125	0x3812b15e	3.49743e-05
126	0x389a00f5	7.3434705e-05
127	0x38c4108c	9.3490904e-05
128	0x38bb8e46	8.943355e-05
129	0x394ff553	0.00019832449
130	0x3926cc52	0.00015907109
131	0x38b47002	8.603932e-05
132	0x38c6bcc7	9.476538e-05
133	0x389d46ef	7.499556e-05
134	0x38c96ba1	9.604474e-05
135	0x39ded319	0.0004250042
136	0x39cfd5f2	0.00039641518
137	0x38a9fc89	8.105586e-05
138	0x3a1856b3	0.0005811259
139	0x39e52a84	0.0004370996
140	0x3951b10d	0.0001999775
141	0x38d2987e	0.00010041984
142	0x38dec1b4	0.00010621865
143	0x387a5f0c	5.9693164e-05
144	0x39342709	0.0001718068
145	0x388fdd3e	6.859981e-05
146	0x38bb8825	8.942214e-05
147	0x39e3e2ed	0.00043465887
148	0x3a02daa5	0.0004991687
149	0x3995c116	0.00028563355
150	0x39643290	0.0002176261
151	0x392b83ce	0.00016356932
152	0x398fd855	0.00027436265
153	0x38a62512	7.922402e-05
154	0x3984c3a9	0.0002532278
155	0x3881c9fe	6.188823e-05
156	0x3874c92e	5.8361496e-05
157	0x39394174	0.00017667358
158	0x398edbbd	0.00027248068
159	0x39125626	0.00013955738
160	0x383beebc	4.4806613e-05
161	0x38fb8da9	0.00011994999
162	0x38bf9392	9.135077e-05
163	0x388f946f	6.846419e-05
164	0x3850e801	4.9807135e-05
165	0x384b61d1	4.849007e-05
166	0x38c373c6	9.319889e-05
167	0x39a45a49	0.00031347785
168	0x3a41c0f7	0.000739112
169	0x3858e6ae	5.171325e-05
170	0x3a945a72	0.0011318459
171	0x3a317048	0.00067687454
172	0x3900a8f1	0.00012269967
173	0x389c50c5	7.453704e-05
174	0x390d5b31	0.0001348078
175	0x383fc01a	4.5716857e-05
176	0x391a8ed0	0.00014739786
177	0x38067880	3.2060314e-05
178	0x38848bd2	6.320294e-05
179	0x39eac57c	0.00044779095
180	0x3a724409	0.00092417054
181	0x39832ccc	0.00025019643
182	0x3910822e	0.00013781406
183	0x38d4a026	0.00010138778
184	0x395c7783	0.00021025357
185	0x38240c82	3.9112296e-05
186	0x39441851	0.00018701075
187	0x3839403e	4.4167267e-05
188	0x3849813f	4.8042504e-05
189	0x38c62f55	9.450192e-05
190	0x394a898c	0.00019315461
191	0x39345e07	0.00017201166
192	0x378a2c73	1.647158e-05
193	0x386e841c	5.686666e-05
194	0x383f9bf5	4.5683195e-05
195	0x375a3e71	1.3008351e-05
196	0x37a112a8	1.9201383e-05
197	0x378d746c	1.6862723e-05
198	0x3793dbe6	1.7626164e-05
199	0x38ee3ec3	0.00011360415
200	0x3833f4d5	4.2904943e-05
201	0x370c6aba	8.3694995e-06
202	0x38305576	4.204126e-05
203	0x3833cae3	4.286588e-05
204	0x3832976b	4.2579526e-05
205	0x37ea624c	2.7940747e-05
206	0x37b76ce1	2.1866e-05
207	0x37a43106	1.9573152e-05
208	0x380c7ed9	3.3496737e-05
209	0x376337a2	1.3543207e-05
210	0x37ac0b47	2.050925e-05
211	0x3861009f	5.364476e-05
212	0x38239fa9	3.9010924e-05
213	0x380a3ebd	3.2960193e-05
214	0x3820faad	3.8380433e-05
215	0x3809cfc5	3.2856846e-05
216	0x386579ca	5.471128e-05
217	0x37d82c22	2.5769757e-05
218	0x385c737d	5.2559644e-05
219	0x37338084	1.0699154e-05
220	0x373e5449	1.1344507e-05
221	0x3869149e	5.557073e-05
222	0x3884b0a1	6.32715e-05
223	0x37de0b79	2.6469805e-05
224	0x3687c1b1	4.045862e-06
225	0x36c5585d	5.8813444e-06
226	0x362cb1e8	2.5733552e-06
227	0x37749f08	1.4580561e-05
228	0x37128684	8.7335975e-06
229	0x3719e9b2	9.173922e-06
230	0x375c62c6	1.3136019e-05
231	0x3799ba0c	1.8325656e-05
232	0x390ae1e4	0.00013244856
233	0x371d4ef9	9.3763165e-06
234	0x394f5363	0.00019772122
235	0x3911818f	0.00013876542
236	0x377cb382	1.5062165e-05
237	0x36ab35e0	5.102469e-06
238	0x3769a90f	1.3927244e-05
239	0x36771053	3.681537e-06
240	0x375c29d1	1.3122758e-05
241	0x361325b8	2.1926662e-06
242	0x36d2becb	6.280699e-06
243	0x38606cb7	5.350701e-05
244	0x3940b908	0.00018379476
245	0x382eb49d	4.1653042e-05
246	0x37979b17	1.8072822e-05
247	0x37016e2e	7.714652e-06
248	0x377474d3	1.4570734e-05
249	0x362c443e	2.566972e-06
250	0x375edec9	1.3284102e-05
251	0x36720599	3.6064068e-06
252	0x36e3abe5	6.7851383e-06
253	0x36ee9eaa	7.1114237e-06
254	0x3730967a	1.0525453e-05
255	0x37927894	1.7460705e-05
