logs/rl_games/klask/s2r_collision_ro_a0_2/nn/klask.pth (torch, 29978 bytes, 24 tensors)

a2c_network.sigma f4 [4]
-1.2642208 -0.95223117 -0.4178766 -0.3388707
00000000: fdd1 a1bf 6cc5 73bf ecf3 d5be 7680 adbe

a2c_network.actor_mlp.0.weight f4 [32, 12]
0.07849403 -0.41833612 -0.008865823 0.001855493 0.00888918 -0.032269154 0.00032819164 -0.015569981
-0.1021428 -3.003842 -0.9531454 -6.208005 0.26593181 -0.5024935 -0.039008584 0.037798747
-0.2532466 0.085788846 0.012485477 0.005775375 -0.30618337 0.3816773 -5.616089 0.14722757
-2.50274 2.3015366 0.16177009 0.11460473 0.0013484933 -0.10218897 0.03493884 0.0040159016
1.1294609 -1.5271305 0.5179416 -0.48317793 -0.39854226 -2.3189914 0.08190207 0.052232563
0.4114789 0.3466743 -0.0044847 0.049266387 0.41113833 0.8343158 -0.03674526 0.091788605
1.5855759 -2.342411 -0.060738042 -0.050327115 -0.287012 0.018498758 0.01562872 -0.06419523
-2.03456 0.65280795 -0.069972955 -0.0632948 3.323736 -1.3817339 -0.08891723 0.049930654
0.49106377 -0.06572992 0.0027389731 0.03446473 2.8990312 -3.6307757 0.78261065 -1.5891341
-0.09025154 0.33835796 0.14223766 0.052754194 0.04945663 -0.29427648 -0.0070222756 0.004539347
0.15082137 -0.38571534 -1.7544643 0.0970576 -0.4943194 -0.12779127 0.052436877 -0.03899209
-0.084721915 0.07777133 -0.054217797 -0.090880476 0.6793523 -0.2817883 -0.22083583 0.0530782
-0.7556277 -1.429575 0.021381427 -0.67200303 -0.15698634 -0.45163554 -0.06065799 0.039123002
-0.25071624 -3.3486426 0.016519656 0.4050281 -0.93709975 -1.2865778 0.21072417 -0.11210508
-0.028934417 -0.24808393 -0.020778846 -0.024714518 -2.2965846 0.87472415 0.23651943 0.32560974
-0.32303903 0.32045868 -0.021662837 -0.24931626 -0.12099361 0.11804587 0.0042355433 0.018877132
0.41549534 -4.5452833 -0.27335486 0.6421569 -0.097576074 -1.3631939 0.018595437 -0.03842475
-0.016866103 -0.13103865 0.026794702 -0.026297024 -0.31764683 -5.609681 -0.16963692 -0.74835193
-0.43989313 0.60491586 -0.041976184 5.0842714 0.11353147 -0.079328075 0.0315621 0.017075196
0.40870598 2.7522786 -0.08750295 0.5717131 0.33551323 -0.39681563 -0.107946426 0.12807001
0.072581336 -0.20867175 -0.03638272 0.028475251 -0.17200959 0.6664998 0.17796466 -0.20926924
-0.33540186 2.7140865 0.030816084 -2.8739367 0.03890042 0.00859897 -0.019929642 0.0077617993
0.39109796 6.04614 -0.10514856 0.92073447 1.8146509 1.4173522 0.118009865 -0.12982008
0.05014508 -0.0020412854 0.013356141 -0.055238012 -3.0360534 -1.7286179 0.08871199 -0.13897724
-0.59258133 -0.9382778 0.081411734 -0.0013017174 -0.3160922 -0.1364675 0.019453932 -0.028614918
-4.205787 -0.70539135 -1.4538509 -0.89250344 0.08185069 1.0632391 0.052412678 0.23186524
-0.22987989 0.29782423 -0.021561688 -0.00041183192 -1.2314718 4.897636 0.0749017 2.2558224
-0.42528814 -0.6603692 0.021283595 -0.03745808 -0.96813774 -0.20060745 0.019232363 0.042166065
0.74889886 0.04883729 -0.23845623 0.051708594 1.9401164 0.07455935 0.18996358 0.31949094
0.02886205 0.053292185 0.009002953 -0.0017302126 -1.3726833 1.2447588 -0.7060014 -1.6835845
-0.4028693 -0.6572526 0.011834084 -0.85870576 0.40385813 -0.06726236 -0.0735527 0.006971167
0.67333484 -2.047359 1.5673805 -0.51413333 -2.4707925 -0.22929846 -0.35063267 0.11177873
00000000: 7ac1 a03d 2730 d6be f541 11bc 0434 f33a
00000010: eca3 113c a92c 04bd 2311 ac39 3c19 7fbc
00000020: 3f30 d1bd f33e 40c0 5601 74bf faa7 c6c0
00000030: 3728 883e 6aa3 00bf 77c7 1fbd dcd2 1a3d
00000040: 8aa9 81be 10b2 af3d e38f 4c3c 5b3f bd3b
00000050: 11c4 9cbe 356b c33e 00b7 b3c0 d3c2 163e
00000060: e42c 20c0 604c 1340 0fa7 253e e2b5 ea3d
00000070: edbf b03a 7348 d1bd 071c 0f3d d397 833b
00000080: 2d92 903f 0379 c3bf d297 043f 1963 f7be
00000090: bb0d ccbe 5b6a 14c0 46bc a73d d0f1 553d
000000a0: 5dad d23e 4b7f b13e 64f4 92bb 8dcb 493d
000000b0: b980 d23e b895 553f 3382 16bd aafb bb3d
000000c0: 27f4 ca3f 10ea 15c0 74c8 78bd ce23 4ebd
000000d0: 3df3 92be b58a 973c cd07 803c ca78 83bd
000000e0: 3b36 02c0 6c1e 273f fb4d 8fbd b4a0 81bd
000000f0: 17b8 5440 a8dc b0bf 3d1a b6bd 1684 4c3d
00000100: b66c fb3e 699d 86bd 5880 333b e42a 0d3d
00000110: ba89 3940 a15e 68c0 2c59 483f bf68 cbbf
00000120: cdd5 b8bd 413d ad3e c0a6 113e c814 583d
00000130: 0993 4a3d 68ab 96be 1e1b e6bb cdbe 943b
00000140: eb70 1a3e 7b7c c5be 4992 e0bf 23c6 c63d
00000150: 6f17 fdbe b7db 02be 0dc8 563d 2bb6 1fbd
00000160: af82 adbd 9346 9f3d 7b13 5ebd 8b1f babd
00000170: 08ea 2d3f 8e46 90be ca22 62be 8768 593d
00000180: d170 41bf 50fc b6bf 1a28 af3c 6408 2cbf
00000190: 07c1 20be c63c e7be 8374 78bd 713f 203d
000001a0: e15d 80be 2950 56c0 3b54 873c d85f cf3e
000001b0: c5e5 6fbf 95ae a4bf 14c8 573e 5997 e5bd
000001c0: df07 edbc b709 7ebe 6638 aabc 1a76 cabc
000001d0: 3efb 12c0 eced 5f3f 2632 723e 52b6 a63e
000001e0: 5f65 a5be 2913 a43e 4376 b1bc c34c 7fbe
000001f0: 7fcb f7bd 08c2 f13d 50ca 8a3b 37a4 9a3c
00000200: cebb d43e f672 91c0 2bf5 8bbe 6564 243f
00000210: f7d5 c7bd 237d aebf 7555 983c 4563 1dbd
00000220: c82a 8abc ff2e 06be 9080 db3c db6c d7bc
00000230: 9ba2 a2be 8282 b3c0 4db5 2dbe fe93 3fbf
00000240: ac39 e1be c4db 1a3f 38ef 2bbd 5ab2 a240
00000250: 3083 e83d c276 a2bd 4347 013d 48e1 8b3c
00000260: e941 d13e 5525 3040 bf34 b3bd ca5b 123f
00000270: 64c8 ab3e 6b2b cbbe 0413 ddbd c924 033e
00000280: 86a5 943d 0cae 55be 0c06 15bd ee44 e93c
00000290: 4823 30be bb9f 2a3f 5e3c 363e ad4a 56be
000002a0: cbb9 abbe 98b3 2d40 0372 fc3c 94ee 37c0
000002b0: 0c56 1f3d b2e2 0c3c 7d43 a3bc b156 fe3b
000002c0: fe3d c83e fb79 c140 2158 d7bd 41b5 6b3f
000002d0: 7b46 e83f cc6b b53f 28af f13d 8eef 04be
000002e0: ed64 4d3d 16c7 05bb b7d3 5a3c 4141 62bd
000002f0: b34e 42c0 5a43 ddbf a2ae b53d 0d50 0ebe
00000300: 69b3 17bf f932 70bf 32bb a63d 639e aaba
00000310: d6d6 a1be 23be 0bbe da5d 9f3c d569 eabc
00000320: cf95 86c0 8794 34bf c917 babf 1b7b 64bf
00000330: 56a1 a73d 3818 883f adae 563d 156e 6d3e
00000340: a265 6bbe 6b7c 983e 23a2 b0bc 25eb d7b9
00000350: dea0 9dbf 6fb9 9c40 1066 993d 655f 1040
00000360: 5ebf d9be f50d 29bf ef5a ae3c a56d 19bd
00000370: e0d7 77bf 0a6c 4dbe 308d 9d3c 53b6 2c3d
00000380: d6b7 3f3f 9c09 483d df2d 74be 64cc 533d
00000390: bc55 f83f 93b2 983d d085 423e 5194 a33e
000003a0: 1b70 ec3c e848 5a3d 1f81 133c 4dc8 e2ba
000003b0: 16b4 afbf 4254 9f3f 82bc 34bf b27f d7bf
000003c0: e344 cebe b541 28bf bfe3 413c 24d4 5bbf
000003d0: 7ec6 ce3e d9c0 89bd cca2 96bd 636e e43b
000003e0: ac5f 2c3f ee07 03c0 ed9f c83f 3e9e 03bf
000003f0: 7721 1ec0 37cd 6abe 2086 b3be 3fec e43d

a2c_network.actor_mlp.0.bias f4 [32]
0.362816 0.49504095 0.12591475 -0.2843397 -0.23566453 -0.68618745 -0.25872573 -0.062434006
-0.99482965 -0.36880377 0.20954101 0.04644316 -0.5014568 -0.02220751 -0.36787885 -0.31257138
-0.23359889 -0.6605313 -0.07552232 0.14358392 0.0822122 0.056425665 -0.044259038 0.10767003
0.40931052 -0.007458253 -0.06663269 -0.08502718 -0.655007 0.5032618 -0.7735765 -0.11173579
00000000: 05c3 b93e 0276 fd3e ccef 003e f994 91be
00000010: 0b52 71be fba9 2fbf b377 84be cdba 7fbd
00000020: 28ad 7ebf d9d3 bcbe eb91 563e 2f3b 3e3d
00000030: 795f 00bf 86ec b5bc 9e5a bcbe 5b09 a0be
00000040: 8c34 6fbe 9418 29bf 72ab 9abd aa07 133e
00000050: df5e a83d 991e 673d f748 35bd 1b82 dc3d
00000060: 2691 d13e 5c64 f4bb b876 88bd bb22 aebd
00000070: 8aae 27bf c4d5 003f 1c09 46bf bcd5 e4bd

a2c_network.actor_mlp.2.weight f4 [32, 32]
-0.108151905 -0.01912778 0.095838025 0.073627576 -0.07085963 0.122663066 -0.10151987 0.03973862
-0.16203153 -0.0041185515 0.03589725 0.039218407 0.015956827 0.055311438 -0.07244419 0.03301226
0.30400327 0.061361168 0.04224289 0.16367523 0.1371893 0.120381966 -0.08435072 0.12470826
-0.087368555 0.021958439 -0.23825999 -0.012118251 0.047921337 0.01079922 -0.094675764 0.31989777
-0.91436845 -0.12491281 0.20971131 0.05569276 0.35435593 -0.09349192 -0.8246107 -0.041940365
-0.02319818 1.0199484 0.7239889 0.21230178 0.15726906 -0.15852879 -0.2512498 0.39198142
-0.41467398 -0.89227825 0.21661192 -0.8099209 0.0883598 -0.4277561 -0.30284342 -0.094751924
-3.752605 -0.26416346 0.019210832 0.019061893 -0.21932428 -1.1946341 -0.021187536 0.1353118
0.007947677 0.03226362 -0.057787843 0.090111546 -0.09276063 -0.046007596 -0.14577606 0.2543769
-0.042123415 0.0835137 -0.10773492 0.15382263 0.013247427 -0.13950144 0.015028116 -0.11166836
0.08048489 0.06380877 0.020449318 -0.2891386 0.06059109 -0.38085878 0.092614524 -0.055027742
0.017977528 0.092021875 0.059932787 0.15283678 -0.011868651 -0.027873537 -0.17358494 0.37026116
0.030057097 -0.08809787 -0.14873327 0.14586194 0.2039041 -0.29871538 0.14356236 0.072348274
-0.036412176 -0.4009784 0.13484485 0.039238684 -0.040662564 0.11655161 0.061947577 0.031078864
-0.2698679 -0.13587956 0.09361805 0.13501321 0.024308365 -0.0105705345 0.12423572 -0.094454795
0.032781944 -0.07248326 -0.2659401 0.1604503 0.068456076 -0.0043475544 -0.07338754 -0.20103604
-0.022916514 -0.13381723 -0.04643925 -0.17021076 -0.18579863 0.48390597 0.06404259 0.015635848
-0.19077148 0.5707605 -0.07547967 -0.15740494 0.24617368 -0.26334077 0.11500168 -0.49798274
0.29838237 -0.12214284 -0.120001554 -0.5288922 -0.20708798 -0.16957487 -0.35014406 0.6734093
0.11376458 0.26223361 -0.21814662 -0.065541446 -0.3313784 -0.251214 0.27639762 0.33747643
0.25022388 -0.5515494 0.7243788 0.35993442 0.17192757 0.5709867 -0.51482224 0.061723
-0.43019566 0.07058482 0.8797812 0.704526 0.22266465 0.16115806 -0.65893906 -0.367847
0.19341931 -1.7345614 0.08047558 -0.37053856 0.5365659 -0.33816242 -0.3138925 -0.011457168
-0.05801214 0.16914088 0.02167052 -0.011185875 -1.2777352 0.14175907 -0.2171049 -0.37846637
-0.04856613 -0.26739135 0.20816445 0.45054346 0.015002406 0.20335837 0.24502796 0.080792665
-0.4152637 0.13615982 0.1816462 -0.065284565 -0.029423451 -0.5026997 0.35733783 -0.38681367
0.40840107 -0.24297512 -0.92400956 -0.2427391 -0.10017025 -0.09678719 -0.22215575 0.08758642
0.022431178 0.3018354 -0.2753993 -0.12748891 -0.24300991 0.10333704 0.6325773 -0.03126084
-0.18881874 -0.1630946 -0.33851334 0.3451506 0.010150314 -1.522643 0.53934616 0.10826266
-0.350123 -0.30271104 -0.23626211 -0.3630205 0.3423005 0.4902327 -0.2723558 -0.22114253
-1.4020809 -1.0601764 -0.112574495 0.189368 0.40543935 0.024160013 -0.27527297 0.4632086
-1.1296964 0.25034973 -0.083249375 0.045245316 -0.09114384 -0.025567658 0.3193289 -1.0203173
00000000: bf7e ddbd ddb1 9cbc ba46 c43d 0eca 963d
00000010: db1e 91bd c636 fb3d a6e9 cfbd f7c4 223d
00000020: 98eb 25be eaf4 86bb ff08 133d 7ba3 203d
00000030: e4b7 823c 3f8e 623d 9f5d 94bd dd37 073d
00000040: 51a6 9b3e d955 7b3d e106 2d3d 7b9a 273e
00000050: 5a7b 0c3e d28a f63d 12c0 acbd 0b67 ff3d
00000060: 49ee b2bd 2fe2 b33c 6dfa 73be a18b 46bc
00000070: 2a49 443d 36ef 303c 5ee5 c1bd a4c9 a33e
00000080: 0d14 6abf 4ad2 ffbd 90be 563e 171e 643d
00000090: 246e b53e b178 bfbd b019 53bf a9c9 2bbd
000000a0: 1c0a bebc ab8d 823f 5657 393f a365 593e
000000b0: 240b 213e 5f55 22be d0a3 80be cab1 c83e
000000c0: 2650 d4be 596c 64bf 84cf 5d3e fa56 4fbf
000000d0: fcf5 b43d d902 dbbe 4b0e 9bbe 4c0d c2bd
000000e0: ae2a 70c0 6f40 87be 0960 9d3c b027 9c3c
000000f0: 8b96 60be c5e9 98bf 7c91 adbc 2d8f 0a3e
00000100: f936 023c dc26 043d f2b2 6cbd 678c b83d
00000110: 49f9 bdbd 7672 3cbd 5246 15be b03d 823e
00000120: 9a89 2cbd 3b09 ab3d 20a4 dcbd ae83 1d3e
00000130: bc0b 593c 77d9 0ebe 7d38 763c 62b2 e4bd
00000140: 43d5 a43d 2cae 823d 5485 a73c f909 94be
00000150: 5d2e 783d ecff c2be afac bd3d c564 61bd
00000160: 9c45 933c f775 bc3d 157c 753d 3f81 1c3e
00000170: bb74 42bc 0b57 e4bc 40c0 31be df92 bd3e
00000180: 4d3a f63c a86c b4bd 894d 18be d55c 153e
00000190: 3dcc 503e 39f1 98be 0302 133e 552b 943d
000001a0: ef24 15bd 0a4d cdbe c514 0a3e beb8 203d
000001b0: ca8d 26bd 9cb2 ee3d bebc 7d3d 1a99 fe3c
000001c0: 202c 8abe 0324 0bbe d2ba bf3d e740 0a3e
000001d0: 5622 c73c 0930 2dbc 4c6f fe3d 8471 c1bd
000001e0: 5c46 063d 1a72 94bd 4d29 88be 154d 243e
000001f0: b332 8c3d ee75 8ebb 354c 96bd 64dc 4dbe
00000200: 6abb bbbc 6207 09be 1537 3ebd bb4b 2ebe
00000210: ff41 3ebe 86c2 f73e c328 833d c016 803c
00000220: 9959 43be 5c1d 123f 1695 9abd c32e 21be
00000230: f414 7c3e 9ad4 86be 0086 eb3d 98f7 febe
00000240: 93c5 983e 0626 fabd 60c3 f5bd 7b65 07bf
00000250: df0e 54be 09a5 2dbe 1546 b3be 8d64 2c3f
00000260: 67fd e83d 7c43 863e d461 5fbe 983a 86bd
00000270: 6eaa a9be 1f9f 80be fd83 8d3e b6c9 ac3e
00000280: 581d 803e 5732 0dbf e470 393f 5349 b83e
00000290: c80d 303e 2f2c 123f 64cb 03bf 42d1 7c3d
000002a0: 9b42 dcbe c68e 903d 5739 613f d15b 343f
000002b0: 3402 643e 9e06 253e 3bb0 28bf 7156 bcbe
000002c0: b60f 463e 1c06 debf 62d0 a43d 3bb7 bdbe
000002d0: 625c 093f a023 adbe 85b6 a0be d8b6 3bbc
000002e0: 239e 6dbd 4433 2d3e 6086 b13c f644 37bc
000002f0: d48c a3bf 4a29 113e bf50 5ebe 58c6 c1be
00000300: 47ed 46bd 85e7 88be 1029 553e a2ad e63e
00000310: a7cc 753c 2d3d 503e 9ce8 7a3e a076 a53d
00000320: 729d d4be 7b6d 0b3e 7601 3a3e eab3 85bd
00000330: 7309 f1bc edb0 00bf fcf4 b63e 710c c6be
00000340: f219 d13e 78ce 78be e48b 6cbf 9990 78be
00000350: 0f26 cdbd 5d38 c6bd cc7c 63be 8260 b33d
00000360: 97c1 b73c 2b8a 9a3e 2301 8dbe 748c 02be
00000370: 97d7 78be 5fa2 d33d 96f0 213f 5e0b 00bd
00000380: b359 41be 4502 27be 9f51 adbe 94b7 b03e
00000390: 814d 263c f7e5 c2bf 9712 0a3f d0b8 dd3d
000003a0: 5243 b3be f1fc 9abe b2ee 71be d3dd b9be
000003b0: 0342 af3e c8ff fa3e 3872 8bbe 3073 62be
000003c0: 6377 b3bf dcb3 87bf 758d e6bd afe9 413e
000003d0: bf95 cf3e 38eb c53c 94f0 8cbe ad29 ed3e
000003e0: e499 90bf d72d 803e a67e aabd 2753 393d
000003f0: 9fa9 babd 4473 d1bc 147f a33e c299 82bf

a2c_network.actor_mlp.2.bias f4 [32]
-0.022091841 -0.6714948 -0.02660956 -0.2286432 0.28690654 1.4775757 0.04687938 -0.48795617
-0.08477491 -0.7992418 -0.42026797 -0.9161971 -0.45670328 -0.09128862 -0.18233435 0.14429599
0.057573266 -0.31330818 -0.21483923 -0.32432932 0.14462084 -1.0836987 0.31433475 -0.117705196
-0.16102082 -0.061520204 -0.09488993 -0.15140651 0.24492778 0.17796037 -0.0010702703 -1.3247857
00000000: f3f9 b4bc 15e7 2bbf 4bfc d9bc 7121 6abe
00000010: 6ae5 923e 3321 bd3f 9804 403d 64d5 f9be
00000020: 789e adbd 1c9b 4cbf 5d2d d7be e58b 6abf
00000030: 03d5 e9be 87f5 babd dbb5 3abe 54c2 133e
00000040: f2d1 6b3d ee69 a0be d1fe 5bbe 7e0e a6be
00000050: 7c17 143e a4b6 8abf 7cf0 a03e 6c0f f1bd
00000060: a4e2 24be 9cfc 7bbd a755 c2bd 4f0a 1bbe
00000070: 59ce 7a3e 3e3b 363e 5048 8cba 9492 a9bf

a2c_network.value.weight f4 [1, 32]
0.012029065 -1.3718292 -0.0040635318 0.042384125 0.0035922334 0.82463837 -0.0062716887 -0.58532554
-0.09274401 -0.9220683 0.05114241 -0.6508063 -0.8543552 0.0066355555 0.056977298 0.17651866
-0.008810554 -0.09465851 0.007340462 -0.0035283607 -0.030539297 -1.423496 -0.06468611 0.009857944
0.0027036492 0.018650714 0.023275807 0.0036026847 -1.1481779 0.17388994 0.0043909843 -0.8521528
00000000: 8e15 453c 1998 afbf 6027 85bb fa9a 2d3d
00000010: ad6b 6b3b 801b 533f bd82 cdbb e5d7 15bf
00000020: 92f0 bdbd ab0c 6cbf b47a 513d 3e9b 26bf
00000030: 06b7 5abf 136f d93b 0761 693d 4fc1 343e
00000040: 245a 10bc 52dc c1bd 4288 f03b 123c 67bb
00000050: 8c2d fabc 1e35 b6bf 277a 84bd 3783 213c
00000060: b52f 313b 62c9 983c e8ac be3c 051b 6c3b
00000070: 7ef7 92bf 3410 323e 3fe2 8f3b b026 5abf

a2c_network.mu.weight f4 [4, 32]
-0.00301338 0.12902126 -0.0018664295 -0.005220673 -0.02155657 0.07954071 -0.01341645 0.052052796
-0.55739003 -0.05931301 0.40294886 0.028013064 0.021875512 -0.00217419 0.0049726823 -0.0057833376
0.0018829996 0.0030070234 -0.0010791958 0.0003186216 0.009622765 -0.038796924 0.023207573 -0.0025345564
0.0013417347 -0.0028078689 -0.0032904893 -0.004048487 -0.14030404 0.049211636 -0.00039039264 -0.08047928
0.008688687 -0.20483996 -0.010280591 0.003191582 0.04665454 -0.3042425 0.045683034 -0.059416287
-0.13148786 -0.10117905 -0.07718051 -0.06862642 0.03859491 -0.012942487 -0.008598491 0.7389597
-0.0077411216 -0.28262457 -0.0032067513 0.0007476465 -0.0056199585 -0.15932591 -0.0051587764 -0.012260803
0.0076034083 -0.0068213996 0.009802489 0.0035013654 -0.017693486 -0.033442475 -0.008862374 -0.00087755284
-0.020198803 -0.020842886 -0.02427095 0.012984896 -0.043119196 -0.0055334754 0.1137645 0.043644764
0.097046554 -0.039867703 -0.018831955 0.00034420114 0.047375586 0.01249031 0.045695327 -0.06805321
-0.014218924 -0.037626408 0.0060149333 -0.01617868 -0.019013062 -0.014737009 -0.055304147 -0.0057254257
0.0029086638 0.0011080826 0.024859736 -0.006143857 0.07493289 -0.042400595 0.0066306577 0.048226696
-0.012960448 -0.11494761 0.001896713 0.017929124 -0.08099482 -0.011957854 -0.17090519 -0.17488518
-0.016949238 0.14189918 -0.14696352 -0.11191003 -0.03425508 -0.02300136 0.037365858 -0.12543066
-0.033163443 -0.084624074 0.023339327 -0.030859211 0.03903193 -0.036824904 0.012776187 0.011350133
0.029163428 -0.01290532 -0.015423534 -0.014283027 -0.12932956 -0.055247337 0.025637103 0.2048261
00000000: 217c 45bb 261e 043e fba2 f4ba 2e12 abbb
00000010: 6797 b0bc 3de6 a23d abd0 5bbc 5035 553d
00000020: 1db1 0ebf 33f2 72bd 504f ce3e a77b e53c
00000030: 4634 b33c db7c 0ebb e2f1 a23b 2782 bdbb
00000040: fbce f63a 7b11 453b cd73 8dba ab0c a739
00000050: cda8 1d3c 86e9 1ebd cf1d be3c cd1a 26bb
00000060: 25dd af3a 3904 38bb 40a5 57bb 2ca9 84bb
00000070: ddab 0fbe 2492 493d 9dad ccb9 52d2 a4bd
00000080: ff5a 0e3c 91c1 51be ed6f 28bc dc29 513b
00000090: d518 3f3d acc5 9bbe 221e 3b3d 7e5e 73bd
000000a0: c1a4 06be f636 cfbd d110 9ebd 028c 8cbd
000000b0: b215 1e3d ba0c 54bc afe0 0cbc 772c 3d3f
000000c0: 3ca9 fdbb 2bb4 90be 5c28 52bb b5fd 433a
000000d0: a127 b8bb 5526 23be f40a a9bb 89e1 48bc
000000e0: 0326 f93b 0c86 dfbb 9e9a 203c 2a77 653b
000000f0: eef1 90bc fafa 08bd 7e33 11bc 930b 66ba
00000100: f677 a5bc b3be aabc dfd3 c6bc 9abe 543c
00000110: c19d 30bd 2852 b5bb 5dfd e83d dac4 323d
00000120: 58c0 c63d 514c 23bd 7945 9abc e575 b439
00000130: e70c 423d 28a4 4c3c 062b 3b3d 7b5f 8bbd
00000140: 7df6 68bc 261e 1abd eb18 c53b 2789 84bc
00000150: 48c1 9bbc 7f73 71bc 9a86 62bd 5a9c bbbb
00000160: 489f 3e3b 153d 913a a5a6 cb3c 6852 c9bb
00000170: 6a76 993d 3fac 2dbd fd45 d93b 5b89 453d
00000180: 0f58 54bc a769 ebbd 219b f83a 19e0 923c
00000190: 9de0 a5bd e0ea 43bc c501 2fbe 1a15 33be
000001a0: 21d9 8abc 054e 113e 9b7d 16be 1631 e5bd
000001b0: 0e4f 0cbd 596d bcbc f10c 193d e570 00be
000001c0: 64d6 07bd 634f adbd 1e32 bf3c 75cc fcbc
000001d0: f2df 1f3d b6d5 16bd 3653 513c e9f5 393c
000001e0: 24e8 ee3c d670 53bc feb2 7cbc 5b03 6abc
000001f0: f86e 04be 084b 62bd e704 d23c efbd 513e

a2c_network.mu.bias f4 [4]
-0.22626859 0.69276106 -0.0717228 0.015782516
00000000: f4b2 67be ca58 313f 67e3 92bd 564a 813c

exp_avg f4 [4]
-0.0052411584 -0.00074294163 -0.0012704706 -0.0027058749
00000000: 06be abbb f8c1 42ba eb85 a6ba 0c55 31bb

exp_avg_sq f4 [4]
0.00017122192 0.00018715249 0.00018760895 0.0002060091
00000000: 098a 3339 5d3e 4439 e5b8 4439 2604 5839

exp_avg f4 [32, 12]
-0.0002716622 0.0015349136 -0.0024802436 0.006540877 0.00062894134 -0.0024954411 0.0011698889 -0.00040439912
0.00019438678 5.861056e-05 -0.001965466 0.0021762743 0.00033699072 0.00044562106 0.00034421813 -0.0008832028
0.000500066 -0.00094121136 0.0021465085 -0.002203063 -0.00020609109 5.786826e-05 -5.3067502e-05 -0.0024098433
-0.0005808395 -0.00054054236 0.0044600447 0.006003238 0.00034039858 0.0009083493 0.005700739 0.0023125976
-0.0006436437 -0.0006625715 0.0011304746 -0.00065089134 -0.0002969888 -0.00016692907 0.00012370519 -0.0022623562
-0.00043028136 -4.4794383e-06 0.00056394143 -0.0003388857 -0.000788935 -0.00034675308 0.0013183546 -0.0018620134
-9.002167e-05 0.00034571916 0.00032596596 -0.00194011 0.0001166621 -0.00066269515 -0.0028653734 -0.0005952111
0.00023024181 0.00014124089 0.0015343658 -5.327764e-05 0.0005343759 0.0005639403 -0.00018379475 0.0009524236
0.0005095097 -0.00073004793 0.00019735002 -0.00043711628 0.00026973351 0.00032216893 -0.00087372755 0.0013220062
-0.000113780385 0.0002566014 -0.00050665333 0.002030904 -1.2012305e-05 0.00014103406 0.0004207691 0.00083892513
6.174785e-05 0.00024473545 0.00011020705 0.0020205239 -7.430712e-05 3.7630838e-05 -5.8119556e-05 -9.449632e-05
-0.00012061653 -3.187166e-06 -0.00048089892 0.00014162615 -9.1281705e-05 6.3462765e-05 -0.00013315381 -0.0003130395
-0.00039454136 -0.00036048275 0.0015337255 -0.00035704518 -0.00026763335 0.00022372363 0.0024547803 0.00012354007
-0.0006138385 -0.00021283327 0.0016289525 -0.0008415312 0.0002933134 -6.635704e-05 0.0002716235 -0.0016706225
-1.3481791e-05 -0.00011992723 -0.0010383968 -0.0003747901 3.0393077e-05 5.527645e-05 0.0002651733 -0.00084531656
0.0002430448 -0.0005072594 0.00016892755 -0.0009761008 0.00033188367 -2.9898958e-06 -0.00058916514 -0.0003214785
-2.6183992e-05 -0.00076833204 -0.0003886497 -0.0021781966 -0.0005035948 0.0006325105 -0.0010251229 0.00076679
4.351552e-05 -0.00081282627 -0.0012591096 -0.00020607118 -0.0005991156 -0.0004883083 0.00015275982 -0.0025035231
-0.00030208848 0.00015537387 0.00024221367 -8.11588e-05 -0.00026852734 -0.0002494103 -0.00081766746 0.0006523099
-0.0006648204 -0.00015213533 0.00091892626 0.00021288078 6.771104e-05 -0.0002637411 0.000631892 -0.00070546335
0.00015313155 0.00019573266 0.00019085547 -0.00028377026 -6.7603185e-05 -0.00023227208 0.00067994464 -0.0008326385
-0.0003252502 0.00011290517 -0.0010844045 0.00015939011 0.0002147767 -0.0003416543 -0.0021186632 0.0005621992
-0.0004248157 9.6723175e-05 0.00045892468 0.0008873785 0.0010723948 0.0017366465 -0.0012182936 -0.00017811841
0.0010180061 -0.0013001319 -0.0062909154 0.0009206998 0.0020155876 0.001582827 -0.0021494222 0.002986255
-0.0005041174 -0.00013266219 -0.0010601063 -0.00085950433 0.00012753913 -0.00045362514 0.0008944846 -0.0011647452
0.00026141494 8.52897e-05 -0.00014871778 -0.00075597136 2.0266398e-05 -0.0002558887 -0.00026525784 0.00024522154
8.891104e-05 -5.630839e-05 -0.0005166115 8.609405e-06 -1.8855908e-05 -0.00020066864 0.00031606652 0.0010515936
5.610983e-06 -0.00033557357 0.0009809233 -3.526254e-05 5.417448e-05 0.00012909569 0.0002924497 -0.00025858698
6.3665374e-07 -0.00034422067 0.0007335586 -0.00049582415 0.0008374131 0.00025307378 -0.000936298 -0.0017689007
0.00088115304 -0.00020645489 -0.0029880435 -0.001575603 0.00085589295 0.000609894 -0.0020440898 -0.00228087
-0.0005196935 -0.00095135585 0.0011076912 -0.002391157 -0.0003495592 0.00041324802 0.0009429904 -0.00078345125
-0.0009700889 -0.00085496926 0.0010092278 -0.0025160827 -0.0013675101 -0.0021653224 0.0025058384 0.00082912855
00000000: e26d 8eb9 272f c93a 958b 22bb da54 d63b
00000010: 8adf 243a 8e8a 23bb f556 993a 8805 d4b9
00000020: 4ed4 4b39 9cd4 7538 0ccf 00bb d39f 0e3b
00000030: 21ae b039 3fa2 e939 2d78 b439 bd86 67ba
00000040: dc16 033a a0bb 76ba 70ac 0c3b 4461 10bb
00000050: 281a 58b9 92b7 7238 cc94 5eb8 76ee 1dbb
00000060: 7b43 18ba 2fb3 0dba 9125 923b cfb6 c43b
00000070: 8677 b239 4a1e 6e3a 44cd ba3b f38e 173b
00000080: 33ba 28ba 6cb0 2dba 6f2c 943a 94a0 2aba
00000090: 29b5 9bb9 ae09 2fb9 dcb6 0139 0a44 14bb
000000a0: 6397 e1b9 154e 96b6 78d5 133a 78ac b1b9
000000b0: 88d0 4eba 69cc b5b9 a4cc ac3a cd0e f4ba
000000c0: 04ca bcb8 a441 b539 69e6 aa39 4a4b feba
000000d0: 7da8 f438 b8b8 2dba fdc8 3bbb f107 1cba
000000e0: 116d 7139 101a 1439 c61c c93a 6e76 5fb8
000000f0: 5c15 0c3a 65d5 133a 07b9 40b9 11ac 793a
00000100: 9e90 053a b060 3fba beef 4e39 c12c e5b9
00000110: 056b 8d39 c8e8 a839 dd0a 65ba 2b47 ad3a
00000120: 619d eeb8 7588 8639 eed0 04ba ea18 053b
00000130: 7588 49b7 8be2 1339 ac9a dc39 50eb 5b3a
00000140: a07e 8138 d64f 8039 f61e e738 c46a 043b
00000150: 55d5 9bb8 ced5 1d38 66c5 73b8 532c c6b8
00000160: 82f3 fcb8 18e3 55b6 2921 fcb9 7b81 1439
00000170: 7e6e bfb8 5017 8538 349f 0bb9 731f a4b9
00000180: 72da ceb9 2dff bcb9 4a07 c93a cb31 bbb9
00000190: 2451 8cb9 5b97 6a39 61e0 203b 898a 0139
000001a0: 01ea 20ba ff2b 5fb9 9382 d53a 349a 5cba
000001b0: dcc7 9939 2a29 8bb8 b068 8e39 caf8 daba
000001c0: da2f 62b7 7181 fbb8 d11a 88ba 7a7f c4b9
000001d0: a3f4 fe37 a3d8 6738 f506 8b39 3c98 5dba
000001e0: d7d9 7e39 9af9 04ba 2522 3139 04e1 7fba
000001f0: ac00 ae39 05a6 48b6 3472 1aba 1d8c a8b9
00000200: b2a5 dbb7 e469 49ba aec3 cbb9 13c0 0ebb
00000210: ad03 04ba 10cf 253a 6b5d 86ba 6802 493a
00000220: 6f84 3638 d913 55ba b508 a5ba d014 58b9
00000230: f80d 1dba d101 00ba 272e 2039 2612 24bb
00000240: a161 9eb9 dbeb 2239 bdfa 7d39 cd33 aab8
00000250: 21c9 8cb9 49c3 82b9 bc58 56ba c7ff 2a3a
00000260: 5847 2eba 8486 1fb9 19e4 703a c038 5f39
00000270: 1600 8e38 bb46 8ab9 8ea5 253a d8ee 38ba
00000280: f091 2039 963d 4d39 6020 4839 00c7 94b9
00000290: 2fc6 8db8 108e 73b9 503e 323a 6d45 5aba
000002a0: 5886 aab9 80c7 ec38 9422 8eba f521 2739
000002b0: ae35 6139 1020 b3b9 45d9 0abb 8d60 133a
000002c0: ccb9 deb9 dcd7 ca38 d49b f039 f79e 683a
000002d0: 998f 8c3a 30a0 e33a 26af 9fba 4cc5 3ab9
000002e0: 9e6e 853a 3069 aaba 0624 cebb 1e5b 713a
000002f0: f317 043b dc76 cf3a 52dd 0cbb 0cb5 433b
00000300: bf26 04ba 3c1b 0bb9 44f3 8aba 5c50 61ba
00000310: 06bc 0539 89d4 edb9 d87b 6a3a 5daa 98ba
00000320: 850e 8939 8fdd b238 20f1 1bb9 612c 46ba
00000330: c201 aa37 cd28 86b9 4e12 8bb9 1491 8039
00000340: c075 ba38 ac2c 6cb8 366d 07ba 1d71 1037
00000350: c12c 9eb7 946a 52b9 bbb5 a539 a0d5 893a
00000360: fa45 bc36 ecef afb9 5392 803a dde6 13b8
00000370: 6839 6338 dc5d 0739 ef53 9939 f592 87b9
00000380: 83e6 2a35 8478 b4b9 494c 403a 32fa 01ba
00000390: d885 5b3a fdae 8439 e571 75ba 75da e7ba
000003a0: 2efd 663a d07b 58b9 0dd3 43bb 7784 ceba
000003b0: 015e 603a 4be1 1f3a 23f6 05bb a67a 15bb
000003c0: 0a3c 08ba 6964 79ba f32f 913a f5b4 1cbb
000003d0: 0b45 b7b9 36a9 d839 0433 773a 8660 4dba
000003e0: 904d 7eba 0420 60ba 1148 843a dde4 24bb
000003f0: 063e b3ba 15e8 0dbb fe38 243b e059 593a

exp_avg_sq f4 [32, 12]
0.00016874897 0.0003227927 0.0022807256 0.0011865482 9.4208335e-05 0.00028939225 0.00096430787 0.0007816306
0.0001796304 0.00036004558 0.0010664476 0.00021821453 0.000113459035 0.00028931053 0.0012285913 0.0010243728
5.6843597e-05 0.00018388053 0.00062707893 0.0004695097 0.00012618292 0.00031024968 0.00017692313 0.00022208558
2.744723e-05 7.431907e-05 0.00087538175 0.00056722556 1.8171715e-05 5.4629174e-05 0.0006035736 0.00033654732
3.1090138e-05 7.401975e-05 0.00038772184 0.00029406877 3.6142703e-06 6.497258e-06 9.9434365e-05 4.2226027e-05
2.4923886e-06 9.6001695e-06 4.431621e-05 2.905536e-05 3.2599667e-06 6.8587397e-06 5.6498175e-05 4.8014514e-05
6.9052526e-06 1.2788565e-05 0.0001552079 6.3531304e-05 4.923171e-06 1.6569142e-05 9.985855e-05 4.9384278e-05
6.001839e-06 1.4921204e-05 8.696376e-05 7.003871e-05 3.2381497e-05 6.198998e-05 0.0004381487 0.00031900866
1.6268366e-05 5.4861706e-05 0.00017544365 0.00014067907 3.2383374e-05 6.323646e-05 0.00024573697 0.00011476036
5.1091183e-06 1.027215e-05 9.7925586e-05 7.435834e-05 3.434531e-06 9.708148e-06 3.4861787e-05 2.4774725e-05
5.301759e-06 8.875005e-06 6.721226e-05 8.868154e-05 6.1111837e-07 1.7075141e-06 1.4905847e-05 9.5056575e-06
5.1440577e-07 1.348584e-06 5.084538e-06 3.8158187e-06 6.484709e-07 1.7276568e-06 1.4482555e-05 9.523258e-06
5.1231295e-06 2.22296e-05 0.00022103943 0.00015912663 4.151015e-06 1.22667425e-05 5.8839065e-05 4.1315787e-05
7.177211e-06 2.7639226e-05 0.00022416453 0.00020989927 4.3873706e-06 1.4354892e-05 0.00010231324 4.8924474e-05
3.4064929e-06 9.576694e-06 3.4128585e-05 2.5440191e-05 5.402071e-06 1.2719945e-05 8.5695174e-05 4.3993277e-05
2.4919651e-05 3.177907e-05 0.0003758752 0.00029102483 1.4825013e-05 4.0644292e-05 0.00019627414 0.0001431786
2.2846802e-05 3.1286738e-05 0.0002639863 0.0003570767 6.77146e-05 4.023578e-05 0.0009630127 0.0002474587
5.0968138e-05 0.00013621262 0.00047602606 0.0003742786 6.0508897e-05 4.6849014e-05 0.0006508351 0.0005335691
1.4495728e-05 3.6802826e-06 0.0001393726 1.6636217e-05 1.1077624e-05 3.1347867e-05 0.00011984967 7.572623e-05
1.1599907e-05 1.4330315e-05 4.9706334e-05 4.9269504e-05 8.822026e-07 2.154047e-06 2.3662058e-05 1.688427e-05
7.928427e-07 1.8577683e-06 8.734138e-06 6.347744e-06 9.694451e-07 2.019004e-06 2.2310927e-05 1.4753869e-05
2.8466568e-05 5.7366537e-06 0.00026781796 2.2961434e-05 2.0470156e-05 6.4629574e-05 0.00023803908 0.00014953947
2.276867e-05 3.211906e-05 0.0001053365 0.00010513159 1.3493723e-05 4.8226375e-05 0.00041125304 0.0002733432
9.529341e-06 2.7353926e-05 0.0002765202 0.00014174222 1.8859382e-05 5.373431e-05 0.000290258 0.0001250874
2.5811392e-05 7.9543206e-05 0.00071330986 0.000352043 1.7229799e-05 5.817544e-05 0.00019824336 0.00015450091
2.619451e-05 7.3351126e-05 0.0006255182 0.00016574575 3.058678e-06 8.6465725e-06 0.00017547925 0.00017084126
3.0390904e-06 1.0086621e-05 3.829556e-05 2.2961878e-05 3.0826131e-06 9.323546e-06 0.00024296028 0.00019111451
8.3652975e-07 2.2590452e-06 2.5827807e-05 1.6076101e-05 6.2843134e-07 1.8523957e-06 8.92977e-06 6.316682e-06
8.534544e-07 2.041668e-06 2.575214e-05 2.3218563e-05 1.840766e-05 5.7519144e-05 0.00039276257 0.00025266127
1.1870601e-05 3.27709e-05 0.00018017337 9.667563e-05 2.1008218e-05 6.29644e-05 0.0002585752 0.00022311829
1.7462715e-05 1.5723643e-05 0.00022595444 7.782859e-05 9.819892e-06 2.96131e-05 0.00014003554 9.329591e-05
1.556911e-05 2.2116796e-05 0.00010941007 0.00011098969 2.1007772e-05 7.4768424e-05 0.0005287942 0.00042934823
00000000: 35f2 3039 813c a939 3a78 153b f385 9b3a
00000010: b791 c538 92b9 9739 9bc9 7c3a 57e6 4c3a
00000020: 2b5b 3c39 80c4 bc39 0bc8 8b3a 84d0 6439
00000030: dbf0 ed38 9aae 9739 af08 a13a 3f44 863a
00000040: 596b 6e38 0ed0 4039 8e62 243a 8628 f639
00000050: f84f 0439 02a9 a239 7184 3939 a5df 6839
00000060: 7a3e e637 bfdb 9b38 e079 653a ddb1 143a
00000070: 766f 9837 a121 6538 2339 1e3a 9e72 b039
00000080: c866 0238 0d3b 9b38 2547 cb39 3e2d 9a39
00000090: b18c 7236 0503 da36 6b87 d038 da1b 3138
000000a0: e942 2736 6a10 2137 2be0 3938 e9bb f337
000000b0: cdc5 5a36 2024 e636 74f8 6c38 3163 4938
000000c0: abb3 e736 788e 5637 4ebf 2239 1c3c 8538
000000d0: b831 a536 f6fd 8a37 276b d138 f721 4f38
000000e0: 6863 c936 1556 7a37 5060 b638 bfe1 9238
000000f0: 5ed1 0738 9e00 8238 53b7 e539 9e40 a739
00000100: 0d78 8837 4f1b 6638 4cf7 3739 4083 1339
00000110: 62d3 0738 d19d 8438 42d6 8039 80ab f038
00000120: fe6e ab36 8c56 2c37 665d cd38 d4f0 9b38
00000130: cb7c 6636 2ee0 2237 8f38 1238 51d3 cf37
00000140: c3e5 b136 dbe5 1437 4ff4 8c38 8afa b938
00000150: bc0b 2435 bd2d e535 2014 7a37 7d7a 1f37
00000160: b215 0a35 fe00 b535 d99b aa36 a209 8036
00000170: 9512 2e35 d6e1 e735 1afa 7237 15c6 1f37
00000180: 59e7 ab36 b479 ba37 d2c6 6739 3bdb 2639
00000190: f348 8b36 42cd 4d37 f7c9 7638 7d4a 2d38
000001a0: c6d3 f036 c9da e737 b50d 6b39 6818 5c39
000001b0: 3a37 9336 cbd5 7037 0191 d638 4134 4d38
000001c0: 1a9b 6436 96ab 2037 4a25 0f38 6568 d537
000001d0: 7043 b536 bf67 5537 3fb7 b338 6c85 3838
000001e0: 8b0a d137 844a 0538 1e11 c539 b194 9839
000001f0: f2b8 7837 7a79 2a38 f0ce 4d39 3622 1639
00000200: 22a7 bf37 e139 0338 a467 8a39 0636 bb39
00000210: 0002 8e38 d7c2 2838 b072 7c3a 58bd 8139
00000220: 9fc6 5538 4cd4 0e39 2393 f939 d33a c439
00000230: efca 7d38 bf7f 4438 ce9c 2a3a 37df 0b3a
00000240: ad32 7337 c6fa 7636 8c24 1239 018e 8b37
00000250: 08da 3937 847b 0338 cd57 fb38 36cf 9e38
00000260: 399d 4237 3c6c 7037 c57b 5038 baa6 4e38
00000270: 80d0 6c35 3f8e 1036 e27d c637 b2a2 8d37
00000280: bcd3 5435 6f58 f935 d688 1237 b5fe d436
00000290: e11d 8235 397e 0736 5a28 bb37 6387 7737
000002a0: 7dcb ee37 7b7d c036 eb69 8c39 4e9d c037
000002b0: 53b7 ab37 bd89 8738 219a 7939 b2cd 1c39
000002c0: 59ff be37 94b7 0638 1ae8 dc38 187a dc38
000002d0: 1963 6237 ad46 4a38 739d d739 814f 8f39
000002e0: 35e0 1f37 1c76 e537 eaf9 9039 a3a0 1439
000002f0: 3734 9e37 c760 6138 c52d 9839 e529 0339
00000300: 8b85 d837 6fd0 a638 6afd 3a3a 6992 b839
00000310: b688 9037 6701 7438 8cdf 4f39 8601 2239
00000320: 48bc db37 16d4 9938 d1f9 233a 09cc 2d39
00000330: b043 4d36 bf10 1137 da00 3839 da23 3339
00000340: 2df3 4b36 b539 2937 8b9f 2038 429e c037
00000350: e4de 4e36 536c 1c37 27c3 7e39 e965 4839
00000360: e38d 6035 1a9a 1736 cba8 d837 2adb 8637
00000370: 79b1 2835 d59f f835 12d1 1537 e3f3 d336
00000380: f118 6535 9703 0936 4d06 d837 7cc5 c237
00000390: 266a 9a37 b640 7138 b3eb cd39 9f77 8439
000003a0: d827 4737 7c73 0938 ecec 3c39 55be ca38
000003b0: ce3a b037 c10b 8438 6091 8739 dcf4 6939
000003c0: e57c 9237 44e6 8337 2fee 6c39 e837 a338
000003d0: 1dc0 2437 a669 f837 81d6 1239 dca7 c338
000003e0: 699a 8237 7587 b937 1673 e538 23c3 e838
000003f0: d939 b037 fecc 9c38 c79e 0a3a 251a e139

exp_avg f4 [32]
-0.015908277 -0.0034304727 0.0040079383 -0.0004108348 -0.0022983684 -0.0030946406 2.358324e-05 -0.0002647291
0.00043113405 -0.00013212161 -0.00041784294 -0.0059170662 -0.0026790816 0.0018103687 -0.0031722544 -0.007348471
-0.0016515317 -0.00025745868 0.0011585022 0.0015210691 0.002439038 0.0080963485 0.0010601925 -4.562131e-05
-0.0054719364 -0.00023049308 7.036012e-05 -0.0015956517 0.00035253973 -0.010281684 -0.00020841167 0.00035570783
00000000: 1352 82bc c8d1 60bb 0655 833b 5065 d7b9
00000010: 39a0 16bb 74cf 4abb 9fd4 c537 57cb 8ab9
00000020: d509 e239 208a 0ab9 ee11 dbb9 f3e3 c1bb
00000030: 8893 2fbb e549 ed3a 99e5 4fbb 71cb f0bb
00000040: 3578 d8ba 85fb 86b9 e2d8 973a 9c5e c73a
00000050: 44d8 1f3b 8ca6 043c 28f6 8a3a 8259 3fb8
00000060: ee4d b3bb 84b0 71b9 4d8e 9338 3025 d1ba
00000070: 15d5 b839 8274 28bc 1589 5ab9 4c7e ba39

exp_avg_sq f4 [32]
0.017773654 0.011637374 0.0033447992 0.000588955 0.0010484193 0.0035374858 0.0006513511 9.0059264e-05
0.0007173611 0.00064611307 0.0026708625 0.008755998 0.0021269035 0.00012080053 0.004295707 0.0017725753
0.00385849 0.00061422156 0.00011817338 0.001961668 0.001926461 0.0026846884 0.00035789653 0.0005878137
0.011461351 0.0004638678 1.5048764e-05 0.0011624125 0.00053693564 0.022769816 0.0015929613 0.001539955
00000000: 0e9a 913c afaa 3e3c 6b34 5b3b 1a64 1a3a
00000010: 1d6b 893a 2ad5 673b 6fbf 2a3a 33de bc38
00000020: 4a0d 3c3a ea5f 293a a309 2f3b 5175 0f3c
00000030: 8563 0b3b 4a56 fd38 01c3 8c3b c255 e83a
00000040: b8de 7c3b b603 213a dad3 f738 548f 003b
00000050: 4e81 fc3a 99f1 2f3b 0fa4 bb39 8217 1a3a
00000060: 64c8 3b3c 4833 f339 f379 7c37 175c 983a
00000070: 24c1 0c3a c487 ba3c e9ca d03a 51d8 c93a

exp_avg f4 [32, 32]
2.8314316e-05 0.00012011343 -5.3916897e-06 4.6975128e-07 8.754165e-06 -5.258483e-05 5.3589585e-05 1.2193454e-05
4.667072e-06 5.620895e-05 -1.9252391e-05 -2.5560475e-05 -4.2821062e-05 -1.1700548e-05 4.473109e-05 1.9053801e-05
0.00010476804 3.4816247e-05 -3.0898773e-06 7.757992e-06 -3.049758e-05 -3.006382e-05 -1.3622566e-05 3.5213714e-05
-7.237712e-05 8.712342e-06 5.778422e-06 7.896971e-06 2.1240294e-05 7.47798e-05 2.6828413e-05 -4.465691e-05
-0.0029902225 -0.0037764031 0.0005234304 -0.00013344242 -0.00027289032 -0.00056175917 -0.00028150715 1.1606824e-05
0.0005499738 0.0002542057 -0.0012716528 -0.002127638 -0.0042417967 7.171263e-05 0.0012318712 0.0006123418
-0.0015129704 0.0009453487 -5.517295e-05 -0.0002384395 0.00030647372 -0.00031298562 -0.00019486596 0.00045629402
0.0017586498 -0.00036338117 5.6931392e-05 0.00025252748 0.0007433845 -0.00079434534 -0.00011892685 0.00044847126
-0.0005077209 0.000145711 -1.8573899e-05 1.4707228e-05 -4.0840074e-05 -9.068889e-05 9.876454e-05 2.1388887e-05
8.923145e-06 -2.0660423e-06 2.6221758e-05 -9.287827e-05 0.00023576543 -1.979774e-05 -7.025235e-05 -2.2194234e-05
-5.1284034e-05 9.456962e-05 9.920144e-06 -8.111448e-05 -0.00016581011 -3.4314762e-05 -4.526336e-05 6.684292e-06
-9.831044e-05 3.904914e-05 -1.3072987e-06 3.7047678e-06 0.00010166599 0.00028618242 0.00011224141 6.57595e-05
0.0013765334 0.00039458 8.82147e-06 -1.144788e-05 1.3572365e-05 0.0003005839 -1.8602599e-05 -1.3449829e-05
-0.00010668938 -6.728866e-05 2.2730974e-05 0.00022127554 6.0347164e-05 2.7401356e-05 0.00011666683 -7.791757e-05
0.00011921192 -0.00012080532 -3.777518e-05 0.00032084828 0.00025805813 5.5679364e-05 0.000116689385 -2.845851e-05
0.00034372564 -1.7676313e-05 -5.255408e-06 -5.902254e-05 -9.512143e-05 -2.4454377e-05 -7.188036e-05 -4.6900936e-05
-0.0005514687 0.00022756806 -7.5245676e-05 -2.615424e-05 1.6834783e-05 -0.00048511988 0.00012614386 4.2761447e-05
0.000103560276 0.00022328709 -0.00016921763 -0.000406066 -0.0008493716 -3.7404992e-05 0.0005234825 8.023714e-05
0.0001688287 0.00030981936 3.6513247e-05 -0.00020167856 -1.8591834e-05 -5.5077762e-05 -0.0001588212 0.00039311082
-0.0004928278 -7.977268e-06 2.5771662e-05 6.725912e-05 0.00016123445 0.00037621084 1.154776e-05 -7.606262e-05
0.018152732 0.008620121 0.0008900609 -0.0002421495 -8.816056e-05 0.0043432503 0.0017713812 8.274216e-05
-0.0006945091 -0.00074724795 0.0003146018 0.004046943 0.005657652 0.00012047541 -0.0003133063 -0.00046820115
0.004081458 -0.0018883816 -0.00036355585 0.004983874 0.0013740805 6.9453825e-05 0.002331388 -0.002124313
0.0013498535 0.0007595491 -1.5337693e-05 -0.00026147993 -0.0019325489 -0.0049001537 0.0010592415 -0.0008929369
-0.0013811043 -0.0007219264 -3.0744483e-05 -0.00020012382 7.647852e-05 -0.0006740764 4.9478327e-05 -7.9116755e-05
0.00032906563 0.00037890705 -0.0009548848 -0.0011539414 -0.0014140327 6.351718e-05 0.0014580671 0.00044483153
0.00019719914 0.00046498087 3.387292e-05 -0.00018039443 -9.696414e-05 -8.4660045e-05 -3.136301e-05 0.00052468205
-0.0009885641 -2.5127914e-05 6.23003e-05 0.00033816072 -9.136222e-05 -0.0017469388 -5.4050233e-05 3.1569576e-05
-0.00026872914 -0.0014394169 0.0001234548 -0.0002984529 0.00029992356 -0.00092795 -0.000833551 -0.00017351974
-0.00078384706 -5.4029104e-05 -0.0007664724 -0.00037529622 -0.0030151827 9.323035e-05 0.00069753564 0.0005395568
0.00020677215 -0.00090796326 -6.39064e-05 0.00059636874 0.00036828168 -0.00015797185 -0.00016390315 0.00039796068
0.0012841588 -0.00033860336 0.00011245112 0.00017597196 -0.0011423005 -0.0042281034 -0.0015729562 -0.00022498301
00000000: 8884 ed37 68e5 fb38 43ea b4b6 2032 fc34
00000010: dade 1237 888e 5cb8 61c5 6038 7c92 4c37
00000020: d899 9c36 e7c1 6b38 3280 a1b7 b46a d6b7
00000030: c49a 33b8 794d 44b7 a49d 3b38 bad5 9f37
00000040: eab6 db38 a907 1238 b05b 4fb6 5228 0237
00000050: 0ed5 ffb7 9031 fcb7 7a8c 64b7 70b2 1338
00000060: 2cc9 97b8 392b 1237 44e4 c136 3b7d 0437
00000070: 2f2d b237 19d3 9c38 940d e137 fe4d 3bb8
00000080: 9cf7 43bb 887d 77bb d236 093a adec 0bb9
00000090: b812 8fb9 0543 13ba 4097 93b9 eeba 4237
000000a0: 1e2c 103a e946 8539 96ad a6ba d86f 0bbb
000000b0: c5fe 8abb 6d64 9638 bd76 a13a 9085 203a
000000c0: dd4e c6ba 47d1 773a 8169 67b8 9e05 7ab9
000000d0: 35ae a039 3818 a4b9 ef54 4cb9 bf3a ef39
000000e0: 7f82 e63a 3284 beb9 9ec9 6e38 aa65 8439
000000f0: b0df 423a 9d3b 50ba 5e68 f9b8 cb20 eb39
00000100: 9318 05ba 00ca 1839 25cf 9bb7 10bf 7637
00000110: b24b 2bb8 3a30 beb8 cf1f cf38 496c b337
00000120: 9eb4 1537 56a6 0ab6 ccf6 db37 a4c7 c2b8
00000130: cd37 7739 5313 a6b7 7154 93b8 c12d bab7
00000140: d019 57b8 ae53 c638 b26e 2637 011c aab8
00000150: 50dd 2db9 32ed 0fb8 2ad9 3db8 a249 e036
00000160: 042c ceb8 b2c8 2338 7176 afb5 6d9f 7836
00000170: 8335 d538 c10a 9639 2663 eb38 5de8 8938
00000180: cc6c b43a a2df ce39 edff 1337 4510 40b7
00000190: ddb4 6337 b097 9d39 c70c 9cb7 93a6 61b7
000001a0: 6dbe dfb8 531d 8db8 65ae be37 3306 6839
000001b0: 461d 7d38 f7db e537 07ab f438 ad67 a3b8
000001c0: 6a01 fa38 dd58 fdb8 ca70 1eb8 8737 a839
000001d0: fa4b 8739 4389 6938 23b7 f438 2fba eeb7
000001e0: 1336 b439 9847 94b7 9c57 b0b6 f88e 77b8
000001f0: ee7b c7b8 6023 cdb7 79be 96b8 7fb7 44b8
00000200: 7090 10ba 569f 6e39 37cd 9db8 cd65 dbb7
00000210: 6c38 8d37 b057 feb9 7c45 0439 c15a 3338
00000220: 802e d938 2c22 6a39 0370 31b9 42e5 d4b9
00000230: 5da8 5eba 4ee3 1cb8 513a 093a fd44 a838
00000240: 9c07 3139 406f a239 cd25 1938 ad79 53b9
00000250: a9f5 9bb7 4c03 67b8 3e89 26b9 711a ce39
00000260: 1d31 01ba 1bd6 05b7 3930 d837 770d 8d38
00000270: 0b11 2939 2a3e c539 40bd 4137 cf83 9fb8
00000280: 0ab5 943c 683b 0d3c fa52 693a 83e9 7db9
00000290: d7e2 b8b8 d351 8e3b b12d e83a dc85 ad38
000002a0: b70f 36ba f6e2 43ba 24f1 a439 389c 843b
000002b0: d363 b93b bea7 fc38 4243 a4b9 e578 f5b9
000002c0: c0bd 853b 9283 f7ba a49b beb9 c44f a33b
000002d0: 7e1a b43a bda7 9138 33ca 183b 0f38 0bbb
000002e0: 91ed b03a 7a1c 473a 72a9 80b7 3e17 89b9
000002f0: 954d fdba 7891 a0bb 3fd6 8a3a fb13 6aba
00000300: 2c06 b5ba a93f 3dba a3f3 00b8 54d8 51b9
00000310: 1863 a038 80b4 30ba f386 4f38 7ceb a5b8
00000320: 7186 ac39 0ba8 c639 3c51 7aba d93f 97ba
00000330: 1057 b9ba 8734 8538 9d1c bf3a 4738 e939
00000340: 3ec7 4e39 adc8 f339 c512 0e38 4328 3db9
00000350: 3a59 cbb8 848b b1b8 c78b 03b8 d18a 093a
00000360: b592 81ba c9c9 d2b7 38a7 8238 2a4b b139
00000370: b899 bfb8 8af9 e4ba ffb3 62b8 9369 0438
00000380: 37e4 8cb9 d1aa bcba a573 0139 ac79 9cb9
00000390: 0f3f 9d39 ac41 73ba a982 5aba daf2 35b9
000003a0: 167b 4dba 4f9d 62b8 18ed 48ba 68c3 c4b9
000003b0: 5f9a 45bb aa84 c338 d3da 363a 0b71 0d3a
000003c0: fad0 5839 6204 6eba 7d05 86b8 a155 1c3a
000003d0: ee15 c139 3fa5 25b9 6bdd 2bb9 61a5 d039
000003e0: 3851 a83a 9386 b1b9 bcd3 eb38 1d85 3839
000003f0: 3fb9 95ba e78b 8abb a72b ceba 6be9 6bb9

exp_avg_sq f4 [32, 32]
2.3755692e-06 1.9439765e-06 4.921477e-08 7.732721e-09 1.8055276e-08 2.604132e-07 1.2789988e-07 3.5942689e-09
9.6724946e-08 5.494961e-08 3.2348083e-07 6.051518e-07 7.024784e-07 5.467761e-09 2.479432e-07 4.8477002e-08
2.1559872e-07 3.1448923e-07 7.229518e-09 1.2477359e-07 3.6537907e-07 6.225673e-08 3.374186e-08 9.659424e-08
1.8313787e-06 3.039037e-08 8.6807334e-10 3.0894387e-08 2.9286622e-07 1.7000857e-06 1.1870839e-07 8.395395e-08
0.0027283877 0.011788372 0.000109319815 1.9516589e-05 5.312602e-05 0.0004195404 0.0002946716 1.1181901e-05
0.00025175884 0.0001953665 0.0015944175 0.0020755818 0.0013510612 1.7397404e-05 0.0007013764 0.0001354505
0.00075079914 0.00088814116 2.6865651e-05 0.000114245384 0.00028577892 0.00013451693 7.7841025e-05 0.00024423513
0.00081000925 0.00010798289 1.8887174e-06 2.8726641e-05 0.0008773869 0.0029836004 0.00014248301 0.000335293
2.4382555e-06 2.1919639e-06 5.80225e-08 9.174661e-09 2.0549587e-08 2.8303495e-07 1.4114653e-07 5.190204e-09
1.3637697e-07 7.518102e-08 4.2092736e-07 6.82049e-07 9.221719e-07 9.61302e-09 2.9883955e-07 6.6678076e-08
2.3120562e-07 3.359919e-07 8.998858e-09 1.4507894e-07 4.1582467e-07 9.3509335e-08 4.152829e-08 1.2433422e-07
2.4931792e-06 3.7095344e-08 1.0872002e-09 3.6388165e-08 2.9428656e-07 2.1177846e-06 1.3124234e-07 9.85408e-08
5.699406e-06 4.8429247e-06 1.355689e-07 2.096909e-08 5.7511013e-08 6.157595e-07 3.039754e-07 9.538889e-09
2.8582025e-07 1.5225358e-07 1.1104122e-06 1.7668982e-06 1.7255204e-06 1.7785549e-08 7.4817456e-07 1.14444504e-07
4.6563417e-07 8.66274e-07 1.8038913e-08 3.390918e-07 8.929923e-07 1.5881841e-07 1.01555784e-07 2.6044725e-07
4.6548153e-06 7.356767e-08 2.0391004e-09 6.560267e-08 7.329113e-07 5.089795e-06 2.989279e-07 2.4161199e-07
1.6506085e-05 2.5545656e-05 6.017612e-07 8.9695156e-08 1.8234007e-07 2.5273014e-06 1.7764851e-06 5.6224298e-08
1.2518625e-06 6.479479e-07 3.80139e-06 5.5394903e-06 1.0329074e-05 7.326018e-08 2.6760968e-06 5.988542e-07
2.3229154e-06 2.8796655e-06 9.657646e-08 1.0957364e-06 4.256651e-06 9.56722e-07 3.619913e-07 1.2996976e-06
2.743688e-05 4.3388326e-07 7.916281e-09 3.684144e-07 2.742742e-06 2.0815003e-05 1.4582218e-06 9.2529683e-07
0.014833169 0.014479364 0.0003583225 5.576021e-05 0.00011411796 0.0019178577 0.00092562457 2.4315526e-05
0.0008082095 0.00044333874 0.002950362 0.004454752 0.004671932 4.0973988e-05 0.0018694068 0.00032339655
0.0016555663 0.0019604475 5.1184492e-05 0.00093646516 0.0026931744 0.00045607478 0.00025251153 0.0005560033
0.015613987 0.00022736068 4.56794e-06 0.00018684649 0.001693358 0.010787001 0.0008430322 0.00066898385
3.7095288e-05 4.6984587e-05 1.2003693e-06 2.5400567e-07 5.066456e-07 6.576909e-06 3.625928e-06 1.298651e-07
2.6655687e-06 1.3330823e-06 1.009572e-05 1.5992906e-05 2.544313e-05 1.9044981e-07 8.893712e-06 1.4288414e-06
5.0689437e-06 7.683595e-06 2.3394792e-07 2.1151984e-06 8.860899e-06 1.7453087e-06 8.4921544e-07 3.3245653e-06
4.1741016e-05 8.106191e-07 2.5416664e-08 8.915933e-07 5.7118705e-06 5.802435e-05 3.1475595e-06 2.1706762e-06
0.00085003715 0.0065320386 7.637506e-05 1.1476591e-05 1.9444959e-05 0.00026741126 0.00026568433 6.2654176e-06
0.00026667566 9.9602745e-05 0.00066374335 0.0006391389 0.0016482694 1.0108647e-05 0.0003905122 0.0001057897
0.00028588346 0.0003944407 1.2051325e-05 9.8693934e-05 0.0001878047 7.803001e-05 6.548289e-05 0.00017952724
0.00039681004 6.860531e-05 9.741955e-07 2.8564156e-05 0.00033820653 0.004948039 0.00016835627 0.00014111464
00000000: f86b 1f36 4375 0236 3660 5333 ded8 0432
00000010: f917 9b32 ebce 8b34 da54 0934 0cff 7631
00000020: 1ab7 cf33 bc01 6c33 deaa ad34 b771 2235
00000030: f391 3c35 efde bb31 0e1d 8534 0735 5033
00000040: 537f 6734 12d7 a834 8367 f831 81f9 0534
00000050: 5129 c434 00b2 8533 91eb 1033 3f6f cf33
00000060: b1cd f535 9186 0233 3b9d 6e30 bdb0 0433
00000070: 3a3b 9d34 802e e435 a1ec fe33 2c4a b433
00000080: c0ce 323b 0424 413c a142 e538 8eb7 a337
00000090: a1d3 5e38 c2f5 db39 277e 9a39 e699 3b37
000000a0: 80fe 8339 4cdb 4c39 c6fb d03a 7c06 083b
000000b0: 1716 b13a a4f0 9137 93dc 373a b707 0e39
000000c0: 47d1 443a 25d2 683a 8c5d e137 0697 ef38
000000d0: 99d4 9539 1d0d 0d39 953e a338 af0c 8039
000000e0: cd56 543a df74 e238 d67f fd35 fef9 f037
000000f0: 7000 663a 8288 433b 7e67 1539 44ca af39
00000100: e9a0 2336 a719 1336 6a34 7933 969e 1d32
00000110: 0585 b032 07f4 9734 108e 1734 8455 b231
00000120: 046f 1234 3473 a133 d1fb e134 0d16 3735
00000130: 2c8b 7735 8226 2532 3270 a034 a930 8f33
00000140: 5141 7834 6062 b434 6599 1a32 ffc6 1b34
00000150: 823e df34 4dcf c833 d65c 3233 bb80 0534
00000160: 7e50 2736 c352 1f33 756c 9530 3649 1c33
00000170: 70fe 9d34 431f 0e36 9feb 0c34 619d d333
00000180: 863d bf36 6880 a236 e590 1134 841f b432
00000190: 0702 7733 ac4a 2535 1032 a334 7ae0 2332
000001a0: d672 9934 257b 2334 7909 9535 2926 ed35
000001b0: 6e98 e735 d6c6 9832 2ad6 4835 88c4 f533
000001c0: 46fc f934 e589 6835 fdf3 9a32 6c0c b634
000001d0: f7b5 6f35 ac87 2a34 e216 da33 99d3 8b34
000001e0: 8f30 9c36 41fc 9d33 3c20 0c31 73e1 8c33
000001f0: 48bd 4435 02c9 aa36 567c a034 e6b6 8134
00000200: 8c76 8a37 e14a d637 b788 2135 6f9e c033
00000210: 42c9 4334 b59a 2936 906f ee35 457b 7133
00000220: ab05 a835 a4ee 2d35 621b 7f36 dcdf b936
00000230: 094b 2d37 3653 9d33 fe96 3336 f2c0 2035
00000240: 62e3 1b36 4740 4136 7865 cf33 3711 9335
00000250: 5bd4 8e36 b868 8035 b557 c234 4571 ae35
00000260: 4028 e637 76f0 e834 2c00 0832 7dca c534
00000270: f30f 3836 e19b ae37 1fb8 c335 ea61 7835
00000280: d206 733c db3a 6d3c 3bdd bb39 12e0 6938
00000290: 9d52 ef38 a060 fb3a 9da5 723a 32f9 cb37
000002a0: 05de 533a eb6f e839 dc5a 413b 2bf9 913b
000002b0: 0217 993b 7cdb 2b38 e206 f53a 8d8d a939
000002c0: 96ff d83a da7a 003b eeae 5638 1d7d 753a
000002d0: f87f 303b 521d ef39 8663 8439 c0c0 113a
000002e0: cfd1 7f3c ab67 6e39 4e46 9936 39ec 4339
000002f0: aaf3 dd3a f6bb 303c effe 5c3a bf5e 2f3a
00000300: c396 1b38 5111 4538 601c a135 465e 8834
00000310: 6c00 0835 38af dc36 f854 7336 0c71 0b34
00000320: 1fe2 3236 5cec b235 ca60 2937 8128 8637
00000330: b56e d537 727e 4c34 3436 1537 9ec6 bf35
00000340: e515 aa36 cae8 0037 1d33 7b34 d5f2 0d36
00000350: 45a9 1437 5a40 ea35 a4f5 6335 991b 5f36
00000360: 1313 2f38 5299 5935 d653 da32 d355 6f35
00000370: 98a8 bf36 2c5f 7338 a93a 5336 efab 1136
00000380: 07d5 5e3a b60a d63b 8c2b a038 958b 4037
00000390: bb1d a337 5533 8c39 8c4b 8b39 873b d236
000003a0: 9ad0 8b39 d1e1 d038 10ff 2d3a e38b 273a
000003b0: be0a d83a 4f98 2937 a9bd cc39 6adb dd38
000003c0: a1e2 9539 efcc ce39 0c30 4a37 e7f9 ce38
000003d0: 71ed 4439 0ba4 a338 dc53 8938 7a3f 3c39
000003e0: f10a d039 32e0 8f38 1ac1 8235 0f9d ef37
000003f0: 5051 b139 2923 a23b cb88 3039 2cf8 1339

exp_avg f4 [32]
-3.3150194e-05 -0.0012303472 -6.0867453e-05 0.00023056539 -0.0002214136 0.0012044497 -0.00096676056 0.0010306485
-0.0036672372 0.002658282 0.00062179746 0.0005461249 -0.0028490226 -0.00010730948 0.00038328493 0.0002052175
-0.0001884189 -0.0006615944 0.00014428189 -0.00015935207 0.000118205506 0.0019793268 1.8327025e-06 2.8369548e-05
0.00015686727 -1.3438349e-05 5.5231256e-05 -3.5768677e-05 0.00019526106 0.00038853456 8.431904e-05 -0.0023937277
00000000: c00a 0bb8 9a43 a1ba ee4b 7fb8 edc3 7139
00000010: 432b 68b9 a0de 9d3a 346e 7dba d316 873a
00000020: 0856 70bb 9236 2e3b 1f00 233a d229 0f3a
00000030: abb6 3abb 570b e1b8 a2f3 c839 a72f 5739
00000040: 5092 45b9 d96e 2dba 604a 1739 bf17 27b9
00000050: 19e5 f738 98b7 013b 2efb f535 24fb ed37
00000060: bd7c 2439 4575 61b7 1ca8 6738 5306 16b8
00000070: febe 4c39 3ab4 cb39 71d4 b038 16e0 1cbb

exp_avg_sq f4 [32]
5.6100254e-07 0.0018140931 6.4197894e-07 1.6334167e-06 6.311563e-06 0.004269008 1.39279355e-05 0.0010394865
0.00063584023 0.0017046867 0.00020872949 0.00042248098 0.0013547406 6.4427917e-07 4.5162587e-06 0.0006884664
6.508808e-07 5.8239628e-05 6.419003e-07 6.3788815e-07 1.2735001e-06 0.00045354903 5.737858e-06 3.2611723e-07
5.075596e-07 5.3012405e-07 1.6140057e-06 4.2808364e-07 0.0012049734 0.00010345321 3.1611714e-07 0.00043469528
00000000: cd97 1635 ddc6 ed3a 7554 2c35 c53b db35
00000010: eac7 d336 09e3 8b3b 07ac 6937 613f 883a
00000020: 84ae 263a cb6f df3a 65de 5a39 7080 dd39
00000030: 8d91 b13a 87f2 2c35 5e8a 9736 337a 343a
00000040: 30b8 2e35 5346 7438 0d4f 2c35 573b 2b35
00000050: 21ed aa35 52ca ed39 d387 c036 3615 af34
00000060: 3b3f 0835 d94d 0e35 d0a0 d835 5ed3 e534
00000070: 33f0 9d3a 05f5 d838 cfb6 a934 d0e7 e339

exp_avg f4 [1, 32]
-0.00031093232 -0.0012892497 -0.0008183318 -0.0009596491 -0.002337255 0.01730706 0.00012345555 -0.0034138756
1.7396875e-05 -0.008877107 -0.0032060698 -0.0021892264 0.028940825 0.00031538733 -0.002470635 -0.006417611
-0.00030667233 0.0025503035 -0.00027919357 -0.0005117908 -0.0008454076 -0.00490694 -0.0006958183 -0.00017751282
-0.0002683916 -7.8103403e-07 -0.0002252428 8.054604e-05 -0.005106907 0.013235781 0.0002899837 0.0016613723
00000000: a104 a3b9 0bfc a8ba 5185 56ba f690 7bba
00000010: a22c 19bb 89c7 8d3c d973 0139 54bb 5fbb
00000020: 81ef 9137 4971 11bc ed1c 52bb 2079 0fbb
00000030: 4f15 ed3c 925a a539 61ea 21bb d34a d2bb
00000040: ddc8 a0b9 fe22 273b ba60 92b9 b329 06ba
00000050: 589e 5dba 65ca a0bb 9367 36ba bc22 3ab9
00000060: e9b6 8cb9 40a8 51b5 272f 6cb9 d3ea a838
00000070: d757 a7bb e4da 583c f408 9839 67c2 d93a
