logs/rl_games/klask/r_score_10_distance_1_t_all/nn/klask.pth (torch, 550002 bytes, 30 tensors)

a2c_network.sigma f4 [4]
000000 96 d1 42 c0 02 ed 2c c0 64 5c ed bf 00 2f 0a c0
       -3.044042 -2.7019658 -1.854382 -2.1591187

a2c_network.actor_mlp.0.weight f4 [256, 12]
000000 46 58 9d bd a3 f6 ba be ad 7f 73 3e 92 57 0d be
       -0.076828524 -0.36516294 0.23779173 -0.13802937
000010 24 4b 43 3d 8c b7 a4 bc 30 5d 82 bc c3 fe 8d bc
       0.04767908 -0.020107053 -0.015913576 -0.017333394
000020 38 75 42 be cf ef 5f be ec 6a cd 3d 6a 26 91 be
       -0.18990028 -0.21868823 0.10030159 -0.2834962
000030 11 78 a1 bf 96 d0 9b bf 0e 56 50 bd 54 18 00 3e
       -1.2614766 -1.217303 -0.05086332 0.1250928
000040 7e 41 08 be f6 b1 82 be 85 c4 30 bb 69 d6 b5 3c
       -0.13306233 -0.25526398 -0.0026972604 0.022196965
000050 8b fc 27 3e 79 da 38 3d c3 9a 00 bf cd de 92 be
       0.16404931 0.045130227 -0.5023615 -0.28685609
000060 b8 59 c8 3f 08 9d 46 3f 15 93 d8 3d 1f ec 07 ba
       1.565238 0.7758336 0.10574929 -0.0005185026
000070 34 59 5b 3d b9 1e a8 bc a8 36 0a 3b 5c f6 94 3b
       0.053551868 -0.020522462 0.0021089707 0.00454597
000080 8f 2b 3a bd 2f a9 24 bd e0 04 dd 3e b2 49 0b 3f
       -0.045451697 -0.04020041 0.43167782 0.54409325
000090 c2 fa 88 3f 7e fe 4e be 83 df e5 3d 7e 08 34 3d
       1.0701525 -0.20214269 0.11224272 0.04395341
0000a0 6f 31 f9 bc 21 f8 61 3d 60 1e d1 39 a9 0d b6 3c
       -0.03041908 0.055168275 0.00039886218 0.02222331
0000b0 31 df 57 3d 34 3c ae 3f 4f 89 af 3f 02 e0 f0 bf
       0.052703086 1.3612123 1.3713778 -1.8818362
0000c0 ab bc 62 bf db 71 84 be bc 7e 7a bd dc 94 af 3d
       -0.88569134 -0.25868115 -0.06115602 0.085733145
0000d0 45 c1 86 3c 5e d4 9b bc ef be 5f bc df 8f 67 bb
       0.01644958 -0.019022163 -0.013656362 -0.0035333557
0000e0 9f a4 e7 3d e5 60 1e 3e a8 fb 8f 3d 67 fb 11 be
       0.11310696 0.1546665 0.070304215 -0.14256059
0000f0 6a ba da 3f b7 49 d3 be 1a 89 07 3d 13 3a a6 3d
       1.7088139 -0.41267177 0.033089735 0.081165455
000100 94 e8 4e bd 86 a3 53 be 43 8c 91 3d 37 9e 48 3d
       -0.050514773 -0.20667848 0.07106831 0.04897901
000110 26 34 58 3d 72 59 ec 3d bd 38 17 3e 2b f1 ad bf
       0.052784108 0.11540498 0.14767738 -1.3589224
000120 74 e9 c6 be 8b b3 9a 3e 6f 64 b1 bd 6a 2b d5 3d
       -0.38849986 0.30215105 -0.08661734 0.10408671
000130 cd 5a a3 3c 18 9f ef 3d 60 15 13 3c e9 66 cf bb
       0.019940758 0.117002666 0.008977264 -0.0063294065
000140 27 b9 f7 bd 54 63 5c 3e 4b b4 03 be 84 ea c8 bd
       -0.12095862 0.21522266 -0.12861745 -0.09810355
000150 8f 10 a3 3f 34 d7 27 bf 4b 34 ef 3d 9b d0 9a 3c
       1.2739428 -0.6556275 0.11679896 0.018898299
000160 be b3 83 bd fc f1 58 3d f7 1d 8b 3c 46 e1 68 bc
       -0.064307675 0.05296515 0.016982062 -0.014213866
000170 7d 9f 19 3d ff 2a ee 3c 2f 0f 45 be 5b a1 da 3e
       0.037505616 0.029073237 -0.19244073 0.4270123
000180 89 fa dd bf 36 3a 45 3d 0b 10 8c bc 99 90 a9 3c
       -1.7342082 0.048151217 -0.017097494 0.020698832
000190 9b 14 dc 3b ac 09 92 bd 3f db a3 3c 31 c8 05 3b
       0.0067163236 -0.07130751 0.020002006 0.0020413513
0001a0 23 57 8e bd 6a 6e df bd 0d f3 3c be 16 b5 ad bd
       -0.06950214 -0.10909732 -0.18452092 -0.08481805
0001b0 c2 c8 2c be fb df 71 be 99 58 17 bd cf 54 e2 3d
       -0.16873458 -0.23620598 -0.036949728 0.11051332
0001c0 8a 42 85 bd b4 c7 2b 3d 61 59 a6 bb 39 d3 84 3a
       -0.06506832 0.0419385 -0.0050765728 0.001013375
0001d0 56 34 aa bd 64 07 8a 3e 40 99 a1 be 73 a4 24 bf
       -0.083107635 0.26958764 -0.31562233 -0.6431343
0001e0 ed 71 b3 3f c0 e5 e5 3e 80 8f fc 3d 96 91 29 bc
       1.4019142 0.44901848 0.12332058 -0.010349652
0001f0 27 95 a1 3b 03 7e 05 bc d0 42 eb bb 8c e6 85 bb
       0.0049311104 -0.008147719 -0.0071795955 -0.004086321
000200 62 3d 83 bd 22 db 9c bd 03 cd 90 be 90 73 f3 bd
       -0.06408192 -0.07658984 -0.28281412 -0.11887276
000210 ed 02 89 be ae 6a 5a 3e ee cf 7a bd dd c0 32 3c
       -0.26760045 0.21329758 -0.061233453 0.01091024
000220 1c 87 97 3c fe 54 b8 3d fd f2 76 bc ad 00 59 bb
       0.018497042 0.09000586 -0.015072581 -0.0033111975
000230 68 11 35 be 1c 17 8e 3e a1 31 43 bd 05 d7 3e bd
       -0.17682421 0.27752006 -0.04765475 -0.046591777
000240 37 e0 1f bf 0b f6 0a 3e 3a 2f 32 3d 9d ae bb 3d
       -0.624515 0.1357042 0.04350207 0.09164164
000250 8b 96 11 3e 32 3b a7 3d 53 1f a5 3c 1f 84 3c bc
       0.14217584 0.081655875 0.020156538 -0.0115061095
000260 96 bb 2a be 33 4d 41 bd 1f 6e 8e 3e ff 3b 67 be
       -0.16673121 -0.047192764 0.2781839 -0.2258148
000270 09 32 1e 3f 77 9e 04 bf 2f 1d 8f bd 6a 9c d2 3d
       0.617951 -0.518043 -0.06987988 0.1028374
000280 1e 7b 1c 3c ef ee c3 bd d7 91 80 39 6b ab b1 bb
       0.009550838 -0.09567057 0.00024522722 -0.005422046
000290 f8 44 9f 3e fe e7 a1 be a0 06 4b 3e 32 6c ee bd
       0.31107306 -0.31622308 0.19826746 -0.1164173
0002a0 ec 01 57 3f 59 2d b0 3e e6 6c d0 3d ba 1e 13 be
       0.8398731 0.34409598 0.10177021 -0.1436719
0002b0 a8 c6 67 3b 5c ce a0 bb 2a 19 76 bb 3f 87 06 3a
       0.003536621 -0.0049074125 -0.003755162 0.00051318476
0002c0 34 5f b5 bd ec a6 af bd ee 31 1c be 2b 39 85 3e
       -0.08856049 -0.0857676 -0.15253422 0.26020178
0002d0 b2 f2 9f 3f 48 7d fc 3e 42 55 c6 3d 27 f8 05 3d
       1.249594 0.49314332 0.096842304 0.03270736
0002e0 05 38 0b 3d 84 39 06 bc b7 a3 09 3a 4b 3f 0b bb
       0.03398897 -0.008192424 0.00052505307 -0.0021247442
0002f0 ae 23 1f be 0f 98 e8 bd 2e 2c af bd a7 7f 44 3e
       -0.15540954 -0.11357128 -0.085533485 0.1918932
000300 1f 02 a8 3f f3 8a 95 bd 3d 3f 07 be b1 1c b5 bc
       1.3125647 -0.07301893 -0.13207717 -0.022108408
000310 b1 52 05 3e 29 a2 81 be 9a 8e ad 3c ac 4b 1c bd
       0.13019826 -0.2531903 0.021186162 -0.038158104
000320 f9 55 61 3e f3 9b 5f 3f ee 21 c9 bf 2d 1a ad 3e
       0.22005452 0.87347335 -1.571348 0.33809033
000330 f6 54 90 be a5 fd c5 3e b6 6f 8d 3c a6 c7 d5 3d
       -0.2818982 0.38670078 0.017265182 0.104384705
000340 5c 03 a4 3c c9 ff be 3d fb 1d 05 3c 7a 60 f5 bb
       0.020021133 0.09326131 0.008124824 -0.0074883075
000350 60 8b 97 bd 3f e5 f8 3d a2 ae 4b be 75 b3 11 bf
       -0.073996305 0.121531 -0.19890836 -0.56914455
000360 b4 64 aa 3f 8f 0b 00 3e da 1f 2b 3e bd 39 ff bd
       1.3311982 0.12504409 0.16711369 -0.124621846
000370 2f b2 f5 3c de e4 56 be b4 81 05 3d e9 3c 01 bd
       0.029992191 -0.20985743 0.032594398 -0.03155223
000380 df aa 92 3d 12 76 23 3f 5e ab 8d 3f 89 fc b5 bf
       0.07161497 0.63852036 1.1067922 -1.4217693
000390 e8 c0 a2 bf c3 b8 50 3f 35 fb 81 3d e9 f8 95 3d
       -1.271512 0.81531924 0.06346742 0.073228665
0003a0 70 19 58 ba ed 1a 1c be fc bb d6 39 87 34 13 bb
       -0.00082435366 -0.15244646 0.0004095732 -0.0022461729
0003b0 0f b4 15 bd 42 1a 4c bc ea 6d b6 bd ed 74 fb be
       -0.03654867 -0.012457432 -0.08907683 -0.49112645
0003c0 76 07 17 bf cf a6 9b bd 87 28 56 3d 30 b7 91 3d
       -0.5899576 -0.076001756 0.052284744 0.07115018
0003d0 7d e4 a2 3d 48 5b d4 3c fe 62 56 bb 3a 86 22 bb
       0.07953737 0.025922433 -0.0032712813 -0.0024799244
0003e0 a9 60 2b be 63 b5 82 3e a5 64 2b 3d 9b 3e 5c be
       -0.16736092 0.25529012 0.04184403 -0.21508257
0003f0 e1 0e 2a 3f 88 1f 95 3e 55 e4 92 3d f0 cd ad bd
       0.66428953 0.2912562 0.07172457 -0.08486545

a2c_network.actor_mlp.0.bias f4 [256]
000000 00 a5 f9 bc ff 2e 17 3d 2a a0 4d bc 6b 54 46 be
       -0.030474186 0.036910053 -0.012550393 -0.1936814
000010 30 d7 b4 bc a1 f1 d5 be b3 aa 1c 3d f2 40 e8 be
       -0.022075266 -0.4178591 0.03824873 -0.4536205
000020 04 55 8d 3d f6 e4 41 bc ba bd 55 bc 70 66 16 3d
       0.06900981 -0.011834374 -0.013045723 0.036718786
000030 d5 a2 76 3c a5 59 d6 ba ed 61 eb 3c 84 af c1 3a
       0.015053471 -0.001635362 0.028733218 0.0014777039
000040 8a 0b 02 be 07 94 2a 3d 42 94 4f be 79 cf 18 3e
       -0.12699714 0.041645076 -0.202714 0.14922895
000050 9a 32 22 3c ca 78 22 3d 43 c9 b9 3c 9f 29 97 ba
       0.00989976 0.039665975 0.022678977 -0.001153279
000060 b5 f3 89 bc 20 fd 39 bd 21 f6 53 bd c0 64 26 bc
       -0.016839841 -0.045407414 -0.0517484 -0.010155857
000070 f3 36 ee 3e 89 88 d2 bc 62 56 d9 3d 05 9d d1 bc
       0.46526298 -0.02569987 0.10612179 -0.025587568
000080 85 4f ba bc e6 e2 91 bc e2 7a 10 3d 03 4b 58 3c
       -0.022742996 -0.017808389 0.03527344 0.013201478
000090 8f 2e 7e 3c b5 e4 4b bd 45 23 07 3d 55 ab af 3c
       0.01551403 -0.04977866 0.03299262 0.021444002
0000a0 15 79 be bb a8 fc c9 be 6a 00 20 3d ac c4 81 3d
       -0.005812774 -0.39450574 0.039062895 0.0633634
0000b0 38 eb 12 bc 32 e2 85 3d 2b 22 2f bc 99 27 07 3d
       -0.008967213 0.06537284 -0.010689299 0.032996748
0000c0 f9 99 6a bd cf 1a c1 3e 79 0c 41 3d d5 0a 0f bd
       -0.057275746 0.37715766 0.047131035 -0.03492244
0000d0 73 4b d4 3c 0e 2a 84 bc e6 bc a3 3c 25 a3 a1 3c
       0.025914883 -0.016133334 0.019987535 0.019731114
0000e0 85 7a bd 3c e6 c3 83 3c f5 cd d3 3c 29 95 b1 ba
       0.02312971 0.016084623 0.025855044 -0.0013548482
0000f0 99 4e 08 3d d3 50 0c 3e 0a af a5 be 46 c4 5e 3d
       0.03327808 0.13702707 -0.32360107 0.0543864
000100 6f e3 48 3d c3 44 61 3c 18 0c e6 bc 84 ea 9c 3d
       0.049045023 0.013749304 -0.028081939 0.07661918
000110 07 a0 1a 3d ca 3c 4e 3e 16 25 c5 3c 20 04 f2 bc
       0.03775027 0.20140377 0.024065536 -0.029542983
000120 61 ff 8f 3c c3 c8 ed 3a a3 88 27 3e f8 d0 d9 bc
       0.017577829 0.0018141497 0.16360717 -0.026588902
000130 a3 aa ed 3c f0 3d 09 bc 1e 84 bb bc c6 8d ac 3c
       0.02901203 -0.008376583 -0.022890147 0.021063697
000140 48 2f 7e 3e 72 92 59 3c 75 11 62 3c c5 5f cc bc
       0.24822724 0.013279544 0.013798107 -0.02494801
000150 c9 f9 76 3b 36 89 84 3c 88 31 7f 3d 43 68 1f 3c
       0.0037685505 0.016178709 0.062303096 0.009729448
000160 2c 61 b7 3b a7 8c b2 bb 04 30 a7 3e ee 3a b7 3c
       0.0055963006 -0.005448896 0.3265382 0.022366967
000170 c1 ec 8c 3c 0d 78 af bc 91 53 98 3c cc b3 87 3e
       0.017202737 -0.02141955 0.018594535 0.26504362
000180 61 49 e8 bc 9a 44 ae bc f5 78 38 3b cc b9 20 bc
       -0.028355302 -0.021272946 0.0028148268 -0.009809922
000190 d1 e5 b5 bd 7c 91 1e 3d 81 6b 29 3d ae db aa bc
       -0.088817246 0.038712963 0.04136229 -0.020856705
0001a0 8a 6d 20 3d fb 65 17 3d a0 04 a4 3e f3 38 22 bd
       0.039166965 0.03696249 0.3203478 -0.039605092
0001b0 95 fa 2f 3d 09 88 af bc c9 6e ca bd fe 04 00 3d
       0.042963583 -0.021427171 -0.09884412 0.03125476
0001c0 e6 81 31 bd b1 e5 f4 3c 7d df e6 bc 6d 7e 6d 3c
       -0.04333677 0.029894682 -0.02818274 0.014495474
0001d0 a9 12 4e 39 89 98 ba 3a 02 45 e3 3e 9d 0b f0 bc
       0.00019652642 0.0014236133 0.44388586 -0.029302413
0001e0 4e 11 91 bc 0c 98 b1 3e f0 06 e8 3c 65 84 8d bc
       -0.017708447 0.34686315 0.02832362 -0.017275045
0001f0 37 bf 44 be 1a 81 f6 bb 8c ce f6 bc fd 32 aa 3c
       -0.19213568 -0.0075227143 -0.030127786 0.020776266
000200 4b de 82 3c 0d f2 94 3c f7 86 9a 3c 26 e6 7f 3d
       0.015975138 0.018181825 0.018863184 0.062475346
000210 64 e9 b5 3e 30 96 5b 39 72 60 93 3c bb 69 a1 3c
       0.35529625 0.00020941417 0.017990325 0.019703737
000220 78 0b 18 bc 91 24 75 bc d6 aa 98 bd af 66 c0 3c
       -0.009280078 -0.014962331 -0.07454459 0.023486463
000230 e0 a4 8c bc 34 fb 8b bd d6 50 63 3c c7 a6 c9 3c
       -0.017168462 -0.068350226 0.013874253 0.024615658
000240 06 b9 21 bd cc 51 be bd cb 98 89 3e 65 a4 c0 3e
       -0.039483093 -0.09292945 0.26874384 0.37625423
000250 2a a6 a6 bc a6 c3 04 3d a5 37 89 3c ec cf d6 bd
       -0.020342905 0.032413147 0.016750166 -0.10488877
000260 f3 c1 92 3c 11 83 b1 bd 76 0b a9 3e 0f d7 f0 3c
       0.017914748 -0.08667577 0.33016557 0.029399423
000270 72 bc e9 bb 69 d1 b0 3c 54 22 a4 bc ed f9 3e 3d
       -0.00713306 0.02158423 -0.0200359 0.046625067
000280 e2 cb c4 3c b2 6a 86 3c 0f fd 12 bd 2f c7 28 3c
       0.024023 0.016408298 -0.035885867 0.010301395
000290 7e f1 17 3d 84 b0 7f be 8c af 54 bd ee db 21 3d
       0.03709554 -0.24969679 -0.051925227 0.039516382
0002a0 a7 85 e0 3c ee 50 44 bc d6 b6 11 bb c9 c0 2e 3d
       0.02740748 -0.011982186 -0.0022234223 0.042664323
0002b0 f2 8d c9 3c b9 f1 c0 bd 9d db 03 3d 63 d6 36 3d
       0.024603818 -0.09421105 0.03219186 0.04463805
0002c0 d8 56 79 3e 58 25 67 bc 44 93 ce bd 93 37 b0 3d
       0.24349535 -0.014108025 -0.100866824 0.0860435
0002d0 d1 84 96 bc 06 7b 6e 3b 83 b1 37 3d ee d7 09 bd
       -0.018373879 0.0036389246 0.044847023 -0.033653192
0002e0 21 79 d1 3c e9 3a 93 3e 36 77 6f bd f8 f0 1f 3b
       0.025570454 0.28755882 -0.058463298 0.0024405103
0002f0 b2 75 97 be 09 19 53 3c 0c 5a b8 3d 7f 14 6a bc
       -0.29581982 0.012884387 0.0900155 -0.014287113
000300 d2 40 95 bc d0 50 c1 bc 4b 5f c9 3c 72 1c cf 3c
       -0.018219385 -0.023598105 0.024581572 0.025282118
000310 8d 17 39 bd 00 fa d1 bc a4 a2 84 bd 8d 69 05 3c
       -0.045188475 -0.025631905 -0.06476334 0.008142841
000320 da e4 31 3c d4 64 bf 3c 01 e8 78 3c 9c d1 0b bd
       0.010857785 0.023363508 0.015192033 -0.034135446
000330 65 d7 a9 be 0d 84 d1 bc 57 fd 80 3c 09 b5 06 3d
       -0.33172145 -0.025575662 0.015745802 0.032887492
000340 a5 29 b6 bb cd 9a 62 bd b2 9a 4f 3e db 18 23 3d
       -0.0055591636 -0.05532341 0.20273855 0.039818626
000350 3a 34 04 3d bc d9 17 bd d2 1d 97 3c b4 02 fb bd
       0.03227637 -0.037072882 0.018446837 -0.12256375
000360 13 d1 de bb d7 19 aa bb 6c d3 91 3e 97 fc 01 3e
       -0.006799826 -0.0051910686 0.28481615 0.12694012
000370 54 5b 14 bd dd f1 19 3d 79 88 af 3d 16 9f 57 3d
       -0.03621991 0.037584174 0.08570952 0.05264195
000380 84 cf b7 bd 51 6f 3e bc e8 3e 11 bb 13 68 98 3c
       -0.08975127 -0.01162322 -0.002216274 0.018604314
000390 be c1 04 3c b9 d5 ce be 95 e2 5e 3e dc 23 45 bc
       0.008102832 -0.40397432 0.21766122 -0.012032475
0003a0 ce 51 be be 5b 5c 78 bc 3d b8 29 bc 7f 9d a3 bc
       -0.37171787 -0.015158738 -0.010358867 -0.01997256
0003b0 7e f6 90 3e da 67 0d bc af 49 57 3d ed bd 23 3c
       0.2831306 -0.008630717 0.052560505 0.009994012
0003c0 fa a1 d3 3c 22 1a 62 bc c9 00 53 bb 08 16 8d bc
       0.025834072 -0.013800176 -0.0032196513 -0.01722242
0003d0 e1 79 c2 3e af 4e 04 3d bf 0e e3 3c 31 c0 0e 3d
       0.3798361 0.0323016 0.027716992 0.034851257
0003e0 82 0c a6 bc da 63 d1 bd d6 b6 15 bd a8 27 77 3c
       -0.020269636 -0.10224123 -0.03655132 0.015085138
0003f0 b8 6f 34 3c 0a 88 ca bc f7 4b 4a bd ec 8f a0 3b
       0.011012964 -0.024723072 -0.049388852 0.0048999693

a2c_network.actor_mlp.2.weight f4 [128, 256]
000000 b3 2d ad 3a 47 ac 64 3e b6 67 83 bd 0d a8 c1 3d
       0.0013212472 0.22331344 -0.06416266 0.09455881
000010 72 89 53 3e 12 cb a3 bc c7 b1 c5 bd dd ad 89 bc
       0.206579 -0.019994292 -0.09653049 -0.016806537
000020 00 05 a7 3d b8 36 8d bc d7 74 d8 bc ef e4 93 be
       0.081552505 -0.017238006 -0.026422901 -0.288856
000030 2d 00 57 3d 54 ba 49 3e f9 f8 27 be 88 be 24 be
       0.052490402 0.19699985 -0.1640357 -0.16088307
000040 5c 2d e4 bd be ea 4d 3c 07 8f 81 3c d3 3c e4 3d
       -0.11141464 0.012568174 0.015815271 0.11144414
000050 a9 11 b8 bd 1d ec 7e 3d ee 1f 89 bd 4e c5 29 3c
       -0.089877434 0.062236894 -0.06695543 0.0103619825
000060 63 d8 c5 3d 3b d0 c2 3d 31 05 b3 be 19 8b 25 be
       0.09660413 0.09512373 -0.34964898 -0.16166343
000070 a1 39 3b 3c 64 bd 96 3e e3 3d 00 3e a7 f1 34 3d
       0.011427314 0.2944137 0.12523608 0.04417577
000080 54 19 9d bd b0 1f 97 3c a5 6f 52 bd 76 71 74 bc
       -0.076708466 0.018447727 -0.051376004 -0.014919629
000090 9e 4e 62 bc 83 2e 46 be 52 54 07 3e da 4b 2e 3d
       -0.013812689 -0.1935368 0.1321576 0.042552806
0000a0 a1 18 57 3e 19 3e a3 bc 62 b0 a1 bc ee 54 f5 bd
       0.21005489 -0.019927071 -0.019737426 -0.1197909
0000b0 b6 63 df bd 7c 9a 9d 3d 08 dd 1b be fa 3b 1a be
       -0.1090769 0.07695481 -0.15221035 -0.15061942
0000c0 6d e3 e0 bd c3 3b 95 3b d9 57 25 3e e6 9a d8 3d
       -0.10980878 0.0045542433 0.16146792 0.105764195
0000d0 c1 18 f7 3d 6a c0 a3 bb ac ea 27 be 9d 45 ba bd
       0.12065268 -0.004997303 -0.16398114 -0.09095309
0000e0 ec 33 05 3e 32 d6 23 be 68 e8 29 bd c0 db 8e bd
       0.13008088 -0.15999678 -0.041481405 -0.06975508
0000f0 ec 22 03 3b 81 9d 0b 3e 5d 23 ad bc 36 47 7a be
       0.0020009829 0.13634302 -0.021135027 -0.24441227
000100 e1 62 1c be c5 60 a2 bd fa 83 83 3d 7e 85 9b bd
       -0.15272094 -0.079286136 0.06421657 -0.07593821
000110 67 1d ba bd 75 26 fe 3d 0d fd b9 bd f8 12 bf 3d
       -0.09087639 0.12409679 -0.09081469 0.0932979
000120 ad 48 c4 bd 99 32 2b be da a1 5e be 88 b2 b5 bd
       -0.09584174 -0.1671852 -0.21741429 -0.08871943
000130 5d bb a8 3d ff 79 24 3e bd 48 17 3e 9d 1f 0b be
       0.08238862 0.16062163 0.14773841 -0.13586278
000140 78 13 70 bd 91 8d a1 3d be a5 9a 3d 51 23 c7 3c
       -0.058612317 0.0788833 0.07551144 0.024308832
000150 27 a7 b2 bd 6d a4 60 3d d2 2e 50 3e 86 d2 9f 3d
       -0.08723288 0.05484431 0.2033036 0.07803826
000160 eb 30 f5 3d 64 9a 11 3e d6 c6 6e 3d e7 43 d1 bd
       0.11972221 0.14219052 0.058295093 -0.102180295
000170 15 a9 e3 bc 3e 91 7e bd 83 d3 02 3d 70 47 f2 bd
       -0.027790586 -0.062150232 0.031939995 -0.11830032
000180 37 85 ed 3d b8 a7 e9 bc e3 3e 14 3e 3d 12 b6 3d
       0.11597674 -0.028522357 0.14477114 0.088901974
000190 1b 14 ad bd e2 7b 2b 3e 74 44 eb 3c ef 4d 88 3d
       -0.084511004 0.16746476 0.028719164 0.0665549
0001a0 d9 ac 03 bb f7 b1 c2 3d 69 f4 41 3e c4 06 67 3e
       -0.002009204 0.095066 0.18940891 0.22561175
0001b0 16 0a 2c 3d 94 ac 06 3c c8 53 45 bd 83 da 2f 3e
       0.042001806 0.008219857 -0.048175603 0.171732
0001c0 ae b2 fa 3c 46 ff 4b 3c 66 e3 27 be f1 0d 70 3e
       0.03060278 0.012450999 -0.1639534 0.23442818
0001d0 67 cf d4 bd 67 ac 01 be 56 5b c7 3b b4 37 41 3e
       -0.10391121 -0.12663423 0.006083886 0.18868905
0001e0 31 6f 67 bd e0 d7 33 3e b0 d8 b2 3d 8d b5 d6 3d
       -0.056502525 0.17562819 0.08732736 0.10483847
0001f0 19 e3 86 3d 1a 1e 6c 3e 78 3b c7 3d 48 f9 d3 bd
       0.06586284 0.23058358 0.0972814 -0.10350281
000200 2c 4b 07 be 03 84 b2 3d 60 b9 ed bd 63 b0 06 3e
       -0.1321227 0.087165855 -0.11607623 0.13153224
000210 84 bc f6 3a 73 ed a2 3c e5 d6 5b 3d 7f d7 f2 3c
       0.0018824493 0.019888615 0.053671736 0.029643772
000220 32 a9 37 bd d4 22 8e 3e 2d 8a 95 bd 00 1d c4 3d
       -0.04483909 0.27760947 -0.073017456 0.09575844
000230 81 5c 29 3e 9c 50 d2 bd 16 78 d4 3e 30 fe 43 bd
       0.16539194 -0.10269281 0.41497868 -0.047849834
000240 ba 7c 5a 3d b5 07 0c be 3b b6 0a bd f3 07 0f 3d
       0.053341605 -0.13674815 -0.033865195 0.03491969
000250 12 13 b4 3e a5 12 07 3e a6 4b 6e 3e 1f 35 0a be
       0.351708 0.13190706 0.23271045 -0.13496827
000260 45 e4 33 be 75 e9 c3 bd 1f d2 07 3e 88 c1 dc bd
       -0.17567547 -0.09566013 0.13263749 -0.10779101
000270 c7 d7 c0 bd d7 10 48 bd c0 bd 3e 3e c2 28 e3 3d
       -0.09416156 -0.048844185 0.18627071 0.11091758
000280 de fd 73 be 52 78 62 bd d7 9c 27 3d 20 48 3a bd
       -0.23827311 -0.055290528 0.04092106 -0.04547894
000290 1a fd 6b 3c 38 bb 35 bd 9e c0 aa bd 2f ab 0b be
       0.014403606 -0.044368 -0.0833752 -0.1363952
0002a0 65 4b 32 be 18 b5 5f bd 62 68 97 3e 2e 1c 07 3e
       -0.17411573 -0.054616064 0.29571825 0.13194343
0002b0 54 69 51 3c ff 07 b5 bd 13 11 c9 3c 00 51 f3 3b
       0.01278146 -0.08839416 0.024544274 0.0074254274
0002c0 0c ec 3e 3e 1a 67 a6 bd ed e1 4e 3e 53 ee e0 3d
       0.18644732 -0.08125134 0.20203371 0.10982957
0002d0 b1 48 eb bc 0a d4 a4 3d 81 e6 8f 3d 47 3d d5 be
       -0.028721185 0.08048256 0.07026387 -0.41648313
0002e0 12 54 55 3d 0d fe a2 3d ce e9 a8 3e 0f ca cf 3d
       0.05208213 0.079586126 0.3299088 0.101459615
0002f0 76 5b 05 be 47 36 d8 3e 59 02 f6 bc a8 71 2e 3e
       -0.13023171 0.4222891 -0.030030416 0.17035544
000300 8f fb ad bd 8b e1 d4 3d 06 c5 32 be 80 58 35 be
       -0.084952466 0.103945814 -0.17457971 -0.17709541
000310 c1 46 04 be 3a 3e 7e 3d 6d d7 95 3e 9e 3d 5c be
       -0.12917615 0.062071063 0.2926592 -0.2150788
000320 35 58 22 bc ad 7e 81 3e 90 2f f4 bd 24 8c da 3d
       -0.0099087255 0.25291958 -0.11923134 0.10671261
000330 15 95 9b bd 2e e5 90 3c ec 6e ee bd 09 87 0a be
       -0.075967945 0.017687406 -0.116422504 -0.13528074
000340 a1 22 88 bc ed 26 49 3e ec 35 08 3d ce cd f4 bb
       -0.016618075 0.19643755 0.03325455 -0.007470823
000350 7f 8b d9 3d 3e 6a 0f be b3 65 bb bd 08 30 64 bd
       0.1062231 -0.14005372 -0.09150257 -0.05570987
000360 cc b6 35 3e 81 64 2f 3d 89 b2 c8 3c a6 f4 0e 3d
       0.17745513 0.042820457 0.024499195 0.034901284
000370 9d 8c 0b 3e d7 ff cf bd 6d 44 13 3e da d6 01 bd
       0.13627858 -0.101562195 0.14381571 -0.03169904
000380 1c 01 20 be db 35 eb 3d db b4 30 3e 2f 9c ab be
       -0.15625423 0.114848815 0.17256491 -0.33517596
000390 44 2a d3 3d 4c e3 c2 bb a6 a7 24 be 97 75 31 be
       0.10310796 -0.005947506 -0.16079578 -0.17330013
0003a0 d9 69 09 bd 0a 5a d0 3d 98 7a 4b 3e 99 38 57 3d
       -0.03354821 0.101734236 0.19870985 0.05254421
0003b0 ee c3 ef bd 46 3b 6d 3e 82 06 86 be 03 00 c3 3e
       -0.117072925 0.23167142 -0.2617684 0.38085946
0003c0 8c 63 67 be 09 8b 89 be d0 03 a4 bd f9 cc a5 3d
       -0.22596568 -0.26863888 -0.0800854 0.08095736
0003d0 1e dc 98 bd 97 3e 05 bd d0 8b fc 3d 02 df e2 3d
       -0.07463859 -0.032530393 0.123313546 0.110776916
0003e0 4e 1a 5d 3d be e9 d8 bd 51 9b 62 bd 79 8a 93 3b
       0.053980164 -0.10591458 -0.055323903 0.004502591
0003f0 da 2a ce bd 0d fd 09 bc c2 37 73 bd 8b 17 f0 3d
       -0.10066767 -0.008422148 -0.059379347 0.117232405

a2c_network.actor_mlp.2.bias f4 [128]
000000 5b b5 b1 bc 81 db 20 3f 48 af bf bc a7 ac 24 bd
       -0.021692922 0.62834936 -0.02339901 -0.040203717
000010 c9 13 03 bd 88 ef 8e bc 26 c2 3e bd 51 27 7a 3d
       -0.03200129 -0.017448202 -0.046571873 0.06107265
000020 53 29 1b 3f 25 c4 fb bd 7d 3c fc bd b3 22 c6 3c
       0.6060993 -0.12293271 -0.12316225 0.024186468
000030 1f b6 11 bd d0 fd 12 3d 1d b3 e7 bc 87 0a 0b bd
       -0.035574075 0.035886586 -0.02828365 -0.033945587
000040 00 79 4a bc 06 df a6 bd 97 72 80 3c 83 bf 58 bc
       -0.01235795 -0.08148007 0.01567964 -0.013229254
000050 23 34 30 bd 90 d5 ef bb f6 7c 12 bc 19 33 0b be
       -0.04301847 -0.00731916 -0.008940926 -0.13593711
000060 6a 2a 63 3c 91 e1 e2 bd 9f 2b 50 bd 8e 77 1f bc
       0.013865093 -0.1107818 -0.05082285 -0.009733094
000070 f6 b0 90 bc 0b 7a ed bc 2d 33 0c bd 26 40 ec bb
       -0.017662507 -0.028988859 -0.034228493 -0.0072097955
000080 af 26 62 3d 61 a1 6e bd ae 65 48 3d d0 ca 44 bd
       0.055212673 -0.05825937 0.048925094 -0.04804498
000090 2b 30 12 3d 9e 87 21 bd f0 bc d3 bc c1 d7 b7 bc
       0.035690468 -0.039435975 -0.025846928 -0.022441747
0000a0 1e 04 16 bd aa c1 df 3e 2f f5 41 3d e8 86 58 bd
       -0.03662502 0.4370244 0.047352966 -0.05286303
0000b0 90 04 4c 3d 47 5c 2c 3d e9 17 a0 bc 26 c7 f5 bc
       0.04980904 0.04208019 -0.019542651 -0.030002188
0000c0 4d a1 32 3e e6 06 c0 bd 9d 5a 39 bd 01 6e 01 be
       0.17444344 -0.09376316 -0.04525243 -0.1263962
0000d0 3d 67 0b bd 3a d9 d9 3b e1 ee 84 bd f8 41 00 bd
       -0.034034003 0.00664821 -0.06490875 -0.031312913
0000e0 17 72 42 3d d6 55 14 be 80 54 6f 3c ff 67 2f be
       0.047472086 -0.14485869 0.014607549 -0.17129515
0000f0 82 e9 dc bc ff 2a 04 3d bf 2f 97 bd 82 b8 80 bc
       -0.026966814 0.032267567 -0.07382154 -0.01571298
000100 3e fd a1 bc c4 9e b4 38 e5 c4 5c bd 83 2e a5 3d
       -0.019774076 8.612641e-05 -0.05389871 0.08065512
000110 53 ff b9 bc 6e f7 b6 bc 5e a5 fe bb 4c a7 49 bc
       -0.022704756 -0.02233478 -0.007771178 -0.012307953
000120 9a 1c 50 bf d4 3f fd 3c 87 05 2f bd 94 ab c8 bf
       -0.8129364 0.030914225 -0.04272988 -1.5677361
000130 3c a0 3d 3d 1b 86 9a 3b 5d 6f ce bf 56 23 9c 3d
       0.04629539 0.0047156936 -1.6127735 0.07623927
000140 c0 72 af bd 72 47 ff bd 5e 47 48 bd cf 19 99 bd
       -0.08566809 -0.12464799 -0.048896186 -0.07475626
000150 a4 96 81 bc 0e 2a 71 bc 01 9e 7d 3c 9f d6 89 3c
       -0.015818901 -0.014719499 0.015479566 0.016825972
000160 a6 86 0a bd a5 13 21 bc ec 8e 7a bd cb 50 eb 3c
       -0.033819817 -0.009831344 -0.061171457 0.028725049
000170 05 20 b0 3d 5f 22 05 bd 49 26 f0 bb ad f3 e0 3c
       0.08599857 -0.032503482 -0.0073287827 0.027459944
000180 d8 96 1a 3d a8 f4 48 bd e8 40 cc bf 73 ae f1 bb
       0.037741512 -0.049061447 -1.5957308 -0.0073755323
000190 4b 17 7f bb 21 b2 fa 3b 44 5c 76 3c f1 b2 13 bd
       -0.0038923796 0.007650629 0.015036646 -0.036059324
0001a0 17 a5 c2 3c 9e 3e f0 bc b8 84 6a 3d d9 34 2e bc
       0.023760362 -0.029326733 0.057255477 -0.010632717
0001b0 c3 26 37 3d 43 7f 33 3d 0b 98 83 bb 83 97 d7 3c
       0.0447147 0.043822538 -0.0040159277 0.026317364
0001c0 b2 dc ed bd cf 7b 5a 3b 31 44 7e bd 0a ea 49 bb
       -0.1161436 0.0033337956 -0.06207675 -0.0030809664
0001d0 46 14 24 bd 49 62 38 bd b3 83 2f bc 2d b2 56 bd
       -0.040058397 -0.045015607 -0.010712552 -0.052416015
0001e0 b3 f1 15 be 32 f1 ce bc f1 cc a1 3c 5b 1e 23 bc
       -0.14642982 -0.025261495 0.019751044 -0.009955968
0001f0 cb 35 45 bd 32 8d e2 3c 6e 55 54 bd c0 2a 0a be
       -0.048147004 0.027655218 -0.051839285 -0.1349287

a2c_network.actor_mlp.4.weight f4 [64, 128]
000000 a0 1a b0 bd ac b1 5a bf 24 f4 15 3e 5f 58 dd bb
       -0.08598828 -0.85427356 0.14643914 -0.0067549194
000010 2f 65 06 bd 99 17 ac bd 30 46 1b bd 55 da dc 3d
       -0.03281134 -0.084029384 -0.037908733 0.10783831
000020 d6 3f 6d bf f0 64 8e be b1 c5 a8 bd fb 10 8d bc
       -0.9267553 -0.27811384 -0.08240832 -0.017220011
000030 6e 4b b0 bc 83 ca 72 3d fa 54 9f 3d 93 f4 1c bd
       -0.021520343 0.05927516 0.0777988 -0.03831918
000040 b4 d1 b1 3d f8 8e e4 bc a0 4e ef bc e0 c1 ca bd
       0.08682576 -0.027900204 -0.029212296 -0.0990026
000050 00 87 9d 3d 66 f5 4d 3d e9 f2 c4 bc e2 da ae bd
       0.07691765 0.05028286 -0.02404161 -0.08537842
000060 2f 35 f3 bb 75 26 34 3a de d7 00 3e 21 bc fe bd
       -0.0074221115 0.00068721856 0.12582347 -0.124382265
000070 42 66 71 bd 92 45 47 3d 12 4c 9b 3c ce c1 65 bc
       -0.05893541 0.04865033 0.018957172 -0.014023257
000080 d9 c8 b1 3d 42 19 d1 3c b9 7e 63 3b df 94 da 3d
       0.08680887 0.02552474 0.0034712984 0.10672926
000090 2d b0 e3 3d b5 16 6c bd 0d 97 da 3c e2 16 0e bd
       0.11117587 -0.057638843 0.026683355 -0.03468979
0000a0 a6 13 4d bd 96 cc fa be f1 c7 13 3b b7 cb 35 bd
       -0.050067566 -0.48984212 0.0022549594 -0.04438373
0000b0 dc 9d 04 3e ff e5 3a 3e d9 55 a1 3c dc 6f fd bc
       0.12950844 0.18251799 0.019694256 -0.030937128
0000c0 82 b4 34 bf 2d b2 9f bd 99 0f c6 bc fc 59 1c be
       -0.70587933 -0.07797656 -0.02417736 -0.15268701
0000d0 f6 40 50 ba f8 92 bf bc 42 dc 02 3e 8b 3e 22 3d
       -0.000794425 -0.02338551 0.12779334 0.039610427
0000e0 67 f1 d9 be 6b 31 59 3d 50 03 1c 3e 7a bf 37 be
       -0.42566988 0.053025644 0.15235639 -0.17944136
0000f0 5e ed 82 3d 05 7b 96 3b f3 f0 6a 3e 84 5e 1f bd
       0.063929304 0.004592302 0.22943477 -0.038908496
000100 c4 6c 92 3c 5b e9 cb bc cb ca e6 bc 15 c4 6c 3c
       0.01787413 -0.024891546 -0.028172871 0.0144510465
000110 03 d9 1b bd e6 cd 37 bd 90 f1 5a be 0b 65 72 bd
       -0.038048755 -0.044874094 -0.21381211 -0.059178393
000120 20 c3 df 3e 87 c5 9e bc ba 5b 45 3d e8 83 8b 3f
       0.43703556 -0.019381298 0.04818318 1.089963
000130 bc e1 35 3c 0d be d4 bb c6 b7 7d 3f dc 2f ca bc
       0.011101183 -0.0064923824 0.9910854 -0.024681024
000140 fe d5 26 bd 25 39 96 be ad 42 26 3d 3f f5 18 bc
       -0.040731423 -0.29340473 0.04059093 -0.009335815
000150 5e 7e 70 3d 2c 76 3e ba ad 17 10 be 95 0f e0 38
       0.058714263 -0.0007265534 -0.14071532 0.00010684055
000160 52 6d 48 3d 1e cf a6 bd e4 3d e7 3d d6 70 44 3d
       0.04893238 -0.08144973 0.112911016 0.04795917
000170 7b f8 94 bd 48 c5 4d bd 17 14 cd bb e1 72 b3 bc
       -0.072739564 -0.05023697 -0.0062584984 -0.021905364
000180 1a 31 28 3e 8d aa dd bd b1 5a 84 3f 1f c4 8d bc
       0.16424981 -0.108235456 1.0340177 -0.017305432
000190 23 06 02 3e 1c 85 54 bd 7a e3 1e 3e fd 1f 80 bc
       0.12697653 -0.051884755 0.15516463 -0.015640253
0001a0 8c 49 9d 3d 54 38 be be 4d c8 9e 3d d7 97 03 3e
       0.076800436 -0.3715235 0.07753048 0.12850891
0001b0 ee 80 19 3d 81 ab 50 bc 43 6d 9e 3d 18 c6 e4 bc
       0.037476473 -0.012736202 0.07735684 -0.02792649
0001c0 a7 49 8b 3d 5f 5e 53 3d 60 01 e3 bc af 5b 40 be
       0.068011574 0.05160367 -0.027710617 -0.18784975
0001d0 d1 9d 6a 3d 49 35 44 bd bb ed 0a 3e 90 71 3d 3b
       0.05727941 -0.04790238 0.1356725 0.00289068
0001e0 4f af 78 3e 8f a2 3f 3d 91 de d2 bd a7 a1 a6 3d
       0.24285625 0.046785887 -0.102963574 0.081363015
0001f0 72 f1 e5 3c 90 79 97 3d dd e3 8b bd bd c9 cd bb
       0.028069232 0.07396233 -0.06830571 -0.0062801526
000200 12 11 36 bd 6e c2 ea 3c ed aa d8 3b 51 3f bb bd
       -0.044449873 0.028657164 0.006612173 -0.09142936
000210 2c 28 88 be e3 5e 5b bc 16 fd 40 be aa a7 8f 3c
       -0.2659315 -0.013389322 -0.18846545 0.017536003
000220 80 e0 97 3d 98 42 cd 3d fe a3 dd 3d 8a 0a d4 bd
       0.07415867 0.100224674 0.10822295 -0.10353573
000230 32 0c 5d be a9 61 2a be 63 bc 37 be 9d 0f 35 be
       -0.21586683 -0.16638817 -0.17942958 -0.17681737
000240 b4 fc 1f 3d 8f 8b 46 be 09 b2 15 be 09 b1 01 be
       0.039059356 -0.19389175 -0.14618696 -0.1266519
000250 7f 01 f4 3b 55 1b c1 bd 3b 63 24 be 11 26 f1 3c
       0.0074464674 -0.09429041 -0.16053478 0.029437097
000260 2e 62 22 be 4f 25 e8 3c 6e 04 18 3b dc 61 19 be
       -0.15857765 0.028338103 0.0023196 -0.14978737
000270 b2 4b 1b be fe 3d f4 bd 59 b8 1c bb e4 3e 2c 3c
       -0.15165594 -0.119258866 -0.002391359 0.010513041
000280 d6 d1 9e 3b 70 76 0b be 3a ac 07 3e 01 3f df 3d
       0.0048467917 -0.13619399 0.13249293 0.10900689
000290 2a 5a a1 bd 88 ca 3d be a2 9c af bc 9b 50 87 bc
       -0.078785256 -0.18534291 -0.021436993 -0.016517928
0002a0 57 77 11 be b4 34 5d 3d 6b 30 ea 3c ab ea 21 be
       -0.14205681 0.05400534 0.02858754 -0.15812175
0002b0 66 1a 1d 3d 40 eb dd bd 50 0f 72 be d2 46 4a be
       0.038355254 -0.10835886 -0.23638654 -0.19753578
0002c0 14 0e 01 3d 37 b6 10 be 94 c3 43 be 31 a3 83 3d
       0.031507567 -0.1413201 -0.19117576 0.06427611
0002d0 55 e3 cf bd cd 15 43 be 09 a8 3a 3d 02 17 37 be
       -0.10150782 -0.19051285 0.045570407 -0.1787987
0002e0 bf c7 9c 3d 56 05 24 3e 20 bb a9 bc e3 8a 16 3c
       0.07655286 0.1601766 -0.020719111 0.009188387
0002f0 a1 89 0c be 00 7d f2 3d b1 33 a7 bd f3 c7 58 be
       -0.13724376 0.11840248 -0.08164156 -0.21170025
000300 9f 62 5c be b1 52 c2 bd 6f 3b 6e be f4 b5 44 3e
       -0.21521996 -0.094884284 -0.2326486 0.19210035
000310 5c 41 c5 bd e7 84 5f be 16 01 83 3d d5 ed 15 be
       -0.09631607 -0.21828042 0.063966915 -0.14641507
000320 fd d4 87 bc 0d 82 9e bd c5 fa 4f be d6 20 bd 3a
       -0.016581053 -0.07739649 -0.20310505 0.0014429342
000330 6b b4 c6 bd 18 92 08 be 5b e5 02 3e e9 57 1e 3e
       -0.09702381 -0.1333698 0.12782805 0.15463223
000340 c0 da 42 be 06 af 61 3d 24 1a 30 be cc 77 28 be
       -0.19028759 0.055098556 -0.17197472 -0.16451949
000350 10 45 25 bd e3 c2 32 be b8 15 82 3d ce 44 21 bc
       -0.040349066 -0.17457156 0.06351799 -0.0098430645
000360 50 8f 02 be 30 07 a7 bd b9 3f 45 be cb f7 d4 bb
       -0.12749982 -0.08155668 -0.1926259 -0.006499266
000370 9f 24 58 3e 5a 96 d9 bd 42 8f a8 bd 30 b1 2a bc
       0.2110772 -0.106243804 -0.08230449 -0.010418221
000380 a3 aa b7 bd 74 7c 6d be 86 c4 70 3c eb 3d 1d be
       -0.08968093 -0.23192006 0.014695292 -0.15355651
000390 0f cd 35 be 75 94 65 be f5 bd be bb fa 6b 78 be
       -0.17754005 -0.22419913 -0.0058209845 -0.2425994
0003a0 84 c5 c9 bd c7 4b e5 3b 24 6c a0 3c 73 27 2a bd
       -0.09852126 0.0069975588 0.019582815 -0.041541528
0003b0 12 42 ae bd 58 f0 bb 3d bd a6 39 3c 04 91 62 bd
       -0.08508696 0.09176701 0.011331257 -0.05531408
0003c0 96 79 19 3e 4a 36 0f be 7f 3e ca bc 1a 4e e8 bc
       0.14987788 -0.13985553 -0.024688004 -0.028357554
0003d0 fa 0a 31 bc 3c be d1 bc 23 41 a2 bc af 2c 5d bd
       -0.01080584 -0.025603406 -0.01980645 -0.05399769
0003e0 25 63 04 bd 59 e5 50 be e3 3d 4c 3d ff 97 6f 3d
       -0.032321114 -0.20399989 0.049863707 0.058494564
0003f0 ea c0 7c be 24 3d 78 bc 15 a0 ee bd cb 99 36 3e
       -0.24682966 -0.015151296 -0.11651627 0.17832105

a2c_network.actor_mlp.4.bias f4 [64]
000000 b5 dd a8 bf 84 34 17 3e 8b de 8a be 56 b6 7a bd
       -1.319266 0.14766127 -0.27122912 -0.061209045
000010 06 a1 67 bd bf 3d 74 3d 7d e6 21 be 8b 05 40 3d
       -0.05655005 0.0596292 -0.1581058 0.046880286
000020 f3 0d e6 bd b5 39 2e bd 66 3c a6 bf 7b 99 09 be
       -0.11233129 -0.042535502 -1.2987182 -0.13437454
000030 57 05 27 bb fa e4 be 3d f7 19 c3 bd 24 40 00 bd
       -0.002548536 0.093210176 -0.09526437 -0.03131117
000040 6c a8 61 bd 3f 98 d0 bc fb 7d 60 bd 5e 45 94 3d
       -0.05509226 -0.025463222 -0.054807644 0.07239793
000050 30 2b 8b 3d 44 58 c3 3d f3 8b 79 3d 8c f5 d0 3d
       0.06795347 0.0953832 0.06092448 0.10203084
000060 2c 87 c1 3b df d4 a2 bf 7e 40 fd bd 0b 9a c0 3d
       0.0059060063 -1.2721213 -0.123658165 0.09404381
000070 aa 8c 05 be d8 bc 05 3e 37 27 d5 bc df d5 6f bd
       -0.1304194 0.1306032 -0.026019676 -0.058553573
000080 be ea bc bf 31 05 72 be f6 2a 16 3e db 19 eb 3d
       -1.4759138 -0.23634793 0.14664826 0.11479541
000090 34 2f 29 bd 88 1d b5 bf 12 58 94 3d 85 71 1b 3e
       -0.041304782 -1.4149637 0.072433606 0.15180023
0000a0 2b b4 af 3c 6c c2 a4 bd d5 65 a5 bf 8b a1 df 3d
       0.021448215 -0.080448955 -1.2921702 0.10919484
0000b0 a5 03 c9 bf a6 c2 a2 bc 8e e2 7a 3d 47 44 9f 3e
       -1.5704237 -0.019868206 0.061251216 0.3110678
0000c0 24 6b 14 3d dc 49 a1 bd c8 5b a7 3d 27 7e 6c be
       0.03623499 -0.07875416 0.08171803 -0.23094998
0000d0 79 7a ab bd bb 89 3b be 85 8a 34 3f cb 52 04 be
       -0.08372969 -0.18314259 0.70523864 -0.12922208
0000e0 f1 d8 15 3b ac 15 4b be 3e 47 72 bc e7 cf 09 3e
       0.0022864903 -0.19832486 -0.014787493 0.13458215
0000f0 74 94 ad bf f0 25 56 3d 39 70 4e bd 65 f3 e5 3d
       -1.3560929 0.052282274 -0.050399993 0.112280644

a2c_network.value.weight f4 [1, 64]
000000 20 ca af bf 24 0e 75 bd e5 dd a3 be 78 59 22 be
       -1.3733559 -0.05982794 -0.3200523 -0.15854442
000010 08 17 23 be bd 9c 93 bc d0 50 e9 bd 78 6b 77 bd
       -0.15926754 -0.018019075 -0.11392367 -0.060405225
000020 a0 b7 19 be 7e 1a f5 3d 6f 9a b8 bf d1 4e 75 be
       -0.15011454 0.119679436 -1.4422129 -0.23955847
000030 c5 1b 70 3e 7e 55 4d bd 9a 4e 1d be c9 9a 46 bd
       0.23448093 -0.05013036 -0.15362015 -0.04848746
000040 21 95 49 bd 46 b7 74 3c 58 c1 3f 3e 66 04 4a 3e
       -0.049214486 0.014936274 0.18726099 0.1972824
000050 6e 2a a2 bd 7f 4f 95 be c9 e5 93 bd 4d a2 05 bf
       -0.07918249 -0.29162213 -0.072215624 -0.52200776
000060 4c 18 90 3d 6d 30 a3 bf 0a ab da 3c 8d cb 5f 3d
       0.07035884 -1.2749153 0.026692886 0.05463748
000070 c0 6d 87 be f9 00 06 3e c7 38 06 be da fa 91 be
       -0.2645092 0.13086309 -0.13107596 -0.28511697
000080 de 4a c5 bf 2b 07 69 be 8c 1c b4 3e 1a eb 9c bd
       -1.5413473 -0.2275664 0.3517803 -0.076620296
000090 6c bb 1e be c8 04 d1 bf 0c 4e a0 bd 19 f3 ed 3d
       -0.15501183 -1.6329584 -0.07827386 0.11618633
0000a0 7c c1 23 3e 95 74 4a bd ee b2 b1 bf 90 73 38 be
       0.15991777 -0.049427588 -1.388273 -0.18012834
0000b0 6b 91 d5 bf 66 d7 2d be 09 97 5b bd 4c f4 94 3e
       -1.6685003 -0.16976699 -0.053610835 0.29092634
0000c0 d6 c4 33 be a4 37 26 be 28 6a 7a 3b ac a2 88 be
       -0.17555556 -0.16232163 0.0038210247 -0.2668661
0000d0 17 6f 2e be 06 8f 9f bd 4b 47 3f 3f bf 08 2a bd
       -0.17034565 -0.077909514 0.7471816 -0.041512247
0000e0 65 2d 4f be 7e 0d 88 be 45 80 d1 bd 94 3f f6 be
       -0.2023216 -0.26572794 -0.102295436 -0.4809538
0000f0 e3 9b b6 bf c1 3b b4 bd b4 a8 f8 3d 84 59 90 3e
       -1.4266323 -0.0880046 0.121415526 0.28193295

a2c_network.mu.weight f4 [4, 64]
000000 cf 3d fa bc ea c8 a1 3b 24 e7 bb 3c a5 bb 99 bb
       -0.03054705 0.004937281 0.022937365 -0.0046915584
000010 7c 16 c2 3c 11 4a 0b bb 5b 7d bb 3c 52 d1 bc bd
       0.023692362 -0.0021253864 0.022886923 -0.09219612
000020 8d 9c 94 3b c3 cc a4 bc e4 94 20 bd e4 b4 a2 3c
       0.004535264 -0.02011717 -0.039204493 0.019861646
000030 e8 5d b6 bb 15 63 2e 3c 10 5f c9 3c 34 48 db bb
       -0.0055653937 0.01064374 0.024581462 -0.006691957
000040 e7 aa 15 b7 dd 1d 38 bc b1 81 01 3b 18 a5 05 3d
       -8.920883e-06 -0.011237589 0.001976114 0.03262815
000050 0d b6 89 3a 00 d6 c6 bc b2 d6 57 bb 7b 9f 86 ba
       0.0010506526 -0.024271965 -0.0032934365 -0.0010270918
000060 5d dc 62 3c af c6 0a 3d 6f f6 1d bc 3d e8 80 3c
       0.013846484 0.033880886 -0.009641274 0.01573574
000070 83 7b 9e bb 78 1c 2f bc 88 ac 95 bc 4f 64 23 bb
       -0.004836501 -0.01068794 -0.018270746 -0.0024931615
000080 a9 b0 b9 3c d9 0b 1b bc cf 60 ca 3a 5a 8a 2e 3c
       0.022667246 -0.009463274 0.0015440228 0.010653103
000090 97 34 68 bb bc 2d a0 3d 1e 11 cb bb 3f 8d f7 3b
       -0.0035431737 0.07821223 -0.006197109 0.0075546796
0000a0 df b2 fe 3b a0 d4 69 3a d0 f5 e0 3d f5 e1 83 3c
       0.007772788 0.0008919928 0.10984385 0.016098956
0000b0 a3 d7 aa 3c cb 4b ac 3b 2a 5f 8b 3c 98 7d 71 3b
       0.020854777 0.0052580587 0.017013151 0.0036848541
0000c0 80 c7 8a 3b 13 cb f8 3c 5e 99 0b bc ee ae 86 bb
       0.004235208 0.03037027 -0.008520452 -0.0041102087
0000d0 f8 ce 03 bd 71 54 03 bc a4 33 5c 3c 73 5b 1f bc
       -0.032179803 -0.008015738 0.013440046 -0.009726393
0000e0 d7 46 34 3c 8e a8 86 3d f8 58 88 bb bd 04 3c bc
       0.011003218 0.06575118 -0.0041609965 -0.011475739
0000f0 3c d2 57 3c d3 b3 b2 bb 36 6d 09 bd 1d 9e 1b 3d
       0.013172682 -0.0054535656 -0.033551417 0.037992585
000100 b1 7f da bd 86 65 60 bc 86 d4 c0 ba 5d a8 b0 bc
       -0.106688865 -0.01369608 -0.0014711774 -0.021564657
000110 2c 70 b3 bb aa d9 c9 bb 04 cc d6 3c ce 8c db bc
       -0.0054760184 -0.006159981 0.02622033 -0.02680054
000120 be 77 84 3c fc 45 b6 bb 0a 9a f5 bc b9 67 37 bc
       0.016170379 -0.005562542 -0.029980678 -0.011194163
000130 4b 8b 49 bc 24 74 93 b7 b7 a7 2a 3c f7 10 a0 b7
       -0.012301276 -1.7577848e-05 0.010415963 -1.9081386e-05
000140 ab a1 36 3b 02 c8 43 3b 12 87 70 3b 41 21 c2 3b
       0.0027867358 0.0029873853 0.0036701602 0.0059243743
000150 72 cc 79 bc f4 7d b8 bb 7c 3b 53 bc 64 e8 b6 bc
       -0.0152464975 -0.005630249 -0.0128926 -0.02232761
000160 63 dd 00 3c e8 2c 2d 3c 0d 27 2d 39 6d 19 39 3c
       0.007865283 0.0105697885 0.00016513113 0.011297566
000170 52 41 b8 3c c9 c5 8f 3b f3 c4 a3 3c 3c 9a 22 bb
       0.022492085 0.0043875915 0.019991374 -0.002481117
000180 e8 49 ad 3c ff b9 12 bc 60 be 78 bc c0 82 8b bc
       0.021153405 -0.008955478 -0.015182108 -0.01703012
000190 46 eb 1b 3c 09 bd 4c bb ac dc 60 bc 95 db 04 bc
       0.009516543 -0.0031240603 -0.013724487 -0.008108993
0001a0 a7 47 79 3c a1 c9 52 bc d8 19 06 3d 3d 2e 06 3c
       0.015214837 -0.012865455 0.03273949 0.008189735
0001b0 12 8e 99 bc e3 13 5d 3c 7a 90 d3 bb 23 c9 ea 3c
       -0.018744502 0.013493511 -0.006456432 0.028660363
0001c0 64 f2 97 bc bb 6d 3a bc ea 6c 87 3a e1 50 b4 3c
       -0.018548198 -0.011378701 0.0010332142 0.022011222
0001d0 69 1c fb 3c 65 60 6b bb 7a d1 00 bc 91 8a 72 bc
       0.030653195 -0.003591561 -0.007862443 -0.014803545
0001e0 79 11 25 3c b6 d9 05 3d bb 82 0a bd c3 20 a1 bb
       0.010074967 0.03267833 -0.03381608 -0.0049172356
0001f0 78 30 1f 3d 4b ce da bc 3a 2b 33 bb 73 e7 e6 ba
       0.038864583 -0.026709696 -0.0027338997 -0.0017616585
000200 2b 49 07 3c 06 53 4a bc 5a 14 81 3c 9e ab 33 3c
       0.008257191 -0.012348896 0.015756775 0.01096621
000210 5a 4d cc 3b 44 71 09 bc cd 70 1c bc e6 63 15 bd
       0.006234807 -0.008388821 -0.009548378 -0.036472224
000220 a0 fc 37 ba 75 ad b8 bc c3 19 85 3b 04 f4 cb bb
       -0.000701854 -0.022543648 0.004061909 -0.0062241573
000230 ec 0b 90 37 26 21 c8 3b b2 a0 00 3d d2 0c bf bb
       1.717169e-05 0.006107467 0.03140325 -0.0058303857
000240 10 ba 54 bc 90 84 24 bd 49 a4 11 bb c3 ab 20 3d
       -0.012983814 -0.040165484 -0.0022223166 0.039226305
000250 0b ce b4 3b 9e 8c 0e 3a 63 6c 67 bc 3d e1 3a 3d
       0.0055177263 0.0005437824 -0.0141249625 0.04562496
000260 ea ef 94 3c d3 d4 22 bd 1a d1 a6 bb 79 b5 ba 3c
       0.018180806 -0.039753746 -0.005090845 0.022791611
000270 65 11 16 bd 97 e0 60 bc e6 c4 0d bb aa fe f4 3b
       -0.036637682 -0.013725421 -0.0021632253 0.0074766474
000280 e6 29 05 bd 73 8c 95 3b 4a 08 df 3c da a2 1b bc
       -0.03251066 0.004563862 0.027225632 -0.009499276
000290 3b 5c f7 3b bd 04 16 bd d0 24 d0 bc ea 72 8a 3b
       0.0075488365 -0.036625613 -0.025408179 0.0042251246
0002a0 3f 30 7d bb 15 83 06 bb d1 0b b3 ba 80 c2 24 3d
       -0.0038633493 -0.0020524908 -0.0013660138 0.040224552
0002b0 0e 85 50 bd 24 9e 90 3c 7d a5 43 3c 26 9c 95 bd
       -0.05090814 0.017653532 0.011941311 -0.073051736
0002c0 85 82 e3 b9 de e2 52 bc 8f 89 11 3c f9 f2 b7 ba
       -0.0004339406 -0.012871472 0.008882894 -0.0014034203
0002d0 67 27 85 3b 14 00 98 bc 75 23 c2 3b 46 9a eb bc
       0.004063535 -0.018554725 0.005924637 -0.028760087
0002e0 85 d4 9d 39 30 44 44 bd 00 dc 25 3c 11 2f 88 3c
       0.00030103713 -0.04791659 0.010123253 0.016624006
0002f0 3f 2d 38 3c e6 7a a2 3c e1 ba 01 3c 86 0f 0a 3d
       0.011241256 0.019833993 0.007918091 0.03370621
000300 68 e8 d8 bd 0f 86 48 bc 98 cf 0a bd 31 36 44 3c
       -0.10591203 -0.012238993 -0.033889383 0.011975811
000310 4b bb 9e 3c 8d 6f 83 bb 0f 52 43 bc 63 8a 6e 3c
       0.019376418 -0.0040111006 -0.01192142 0.014559361
000320 c9 ee b3 3a 3f 03 f9 3b b1 be 06 bd 61 d8 77 bb
       0.001372778 0.007599264 -0.0328967 -0.003781818
000330 fe a6 e2 3c 38 3b c1 3b 53 26 8e 3c 2d 82 81 bb
       0.027667519 0.005896952 0.017352259 -0.0039522857
000340 c6 57 59 b7 2f 50 b3 3c cb 50 84 3c 16 d1 ab 3c
       -1.2954644e-05 0.02188882 0.016151806 0.020973723
000350 05 37 38 3c 9a 88 f2 3c 69 54 ce bb f2 e0 59 3d
       0.011243586 0.029606152 -0.0062966836 0.05319304
000360 2b c3 3d 3c bd e8 f5 bc 4f 76 19 bc ec 61 e5 3b
       0.011582176 -0.030018205 -0.009366586 0.0070001986
000370 2f 12 22 bc 39 2f 5f 3c dc c6 32 3c 15 bd 3a 3c
       -0.009892031 0.013622099 0.01091167 0.01139762
000380 50 82 48 bd df fb 0a 3c 12 08 1f 3d 3b c9 6a bc
       -0.0489524 0.008482902 0.038826056 -0.014330204
000390 8f 40 94 3c 8f 78 da 3c 08 6f 78 bc 58 3a 34 3c
       0.01809719 0.026668815 -0.015163191 0.011000238
0003a0 18 1b dc 3b 42 b4 ca 3b f1 d9 6d 3d b7 8b 03 3d
       0.006717097 0.006186039 0.058069173 0.032115664
0003b0 98 5f b1 bd 35 8b c8 3b 63 af ba 3b f8 3d 45 bd
       -0.08660811 0.0061201104 0.0056971773 -0.0481548
0003c0 97 91 25 3c 47 83 31 3b 38 ff b2 39 5c 87 09 bb
       0.010105512 0.0027086304 0.00034140958 -0.0020985221
0003d0 92 74 a2 3c 2d 32 ba bb fd 62 89 bb 55 ad 8c ba
       0.019830976 -0.005682251 -0.0041927085 -0.0010732809
0003e0 c8 0e 67 3c 45 d5 7e bd 4b 3f 8f 3a c7 cb 2b 3b
       0.014102645 -0.06221511 0.0010928897 0.002621399
0003f0 f4 3d 8c 3d 9a 81 3e 3c 9d 53 88 3a 30 0e d0 3b
       0.06847754 0.011627579 0.0010400895 0.0063493475

a2c_network.mu.bias f4 [4]
000000 3b 36 83 bc 61 3c 0d 3d 99 46 3b 3d 33 f4 df 3c
       -0.01601707 0.03448141 0.045721624 0.027338123

exp_avg f4 [4]
000000 29 48 ea 38 40 5e d8 b8 43 d4 71 b8 01 ab 7c b9
       0.000111714304 -0.00010317238 -5.765656e-05 -0.00024096297

exp_avg_sq f4 [4]
000000 2f 45 20 36 97 b0 08 36 9b cf 1c 36 ef 3a 19 36
       2.3882128e-06 2.0368368e-06 2.3366654e-06 2.283308e-06
