source/isaaclab_tasks/isaaclab_tasks/manager_based/klask/actuator_model/model_odrive_history_10_interval_0.02_delay_0.0_horizon3.pt (torch, 43148 bytes, 8 tensors)

fc1.weight f4 [64, 20]
00000000: ff93 20be e4e4 15be 3675 633d cb49 d6bd
00000010: 9862 2abd 9b64 a73a 85c0 7abc 7bb2 b53d
00000020: 53b3 223d 73da 84bc 13a6 0fbd 2a7f 09bd
00000030: b202 86be ca8a 41be e69d aabd f344 1bbe
00000040: e001 6f3d e3ba 86bd 0714 463d a092 ae3d
00000050: 28c2 803e fba1 29bd 4454 4a3e 1fcc 7bbd
00000060: cd22 0ebe b103 42be 9fdd 5a3e d33c 103e
00000070: 891f 203c 887b a13e 6dce 023e b1ed e53d
00000080: 88df 9fba 3aaa ab3e 2dfa 3e3d ee74 633e
00000090: 8ba1 3ebe 72aa 713e fd1c 433d 1082 813d
000000a0: 6d14 2f3d 10f6 783e 42fa 273d 3c97 52be
000000b0: 13ad d53d 9014 e0bd cd03 e63c 8519 acbd
000000c0: 0608 45be 4ed5 cf3d ece5 313e 8048 a0bd
000000d0: a6ba 693d a3c3 003e 4796 1ebc 81d0 20be
000000e0: 9339 acbd 3fc3 69bc 9cfb 59be 8d59 613e
000000f0: 0522 85bd bdc3 f63c 54d2 8abd 984f 913d
00000100: 0b58 51be e204 35be 473f dfbd 0118 243d
00000110: 1ecd 25be 2b81 d33d 4045 fb3c 5157 efbd
00000120: 37a5 27be 6040 dd3c 94c6 99bc f0f9 1b3c
00000130: 5750 893e e150 9bbd 43b6 b43e 3c28 b1bd
00000140: 8a37 4d3d b6ba c13e 7454 ccbd 0979 183d
00000150: 23ac 263d 7c9d 823e 542b 163e f3a8 173e
00000160: 64be e33a 893c 263d 148e 1f3e d6ed 85bd
00000170: fc7b 0dbe 40ff 84be 5397 553e 1c0f 9fbe
00000180: ede3 4f3e 5f6f 00be 7a97 e73e 0e10 80bd
00000190: 26e1 093e 4fcc e93d a56e cebd ed08 13be
000001a0: 300d 90bd 86cf 09be 876d dabd b461 90bd
000001b0: a3f9 133e db26 4e3e f3ce 9e3c 9e98 ec3d
000001c0: 8c6a d83d a235 20be e384 e83c 85a0 45be
000001d0: c4c5 f73d 55fe f03d 0f2b 38be f457 96bd
000001e0: c51f 413e efba aa3d 2ed9 14be 5012 4bbd
000001f0: 3756 2fbd eece 3fbd 5a69 9e3c a7d4 d53c
00000200: 5825 003e 02f3 023e 6a17 40bd 33fc 14be
00000210: b0d0 21bd 01e4 ae3d cae3 8a3d 78f4 cd3d
00000220: 5a93 13be 8d4f 66be af8c d3bd 5e69 b5bc
00000230: 079e b9bd 35a8 173e 02ca 46be 9daa 123e
00000240: 2d86 36be 082a 2fbe b0ad 84bd be4e 75be
00000250: 5b0d 92bd 8680 86be 7619 54be 1b2e c9bd
00000260: be5a 233e eae3 babd 093b 5cbe 608a 45bc
00000270: 574c 24be 1e1e 213d d3bf d33d f702 33be
00000280: 9c25 0a3e 8283 293e 8fa4 10be 1df2 16be
00000290: 6028 cbbd 4127 d9bd 6d54 30be bdba ad3c
000002a0: 7342 4abd 8626 cd3d 7948 6bbd d494 a13d
000002b0: 43c3 b1bd b14e 54be 3597 48bb 3ec9 41be
000002c0: 14c1 e43d 3cff 0b3e 8617 853e a8b5 6a3e
000002d0: 4727 203c 5233 48bc 72ba 8a3d 498b abbc
000002e0: 7e89 4bbe 6973 1abe f3cf 223e 492e 263d
000002f0: d9d5 1a3e 1613 eebd 47f1 15bc e15d 4abe
00000300: 75c7 18be 122d b5bd 7af1 3d3e 5fc8 403e
00000310: e6f3 3dbe a50e 0d3e 07da 553e bcc9 1c3e
00000320: 4552 cc3d d58b c33d 227c 123d 5bcb 633d
00000330: 2f39 82bd 0ba0 81bc 330f 393e 763b 493c
00000340: 29b7 43be 78e2 c8bd cae7 063c ec4b 7f3d
00000350: d661 7bbd be31 243d bf44 83bd 94e9 eb3d
00000360: 11d1 133e 0e19 e63a cd9d e13d 49a9 c03d
00000370: 67c7 babd 701f 70bc 71be 98be 392b 1ebe
00000380: 555f 84be 1c55 4ebe b983 783c 1c95 713c
00000390: 9475 87be 2309 89bc 2ac3 db3d f776 db3d
000003a0: da47 833d 0ae9 123d c771 cdbd be38 6e3e
000003b0: 2178 2a3e 13ac b23e 137e 24be 2cd8 913e
000003c0: dbda 87be b7a8 283e 4401 c5bd 49c4 2b3e
000003d0: 72d1 093e 75ea 6c3e 27cf 14be d36d 653c
000003e0: 53e3 6b3d 3233 453e 049d 2a3d b0ce 883e
000003f0: 73f3 cebd db15 b93e 68cd 00bd 4b0e 103e
-0.15681456 -0.14638096 0.055531703 -0.10463294 -0.041597933 0.0012771072 -0.015304689 0.08871933
0.0397218 -0.016217446 -0.03507049 -0.03356854 -0.2617393 -0.189006 -0.08330898 -0.15163021
0.058351398 -0.065786146 0.048358943 0.0852406 0.2514813 -0.041414242 0.19758707 -0.061473962
-0.13880463 -0.1894672 0.21373604 0.14085703 0.009773144 0.3153956 0.12774058 0.11226977
-0.0012197355 0.3352831 0.046625305 0.22212574 -0.18616311 0.23600176 0.047635067 0.063236356
0.04274409 0.24312615 0.04101015 -0.20565504 0.10433402 -0.10941422 0.028077984 -0.08403305
-0.19241342 0.101481065 0.17372864 -0.07826328 0.057062767 0.1257463 -0.009679384 -0.15704538
-0.08409419 -0.014267742 -0.21287388 0.22006817 -0.06500629 0.030122632 -0.06778398 0.070952594
-0.20443742 -0.17677644 -0.10900741 0.040061954 -0.16191527 0.10327371 0.03067267 -0.11686576
-0.16371618 0.027008235 -0.018771447 0.009520039 0.26819107 -0.07583786 0.35295305 -0.08650252
0.050101794 0.37837762 -0.09977046 0.037224803 0.040691506 0.25510776 0.14664966 0.14810543
0.0017375466 0.040585075 0.15581542 -0.06539504 -0.13816828 -0.2597599 0.20858507 -0.31066215
0.2030179 -0.12542485 0.45232755 -0.06253062 0.13464794 0.11415922 -0.100796975 -0.14358874
-0.07033765 -0.1345807 -0.10665422 -0.070498854 0.14450698 0.2013201 0.01938579 0.11552547
0.10567197 -0.1564546 0.028383678 -0.19299515 0.12098268 0.1176726 -0.17985176 -0.073409945
0.18859775 0.08336436 -0.14535972 -0.04957801 -0.04280683 -0.046828203 0.019337345 0.026102377
0.12514246 0.12788013 -0.04689733 -0.14549331 -0.03950566 0.08539582 0.067817286 0.10056394
-0.14411679 -0.22491284 -0.10329568 -0.02214497 -0.090633444 0.1481026 -0.19412997 0.14322896
-0.17824621 -0.17105877 -0.06478441 -0.23955819 -0.071314536 -0.2626993 -0.20712838 -0.09823247
0.15952584 -0.091255024 -0.21506895 -0.012056917 -0.16044746 0.039335363 0.10339322 -0.174816
0.1349091 0.16554072 -0.14125274 -0.14740796 -0.0991981 -0.1060319 -0.17219706 0.021207208
-0.049379777 0.100171134 -0.057442162 0.07889715 -0.08679821 -0.20733143 -0.0030607705 -0.18924424
0.11169639 0.13671583 0.2599451 0.22920859 0.009774989 -0.012219267 0.06773843 -0.02094044
-0.19876668 -0.15083088 0.15899639 0.040571485 0.15120639 -0.11624734 -0.009151763 -0.19762374
-0.14919837 -0.08846487 0.18549147 0.18826436 -0.18550071 0.13775118 0.20883952 0.1531133
0.09976629 0.09548155 0.035762914 0.055613857 -0.06358563 -0.015823385 0.18072204 0.012282243
-0.19112839 -0.098088205 0.008233974 0.062328264 -0.0613726 0.0400865 -0.06409597 0.11519161
0.14435221 0.0017555074 0.11016426 0.094072886 -0.09120064 -0.014655933 -0.29832795 -0.15446176
-0.25853983 -0.20149654 0.015168124 0.014745023 -0.26456892 -0.01672799 0.10730584 0.1071605
0.06410189 0.035866775 -0.10031467 0.23263833 0.16647388 0.34896907 -0.16063718 0.2848524
-0.2653416 0.1647061 -0.09619382 0.16774096 0.13458803 0.23136313 -0.14532147 0.014003235
0.05758984 0.1925781 0.041653648 0.2672019 -0.10105028 0.36149487 -0.03144589 0.14067952

fc1.bias f4 [64]
00000000: 8b3d f33d c27e 88be d5b5 ffbc a0e8 2dbc
00000010: 5b57 483c 3ebe 973d ef4a 663c f54a 3e3d
00000020: b935 7a3e 64e5 583c 9bac efbc 570a 8dbd
00000030: 46cf 3a3e 6147 ef39 fcbc cabb a658 4e3e
00000040: 12c8 e4bc fe3e 5cbe 1ad8 463e 0e55 963e
00000050: 76d7 543d b981 8dbc 0cb1 b0bd 0730 fe3a
00000060: 87ec 653e 2bbd e8bd 7c0b cebd 3e97 eaba
00000070: e629 27be a37d 213e 7ec7 973e 5d42 5c3e
00000080: fd66 21be 8113 0b3e 567b 36bd 2ce2 193e
00000090: 5b11 50bc b582 65be 8875 e13c eaf6 d03d
000000a0: a2e0 f3bd 9d8f 9e3c 90c2 5abd 859b 993d
000000b0: 39d9 2c3e 2f77 9b3e a097 83be a6c5 e93e
000000c0: fbed 123c d4c8 4b3c 2ceb 47be 017b 573e
000000d0: 3adb ae3e e85c 123a d76d 2fbe b819 4cbe
000000e0: 7553 fa3d 74e6 883e c498 c03e e246 c1be
000000f0: c00a 8a3e 2991 033d 9873 613e 7fa1 993d
0.11876973 -0.2665921 -0.031214634 -0.010614544 0.012227858 0.07409333 0.0140559515 0.046458203
0.24434556 0.013238285 -0.02925711 -0.06886738 0.18243131 0.00045638814 -0.0061870795 0.20151004
-0.027927432 -0.21508405 0.19418374 0.29361767 0.051963292 -0.01727377 -0.08627519 0.0019392975
0.2245351 -0.11364206 -0.10060784 -0.0017897857 -0.16324577 0.15770583 0.29644388 0.2150969
-0.15761943 0.13581659 -0.044551216 0.15027684 -0.01269945 -0.22413142 0.027521864 0.10203345
-0.1190808 0.01935559 -0.053408206 0.07500366 0.16879739 0.30364367 -0.25701618 0.45658606
0.008967872 0.012438018 -0.19523305 0.21043016 0.34151632 0.0005583302 -0.17131744 -0.19931686
0.122229494 0.26738322 0.3761655 -0.37749392 0.26961327 0.032120857 0.22016752 0.07501506

fc2.weight f4 [64, 64]
00000000: 4989 3fbc b7ab e23c 9e9d bc3d f21a 203a
00000010: 06b5 713a eead cbbd 2d39 b43d 58f6 a63d
00000020: 5ebc 62bd 032d 07be fbc8 03be a0b9 13be
00000030: 1cbf bfbc 3e4b 84bd 08cb 383d 9f66 95bc
00000040: 3f19 d53d 35c9 ec3c 7967 743d f38b 193d
00000050: a05e e4bd 38c7 5cbd b23c 2abd 1fdb 0ebe
00000060: 2e8b cb3d abc4 19be c683 e73d 0420 57bc
00000070: 6a1e f53d ed45 68bc 7f30 cebd ee7f 9c3d
00000080: dae8 a83d 0d32 123d 422f c6bd cdf7 233e
00000090: ef44 30be eea0 ebbc d968 113d 5847 92bd
000000a0: d693 f53d 61bc b4bc afa1 19bd b866 e63d
000000b0: e16f 0b3d 95ea 8e3d 51d9 8dbd 09ab 133e
000000c0: 4757 efbc 33a2 0b3e fa93 123c 7de1 d0bd
000000d0: fc18 003e 5fe3 4e3c af4a 013c 6112 e9bd
000000e0: e8d7 38bd 61ca 963c ac09 6b3d deba f03d
000000f0: db7a c73d badf 933d c777 e6bd 6c6d afbd
00000100: cc0a b43c e6ce 0fbc 67a9 16bc 1e09 8bbc
00000110: ded3 01be 9882 e53d dd63 0cbe cb35 0f3c
00000120: 5a2f 983b fc5a 0f3b bb79 2f3b f53a b33a
00000130: 7304 163e 0e65 40bd f80a b33d 98c2 fb3d
00000140: cbf8 b2bd c2c9 753d efe6 2abd 5062 eeb9
00000150: 3d0a 4eb9 0f00 9cbd 0f53 203d 1ed9 9bbd
00000160: 844a f93c a0b1 163c c3a8 853d 5066 edbd
00000170: ddf5 2ebd 4b9c 1d3b 627e fe3c f133 febd
00000180: dd4b d53d 7e70 f1bd 6e7c 89bd 2e1b 803d
00000190: 73ec f8bd fcbd 5e3d f1b0 dc3d 763d b1bd
000001a0: 181f c73d 5b4c b13d 7449 b1bc ff6d 2a3e
000001b0: a84b 9e3d d010 91bd 678e 0dbe e187 aabd
000001c0: d474 043e d86b 0f3e 8109 bebc da0d 8bbd
000001d0: 67a7 ffbd 821e c0bc 0eb5 9f3d 33b9 be3c
000001e0: 16bd 3abd 6750 5e3d 3de9 003e 8668 453b
000001f0: 8e16 273e 55e2 43bd 9ea3 a93d 600e ed3d
00000200: f7d8 df3d f229 21bd 9dcc 63be a742 9f3d
00000210: a020 ac3b 3adf e7bc 8169 f5bd 3843 1abc
00000220: fea0 9cbb e24d 753c 2cf4 bf3c c241 55bd
00000230: 5cc5 ecbd fa22 29bd e890 a3bd 4641 793d
00000240: 3f27 afbd 0203 b83d ea26 643c 53ca a5bd
00000250: 0483 d73c aa82 afbd eb82 173c 5de4 8f3c
00000260: ffde 32bd 18b9 6bbc 9365 0dbd 080e babd
00000270: be9a 91bd 249e 29bc 8896 bcbc bdda 34bd
00000280: e740 0f3d 72ac a5bb 541f 21bc f0a8 ef3a
00000290: 624d 963d c91e 40bd cc05 c6bd e954 463d
000002a0: 35b2 9b3d 454d 1cbd f6eb dfbd 4521 cc3d
000002b0: 4dd5 c33c b46e 433e 182b 15be 5a16 773e
000002c0: 91e2 283d 8c6f b03c c752 0dbd ba83 79bd
000002d0: 42fa 853d 657a 2a3b e30c e13c e1f0 1cbd
000002e0: 6eda 77bd 43d1 10be 008c 8d3d 989e 39be
000002f0: e0db 903d a3dc 323e 4b5c e13d f9d7 143e
00000300: bd62 8bbd d92c de3d 68fb 803d 73cf b83d
00000310: 58cc e23d 099c 9bbd f6b1 cbbc 8737 febb
00000320: 477c 4dbd 8e63 4bbd 36e6 a23c 4195 2ebd
00000330: ca1e adbd 0caf ce3c 8aeb 0d3d cda7 adbd
00000340: 049c 5dba 80c5 183e abe4 efbd 2aa5 2fbe
00000350: e652 3fbe 71bf 0cbd 68ed eb3d b7f0 083e
00000360: b0d5 b5bd cec1 61bc 5d61 6e3d 4766 273d
00000370: d778 f83c 6a72 e13d 2df2 1ebc 9d21 efbc
00000380: 08ad f53d 6d85 24bd fd6e a5bd 0544 7b3c
00000390: 725a f13b 7598 a4bd 4cdb 77bd 5352 29bd
000003a0: 6caf 083e 680d 2b3d cb12 803c 56ec 33bd
000003b0: cb9c 213e b545 ddbc 874d 93bd a4e2 9a3d
000003c0: 6c14 13bd af95 583d 0c62 d13d b50b 8abc
000003d0: 1ddb c1bd 5045 ad3d 255a dfbd 4110 89bd
000003e0: 6e99 6b3d fbcf 3ebd 539e 9a3d f969 98bd
000003f0: 5f46 d53c ac5d 56bd 17b5 22bd 91c2 98bb
-0.011690446 0.02766977 0.092097506 0.0006107531 0.0009220395 -0.09945284 0.08799968 0.08152455
-0.055355422 -0.13200764 -0.12869637 -0.14426279 -0.023406558 -0.06459664 0.0451155 -0.01823741
0.10405206 0.028904537 0.05966899 0.03748698 -0.11150861 -0.053900927 -0.04156179 -0.13950776
0.09938656 -0.15016429 0.11304431 -0.013130192 0.11968692 -0.014176828 -0.10067844 0.07641588
0.08247538 0.035692263 -0.096769825 0.16012497 -0.17213796 -0.02876326 0.03550038 -0.07142514
0.11991088 -0.022062482 -0.03750771 0.11250061 0.034042243 0.06978337 -0.069262154 0.14420713
-0.029216422 0.13636093 0.008946413 -0.101992585 0.12509531 0.012627452 0.007891341 -0.113804586
-0.04512778 0.018407049 0.05738227 0.11754392 0.0974023 0.07220407 -0.112533145 -0.085657924
0.021977805 -0.008777356 -0.009195662 -0.01697212 -0.12678477 0.112065494 -0.1370997 0.008740853
0.0046443166 0.00218743 0.0026775438 0.0013674187 0.14650135 -0.046971373 0.087423265 0.12292975
-0.0873886 0.060006864 -0.04172414 -0.00045468146 -0.00019649505 -0.07617199 0.03914171 -0.07609771
0.03043104 0.009197623 0.06526329 -0.1159178 -0.042714942 0.0024049457 0.031066123 -0.12412251
0.104148604 -0.11789034 -0.06713186 0.06255184 -0.12154474 0.054380402 0.107759364 -0.08654301
0.097227275 0.08657142 -0.02164147 0.16643523 0.07729274 -0.07083285 -0.13823853 -0.08326698
0.12935191 0.14005983 -0.023197891 -0.06789751 -0.12483101 -0.023452047 0.07798205 0.02328167
-0.045590483 0.054275896 0.12588973 0.0030122115 0.16317198 -0.04782327 0.082831606 0.115750074
0.10930055 -0.039346643 -0.22246023 0.07776385 0.0052529126 -0.028304685 -0.11983014 -0.00941544
-0.004779934 0.014972182 0.02343186 -0.052064665 -0.11561081 -0.041293122 -0.07986623 0.060853265
-0.085524075 0.08984949 0.013925293 -0.08095231 0.02630759 -0.08569844 0.009247522 0.017564947
-0.043669697 -0.0143873915 -0.034520697 -0.090847075 -0.07109593 -0.010352645 -0.023020998 -0.044153918
0.034974005 -0.0050559575 -0.009834129 0.00182846 0.07338978 -0.04690436 -0.096690744 0.04842082
0.0760235 -0.038159627 -0.10933678 0.09967283 0.02390542 0.19085199 -0.1456722 0.2412962
0.041231696 0.021537565 -0.03450277 -0.06091664 0.065418735 0.0026012894 0.027471965 -0.038315658
-0.060511045 -0.14142327 0.069114685 -0.18126905 0.07073188 0.17466979 0.110039316 0.14535512
-0.06805942 0.10848398 0.06297952 0.09023943 0.11074132 -0.07598121 -0.024865132 -0.007758084
-0.05016735 -0.04965549 0.019885164 -0.04262281 -0.08453138 0.025229953 0.034648456 -0.08479271
-0.0008453729 0.1491909 -0.11713537 -0.17152849 -0.18683967 -0.03436226 0.11519891 0.13373075
-0.08878648 -0.013779117 0.05819832 0.040869024 0.030331058 0.11008151 -0.009701294 -0.029190833
0.11995894 -0.040166307 -0.0807781 0.015336041 0.0073655182 -0.08036891 -0.060511872 -0.041338276
0.13348168 0.041760832 0.015633961 -0.04392656 0.15782468 -0.027010778 -0.071925215 0.075627595
-0.035908148 0.052877124 0.10223779 -0.016851285 -0.09465621 0.08460486 -0.109058656 -0.06692553
0.05751937 -0.046585064 0.07549729 -0.07442088 0.026034532 -0.052335426 -0.039723482 -0.004661866

fc2.bias f4 [64]
00000000: 2cc5 fabd 1390 003d e924 d13c 0d70 e9bd
00000010: a741 ad3d 6e71 8dbd 8c94 d2bb b1cf 733d
00000020: 7c5b 023d b302 f2bd 37c8 a9ba c992 3bbd
00000030: 68e6 87bd 6af3 dcbd 5e47 063d 82a4 8f3d
00000040: 913e fcbd e04c 54bd dd96 543d 210a 9a3c
00000050: 1c3e 88bd e4fc e53c a4db 33bd 3403 32bd
00000060: 5ae5 043d 7f3e 503d b3b4 d0bd 6425 4fbd
00000070: 4d04 433c cc27 89bd a0f4 6d3d a6de 18be
00000080: 1a97 a93c 7a42 5e3d e6fa 4fbd d949 10bd
00000090: 9fad 22bd eaf7 11be 50ac bebd b817 e4bc
000000a0: 9675 c0bd 44e9 2e3c 533b aabc 11be d63c
000000b0: eaf0 01be c15a e8bd 5959 b13d ff17 f4bc
000000c0: fc1d afbd 70c9 013e 5133 543c e84a 473d
000000d0: 093b c53d 38ea e6bd 89b1 4c3c 8678 9dbd
000000e0: 6797 dcbd 318a 7dbc b9fa 763d 6bf6 0fbc
000000f0: a90c d8bd 5cd4 ed3b 9942 0dbd 5039 39be
-0.12244639 0.0313874 0.025530295 -0.11398325 0.08459788 -0.069064006 -0.0064263996 0.05952424
0.031825528 -0.11816921 -0.0012953345 -0.045794282 -0.066357434 -0.10788615 0.032782905 0.07013799
-0.12316621 -0.051831126 0.051901687 0.018803658 -0.066524714 0.02807469 -0.043910637 -0.043460086
0.03244529 0.05084085 -0.10190716 -0.050572768 0.011902881 -0.06697044 0.05809462 -0.14928684
0.020701934 0.054262616 -0.050776385 -0.035226677 -0.03971636 -0.14254728 -0.0931021 -0.027843341
-0.09397428 0.010675732 -0.020780241 0.026213678 -0.12689558 -0.11345435 0.0865962 -0.029796598
-0.08550641 0.12674499 0.012951688 0.04865542 0.09630401 -0.112751424 0.0124935 -0.07689004
-0.10771065 -0.015474842 0.0602977 -0.008786778 -0.1054929 0.007257981 -0.03448734 -0.18088269

fc3.weight f4 [64, 64]
00000000: fcd7 b53c 22b7 b63d 24b5 9cbd ac5c 81bd
00000010: ea1b adbd fce8 f9bc 151e c83c 652a 303c
00000020: f776 bc3d 435d fa3c 6bac 06be b40e 743d
00000030: 6f7f 93bd b61e 89bb 9250 123e 0d5d 61bd
00000040: 57a1 323e 7184 a1bd bdff 32bb ac5d dc3c
00000050: fc6c 663a 9d56 64bd 1946 9dbc 548b ffbd
00000060: b1ea ca3d 399a 15be 539a 953b cce4 b43d
00000070: bc64 3d3d 3d81 8d3d 9d68 ddbd b71e ed3d
00000080: ca8f ddbd 45bf d4bc 66d5 233d c6c1 0d3d
00000090: 4d99 43be 7142 933d 1174 d53d 0a26 983b
000000a0: 82b4 03bd 9e62 4c3d 4d9a 17bd 2f28 9f3c
000000b0: 5420 d4bd 9619 923d b941 153d 4756 b0bd
000000c0: 8003 bebd 6876 a7bd 5f3a 873c 7912 89bd
000000d0: 4390 61bd 39c7 273c 08d1 a23c 7100 083d
000000e0: d2b4 82bc 5b1c da3c 8638 fcbd 6354 d63d
000000f0: 1e03 a23d f271 823d 86e5 e63c 43cd 213c
00000100: 2147 c23b 06b6 a53c d1a0 8fbd 11fc f2bd
00000110: 10d5 94bd c140 b5bd bc5e 8e3d 4512 393e
00000120: bd09 223e 6fc4 b1bd 4e50 bdbd fed4 a43d
00000130: 6da4 37bd 8cfb fe3b f9c0 b0bd a7bf 4e3c
00000140: 8ed3 a2bd dc7e 7bbc 4c6b 5ebd db81 0e3e
00000150: 5d68 e1bd 6d3a c83d a9a2 d13d fd20 77be
00000160: 9037 4fbd 22c5 153d 1230 8c3c a6a8 dabd
00000170: 0c16 d63d 6c22 fabc e43e 5cbb e774 9e3d
00000180: 54af 873d 9330 84bd b674 9ebd 2f30 8fbd
00000190: b160 a0bc 6658 af3d 8c62 523d d7f8 e7bc
000001a0: 19f2 92bd 484b 5bbe 2f22 35bc 8d98 08be
000001b0: 0f61 5abd b5f1 9fbc 7668 81bd 666e 103c
000001c0: bdfd 0c3d 4a46 1a3e 421e 9f3d 69aa a43d
000001d0: dec6 0d3e fa62 d73d f5d2 50bc ca54 0b3d
000001e0: 4e36 51bd e7d0 ccbd e0fb 58bd 82f9 26bd
000001f0: 526d a2bb 5979 0f3d 3bd1 febc 82ae d03a
00000200: cd58 723d dbce 973b 2246 71bd 60da c03b
00000210: 1f9f 36bd 66f6 06bd 5114 dfbd ecfc f8bc
00000220: 0892 1dbd bfcd 403d 3015 1c3b 2470 b8bd
00000230: b4e4 c0bd f917 633c bd2d 9bbd 369a 42bc
00000240: 97bb f33c 5849 0c3e 02ff 3b3d 2981 333d
00000250: 2459 61bc c25c e03d 6c7c 963d 851b 813d
00000260: 614d 21bd e86f acbd 501f e0bc 727f fa3d
00000270: 3a16 aa3d 680f 16bd aadc c8bd d11c 6d3d
00000280: 96ab a3bd e129 b5bd 2956 95bd 232a d9bd
00000290: 5356 e1bd c49e bf3d 145f fdbd 6725 c93c
000002a0: 453c 433d 7a46 54bd 8ca6 0c3c 37e4 923d
000002b0: 41cc 2c3d 40b0 3f3d 2fb3 023e 9c75 f53d
000002c0: 3721 563d cd65 943d 59bf eebd b9d2 e9bc
000002d0: db50 50bb 5ae8 c8bd 7470 b4bd 75a2 963d
000002e0: 6d5b 19be 4702 3fbd 35b5 24bc f3d3 c53d
000002f0: 8d83 e1bc db44 e8bd d37a 2dba 9621 cabd
00000300: 6005 ad3d 290d b3bd c7b3 ee3d 1f38 abbd
00000310: 28ba cdbd 5fd7 433c f3f4 3d3d 653a 23bd
00000320: 311b 663c 900e bf3d 95dd d43d 2d67 a7bd
00000330: df0c 5abd dab2 8dbd 3499 2e3c f280 423a
00000340: b90b 9dbd 20af 05be e2c5 aebc 5776 1cbe
00000350: 6280 573d 698c 023d 84e9 1fbe c327 1c3e
00000360: 9780 283d a5f5 99bd f19d 8a3d b474 82bc
00000370: 3f12 ac3d be58 7e3d 237f d9bd c212 8f3b
00000380: 9ae7 4abb 639f debd 06ee c83d e91a eebc
00000390: e79c ebbd 7fb8 5c3d a620 4e3d d29b 133c
000003a0: 1904 75bd 658a 653d 1013 a33d c311 e03a
000003b0: d4b6 213e a012 a4bd 7fec efbb 5018 ba3d
000003c0: 57af e5bc 8082 27be 5263 d6bc 7043 8b3d
000003d0: 7d49 11be 7799 d93d 0be4 673d f36e b1bd
000003e0: 397e b2bd 5eb3 8fbd 02c9 7b3c e0d8 3cbd
000003f0: 3913 813d da8f b9bb b938 cabd 5234 103d
0.022197716 0.089216486 -0.07651737 -0.06316504 -0.0845259 -0.030506603 0.024428407 0.010752295
0.09202378 0.030562049 -0.1315171 0.059584334 -0.072020404 -0.004184569 0.14288548 -0.05502038
0.17444359 -0.07886589 -0.0027313076 0.026900135 0.00087900436 -0.055746663 -0.019198464 -0.124777466
0.09908045 -0.14609613 0.004565516 0.08832702 0.046238646 0.06909416 -0.10810969 0.11578124
-0.10818441 -0.02597011 0.039998434 0.034608625 -0.19101448 0.07190407 0.104225285 0.0046432065
-0.032154568 0.049898736 -0.037012387 0.01942834 -0.103577286 0.071337864 0.03643963 -0.08610206
-0.09278011 -0.08176881 0.016507326 -0.066929765 -0.05506922 0.0102403695 0.019875064 0.033203546
-0.015955362 0.026624849 -0.123154685 0.10465314 0.07910751 0.063693896 0.028185617 0.009875598
0.0059288894 0.020228397 -0.07013095 -0.11864484 -0.07267201 -0.088502415 0.06951663 0.18073376
0.15824027 -0.08680045 -0.092438325 0.080484375 -0.044834543 0.0077814516 -0.086305566 0.012618936
-0.07950507 -0.01535007 -0.054301545 0.13916723 -0.11006234 0.09776769 0.10236103 -0.24133678
-0.050590098 0.036564954 0.017112765 -0.106766984 0.10453424 -0.030533992 -0.0033606822 0.07737141
0.06625238 -0.06454577 -0.077371046 -0.06991612 -0.019577356 0.085617825 0.051363513 -0.028316898
-0.07175083 -0.21415436 -0.011055513 -0.13339444 -0.05331522 -0.019524435 -0.063187525 0.008815384
0.03442167 0.15065876 0.07769443 0.08040316 0.13845393 0.10516925 -0.012745609 0.034016408
-0.05107718 -0.100007825 -0.05297458 -0.040765293 -0.0049568797 0.035027836 -0.031105628 0.0015921148
0.05916672 0.0046328134 -0.058904774 0.0058854073 -0.044585343 -0.032949828 -0.10892547 -0.03039404
-0.038469344 0.047071215 0.002381634 -0.09005764 -0.09418622 0.013860696 -0.07577083 -0.011877587
0.029752536 0.13699853 0.04589749 0.04382435 -0.013754163 0.10955192 0.0734795 0.06304077
-0.039380435 -0.08419782 -0.027358681 0.122313395 0.08305021 -0.036635786 -0.09807713 0.05788881
-0.07991712 -0.088458784 -0.07291824 -0.1060374 -0.11002793 0.09356454 -0.1237165 0.024553968
0.0476649 -0.051825024 0.00858463 0.07172435 0.04218698 0.046798944 0.12763666 0.11985323
0.05227777 0.072459795 -0.116575904 -0.028542863 -0.0031786475 -0.098099425 -0.08810511 0.07355205
-0.14976282 -0.04663303 -0.010052969 0.09659567 -0.027528549 -0.11341258 -0.00066177285 -0.09869687
0.08448291 -0.087427445 0.116553836 -0.083603136 -0.10045272 0.011953204 0.04637618 -0.03985061
0.014044569 0.093289495 0.10393826 -0.08173976 -0.05323493 -0.06918879 0.010656644 0.0007419727
-0.076682515 -0.13055086 -0.021334592 -0.15279518 0.05261267 0.031872187 -0.15616423 0.15249543
0.041138258 -0.07517556 0.06768406 -0.015924789 0.08401918 0.06209635 -0.106199525 0.00436625
-0.00309608 -0.10870244 0.09811024 -0.029065566 -0.11504536 0.053886887 0.050324105 0.009009318
-0.05981836 0.056040186 0.0796262 0.0017095137 0.157924 -0.08011365 -0.0073218937 0.090866685
-0.02803771 -0.16358376 -0.026170406 0.06799972 -0.1418819 0.10624974 0.056613963 -0.0866374
-0.08715481 -0.070166335 0.015367748 -0.046105266 0.063024946 -0.0056629004 -0.098741 0.035206147

fc3.bias f4 [64]
00000000: 5efd 0e3e 7044 e9bd 7569 023e cf7c 943d
00000010: 1b40 763d 377d 063d 05a1 b1bd c010 743d
00000020: d67b 2c3e 918d eebd 550b 7abc abbe 0ebc
00000030: bf95 03be 6a66 4a3b a1d1 033e 8894 7c3c
00000040: a8a7 d63d 8d7a 8c3a cd1b b53d 1ccb 353d
00000050: c110 1a3d 837a e2bd 4058 13bd a944 52bd
00000060: 72f0 e23d 6fdf 26bd 4794 fabd e465 e03c
00000070: bdfa 723d 73d2 363d 3738 1e3d 0dd9 b73d
00000080: d34b 083e 9cf0 c53d 3cae d7bd 6a0b 17be
00000090: 768c 3ebd 3e8d 82bd 16f8 aabb 6a37 f03d
000000a0: c631 f6bd 5b06 fdbc db3d 8cbd 26ee e6bd
000000b0: 6746 53bd 325c b4bd a75e a2bc 7521 bd3c
000000c0: 7583 093d 4443 f7bd fa59 d73d 1a96 70bd
000000d0: ae4e bfbd df7f 4abd d8f6 c53d 188e 493d
000000e0: 9575 f2bd 76e8 123d f735 d8bd eb64 d13d
000000f0: 657a bebd 0262 ca3d b491 4d3c e812 aabd
0.1396384 -0.113900065 0.12735541 0.07250368 0.06011973 0.032834258 -0.0867329 0.059586287
0.16844115 -0.116480954 -0.015261491 -0.008712451 -0.12850092 0.0030883797 0.12872936 0.015416272
0.10481197 0.0010717675 0.08843193 0.044383153 0.037613634 -0.110585235 -0.035972834 -0.05133501
0.110810176 -0.040740427 -0.12235313 0.027392335 0.059321154 0.044634294 0.03862783 0.08976946
0.13310175 0.09665033 -0.105312794 -0.14750448 -0.046520673 -0.06374596 -0.0052175624 0.117293194
-0.12021212 -0.03088682 -0.068477355 -0.11275892 -0.051580813 -0.08806647 -0.019820524 0.023087243
0.033572633 -0.12073377 0.105152085 -0.058736898 -0.09341179 -0.049438354 0.09666222 0.049207777
-0.11838833 0.035866223 -0.10557168 0.10224327 -0.09300689 0.09881975 0.012546945 -0.08304387

fc_out.weight f4 [2, 64]
00000000: 933e d9b9 bf4a 1f3c 2b4f 76bc 20c7 c53a
00000010: 5ecd 383d 26a3 343d 079e f8bc 6eff bb3a
00000020: c6e0 de3c 8b70 37bc c357 2a3d bdd4 ab3b
00000030: cae6 adbd 5c5e 623b 3418 89bd e79c 4cbd
00000040: 1fac 70bd 2788 8f3a 4db6 36bd cf62 2d3d
00000050: b108 4dbd 7183 50bd e408 dd3a 2fc1 fcba
00000060: f1da b2bc 4984 eb3c 6c24 473d 9e32 fbb9
00000070: f6a4 93bc d955 033d 996b ffbb 8c62 893d
00000080: 9943 b5bc 915d 613d dff9 323c f4a4 0a3e
00000090: a85e 5fbd 81db 8a3a e125 223c 7363 c2bd
000000a0: ffae 7ebd 0d43 cbbc 22ef 94bc 7384 25bb
000000b0: 4ac2 d9bc e9d4 9fbd 244c cdbc e7e5 c6bc
000000c0: a69b 453d 11c2 d23a dd67 d23d a4e9 cdbd
000000d0: 6854 f1bc 2b37 13bb e1b7 36bd 06bc 53b9
000000e0: 7f73 d6bd f155 51ba 33e2 b53d 6877 723d
000000f0: 33b0 57bd b7ec 8e3d c415 7abd 5ee8 0dbd
00000100: e154 00bd 5def 2bbd c706 d7bc 9fd7 6f3c
00000110: df1f 093d 95cc 15bd c600 5b3d 601d 7739
00000120: f102 ddbd 6dd2 d23d d99c 6cbc 1ad8 e5bc
00000130: 0ff2 973b fedd 0abc cc9e cabd a925 583d
00000140: 0e6c 33bc 7782 183b fe1e 13bd 2ed1 2d3c
00000150: b015 a23d aafa 603d 1fd5 643a 708c 23bd
00000160: b1af 3fbc d3bd 033d 4059 673d 2cc8 11ba
00000170: eef8 40bc fde1 fc3b 8c6f 3ebb 7b56 ac3c
00000180: 50d8 a1bc 9e50 94bd 2981 ae3d abba 42bc
00000190: 24b2 8ebd e034 c53a e04b f83b 71a9 83bd
000001a0: 21ef 9f3c 9566 8d3d e668 78bc de5b f83c
000001b0: 87ec 5ebd 8d1f a6bd d8be 4abc edb6 e9bb
000001c0: 7db0 c33c a6b7 893d 63fb c63d f8c8 12bd
000001d0: 6f6c 6cbb 95e5 99ba 7049 febc f280 c2ba
000001e0: 833f 9cbc 0d03 3e3a 40df 48bd 68cc 803c
000001f0: 5961 8c3d dae7 a1bd 94de b3bc f54d 023d
-0.00041436087 0.009722411 -0.015033524 0.0015089251 0.04511773 0.044100903 -0.03034879 0.0014343092
0.02720679 -0.011196266 0.041587602 0.0052438662 -0.08491285 0.0034541106 -0.066940695 -0.04995432
-0.058757897 0.0010950611 -0.04460745 0.04233056 -0.050057117 -0.050906602 0.0016863612 -0.0019283647
-0.021832915 0.028749602 0.04861872 -0.00047912163 -0.018022995 0.032064293 -0.007794809 0.067082494
-0.02212696 0.055020873 0.010923832 0.13539487 -0.05453363 0.0010593982 0.009896726 -0.09491625
-0.062178608 -0.024812246 -0.018180434 -0.0025255948 -0.026581902 -0.07804281 -0.02506072 -0.024279548
0.04824414 0.0016079565 0.102737166 -0.10054329 -0.029459193 -0.0022463303 -0.044608954 -0.00020192572
-0.10471248 -0.00079855236 0.08881035 0.059195906 -0.05265827 0.069787435 -0.061055914 -0.03464543
-0.031330947 -0.04197632 -0.026248349 0.01463881 0.03347766 -0.036572058 0.053467534 0.00023566699
-0.10791577 0.10294042 -0.014441692 -0.028057147 0.00463701 -0.008475779 -0.09893569 0.05277029
-0.010951055 0.0023271122 -0.03591823 0.010608954 0.07914293 0.054926552 0.0008729267 -0.039928854
-0.011699603 0.032163452 0.0564816 -0.0005561139 -0.011778099 0.0077173696 -0.0029058186 0.02103733
-0.019756466 -0.07241939 0.08520729 -0.011885325 -0.069675714 0.0015045665 0.0075774044 -0.06428803
0.019523205 0.069043316 -0.0151617285 0.030317243 -0.05442479 -0.081114866 -0.012374602 -0.007132402
0.023887867 0.06724481 0.09715917 -0.03583619 -0.0036075374 -0.0011741394 -0.031040877 -0.0014839454
-0.019073253 0.00072483794 -0.049041033 0.015722468 0.06854505 -0.0790555 -0.02195672 0.031812627

fc_out.bias f4 [2]
00000000: b900 66bb 20dd a33d
-0.0035095646 0.080011606
