source/isaaclab_tasks/isaaclab_tasks/manager_based/klask/actuator_model/model_odrive_history_10_interval_0.02_delay_0.0_horizon3_with_states.pt (torch, 48028 bytes, 8 tensors)

fc1.weight f4 [64, 38]
000000 ca 09 e2 bc 59 4d 60 3d f8 d5 df 3d 65 98 e9 bd
       -0.027592558 0.054761264 0.10929483 -0.1140602
000010 15 81 59 3c 58 a9 f8 3d b8 a2 cf 3d cb ff a6 3d
       0.013275404 0.12141675 0.10138458 0.081542574
000020 62 62 c6 3c 02 db 2a 3d fa 93 10 be 21 7e 81 3c
       0.024216834 0.04171277 -0.14118949 0.015807213
000030 48 8f e0 3d 38 30 95 bd a5 f8 a5 bd 95 ed 39 be
       0.10964829 -0.072845876 -0.08104066 -0.18157037
000040 a0 41 c5 3d 3f fe c7 bd 99 2c 31 be 9d 23 29 bd
       0.096316576 -0.097652905 -0.17302169 -0.04129373
000050 68 13 34 3e 06 59 07 be 04 ca 5b 3e 32 a4 eb be
       0.17585528 -0.13217553 0.21463782 -0.4602371
000060 e5 75 62 3e db b1 43 bd 84 eb 12 bc 06 6a aa 3d
       0.22115286 -0.047777038 -0.008967284 0.083210036
000070 79 e1 70 be 09 4a 55 3e 79 f4 87 bc 7e 94 0b 3e
       -0.23523511 0.20829023 -0.016596066 0.13630864
000080 f1 a4 c9 bd e2 db 1c 3e 49 12 01 be de d2 44 3e
       -0.09845913 0.15318254 -0.12604631 0.19221064
000090 13 85 79 bd e2 76 ad bd f7 4c 8b bd f8 3a b1 bd
       -0.060917925 -0.08469941 -0.06801789 -0.086538255
0000a0 f5 59 c2 3d 81 e5 a1 3d 9d 17 06 3e 95 42 41 3d
       0.09489814 0.079051025 0.13094945 0.04718264
0000b0 47 cd c2 bd 65 d7 33 3e cd e8 60 bd 9f 99 d9 bd
       -0.0951181 0.17562635 -0.054909516 -0.10625004
0000c0 35 cd d5 3d 48 27 42 bd 80 81 25 bd f4 97 6d 3e
       0.10439531 -0.047400743 -0.040406704 0.23202497
0000d0 b7 7b 97 bd 8d f2 96 3d e1 b3 13 be 17 a9 79 3d
       -0.073966436 0.07370482 -0.14424087 0.060952272
0000e0 d9 9f d5 3d 49 69 80 3d 1c 3c c1 3d 15 af b8 be
       0.10430879 0.062700815 0.09435293 -0.36071077
0000f0 87 88 45 be 25 51 36 bf 81 da b2 be 54 b7 0e bf
       -0.19290362 -0.71217567 -0.3493233 -0.55748487
000100 79 d7 00 bd 3a b0 81 3e 57 7d 33 be 9c ee e5 3e
       -0.03145549 0.25329763 -0.17528282 0.44908607
000110 4b e9 d3 3c ac cb 66 3e 84 f4 b0 bd f8 7c 3e 3e
       0.025868079 0.22538632 -0.08640388 0.1860236
000120 b9 50 08 3e b9 0c 59 3e 2a 9e 6e bd e7 5c ad 3e
       0.13312043 0.2119626 -0.058256306 0.3385994
000130 30 3d b0 bd be 48 b1 bd dc e2 dd bc eb 9d 0b be
       -0.086054206 -0.086564526 -0.027085714 -0.1363446
000140 14 de 30 be 97 52 2d bd 62 08 cf 3c 50 0c 5e 3d
       -0.17272216 -0.042315092 0.025272552 0.05421096
000150 f6 b6 34 be 73 9e ed 3d d3 1a 10 bd da 97 f0 3d
       -0.17647919 0.116024874 -0.03518183 0.117477134
000160 c3 18 c8 bd 34 44 0b 3e 9f 21 9c 3d 9e 31 ae 3d
       -0.09770348 0.13600236 0.076236 0.085055575
000170 ee af 6c bc af d7 5b 3d e1 95 ec bd b6 0d 3c 3e
       -0.014446242 0.05367249 -0.11552025 0.18364605
000180 22 7c 0f 3e ba 5d c5 be 97 22 37 bd da dd 1d bf
       0.14012197 -0.3854807 -0.04471072 -0.61666644
000190 53 21 e7 bd a7 a3 21 be 4c 96 bf 3d e5 82 e3 3c
       -0.11285653 -0.15785085 0.09354839 0.027772376
0001a0 db 66 8f bc 75 ca 50 3e d9 0a 07 3e 45 4f ac bb
       -0.0175051 0.20389731 0.13187732 -0.005258473
0001b0 9d 47 18 3e 51 2a 66 bc c8 af 12 bd 10 2e fc 3d
       0.14871068 -0.014048175 -0.03581217 0.12313473
0001c0 ec fc 43 bd 6e 39 ee bc 28 9f b2 3d ea 3d 1b bc
       -0.047848627 -0.029080119 0.08721763 -0.009475211
0001d0 9b 2d 9b bd a8 bc 9e 3d 3a 21 97 3b 1c 47 92 bd
       -0.07577058 0.07750827 0.004612115 -0.07142469
0001e0 56 13 b1 3d 8c 52 81 bc 33 2d c5 bd fb 12 52 3d
       0.08646266 -0.015786432 -0.09627762 0.051287632
0001f0 cf f9 9a bd 70 57 d8 bd ef cc e8 3c e0 97 7f 3d
       -0.075671785 -0.105635524 0.028418032 0.0624007
000200 96 b9 e6 3d b1 a2 37 3d c4 24 fa bd 3c 04 31 3d
       0.112658665 0.04483289 -0.12214044 0.04321693
000210 a5 4b b6 3d c7 4b de bd 88 a4 f8 bd d4 3a 77 be
       0.08901147 -0.10854297 -0.12140757 -0.24143535
000220 d0 95 d7 be 34 c7 cd be 8a a2 97 be 3a ce 14 bf
       -0.42106485 -0.40191042 -0.29616195 -0.58127177
000230 eb 11 87 be de be 39 be b8 70 d3 bd 79 96 c0 bd
       -0.26380858 -0.18139216 -0.10324234 -0.094037004
000240 ce 4e cb ba 68 b4 03 3d 49 92 1d be ea ad 17 3e
       -0.0015511157 0.03215447 -0.15387835 0.14812437
000250 44 94 10 be c4 af a5 3e b5 c7 06 3e cd 7f 90 3e
       -0.14119059 0.3236066 0.1316212 0.28222504
000260 4c d0 8e bd bf c0 cb bc 05 4b 0c 3e b8 3b 0a be
       -0.06973323 -0.024872182 0.13700493 -0.13499343
000270 31 ca f3 bd 23 a4 d0 3d 66 df f1 bb 96 95 6e ba
       -0.11903799 0.101875566 -0.0073813675 -0.00091012695
000280 9d 59 8e 3d 83 c6 7e 3d ad a2 3d 3c cd eb 05 be
       0.06950686 0.062201034 0.011574429 -0.13078232
000290 c1 d1 dc bb ca 10 a9 3d d6 d3 1e 3e b6 3e 62 bb
       -0.006738872 0.082551554 0.15510496 -0.0034522242
0002a0 73 28 e2 3c 6b b3 17 3e ce 1c a0 bd 82 0b 15 be
       0.027607178 0.14814536 -0.07817994 -0.14555171
0002b0 fa 23 4e 3e eb e1 e1 3c 11 2c 2e 3e f3 82 34 3d
       0.20130911 0.027573546 0.17008997 0.044070195
0002c0 aa f6 1f 3e c8 37 8c 3d 65 ec 53 be 40 ef 95 3d
       0.15621439 0.06846577 -0.20695646 0.07321024
0002d0 71 14 2c be 14 c4 05 3e ca 9d 91 be 0a 9a 0e 3d
       -0.16804673 0.13063079 -0.28440696 0.03481487
0002e0 34 29 9f be 79 cf b4 3d 9d 55 87 be 35 df 64 3e
       -0.31086123 0.08828635 -0.26432505 0.22350772
0002f0 8c 70 88 be eb 25 a5 3d 31 85 e9 bc fc 3b de 3b
       -0.26648366 0.08063873 -0.028505893 0.006782053
000300 e2 d9 f7 3d 6b 5c db bd 4d cc e7 bd cd a9 fb 3d
       0.12102105 -0.10710987 -0.11318264 0.12288246
000310 9d 0f 04 bc 09 71 ac 3c d1 6d 4f 3d 79 be 9b 3d
       -0.008060363 0.021049993 0.05064184 0.07604689
000320 ca 49 b6 bd 43 47 9a bd 1e 48 1d bd f0 86 7e bc
       -0.08900793 -0.07533123 -0.038398854 -0.015535101
000330 55 dd 88 3d b0 16 4b 3d 56 16 24 3d 12 57 3f bd
       0.06682841 0.049582183 0.040060364 -0.046713896
000340 fb e2 4b 39 ec 78 7d bd 2b 8b 01 bf fb 1f e6 bd
       0.00019444145 -0.0618829 -0.5060298 -0.112365685
000350 7f 01 44 bf b5 d7 6b bd 1f a9 33 bf f1 f9 3e be
       -0.7656478 -0.05757876 -0.70179933 -0.18650033
000360 5a 2f ff bd f9 a6 3c bc ed b8 76 3d ba 6b 0e 3e
       -0.124602035 -0.011514419 0.060234953 0.13908282
000370 66 ba 48 bd 81 77 6a 3d 6d e2 cc bd 39 d8 e7 3d
       -0.04900589 0.057242874 -0.10004125 0.11320538
000380 ea 5c 1b 3c 04 9c c4 bc c4 1a 22 be 58 ff b4 bd
       0.009482602 -0.024000175 -0.15830523 -0.088377655
000390 fc 02 f3 3d 80 c3 21 3c e4 26 21 be 8e c7 1d 3a
       0.118658036 0.009873271 -0.15737492 0.00060188107
0003a0 cd 18 ee 3d 7e b5 84 bd 0d e0 fe bd 14 18 e2 3d
       0.11625824 -0.064799294 -0.12445078 0.11039749
0003b0 19 b4 40 be 3d 3f 13 be d3 e0 22 be e2 d6 04 bd
       -0.18818702 -0.14379592 -0.15906076 -0.03243149
0003c0 e5 04 c6 bd e2 c8 22 3e dc 0a fe 3b 4b 98 8f 3b
       -0.09668902 0.15896943 0.0077527594 0.0043821684
0003d0 1e c6 7e 3d 0a 12 f4 bc ae 8e ee bd 23 e5 f3 bd
       0.062200658 -0.029793758 -0.11648308 -0.11908939
0003e0 a3 a1 50 3e be db 29 3d ae 0d bf 3e c4 36 84 3e
       0.2037416 0.041469328 0.37315124 0.25823033
0003f0 fc fd c1 3e e7 ad c0 3e 0f 57 dc bd e6 9d b9 bc
       0.37889087 0.37632677 -0.107587926 -0.0226583

fc1.bias f4 [64]
000000 d2 3c bc bc 3d 4f 94 3e d1 f3 b2 bc e1 75 1b 3e
       -0.02297822 0.28966704 -0.021844776 0.15181686
000010 5e b9 5e be 45 5e 15 bc 31 c8 48 3d ef 13 d3 bd
       -0.217504 -0.009116714 0.049019042 -0.103065364
000020 24 60 fc 3d 69 81 82 3e 2a 17 7a be 8a fe 6a 3e
       0.12323025 0.25489357 -0.24422899 0.22948661
000030 8b 68 68 bd 38 4b ab bc c1 f4 c9 3c 3f 00 a0 bd
       -0.056740325 -0.02090989 0.02465284 -0.07812547
000040 9f aa 40 be 7c a9 40 be 83 2b 24 3e a0 f9 a6 3d
       -0.18815087 -0.18814653 0.16032223 0.08153081
000050 34 f1 04 3e b6 f7 58 be 80 82 a7 be 6a ab 02 bd
       0.12982637 -0.21188244 -0.3271675 -0.031901754
000060 b1 28 1d 3e fe ab 0a be b2 9a b6 3b b3 f3 ff 3d
       0.15347554 -0.13542172 0.0055726403 0.12497654
000070 d1 28 1e be b0 38 02 be 21 8e 46 3d dc a2 6e 3e
       -0.15445258 -0.12716937 0.04847539 0.23304313
000080 9a ba 78 3d 12 89 99 bd 8a 19 45 3e fd 45 2f 3e
       0.060724832 -0.07496847 0.19248024 0.17116542
000090 46 f6 25 be e5 39 8d be ed 71 df 3d 1a f1 88 bd
       -0.16207227 -0.27583233 0.109104015 -0.066866115
0000a0 01 cf 48 3d b8 78 aa 3b 2b 8d 27 be c6 51 d8 bd
       0.04902554 0.005202379 -0.16362445 -0.10562472
0000b0 7e 68 69 3c bb 8d 2c bd e6 b1 9c 3e 72 e9 81 3c
       0.014246104 -0.042127352 0.30604476 0.015858386
0000c0 42 77 82 3d cc 70 f8 3d 28 be 16 3e 86 ce 1b 3e
       0.06370403 0.12130889 0.14720976 0.15215501
0000d0 98 5c 0c 3e 21 f1 a4 bd ca 76 cd 3d 8f 0b 9e be
       0.13707197 -0.08053804 0.10032423 -0.30868194
0000e0 09 f8 c1 bd d4 dc e3 3d 19 b3 45 3e a8 b6 2b 3c
       -0.09471137 0.11126104 0.19306602 0.01048056
0000f0 b5 99 00 be 1c ac e6 3d ce 3e 90 3d 6e 60 d0 3d
       -0.12558635 0.11263296 0.07043229 0.101746425

fc2.weight f4 [64, 64]
000000 bf aa 65 3c da 7c e8 bc 11 02 d0 bd 41 3c 34 bc
       0.01401776 -0.028379846 -0.10156644 -0.011000694
000010 40 f0 9e ba ec 52 c8 bd ed b7 cf bc 60 b1 65 bc
       -0.0012126043 -0.09781441 -0.025356257 -0.01401934
000020 a4 b3 89 bc 39 c8 b3 bd 0a 53 b4 3d 4d df 07 3d
       -0.016809292 -0.08778424 0.08804901 0.03317194
000030 ec 71 6f 3d c5 e4 7c bd aa b5 1d bd 42 69 c7 3d
       0.058458254 -0.06174161 -0.038503326 0.09736873
000040 f0 84 e6 3c 03 a2 a3 bc a7 67 a5 bd f2 4f 99 3d
       0.028139561 -0.019974714 -0.08076411 0.074859515
000050 07 1b 37 3d a1 49 02 3e 42 55 dd 3d 7c f3 d9 3c
       0.04470351 0.127234 0.10807277 0.02660536
000060 f2 f5 b1 bd a1 0b 47 bd 19 af 4b 3b ce 78 ac 3d
       -0.086894885 -0.048595075 0.0031079708 0.08421479
000070 3d d9 06 3e 80 05 0e 3d e3 78 3d bd a5 d3 aa 3d
       0.13168807 0.034673214 -0.046257865 0.08341149
000080 1c fb c7 bd 81 8f 92 3d f8 96 c6 3d 63 2b f9 bd
       -0.09764692 0.071562774 0.09696764 -0.121664785
000090 09 8e c6 3c f0 95 84 bd 07 c0 c7 3d 9b 44 9f 3d
       0.02423765 -0.06473911 0.09753423 0.07776757
0000a0 e4 35 f2 3c 1c 50 b9 bd a7 51 bc 3d 67 c0 03 3d
       0.029566713 -0.09048483 0.091952614 0.03216591
0000b0 61 8f f6 bd c0 84 35 3d 19 5b 0b be 51 b9 7d bc
       -0.12039066 0.044316053 -0.1360897 -0.015486077
0000c0 27 44 7b bd 90 6f e1 bd c9 4d ff bc 90 4d c4 3d
       -0.061344292 -0.11007607 -0.03116502 0.095851064
0000d0 14 13 ad bd 9c f2 5e 3d c3 4a 6e bc da e3 e0 3b
       -0.084509045 0.05443059 -0.014544192 0.0068630995
0000e0 72 ed f2 3d 1d f6 09 3c 90 e0 94 bb 50 9f 83 bc
       0.11861695 0.008420494 -0.0045433715 -0.016067177
0000f0 fa 8b da bd 65 31 f5 bd 03 f6 eb bc 75 15 ba bd
       -0.1067123 -0.11972312 -0.028803831 -0.09086124
000100 7b 49 87 3d 84 b5 e6 3c 9d f4 43 3d 41 64 6a bc
       0.06605812 0.028162725 0.047840703 -0.014306129
000110 18 f5 ee bd 5b 92 56 3d 90 9f f5 39 53 bd 43 3d
       -0.11667842 0.05238567 0.00046848925 0.047787976
000120 44 4b f4 3a d8 6e 8f 3c 24 ae c9 bd 47 97 3a bd
       0.0018638154 0.01750891 -0.09847668 -0.045554426
000130 a7 45 30 bc 58 ea 93 3d 3b 2b bf bd a7 76 d1 3c
       -0.010758794 0.07222432 -0.093344174 0.025569273
000140 12 12 8c 3d 2b 3f f7 bd e2 ad c5 bc c5 27 9c bd
       0.06839384 -0.12072595 -0.024130765 -0.07624773
000150 42 db a0 3d c3 f1 a9 3d f9 ad 97 3d 50 49 37 3c
       0.0785432 0.082980655 0.074062295 0.011186913
000160 08 4f 05 3e c4 5d d9 3b e0 e7 b0 3d b6 e5 46 3d
       0.1301843 0.006633492 0.08637977 0.048558913
000170 62 3c a9 bd 12 bc dd bc 78 50 ae 3d 1b 03 b3 3d
       -0.0826347 -0.027067218 0.08511442 0.08740827
000180 92 96 d0 bd 73 c6 83 3d 4e 0d 65 3d 6b c5 f9 3c
       -0.10184969 0.064343356 0.05592089 0.030489644
000190 2b 65 ed 3d 3b 72 af bd f8 b3 44 bc af 9d 5d bd
       0.11591562 -0.085667096 -0.0120057985 -0.054105457
0001a0 85 7d ae 3d 0a b5 1d bd 6d e1 b6 3d 1f 21 5d bd
       0.08520035 -0.03850273 0.08929715 -0.053986665
0001b0 ed d7 a9 bd c8 e2 df 3c 24 89 a2 3d 34 3d 3b bc
       -0.08293138 0.027329817 0.07936314 -0.011428166
0001c0 e2 14 28 bd a2 b5 75 3d 16 87 71 bc dd d4 50 3b
       -0.04103554 0.05998767 -0.01474168 0.0031865158
0001d0 8d a1 02 3e e2 97 18 bd 60 0b d8 3c 96 67 82 bb
       0.12756939 -0.03725422 0.026372612 -0.0039796336
0001e0 b3 ca 16 be 3b 29 f8 3d e1 a1 ab 3d ac d3 1f be
       -0.14725761 0.12117239 0.08380485 -0.1560809
0001f0 51 2f 4f 3d 99 2d 87 3d 88 d4 a3 3d 70 2f ad 3c
       0.050582234 0.06600494 0.079995215 0.021140784
000200 25 18 41 3d 4b b4 f2 bd 29 aa 2e 3d 22 15 f9 ba
       0.047142167 -0.118507944 0.042642746 -0.001900349
000210 33 8f d8 bc a9 4b 97 3b c5 fc cf 3d fd 68 06 be
       -0.02643547 0.0046171737 0.10155634 -0.13125987
000220 84 ca aa 3d 88 44 b0 bc a8 4a 12 be a0 ed cb 3d
       0.08339408 -0.021517053 -0.14286292 0.09957433
000230 74 18 e0 bd 6e 69 e8 3c b6 7b a9 3d 18 cf 98 bc
       -0.10942164 0.028370585 0.08275549 -0.018653437
000240 3f 68 5d bd fc 3d d2 3c 5f 1f f0 bd bb 60 c7 3d
       -0.054054495 0.025664322 -0.117247336 0.09735247
000250 7a aa 91 bd 6f df 64 bd 4f 6b 97 bd af d2 a6 bd
       -0.07112594 -0.055877145 -0.07393514 -0.081456535
000260 74 68 e2 3d ec a4 b9 3b f7 8c 3c 3d 5b 48 e3 3d
       0.11055079 0.005665412 0.046032872 0.11097785
000270 71 1a bd 3d cb a8 b0 3d 2f 0b 1d bc be bf b1 bd
       0.09233559 0.08625945 -0.009585186 -0.0867915
000280 f7 aa eb 3a 3d 0b 14 be 7a ea db 3d 56 b2 a8 bd
       0.0017980029 -0.14457412 0.10738082 -0.0823714
000290 67 fc 60 bd de 4c 26 3d 55 e9 e0 bd 33 0f d9 bd
       -0.05492821 0.04060065 -0.109820046 -0.10598602
0002a0 2d d9 82 bd 76 e3 44 3d 86 b5 d1 bd 45 b7 0f 3d
       -0.06389079 0.048068486 -0.10239701 0.03508689
0002b0 53 8e 87 bd 8a 87 1a bd a3 f1 b4 bc da 45 9a 3d
       -0.06618943 -0.037726916 -0.022087878 0.075328544
0002c0 df a7 80 3c 76 4d 0a 3d d6 51 2a 3d 35 b8 94 bd
       0.015705047 0.03376528 0.04158195 -0.07261697
0002d0 3d 31 d1 bd ac 80 59 3d 0a 60 ad 3c 78 df 53 3d
       -0.102144696 0.053101227 0.021163959 0.05172679
0002e0 48 4c d0 bd a0 73 3e bd 6c 37 dc bd bf c3 64 bd
       -0.101707995 -0.046496987 -0.107527584 -0.05585074
0002f0 1a 9a 9c 3d 8c 7e b4 bd 8d b7 cc bc de 53 88 bd
       0.0764658 -0.088131994 -0.024989868 -0.066566214
000300 ed 6b 23 3c 72 4f ec 3d ec c9 82 bd 1c 86 11 3d
       0.009974462 0.115385905 -0.0638617 0.035528287
000310 72 59 5f bd 79 31 06 be 91 67 59 3c 2c 62 92 bc
       -0.05452866 -0.1310481 0.013269321 -0.017869078
000320 62 99 f4 3c 3e 02 89 bd 3a 1a a2 39 2c 2c e4 3a
       0.029858295 -0.06689881 0.00030918588 0.0017408184
000330 d3 c5 16 3e d3 49 82 bc c0 7a e4 bc dd d4 73 3d
       0.14723901 -0.015904343 -0.027890563 0.059529174
000340 6e f6 59 bd 9e 63 11 3e 8b 00 bb 3d 76 79 32 3c
       -0.05321353 0.14198157 0.09130963 0.010893216
000350 5e 79 16 bd 01 a7 8f 3d c7 58 0e bd 55 4b ca 3c
       -0.03673684 0.07014275 -0.034752633 0.024694124
000360 d8 11 a8 3a 6b 6e 1b 3d 29 1f 8d bd ca 4a af 3d
       0.0012822701 0.0379471 -0.06890709 0.08559187
000370 1c ba 2c 3d 02 22 86 bd dd 9a 73 bc 92 4a 71 3d
       0.042169675 -0.06549455 -0.014868465 0.058909006
000380 d7 4c 56 bd 4a 52 9b ba 75 08 c6 3d 9f 6d 05 3d
       -0.052319374 -0.0011850086 0.09669582 0.032575246
000390 53 18 05 be 28 82 23 be 72 c6 03 be f0 c6 d2 bc
       -0.1299756 -0.1596762 -0.1286867 -0.025729626
0003a0 c9 fa d9 bd 46 cc 02 be ce c7 e4 3c 5c 2a fc bc
       -0.106435366 -0.12773237 0.027927306 -0.030781917
0003b0 20 26 b4 bd 17 7d 8b 3d 9b 9a 52 3d fb f4 fd 3d
       -0.08796334 0.06810968 0.051416975 0.12400242
0003c0 6a e4 b5 3d cc d0 6a 3d b6 24 70 bd 27 1e 26 3e
       0.08881457 0.05732803 -0.05862876 0.1622244
0003d0 13 17 a5 bd 92 1e 25 3d c7 4c bf bd e0 d5 98 3d
       -0.08061042 0.040312357 -0.09340816 0.074626684
0003e0 f0 fc 0c bd 80 b5 b2 bd ba 43 54 bd b4 37 43 3d
       -0.034420907 -0.08726025 -0.0518224 0.047660545
0003f0 74 63 d1 b9 86 d7 38 3c a1 06 74 3d 81 a5 59 3d
       -0.00039937685 0.011281854 0.059576634 0.053136352

fc2.bias f4 [64]
000000 fb aa 90 bb 8f 7b ff 3d 3e f9 95 bc 26 c9 01 3e
       -0.0044149137 0.12474739 -0.018307324 0.12674388
000010 67 0e b2 bb 76 b6 71 bd fc 4b 8f 3d 63 f6 2d bc
       -0.005433846 -0.0590119 0.06996915 -0.010617825
000020 40 66 c5 ba fc 80 4f 3d 6e d5 f9 bd c6 0c 4c bc
       -0.001506038 0.05066012 -0.121989116 -0.012454217
000030 0e ab a1 bd 51 0d a1 3d ea e7 9d 3d f4 17 f4 bd
       -0.07893954 0.07863868 0.0771025 -0.11918631
000040 06 7c ac 3d 93 be d7 bd 98 69 66 3d ad af 98 bd
       0.08422093 -0.10534396 0.056253046 -0.074553825
000050 4e e0 db bd a7 26 34 bc 96 9b 32 3d 32 d8 93 bd
       -0.10736142 -0.010995544 0.04360541 -0.0721897
000060 67 2c 8d bd ce 4d c8 bd a3 a0 88 bd 98 e8 cb bd
       -0.06893235 -0.09780465 -0.06671264 -0.09956473
000070 4e 3f d5 bd 48 19 17 be 5c 1a 33 be f2 2f 03 3e
       -0.10412465 -0.14755738 -0.17490524 0.12811258
000080 c3 b8 ba 3d 45 40 46 bd 1c df 59 bd 7b 18 94 3d
       0.09117272 -0.048401136 -0.05319129 0.07231232
000090 8c 09 99 3c ca ea 9a 3d 21 61 69 bd 1e 5a e3 3c
       0.01868131 0.07564314 -0.056977395 0.027752932
0000a0 9e 8a 8b 3b 8b ee 7e bc d5 1d 1d be ea 7b b2 3b
       0.004258468 -0.015559803 -0.15343411 0.0054469006
0000b0 d1 31 85 3c f5 21 98 bd 5f a0 a6 3c ec ea df bd
       0.016259106 -0.07428352 0.020340143 -0.1093348
0000c0 fb 5a 04 be 6e 34 09 3d 0a 35 28 3d d0 fe 01 3e
       -0.12925331 0.033497266 0.041066207 0.1269486
0000d0 dc be 7c 3d ad a3 b8 bc b9 c6 4b bd a8 a1 a2 3d
       0.061705455 -0.022538984 -0.049750064 0.0794099
0000e0 c4 17 8a 3d c1 97 8d bd 9d 3e 12 be a3 94 c1 bd
       0.06742814 -0.069137104 -0.14281698 -0.09452178
0000f0 81 16 a4 bd fb 76 df bd 97 b2 46 bd b7 05 44 3d
       -0.08012105 -0.109113656 -0.04851016 0.047857013

fc3.weight f4 [64, 64]
000000 72 76 9a bd 3e 17 e4 3d 7e 7c b7 bd 77 a3 f7 bc
       -0.07542123 0.111372456 -0.08959292 -0.030229313
000010 cf 41 8f bc ee b3 33 3b ff 20 17 be f1 78 be 3d
       -0.017487435 0.002742048 -0.14758681 0.093004115
000020 3c 17 d2 3d 73 9b 5d bd 51 16 d4 bd 9a 13 a6 bd
       0.10258338 -0.054103326 -0.10355819 -0.081092075
000030 68 0a a2 bc 17 10 d3 3d e6 58 a9 3c d2 fd e6 3c
       -0.019780353 0.10305803 0.020672273 0.028197203
000040 92 f1 50 bd 0f 03 ee 3d 26 09 8b bd af 13 57 3c
       -0.05101163 0.11621677 -0.06788854 0.0131272515
000050 37 eb 64 3d d3 69 00 3d 22 3e 1f bc cf bc 0b 3e
       0.05588838 0.03135092 -0.009719403 0.13646244
000060 c4 8f ae 3d e4 39 1c be 84 6b d3 bc 96 ed 70 bd
       0.08523515 -0.15256459 -0.025808103 -0.05882033
000070 0f 91 47 3d 9b 10 b8 bd 61 51 08 bc 29 33 7b bd
       0.048722323 -0.08987542 -0.0083201835 -0.061328087
000080 61 d1 45 bd 42 19 cc bc 54 7e 41 bd 52 12 c7 bd
       -0.048295382 -0.024914388 -0.047239617 -0.09720291
000090 62 39 99 3d 16 6a f9 3d 7d 5b 0c bd ae 62 a1 bd
       0.07481648 0.121784374 -0.034266938 -0.0788015
0000a0 31 8f c6 bd c2 74 dd 3d 11 34 82 bc fa 34 4e bd
       -0.0969528 0.108132854 -0.015893968 -0.05034349
0000b0 06 ab 97 bd 23 d1 0f bd a7 14 23 bd 19 32 b2 3d
       -0.07405667 -0.035111558 -0.039814617 0.087009616
0000c0 32 a8 9d 3d e4 8b c5 bd 56 a4 a8 bc 26 78 f3 bd
       0.07698096 -0.09645823 -0.020586174 -0.11888151
0000d0 76 cc 22 3d 05 95 ec bd 13 76 f1 bd 8b 7d 9c 3d
       0.03974577 -0.11551861 -0.11790099 0.07641133
0000e0 c4 0a 7e 3d af a6 80 bd de 82 ab 3d a0 de e3 3c
       0.062021986 -0.06281792 0.0837457 0.027816117
0000f0 9f 7e 74 bd 07 41 09 bd cb 2a 0b 3e f2 9c c0 3d
       -0.059691068 -0.03350928 0.13590543 0.09404935
000100 16 f2 d0 bd 44 99 15 bd 45 66 c1 3d a3 5e 98 bb
       -0.10202424 -0.03652312 0.094433345 -0.0046499535
000110 5f 05 6a bc 77 95 a2 3b aa 1e dd 3c c9 fc d7 3d
       -0.014283507 0.0049616653 0.02699216 0.10546262
000120 b5 35 a0 bd 3c a6 a7 bc 14 66 36 3d b0 ac c3 3d
       -0.07822744 -0.020465009 0.044530943 0.09554422
000130 7c e5 25 3c 5a ca 8a bd 05 3f 72 bd 8c c8 6b bd
       0.010125514 -0.06776877 -0.05914213 -0.057564303
000140 c9 22 00 bd d8 71 a3 3d 22 86 2c 3d 30 e1 97 3c
       -0.031283174 0.07980698 0.042120107 0.018539995
000150 42 41 e7 bd c1 b4 3e bd bc f4 45 3c d3 cf c8 3d
       -0.11291744 -0.0465591 0.012082275 0.09805264
000160 9b f4 1d 3c 7b 15 08 be 57 11 14 3c fd 58 49 3c
       0.009640838 -0.13289444 0.009037337 0.012289283
000170 da 10 fd 3c 48 7d d6 bd 16 a3 8b bd 09 aa b8 bc
       0.030891825 -0.10473114 -0.068182155 -0.022542017
000180 fd d2 b6 bd 7f 30 99 3d b1 b7 99 bd 59 b2 19 be
       -0.089269616 0.07479953 -0.075057395 -0.1500944
000190 13 3e 92 3b b7 cc 56 bd 15 e0 ae 3c 78 ed a2 bd
       0.004462966 -0.052441325 0.021347085 -0.0795545
0001a0 dd 3c ed 3c 83 1f af 3d f2 db d4 3d fa db 70 3b
       0.028959686 0.08550932 0.10393514 0.003675221
0001b0 79 30 e6 bd 13 9a a4 3d fa c0 a4 3c 34 c3 b1 bd
       -0.11239714 0.080372 0.02011155 -0.0867981
0001c0 41 41 80 bc 87 2f cd bc 6d 6a b7 3d 63 10 23 3b
       -0.015656115 -0.025047077 0.08955846 0.0024881593
0001d0 fc 47 92 bd f4 f9 45 3c b6 9f 30 3d 3d b0 fb bc
       -0.07142636 0.012083519 0.043121062 -0.030723685
0001e0 2b 86 5e 3d 79 27 e1 ba 28 ff a0 3c 85 d2 66 3c
       0.05432717 -0.0017177901 0.019652918 0.014088278
0001f0 ae 64 fa 3d b7 34 cb 3d b9 0d ed bd 93 bb 71 bd
       0.122262344 0.09922164 -0.11574883 -0.059016775
000200 55 18 84 3d 68 63 ca 3d ab 9b 72 3c 6e 4f 65 bd
       0.064499535 0.098822415 0.014807622 -0.055983953
000210 47 41 7a 3d 83 24 a7 bc 1e d7 1a bb 1e 15 be 3c
       0.06109741 -0.020403152 -0.0023626755 0.023203429
000220 7c 79 3d bd 09 94 e9 bd a0 f1 b0 bd a9 1f 03 3e
       -0.046258435 -0.114051886 -0.08639836 0.12805046
000230 60 2b 1d bc 7d 9f f2 3c f0 d4 e8 3d d5 ff 3a be
       -0.009592861 0.029617066 0.113687396 -0.18261655
000240 b2 5c 08 3d c0 3f ce bd c9 5e 6a 3c 68 bc 7d bd
       0.033291526 -0.10070753 0.014304825 -0.061947256
000250 ad 46 cf 3d f9 88 7f bd 82 b5 99 3d de c2 d3 3d
       0.10120902 -0.062386487 0.07505323 0.10339902
000260 05 89 8c 3c 8d fc 2d 3c 26 d7 2d bc 21 d2 eb bd
       0.01715518 0.010619295 -0.010610377 -0.11514688
000270 fe 4f 94 bd 87 02 b7 bd 72 aa b7 3d 65 fe 13 3e
       -0.0724182 -0.08936029 0.08968057 0.14452513
000280 48 c2 49 bc 52 e4 95 bd 21 7f 07 3b d9 fb 93 bc
       -0.012314387 -0.07318939 0.002067514 -0.018064426
000290 36 12 dc 3d 38 73 22 b9 85 03 4b bd 04 06 a9 3d
       0.10745661 -0.00015492446 -0.049563903 0.082531005
0002a0 8d bf 80 bd 00 05 5e 3d f0 44 c6 bd 23 1a a7 3d
       -0.062865354 0.054203987 -0.096811175 0.08159282
0002b0 d3 b9 9d ba 9f fa ed 3d a9 38 43 3b 18 cb 9b 3d
       -0.0012033529 0.11620068 0.002978841 0.076070964
0002c0 7e 2f ce 3d cd 15 85 3d b2 6f 22 3c 8a aa 92 3d
       0.10067652 0.06498299 0.009914326 0.07161434
0002d0 f7 9b bf bd b6 3d 08 3e 81 47 6c bd 50 ea c3 3d
       -0.0935592 0.13304791 -0.05768538 0.09566176
0002e0 22 3e 03 3d 81 67 3a bd 25 ad 11 be 1c e8 cc bd
       0.032041676 -0.045508865 -0.14226206 -0.10005209
0002f0 85 61 35 be 24 d6 41 bd 78 91 c3 bb a6 4a 30 3d
       -0.17712982 -0.04732336 -0.005968269 0.04303994
000300 2f ad 55 3d 1d 54 d3 bd 86 89 e4 bb 78 2f c3 bd
       0.052167114 -0.10318778 -0.006974402 -0.09530538
000310 51 c0 93 bd 4f 3e a0 bd bd 73 e4 3c bb d7 d5 bd
       -0.07214416 -0.078243844 0.02788722 -0.10441538
000320 d1 12 dc bd 99 7e cc bb fd 50 fe 3c ce da 85 3d
       -0.107457764 -0.0062406776 0.031044478 0.06535874
000330 f4 06 a9 3d 70 cc 18 bd cd 6e 43 bc 36 82 7b bd
       0.08253279 -0.03730434 -0.011928272 -0.061403476
000340 b9 7a 80 3b 79 3e d5 3d 40 15 d2 3d 59 79 ec 3c
       0.0039208797 0.10412306 0.10257959 0.028866457
000350 bf a1 97 3d 1a 68 b2 3c f1 38 5a bd b4 62 6e 3d
       0.074038975 0.021778155 -0.05327696 0.0581996
000360 0f de 81 bd 10 f2 aa 3d 75 41 0c 3c ad 65 85 bd
       -0.063411824 0.08346951 0.008560528 -0.06513534
000370 c8 0e e5 3d 29 00 af bd 6f 9a ce 3c 09 30 97 bd
       0.1118446 -0.085449524 0.025220124 -0.07382209
000380 89 22 04 3e d2 73 aa 3d 48 bb e8 3d c3 27 f7 3d
       0.12903799 0.08322872 0.11363846 0.12068131
000390 ec 9c a6 bd d4 d8 85 bd 96 d3 50 bd 40 15 33 bd
       -0.08135399 -0.06535497 -0.050983034 -0.043721437
0003a0 1b 99 b4 3d d6 92 d1 bd fb 67 d8 bd 78 2b 5e bc
       0.08818265 -0.10233085 -0.10566708 -0.013560168
0003b0 aa 3a f7 3c ac 5c 04 bd 9d c0 34 bd 3d 15 fa 3d
       0.03017934 -0.03231494 -0.044129003 0.12211082
0003c0 b5 b8 d2 bc 58 c8 11 bd 4b a0 8f bd e6 0e bf 3b
       -0.02572284 -0.035591453 -0.07012995 0.0058306335
0003d0 b6 20 4a bd d7 71 a3 b9 73 81 b1 3c db 8b bd bd
       -0.0493476 -0.000311746 0.021668172 -0.09255191
0003e0 e6 5f f7 bd aa 61 d8 3c 43 be a3 3c e3 53 1b bd
       -0.12078838 0.026413757 0.019988185 -0.037921797
0003f0 d4 f1 95 bd ef 6b 72 bd 1d fc 73 3d 01 11 e6 bd
       -0.07321516 -0.059184965 0.059566606 -0.11233712

fc3.bias f4 [64]
000000 52 76 ed 3d 1a b4 c7 bc 21 0e 28 3d b5 73 97 3d
       0.115948334 -0.024377871 0.0410291 0.07395116
000010 4e d9 cd 3d d5 d5 dc 3d b8 95 94 bd 4e 0f ab 3d
       0.10051213 0.10782973 -0.07255119 0.083525285
000020 2d d9 ae 3d 81 57 bc bd 46 cc 7f bd cd d9 08 bd
       0.08537517 -0.091963775 -0.06245067 -0.033410836
000030 f4 77 ac 3d 40 35 3d bd 5b 46 74 bd f3 35 dc 3a
       0.08421317 -0.04619336 -0.05963741 0.0016800746
000040 b6 42 a9 3d 49 be 4d 3d 52 90 0f bd 3d de 45 3c
       0.08264677 0.0502303 -0.035049744 0.0120769115
000050 76 ae e2 bd 8d 8b ad bd 8d 92 ed bd 17 b7 85 bd
       -0.11068432 -0.08473883 -0.11600218 -0.06529062
000060 78 74 bf ba ca a7 95 bc 03 20 e0 3d 19 23 9b bd
       -0.0014606854 -0.018268485 0.10943606 -0.07575054
000070 1f 20 d2 3d 78 24 a7 bd 03 e6 a1 3c f6 f5 49 bc
       0.10260033 -0.08161253 0.019762998 -0.012326708
000080 09 5f db 3d d6 0e 1a 3d d7 ce 08 3e ee f4 bb 3d
       0.10711486 0.037611805 0.13360153 0.09177576
000090 1f 4f 3d 3d 91 cc 75 bd db df 91 3a 4b 06 30 3c
       0.046218034 -0.060009543 0.0011129336 0.010743688
0000a0 75 8f 11 3d 0f 69 0c be 40 33 a2 bd 9d 2f 5b bd
       0.035537202 -0.13711952 -0.079199314 -0.053512204
0000b0 9c a7 eb 3d 91 f3 03 be d9 b5 2b 3d 72 a0 c9 bd
       0.11506578 -0.12885882 0.04192147 -0.09845056
0000c0 b9 44 b0 bd b0 dd a5 3d 91 be bf bc c2 3e 50 bc
       -0.08606858 0.08098924 -0.023406299 -0.012710275
0000d0 04 60 bc 3d 43 e3 82 3c ee f4 88 3c 74 9c 04 3e
       0.09198001 0.015977507 0.016718354 0.12950307
0000e0 16 7a 8c 3d 43 01 f0 bd 92 f2 a4 3b e7 cb 4b bd
       0.068592235 -0.11718991 0.0050337994 -0.049755003
0000f0 b2 22 db bd 5f c3 5b 3d f3 97 5b 3c 49 07 b4 bd
       -0.10699977 0.053653117 0.013402927 -0.08790452

fc_out.weight f4 [2, 64]
000000 6a dd d7 bc a5 8b 64 bd 53 12 a8 3c 32 ee 95 ba
       -0.026350696 -0.055797238 0.02051655 -0.0011438786
000010 7a 2c 52 bc 1d 10 bd bd 2d 8e a1 3d 3a 58 a1 bd
       -0.012827987 -0.09231589 0.07888446 -0.07878156
000020 c0 d1 6a 3d e2 5d b6 bb d2 d5 a6 bb 22 2c e1 b9
       0.05732894 -0.005565391 -0.0050914073 -0.00042948226
000030 cd 7f 0d bd 3a cc 96 3b 1b 79 30 bd 08 75 4e bc
       -0.03454571 0.0046019824 -0.043084245 -0.012601145
000040 f4 4c a5 3d fe a8 10 3d 14 33 8a 3d 1a f3 e4 bc
       0.08071318 0.035317414 0.06748024 -0.027947951
000050 88 d6 ce 3c e9 d7 cd bd b4 9c c1 bd c6 a8 e1 3a
       0.02524878 -0.10050947 -0.09453717 0.0017216436
000060 dc 23 9e bb ac 7f dd ba c8 ce a8 ba be 7f bc 3d
       -0.004826052 -0.0016899011 -0.0012879008 0.092040524
000070 60 09 bb bd 3f d0 1a 3b 1d 2f 9e 3d be 49 0a bd
       -0.091326475 0.002362266 0.0772383 -0.033761732
000080 9a 1c 41 bd c9 4e ac bd 79 20 d6 3d 11 ac b7 3b
       -0.047146417 -0.084134646 0.104554124 0.0056052287
000090 07 af 23 3d b7 29 d4 bd 87 35 98 bd 8b 46 5e ba
       0.03996184 -0.10359519 -0.074320845 -0.00084791397
0000a0 c0 57 97 3b 0e c8 fa 3d b4 95 81 3c 23 91 ca ba
       0.004618615 0.12245189 0.015818454 -0.0015454631
0000b0 dc c3 c4 3d 41 9b 92 3d 3b 14 91 bc 6a 14 a3 3d
       0.0960767 0.071585186 -0.017709842 0.07962878
0000c0 ba 21 97 ba 79 a3 74 bc 3a 87 b4 bc 20 6f 3d ba
       -0.0011530437 -0.014931553 -0.022037137 -0.0007226337
0000d0 25 07 ac 3b 82 bd 5f 3b 28 91 bb 3d 00 01 b4 bd
       0.005249875 0.0034140055 0.09158546 -0.08789253
0000e0 99 3e 55 bd 98 fd 8a 3d 0b 14 8f bd bf 84 de bc
       -0.05206165 0.067866504 -0.06986245 -0.027162908
0000f0 c9 65 a8 bd 29 83 ea 3d ab c4 e9 bc 35 1b 58 38
       -0.08222539 0.11450798 -0.028536161 5.152375e-05
000100 28 ad 74 3d 79 e8 dc 3d 16 ca af bd 8b 3e e0 ba
       0.059735447 0.10786528 -0.08583467 -0.0017108483
000110 cc ef c6 3c 5b ec fc 3d 3e 4b 51 bd 99 1f 65 ba
       0.024284266 0.12349769 -0.051097147 -0.0008740365
000120 ab cc eb bc 5f 12 67 3d f4 a7 9e bd 55 29 9d 3b
       -0.028784117 0.056414004 -0.07746878 0.004796187
000130 a8 f9 53 3d 26 3e c1 3c 16 ec c4 3d 65 a3 7d bd
       0.051751763 0.023589205 0.09615342 -0.061923403
000140 da a2 da bc d0 3d fa 3c 00 60 7c 3d ca 29 dc bc
       -0.026688982 0.030547053 0.06161499 -0.026875395
000150 2a f6 9a 3d 39 fb 97 bd b4 5b a8 bd 59 f0 91 b9
       0.07566483 -0.07420964 -0.08220616 -0.00027835628
000160 80 00 05 bd c1 30 c7 36 cd a8 41 3a cc 6b 7e 3b
       -0.03247118 5.936338e-06 0.0007387519 0.0038821576
000170 c5 6d f2 3d fa 15 91 ba f7 87 fb 3c 1f 93 42 bc
       0.11837343 -0.0011069172 0.030704482 -0.011875897
000180 e9 9c df bd f4 7f b8 bc 65 31 69 3d a8 f9 a2 3c
       -0.109186 -0.02252195 0.056931872 0.019894436
000190 bc b3 a2 bd 8f c2 d6 bc ad de 28 3c 2b 3d ca 3d
       -0.07944438 -0.02621582 0.010306996 0.09874948
0001a0 4d 97 1f 3d a7 c0 84 bc c6 26 0e 3c 0a ca 0f bd
       0.03896265 -0.016205145 0.0086762365 -0.03510479
0001b0 ae 4c 56 3c a4 6d 37 3c 46 f5 38 3d b1 76 54 bd
       0.013079805 0.011195574 0.045155786 -0.051871005
0001c0 1b 8f ff 3b b1 87 34 bc 60 b1 9e bd bf fc d6 3a
       0.007799042 -0.0110186795 -0.07748675 0.0016402229
0001d0 79 4a bb bd f6 83 23 3c 95 20 9f 3c bb c1 b5 bd
       -0.09145064 0.009980192 0.019424716 -0.08874842
0001e0 e4 4c a6 bd a7 44 71 3d 75 42 a6 bd 37 12 ee 3c
       -0.081201345 0.058903363 -0.081181444 0.02906142
0001f0 05 45 96 bd 78 00 9f bd f1 a1 d4 bb 0c a3 2a 3a
       -0.07337383 -0.07763761 -0.0064890315 0.0006509281

fc_out.bias f4 [2]
000000 36 a0 fc 3c 28 26 03 bc
       0.030838113 -0.008004703
