source/isaaclab_tasks/isaaclab_tasks/manager_based/klask/actuator_model/model_history_10_interval_0.02_delay_0.0_horizon3_with_states.pt (torch, 47816 bytes, 8 tensors)

fc1.weight f4 [64, 38]
0.010676911 -0.039482307 -0.013229748 -0.050569344 0.05048314 -0.012247479 0.0044497484 0.039438676
0.02660792 0.071588404 0.029877594 0.0180757 -0.019076098 0.01696415 -0.069844685 -0.059688307
0.030101802 -0.009266873 0.028872352 -0.016171154 0.35811266 -0.2652602 0.20420493 -0.075403824
0.0808171 -0.031011779 0.00216946 -0.03431592 -0.027328875 -0.094631486 0.07481369 -0.09744712
-0.054786537 -0.023516797 0.09691618 0.08031205 -0.14631295 -0.017746134 -0.12441679 0.004724151
-0.12002676 -0.079020545 0.05409061 0.008177422 0.05096805 -0.06028072 0.11932758 0.058682155
0.003830587 -0.03834186 -0.028315745 0.024545826 0.0013672146 -0.06669801 0.15270537 -0.078507684
-0.039013788 -0.08195007 -0.30490854 0.4032899 0.06866248 0.08730435 -0.081783116 0.03572577
0.036098126 -0.12542994 0.0817694 -0.12008151 0.010250216 0.055576853 0.01656211 0.15002842
0.17469667 0.1000611 0.018920066 -0.18202579 -0.0024396512 -0.0034670418 -0.02197248 0.008752403
0.0027482144 9.8636636e-05 -0.018360026 -0.007464043 -0.34966415 0.35905322 0.19596006 -0.1781729
0.059070162 -0.045677997 0.029131569 -0.027421016 0.019556958 0.005223296 0.009869597 0.01317196
-0.31555763 0.054121107 0.014758161 0.016673647 0.08168788 -0.24563986 0.104078755 0.046258427
-0.015064821 0.14495914 -0.0020466426 -0.12696624 0.03742287 -0.0037902647 -0.08909543 0.07240157
0.11789967 0.03281849 0.0014047193 0.009985751 -0.0010016988 -0.0038117229 0.012885163 -0.021083213
0.028948035 -0.013709853 -0.013947468 -0.013816004 -0.053450104 -0.05936009 0.14950667 0.23930353
-0.14746913 -0.15202633 -0.08958511 -0.055751033 -0.013029996 -0.022919158 0.31493613 -0.26335332
0.12755105 0.019171996 -0.012763866 0.06085168 -0.15146196 0.0537522 -0.054810528 -0.11022107
0.1483591 -0.184424 -0.122815035 0.08605178 -0.1625527 0.008943976 0.07058282 -0.051406305
-0.04251373 0.07951511 0.023775814 -0.11079432 0.0974737 -0.0067468537 0.012309094 -0.09525286
-0.11985326 0.05034095 0.19306578 0.0038286978 -0.070716575 0.042676985 -0.13391815 0.12993494
-0.015233639 -0.13063306 0.04101632 -0.030741457 -0.0033604193 0.08880541 -0.21702427 0.02994901
0.04423646 0.17107876 -0.028174395 0.104526065 -0.071651414 -0.041835867 -0.1317912 -0.08209082
-0.08718821 0.12553254 0.11621649 0.10969424 -0.041715823 0.108770646 0.066011675 -0.017718265
0.04675083 -0.017612912 -0.019322969 0.085198894 0.054523084 0.043568376 0.053631164 -0.07240937
0.116330735 -0.0055310894 0.19364434 0.10145487 0.14306994 0.117793635 0.041844796 0.0835794
0.04452379 -0.06717982 0.09402929 0.18585415 0.06605289 0.2461474 0.07945037 -0.031914357
-0.17391683 -0.19241019 -0.08592523 -0.16957907 -0.022827886 0.11448961 0.061470628 0.1305368
-0.12803212 -0.17184487 -0.015791511 -0.083713226 -0.02607852 0.0003790401 0.012352792 -0.007846931
0.012188241 -0.0155294 -0.017785624 -0.015048561 -0.016003348 0.004342607 -0.027999531 0.03017844
0.031923324 0.10054516 0.14592122 0.0848197 0.07421227 0.03864473 0.00012247892 0.027880643
0.4737123 0.117405295 0.25177857 0.10137829 0.055271406 -0.0827992 -0.17983863 0.06686003
00000000: 36ee 2e3c 33b8 21bd 96c1 58bc cd21 4fbd
00000010: 69c7 4e3d a6a9 48bc 32cf 913b 738a 213d
00000020: daf8 d93c f19c 923d dbc1 f43c 7e13 943c
00000030: 7a45 9cbc 67f8 8a3c bb0a 8fbd ba7b 74bd
00000040: 0e98 f63c 15d4 17bc b685 ec3c 5e79 84bc
00000050: 8b5a b73e 2fd0 87be 191b 513e 526d 9abd
00000060: 7083 a53d 6a0c febc 802d 0e3b da8e 0cbd
00000070: cee0 dfbc 27ce c1bd eb37 993d 5b92 c7bd
00000080: d967 60bd 4ca6 c0bc fd7b c63d a57a a43d
00000090: 10d3 15be 5760 91bc 3bce febd 0dcd 9a3b
000000a0: 97d0 f5bd 86d5 a1bd 1e8e 5d3d 98fa 053c
000000b0: e0c3 503d ebe8 76bd 0562 f43d b35c 703d
000000c0: 960a 7b3b 5b0c 1dbd 6cf6 e7bc 5414 c93c
000000d0: 1c34 b33a f798 88bd cc5e 1c3e a3c8 a0bd
000000e0: eccc 1fbd 70d5 a7bd f91c 9cbe 047c ce3e
000000f0: ea9e 8c3d a0cc b23d e87d a7bd 2f55 123d
00000100: a1db 133d b570 00be b776 a73d 4bed f5bd
00000110: 86f0 273c 8ea4 633d 43ad 873c 0da1 193e
00000120: afe3 323e d6ec cc3d 41fe 9a3c f864 3abe
00000130: 8ee2 1fbb 4f37 63bb a1ff b3bc 3d66 0f3c
00000140: 631b 343b 24db ce38 c467 96bc ee94 f4bb
00000150: 2e07 b3be d3d5 b73e c1a9 483e f572 36be
00000160: 8ef3 713d da18 3bbd 54a5 ee3c 0aa2 e0bc
00000170: ea35 a03c 2f28 ab3b 17b4 213c 34cf 573c
00000180: c590 a1be 18ae 5d3d 37cc 713c 2c97 883c
00000190: fa4b a73d 0489 7bbe 3e27 d53d 7a79 3d3d
000001a0: 70d2 76bc 2b70 143e f720 06bb 7003 02be
000001b0: b948 193d 1766 78bb aa77 b6bd 4647 943d
000001c0: 6275 f13d ae6c 063d 8f1e b83a 469b 233c
000001d0: 6f4b 83ba 19ce 79bb 4a1c 533c b4b6 acbc
000001e0: 6e24 ed3c 4b9f 60bc ec83 64bc 855c 62bc
000001f0: 7fee 5abd 9123 73bd 4718 193e fc0b 753e
00000200: 2602 17be caac 1bbe 6678 b7bd 325b 64bd
00000210: c47b 55bc f5c0 bbbc 4f3f a13e 3fd6 86be
00000220: be9c 023e 970e 9d3c 891f 51bc 9c3f 793d
00000230: d818 1bbe 442b 5c3d 0181 60bd 96bb e1bd
00000240: 73eb 173e a5d9 3cbe 7386 fbbd ea3b b03d
00000250: 3774 26be c189 123c ba8d 903d 6b8f 52bd
00000260: e022 2ebd d1d8 a23d 7fc5 c23c 22e8 e2bd
00000270: 4ba0 c73d b614 ddbb 15ac 493c ee13 c3bd
00000280: a075 f5bd 5032 4e3d 09b3 453e e4ea 7a3b
00000290: dad3 90bd 10ce 2e3d d721 09be aa0d 053e
000002a0: 8396 79bc acc4 05be bb00 283d 82d5 fbbc
000002b0: 7b3a 5cbb 9cdf b53d 9c3b 5ebe a057 f53c
000002c0: 4a31 353d 452f 2f3e fdcd e6bc c311 d63d
000002d0: fabd 92bd 165c 2bbd 46f4 06be 3b1f a8bd
000002e0: bb8f b2bd 9a8b 003e e902 ee3d 60a7 e03d
000002f0: 36de 2abd 25c3 de3d 2131 873d e525 91bc
00000300: cc7d 3f3d f448 90bc 344b 9ebc c27c ae3d
00000310: 9953 5f3d c174 323d 5aac 5b3d 5d4b 94bd
00000320: cf3e ee3d 243e b5bb b44a 463e 92c7 cf3d
00000330: ed80 123e ca3d f13d 7365 2b3d ad2b ab3d
00000340: 945e 363d 9395 89bd 6e92 c03d 8d50 3e3e
00000350: bd46 873d 100e 7c3e e0b6 a23d a1b8 02bd
00000360: 4117 32be 2d07 45be 91f9 afbd 23a6 2dbe
00000370: 8c01 bbbc 8779 ea3d a0c8 7b3d 70ab 053e
00000380: da1a 03be 1af8 2fbe 335d 81bc d771 abbd
00000390: 9fa2 d5bc e7b9 c639 5d63 4a3c 6a90 00bc
000003a0: 30b1 473c 066f 7ebc 28b3 91bc 3d8e 76bc
000003b0: 7419 83bc 6e4c 8e3b 465f e5bc c738 f73c
000003c0: 08c2 023d 9fea cd3d 5f6c 153e f3b5 ad3d
000003d0: 9afc 973d f049 1e3d af6d 0039 f265 e43c
000003e0: 6b8a f23e 3072 f03d 1fe9 803e 6c9f cf3d
000003f0: 4564 623d a192 a9bd 9e27 38be e9ed 883d

fc1.bias f4 [64]
-0.07683381 0.08099972 -0.012032745 -0.044314224 0.048331182 0.036600765 0.019812344 0.14465886
-0.07474365 0.14104402 -0.05136149 -0.14732482 -0.12376513 0.0074638664 0.15988739 -0.094097346
0.021491388 0.0632127 0.06436764 0.07351293 0.1315114 -0.041018352 -0.0006477897 -0.0020256336
0.07951698 -0.08459885 0.08504619 -0.12741145 -0.11009186 0.015433706 -0.08254439 0.09778595
-0.047172662 -0.013588092 -0.03654985 -0.09611303 -0.011382145 -0.11477062 -0.02458853 0.0842012
-0.00024069697 -0.059987176 -0.03508996 -0.03186041 0.012897966 -0.041972205 0.096824706 -0.019597191
0.059996832 -0.020920722 -0.095961906 -0.08504368 0.117171824 -0.06515827 -0.10524005 0.01319099
0.11936918 -0.08959524 -0.04231804 0.05387453 0.0677167 0.023249978 -0.10949086 0.048751067
00000000: 0b5b 9dbd 2ee3 a53d fe24 45bc d582 35bd
00000010: ebf6 453d afea 153d 7f4d a23c 7421 143e
00000020: 3313 99bd d86d 103e 6d60 52bd 51dc 16be
00000030: 9378 fdbd 7393 f43b 85b9 233e 1cb6 c0bd
00000040: b50e b03c a975 813d 2ed3 833d f28d 963d
00000050: edaa 063e dc02 28bd 6ed0 29ba 7ec0 04bb
00000060: ccd9 a23d 2942 adbd b22c ae3d 2678 02be
00000070: d777 e1bd a8dd 7c3c 080d a9bd 0044 c83d
00000080: 1f38 41bd 97a0 5ebc 4cb5 15bd e9d6 c4bd
00000090: 2d7c 3abc dc0c ebbd e36d c9bc ae71 ac3d
000000a0: 9a63 7cb9 1db5 75bd 7dba 0fbd 1080 02bd
000000b0: fe51 533c 0ceb 2bbd 084c c63d 4a8a a0bc
000000c0: 3dbf 753d ef61 abbc ad87 c4bd 622b aebd
000000d0: c8f7 ef3d b371 85bd 1888 d7bd 061f 583c
000000e0: d477 f43d b67d b7bd ae55 2dbd 8aab 5c3d
000000f0: 0eaf 8a3d bd76 be3c be3c e0bd 33af 473d

fc2.weight f4 [64, 64]
0.102540486 -0.053562976 0.10879221 0.14725661 0.15018393 0.010750833 0.05735596 -0.045516983
0.027211173 0.032266036 -0.0426569 0.11302935 0.057519756 -0.038679663 0.067324914 -0.039586842
0.20965558 -0.04903062 -0.016720822 -0.10331073 -0.037979435 0.028663898 0.042753525 0.0012282999
0.03744748 -0.034633525 0.057112865 0.019055909 0.10544238 0.08158225 -0.11323553 0.10997763
-0.028268222 0.043624297 0.0630456 -0.028704284 0.06572974 0.042416617 0.06354835 -0.08581769
-0.22628042 0.0508211 -0.11659777 0.09946157 -0.06422232 -0.037643995 -0.012564815 0.02061876
-0.01280292 0.16587111 -0.08628998 0.16938867 -0.024919555 0.0031779003 -0.083183244 0.023726687
-0.07285789 -0.10368308 -0.026499068 0.043036826 0.12480066 0.06157156 -0.09954834 -0.0510737
-0.0039284653 -0.13610348 -0.033569217 0.04810379 0.0036319783 -0.017178155 -0.022001974 -0.022538505
-0.07045094 0.07915553 0.11095388 0.094402865 -0.09509366 0.07067617 0.10792746 0.10708512
-0.038792916 -0.087021545 -0.0682305 0.09243144 -0.111141145 -0.07575737 -0.021031301 -0.1118082
-0.0014218972 0.03602838 0.036926117 -0.016769394 -0.051052548 0.032485235 0.04935445 0.0029942761
0.042781297 0.12716788 0.089382075 -0.029665563 0.07468037 -0.08050591 0.04114518 0.06275017
-0.13833489 0.13795868 0.08576892 -6.66557e-05 0.121813156 0.056252968 0.07531518 0.092920735
-0.044449434 -0.064432405 -0.04483204 -0.11639171 0.082004376 0.025386373 -0.044165213 -0.03704616
-0.0032083953 0.030646404 -0.09427437 0.06530719 0.0069224373 0.080478355 0.025194125 -0.052856613
-0.0009979063 -0.032470684 0.14630005 -0.075324595 -0.09350041 0.1205757 -0.13718694 -0.10082954
0.08345792 0.08275226 -0.12081345 0.04007784 0.123579085 -0.08732301 -0.12033592 -0.12090058
-0.09866168 0.106142856 -0.058568507 0.05797458 0.03766848 -0.03187717 0.09882338 0.033184215
0.10054484 0.023859283 0.015906742 0.0060712965 0.0013492523 0.08620123 0.08089679 0.07973692
0.04291514 0.012069433 0.06294731 0.022539467 0.06941172 0.0103222905 -0.08670217 0.06555996
0.040454023 -0.08689094 -0.11041304 0.08027513 0.02676615 -0.037712567 -0.08266911 -0.15013802
-0.098661914 -0.048354007 0.047283042 0.072423026 -0.06293712 -0.1324961 -0.06680555 0.031611215
-0.09481146 0.11369323 0.03380942 0.0983828 -0.075030014 0.012134624 -0.052491434 0.0028676882
-0.06161252 0.13391934 0.065544024 -0.011827881 0.03776507 0.0050460966 0.035218123 0.089987814
0.038803276 0.119391374 0.017769491 0.052549515 0.07265453 -0.11803697 -0.10511405 0.047305595
-0.09755006 0.027997877 -0.11080372 0.08188399 -0.10253037 -0.066023156 -0.09347464 -0.029497951
-0.07412155 0.07624322 0.09135019 -0.065923296 0.13795607 0.069402084 -0.05227945 -0.03986432
0.08443037 -0.17079231 -0.0928395 0.09710172 -0.11656253 -0.021424234 0.063367546 0.07667779
0.05217286 0.078019574 -0.10010987 8.9289184e-05 -0.035715807 -0.015980594 0.056516197 0.08994374
-0.17554927 0.13094486 -0.027221909 0.03325235 -0.07672386 0.07904584 -0.08122379 -0.10094985
0.08371459 0.010406785 -0.046628285 0.04967578 0.04324206 0.0066412007 -0.07441489 0.032868396
00000000: bf00 d23d da64 5bbd 73ce de3d 70ca 163e
00000010: d1c9 193e 4324 303c 15ee 6a3d 0470 3abd
00000020: f7e9 de3c 6429 043d 00b9 2ebd ef7b e73d
00000030: d699 6b3d 916e 1ebd a5e1 893d d025 22bd
00000040: f4af 563e 55d4 48bd 1bfa 88bc 9394 d3bd
00000050: 5390 1bbd 8dd0 ea3c 521e 2f3d e8fe a03a
00000060: 8762 193d e2db 0dbd 2eef 693d 231b 9c3c
00000070: 2df2 d73d 9814 a73d 08e8 e7bd f43b e13d
00000080: c292 e7bc 64af 323d 0d1e 813d 3f25 ebbc
00000090: 509d 863d 0cbd 2d3d a325 823d 2fc1 afbd
000000a0: 0eb6 67be c929 503d d0ca eebd 82b2 cb3d
000000b0: fe86 83bd 9730 1abd a7dc 4dbc ace8 a83c
000000c0: 57c3 51bc 1eda 293e cdb8 b0bd 3974 2d3e
000000d0: 1824 ccbc 5244 503b fa5b aabd 785e c23c
000000e0: 8436 95bd cb57 d4bd 9314 d9bc 6247 303d
000000f0: 7d97 ff3d 7632 7c3d 00e0 cbbd a832 51bd
00000100: 5bba 80bb b65e 0bbe e07f 09bd 7b08 453d
00000110: 7c06 6e3b 34b9 8cbc 7c3d b4bc aca2 b8bc
00000120: 9548 90bd 4b1c a23d ca3b e33d 4a56 c13d
00000130: 77c0 c2bd abbe 903d 1209 dd3d 724f db3d
00000140: 52e5 1ebd 5a38 b2bd 6fbc 8bbd b24c bd3d
00000150: f89d e3bd ae26 9bbd d649 acbc b3fb e4bd
00000160: f45e baba 7f92 133d d73f 173d f85f 89bc
00000170: 7a1c 51bd 3d0f 053d e427 4a3d 9e3b 443b
00000180: 713b 2f3d 4c38 023e f30d b73d 3205 f3bc
00000190: 06f2 983d 48e0 a4bd d987 283d 2983 803d
000001a0: a9a7 0dbe 0a45 0d3e 9ea7 af3d 82c9 8bb8
000001b0: 2d79 f93d 8369 663d d83e 9a3d 3a4d be3d
000001c0: 9c10 36bd 23f5 83bd cda1 37bd c75e eebd
000001d0: e9f1 a73d 15f7 cf3c 95e6 34bd b7bd 17bd
000001e0: f143 52bb 2b0e fb3c ec12 c1bd c7bf 853d
000001f0: 9dd5 e23b d6d1 a43d e963 ce3c 2d80 58bd
00000200: 2ecc 82ba fbff 04bd aecf 153e c843 9abd
00000210: 257d bfbd 65f0 f63d bc7a 0cbe b87f cebd
00000220: fceb aa3d 047a a93d 0b6d f7bd a928 243d
00000230: 0817 fd3d 68d6 b2bd ae72 f6bd b99a f7bd
00000240: 230f cabd 6d61 d93d 88e5 6fbd c176 6d3d
00000250: 444a 1a3d a391 02bd ea63 ca3d 2cec 073d
00000260: 74ea cd3d 8b74 c33c db4e 823c baf1 c63b
00000270: 65d9 b03a 458a b03d 37ad a53d 1c4d a33d
00000280: c9c7 2f3d dfbe 453c 85ea 803d b0a4 b83c
00000290: bb27 8e3d d31e 293c e890 b1bd 4d44 863d
000002a0: 1eb3 253d e1f3 b1bd 3b20 e2bd 4a67 a43d
000002b0: af44 db3c 7e78 1abd 6c4e a9bd c8bd 19be
000002c0: 420f cabd da0e 46bd ddab 413d 8652 943d
000002d0: 2de5 80bd 0fad 07be 59d1 88bd c37a 013d
000002e0: 832c c2bd ffd7 e83d bf7b 0a3d ec7c c93d
000002f0: 56a9 99bd 4dd0 463c 4201 57bd d3ef 3b3b
00000300: 695d 7cbd 2722 093e f23b 863d bbc9 41bc
00000310: 8caf 1a3d ba59 a53b e140 103d 884b b83d
00000320: 2ff0 1e3d 7783 f43d 5391 913c 293e 573d
00000330: e6cb 943d 5ebd f1bd 0946 d7bd 83c3 413d
00000340: 53c8 c7bd ce5b e53c 10ed e2bd cbb2 a73d
00000350: 71fb d1bd 2637 87bd a26f bfbd b0a5 f1bc
00000360: 0acd 97bd 6825 9c3d cf15 bb3d cb02 87bd
00000370: 5b44 0d3e ae22 8e3d fa22 56bd c548 23bd
00000380: d4e9 ac3d 2ee4 2ebe a322 bebd 44dd c63d
00000390: 56b8 eebd e081 afbc d8c6 813d 3f09 9d3d
000003a0: 35b3 553d bac8 9f3d 6706 cdbd c440 bb38
000003b0: bd4a 12bd bce9 82bc 877d 673d 6c34 b83d
000003c0: 30c3 33be 6916 063e 7b00 dfbc 9e33 083d
000003d0: 6621 9dbd c9e2 a13d a958 a6bd ccbe cebd
000003e0: 8e72 ab3d 3881 2a3c 4dfd 3ebd d578 4b3d
000003f0: 961e 313d 6e9e d93b d566 98bd 03a1 063d

fc2.bias f4 [64]
0.004157416 -0.01415959 -0.0068355897 -0.015150349 0.06755367 0.05670777 -0.054223385 0.066034205
-0.11074145 0.008448814 -0.0809697 0.10189588 -0.044660296 0.063204266 0.053844098 -0.07111213
0.026127791 -0.08879802 0.060483564 0.08125508 -0.04282623 0.043296963 0.025382128 -0.04860821
0.07714951 0.045932684 -0.076047726 -0.07137574 -0.06412688 -0.012112265 -0.007936829 -0.094652034
0.035041343 0.063704096 -0.035294432 0.04763561 -0.07526077 -0.023772918 -0.030663887 -0.02893415
0.02123796 0.037274987 0.050798163 -0.11492616 -0.0817277 -0.014960394 0.09298323 -0.04158614
-0.09234433 0.04933994 -0.026156886 0.10393919 0.01555177 -0.093831204 0.022300458 -0.076848805
0.00038590902 0.020340532 -0.061037105 0.018619845 0.06642755 -0.046509113 -0.021700434 -0.10652658
00000000: ef3a 883b a0fd 67bc 15fd dfbb 2b39 78bc
00000010: 9459 8a3d 6846 683d 5719 5ebd f13c 873d
00000020: 6acc e2bd e56c 0a3c 71d3 a5bd caae d03d
00000030: b7ed 36bd 3d71 813d a18b 5c3d 3da3 91bd
00000040: f309 d63c bcdb b5bd 9dbd 773d 1069 a63d
00000050: 8f6a 2fbd 2858 313d 2eee cf3c 6719 47bd
00000060: 9000 9e3d e923 3c3d e9be 9bbd 722d 92bd
00000070: f454 83bd 8672 46bc 7909 02bc edd8 c1bd
00000080: 8387 0f3d 4b77 823d e590 10bd 8f1d 433d
00000090: 5222 9abd 6cbf c2bc d532 fbbc 4f07 edbc
000000a0: 3bfb ad3c a8ad 183d bc11 503d 685e ebbd
000000b0: da60 a7bd 711c 75bc fe6d be3d 3a56 2abd
000000c0: 061f bdbd ad18 4a3d f746 d6bc 12de d43d
000000d0: dacc 7e3c 932a c0bd 73af b63c e862 9dbd
000000e0: d553 ca39 30a1 a63c 0b02 7abd a588 983c
000000f0: 2b0b 883d 5780 3ebd 1cc5 b1bc 9c2a dabd

fc3.weight f4 [64, 64]
0.009254196 -0.023555087 0.04358103 -0.062245794 0.12335074 -0.09076642 -0.012668108 0.07532312
-0.06813928 -0.108026855 0.17118023 -0.062849365 0.07621625 0.0904966 0.09214773 -0.045564774
0.00054948 -0.04113719 0.019016495 -0.04737816 -0.066356264 -0.00081276294 0.07861932 0.0640434
0.060367886 0.07833148 0.06983533 -0.056692008 0.025643656 -0.039284572 -0.071112424 -0.06366041
0.063734464 0.038881797 0.11294623 -0.09572296 0.06335818 -0.1447393 -0.06956202 -0.06856828
-0.105154544 0.055968955 0.15277159 -0.032862253 0.10121833 -0.061890475 0.06861026 0.043441996
-0.02168932 0.12550142 -0.033233084 -0.042942036 -0.013360922 -0.079679936 -0.03719156 -0.02862544
-0.031979036 0.08900821 0.13782719 -0.03506985 -0.110615894 0.003547059 0.08131715 0.041436706
-0.12566558 -0.03785917 0.025982546 0.03294058 0.028398432 0.041039594 0.095707044 -0.019567141
0.0842745 -0.06935679 0.05259652 0.03272588 -0.012339217 -0.03600816 -0.1300142 -0.054573372
0.07916734 0.009673851 -0.061269592 0.024491737 0.0692934 0.045438047 -0.11832916 0.049438495
-0.048562016 -0.0709136 0.12800007 0.027562484 0.057046622 0.059476253 -0.10628811 -0.03285622
0.058643367 -0.05541034 0.044472028 -0.002686656 -0.045511305 0.044301156 0.07766304 -0.094320275
-0.033083152 -0.05551948 -0.10508424 -0.06937928 -0.018115941 0.00479232 -0.069556125 0.07627318
-0.11394084 0.07268971 -0.0514145 -0.013514506 -0.101499945 -0.053801153 -0.10756068 0.01338164
0.09773972 -0.03442163 -0.07916696 -0.1054908 0.060237322 -0.04060041 -0.14467965 -0.10952061
-0.02816034 0.0017625664 0.017779099 0.022958769 0.09090985 0.049705677 -0.06543635 -0.11826847
-0.11954995 0.09590721 -0.19019943 -0.11087914 -0.01741505 -0.112132914 -0.084060416 -0.05131446
0.076567456 -0.13353786 0.009163701 0.016212504 -0.10569716 -0.020021098 0.0065761097 0.111315615
0.09012484 -0.1586682 0.06253374 0.016820267 0.0011384842 0.05489964 0.050774187 0.037398987
-0.002820168 0.13259017 -0.046151858 -0.06470931 -0.0942829 0.10339146 0.06071485 -0.002303557
-0.06689341 0.07528173 -0.091931194 0.0046114274 -0.041204013 -9.549988e-05 0.041747976 0.10709973
-0.102244504 0.006914023 0.008921605 -0.11815122 0.029947512 -0.079982825 -0.06472384 -0.047808845
0.13368118 0.052610196 0.045270182 -0.11640021 -0.12263244 -0.052025117 -0.011041574 0.102058284
-0.007841987 0.06466319 0.039163653 -0.067566514 -0.029687032 -0.016632946 0.11842861 -0.12896816
-0.037152346 -0.11625275 0.009204991 -0.12122321 0.07721347 0.012262202 0.046241168 0.033421837
-0.008524415 0.0941403 -0.089540355 0.051175073 0.01794923 0.017155344 0.044341415 0.11362303
0.014329391 -0.0147507 -0.06141532 0.08022684 -0.06991732 0.07762783 -0.11005594 0.083736524
0.07017622 0.06473926 -0.067163974 -0.041739795 0.014259772 0.07769314 -0.0020449003 -0.07897525
0.052577894 -0.009599185 0.0028482443 -0.049249247 -0.08796995 0.10895042 0.16500153 0.04051095
0.104445636 0.088038616 0.0096548 0.091964506 0.027596096 -0.08607226 0.08739392 -0.048055384
0.025020577 -0.04759874 -0.09697931 0.046445414 0.078983046 -0.09119289 0.024241304 0.09204283
00000000: e99e 173c 99f6 c0bc 0682 323d 72f5 7ebd
00000010: 509f fc3d bfe3 b9bd e58d 4fbc 0243 9a3d
00000020: 9b8c 8bbd 2f3d ddbd df49 2f3e 2bb7 80bd
00000030: 4417 9c3d 4856 b93d f3b7 bc3d 21a2 3abd
00000040: fb0a 103a 787f 28bd 7bc8 9b3c 9a0f 42bd
00000050: cbe5 87bd 990f 55ba 2b03 a13d 3029 833d
00000060: 5144 773d 416c a03d d305 8f3d e135 68bd
00000070: a512 d23c dce8 20bd 64a3 91bd 6460 82bd
00000080: 3787 823d 8542 1f3d 5a50 e73d 660a c4bd
00000090: efc1 813d 8a36 14be 8876 8ebd 876d 8cbd
000000a0: 445b d7bd b43f 653d 2870 1c3e 929a 06bd
000000b0: 8e4b cf3d de80 7dbd 8983 8c3d 3cf0 313d
000000c0: cdad b1bc 7283 003e 6a1f 08bd fde3 2fbd
000000d0: c5e7 5abc 3c2f a3bd 2d56 18bd e67f eabc
000000e0: 73fc 02bd f049 b63d 9222 0d3e 67a5 0fbd
000000f0: 968a e2bd c675 683b 9b89 a63d 89b9 293d
00000100: 7aae 00be 3812 1bbd 59d9 d43c b4ec 063d
00000110: d4a3 e83c 2219 283d 0e02 c43d 454b a0bc
00000120: 1c98 ac3d ef0a 8ebd 736f 573d 930b 063d
00000130: 6d2a 4abc 4b7d 13bd 7122 05be 5488 5fbd
00000140: 7d22 a23d 127f 1e3c d3f5 7abd e5a2 c83c
00000150: b3e9 8d3d 3f1d 3a3d 8f56 f2bd 0580 4a3d
00000160: f7e8 46bd 263b 91bd 7312 033e b8ca e13c
00000170: b8a9 693d 5f9d 733d 95ad d9bd 3e94 06bd
00000180: 0734 703d f4f5 62bd 4d28 363d 9c12 30bb
00000190: 106a 3abd 2175 353d cd0d 9f3d fd2a c1bd
000001a0: 3382 07bd 6568 63bd 6836 d7bd b916 8ebd
000001b0: e267 94bc e508 9d3b 7173 8ebd 1d35 9c3d
000001c0: d159 e9bd 58de 943d 0398 52bd f26b 5dbc
000001d0: 34df cfbd 995e 5cbd c648 dcbd ab3e 5b3c
000001e0: c32b c83d b2fd 0cbd 4a22 a2bd 900b d8bd
000001f0: 69bb 763d 9e4c 26bd e726 14be 574c e0bd
00000200: 83b0 e6bc ea05 e73a 79a5 913c 0714 bc3c
00000210: f22e ba3d 2e98 4b3d 7e03 86bd bd36 f2bd
00000220: 9bd6 f4bd 006b c43d a4c3 42be 9a14 e3bd
00000230: 02aa 8ebc f1a5 e5bd de27 acbd 1c2f 52bd
00000240: 66cf 9c3d 26be 08be 5923 163c 16d0 843c
00000250: c177 d8bd 4903 a4bc 687c d73b 71f9 e33d
00000260: 5f93 b83d eb79 22be b111 803d a8ca 893c
00000270: 3139 953a 72de 603d 98f8 4f3d ae2f 193d
00000280: 91d2 38bb b8c5 073e bb09 3dbd 5186 84bd
00000290: 6517 c1bd e7be d33d 22b0 783d 46f7 16bb
000002a0: 6aff 88bd 4f2d 9a3d 6c46 bcbd 751b 973b
000002b0: 8ac5 28bd 1c47 c8b8 edff 2a3d 1a57 db3d
000002c0: 9165 d1bd 078f e23b ec2b 123c 44f9 f1bd
000002d0: 7c54 f53c 09ce a3bd ef8d 84bd 35d3 43bd
000002e0: b8e3 083e ca7d 573d 3a6d 393d 3c63 eebd
000002f0: b726 fbbd 4a18 55bd b8e7 34bc ef03 d13d
00000300: ad7b 00bc 226e 843d 116a 203d 5060 8abd
00000310: 3832 f3bc d141 88bc b38a f23d 3b10 04be
00000320: 0f2d 18bd ec15 eebd 88d0 163c e043 f8bd
00000330: 1922 9e3d 67e7 483c 6167 3d3d 56e5 083d
00000340: fda9 0bbc a1cc c03d ef60 b7bd f49c 513d
00000350: 430a 933c 5d89 8c3c 589f 353d 31b3 e83d
00000360: d2c5 6a3c ecac 71bc a18e 7bbd f84d a43d
00000370: d030 8fbd 57fb 9e3d 0265 e1bd 0e7e ab3d
00000380: 8db8 8f3d 0496 843d 448d 89bd 59f7 2abd
00000390: d2a1 693c 951d 9f3d bc03 06bb c7bd a1bd
000003a0: eb5b 573d e645 1dbc 9ca9 3a3b 94b9 49bd
000003b0: 9729 b4bd 6621 df3d 29f6 283e cfee 253d
000003c0: 98e7 d53d 974d b43d 2b2f 1e3c e357 bc3d
000003d0: 3511 e23c a746 b0bd 95fb b23d b9d5 44bd
000003e0: f4f7 cc3c e5f6 42bd 179d c6bd 8c3d 3e3d
000003f0: ddc1 a13d 57c3 babd b395 c63c f480 bc3d

fc3.bias f4 [64]
-0.070923224 0.1119444 -0.11586582 0.08764541 -0.024687696 -0.115012296 0.024044607 0.044407386
-0.1143083 0.11936139 0.072730646 0.014307661 -0.10257909 0.078047454 0.09461148 0.11170727
0.061658427 0.012948431 -0.09671325 0.054292586 -0.031609725 0.045588978 -0.098805726 0.05883965
-0.042822845 0.12136831 0.07660057 -0.07161096 -0.036443997 -0.07246449 0.10825649 -0.010440291
-0.002928631 0.032280296 -0.088285804 0.11198098 0.08184188 -0.10698686 -0.070814416 -0.033953536
0.054057177 0.07775809 -0.0014948727 -0.09111324 0.053204592 -0.044669237 0.11263879 0.014996757
0.11717726 0.03055902 -0.04024962 -0.09744096 0.11301226 -0.091654226 -0.015036396 0.07956386
-0.037395597 0.04208831 0.019774659 -0.070090055 -0.1025946 -0.047042333 0.09585653 0.073900305
00000000: 3240 91bd 1b43 e53d 0f4b edbd 707f b33d
00000010: da3d cabc 918b ebbd 32f9 c43c 85e4 353d
00000020: 781a eabd bf73 f43d cef3 943d ae6a 6a3c
00000030: fc14 d2bd 58d7 9f3d aac3 c13d c8c6 e43d
00000040: 8c8d 7c3d a825 543c 9911 c6bd e761 5e3d
00000050: 3379 01bd 82bb 3a3d a85a cabd d801 713d
00000060: 0267 2fbd f38f f83d c2e0 9c3d c4a8 92bd
00000070: 4d46 15bd 4368 94bd 94b5 dd3d c10d 2bbc
00000080: 46ee 3fbb 5838 043d 30cf b4bd 4956 e53d
00000090: b79c a73d ed1b dbbd 2607 91bd dd12 0bbd
000000a0: 0f6b 5d3d a23f 9f3d 9bef c3ba 9499 babd
000000b0: 0fed 593d 17f7 36bd 2aaf e63d f5b4 753c
000000c0: a2fa ef3d e956 fa3c c9dc 24bd 208f c7bd
000000d0: f972 e73d 36b5 bbbd 375b 76bc 61f2 a23d
000000e0: 202c 19bd cb64 2c3d 77fe a13c 608b 8fbd
000000f0: 1e1d d2bd 76af 40bd 6e50 c43d 0b59 973d

fc_out.weight f4 [2, 64]
0.07504454 -0.07918701 -0.07964531 -0.025317824 0.034876995 0.120949075 0.10920042 0.071192816
0.11403804 -0.012463505 -0.03510924 0.023785511 0.09835718 0.102337904 -0.04122949 -0.047339942
0.035961583 -0.07894632 -0.12347941 -0.0533509 -0.11605548 0.022239853 -0.031854864 -0.022250745
0.023027489 0.12758516 0.047991525 0.053081844 -0.053679805 0.066603005 0.08560752 -0.012214815
-0.07286485 0.11996869 0.049397293 0.010057323 0.12797062 0.08347606 -0.02881563 -0.10041663
0.036858417 -0.1076138 -0.0032502704 0.026933096 -0.01734472 -0.039976757 0.076774925 -0.029772285
-0.074300766 -0.1090824 0.10926057 -0.08707866 0.06972131 0.074958555 0.043474447 -0.08668238
0.056046855 -0.0398993 -0.031985994 -0.03714095 -0.082261935 -0.010584746 -0.05583883 -0.10307455
-0.0072396374 0.001760768 0.012464208 0.016258392 -0.06652506 0.059604034 -0.08239329 0.10303459
0.10291 -0.030213937 0.009238449 0.124553174 0.0686811 -0.02996998 0.07742043 0.05575452
0.049132884 -0.12563738 0.09425926 -0.07431278 0.08691538 -0.1442438 -0.007532961 0.08074574
0.05783988 0.07251805 -0.04534521 -0.026981805 -0.110298574 0.041603692 0.007016824 0.007537443
0.089764886 -0.023965407 -0.02928775 0.010310756 0.06383437 0.03347735 0.09742433 0.013207827
0.06792617 0.041145194 -0.022484781 -0.08713448 0.01701087 -0.13042292 0.06895972 0.12282387
0.07079809 0.04164356 -0.072138764 0.042266615 0.06377357 0.054518487 -0.055841077 -0.11188889
-0.11047315 0.08076483 0.02075213 -0.037334085 0.04138586 -0.116086215 -0.023504376 0.02021617
00000000: f4b0 993d cd2c a2bd 151d a3bd 5367 cfbc
00000010: 2edb 0e3d 26b4 f73d 78a4 df3d 8acd 913d
00000020: c78c e93d bb33 4cbc b5ce 0fbd d5d9 c23c
00000030: 7d6f c93d 8996 d13d 41e0 28bd 87e7 41bd
00000040: 744c 133d 9cae a1bd c6e2 fcbd 7986 5abd
00000050: 7fae edbd 5a30 b63c 3f7a 02bd 3247 b6bc
00000060: 25a4 bc3c afa5 023e c392 443d 596c 593d
00000070: 5bdf 5bbd 2867 883d ff52 af3d a620 48bc
00000080: 2b3a 95bd 25b2 f53d d154 4a3d 78c7 243c
00000090: bb0a 033e 7ff5 aa3d c20e ecbc 3ca7 cdbd
000000a0: daf8 163d a064 dcbd 7d02 55bb cca2 dc3c
000000b0: 8416 8ebc abbe 23bd 2c3c 9d3d 02e5 f3bc
000000c0: 002b 98bd 9866 dfbd 01c4 df3d 4c56 b2bd
000000d0: 0cca 8e3d df83 993d 4312 323d 8886 b1bd
000000e0: 6391 653d 736d 23bd bf03 03bd 1c21 18bd
000000f0: f278 a8bd a46b 2dbc 42b7 64bd c018 d3bd
00000100: 7b3a edbb 92c9 e63a ad36 4c3c 5230 853c
00000110: 4a3e 88bd 5c23 743d d0bd a8bd cd03 d33d
00000120: 7ac2 d23d 3883 f7bc dd5c 173c bc15 ff3d
00000130: ada8 8c3d 9a83 f5bc 9a8e 9e3d da5e 643d
00000140: 903f 493d 16a7 00be 000b c13d 4c31 98bd
00000150: b100 b23d a6b4 13be 0fd7 f6bb 065e a53d
00000160: 83e9 6c3d 5884 943d e6bb 39bd f208 ddbc
00000170: 38e4 e1bd a268 2a3d 63ed e53b a8fc f63b
00000180: a7d6 b73d 1a53 c4bc ddec efbc 72ee 283c
00000190: 98bb 823d 8c1f 093d 6886 c73d a465 583c
000001a0: e01c 8b3d dd87 283d 0132 b8bc 9073 b2bd
000001b0: 615a 8b3c 968d 05be c13a 8d3d 158b fb3d
000001c0: 97fe 903d 7092 2a3d 7dbd 93bd c21f 2d3d
000001d0: b89b 823d c74e 5f3d 9db9 64bd 0126 e5bd
000001e0: bf3f e2bd 0868 a53d 5f00 aa3c a0eb 18bd
000001f0: 3884 293d 9cbe edbd 408c c0bc 629c a53c

fc_out.bias f4 [2]
0.007907262 -0.024545472
00000000: 768d 013c 9613 c9bc
