source/isaaclab_tasks/isaaclab_tasks/manager_based/klask/actuator_model/model_history_10_interval_0.02_delay_0.0_horizon_10_with_states.pt (torch, 47644 bytes, 8 tensors)

fc1.weight f4 [64, 38]
0	0x3d8a359d	0.06748507
1	0x3d04e944	0.032449022
2	0xbc78c978	-0.015184753
3	0x3e28b691	0.16475894
4	0x3d46fb46	0.048579477
5	0x3da2b736	0.07945101
6	0x3dad75b9	0.084697194
7	0x3e09e128	0.13464797
8	0xbda13b56	-0.078726456
9	0xbd806f4e	-0.0627123
10	0x3db1f06f	0.08688437
11	0xbe1a98d2	-0.15097359
12	0xbd625a49	-0.055261884
13	0xbd06e354	-0.03293164
14	0xbe04f264	-0.1298309
15	0x3da0e32f	0.07855832
16	0xbd5f008d	-0.054443885
17	0x3d42c6d9	0.047552917
18	0xbe0e3c59	-0.13890208
19	0xbd5ad59d	-0.053426374
20	0x3ecd4bdc	0.4009694
21	0x3c6f951c	0.014622953
22	0x3e9690b2	0.2940727
23	0x3d51a940	0.0511868
24	0x3e7d1ace	0.24717256
25	0xbe0d1cf3	-0.13780575
26	0x3d3a80c3	0.045532953
27	0x3e0a776e	0.13522121
28	0x3c29c9b1	0.010363028
29	0xbdab64e5	-0.083688535
30	0xbdff658b	-0.1247054
31	0x3e287dd2	0.16454247
32	0x3ce0dadb	0.027448108
33	0x3e43ebbf	0.19132899
34	0x3cc78706	0.024356376
35	0x3dfca321	0.12335802
36	0xbd236766	-0.03989353
37	0x3e3b7ba1	0.1830888
38	0x3df04ca4	0.11733368
39	0xbd845096	-0.06460683
40	0xbdabdf1f	-0.08392166
41	0x3dc084a8	0.09400302
42	0xbd8e3afc	-0.06944844
43	0xbd8d40d2	-0.06897129
44	0x3d4ab765	0.049491305
45	0x3e05e194	0.13074332
46	0x3dad46b7	0.084607534
47	0x3dadca7d	0.08485887
48	0xbe0c0c54	-0.13676578
49	0xbdff9890	-0.12480271
50	0xbdf3cf41	-0.11904765
51	0xbd97eb55	-0.07417933
52	0x3e1a23d1	0.15052725
53	0x3d82d5de	0.06388448
54	0x3da88866	0.08229141
55	0x3e10e68b	0.14150445
56	0x3d8fb418	0.07016772
57	0x3e0c5b17	0.13706623
58	0xbea39898	-0.31952357
59	0xbdaae7ed	-0.083450176
60	0xbdb1ef03	-0.08688166
61	0x3dbfdbac	0.09368071
62	0xbd1be816	-0.03806313
63	0xbe1b4c55	-0.15165837
64	0x3c8b370f	0.016994027
65	0xbc464b59	-0.012102925
66	0x3ce0e323	0.027452057
67	0xbd03e9d9	-0.032205436
68	0xbd56022c	-0.052248165
69	0xbb2f75f0	-0.0026773177
70	0xbd9dbede	-0.07702421
71	0x3e500f71	0.2031839
72	0xbac7d9da	-0.001524742
73	0x3e49eac2	0.19718459
74	0xbcba1e42	-0.022719506
75	0x3db05cf1	0.08611477
76	0xbdc38f95	-0.095488705
77	0xbdea754b	-0.11448153
78	0x3d46418f	0.048402365
79	0x3d645716	0.055747114
80	0xbd1e2f27	-0.038619187
81	0xbe14ad5b	-0.14519255
82	0xbd1b3403	-0.0378914
83	0xbe15757a	-0.14595595
84	0x3e68816f	0.22705625
85	0xbe79fb41	-0.24412252
86	0x3e1a4317	0.15064655
87	0xbe0169f0	-0.12638068
88	0x3e2acb69	0.16679157
89	0x3cf7d8fc	0.030254833
90	0x3b219123	0.0024653159
91	0xbd3c595e	-0.045983665
92	0x3d301b6c	0.0429949
93	0x3bd63f33	0.0065382957
94	0x3db721c1	0.08941985
95	0x3e7890f4	0.24274045
96	0x3db0f795	0.086409725
97	0x3ec7b873	0.3900791
98	0xbe31a1aa	-0.17346826
99	0x3e45d832	0.19320753
100	0xbe0a9b08	-0.13535702
101	0xbbe1e25d	-0.0068934397
102	0xbe5b940e	-0.21443197
103	0x3bc79af9	0.006091472
104	0x3d6ed3bd	0.058307398
105	0x3d767ac5	0.060175676
106	0x3d690650	0.056890786
107	0x3de5686c	0.112015575
108	0xbe21bd54	-0.15794879
109	0x3d2bc993	0.041940283
110	0x3db8cabb	0.09023043
111	0xbd97bb5e	-0.07408784
112	0x3d0b4d59	0.03400931
113	0xbd74c3e9	-0.059757147
114	0x3d466e8f	0.04844528
115	0x3db78d8e	0.08962546
116	0x3da23762	0.0792072
117	0x3df8dc73	0.12151422
118	0xbd28a3fb	-0.04117201
119	0xbda716e4	-0.08158663
120	0x3dc1b0ac	0.094575256
121	0xbd9fb83e	-0.07798813
122	0x3d5190de	0.051163547
123	0xbe784577	-0.24245249
124	0x3cd26b81	0.025686027
125	0xbe24ef99	-0.16107024
126	0xba496f0e	-0.000768409
127	0xbd0cbfca	-0.03436259
128	0x3e069114	0.1314128
129	0xbd0f03f8	-0.034915894
130	0x3dce5668	0.100750744
131	0xbdda6574	-0.10663882
132	0x3e376f75	0.17913611
133	0xbe16add5	-0.14714749
134	0x3e0ce3df	0.13758801
135	0xbdd1487b	-0.10218903
136	0xbdd9f3bb	-0.10642191
137	0xbe136d16	-0.14397082
138	0xbdda3dd2	-0.106563225
139	0xbe0e13b6	-0.13874707
140	0x3d06c9b3	0.0329072
141	0x3d58afa8	0.052901894
142	0xbdedfe68	-0.1162079
143	0xbdf13573	-0.11777773
144	0x3c57c3e3	0.013169262
145	0xbdb43650	-0.08799422
146	0xbcdb9ece	-0.026809122
147	0x3ddf2192	0.10895075
148	0x3cd90bdc	0.026494913
149	0xbd92a107	-0.0715962
150	0xbe02b00c	-0.12762469
151	0xbdc91f61	-0.09820438
152	0x3d9039e1	0.070422895
153	0x3e0c6a35	0.1371239
154	0xbe0599fc	-0.13047022
155	0x3c72bf3a	0.0148161
156	0x3cc7cf8a	0.024390955
157	0xbd5b43c7	-0.053531434
158	0x3da15c18	0.078788936
159	0xbde77544	-0.113016635
160	0xbdde13ff	-0.10843658
161	0x3dd2bc0d	0.10289774
162	0xbe00c6b8	-0.12575805
163	0x3e28f124	0.16498238
164	0x3bfb54f0	0.0076700374
165	0xbd18b33c	-0.037280306
166	0x3d2df09b	0.042465787
167	0x3e31ce81	0.17363931
168	0xbc0c1d96	-0.008551976
169	0x3cc13271	0.023583623
170	0xbd04b402	-0.03239823
171	0x3dfbaa0b	0.122882925
172	0xbe80a441	-0.25125316
173	0xbebe6c41	-0.37191966
174	0xbdd30c3d	-0.10305069
175	0xbde9dbd0	-0.11418879
176	0x3a1fed09	0.00061006896
177	0x3dcc0235	0.099613585
178	0xbdfee2d0	-0.12445605
179	0xbcc6e794	-0.024280347
180	0xbdc3093a	-0.09523244
181	0x3d2475eb	0.040151518
182	0x3e003a3c	0.12522215
183	0x3e104753	0.14089708
184	0xbc735d3b	-0.014853771
185	0x3b601856	0.0034194193
186	0xbc53a21c	-0.012917068
187	0xbaffa831	-0.0019505081
188	0x3dac8194	0.084231526
189	0x3dfbc88c	0.12294111
190	0xbd97a787	-0.07405
191	0xbda53ab5	-0.08067838
192	0x3e3145b7	0.1731175
193	0x3d8048af	0.06263863
194	0xbcade096	-0.021225255
195	0x3bf38a91	0.00743229
196	0x3d74a7eb	0.05973045
197	0xbddfdeea	-0.10931189
198	0xbdf714de	-0.12064527
199	0xbb340b7e	-0.002747267
200	0xbe274e82	-0.16338542
201	0xbd673b65	-0.056453127
202	0xbe11d146	-0.14239988
203	0xbdc00cd6	-0.09377448
204	0x3c09d98b	0.008413683
205	0xbe05d50d	-0.13069554
206	0xbcb2f0c2	-0.021843318
207	0xbc98371c	-0.018580966
208	0xb9c0cde5	-0.00036774497
209	0x3dea6e60	0.114468336
210	0xbdfeae0d	-0.12435541
211	0x3e61f0a1	0.22064449
212	0xbe383374	-0.17988378
213	0x3ca43600	0.02004528
214	0x3cc06f9a	0.023490716
215	0x3d1f40f9	0.038880322
216	0x3d6532da	0.0559567
217	0xbd04975e	-0.032370917
218	0x3d6c08d3	0.057625603
219	0xbcc08e20	-0.02350527
220	0xbdd21c91	-0.10259355
221	0x3c9ca5a2	0.019121949
222	0xbe08bda4	-0.13353592
223	0xbe01f732	-0.12691954
224	0xbc8250e5	-0.015907714
225	0xbd9c5a1e	-0.07634376
226	0xbc749be5	-0.014929746
227	0xbe13e179	-0.1444148
228	0x3cdb6631	0.026782127
229	0xbde19d35	-0.11016313
230	0xbe0bd1bc	-0.13654226
231	0xbe12b072	-0.14325121
232	0x3ceee526	0.029162
233	0x3d137ee0	0.03600967
234	0xbe1c40f2	-0.1525915
235	0xbb0eb397	-0.0021774524
236	0xbc80a16d	-0.015701974
237	0x3cca3483	0.024683243
238	0xbd863f7e	-0.06555079
239	0xbe0ccd6c	-0.13750237
240	0x3db24ddc	0.08706257
241	0x3d590718	0.05298528
242	0x3daaddec	0.083431095
243	0xbddbe010	-0.10736096
244	0x3e0fb9a5	0.14035662
245	0x3dc57d09	0.09642989
246	0xbd094f1d	-0.033522714
247	0x3dd13187	0.10214525
248	0x3d8f9f64	0.07012823
249	0x3d8a1961	0.06743122
250	0x3ea1fb2f	0.3163695
251	0x3db5c755	0.0887591
252	0x3d49419e	0.049134843
253	0x3e08e587	0.13368808
254	0x3dfada6c	0.12248692
255	0x3d8c4a51	0.06850112

fc1.bias f4 [64]
0	0x3b537c36	0.003227008
1	0xbe2517cb	-0.16122358
2	0x3e49b4cc	0.19697875
3	0xbdebd920	-0.11516023
4	0xbccd6bd7	-0.025075836
5	0x3cbb020e	0.022828128
6	0xbdcd37c1	-0.100204
7	0x3ceaa353	0.028642332
8	0xbdf6dd05	-0.12053875
9	0xbdca8720	-0.09889054
10	0xbd164eb5	-0.036696155
11	0xbc271d95	-0.010199924
12	0x3bfb8a8f	0.0076764296
13	0x3dfafd62	0.1225536
14	0x3cef7f6c	0.029235564
15	0x3dd3fded	0.10351167
16	0xbc8a7bbd	-0.016904706
17	0x3d0006ad	0.031256367
18	0xbe220049	-0.15820421
19	0xbe45e4c1	-0.19325544
20	0x3c85a3f1	0.016313525
21	0x3dd0ef61	0.10201908
22	0x3d814396	0.06311719
23	0x3dadfc8b	0.084954344
24	0xbde1cd47	-0.11025482
25	0xbdd5d566	-0.10441093
26	0xbe237f49	-0.15966524
27	0xbdcfaa98	-0.1013996
28	0x3e110e70	0.14165664
29	0xbdbe4bb5	-0.09291784
30	0xbdea9d71	-0.11455811
31	0xbe367438	-0.17817771
32	0x3db9f5fe	0.090801224
33	0x3d0dd1fe	0.034624092
34	0xbd3ae8a2	-0.045632012
35	0x3cbc415b	0.022980383
36	0xbd5db759	-0.054129932
37	0xbdc72a18	-0.097248256
38	0x3e5431cd	0.20722122
39	0x3e176695	0.14785226
40	0xbb4beed0	-0.0031117685
41	0x3dc20c32	0.09474982
42	0xbe88c90b	-0.26715884
43	0x3d19026c	0.037355825
44	0x3e23029a	0.15918961
45	0xbd1ef122	-0.03880418
46	0x3cb08078	0.021545634
47	0xbd5b39d4	-0.053521946
48	0xbdcd6e8c	-0.10030851
49	0x3e16108a	0.14654747
50	0xbe47495f	-0.19461583
51	0xbd8fa4d6	-0.07013862
52	0xbd189d95	-0.037259657
53	0xbd3a9280	-0.04554987
54	0x3d7f4b94	0.062327936
55	0x3cfa7b76	0.030576449
56	0x3d7d03a2	0.061771043
57	0x3c2b362c	0.010449927
58	0xbdb1e093	-0.08685412
59	0xbd4dc9a1	-0.050241116
60	0xbe41fa4e	-0.1894314
61	0x3df82dc4	0.12118104
62	0xbd197400	-0.03746414
63	0x3d8bf0b1	0.068330176

fc2.weight f4 [64, 64]
0	0xbcfd8125	-0.03094537
1	0xbdb9611b	-0.090517245
2	0xbde0a3b9	-0.109687276
3	0xbe020c11	-0.12699915
4	0xbd87a3e2	-0.06623055
5	0xbd3a57e8	-0.04549399
6	0x3e12bf61	0.14330818
7	0xbdfa37d7	-0.12217682
8	0xbbec8c84	-0.007218899
9	0xbcbb3066	-0.022850227
10	0x3e300033	0.17187576
11	0x3b5ec98e	0.0033994648
12	0xbc897d3f	-0.016783355
13	0xbb8ff1bf	-0.004392832
14	0x3dee3a77	0.11632245
15	0x3dca99ff	0.09892654
16	0xbc91772e	-0.017757025
17	0xbda177af	-0.07884156
18	0x3a6763b7	0.00088268094
19	0x3dbdf208	0.092746794
20	0xbc8cd994	-0.017193593
21	0xbd1e1bda	-0.03860078
22	0x3e2474e8	0.16060221
23	0xbe1803ac	-0.1484515
24	0x3dc12605	0.0943108
25	0xbbc33c14	-0.0059580896
26	0xbcec8cc0	-0.028875709
27	0xbcda2b70	-0.02663204
28	0xbd06f7ce	-0.03295117
29	0xbda8c339	-0.08240361
30	0x3d1a29d1	0.037637535
31	0x3e2f46cc	0.1711685
32	0x3da2d03f	0.07949876
33	0x3e350400	0.17677307
34	0x3bc86641	0.0061157052
35	0x3c8df090	0.017326623
36	0xbd3e1f2e	-0.046416454
37	0xbd20e423	-0.039280068
38	0x3d893306	0.06699185
39	0x3d044b52	0.032298394
40	0x3e050ad4	0.12992412
41	0x3dbf6f4d	0.09347401
42	0x3caf2cd6	0.021383684
43	0x3da72c75	0.081627764
44	0xbc8fe392	-0.017564569
45	0xbd38d744	-0.04512717
46	0xbe48f851	-0.19625975
47	0xbe18c1e4	-0.14917713
48	0xbdf948e8	-0.12172109
49	0x3dd96247	0.10614448
50	0x3bb7332e	0.005590818
51	0x3cb65119	0.022255467
52	0x3dec1556	0.11527507
53	0xbdf115c5	-0.1177173
54	0xbddcb969	-0.10777552
55	0xbd7798d2	-0.060448475
56	0x3c0b6b94	0.008509535
57	0x3b4c4d11	0.0031173865
58	0xbd5779f8	-0.052606553
59	0x3dd83cbd	0.1055846
60	0xbcdbd058	-0.026832744
61	0x3e0f28ea	0.13980451
62	0xbd224856	-0.039619766
63	0x3c596fdc	0.013271298
64	0x3df1666c	0.117871135
65	0x3de22711	0.110426076
66	0xbd6cbe3a	-0.0577986
67	0xbcf0096e	-0.029301371
68	0x3c56539d	0.013081458
69	0xbdee9fd0	-0.116515756
70	0xbda8c915	-0.08241478
71	0x3d8505b0	0.064952254
72	0x3d3a9d5a	0.04556022
73	0x3c6a6fe8	0.014308907
74	0x3ddf453d	0.10901878
75	0x3cfbb919	0.03072791
76	0xbda94afb	-0.082662545
77	0xbe150815	-0.14553864
78	0x3d3a7da4	0.045529976
79	0xbd894dc9	-0.067042895
80	0xbd87de79	-0.0663423
81	0x3dcaa6ef	0.09895121
82	0xbe056e0d	-0.13030262
83	0xbd9960d0	-0.07489169
84	0x3886f1dd	6.4346685e-05
85	0xbe19aad5	-0.15006573
86	0xbd6291bc	-0.055314764
87	0x3d103c9c	0.03521405
88	0xbdd1fc97	-0.10253256
89	0xbde3a1a0	-0.11114812
90	0xbcd88876	-0.026432257
91	0x3ab51946	0.0013816736
92	0x3dd294bb	0.10282274
93	0xbd8338dc	-0.064073294
94	0xbd489e43	-0.048979055
95	0x3db91581	0.09037305
96	0x3d2c73b5	0.042102534
97	0x3d1ad809	0.037803683
98	0xbdd1f794	-0.102523
99	0xbdd5a945	-0.10432676
100	0xbcf97a7b	-0.030453911
101	0xbe0f8595	-0.14015801
102	0xbbaf3e10	-0.0053479746
103	0x3bd4cb10	0.0064939335
104	0x3c055c80	0.0081397295
105	0xbd3b42b0	-0.045717895
106	0xbcad3276	-0.021142226
107	0xbd558548	-0.05212906
108	0x3bcde89a	0.006283832
109	0x3da4fcad	0.080560066
110	0xbcc0b285	-0.023522625
111	0x3e38edc1	0.18059446
112	0x3de46898	0.11152762
113	0x3db4036c	0.08789715
114	0x3bab176b	0.0052212975
115	0x3d11261a	0.035436727
116	0x3daeefd1	0.08541835
117	0x3dc9cee7	0.098539166
118	0xbe00c92a	-0.12576738
119	0xbdb70f9b	-0.089385234
120	0xbdca4e1e	-0.09878181
121	0xbdf88226	-0.12134199
122	0xbda974a0	-0.082741976
123	0xbcd65cd8	-0.026167318
124	0xbcee0c57	-0.029058618
125	0x3d7ab7f6	0.061210595
126	0xb9d87cb4	-0.00041291642
127	0x3d2071a2	0.03917087
128	0x3d36cbed	0.044628073
129	0xbdffe24c	-0.124943346
130	0x3d7fe128	0.062470585
131	0xbdb9a39c	-0.09064409
132	0xbdca9915	-0.09892479
133	0xbe056bc6	-0.13029394
134	0x3d0776ff	0.033072468
135	0x3b1a25d3	0.002352108
136	0xbd8003b2	-0.06250705
137	0xbd577c32	-0.052608676
138	0xbcae171d	-0.021251256
139	0x3e1f2725	0.15542276
140	0x3d2d2c27	0.042278435
141	0x3c9fa35f	0.019487081
142	0xbd6c7361	-0.05772722
143	0x3d7a28c9	0.061074052
144	0x3d3d146f	0.046162065
145	0xbdaf9c8f	-0.08574783
146	0xbcf79324	-0.03022153
147	0x3dc70b1c	0.09718916
148	0x3e33beb8	0.17553222
149	0xbe03578c	-0.12826365
150	0x3d9a480c	0.07533273
151	0x3d283bbe	0.0410726
152	0xbe0a91d8	-0.13532197
153	0xbde159f5	-0.11003486
154	0xbbf6b84e	-0.007529295
155	0xbdcb0099	-0.09912223
156	0xbcaf350b	-0.021387598
157	0x3d315dee	0.04330247
158	0xbd97644b	-0.07392176
159	0xbd884030	-0.06652868
160	0xbd94f84f	-0.072739236
161	0x3e1c65b1	0.15273167
162	0xbe0e45ad	-0.13893767
163	0x3c0c97ed	0.008581144
164	0x3d8e486f	0.06947409
165	0x3d9e5b97	0.07732313
166	0xbe07a935	-0.13248141
167	0xbc64580e	-0.0139370095
168	0x3d82179f	0.063521616
169	0xbe057455	-0.13032658
170	0xbdc68bb4	-0.09694615
171	0xbe26c36b	-0.16285484
172	0xbdee3c7a	-0.11632629
173	0x3df99caa	0.121880844
174	0x3d904c74	0.07045832
175	0x3d870584	0.06592849
176	0xbe0685e2	-0.1313701
177	0xbdaa2f7e	-0.0830984
178	0xbc815112	-0.015785728
179	0x3c7cda72	0.015432941
180	0x3d53f147	0.051743772
181	0xbc03b65b	-0.008039082
182	0xbe19988c	-0.14999598
183	0x3c742cec	0.014903288
184	0x3c43afd0	0.011943772
185	0x3d854ed5	0.06509177
186	0xbcbcca65	-0.023045728
187	0xbce0c4fc	-0.02743768
188	0xbae21e99	-0.001725155
189	0xbca0ea6c	-0.019643031
190	0xbe1511cd	-0.14557572
191	0xbd70f6de	-0.05882918
192	0xbcf8af6c	-0.030357085
193	0x3cce807e	0.025207754
194	0x3d18c876	0.03730055
195	0xbdbd16bb	-0.09232851
196	0x3dc5199e	0.09624027
197	0xbc5fb476	-0.013653865
198	0x3d8caa0f	0.068683736
199	0x3df8c009	0.12146003
200	0xbda3ec5c	-0.08004066
201	0x3cd16767	0.025562001
202	0xbd9d6f8b	-0.07687291
203	0xbc999033	-0.018745517
204	0x3dbe0de2	0.09279992
205	0xbcf024d6	-0.02931444
206	0xbd9e65ea	-0.07734282
207	0x3da25fed	0.07928453
208	0x3d1c504f	0.038162526
209	0xbd0cd3aa	-0.034381546
210	0x3dce9f17	0.10088938
211	0xbd198da1	-0.037488583
212	0xbdc3327c	-0.095311135
213	0x3daccf66	0.084379956
214	0x3daee0e5	0.08538989
215	0x3dafb56f	0.085795276
216	0x3cd19e54	0.025588192
217	0xbd08a6e2	-0.033362277
218	0x3dcae3ea	0.099067524
219	0xbd0a86a9	-0.03381983
220	0x3dfd7190	0.12375176
221	0x3d2d5a0f	0.042322215
222	0xbdf4a77d	-0.11946008
223	0xbdc4981d	-0.09599326
224	0xbcaff623	-0.021479672
225	0x3dc1e718	0.09467906
226	0x3d883508	0.0665074
227	0x3e0e2c60	0.13884115
228	0x3d0137c2	0.031547315
229	0x3dac12f7	0.08402055
230	0xbddf0af8	-0.10890764
231	0xbd1f6fd0	-0.038924992
232	0x3c841164	0.016121574
233	0x3d5b9b46	0.053614877
234	0xbce47440	-0.027887464
235	0xbd7109b2	-0.058847137
236	0xbdff10fb	-0.12454411
237	0x3d8ef034	0.06979409
238	0x3dde8f7c	0.10867211
239	0x3dee3ea6	0.11633043
240	0x3d03c1d9	0.03216729
241	0x3d895a50	0.06706679
242	0xbd8bed0b	-0.06832322
243	0x3da81bcd	0.082084276
244	0x3cd594db	0.026071956
245	0x3dfa2e2e	0.12215839
246	0xbd1cc0e7	-0.038269904
247	0x3dfb7fd6	0.12280242
248	0x3dd1d380	0.102454185
249	0x3db62a11	0.08894742
250	0x3d13ed2a	0.03611485
251	0x3d42e968	0.047585875
252	0xbdfa786c	-0.1223
253	0x3dadacfd	0.084802605
254	0xbda3b231	-0.07992972
255	0xbcfc9688	-0.030833498

fc2.bias f4 [64]
0	0x3ddf5736	0.10905306
1	0x3de04612	0.10950865
2	0xbd2b65c5	-0.041845102
3	0xbd426ce1	-0.047467116
4	0xbdcabc07	-0.098991446
5	0x3db15da6	0.0866044
6	0xbd20968a	-0.039206065
7	0x3d024a39	0.031809065
8	0xbdf833b0	-0.121192336
9	0xbd650fb7	-0.05592319
10	0x3d08d62a	0.033407368
11	0xbd9b265f	-0.07575678
12	0x3c6c697a	0.014429444
13	0x3e202922	0.15640691
14	0x3d1741a1	0.036927823
15	0x3d5f4702	0.054511078
16	0xbdd8e232	-0.10590018
17	0xbd1a89b1	-0.03772897
18	0x3c781147	0.015140838
19	0x3de5a07d	0.11212251
20	0xbdf71bd9	-0.120658584
21	0xbe02b8aa	-0.12765756
22	0x3d60a00f	0.054840144
23	0x3c791de7	0.015204883
24	0xbcbfe843	-0.02342618
25	0x3dd545ea	0.10413726
26	0x3d7c4187	0.06158593
27	0xbd1daa41	-0.038492445
28	0xbd8a7f0c	-0.067625135
29	0x3d722e50	0.0591262
30	0xbde43086	-0.111420676
31	0xbdd5c8ea	-0.10438712
32	0xbdee6a15	-0.11641327
33	0x3d77b331	0.060473625
34	0xbdd466d7	-0.10371178
35	0x3d70effb	0.058822613
36	0xbdd61a3d	-0.10454223
37	0x3d0dcd1f	0.034619447
38	0x3d109f91	0.035308424
39	0xbdf3d9ce	-0.11906777
40	0x3d00d92d	0.031457115
41	0x3ca6d9a8	0.020367458
42	0xbdb57b5f	-0.08861422
43	0xbcfd7612	-0.03094009
44	0x3df3c153	0.11902108
45	0xbdb09f8e	-0.08624183
46	0xbd89230d	-0.066961385
47	0xbd0f76e3	-0.03502549
48	0x3d9c5646	0.07633643
49	0x3d84e4ea	0.064889744
50	0xbd205ca3	-0.039150845
51	0x3dbb176b	0.09135326
52	0xbdb727a9	-0.089431114
53	0xbd866c5b	-0.06563636
54	0x3d9d32b4	0.076756865
55	0xbdbe2ab9	-0.092854924
56	0xbde5bc5b	-0.112175666
57	0x3b94cebe	0.004541247
58	0x3d63a719	0.05557928
59	0x3cab747a	0.020929564
60	0xbd299f38	-0.04141161
61	0xbc3a0675	-0.011354079
62	0x3e102399	0.1407608
63	0xbb47eb40	-0.003050521

fc3.weight f4 [64, 64]
0	0xbcfde2c5	-0.030991921
1	0x3db458f7	0.08806031
2	0x3e09affc	0.13446039
3	0x3d2f2726	0.042761944
4	0xbb3d420c	-0.0028878478
5	0xbd95de0e	-0.07317744
6	0x3da46558	0.08027142
7	0x3d567407	0.052356746
8	0xbbf2cb19	-0.007409465
9	0xbdd555e1	-0.10416771
10	0xbe07b81b	-0.13253824
11	0xbd1d8be6	-0.038463496
12	0x3de28626	0.11060743
13	0xbc36cf64	-0.011157844
14	0x3e0d080a	0.13772598
15	0x3ccb878f	0.024844913
16	0xbdf9a4e2	-0.12189652
17	0x3d337571	0.043813173
18	0x3db9db0f	0.09074985
19	0x3d4a37ab	0.049369495
20	0x3d88f876	0.06688015
21	0xbdfc12f4	-0.123083025
22	0x3d38c93e	0.045113795
23	0x3d46701f	0.04844677
24	0xbd7256eb	-0.059164923
25	0xbc9ae6fd	-0.018908972
26	0x3d2823f5	0.041049916
27	0xbc208188	-0.009796508
28	0xbd463218	-0.048387617
29	0x3dfb08b1	0.12257517
30	0x3da0061f	0.078136675
31	0x3d692e97	0.056929197
32	0xbb1ebd63	-0.002422177
33	0x3e179b0a	0.14805236
34	0xbd51b9dd	-0.051202644
35	0x3d1f149a	0.038838007
36	0xbda131c5	-0.07870821
37	0x3e04772b	0.12936084
38	0x3c46ff92	0.012145894
39	0x3d7b633d	0.061373938
40	0xbd630307	-0.05542281
41	0xbe03a437	-0.12855612
42	0xbd31232f	-0.043246444
43	0xbe0d4063	-0.13794093
44	0x3dd1ca95	0.102437176
45	0xbe0e8614	-0.13918334
46	0x3d10ea28	0.03537956
47	0xbca59776	-0.020213824
48	0x3d4620aa	0.048370995
49	0x3dfb8926	0.12282018
50	0xbdf6d418	-0.120521724
51	0xbd92cd6c	-0.07168087
52	0xbd2eea6d	-0.042704035
53	0x3d979821	0.07402063
54	0x3d482fa6	0.048873566
55	0xbcf10cbf	-0.029425023
56	0xbce9732a	-0.028497297
57	0x3e1985c6	0.14992437
58	0xbdcb94b5	-0.09940473
59	0x3d833a7c	0.064076394
60	0x3dedbb6b	0.11608013
61	0x3d2e22ab	0.04251353
62	0x3e24fbd4	0.1611169
63	0xbd81eba6	-0.063437745
64	0xbd8a5266	-0.067539975
65	0x3d60940e	0.054828696
66	0x3d6ada37	0.057337012
67	0x3da86924	0.08223179
68	0xbbd4b34d	-0.006491101
69	0x3c64a23a	0.013954693
70	0x3ca276be	0.019832011
71	0xbd8887e0	-0.06666541
72	0x3da2f0cb	0.07956084
73	0xbc559146	-0.013035124
74	0xbdcbb8cb	-0.09947356
75	0xbda10184	-0.07861617
76	0xbdf1cdda	-0.11806841
77	0x3c2765c7	0.010217137
78	0x3c8a22a8	0.016862229
79	0x3b8e6ff4	0.004346842
80	0x3d65c51f	0.056096192
81	0x3d49aed0	0.04923898
82	0x3d23848f	0.03992134
83	0x3dbff825	0.09373502
84	0x3d321950	0.04348117
85	0xbd1f9736	-0.038962565
86	0x3cb56a45	0.0221454
87	0xbe0c21c5	-0.13684757
88	0x3d0220a6	0.031769417
89	0x3dd0852a	0.10181649
90	0xbde569a2	-0.112017885
91	0x3df44380	0.11926937
92	0xbd7a524e	-0.061113648
93	0x3d0f2656	0.03494867
94	0x3d1b5cd1	0.037930313
95	0x3d334383	0.043765556
96	0x3de0669d	0.10957072
97	0x3e0bdfd5	0.13659604
98	0x3d4ffa7d	0.050775994
99	0x3d90c994	0.07069698
100	0xbdd0a723	-0.10188129
101	0xbc3c2bee	-0.011485083
102	0x3d0d80d5	0.034546692
103	0x3dbee591	0.0932113
104	0xbdc8362b	-0.09775957
105	0xbca6525f	-0.02030295
106	0x3db39dd0	0.08770335
107	0x3b042bbd	0.0020167672
108	0x3d580fdf	0.05274951
109	0xbd98f837	-0.07469218
110	0xbdafbdad	-0.085811
111	0x3d44c949	0.048043523
112	0x3d65dbe9	0.056117926
113	0xbd8637bc	-0.06553599
114	0x3d28d941	0.041222814
115	0x3d84c6f3	0.06483259
116	0x3dbdd51d	0.09269164
117	0x3e21962a	0.1577994
118	0x3d78c41e	0.060733907
119	0x3d426c1c	0.047466382
120	0x3d790ab0	0.060801208
121	0xbd2b5081	-0.04182482
122	0xbd8e0fb8	-0.06936592
123	0x3d3dc4c2	0.04633022
124	0xbc9fa4ba	-0.019487727
125	0x3e1371be	0.14398858
126	0xbe060cd0	-0.13090825
127	0xbdc30cd3	-0.095239304
128	0x3c756459	0.014977538
129	0xbcefcb07	-0.029271616
130	0x3def8f1b	0.11697217
131	0x3d421514	0.047383383
132	0x3d32e702	0.043677337
133	0x3dce8389	0.10083682
134	0x3ca7b8af	0.020473806
135	0x3c35cddd	0.011096445
136	0x3d871bef	0.06597125
137	0x3e0d8a71	0.13822342
138	0x3d8ad695	0.067792095
139	0x3d2d8ebe	0.042372458
140	0xbc335256	-0.010944923
141	0xbdc2a647	-0.09504371
142	0xbde46a57	-0.11153095
143	0xbd973e17	-0.073848896
144	0xbd9b1ef2	-0.07574262
145	0xbdb0fe98	-0.0864231
146	0x3c6ff411	0.014645592
147	0x3d50b94d	0.050957967
148	0xbdad40b0	-0.08459604
149	0x3bec2b16	0.0072072847
150	0xbdf4199e	-0.119189486
151	0x3e045a97	0.12925182
152	0x3d8cf1ee	0.06882082
153	0x3d50911a	0.05091963
154	0xbdde2c65	-0.10848311
155	0x3c84ac0c	0.01619532
156	0x3dbb925d	0.09158776
157	0x3b3bfa39	0.002868308
158	0x3df876e7	0.12132054
159	0xbd2ae722	-0.04172433
160	0x3d5795ed	0.052633215
161	0x3d60a928	0.05484882
162	0xbd203c04	-0.039119735
163	0x3d15299f	0.036416646
164	0x3df977ee	0.12181078
165	0xbdc090a0	-0.09402585
166	0x3dbe3b08	0.09288603
167	0x3c9eab9b	0.019368937
168	0x3db6db43	0.089285396
169	0xbc325788	-0.010885127
170	0xbdde0224	-0.10840252
171	0x3aa7bd5e	0.0012797525
172	0x3d9aac1a	0.07552357
173	0xbd532ab9	-0.051554415
174	0xbd841fed	-0.06451402
175	0xbdee0a33	-0.11623039
176	0x3d816881	0.06318761
177	0xbd8d6bc2	-0.06905319
178	0x3db4c2af	0.088261954
179	0xbe023129	-0.12714066
180	0x3dd74fb6	0.105132505
181	0x3dff92fa	0.124792054
182	0x3deb7580	0.11497021
183	0x3d04c472	0.032413907
184	0xbdc19a99	-0.09453315
185	0x3c1c25bb	0.00953048
186	0xbdbc1c5c	-0.091850966
187	0xbbdfd13b	-0.006830362
188	0xbd97ee21	-0.07418466
189	0xbd4eedb3	-0.050519656
190	0xbd6a6feb	-0.05723564
191	0xbcd70e83	-0.026252037
192	0x3d96da95	0.0736591
193	0x3dbdacb4	0.09261456
194	0x3dde3bb7	0.108512335
195	0x3df70520	0.120615244
196	0xbe0c3bd9	-0.13694705
197	0xbba50882	-0.0050364146
198	0x3e002bb2	0.12516668
199	0xbe2f1f0d	-0.17101689
200	0x3cd3366c	0.025782786
201	0xbcd5d85a	-0.026104141
202	0x3cfbacb5	0.030722002
203	0x3db735a0	0.08945775
204	0xbdde27e1	-0.1084745
205	0xbc575ad6	-0.013144216
206	0xbdb9233c	-0.090399235
207	0x3d2e8a4b	0.042612355
208	0x3d12be48	0.035825998
209	0x3e57ee23	0.21086936
210	0xbda4f98c	-0.0805541
211	0xbd827942	-0.06370784
212	0xbd92add1	-0.07162059
213	0xbdab060c	-0.08350763
214	0xbc942823	-0.018085545
215	0xbd90115e	-0.070345625
216	0x3b880daa	0.0041520195
217	0xbe110e7d	-0.14165683
218	0x3d850d2e	0.064966545
219	0x3d2432b0	0.040087402
220	0xbd89b25a	-0.06723471
221	0xbd0ad8c0	-0.033898115
222	0x3c879c87	0.01655413
223	0x3d64c24c	0.05584936
224	0xbd367201	-0.044542316
225	0x3d47c823	0.04877485
226	0xbd2a51cd	-0.041581918
227	0xbd6a424e	-0.05719214
228	0xbc9fa91c	-0.019489817
229	0x3e0081ab	0.12549464
230	0xbde2d5ec	-0.110759586
231	0xbdbdd803	-0.092697166
232	0x3d9eb186	0.07748704
233	0xbd4e1c3c	-0.050319895
234	0xbd5ba1e1	-0.053621177
235	0xbc8e4c38	-0.017370328
236	0x3e2c9ba1	0.16856243
237	0x3df0cb27	0.11757498
238	0x3e33fe15	0.17577393
239	0xbde9410d	-0.113893606
240	0x3dccb7ca	0.099959925
241	0xbe6dbf6c	-0.23217553
242	0xbe1783ab	-0.14796321
243	0xbd7d8515	-0.061894495
244	0xbe206f88	-0.15667546
245	0x3dd37fd2	0.10327114
246	0xbdcda672	-0.100415125
247	0xbdc93e49	-0.09826333
248	0xbc0033a3	-0.007824811
249	0xbb9a3482	-0.0047059665
250	0x3d811fd4	0.06304899
251	0x3c33de01	0.010978223
252	0xbcc57f46	-0.02410854
253	0xbdade34b	-0.08490618
254	0x3d80a485	0.062813796
255	0x3d6760f7	0.056488957

fc3.bias f4 [64]
0	0xbda11dc3	-0.07867005
1	0xbcee326f	-0.029076783
2	0xbe0bcc7c	-0.13652223
3	0x3de96d6b	0.11397823
4	0xbd29edb8	-0.041486472
5	0xbe0485f7	-0.12941729
6	0xbdbd469a	-0.09241982
7	0xbc1f633e	-0.009728251
8	0x3e03572c	0.12826222
9	0xbc0a2495	-0.008431573
10	0x3be2fbbd	0.006926982
11	0x3d8df984	0.06932357
12	0x3db340a2	0.08752562
13	0x3c7dfa81	0.015501619
14	0x39ac5f19	0.0003287725
15	0x3c93b259	0.018029379
16	0x3d364f25	0.04450907
17	0x3d1dbdaf	0.038510974
18	0xbd8dce2b	-0.06924089
19	0x3df722bd	0.12067173
20	0x3ce95059	0.028480696
21	0x3c2d31bb	0.010570939
22	0x3d145b90	0.036220133
23	0xbdc6e8c2	-0.09712364
24	0xbdb37efc	-0.08764455
25	0xbdbd9ef0	-0.092588305
26	0xbdf15bac	-0.11785063
27	0xbdc54394	-0.0963203
28	0x3da9a198	0.08282775
29	0xbdf6c2e5	-0.12048892
30	0x3da1a3ac	0.07892546
31	0xbcddbefe	-0.027068611
32	0x3ce1bc43	0.02755559
33	0x3c362cd2	0.011119084
34	0x3de1ce09	0.11025626
35	0xbdd77adb	-0.1052148
36	0xbd770cca	-0.06031493
37	0xbd42fda8	-0.047605187
38	0xbc044e5f	-0.008075326
39	0x3d8dcd5f	0.06923937
40	0x3d934338	0.07190555
41	0x3d7722ec	0.06033604
42	0x3dccb020	0.09994531
43	0xbcb61869	-0.022228437
44	0x3d7dd764	0.06197299
45	0xbd80e22b	-0.06293138
46	0xbe03e8b8	-0.12881744
47	0xbdf0d2fe	-0.117589936
48	0x3d6360f1	0.055512372
49	0xbcce80dc	-0.02520793
50	0xbc79c763	-0.015245291
51	0x3bb697f2	0.0055723125
52	0xbd930aa9	-0.07179768
53	0x3d347177	0.04405352
54	0x3e0e9ed4	0.13927776
55	0x3d0ec94c	0.03485994
56	0x3d91b348	0.07114273
57	0xbd11a671	-0.03555912
58	0x3d8972cd	0.0671135
59	0x3d9f42d1	0.07776416
60	0xbcb6731a	-0.022271682
61	0xbdbc4e82	-0.09194662
62	0xbd1914d3	-0.037373375
63	0x3d84f981	0.064929016

fc_out.weight f4 [2, 64]
0	0x3dd6a05b	0.10479804
1	0x3da4e54d	0.08051548
2	0x3dfe85ec	0.12427887
3	0x3d4b7a5d	0.04967724
4	0x39a2eb2e	0.0003107427
5	0xbd743342	-0.059619196
6	0x3d44e91f	0.048073884
7	0x3d35cb2c	0.044383213
8	0xbdb21a5d	-0.08696435
9	0x3d2ef426	0.042713307
10	0xbdc1ad99	-0.09456939
11	0xbe1a1e0b	-0.15050523
12	0x3d1d2bce	0.038371854
13	0x3dc4cd9b	0.09609529
14	0xbd8c7f50	-0.068602204
15	0x3dd55c36	0.104179785
16	0x3cf88a1c	0.030339293
17	0xbd8a4e54	-0.06753221
18	0x3d76de4b	0.06027059
19	0xbc61b3c9	-0.013775774
20	0xbdc5c23d	-0.09656189
21	0xbcee5108	-0.029091373
22	0xbd484c19	-0.048900697
23	0xbdaa3640	-0.083111286
24	0x3db5b645	0.08872656
25	0x3df39edd	0.11895535
26	0x3d2ecf0a	0.042677917
27	0xbd8ab0cd	-0.06772003
28	0xbe25eef2	-0.16204432
29	0x3d39f820	0.045402646
30	0xbc170150	-0.0092166215
31	0xbdca48a4	-0.09877136
32	0xbdbfbd38	-0.093622625
33	0x3e10c91e	0.1413922
34	0x3e1030ff	0.1408119
35	0xbe0f736f	-0.14008878
36	0x3e05dc2e	0.13072273
37	0x3d2d8f0e	0.042372756
38	0xbc67aa67	-0.014139748
39	0x3aa1a54a	0.0012332585
40	0xbd6ad86f	-0.057335313
41	0xb95bc3e1	-0.00020958438
42	0x3c89ca7f	0.01682019
43	0x3c9c4aa7	0.019078566
44	0x3d89ad62	0.06722523
45	0x3d7bb29a	0.061449625
46	0xbe07ec72	-0.1327379
47	0x3a666e27	0.00087902177
48	0xbd7145f2	-0.058904596
49	0x3d59fd8e	0.053220324
50	0xbda89e7b	-0.08233353
51	0x3dae0b2c	0.084982246
52	0xbdad80cf	-0.08471834
53	0x3d0d7b04	0.034541145
54	0xbe006ed4	-0.12542278
55	0xbc8a498f	-0.016880779
56	0xbe0a00c4	-0.13476855
57	0xbcfd44a4	-0.03091652
58	0x3b7cc6cd	0.0038570643
59	0x3dfb1cdf	0.12261366
60	0x3aedc8af	0.0018141473
61	0xba99adc3	-0.0011724759
62	0xbd4fb890	-0.050713122
63	0xbdb90895	-0.0903484
64	0x3dafea79	0.08589644
65	0xbd9e8068	-0.07739335
66	0xbd20dc19	-0.0392724
67	0xbdb536f8	-0.08848375
68	0x3a1c2fd5	0.0005958055
69	0xbdf41fa9	-0.11920101
70	0x3de05c94	0.10955158
71	0xbd88bd3d	-0.06676719
72	0x3dd8840c	0.10572061
73	0xbd42ca7e	-0.047556393
74	0x3de1508d	0.11001692
75	0x3d84121b	0.06448766
76	0xbdcab7dd	-0.098983504
77	0xbd605df9	-0.05477712
78	0x3d91ad77	0.07113164
79	0x3d02affb	0.03190611
80	0x3e05e5f3	0.13076
81	0x3df2e93e	0.11860894
82	0xbdfd76c6	-0.1237617
83	0x3df2ad7b	0.11849495
84	0x3dda0896	0.10646169
85	0xbdf1e288	-0.118107855
86	0x3dd0e70d	0.102003194
87	0xbc3e5cad	-0.011618775
88	0xbdc849f8	-0.097797334
89	0x3d8da20b	0.06915673
90	0xbd91098f	-0.07081901
91	0x3c944776	0.018100481
92	0xbde4eb57	-0.111777
93	0x3d20d9a0	0.039270043
94	0xbe0280de	-0.12744471
95	0x3d9d3ee6	0.076780125
96	0x3d99082d	0.074722625
97	0x3d7c5372	0.061603017
98	0x3e0017e6	0.12509117
99	0xbdd3988d	-0.10331831
100	0x3d95b8e8	0.07310659
101	0xbd2913d2	-0.041278668
102	0x3d29fa20	0.041498303
103	0x3b830b40	0.003999144
104	0x3da552f3	0.08072462
105	0x3b105f1a	0.0022029341
106	0x3d46ae69	0.048506174
107	0x3d5b6f3f	0.05357289
108	0xbda84c1e	-0.08217643
109	0x3e142ee3	0.14471011
110	0x3db43a61	0.088001974
111	0xbd4f5718	-0.05062017
112	0xbde12fc4	-0.10995439
113	0xbdbafab2	-0.091298476
114	0xbe114ce0	-0.14189482
115	0x3db2a6a8	0.087231934
116	0xbdc0d026	-0.09414701
117	0x3db0cb7d	0.08632562
118	0x3d92b4ce	0.07163392
119	0xbcbeb0f5	-0.023277739
120	0xbd9f2a85	-0.07771782
121	0xbdcd9f3c	-0.10040137
122	0x3b555655	0.0032552679
123	0x3952439f	0.00020052351
124	0x3d0f272d	0.03494947
125	0xbd86114d	-0.065462686
126	0xbd29ea82	-0.04148341
127	0x3da6cda0	0.081446886

fc_out.bias f4 [2]
0	0x3cbc96e4	0.023021169
1	0xbd8c8517	-0.068613224
