source/isaaclab_tasks/isaaclab_tasks/manager_based/klask/actuator_model/model_odrive_scaled_history_10_interval_0.02_delay_0.0_horizon3.pt (torch, 43296 bytes, 8 tensors)

fc1.weight f4 [64, 20]
000000 eb e3 20 3e 0f 50 ec 3d 6d 4b c5 3e 20 95 5b bd
       0.15711944 0.115387075 0.38534108 -0.053609014
000010 44 64 ff 3d 5d ca d0 bd 8b 03 7e 3d 4a ba 48 be
       0.12470296 -0.10194848 0.062015098 -0.19602314
000020 8c 76 f9 bc 5f 82 5d 3d c7 fb 78 be f8 35 24 be
       -0.030452035 0.05407941 -0.24314795 -0.16036212
000030 fa 1e bf be f0 03 39 3d 46 53 29 bd b6 e3 3d be
       -0.3732832 0.04516977 -0.04133918 -0.18543896
000040 bb 2a 2a 3e cf bd 94 be de a0 69 bd 7d 4f f4 be
       0.16617863 -0.29051062 -0.05703818 -0.47716895
000050 20 7a 3d be be ca 5f 3c 68 5f e3 3d f3 04 fb bd
       -0.18503618 0.013659177 0.11102182 -0.12256803
000060 0f b5 8a bd 97 db d7 3c da 55 d8 bd 27 20 ae 3d
       -0.067728154 0.026349826 -0.1056325 0.08502226
000070 5d 97 14 3e 12 dc 95 3d 36 85 f8 3e 72 17 c3 3d
       0.14510866 0.07317366 0.48539132 0.09525956
000080 75 14 57 3e c8 a8 d1 3d a9 ab 2c 3e e0 6e 73 bd
       0.21003897 0.102372706 0.16862358 -0.05943191
000090 54 e9 59 bc e4 02 93 be 12 e6 77 bf f0 88 31 bf
       -0.013300259 -0.28713143 -0.96835434 -0.69349575
0000a0 ca af bb 3d 43 3c c5 3e 5d 46 88 3c 3e a5 c7 3e
       0.091643885 0.3852254 0.016635114 0.38993257
0000b0 9f 1c 3a 3c 20 4c bc 3d bd 7d a6 be 34 9c 38 be
       0.011359363 0.09194207 -0.32517806 -0.18028337
0000c0 8a 08 04 bf 27 ea a0 be 80 b8 7f bf 57 d0 a8 ba
       -0.5157553 -0.31428644 -0.998909 -0.0012879473
0000d0 aa d9 4b bf 53 df 0c bb a8 38 ba be 1e 34 28 bd
       -0.79629004 -0.0021495416 -0.3637135 -0.041065328
0000e0 8c f7 63 3f 14 94 09 be cf 72 d9 3f 84 5f af bc
       0.890496 -0.13435394 1.6988162 -0.02140785
0000f0 b4 5b b5 3e ae db 1b 3e bc 36 9f 3e 37 d8 56 3c
       0.35421526 0.1522052 0.31096447 0.013113073
000100 3a 79 e4 bd 2b 38 dd bd e8 d9 db bd ed 9d 27 3e
       -0.11155935 -0.10801729 -0.10734922 0.16368838
000110 40 2e bf 3d 0f de 9a bc 1c 16 96 3d 2f 6b de bd
       0.09334993 -0.018904714 0.07328436 -0.108602874
000120 fc fe 82 3e 23 36 9f bd fe 2c 48 be 8a 9c 37 be
       0.25585163 -0.07773998 -0.19548413 -0.17930809
000130 67 2b d8 3c 9f 41 6d be b8 9b 56 bf 8b 39 3d be
       0.026387883 -0.23169564 -0.8383136 -0.18478982
000140 c5 3d 22 be 31 3b 88 be 4d e6 e6 3c 72 ee c4 be
       -0.15843876 -0.2660766 0.028185988 -0.3846317
000150 cd 0c 76 3d 99 6f d4 be e8 5f 0f 3d f7 c9 0c be
       0.0600708 -0.41491392 0.035003573 -0.13748918
000160 d4 84 d4 3e ab 7a 96 be 37 ac 40 3e 9a 5c 48 be
       0.4150759 -0.29390463 0.18815695 -0.19566575
000170 25 99 e5 3e d6 06 a4 be 53 07 e1 3e e0 68 6d bd
       0.44843403 -0.32036465 0.439509 -0.057961345
000180 29 25 39 3d cb 3c 7c 3e 70 f0 ae bc 68 f3 bc 3d
       0.045201454 0.24632566 -0.021354884 0.092261136
000190 8b dd d4 be 39 7c 28 3e 25 0c 32 be ba 74 12 3e
       -0.41575274 0.16453637 -0.17387445 0.1430234
0001a0 b3 4f 6a be 26 58 df 3d 58 33 1e be 29 f6 06 3e
       -0.22881965 0.10905485 -0.15449274 0.1317984
0001b0 91 5b b3 be 37 e0 83 3e d9 e9 7e 3d 93 cd b6 3d
       -0.35030797 0.25757 0.062234733 0.08925929
0001c0 d2 eb 23 bb ea 57 00 3e e9 79 35 3e b5 e7 e9 3d
       -0.0025012386 0.12533537 0.17722286 0.11421148
0001d0 9a 78 35 3e 5c 4b d3 bd a1 62 27 3e 0b 00 9b 3e
       0.17721787 -0.10317108 0.16346218 0.3027347
0001e0 3d d4 b7 be 3d a5 b6 3e d3 08 a8 be 12 8b 98 3e
       -0.35904112 0.35672942 -0.32819232 0.29793602
0001f0 2d f6 98 be 66 df 52 3e 2e ed 20 be 1e e2 89 3e
       -0.29875317 0.20593032 -0.15715477 0.26930326
000200 a0 1e 45 be 5c a9 86 3d 3d a1 97 be 00 1a d2 bd
       -0.19249964 0.065752715 -0.29615203 -0.10258865
000210 70 43 ad be ff 8b 49 3e 0e 79 77 be 5b 1a dd 3d
       -0.33840513 0.1968231 -0.24167272 0.107960425
000220 fb b5 95 be 82 11 24 3e 6b 44 95 be c0 90 d9 bd
       -0.29240403 0.16022304 -0.2915376 -0.10623312
000230 79 e2 90 be f6 b6 29 3c 44 71 9a be 90 4a 46 3c
       -0.28297785 0.010358563 -0.3016454 0.012102738
000240 1b a0 90 3d 9b d4 ea 3d 2d de 81 be d1 21 59 3e
       0.07061788 0.114663325 -0.2536482 0.21204306
000250 f1 a5 8e be 3c 0f 90 bd cb 69 a9 bd e1 ad 17 3c
       -0.27860978 -0.07034156 -0.082721315 0.009257765
000260 50 61 98 bd 36 bf 12 3e 51 b1 91 bc 91 45 15 3e
       -0.07440436 0.14330754 -0.017784746 0.14577319
000270 79 f7 81 be c5 02 f2 3c 21 c7 15 be 7f 4f 8f 3e
       -0.2538412 0.029542336 -0.14626743 0.27990338
000280 49 d3 76 3e 38 5b 24 bf 2c 3b 7e 3d 38 da 92 be
       0.24104036 -0.6420169 0.06206815 -0.28682113
000290 a2 f4 ba bd 10 ac 35 be f6 7e e0 bd 5f 5c c9 bd
       -0.09128691 -0.17741418 -0.10961716 -0.098320715
0002a0 80 c9 70 bc 55 a9 40 3e e0 1a 22 be 72 ec 90 3e
       -0.014696479 0.18814595 -0.15830564 0.28305393
0002b0 fc 64 e5 be 00 32 c7 bc 14 a4 e6 bd 32 a3 4a 3e
       -0.44803607 -0.024315834 -0.11261764 0.19788817
0002c0 61 5e 40 ba 47 25 40 3d e1 37 ac bc 89 24 d0 bd
       -0.00073382823 0.04691055 -0.021022739 -0.101632185
0002d0 aa 15 9f 3d 45 0e f2 3e a0 dd 29 3e 9f 40 99 3e
       0.07767804 0.47276512 0.1658845 0.29932114
0002e0 91 8d 25 bc 90 ad ce 3e f6 27 ce bd 78 0e 25 3e
       -0.010104553 0.40366793 -0.10066216 0.161188
0002f0 88 76 81 3d 5b 4c e2 3e 93 3e cc 3e 64 cb f6 3e
       0.06321436 0.4419888 0.3989149 0.4820205
000300 03 c1 b3 3e 0d a4 e7 3e 0b e4 ab 3e d9 4d 5c bb
       0.35108194 0.45242348 0.3357242 -0.0033615737
000310 fd af 64 3d e5 92 1a be f9 8a bb be a0 52 5b 3e
       0.055831898 -0.15095098 -0.36629465 0.21418238
000320 38 15 76 be e6 57 c2 3e 9f 5f 23 be 1e 44 e4 3d
       -0.24031532 0.37957686 -0.15954445 0.11145805
000330 30 2d ba bd f5 d7 0f 3d a2 1b aa bd 6d f3 ae 3e
       -0.0909065 0.035118062 -0.08306052 0.34170094
000340 ad ae d2 bc 5b 9e c4 3e b7 e6 a7 3d 03 9e f3 3d
       -0.025718058 0.38402066 0.08198302 0.11895373
000350 c5 db a4 3d b6 4a ae 3e 71 24 11 be cb 92 55 be
       0.0804973 0.34041375 -0.14174058 -0.20856778
000360 b4 13 65 3e a8 39 7c be e2 01 28 3f 8e 98 18 bf
       0.22370797 -0.24631369 0.6562787 -0.5960778
000370 9c a8 d7 3e 43 6c 40 3e 9b 7b 75 3e 59 20 90 3e
       0.42120826 0.18791299 0.23972933 0.2814968
000380 23 29 a6 3e 16 f6 c8 3e 87 9f 99 3e be 0d d1 3e
       0.3245326 0.3925025 0.30004522 0.40830797
000390 03 26 bf 3e ae 4b f8 3d db 14 e9 3e 2e ad 30 3e
       0.37333688 0.1212381 0.45523724 0.17253563
0003a0 4c 04 ed 3e 74 1d 1b bd 1b 1e d0 3e e0 dd 41 3e
       0.4629234 -0.037869886 0.4064797 0.18932295
0003b0 bf c5 82 be 11 92 c0 bc 83 b3 07 bf 55 70 28 bf
       -0.25541493 -0.02350715 -0.5300829 -0.65796405
0003c0 a1 ca 41 3e 1e 9f c3 bd 27 8c 23 bc 96 e5 03 3e
       0.18924953 -0.095518336 -0.009982145 0.12880549
0003d0 ab 0a 81 bc 17 5a c3 3d 44 ed fa bd f3 86 fa bd
       -0.015752157 0.09538668 -0.12252286 -0.12232771
0003e0 98 9b 82 be b9 0d e5 bd eb 13 a2 bd b8 39 ab 3d
       -0.25509334 -0.11184258 -0.07913955 0.08360618
0003f0 a5 67 47 be 0a aa 7a be 4b f3 6a bd 96 94 66 be
       -0.19473131 -0.24478927 -0.05736093 -0.22517619

fc1.bias f4 [64]
000000 81 c6 6a 3d 75 94 ea 3b 86 b2 da b9 fc f0 f7 3d
       0.057318214 0.0071588107 -0.0004171321 0.12106511
000010 79 ca 63 3d 3b 3b 2b bc a1 ac 2f 3e d3 9b 9f 3d
       0.055613015 -0.010451133 0.17155696 0.07793393
000020 19 4b 01 bd 8d 3b f3 bb 63 b8 4b bc 1d 20 86 bb
       -0.03156576 -0.0074228705 -0.012434098 -0.0040931837
000030 78 7a 66 bd b9 fa 9f 3d a7 a0 0f be 8c de 74 3d
       -0.05626914 0.078114934 -0.14026128 0.05978255
000040 9a 50 b9 3c 61 da e0 3d a2 f2 09 3c 9c cd 88 bd
       0.022621442 0.109791525 0.008419665 -0.06679842
000050 f1 0c ba 3d ab 91 99 bd bb d1 03 be 52 33 11 be
       0.090844996 -0.07498487 -0.12872975 -0.14179733
000060 32 db 68 bd 6c 2f 74 3d 7c b2 1c be 4d 57 d4 3b
       -0.056849666 0.059615538 -0.15302461 0.0064801336
000070 71 7c 26 be b1 29 ed 3d 34 06 35 3c dd d6 30 bb
       -0.16258408 0.11580218 0.011048842 -0.0026983537
000080 e8 83 8d bd 94 9f 49 3d 20 1a e1 3b d2 dc 02 3d
       -0.06909925 0.04922445 0.0068695694 0.031948872
000090 45 57 9a bd 45 01 93 3d af b0 9b bd 3e b0 c5 bd
       -0.075361766 0.071779765 -0.07602059 -0.09652756
0000a0 a1 1d 1c 3e b9 a1 96 3c 35 4c aa bd b0 d8 1c 3d
       0.15245678 0.018387662 -0.083153166 0.038292587
0000b0 03 88 07 bb 72 92 19 bd 4d 40 ff bd 5f 10 c1 bd
       -0.0020680435 -0.037493177 -0.12463436 -0.09426951
0000c0 8f 61 21 be 70 eb 34 3c b3 12 74 bd 1c ca a6 3b
       -0.15759872 0.011042461 -0.059588145 0.0050900113
0000d0 fd 39 bd 3d 59 18 ec 3d b7 d0 8f 3d d2 50 fc bd
       0.09239576 0.115280814 0.07022231 -0.12320103
0000e0 25 6a f9 bc ce 70 19 3e e2 6c 00 be 90 05 54 3c
       -0.030446121 0.14984438 -0.12541535 0.012940779
0000f0 38 6f 09 3c 66 eb 23 bb 37 e6 89 bd 84 9f 11 be
       0.008388333 -0.0025012135 -0.06733363 -0.14221007

fc2.weight f4 [64, 64]
000000 21 f4 0f be 69 f2 35 be 52 7a c9 bd 8d 82 97 bd
       -0.14057972 -0.17768253 -0.09837784 -0.073979475
000010 f2 20 42 bd 5c 57 8b bd 5e 8f 28 38 42 14 04 3d
       -0.0473947 -0.06803772 4.0187842e-05 0.03224588
000020 fd 75 f0 3d f6 10 6c be ba ae fb bd 62 58 a8 be
       0.117412545 -0.23053345 -0.12289186 -0.3287993
000030 05 78 7f bd 2f a2 e6 3d 0d 96 f7 bc 35 aa 89 bd
       -0.06237032 0.11261403 -0.030222917 -0.067219175
000040 4d 7e 9d 3c e4 f4 77 3d 52 f6 47 be 7a 14 71 3d
       0.019225264 0.06053628 -0.19527557 0.05885742
000050 ed 54 85 bd ca 89 59 be 4c e1 17 be 81 03 ae 3c
       -0.06510339 -0.21243969 -0.14832038 0.021241905
000060 9d ff ac bd 76 ff 86 bc 3f 5b 56 bd a6 4c ee 3d
       -0.08447192 -0.016479235 -0.052333113 0.11635713
000070 44 d9 cb 3d a2 00 83 3d bd 7d 66 bd db 71 a1 bd
       0.099535495 0.06396605 -0.056272257 -0.07883044
000080 d5 cd 3e be 6b 74 07 3d 75 81 ea bc da 89 4f bd
       -0.18633206 0.03307001 -0.028626183 -0.050668575
000090 e3 7d 7c bd 16 c9 ce bd 47 60 12 be a3 44 8d 3d
       -0.061643492 -0.10096948 -0.1429454 0.06897857
0000a0 7c 47 f5 3d f3 90 45 3d a4 06 df bd e1 97 eb 3c
       0.11976525 0.048233937 -0.108899385 0.028758945
0000b0 c7 73 36 3e 28 9e e6 bc 2c 87 20 3c 99 65 e3 3d
       0.17817603 -0.028151587 0.0097978525 0.111033626
0000c0 91 ee 72 3d c2 3e 1a 3e 22 4b 62 bd 6e 77 5a be
       0.059309546 0.15063003 -0.055247433 -0.21334621
0000d0 6c 00 99 3b bf 69 97 ba 7a 13 26 bd 71 a7 5e bd
       0.0046692397 -0.00115519 -0.040545918 -0.054358903
0000e0 21 cf 14 3d 32 20 36 3e 19 4e 9b bc 57 03 e6 be
       0.036330346 0.17785719 -0.018958138 -0.44924423
0000f0 4c 69 00 3e 14 54 d2 3d b5 17 04 3e 59 af 0b be
       0.12540168 0.10269943 0.12899669 -0.13641109
000100 6c 38 bd bd b5 1b 93 bd 05 f4 f6 3c 01 62 96 bd
       -0.09239277 -0.07183019 0.030145654 -0.073429115
000110 90 af 54 bd 01 1e 8d bd 28 cb 03 3d d0 61 15 bd
       -0.051925242 -0.068904884 0.032176167 -0.036470234
000120 a5 78 a2 bd c3 72 ef bc cf c8 cb bb 11 2c c9 bd
       -0.07933167 -0.029229527 -0.0062190066 -0.09822858
000130 0d f0 88 bd cd b5 c3 3d 61 a6 5a bc 7d 3d ab 3d
       -0.06686411 0.0955616 -0.013345332 0.08361337
000140 29 43 77 3d 81 89 31 bd 5d 1d 90 3d 96 72 ef bd
       0.060366783 -0.043344025 0.070368506 -0.116917774
000150 58 72 9b 3d 87 5d a2 3d 7c 0b 84 bd 40 e7 4b bd
       0.07590169 0.07927995 -0.06447503 -0.049781084
000160 01 fb f0 bd d1 be 15 3e ce 76 c7 bd 38 32 f2 3d
       -0.11766625 0.14623572 -0.09739457 0.11825985
000170 4f 1f 81 3d ee bf d0 bd d2 5b 73 bd b4 76 67 3d
       0.063048 -0.10192858 -0.05941374 0.05650969
000180 4c c2 18 be 0e 63 c7 bd 40 55 59 3c 0f 0c c9 3d
       -0.14917868 -0.0973569 0.013264954 0.09816753
000190 d3 86 95 3d 32 6b 0a 3d 68 e4 6b 3d 3a 95 89 bd
       0.07301106 0.033793636 0.057590872 -0.06717916
0001a0 0a d0 e0 3d 49 06 f7 3d 2f b1 9b bd 08 09 68 bd
       0.1097718 0.12061746 -0.076021545 -0.056649238
0001b0 0f bc 3a bd 32 8b 3d bd 83 33 de bd 19 d7 0e be
       -0.045589503 -0.046275325 -0.10849669 -0.1394924
0001c0 2a f1 01 be c9 f7 e5 3d 56 5e 66 3d e2 c7 ed bd
       -0.12689653 0.11228902 0.05624231 -0.1161039
0001d0 ee ba 1a 3b 48 60 b5 bd 78 34 35 bd 22 c2 34 b9
       0.0023609954 -0.08856255 -0.04423949 -0.00017238458
0001e0 a1 fe 42 bd 9a d5 de bd 3f b0 88 bd ce 61 dc 3b
       -0.047606114 -0.10880585 -0.06674241 0.0067255264
0001f0 20 41 7f bd 82 3e ab 3d e7 4d 6a ba 37 e7 ea bd
       -0.062317967 0.08361532 -0.0008938 -0.11469882
000200 3b e7 93 3d 3a de 17 be c9 65 9d bd 36 e6 06 3d
       0.07221838 -0.14830866 -0.076854296 0.03293439
000210 87 b9 14 bd 56 26 a2 3d 2b 7c eb bb 7b 53 53 3d
       -0.036309745 0.07917468 -0.007186433 0.051593285
000220 06 f9 84 bd ab 21 d6 3d fa 57 34 3d 46 01 2b be
       -0.0649281 0.104556404 0.044029213 -0.16699705
000230 a1 9c 24 be bb 05 3a bd 4e c8 a3 bd 22 71 88 bd
       -0.16075374 -0.04541562 -0.079971895 -0.06662203
000240 4f c3 dc 3d 6d d8 27 3d c0 81 fb 3b 1e cd bd bd
       0.1077944 0.040977884 0.0076753795 -0.092676386
000250 2c ce 20 3e dd b5 f8 bc fa f8 f4 3b 14 53 05 be
       0.15703648 -0.030360157 0.0074759694 -0.13019973
000260 b6 50 ad 3d cd b0 9a bc bc b3 23 bd 1f cc 38 bd
       0.0846266 -0.018883133 -0.03996633 -0.04511654
000270 a6 c6 e9 bd 52 62 25 3e 0c 72 cc bd 21 79 90 3d
       -0.11414842 0.16150787 -0.0998269 0.070543535
000280 01 02 0d be f6 d1 b1 bd aa ed e3 bc 2d de 81 bd
       -0.13770296 -0.08682625 -0.027823288 -0.06341205
000290 7c 30 91 bd a0 33 06 be 80 bc 30 3d 55 ce f1 bc
       -0.07089326 -0.13105631 0.043148518 -0.029517332
0002a0 ce 42 81 bd 6e fb 60 be cc 8c f4 bd 42 e2 64 3d
       -0.0631157 -0.21970913 -0.119409174 0.05587984
0002b0 8c 41 8d 3c f7 1b 73 3d 9d 6d 4c bd bc f7 80 3d
       0.01724317 0.05935284 -0.049909223 0.062972516
0002c0 df d2 64 bd 9a d8 7d bd c8 09 02 be 61 7b a4 3d
       -0.055865165 -0.061974145 -0.12699044 0.08031345
0002d0 11 d4 89 bd 01 f1 83 3d cc 39 e4 bd fe a4 ea 3b
       -0.067299016 0.06442452 -0.111438364 0.007160782
0002e0 42 1a 1d bd 4d be f5 3d d5 42 fc 3d 3a c0 0b 3e
       -0.03835512 0.119991876 0.12317435 0.13647547
0002f0 1b fc d4 bc 7e 01 a9 bd 14 29 af bc 75 d8 1a 3d
       -0.02599912 -0.08252238 -0.021381892 0.037804086
000300 81 65 30 3d 78 ee 15 bd 63 e8 d8 3e 2c 8f d5 bd
       0.04306555 -0.036604375 0.42364797 -0.104276985
000310 39 ed f3 bd ba 56 29 3e 15 bc a1 3d 65 5d d4 bd
       -0.11910481 0.1653699 0.07897202 -0.10369376
000320 e0 12 dd 3d 7d 19 37 3d 0f bb bc 3e bc 2c 64 be
       0.10794616 0.044702042 0.36861464 -0.2228269
000330 12 84 f3 3d 98 d7 b1 3c 2c e8 9b 3d ec ec 96 bd
       0.11890425 0.021709248 0.07612643 -0.07369408
000340 02 76 82 bd 2f 45 98 3c 96 7f 25 bc d7 33 6a 3d
       -0.063701645 0.018587677 -0.01010122 0.057178345
000350 49 ac 25 bd 9f a2 24 bd 82 46 da bd cc aa b6 3d
       -0.040447507 -0.04019415 -0.106579795 0.08919296
000360 a2 1e 5b be 9b fa be 3d 55 d0 a2 3d 5f be 8f 3e
       -0.21398404 0.09325143 0.079498924 0.2807493
000370 97 1f 04 be 85 2e b5 bd 44 7d d9 bd 34 2e 20 bf
       -0.12902676 -0.088467635 -0.10619596 -0.625705
000380 cd b2 a1 bd 67 35 9c bd 5e 1e d9 3e 95 2d a7 3d
       -0.07895432 -0.07627373 0.4240598 0.08162991
000390 9d d4 e2 3c aa 51 60 bd b6 89 d0 bd 29 1e 0e 3e
       0.027689273 -0.05476538 -0.10182516 0.13878693
0003a0 0a 23 d8 bd 89 3c a2 3c 63 0c 06 3d 71 52 a0 bd
       -0.10553558 0.019804256 0.032726657 -0.078282245
0003b0 fd 50 2a 3f ad b1 17 3e c6 db d7 bd 77 02 20 be
       0.6652983 0.14813872 -0.10539965 -0.1562594
0003c0 a6 6a 7c 3b 73 3b 0c 3e cf 61 0e 3d 65 88 e8 3d
       0.0038515716 0.13694553 0.034761246 0.1135414
0003d0 23 b7 e0 3d d7 8e a8 3d a7 b7 92 bd 3b 24 f0 3d
       0.109724306 0.082303695 -0.07163935 0.117256604
0003e0 2e a0 c6 bd 04 9b 53 3c c9 7a 8e bd 2d be 0e be
       -0.096985206 0.012915377 -0.06957013 -0.13939734
0003f0 fe e2 a7 be 0e 3f 29 bd f1 5e 40 bd e0 a4 a1 bc
       -0.3279037 -0.0413199 -0.046965543 -0.019731939

fc2.bias f4 [64]
000000 6d da b2 bd 26 86 c7 bd bb 55 8c bc 0b ad 97 3c
       -0.08733068 -0.09742384 -0.017130723 0.01851513
000010 dc 3c be 3d 38 d8 c1 bd 16 bf 6e 3d e9 c2 1b 3d
       0.09288952 -0.094650686 0.058287703 0.038027678
000020 16 43 fe bc 95 f5 b9 bb 70 2e ea bb c5 ce bd 3d
       -0.031037848 -0.0056750276 -0.007146649 0.09267954
000030 8b 42 a3 3d 94 b5 52 bd ac 87 7f bd 0c 87 8b 3d
       0.079716764 -0.051442698 -0.062385246 0.068128675
000040 c0 74 a7 3d 32 54 ef bd 5d 91 85 3d 15 a0 20 3b
       0.08176565 -0.11685981 0.065218665 0.0024509479
000050 9c ee c1 ba 72 9c f4 bc 98 70 cb 3c dd 87 1c 3d
       -0.0014795843 -0.029859755 0.024833962 0.038215507
000060 aa 51 84 bd d6 1f a6 bd cb e9 a6 3d 7e 6f 96 3d
       -0.06460889 -0.08111541 0.08150061 0.07345484
000070 60 5a 82 3d 97 85 cc 3c 12 9f e4 bc 3c f2 5d bd
       0.06364894 0.024966044 -0.027907882 -0.05418609
000080 eb b8 85 bd 04 06 a7 3d 6c 76 70 bc 82 bb cc bd
       -0.06529411 0.08155444 -0.0146766715 -0.09996702
000090 de b6 be 3b c5 14 93 bd da bf ef 3d 4f 70 d2 bd
       0.0058201393 -0.07181696 0.11706515 -0.102753274
0000a0 c3 d0 49 3d 27 3f 7f 3d 09 38 85 3c da aa 57 bd
       0.049271356 0.062316086 0.016262071 -0.05265317
0000b0 a9 e3 28 ba a0 a4 8f 3d e1 11 ab 3d 85 be 13 3d
       -0.00064426154 0.070138216 0.083530195 0.036070365
0000c0 92 d7 9a ba 5b 39 ef 3b c9 d5 83 3c 7b 41 39 3c
       -0.0011813513 0.0073005385 0.016093152 0.011307116
0000d0 cb 00 80 bc 64 1a 95 3d f0 fb 9d 3d 19 31 96 bd
       -0.015625378 0.07280424 0.07714069 -0.073335834
0000e0 24 f2 5f 3d 51 79 8e bd e0 d7 e1 3d bf ef 6a 3d
       0.054674283 -0.06956733 0.11027503 0.057357546
0000f0 69 3f f9 b8 26 18 9e 3d 0c 0e 82 3d 5d c6 b4 bc
       -0.00011885056 0.0771945 0.063503355 -0.022067243

fc3.weight f4 [64, 64]
000000 c4 97 98 3c 2e 70 72 3d 82 5c 79 3d 02 cb c4 bd
       0.018627055 0.059189014 0.060879238 -0.09609033
000010 17 6b f8 bd c7 0c 53 3c b4 5a 38 3d 3c dd 9e bc
       -0.12129801 0.012881464 0.045008376 -0.019392602
000020 68 dc d5 3c 46 16 c7 bd b8 9c ef 3d 18 4a 04 3e
       0.026106074 -0.09721045 0.116998136 0.1291889
000030 a4 cd 60 bd ab 80 17 be 78 b6 15 3e d2 36 0d bd
       -0.054883614 -0.14795177 0.14620388 -0.03447611
000040 8e 75 9b 3d e9 e8 9e 3c 6e 75 df bc d3 49 ff bd
       0.07590781 0.01939817 -0.027277675 -0.12465253
000050 26 36 a4 bd 25 21 12 3d 4a f5 13 3e c5 2a 89 bc
       -0.080181405 0.03567614 0.14449039 -0.016744027
000060 fa fd 14 be de a6 5a bd 78 87 cb bd 3d ed a1 bd
       -0.1455001 -0.053381793 -0.09937948 -0.07906578
000070 a9 6e 59 bd 16 fa 07 3e 05 f1 94 3d 38 f0 c5 bd
       -0.05308405 0.13278994 0.07272533 -0.09664959
000080 fa c9 08 3e d7 5c 88 3d a2 db e9 3c 2d 6f 0c bd
       0.13358298 0.06658333 0.028547112 -0.034285713
000090 66 1b 0a bd 0b e3 94 3d fa d8 24 3d e0 18 b1 3c
       -0.033717535 0.072698675 0.040245987 0.021618307
0000a0 96 0e ba bd 59 c1 eb 3b cd c3 cf 3d 03 71 e2 3d
       -0.09084813 0.0071946797 0.10144768 0.110567115
0000b0 d6 8f 1e bb ef db c5 3d 3e 77 ce 3d bb 8b 38 3d
       -0.002419462 0.0966109 0.100813374 0.045055132
0000c0 3b 6f d6 bc 05 69 3e bd 0b 94 84 3c 5a a6 1d be
       -0.026176086 -0.046486873 0.016183874 -0.1539549
0000d0 6c 18 f5 3d 6e 46 92 bd 46 1d b8 bc 8d f7 b5 3d
       0.11967549 -0.0714234 -0.022474896 0.08885107
0000e0 80 8a 98 3d 0d 20 eb 3d 9a ec 05 be 9a 26 04 be
       0.07448292 0.114807226 -0.13078538 -0.1290535
0000f0 20 d3 61 bc b5 0a 8d 3d b3 08 97 3d fb a6 84 3d
       -0.013783246 0.06886808 0.07374706 0.064771615
000100 49 03 06 3d e9 36 80 bd 1c 8a 86 3c 2c 00 7c 3d
       0.032717977 -0.06260473 0.016423278 0.0615236
000110 74 92 be 3d 9c 96 45 be 6d 6a 17 3d 81 31 b6 3d
       0.093052775 -0.19295734 0.03696673 0.08896161
000120 ad 36 b6 bc 87 ee 9d bd 91 7d ae bd e0 1d 85 3c
       -0.022242868 -0.07711511 -0.08520044 0.016249597
000130 fa 5a c9 3d d1 8c 01 bc 71 b4 fb 3b 84 8a a2 3d
       0.098318055 -0.007907108 0.0076814224 0.07936576
000140 f5 0f 06 3e 35 b4 88 3d 3e 5f 84 b9 04 0f b8 3d
       0.13092025 0.06674997 -0.00025247963 0.08987239
000150 90 88 a3 3d b4 14 5e 3d ee 18 89 bd a3 20 30 bd
       0.079850316 0.054218963 -0.06694208 -0.042999875
000160 3d ae 29 be 05 b2 3e bd 28 36 d2 3d 51 10 00 bd
       -0.16570373 -0.04655649 0.10264236 -0.03126556
000170 7c 52 a9 bd 7a 9d 30 bd 04 4e 97 bd f3 bc d0 3c
       -0.08267686 -0.04311893 -0.07387927 0.025480723
000180 d9 fb 8d bd 9b 41 df bd 9e 4a a3 bd 49 c0 67 3d
       -0.06932802 -0.10901185 -0.079732165 0.05657986
000190 61 c2 94 3c b4 4c 21 be 3d 2c 8c bc 88 f3 77 bd
       0.018159093 -0.15751916 -0.017110938 -0.060534984
0001a0 21 29 c6 bd 6b 78 d2 3d 06 f0 82 bc 39 8e d4 3d
       -0.096758135 0.10276874 -0.015983593 0.10378689
0001b0 bc 69 9d 3d 84 e2 8e bb a5 19 0a bd 0e c9 2a 3c
       0.07686183 -0.004360499 -0.033715863 0.010423912
0001c0 64 96 a2 ba 8d 1b ea 3c d4 57 29 3e 8e e2 ed bd
       -0.0012404439 0.02857759 0.1653741 -0.116154775
0001d0 80 44 3b 3b af 7a 6a 3d 5a 73 b7 3d b6 e0 d8 bd
       0.0028574765 0.057245906 0.089575484 -0.10589735
0001e0 79 7c 1c bd ba 36 6b bc 76 ee f7 bc a7 25 07 be
       -0.038204644 -0.01435631 -0.030265074 -0.13197957
0001f0 8e 8c ef 3c 2c 80 88 bd 87 f0 14 bd 8f 3b e3 bd
       0.029241826 -0.06665072 -0.036362197 -0.11095344
000200 45 55 87 bd d7 e6 1f bc 6f b0 01 be b8 ef 4f 3b
       -0.06608061 -0.009759626 -0.1266496 0.0031728577
000210 95 d4 a4 3b 00 c7 c4 bc 12 7d ca bd e6 8a e0 bd
       0.0050302246 -0.024020672 -0.098871365 -0.10963993
000220 0c 7f 69 bd 31 a6 88 bc 13 fc c6 3c 20 9f ae 3c
       -0.057005927 -0.016680809 0.02429012 0.021316111
000230 d6 c1 27 bd 39 b3 b8 3d 52 ad e7 bc 66 09 c5 bd
       -0.04095634 0.09018559 -0.028280888 -0.09620933
000240 0c 0d c8 bd 7b 15 94 bd 7a ab ed bd b0 14 6d 3d
       -0.097681135 -0.072306596 -0.11604972 0.057881057
000250 7b f4 45 bb 02 d6 cd bd e4 d7 37 bd 8b 1f 5a 3d
       -0.0030205536 -0.100505844 -0.044883624 0.053252738
000260 24 25 9a 3c 17 3a 96 3d c5 16 50 bc 34 91 cb bd
       0.018816538 0.073352985 -0.012700741 -0.09939805
000270 36 43 ea 3c f8 a0 3f bd 78 0e 8c bd e5 ec d3 bb
       0.028596502 -0.04678437 -0.06838697 -0.006467449
000280 c1 47 12 3d 10 67 1d bd 9a d4 9b bd b8 62 ac bc
       0.03571296 -0.038428366 -0.0760891 -0.021043167
000290 17 30 27 bc 56 80 71 bd 56 7a b2 bd be e7 b8 bd
       -0.010204337 -0.05896028 -0.0871474 -0.09028576
0002a0 32 d1 f0 bd 3a af ac 3c c5 13 19 3d 85 74 88 bd
       -0.11758651 0.021079648 0.03737237 -0.06662849
0002b0 c8 9b 88 bd 4c d4 8f 3d a2 67 aa bd b9 ae 1c bd
       -0.06670338 0.07022914 -0.08320548 -0.038252566
0002c0 d2 7d 7d bc 51 83 8d bd 61 7a 66 3c 9c 88 c8 bd
       -0.015471892 -0.06909812 0.014067263 -0.09791681
0002d0 55 c2 2a 3d 16 73 83 bc ee f0 91 bd af b9 9a 3b
       0.041689236 -0.016046088 -0.07126032 0.0047218422
0002e0 ca 23 e4 bd a1 22 0e be a0 5a cb bd 8c c5 a5 3d
       -0.11139639 -0.13880397 -0.09929395 0.0809432
0002f0 0e a7 70 3c c8 4b ad 3d 03 bf 57 bc a7 46 f7 3b
       0.014688266 0.0846172 -0.013168099 0.007546264
000300 b2 ee db 3d f5 05 d8 3d 6a 08 b8 bc 92 9c 5e 3d
       0.10738887 0.10548011 -0.02246495 0.054348536
000310 50 e2 84 3b cf 75 a1 bd 35 b5 18 bd e6 0e a6 bd
       0.004055299 -0.07883798 -0.037282187 -0.081083104
000320 b6 6d 87 bd 4d a6 d0 3d 9c 4f c6 bd b8 95 e4 3b
       -0.066127226 0.10187969 -0.09683153 0.0069758557
000330 5f f2 8d 3d 6c cf 23 bd c3 26 de bc 30 67 20 3d
       0.06930994 -0.039992735 -0.027118092 0.039160907
000340 d3 0a bd 3d 99 89 42 bd ee 78 f3 3d 27 55 9c bd
       0.0923058 -0.047494505 0.118883 -0.07633429
000350 34 66 48 bd 6c 16 8d 3b 93 99 fc bc 5e 85 1f bd
       -0.048925593 0.0043056514 -0.030834949 -0.03894555
000360 38 5e 1e bd 9a bc 5b ba 54 82 b7 bc 67 90 a3 bd
       -0.038664073 -0.0008382291 -0.022401012 -0.07986527
000370 56 5c 12 3c c9 ef 05 3d 0f cc dd 3d 1f 14 69 3d
       0.008933147 0.03269938 0.10829937 0.056903955
000380 9c 6a c9 3d 08 86 36 bd d3 3b fa bd a1 54 b4 bd
       0.09834787 -0.044561416 -0.12218442 -0.08805204
000390 aa ad 9f bc e3 52 98 3d 3e 4e da 3d da f3 a1 bd
       -0.01949199 0.074376844 0.10659455 -0.07907839
0003a0 65 98 02 3d 9d 5d 0f 3d 49 87 fe 3d ff 5d a0 bc
       0.031883616 0.035001386 0.12428147 -0.01957607
0003b0 3e 6a 9a bd a7 ae 2e bc a1 83 c1 bc a2 eb b5 3d
       -0.07539795 -0.010661758 -0.023622336 0.08882834
0003c0 f3 f7 81 3a b2 29 c6 3d fd ef b8 3d 38 62 a4 bd
       0.0009915814 0.096759215 0.09030149 -0.08026546
0003d0 76 b1 e3 bd 32 14 ad bd 05 e0 b0 3c 3d 7a a9 bd
       -0.11117832 -0.084511176 0.021591196 -0.08275268
0003e0 0c 95 a0 3d 6b 59 94 3c 1e 79 2b bd 6d c0 c7 bd
       0.078409284 0.018109044 -0.041863553 -0.09753499
0003f0 d2 bf c9 bd b4 a6 7d 3d 54 3b cf bc 30 68 d5 3b
       -0.0985104 0.06192656 -0.025296845 0.0065126643

fc3.bias f4 [64]
000000 96 bf be 3d 2b 80 51 bd 33 e2 11 3d 21 8b e6 bd
       0.09313886 -0.05114762 0.03561611 -0.112570055
000010 05 21 83 bc ab ac 8a bc d2 15 94 bd cc 88 72 3d
       -0.016006956 -0.016928038 -0.072307244 0.05921249
000020 d4 b8 e4 3d da 0c 01 bd 6f 24 df 3d 81 58 5e 3d
       0.11168066 -0.031506397 0.10895621 0.054283623
000030 df bf 80 bd 64 98 a2 bd d8 0a ce b9 23 46 cb bd
       -0.062865965 -0.079392225 -0.0003929946 -0.09925487
000040 cb c9 d2 bc 11 9b 5f 3d c2 ac 04 bc 07 9c 2b bd
       -0.025730988 0.054591242 -0.008097829 -0.041896846
000050 bd d4 f5 bc 37 96 64 bb 34 24 76 bc 60 f9 07 3c
       -0.030008668 -0.0034879574 -0.01502328 0.008299202
000060 08 0a 2c bb 22 67 ff bc 70 a1 de bd 6f dd d7 3c
       -0.0026251096 -0.031177107 -0.108706355 0.026350705
000070 09 e9 b8 bd ab 0d da bd 8e e6 d4 bd b8 72 95 bd
       -0.09028823 -0.10647138 -0.10395537 -0.072972715
000080 92 af f7 bd 28 36 87 3d 25 cf a0 bc 85 26 77 3d
       -0.12094034 0.06602126 -0.019630024 0.06033947
000090 be 60 87 3d 93 fe d5 bb 2b 1f bf 3d d1 6c 5c 3d
       0.06610249 -0.0065305918 0.09332117 0.053814713
0000a0 d4 17 3d 3d cb e0 ef bc c8 78 80 3d 61 5f 67 bc
       0.046165302 -0.029281994 0.06273037 -0.014121861
0000b0 e5 ec bd bc 01 cd ff bd 38 fe fd bb 46 a9 bb bc
       -0.02318425 -0.12490273 -0.0077512525 -0.022907864
0000c0 9d ba a2 bd fa db c9 3d 3e 18 a3 bb 75 7f 67 3d
       -0.0794575 0.0985641 -0.004977255 0.056518037
0000d0 27 32 ce 3d 12 b0 e8 3d ad 09 f8 3c 5b e4 6d 3c
       0.100681596 0.11361708 0.030278051 0.014519776
0000e0 52 5b d3 bd 5a da ec bd 9e c5 1c 3d 3d af 9e 3c
       -0.10320152 -0.11565085 0.0382744 0.01937067
0000f0 19 27 4c bd a1 3c 21 bd 98 65 88 bd 39 79 47 3d
       -0.049841974 -0.03936446 -0.066600025 0.04869959

fc_out.weight f4 [2, 64]
000000 f6 7a 5a 3d 50 4c 3d bd bd 9f f4 b9 f1 21 1a 3d
       0.05333992 -0.046215355 -0.0004665832 0.037630025
000010 61 21 3e bd 17 3a a6 3d bf f2 94 3d b0 6d 47 3d
       -0.04641855 0.081165485 0.07272863 0.04868859
000020 93 ed a2 3d 45 fc 5f bc 0e b9 e9 3c a1 6e d4 3d
       0.0795547 -0.013670986 0.028530624 0.10372663
000030 89 98 cc 3d 94 b6 91 bd 16 b9 40 b9 e5 99 97 3d
       0.09990031 -0.07114902 -0.00018379497 0.074024
000040 6e 5b b8 3d 19 65 02 be aa 18 33 bd a6 08 52 ba
       0.09001814 -0.12733878 -0.043724693 -0.0008012153
000050 a0 1a 1e 3e 4c 9e cb 3d 15 78 38 3e 23 ce 11 3e
       0.15439844 0.09942302 0.18014558 0.14238791
000060 4d 10 08 bd 0e f6 32 3c bd a6 fc 3d 1b bc 3f 3e
       -0.03321867 0.010922922 0.1233649 0.187241
000070 e8 be a9 bd d2 7a 87 bd bd b9 26 bc f3 f2 c9 3d
       -0.082883656 -0.06615223 -0.010176119 0.09860792
000080 e9 a2 5f 3d df 5d 00 3e 3b fd 1d be c0 00 98 bb
       0.054598723 0.12535809 -0.15428631 -0.0046387613
000090 bd 3b 07 3d ba e7 5f bc 76 6d a5 3d 99 f2 4b 3d
       0.033015955 -0.013666088 0.08077519 0.049791906
0000a0 71 29 05 be 3c 4f 0f 3b 8a 91 b9 bc 22 6d 11 3c
       -0.1300409 0.0021867296 -0.022652406 0.008876117
0000b0 50 be 29 be 3f 78 07 3e 65 bf 47 ba 2d 66 a2 3b
       -0.16576505 0.13229464 -0.00076197676 0.004956028
0000c0 74 10 f8 3c 65 f7 b8 bd ca 17 a0 bc df 82 d2 b9
       0.030281283 -0.09031562 -0.019542594 -0.00040151828
0000d0 32 b7 99 bd e9 65 c0 3d fb 1d f7 3d b7 97 aa bc
       -0.07505645 0.09394438 0.12066265 -0.020824296
0000e0 71 c3 e5 3c 14 5e 61 3d 69 4e 16 3c c2 ba cf 3c
       0.028047295 0.05502136 0.009173968 0.025357608
0000f0 86 eb c7 3d 48 93 b4 3d 22 02 b4 3d a6 84 a1 3a
       0.097617194 0.08817154 0.08789469 0.0012322858
000100 94 02 c3 bd 3e 63 31 bd cd 48 81 ba 3e 54 0f bd
       -0.09521976 -0.043307535 -0.0009863615 -0.03499245
000110 19 9a 42 bd 30 6a 0a be 57 b7 30 3c de a2 1c 3d
       -0.04751024 -0.1351707 0.010785899 0.03824126
000120 d9 bb 6a bd ad 21 82 3c a1 16 80 3d 35 b1 bf 3d
       -0.05730805 0.015885198 0.06254316 0.093599714
000130 b2 0d 07 3c a7 77 3c 3d 03 87 fd 3a cd 62 89 3d
       0.008243011 0.046012547 0.0019342605 0.06708298
000140 e5 91 9a bd e9 a4 ca 3d e2 f2 bc bd 7b b9 9b 3a
       -0.075473584 0.09894735 -0.09226014 0.0011880839
000150 02 4b 23 3e 93 58 c0 bd c1 f3 67 bd a3 9b a9 bd
       0.15946582 -0.09391894 -0.056628946 -0.082816385
000160 1c e3 99 3c d1 11 5f 3d 7e b6 bb 3d fe 89 5e bd
       0.018785052 0.05446035 0.09165667 -0.05433082
000170 ab 80 2b bc ad ec 8e bd 5d 2c bb 3d 6a a9 d4 3d
       -0.010467689 -0.06978736 0.09139321 0.10383876
000180 b1 9d 3a bd fb 3f 6e bd 63 cd a2 bd c7 79 3b 3d
       -0.045560542 -0.058166485 -0.07949331 0.045770433
000190 d2 6c 34 3d d0 08 bb bc c5 0d ef 3d ba cd be bd
       0.04404909 -0.02283135 0.11672548 -0.09316583
0001a0 f9 3e 10 bd cd fc 35 3c f0 5d f0 bb cc 41 1f bc
       -0.035216305 0.011107636 -0.007335417 -0.009720277
0001b0 06 d2 ce 3d 37 b9 45 bc 9d ea 96 3a c1 3b 39 3b
       0.100986525 -0.012068084 0.0011514012 0.0028264376
0001c0 08 57 1d 3d c1 46 05 bd a2 e1 7c bd de 1b c1 39
       0.038413078 -0.03253818 -0.061738618 0.0003683259
0001d0 e6 f1 b5 3d 14 5e 6b bd 6d df 4c 3d 23 89 c8 bb
       0.08884029 -0.057462767 0.050017763 -0.0061198636
0001e0 ca 0c 34 3d 14 d9 c3 3d 63 f5 09 3c 2e cd 4c 3c
       0.04395751 0.09562889 0.008420321 0.0125000905
0001f0 4f 36 9d bb bf f1 e0 bd 7c 9e 36 3a a2 06 58 ba
       -0.004797734 -0.109836094 0.0006966365 -0.00082407345

fc_out.bias f4 [2]
000000 96 c3 a4 3d d3 e8 48 3c
       0.080451176 0.012262541
