logs/rl_games/klask/sim_distance_sp_a0_1/nn/klask.pth (torch, 29978 bytes, 24 tensors)

a2c_network.sigma f4 [4]
-2.8548968 -2.7763588 -0.36232594 -0.4877544
00000000: a1b6 36c0 ddaf 31c0 c982 b9be f2ba f9be

a2c_network.actor_mlp.0.weight f4 [32, 12]
1.314052 0.6365511 0.25228798 -0.27908674 0.17380294 0.012072188 -0.1779518 0.18014911
-1.2508407 -1.6377121 -0.3551535 0.60414284 -2.271473 -0.7583422 0.096680574 0.40059778
-0.8792487 -0.44383702 0.08624183 -0.26594177 0.23095298 1.3505795 0.3025118 0.7423767
-1.5698365 -0.08910293 0.11290541 0.032485474 -0.9653657 0.31162372 0.10329845 -0.23082876
1.3065355 -2.3078332 0.41532943 -0.5495534 0.4884403 -1.932026 0.04341701 -0.011556343
-0.13020773 0.2345619 0.50550205 0.04068892 0.29820225 0.6953289 0.6910498 -1.223058
1.2452848 -1.6968411 0.07745772 -0.2828017 0.010870793 0.5257547 -0.041809514 0.070319846
0.20952226 0.44238582 0.24009572 0.31961787 1.6838562 -1.6764987 -0.17258528 -0.1961632
0.20912138 0.18938145 -0.25259307 0.05986427 -1.0051163 -0.66005445 -1.0151604 -0.5543643
-1.7552906 -0.5448767 -0.119602285 -0.23260844 -2.5167503 0.6610842 -0.17130661 0.28029943
-2.9934723 0.3061359 -1.8138411 -2.7824335 0.66554487 0.100720346 -0.279984 0.6413985
0.6095158 -0.28986272 0.25105852 -0.19785477 -0.35011852 -1.9831402 -0.18726009 -0.039649118
-1.2983383 -2.047801 -0.18576044 -0.03654699 -0.8779057 -1.3332722 -0.14756246 0.24922854
-0.28180444 -3.1606445 -0.8798448 -0.09018689 -1.5595031 -0.6988322 -0.23114945 0.32447374
0.32049537 1.5148405 0.0010522002 0.5377966 1.0394571 0.40323082 -0.22735614 1.0087306
-0.95470667 -0.5841493 0.022287734 0.2943247 0.06387815 0.09142511 0.016951317 0.016718283
0.3723972 -2.7931676 -0.019219087 -2.0077152 0.84107196 -2.124367 0.34332082 -0.116749525
2.0570142 -1.0640286 0.3469243 0.036069904 2.813752 -2.9860547 2.7737923 -0.5901836
3.2918093 0.4389233 -0.010403134 -0.0077119535 4.443844 0.42512766 -0.18783906 -0.02900656
5.85812 1.5343918 2.0168116 0.6076213 0.88012004 -0.7493827 0.60708004 -0.22111331
0.81436324 0.41123492 -0.119565986 -0.13343038 0.4194961 -0.19579175 1.3491122 -1.4636033
1.5572891 0.17705661 -0.099612355 -0.37382835 1.1114609 1.002868 -0.04238734 -0.013890701
0.5013459 -0.53698725 3.5849965 -0.355373 0.48102424 1.0947281 0.065860905 -0.07339018
-0.8967757 -0.13201581 -0.1712467 -0.033129945 -1.2264532 -0.17570396 0.61459583 0.98965293
-1.7627542 1.0377232 0.00318467 0.08254133 -2.9471464 0.23625046 -0.06773413 0.024956774
-4.59784 1.6509484 -3.3228378 1.6124972 4.0345364 0.44384518 0.07667453 0.17419718
2.6170769 0.38292792 0.3165664 0.0360359 1.412305 1.4152992 0.086538434 -0.02864115
0.6526255 -1.297883 0.002928377 0.02339448 -0.1747083 0.88618135 -0.28421378 0.066165164
-0.80021167 -0.4642778 -0.8703351 0.3771676 -0.5742327 -0.47409582 0.15787208 0.04160675
-0.86518 -1.09618 0.1241056 -0.12535168 -1.3282003 0.56789494 0.22197293 -0.73106855
-1.0930943 -2.3587863 0.07447907 -0.4919538 0.22049913 -0.580431 0.073725075 0.25241283
1.4555281 -2.7068005 0.50630456 -0.79077667 -3.6318672 1.2842029 0.004543138 0.025822155
00000000: db32 a83f 03f5 223f e42b 813e 75e4 8ebe
00000010: 66f9 313e 6dca 453c ff38 36be 0279 383e
00000020: 8c1b a0bf 8da0 d1bf aed6 b5be 1ba9 1a3f
00000030: d05f 11c0 b722 42bf 7700 c63d 271b cd3e
00000040: 7116 61bf 9b3e e3be 8e9f b03d 8529 88be
00000050: f07e 6c3e cadf ac3f d4e2 9a3e 660c 3e3f
00000060: 67f0 c8bf 997b b6bd f43a e73d 7d0f 053d
00000070: 3522 77bf 258d 9f3e 238e d33d 605e 6cbe
00000080: 8e3c a73f 8ab3 13c0 0fa6 d43e 88af 0cbf
00000090: d914 fa3e a14c f7bf 09d6 313d d156 3dbc
000000a0: 2d55 05be ff30 703e 9568 013f 6da9 263d
000000b0: f7ad 983e 1301 323f a4e8 303f 2a8d 9cbf
000000c0: 7e65 9f3f 1732 d9bf 27a2 9e3d 62cb 90be
000000d0: 691b 323c dc97 063f 7440 2bbd da03 903d
000000e0: 018d 563e 6580 e23e a7db 753e f4a4 a33e
000000f0: 9a88 d73f 8297 d6bf 32ba 30be 02df 48be
00000100: ea23 563e 36ed 413e e153 81be 3d34 753d
00000110: a7a7 80bf 54f9 28bf c7f0 81bf d2ea 0dbf
00000120: 5dad e0bf 0a7d 0bbf 0bf2 f4bd e830 6ebe
00000130: 7012 21c0 d03c 293f 006b 2fbe 6883 8f3e
00000140: 0d95 3fc0 d8bd 9c3e f22b e8bf 6413 32c0
00000150: 2661 2a3f 7846 ce3d 105a 8fbe b132 243f
00000160: 3a09 1c3f e368 94be be8a 803e 719a 4abe
00000170: bc42 b3be 8ad7 fdbf 1cc1 3fbe 1d67 22bd
00000180: f32f a6bf 2c0f 03c0 fc37 3ebe 4cb2 15bd
00000190: 6ebe 60bf aaa8 aabf 9d1a 17be c435 7f3e
000001a0: ac48 90be 0048 4ac0 823d 61bf e7b3 b8bd
000001b0: cc9d c7bf abe6 32bf 71b2 6cbe 6c21 a63e
000001c0: f817 a43e 4be6 c13f fbe9 893a 0aad 093f
000001d0: ee0c 853f 4574 ce3e 0cd0 68be 161e 813f
000001e0: a867 74bf cf8a 15bf c494 b63c bab1 963e
000001f0: 8cd2 823d 173d bb3d 7ddd 8a3c c8f4 883c
00000200: d9aa be3e 42c3 32c0 5971 9dbc 687e 00c0
00000210: 7e50 573f a1f5 07c0 bfc7 af3e 601a efbd
00000220: 1fa6 0340 1732 88bf 10a0 b13e 09be 133d
00000230: 8314 3440 851b 3fc0 d085 3140 4616 17bf
00000240: 01ad 5240 8eba e03e e871 2abc 8eb4 fcbb
00000250: f833 8e40 55aa d93e e258 40be 2a9f edbc
00000260: b875 bb40 f366 c43f 7113 0140 128d 1b3f
00000270: 8c4f 613f 8bd7 3fbf 9969 1b3f 876b 62be
00000280: 1c7a 503f 628d d23e 03df f4bd f9a1 08be
00000290: 31c8 d63e a27d 48be b5af ac3f 5a57 bbbf
000002a0: 4055 c73f 544e 353e 9001 ccbd 6e66 bfbe
000002b0: 5a44 8e3f fb5d 803f 599e 2dbd d395 63bc
000002c0: 3458 003f ff77 09bf 9570 6540 73f3 b5be
000002d0: cf48 f63e 0d20 8c3f 15e2 863d 974d 96bd
000002e0: 1893 65bf 272f 07be 4c5b 2fbe 44b3 07bd
000002f0: 6bfc 9cbf bdeb 33be 2756 1d3f e559 7d3f
00000300: eea1 e1bf 1dd4 843f e5b5 503b 6e0b a93d
00000310: 0c9e 3cc0 a4eb 713e 31b8 8abd 2672 cc3c
00000320: 8121 93c0 4752 d33f 60a9 54c0 4f66 ce3f
00000330: ec1a 8140 ad3f e33e 8907 9d3d bf60 323e
00000340: 307e 2740 210f c43e fe14 a23e 619a 133d
00000350: 69c6 b43f 8628 b53f 103b b13d d8a0 eabc
00000360: 7712 273f 0821 a6bf 03ea 3f3b c8a5 bf3c
00000370: bce6 32be c8dc 623f 7884 91be 9a81 873d
00000380: acda 4cbf d2b5 edbe 48ce 5ebf 1d1c c13e
00000390: ea00 13bf b0bc f2be 38a9 213e d76b 2a3d
000003a0: 707c 5dbf a04f 8cbf 142b fe3d 315c 00be
000003b0: 7802 aabf 9061 113f df4c 633e 4f27 3bbf
000003c0: 84ea 8bbf 5bf6 16c0 7c88 983d 5ee1 fbbe
000003d0: 86ca 613e 2097 14bf 2cfd 963d 413c 813e
000003e0: bf4e ba3f 383c 2dc0 2d9d 013f 5770 4abf
000003f0: 8370 68c0 c360 a43f 9bde 943b fc88 d33c

a2c_network.actor_mlp.0.bias f4 [32]
-0.16952653 0.4518135 -0.31328747 -0.3774122 0.072302334 -0.12149788 -0.22692621 -0.9306871
0.56672984 -0.47347838 0.30304337 0.338747 0.033275418 -0.38373956 -0.4008728 0.2748113
0.053997036 0.1388882 -0.24195117 0.6283353 0.27875727 0.11812573 0.46396536 0.44208175
0.5425526 -0.29604927 -0.5744638 0.0725468 -0.0036208462 0.35715395 -0.567203 -0.37834945
00000000: 5d98 2dbe 1954 e73e 3767 a0be 2c3c c1be
00000010: 3f13 943d e1d3 f8bd 585f 68be 8341 6ebf
00000020: 3515 113f c26b f2be 8028 9b3e 3f70 ad3e
00000030: ce4b 083d 8379 c4be 333f cdbe 11b4 8c3e
00000040: ff2b 5d3d b538 0e3e 0cc2 77be 95da 203f
00000050: 46b9 8e3e e7eb f13d de8c ed3e 8a58 e23e
00000060: bae4 0a3f c593 97be 0f10 13bf 6b93 943d
00000070: b84b 6dbb e2dc b63e 3734 11bf 05b7 c1be

a2c_network.actor_mlp.2.weight f4 [32, 32]
0.32698774 -0.2659412 0.72795194 -0.4869682 -0.12139181 -0.3363831 -0.18189919 0.6767133
-0.23098996 -0.023419773 0.3491796 -0.038734175 -0.2923835 0.054263685 0.2979395 0.20904191
-0.054242443 -0.32880387 -0.21694678 -0.24302426 0.12267858 -0.2812786 0.27338517 -0.4305385
-0.41730067 0.40114924 0.0813672 0.5144448 -0.02905734 -0.17624958 0.7984702 0.19063447
-0.4637523 0.25676927 0.6462121 -1.1919714 -0.5277929 -0.82932234 -0.2494185 -0.21393384
0.16727453 0.045336057 0.48336467 -0.12365644 -0.10764904 -0.600555 -0.27481815 -0.09906643
-0.30003077 -0.5589108 -0.5401257 -0.33854073 0.05915627 -0.1520056 -0.37566566 -0.46671048
-0.5784348 0.0648746 0.09510631 -0.22914588 0.44799078 -0.09993422 0.5326425 0.55938774
0.8760798 -0.981291 -0.6632972 -2.7449086 -0.80775803 -0.43264803 -2.612461 0.6950647
-0.16436839 0.26088443 -0.5673745 -0.19846998 -3.175837 -0.5116486 -1.7450862 -0.9145513
-3.6621392 -0.83887404 -0.5182488 -0.6142785 -0.3532143 -1.565132 -2.850407 -0.54037845
-0.23351155 0.35231483 0.35855448 1.6916786 -1.6307657 -1.2352092 0.73762864 -1.0222912
-1.5422528 0.6865882 -0.6462264 0.9138304 -0.3123691 0.3940487 0.68875414 -0.2782036
0.15485165 0.03186904 0.5837192 0.22636245 0.76495224 -0.44147202 -0.20081045 -0.53538984
1.400562 0.094254434 -0.030059006 0.53870815 0.2079374 0.79041547 0.16143788 0.8128253
0.37890592 -0.7694004 -0.76124275 -1.4746265 0.34114686 0.3909792 -0.86463976 -0.24740015
0.02536598 -0.20601143 -0.53110117 0.0905434 0.25670552 0.6394841 -0.025979614 -0.33014616
0.09647577 0.014346985 -1.217035 -0.32226294 -0.78183264 -0.1344276 -0.9910342 -0.9838486
-1.0021607 0.037537787 0.53365767 0.07747225 -0.11930354 -0.286083 -0.56499755 -0.06643509
0.23797189 -0.32008645 0.023828335 -0.024036517 -0.93272305 -0.14890413 -0.20849198 0.064489
-1.2013971 0.7911198 -0.4758251 0.43080866 -0.36332837 0.00057217217 0.13908248 -0.5343902
0.1784921 -0.09501356 0.1678787 0.19806251 0.7785983 -0.41162395 -0.37991402 -0.7275532
0.6249495 0.054259576 -0.49669167 0.35081697 0.22331816 0.489985 0.31734902 0.40779746
0.04427904 -0.42051283 -0.6558046 -1.6042147 0.43946826 -0.029928079 -0.780315 -0.09064099
-0.2629873 0.18757387 0.08447278 0.5715805 -0.3728008 -0.21144284 0.48542264 0.19503412
-3.9119592 1.0338725 -1.7508475 -1.9057343 -0.06340706 0.50776994 0.3062468 -0.5087747
0.009840058 -0.684924 0.34760633 -0.9710317 -1.109603 0.41830653 0.039996456 -0.41476986
-0.717159 -0.0862409 0.3025219 -0.8975579 0.7828596 -0.21465944 0.55605346 0.6877864
0.7468339 0.16585815 0.63319737 -0.8915476 -0.5498404 -0.75945777 -1.5681648 0.6352081
0.13296348 0.37580374 -0.3826004 0.24356708 -2.9373884 -0.46156016 -0.21902873 -0.12439125
-1.121602 -2.6763506 0.3685259 -0.56686103 0.3966409 -1.7242908 -1.2802478 -0.46464506
-0.6371593 0.18665622 0.9883303 0.16539706 -0.28094065 -0.90543956 1.7579122 0.25417474
00000000: f06a a73e 7229 88be 0f5b 3a3f e553 f9be
00000010: 459c f8bd 683a acbe c843 3abe 153d 2d3f
00000020: a288 6cbe d3da bfbc abc7 b23e baa7 1ebd
00000030: 4ab3 95be 9943 5e3d 878b 983e 150f 563e
00000040: 532d 5ebd fb58 a8be 4c27 5ebe 5adb 78be
00000050: e83e fb3d c003 90be 24f9 8b3e 8b6f dcbe
00000060: 6fa8 d5be 6f63 cd3e d9a3 a63d a8b2 033f
00000070: a909 eebc c57a 34be 8b68 4c3f af35 433e
00000080: f170 edbe 4377 833e 286e 253f 8592 98bf
00000090: 6f1d 07bf 784e 54bf 9067 7fbe 7911 5bbe
000000a0: 044a 2b3e 4db2 393d 937b f73e 963f fdbd
000000b0: 1a77 dcbd f9bd 19bf f7b4 8cbe 57e3 cabd
000000c0: a29d 99be c714 0fbf ae45 0abf 3655 adbe
000000d0: d84d 723d 5ba7 1bbe 4057 c0be adf4 eebe
000000e0: 4e14 14bf f9dc 843d 19c7 c23d 38a5 6abe
000000f0: 0c5f e53e 50aa ccbd 425b 083f 0934 0f3f
00000100: c446 603f e335 7bbf d8cd 29bf 95ac 2fc0
00000110: 3bc9 4ebf 0b84 ddbe 9032 27c0 c3ef 313f
00000120: 3050 28be a592 853e 753f 11bf b73b 4bbe
00000130: ea40 4bc0 67fb 02bf fc5e dfbf 0920 6abf
00000140: 7d60 6ac0 73c0 56bf f4ab 04bf 5b41 1dbf
00000150: 81d8 b4be 3f56 c8bf 116d 36c0 3e56 0abf
00000160: a71d 6fbe 9c62 b43e 7494 b73e ed88 d83f
00000170: eebc d0bf 561b 9ebf 3bd5 3c3f 70da 82bf
00000180: 8a68 c5bf 3fc4 2f3f 186f 25bf caf0 693f
00000190: d8ee 9fbe c0c0 c93e 3152 303f b470 8ebe
000001a0: 6e91 1e3e 1c89 023d 9f6e 153f 8fcb 673e
000001b0: e9d3 433f 9f08 e2be 41a1 4dbe 4f0f 09bf
000001c0: 9e45 b33f 7808 c13d 4e3e f6bc c7e8 093f
000001d0: 8bed 543e ab58 4a3f f94f 253e 5215 503f
000001e0: f5ff c13e 6df7 44bf cee0 42bf 90c0 bcbf
000001f0: cdaa ae3e 6d2e c83e 0859 5dbf 7756 7dbe
00000200: 51cc cf3c a9f4 52be 3ff6 07bf d16e b93d
00000210: e86e 833e 3bb5 233f 33d3 d4bc eb08 a9be
00000220: 1795 c53d 9e0f 6b3c cec7 9bbf a6ff a4be
00000230: 2f26 48bf 64a7 09be 6bb4 7dbf 80dd 7bbf
00000240: cd46 80bf 39c1 193d ca9d 083f c5a9 9e3d
00000250: 6a55 f4bd 7979 92be aea3 10bf 1f0f 88bd
00000260: e7ae 733e 5fe2 a3be a433 c33c 3be8 c4bc
00000270: f0c6 6ebf 537a 18be ec7e 55be cf12 843d
00000280: 61c7 99bf d486 4a3f 599f f3be f492 dc3e
00000290: 2d06 babe d3fd 153a a36b 0e3e cccd 08bf
000002a0: a2c6 363e 7896 c2bd 65e8 2b3e e6d0 4a3e
000002b0: 3852 473f 60c0 d2be 1784 c2be ed40 3abf
000002c0: b1fc 1f3f 4a3f 5e3d 5f4e febe 489e b33e
000002d0: 84ad 643e 50df fa3e 927b a23e d4ca d03e
000002e0: f05d 353d 754d d7be cfe2 27bf e856 cdbf
000002f0: fc01 e13e bb2b f5bc b9c2 47bf fca1 b9bd
00000300: 45a6 86be 5d13 403e 1100 ad3d 1a53 123f
00000310: bfdf bebe 7984 58be 5189 f83e 06b7 473e
00000320: 8a5d 7ac0 ef55 843f c51b e0bf 1aef f3bf
00000330: 90db 81bd 36fd 013f 61cc 9c3e 0f3f 02bf
00000340: 3238 213c 2e57 2fbf 75f9 b13e 8995 78bf
00000350: 7907 8ebf 462c d63e 53d3 233d b75c d4be
00000360: bb97 37bf 129f b0bd 27e4 9a3e 5bc6 65bf
00000370: 7d69 483f afcf 5bbe 8559 0e3f c512 303f
00000380: 8230 3f3f b8d6 293e 3919 223f 773c 64bf
00000390: 57c2 0cbf d36b 42bf a0b9 c8bf ff9c 223f
000003a0: 9427 083e 5969 c03e 33e4 c3be a669 793e
000003b0: 2cfe 3bc0 9d51 ecbe 1149 60be d7c0 febd
000003c0: a890 8fbf 5449 2bc0 6daf bc3e ce1d 11bf
000003d0: 8414 cb3e 90b5 dcbf 29df a3bf f5e5 edbe
000003e0: df1c 23bf cf22 3f3e 3703 7d3f d95d 293e
000003f0: 74d7 8fbe e3ca 67bf 4403 e13f 3123 823e

a2c_network.actor_mlp.2.bias f4 [32]
-0.49179462 -0.19242905 -0.28666574 0.30501145 0.013272579 0.38787985 -1.0135171 -0.15909402
-0.29268914 -0.38280842 0.22810206 -0.47918668 -0.3076976 0.5084215 -0.3174927 0.3207858
-0.20009679 0.29383856 -0.312597 -0.2989469 -0.293559 0.07102917 0.657014 0.39211008
-0.28698862 -0.26893517 -0.18003261 -0.3030882 -0.20474769 -0.08352009 -0.9898875 0.13681078
00000000: 81cc fbbe 1f0c 45be dac5 92be 762a 9c3e
00000010: 3b75 593c 3098 c63e eeba 81bf 8be9 22be
00000020: 5adb 95be 77ff c3be 9693 693e f557 f5be
00000030: 8a8a 9dbe e927 023f 678e a2be 093e a43e
00000040: 2ce6 4cbe 0272 963e b70c a0be 910f 99be
00000050: 5e4d 96be be77 913d 1232 283f a7c2 c83e
00000060: 2cf0 92be dfb1 89be 785a 38be 602e 9bbe
00000070: 61a9 51be 950c abbd 4469 7dbf 2018 0c3e

a2c_network.value.weight f4 [1, 32]
-0.5522706 -0.97974926 -5.0870433 0.87801456 -1.568141 0.778113 -1.3248935 -3.6437278
-2.2291179 -2.9583092 -2.871989 -1.5563918 -3.5713725 -2.266383 -4.954719 1.7013152
-3.8403056 1.1089811 -3.2480729 -0.8614335 -4.009321 -2.1371167 1.820049 0.95466065
-1.7582587 -2.7484593 -3.9352665 -4.9851007 -4.3283696 -1.7461303 -1.7745723 0.5451944
00000000: 9b61 0dbf d9d0 7abf 0fc9 a2c0 90c5 603f
00000010: d8b8 c8bf 6a32 473f 1c96 a9bf d632 69c0
00000020: dea9 0ec0 f054 3dc0 abce 37c0 d937 c7bf
00000030: 5e91 64c0 6b0c 11c0 0f8d 9ec0 b2c4 d93f
00000040: 91c7 75c0 18f3 8d3f 6de0 4fc0 e886 5cbf
00000050: 5c4c 80c0 85c6 08c0 5ef7 e83f a464 743f
00000060: 9f0e e1bf c2e6 2fc0 68db 7bc0 f285 9fc0
00000070: 0182 8ac0 3381 dfbf 2f25 e3bf dc91 0b3f

a2c_network.mu.weight f4 [4, 32]
-0.07124609 1.2755342 0.26375428 0.08448663 0.00034688678 0.670072 0.5739112 -0.11977561
0.22532982 -0.26999485 0.14565197 0.12522936 -0.02378967 -0.10367547 0.12867893 -0.26733673
0.07993788 0.044784483 0.017172012 -0.464658 -0.32855925 -0.083569944 0.08969085 -0.16264763
0.08264573 -0.83995044 0.06341519 0.08892177 0.15607731 0.18022574 -0.21388246 -0.9405333
-0.59064645 -0.5788976 0.08610226 0.06491202 0.594142 0.19222195 0.07253963 0.13666695
-0.38701794 -0.1429723 -0.05589553 0.057164453 0.26140055 -0.025510717 -0.24567284 0.6193146
0.31879303 -0.33509153 0.008681994 -0.54116076 0.1668462 -0.061192643 -0.1703294 -0.20781574
-0.1962277 -0.018473102 -0.4787974 -0.31639868 0.26212978 0.45769426 -0.14934514 -0.4215664
0.1014509 -0.29544246 -0.11061743 -0.08370206 -0.030689789 -0.039145775 0.09161652 0.025881467
0.06159045 -0.0028819402 0.06689429 0.12644222 -0.043264013 0.06673489 -0.24654852 -0.0022603928
0.10964715 -0.027331367 0.06799073 0.0779887 -0.03835883 -0.005128722 -0.04996616 0.07054957
-0.06011795 -0.06563172 -0.16334692 0.06868815 -0.051365834 0.06511586 0.12100518 -0.22633404
0.10407223 0.07086755 -0.09869989 0.10682025 0.1350797 0.17112972 0.0978105 -0.2995925
-0.08283884 0.061297584 0.062490404 0.15815699 0.1174511 0.1270748 -0.003066991 0.09497578
0.1474196 0.036213037 0.30456144 -0.0071062087 -0.05450135 -0.22858639 -0.117880665 -0.06848481
-0.06406413 -0.027709302 0.03465653 0.08563181 0.13862863 0.26695597 0.11809512 0.03064704
00000000: 78e9 91bd b444 a33f cd0a 873e 5407 ad3d
00000010: 5bde b539 d789 2b3f d8eb 123f ea4c f5bd
00000020: dcbc 663e c43c 8abe ca25 153e 203c 003e
00000030: 8ee2 c2bc ce53 d4bd 69c4 033e 5ce0 88be
00000040: 79b6 a33d ef6f 373d 52ac 8c3c a7e7 edbe
00000050: eb38 a8be b826 abbd d6af b73d 1a8d 26be
00000060: 2a42 a93d fe06 57bf d3df 813d 9e1c b63d
00000070: bbd2 1f3e 198d 383e 0104 5bbe cac6 70bf
00000080: 9b34 17bf a232 14bf 6256 b03d 98f0 843d
00000090: b119 183f d5d5 443e a88f 943d 6cf2 0b3e
000000a0: 3727 c6be 5567 12be b6f2 64bd 4625 6a3d
000000b0: 4bd6 853e dafb d0bc a991 7bbe 678b 1e3f
000000c0: d738 a33e 1e91 abbe ec3e 0e3c 8389 0abf
000000d0: bbd9 2a3e 23a5 7abd d56a 2ebe a6cd 54be
000000e0: eaef 48be e754 97bc ef24 f5be 02ff a1be
000000f0: e035 863e e756 ea3e efed 18be 8dd7 d7be
00000100: 7dc5 cf3d 3c44 97be 648b e2bd fc6b abbd
00000110: 2769 fbbc 5257 20bd 71a1 bb3d 5f05 d43c
00000120: 4546 7c3d efde 3cbb e0ff 883d 127a 013e
00000130: 9b35 31bd 4dac 883d 3777 7cbe 1923 14bb
00000140: af8e e03d 08e6 dfbc b93e 8b3d 8ab8 9f3d
00000150: 261e 1dbd d70e a8bb 51a9 4cbd 4b7c 903d
00000160: 3d3e 76bd ec69 86bd 6a44 27be 5fac 8c3d
00000170: fb64 52bd 775b 853d 90d1 f73d 1cc4 67be
00000180: d223 d53d 0223 913d 2b23 cabd 93c4 da3d
00000190: 5552 0a3e a13c 2f3e df50 c83d 3064 99be
000001a0: 69a7 a9bd 2d13 7b3d f0f5 7f3d e8f3 213e
000001b0: 348a f03d e51f 023e 92ff 48bb a982 c23d
000001c0: 2af5 163e 1f54 143d 7aef 9b3e 33db e8bb
000001d0: cf3c 5fbd 8d12 6abe 6b6b f1bd c441 8cbd
000001e0: 0e34 83bd 9efe e2bc 01f4 0d3d bb5f af3d
000001f0: aaf4 0d3e 74ae 883e dbdb f13d 800f fb3c

a2c_network.mu.bias f4 [4]
0.083397925 0.10945978 -0.12455805 -0.1339581
00000000: 88cc aa3d 732c e03d 4a18 ffbd 502c 09be

exp_avg f4 [4]
-0.001507096 -0.00049338944 -2.7838472e-05 -0.00091225567
00000000: c089 c5ba ce56 01ba aa86 e9b7 7124 6fba

exp_avg_sq f4 [4]
2.3948426e-06 2.3443806e-06 1.6944384e-06 1.4061027e-06
00000000: 15b7 2036 2754 1d36 766c e335 52b9 bc35

exp_avg f4 [32, 12]
0.00057161733 0.0013624221 0.00190605 -0.004252739 -0.00198601 0.00046531484 0.005376265 0.0029623555
-0.00096328364 0.0020911868 0.0012126934 -0.0037865697 -0.0010661604 -0.00020954439 -0.002371983 0.0047913534
0.00088358094 -0.0017153621 -0.0036588314 -0.001030111 0.00022344313 -5.8175945e-05 -0.0012344699 0.0041264347
0.00023015599 0.002346611 0.0008523721 -0.0009339958 0.0011947555 -0.0010182675 -1.4198882e-05 0.0073666614
0.0007979701 0.0018395322 -0.0014507208 0.0007501902 -0.0026562405 -0.0026232644 0.00632218 0.008211675
-0.0009080716 -0.00055144355 0.003719869 -0.004701917 -0.0014546192 -0.00078987534 0.0052206554 0.0046814387
-0.0015284739 -0.0012832226 0.0032505132 0.0030682415 -0.0015901651 -0.00012108076 0.0053932625 -0.003911352
-0.00080753124 -0.00018464772 0.006513329 0.001596256 -0.0017250737 -0.002085042 0.0026934482 0.0025866278
-0.0015419075 0.00023860541 0.0021559137 -0.0062931585 -0.0011393892 -0.0012489047 0.0047744317 0.0004325967
-0.0026956783 -0.0028087716 0.004168024 0.006992755 -0.0016547581 0.00045370188 0.0044612554 -0.007007842
-0.000791158 -0.001623251 0.005117643 0.002649503 0.00021501018 0.000772779 -0.001770047 -0.0016047589
-9.216235e-05 -0.00044772102 0.00115013 0.0019703754 0.00012562878 0.00080993446 -0.00036815397 3.2257718e-05
-0.00015696052 0.00041925808 0.00043571787 -0.00031478252 0.0006582232 -0.00079671736 0.0005289221 0.00057001464
0.000319146 -0.00018048615 0.00023944382 0.00091944746 0.0009360601 0.00067198876 -0.0017659394 -0.0019929472
0.00092218217 -0.00049526495 -0.0018639071 0.00037108787 0.0011921609 0.00018769717 -0.00014021173 -0.0013056735
-0.0019195953 -0.0006027899 0.0057393773 0.0070564006 -0.0011789163 -0.0017174173 0.003704909 0.0031838247
-0.001609084 0.0005909439 0.004302948 0.007846668 -0.0005397527 7.2415925e-05 0.0010532044 0.0017447966
-0.00038898544 -0.00061916036 0.00034821525 0.0011722575 -0.00016304181 0.00039870536 0.00083440135 0.0027774712
-0.004485452 -0.003520948 0.009948436 0.012693087 0.00019829848 -0.0002690012 -0.0133640785 -0.008295722
-0.005208545 -0.0019762116 0.011276169 0.009465982 -0.00014940085 -0.00074899744 0.0022027749 4.502723e-05
-0.00033530878 0.00056568236 0.0013421213 -0.0020974653 -0.00021690263 -0.000112957154 0.0028802836 -0.0012147793
-0.00043851868 -0.0009697633 0.0021681455 0.0031917042 -0.00017160691 0.00062905654 -0.0005170421 -0.0026396962
-0.0002040518 -0.00025040336 0.0028803796 0.0015014298 -0.0026072622 8.454753e-06 0.009026972 0.004386011
-0.0032429858 -0.00047769517 0.01080046 0.0044363816 -0.0025241724 0.0015133261 0.006160896 0.0023360986
-0.0040496453 -0.0031307696 0.0035305074 0.015514463 -0.004135297 0.00046990125 0.010052966 -0.006368529
-0.0015810952 -0.00091568654 0.010137919 0.00871232 -0.002313414 -0.0029102487 0.008441994 0.008457438
-0.0013955192 -0.00014392259 0.004623373 -0.0019997635 -0.0031170202 -0.0009765873 0.010980261 0.0045194435
-0.0007642921 -0.0003362063 0.001086129 0.0009919851 -0.00086171017 -2.7436143e-05 0.003440267 -0.001776709
-0.0003393578 0.00041746945 0.0029081719 -0.0008311613 -0.0015514302 -0.0015431292 0.004223185 0.0033401996
-0.00095379207 0.00025966016 0.0021171311 -0.0030830537 -0.0011998354 -0.0011457434 0.0038053687 0.0020413054
7.959533e-05 0.00022231069 -0.00094220956 -2.0596159e-05 0.0008279983 -0.0005318045 -0.0022509876 -0.00042741548
0.00064461137 -0.00013504998 -0.0005395023 0.0011335863 -0.002086428 -0.0043668835 0.00255596 0.0061964835
00000000: 97d8 153a 4d93 b23a 6dd4 f93a 8f5a 8bbb
00000010: b827 02bb 80f5 f339 612b b03b 1424 423b
00000020: df84 7cba 4b0c 093b 3df3 9e3a 1928 78bb
00000030: 68be 8bba 25b9 5bb9 4573 1bbb c900 9d3b
00000040: 1da0 673a 00d6 e0ba 01c9 6fbb ca04 87ba
00000050: 0f4c 6a39 f201 74b8 f0cd a1ba 0b37 873b
00000060: 0756 7139 9ac9 193b b971 5f3a 66d7 74ba
00000070: 5899 9c3a 6377 85ba bc37 6eb7 0964 f13b
00000080: de2e 513a 751c f13a 1d26 beba 69a8 443a
00000090: 5214 2ebb 13eb 2bbb 4a2a cf3b 438a 063c
000000a0: a70b 6eba c08e 10ba 0cc9 733b 8a12 9abb
000000b0: eca8 beba a30f 4fba 0812 ab3b c166 993b
000000c0: 1357 c8ba ce31 a8ba 9006 553b 8d14 493b
000000d0: 166d d0ba bdec fdb8 f7b9 b03b cc2a 80bb
000000e0: 81b0 53ba ff9d 41b9 c46d d53b 7739 d13a
000000f0: de1b e2ba 33a5 08bb 9084 303b 6a84 293b
00000100: d519 caba 2732 7a39 3b4a 0d3b d736 cebb
00000110: 8f57 95ba 4ab2 a3ba d672 9c3b 25ce e239
00000120: faa9 30bb 5e13 38bb eb93 883b 7b23 e53b
00000130: 78e4 d8ba d6de ed39 b92f 923b 0aa2 e5bb
00000140: b765 4fba 44c3 d4ba e7b1 a73b 49a3 2d3b
00000150: 5b74 6139 5294 4a3a ec00 e8ba c656 d2ba
00000160: 4947 c1b8 19bc eab9 f5bf 963a 6a21 013b
00000170: 38bb 0339 c851 543a ca04 c1b9 764c 0738
00000180: c595 24b9 decf db39 1071 e439 6509 a5b9
00000190: 9c8c 2c3a ccda 50ba 5ca7 0a3a 096d 153a
000001a0: 0d53 a739 e240 3db9 3613 7b39 1307 713a
000001b0: ee61 753a 6728 303a 1877 e7ba 1b9c 02bb
000001c0: 99be 713a abd4 01ba 584e f4ba 928e c239
000001d0: 4842 9c3a 93d0 4439 cd05 13b9 2223 abba
000001e0: ee9a fbba 8c04 1eba 6311 bc3b 6139 e73b
000001f0: de85 9aba f61a e1ba 0fce 723b b7a7 503b
00000200: e6e7 d2ba 93e9 1a3a beff 8c3b 508f 003c
00000210: 317e 0dba 01de 9738 ad0b 8a3a a9b1 e43a
00000220: bef0 cbb9 264f 22ba a990 b639 6fa6 993a
00000230: 34f6 2ab9 5409 d139 babb 5a3a 3c06 363b
00000240: b3fa 92bb b5bf 66bb c4fe 223c aaf6 4f3c
00000250: 58ee 4f39 bb08 8db9 02f5 5abc c8ea 07bc
00000260: 71ac aabb 5483 01bb aebf 383c 3517 1b3c
00000270: 7ca8 1cb9 5e58 44ba 6e5c 103b 9fdb 3c38
00000280: 62cc afb9 4d4a 143a 1eea af3a a175 09bb
00000290: 5b70 63b9 69e3 ecb8 24c3 3c3b 3b39 9fba
000002a0: fbe8 e5b9 b737 7eba 7217 0e3b e92b 513b
000002b0: 61f1 33b9 45e7 243a 1c8a 07ba c1fe 2cbb
000002c0: bdf6 55b9 9248 83b9 c0c4 3c3b a0cb c43a
000002d0: 9ade 2abb e3d8 0d37 dde5 133c 87b8 8f3b
000002e0: 4688 54bb 2973 fab9 6af4 303c 115f 913b
000002f0: 966c 25bb cc5a c63a 57e1 c93b 3b19 193b
00000300: e3b2 84bb 992d 4dbb 1660 673b 6030 7e3c
00000310: 6381 87bb 145d f639 32b5 243c 18af d0bb
00000320: c03c cfba af0a 70ba 8419 263c 1ebe 0e3c
00000330: a59c 17bb dfb9 3ebb 4a50 0a3c 1191 0a3c
00000340: dbe9 b6ba ede9 16b9 aa7f 973b 770e 03bb
00000350: ec46 4cbb d500 80ba 8de6 333c d717 943b
00000360: c65a 48ba d944 b0b9 715c 8e3a 7f05 823a
00000370: 64e4 61ba ab26 e6b7 1a76 613b 76e0 e8ba
00000380: d5eb b1b9 cddf da39 0797 3e3b 4ae2 59ba
00000390: 5c59 cbba d342 caba a562 8a3b 40e7 5a3b
000003a0: e707 7aba ff22 8839 91bf 0a3b 0f0d 4abb
000003b0: cc43 9dba c52c 96ba 7e63 793b 6cc7 053b
000003c0: 6bec a638 121c 6939 9dfe 76ba eac5 acb7
000003d0: 060e 593a cc68 0bba 4e85 13bb bc16 e0b9
000003e0: 23fb 283a 349c 0db9 636d 0dba d894 943a
000003f0: 74bc 08bb 1318 8fbb e581 273b df0b cb3b

exp_avg_sq f4 [32, 12]
5.8285343e-05 0.0004050485 0.0034728502 0.0011139127 8.6550855e-05 1.2713836e-05 0.0015532989 0.00042645642
5.67938e-05 0.00054818974 0.0006312288 0.00040099886 6.0132526e-05 0.00027481542 0.0023138002 0.00078704185
8.1183745e-05 1.2716833e-05 0.0011296368 0.0003565722 5.6622684e-05 0.00036854082 0.0005532154 0.00043021637
1.5474307e-05 5.9255235e-05 0.0004786003 0.00015228514 2.3508977e-05 4.6545892e-06 0.00033677957 0.000106125415
1.571521e-05 7.1022434e-05 0.00021349327 0.000120253004 0.00011416285 0.00094850635 0.0063982457 0.0021527384
0.00018141547 2.1225092e-05 0.0026104313 0.0007406856 0.00011518109 0.0012325115 0.00096487184 0.00079736236
1.9710464e-05 0.00015396331 0.0012151668 0.0004076318 3.111684e-05 5.5125197e-06 0.0005739241 0.0002246726
1.9918423e-05 0.00020427947 0.00021704227 0.00014742502 1.9699755e-05 0.0001887741 0.0014618335 0.000488486
3.297503e-05 6.756586e-06 0.0007030519 0.00025465369 2.0227219e-05 0.00025013386 0.00026282197 0.00015921437
0.00010752787 0.0011869087 0.008544365 0.0028769625 0.00016901125 3.032597e-05 0.0037182258 0.0013656652
9.825299e-05 0.0015772335 0.0011426582 0.0007710646 6.0676025e-06 5.3132582e-05 0.00068707846 0.00024358604
7.878228e-06 1.1277076e-06 0.00016400326 3.3521825e-05 4.972034e-06 7.056971e-05 5.3695672e-05 2.9389734e-05
4.864122e-06 5.383783e-06 8.443427e-05 2.7553171e-05 4.543414e-06 7.4475547e-06 5.8104357e-05 4.756192e-05
4.2401575e-06 1.3889933e-05 5.8207585e-05 0.00013380892 4.02664e-06 2.3739238e-05 0.00027901298 9.007349e-05
4.612772e-06 1.2209807e-06 8.318105e-05 1.2779965e-05 3.2997268e-06 3.1233067e-05 5.3873853e-05 3.732528e-05
3.8542606e-05 0.0002131444 0.0016695681 0.0005718313 5.29456e-05 1.7178654e-05 0.0010004871 0.00030255914
3.801529e-05 0.00030573865 0.00052573177 0.0003351333 5.906211e-06 1.4594133e-05 0.00013514375 5.8068323e-05
7.704533e-06 3.5654289e-06 9.541062e-05 4.400623e-05 6.0377415e-06 2.3402652e-05 5.0701772e-05 8.1110156e-05
0.00033483145 0.002670502 0.019066382 0.006063823 0.00049097784 7.427316e-05 0.009802093 0.002885145
0.00033294488 0.0034320743 0.0031524838 0.0018431222 3.2957255e-06 1.7407901e-05 0.00014860401 4.2388416e-05
4.9138016e-06 9.86374e-07 6.552586e-05 4.1749165e-05 3.4445786e-06 2.5214285e-05 2.6570679e-05 3.2002066e-05
1.727221e-05 0.00017590052 0.0011231474 0.000397126 2.7157617e-05 5.674185e-06 0.00045199803 0.00023293642
1.6792072e-05 0.00022212848 0.00013102642 0.00010948156 1.8337074e-05 5.0336654e-05 0.00041587173 0.00014611256
2.1989446e-05 6.045446e-06 0.00022886618 8.725996e-05 1.6353819e-05 7.5500124e-05 0.00013773669 0.00018393142
0.00014566194 0.0014952982 0.01158747 0.0039928444 0.0002137848 4.960583e-05 0.006061468 0.0020470456
0.00012094198 0.0019857578 0.0019552077 0.00092173746 5.976013e-05 0.0007309412 0.0055639595 0.0017455274
9.4173294e-05 1.933804e-05 0.0028489633 0.00066677853 5.988667e-05 0.0009329018 0.0009803614 0.00046827862
3.953168e-06 2.4362298e-05 0.0002418752 6.732001e-05 6.158728e-06 2.2505415e-06 0.00013917832 5.8532503e-05
4.0672994e-06 3.9067578e-05 8.178666e-05 5.3832337e-05 1.745244e-05 0.00011848075 0.0009457812 0.00030099027
2.347142e-05 4.861093e-06 0.00049152866 0.00014077582 1.5280548e-05 0.00015976687 0.00018940479 0.00011721689
4.4136623e-06 2.1404378e-05 0.0001578044 5.694198e-05 6.036826e-06 1.4885898e-06 7.210483e-05 2.6217744e-05
4.302921e-06 3.0621548e-05 3.6840032e-05 4.0605784e-05 4.0376883e-05 0.00063287886 0.0044627334 0.0016077631
00000000: 6977 7438 b05c d439 c298 633b b500 923a
00000010: a382 b538 834d 5537 1098 cb3a 0396 df39
00000020: e135 6e38 64b4 0f3a 0c79 253a 283d d239
00000030: cf36 7c38 1a15 9039 20a3 173b 7c51 4e3a
00000040: 3141 aa38 625a 5537 5210 943a 50f2 ba39
00000050: 257e 6d38 b638 c139 a805 113a aa8e e139
00000060: d2ce 8137 d388 7838 a5ec fa39 bbae 1f39
00000070: 2535 c537 9e2e 9c36 ca91 b039 a68f de38
00000080: 28d4 8337 e1f1 9438 2add 5f39 5730 fc38
00000090: b76a ef38 2fa5 783a 60a8 d13b f514 0d3b
000000a0: 583a 3e39 8a0c b237 c513 2b3b 922a 423a
000000b0: 608d f138 398c a13a 74ef 7c3a 1506 513a
000000c0: e657 a537 3671 2139 3b46 9f3a 6ab7 d539
000000d0: 7483 0238 2ff8 b836 6573 163a 1896 6b39
000000e0: 7d16 a737 da33 5639 d795 6339 1a96 1a39
000000f0: e740 a537 a9f1 4539 fe9a bf3a be0d 003a
00000100: ab4e 0a38 a2b6 e236 044d 383a 0a83 8539
00000110: 9fad a937 6624 8339 5ecb 8939 c8f2 2639
00000120: 9680 e138 0c92 9b3a aafd 0b3c 6c8b 3c3b
00000130: 9d38 3139 8664 fe37 7aad 733b 1f00 b33a
00000140: 2c0d ce38 2dbb ce3a 3fc5 953a 4521 4a3a
00000150: 4f98 cb36 adda 5e38 0e1d 343a 216b 7f39
00000160: bb2c 0437 bd5b 9735 4af8 2b39 c999 0c38
00000170: 72d5 a636 d3fe 9338 4a37 6138 f989 f637
00000180: 7d36 a336 58a6 b436 4e12 b138 fc21 e737
00000190: a173 9836 02e6 f936 14b5 7338 397d 4738
000001a0: ad46 8e36 cf08 6937 eb23 7438 0f4f 0c39
000001b0: 931c 8736 a023 c737 7d48 9239 d6e5 bc38
000001c0: 69c7 9a36 94e0 a335 7c71 ae38 8869 5637
000001d0: e070 5d36 4000 0338 9cf6 6138 b78d 1c38
000001e0: cfa8 2138 847f 5f39 69d5 da3a f3e6 153a
000001f0: e811 5e38 e11a 9037 c722 833a cda0 9e39
00000200: 9b72 1f38 8c4b a039 43d1 093a d5b4 af39
00000210: f72d c636 53d9 7437 60b5 0d39 638e 7338
00000220: b842 0137 9a45 6f36 3017 c838 5493 3838
00000230: ce97 ca36 d050 c437 9da8 5438 af19 aa38
00000240: 518c af39 9703 2f3b 1a31 9c3c 09b3 c63b
00000250: f7b4 003a 19c3 9b38 f598 203c b314 3d3b
00000260: 1b8f ae39 a7ec 603b e799 4e3b eb94 f13a
00000270: 222c 5d36 2f07 9237 96d2 1b39 37ca 3138
00000280: 3ce1 a436 8d63 8435 ee6a 8938 d31b 2f38
00000290: 6929 6736 4483 d337 19e4 de37 f539 0638
000002a0: cae3 9037 f071 3839 9336 933a 5935 d039
000002b0: 8ad0 e337 e164 be36 26fa ec39 6540 7439
000002c0: b3dc 8c37 29eb 6839 2364 0939 7799 e538
000002d0: 91d2 9937 9220 5338 5c09 da39 cb35 1939
000002e0: fa75 b837 fcd9 ca36 ccfb 6f39 56ff b638
000002f0: 8f2f 8937 d255 9e38 696d 1039 b7dd 4039
00000300: d4bc 1839 e2fd c33a 5fd9 3d3c 68d6 823b
00000310: 6c2b 6039 db0f 5038 479f c63b ba27 063b
00000320: 3ba2 fd38 7d23 023b f122 003b c1a0 713a
00000330: f3a6 7a38 a29c 3f3a e051 b63b 2eca e43a
00000340: e77e c538 2038 a237 acb5 3a3b c0ca 2e3a
00000350: d32e 7b38 fb8d 743a 787f 803a 4b83 f539
00000360: 74a5 8436 a35d cc37 e19f 7d39 282e 8d38
00000370: 12a7 ce36 0208 1736 65f0 1139 cc80 7538
00000380: d679 8836 7edc 2338 e184 ab38 08ca 6138
00000390: d466 9237 de78 f838 4dee 773a 3bce 9d39
000003a0: 7ee4 c437 791c a336 eed9 003a 399d 1339
000003b0: ba2e 8037 1887 2739 f69a 4639 57d2 f538
000003c0: 1219 9436 8d8d b337 4c78 2539 fcd4 6e38
000003d0: f18f ca36 8ecb c735 fc36 9738 2dee db37
000003e0: cf61 9036 a36f 0038 af84 1a38 2150 2a38
000003f0: 595a 2938 c8e7 253a 1f3c 923b 94bb d23a

exp_avg f4 [32]
0.0066177915 -0.015054122 -0.016019516 0.0059822393 0.0061147325 0.008102872 0.006331573 -0.0024415986
-0.0068411906 -0.0052745915 -0.015585761 -0.00554726 -0.006016478 0.008196147 0.0035918057 0.0017936807
0.0027649899 8.514161e-05 0.0037036845 0.0040264386 -0.0056135277 0.013755948 0.010117824 0.0019972217
0.0082140155 -0.0023996567 -0.003656586 0.025646733 -0.004263593 0.006886421 -0.009695523 -0.00096811325
00000000: 0fda d83b 90a5 76bc 5c3b 83bc a906 c43b
00000010: 185e c83b e9c1 043c 1579 cf3b 3a03 20bb
00000020: 112c e0bb 7bd6 acbb 6b5b 7fbc cac5 b5bb
00000030: e025 c5bb 2249 063c 8064 6b3b f019 eb3a
00000040: d534 353b 0e8e b238 84b9 723b 37f0 833b
00000050: aff1 b7bb a160 613c 3bc5 253c d2e3 023b
00000060: 1494 063c 8f43 1dbb 55a3 6fbb 1919 d23c
00000070: 9cb5 8bbb 7ca7 e13b f9d9 1ebc fbc8 7dba

exp_avg_sq f4 [32]
0.014897375 0.011839828 0.003363059 0.030893171 0.0053799963 0.0066861836 0.039142337 0.0017762331
0.0008718477 0.0009884386 0.010018171 0.0013191149 0.09245285 0.000675771 0.005727032 0.0030670802
0.05768836 0.025129534 0.0010850598 0.004484079 0.00088897266 0.021426639 0.04114667 0.0065268106
0.0051469803 0.0068300874 0.0049682935 0.0366463 0.0108641535 0.013430425 0.011643627 0.0031071517
00000000: 1f14 743c d7fb 413c c466 5c3b ad13 fd3c
00000010: ae4a b03b c617 db3b b753 203d 7ed0 e83a
00000020: b58c 643a 7f8e 813a 4123 243c 27e6 ac3a
00000030: eb57 bd3d 3926 313a d4a9 bb3b 1101 493b
00000040: a14a 6c3d 74dc cd3c 9138 8e3a 2eef 923b
00000050: f209 693a eb86 af3c 6989 283d dbde d53b
00000060: 00a8 a83b edce df3b 11cd a23b 6e1a 163d
00000070: 90ff 313c 490b 5c3c e9c4 3e3c 5ba1 4b3b

exp_avg f4 [32, 32]
0.00031835897 4.4064884e-05 -0.00038843305 1.6326485e-05 -0.00019322758 8.225434e-05 0.00048557625 7.41786e-05
-0.000111906986 0.00067162653 -0.0007563334 -0.0013338357 -0.00036065222 9.7187214e-05 -0.00015673542 9.845651e-05
0.0024411303 -0.00036470944 0.00052759267 -0.00021229153 -0.00085613923 0.0008916714 0.00095376157 -0.00020478325
-0.00026315494 -0.0002369287 0.00059753365 -5.4541295e-05 0.0006838512 -5.834528e-05 0.00023736911 0.00049013377
0.0024578173 -0.0087504815 -0.0013100295 0.00027096606 -0.00046561687 0.0037943807 -0.0032401895 0.0044432366
-0.0049143103 0.002998748 -0.0027080628 -0.0032741756 0.004933862 0.0018535741 -0.0013366432 -0.005342521
-0.002172199 0.005225351 0.0029984908 -0.008670487 -0.0037444218 -0.010328583 -0.005641107 -0.0029435686
-0.003220969 0.0019033859 0.0026306384 -0.0003478631 -0.007226349 -0.008646108 0.0027050977 0.0053727846
0.0002437219 -0.00079646043 0.0002883356 -0.00029367875 0.00056095206 0.0014089416 0.0005010678 -0.0005530392
0.0023757557 -0.0008104314 0.0019698814 0.0017457173 0.00059804134 -0.0001641209 -0.00022527506 -0.00028667212
-0.0008888826 0.0005852511 0.0002907709 0.00041376823 0.002162636 -0.0011332761 -0.0009855757 0.0012399168
0.0011921175 0.0005485902 -0.00082594936 0.00030064967 -0.0013801059 -0.0010965033 -0.0002880832 0.00073429267
0.00036497193 -0.00026378102 -3.462691e-06 -0.00060367736 -5.9336926e-05 0.0001777323 -0.0011200403 0.00064598356
7.534591e-05 0.0003901397 -0.0008723682 -0.00063750165 -0.00030892278 -0.00071481225 -0.0009806389 -0.00025723237
-0.00042884948 -0.00038720568 0.00042932006 -0.0010417782 -0.00045123903 -0.001030561 7.782649e-05 -0.00061327446
-0.0006973606 7.400664e-05 0.0007080809 -0.00027116513 -0.00045448428 -0.00032273046 0.00070554076 -0.00012948032
-0.0010675876 -0.0006684826 4.7193345e-05 0.0003432641 -0.00023068974 0.00207609 0.0053604594 -0.0014976913
0.003025054 -0.0019401242 0.004713068 0.0015740813 7.538599e-05 9.090152e-05 -0.000568644 -0.0009994276
0.00032418224 0.0007562377 -0.00012876288 0.002136157 0.002451552 0.00068213296 -0.0030548142 0.0031535188
0.0027799136 0.0010179039 -0.0022625132 -4.583691e-05 -0.0018018276 -0.0014770525 -0.001484507 0.002973688
0.0022833056 -0.0063003437 -0.001696659 -0.0038741361 -0.00092432526 0.004769614 -0.0017950593 0.0032808785
-5.0304807e-05 0.0016976828 -0.002877572 -0.00834228 -0.0006478806 -0.0038801304 -0.006829949 -0.003680299
-0.000872527 0.0007162107 0.003719288 -0.007445014 -0.003402615 -0.0073326244 -0.004157564 -0.0010919106
-0.0020424388 0.0015283781 0.002030802 -0.0014009803 -0.0060139727 -0.007762299 0.002852504 0.0050154123
-2.365312e-05 -0.00013732251 -0.00010941726 -0.0002564486 -5.774604e-05 0.00039077835 0.000599461 -0.000120241755
0.00021501328 -0.00010816267 7.3085635e-06 -0.0003316693 -0.00016964508 -7.90205e-05 -0.00018150754 -0.00014153332
0.0007340041 -0.00011688634 0.00031229493 -2.433793e-05 -0.00015571543 0.0002592001 -0.0005460972 0.00026969245
0.00023923711 1.8078929e-06 -0.00017188779 -0.00019699195 -0.00013089 -0.00056928 -0.00013879343 0.0005948001
-0.00017093089 -0.0005564987 -0.00047806386 7.5934724e-07 -0.0004701802 -0.0006548259 -0.0004728201 0.0002959007
-0.0023691393 0.00013210447 -0.0014369198 -0.0017116466 0.00076498237 7.4588985e-05 -0.00024530414 -0.00028289176
-0.00033056576 0.0008144169 -0.0005517266 -0.0006267258 -0.0015955787 0.00044523063 -0.0005771853 -0.00014547979
-0.00040897395 -0.00039565694 -0.00015205429 -0.00016110501 0.0001020518 -0.0007927645 -0.00011305925 0.00035392286
00000000: 6be9 a639 4fd2 3838 9aa6 cbb9 dcf4 8837
00000010: 229d 4ab9 f67f ac38 f194 fe39 5590 9b38
00000020: 9baf eab8 1810 303a ad44 46ba 19d4 aeba
00000030: ec15 bdb9 fdd0 cb38 5859 24b9 707a ce38
00000040: 5ffb 1f3b 7936 bfb9 254e 0a3a 939a 5eb9
00000050: 886e 60ba 0ebf 693a db05 7a3a 16bb 56b9
00000060: 0ff8 89b9 1070 78b9 cea3 1c3a 45c3 64b8
00000070: 7a44 333a c4b7 74b8 49e6 7839 527c 003a
00000080: 5513 213b 2e5e 0fbc 4cb5 abba 7310 8e39
00000090: 0a1e f4b9 25ab 783b 5c59 54bb 9298 913b
000000a0: 3908 a1bb a586 443b c179 31bb 8d93 56bb
000000b0: 3cac a13b a0f3 f23a 4e32 afba 5010 afbb
000000c0: 745b 0ebb 6c39 ab3b 5482 443b a90e 0ebc
000000d0: f964 75bb 3839 29bc 09d9 b8bb e3e8 40bb
000000e0: e516 53bb 087b f93a ca66 2c3b 6561 b6b9
000000f0: 02cb ecbb 68a8 0dbc 0248 313b 2f0e b03b
00000100: 998f 7f39 8ec9 50ba c02b 9739 e5f8 99b9
00000110: db0c 133a 3cac b83a 175a 033a d5f9 10ba
00000120: 91b2 1b3b 2173 54ba 2019 013b 8dd0 e43a
00000130: e0c5 1c3a de17 2cb9 d037 6cb9 7b4c 96b9
00000140: e703 69ba 896b 193a 9c72 9839 08ef d839
00000150: 03bb 0d3b 708a 94ba 6f2e 81ba b484 a23a
00000160: d340 9c3a 44cf 0f3a 8684 58ba 84a0 9d39
00000170: abe4 b4ba 8cb8 8fba df09 97b9 8c7d 403a
00000180: b459 bf39 174c 8ab9 9460 68b6 1a40 1eba
00000190: 8ae0 78b8 a75d 3a39 51ce 92ba 3957 293a
000001a0: 0703 9e38 aa8b cc39 a4af 64ba 031e 27ba
000001b0: eaf6 a1b9 3d62 3bba c888 80ba 25dd 86b9
000001c0: 34d7 e0b9 de01 cbb9 5d16 e139 478c 88ba
000001d0: 4794 ecb9 e413 87ba c736 a338 27c4 20ba
000001e0: 14cf 36ba 0334 9b38 819e 393a 2b2b 8eb9
000001f0: d947 eeb9 2634 a9b9 0af4 383a 1cc5 07b9
00000200: 4cee 8bba 1c3d 2fba 78f1 4538 21f8 b339
00000210: 4ee5 71b9 030f 083b cba6 af3b 2e4e c4ba
00000220: fc3f 463b c44b feba 1470 9a3b 6751 ce3a
00000230: 8c18 9e38 62a2 be38 0e11 15ba 3aff 82ba
00000240: 01f7 a939 413e 463a 8604 07b9 c4fe 0b3b
00000250: 38aa 203b 2bd1 323a 4733 48bb 44ab 4e3b
00000260: 362f 363b 306b 853a ac46 14bb 0241 40b8
00000270: 4d2b ecba a899 c1ba ca93 c2ba 35e2 423b
00000280: 83a3 153b 1d73 cebb 6e62 deba 38e5 7dbb
00000290: 6b4e 72ba 6c4a 9c3b 3248 ebba 0204 573b
000002a0: 60fe 52b8 c884 de3a a695 3cbb 0fae 08bc
000002b0: 88d6 29ba c949 7ebb c4cd dfbb 2c31 71bb
000002c0: 4cba 64ba 16c0 3b3a 4cbf 733b 4ef5 f3bb
000002d0: 68fe 5ebb 8346 f0bb 2d3c 88bb 711e 8fba
000002e0: 70da 05bb dc53 c83a 3417 053b 19a1 b7ba
000002f0: dc10 c5bb e25a febb 13f1 3a3b 5458 a43b
00000300: b06a c6b7 3bfe 0fb9 f276 e5b8 f373 86b9
00000310: 5734 72b8 62e1 cc39 2625 1d3a 4d2a fcb8
00000320: 3075 6139 64d5 e2b8 153c f536 e6e3 adb9
00000330: c1e2 31b9 cfb7 a5b8 0f53 3eb9 9068 14b9
00000340: 2e6a 403a e020 f5b8 84bb a339 4f29 ccb7
00000350: 8b47 23b9 40e5 8739 f627 0fba 8265 8d39
00000360: b9db 7a39 baa6 f235 c73c 34b9 a08f 4eb9
00000370: 843f 09b9 bc3b 15ba 1489 11b9 5cec 1b3a
00000380: e93b 33b9 ffe1 11ba a5a4 fab9 f2d5 4b35
00000390: 8582 f6b9 9fa8 2bba d7e4 f7b9 1f23 9b39
000003a0: 9043 1bbb 8685 0a39 0757 bcba 5459 e0ba
000003b0: 1989 483a a86c 9c38 2a9c 80b9 1751 94b9
000003c0: c94f adb9 987e 553a bfa1 10ba db4a 24ba
000003d0: bd22 d1ba d86d e939 404e 17ba ef8b 18b9
000003e0: 8e6b d6b9 2d70 cfb9 c370 1fb9 4cee 28b9
000003f0: a504 d638 86d1 4fba 391a edb8 b98e b939

exp_avg_sq f4 [32, 32]
9.843782e-07 9.257421e-06 5.0439166e-06 2.8921172e-06 1.8986473e-06 2.7653691e-06 5.045712e-06 2.7312317e-06
4.7308495e-05 3.2612907e-06 2.3975468e-05 6.05113e-05 9.537731e-06 5.338822e-06 1.3025048e-05 5.5304404e-06
1.9241106e-05 3.0995272e-06 1.7179923e-06 6.6951498e-06 3.260844e-05 2.3775058e-06 6.4385116e-05 1.9617096e-06
1.8447003e-06 2.6841697e-06 3.235605e-06 5.9226096e-07 5.3743647e-06 2.3865889e-05 9.179378e-07 5.495808e-06
1.0694473e-05 0.00015500664 4.0017392e-05 4.859363e-05 8.717639e-06 6.6601104e-05 0.0002163786 8.923526e-05
0.00085006014 4.47329e-05 0.00033124886 0.0002911243 0.00018230658 8.96153e-05 0.00011310078 5.2481562e-05
0.00047385812 0.0001013683 2.3271832e-05 0.00020360659 0.0003262141 0.00022389054 0.00033864172 9.778748e-05
8.8643326e-05 3.0352578e-05 4.3672637e-05 4.445483e-06 9.877727e-05 0.00014338573 2.31664e-05 8.459703e-05
4.799423e-06 2.2785493e-05 1.3025073e-05 1.2436735e-05 2.0701293e-05 6.988274e-05 3.176452e-05 3.4691227e-05
0.00047542562 2.8396666e-05 0.000242117 0.00034684135 8.170933e-05 1.901762e-05 3.155045e-05 8.898262e-06
5.361289e-05 4.7364123e-05 8.009077e-06 5.0588304e-05 0.00032588752 5.184097e-05 3.9244016e-05 5.8841844e-05
5.870051e-05 1.0786285e-05 2.2477147e-05 1.8241415e-06 5.0260198e-05 3.4937573e-05 1.2983344e-05 3.1483913e-05
2.2941645e-06 1.7491868e-05 5.3578883e-06 8.621815e-06 4.4334247e-06 1.0115236e-05 2.8864908e-05 1.6936205e-05
6.018593e-05 7.58847e-06 3.04109e-05 9.695837e-05 4.1879593e-05 1.4072262e-05 3.0012252e-05 7.890219e-06
5.0619892e-05 1.6922413e-05 5.110582e-06 2.3703527e-05 3.832311e-05 1.7198088e-05 7.444547e-05 1.5192024e-05
1.7188857e-05 4.281282e-06 8.705322e-06 1.130629e-06 1.13493115e-05 3.3620785e-05 8.211519e-06 1.7526378e-05
3.5780106e-06 5.8882774e-06 8.931978e-06 1.0631865e-05 6.445413e-06 3.871274e-05 7.6710014e-05 2.3657713e-05
0.00017045002 1.46092025e-05 8.76573e-05 8.39378e-05 5.0540573e-05 1.4587375e-05 2.3348368e-05 4.0176224e-06
6.206243e-05 2.9558269e-05 8.556074e-06 2.427032e-05 9.235143e-05 2.0401683e-05 3.4775432e-05 4.6051813e-05
4.2223004e-05 5.825475e-06 1.6183527e-05 1.1674932e-06 1.750463e-05 1.64059e-05 1.1064783e-05 4.0885116e-05
1.5083179e-05 0.00010197193 3.6000154e-05 5.5831086e-05 2.5635898e-05 5.3617907e-05 0.00021304023 9.3744406e-05
0.0003684727 4.956939e-05 0.00020281492 0.0005691491 0.0003072794 9.9686404e-05 0.00018468733 4.7825946e-05
0.00037448877 0.00012060754 3.0698226e-05 0.0001345211 0.00023022764 0.00011617969 0.0004957154 8.629651e-05
9.330553e-05 3.2518117e-05 4.9868584e-05 6.605017e-06 7.353096e-05 0.00020000497 4.5498764e-05 0.00010242265
4.4455766e-07 4.78815e-06 1.6872001e-06 1.3972302e-06 7.369911e-07 6.014041e-07 2.4382086e-06 2.4398068e-06
5.2222924e-07 2.415215e-06 1.610296e-06 1.5424295e-06 3.136377e-06 2.0443972e-06 1.3165218e-06 2.8702257e-06
2.1096706e-05 1.4299391e-06 6.591123e-07 1.0115169e-06 9.3349144e-07 3.2001071e-06 5.2253865e-05 6.462897e-07
7.1651544e-07 1.9816778e-06 1.37075e-06 1.5546779e-07 5.641969e-06 1.1294075e-05 8.895366e-07 1.4855723e-06
4.145612e-06 2.58938e-05 1.1213456e-05 1.3804252e-05 9.604995e-06 2.5321177e-05 2.170075e-05 2.0497564e-05
0.0003232025 1.3129802e-05 0.00012356715 0.00021051857 2.6293907e-05 1.9129473e-05 3.0886727e-05 7.2242597e-06
4.3105047e-05 1.471193e-05 9.837834e-06 5.218406e-05 0.00018311033 1.3409315e-05 4.3382635e-05 2.2241096e-05
2.316526e-05 6.2299173e-06 8.958652e-06 2.2011484e-06 9.745381e-06 2.3313953e-05 5.113193e-06 3.2624914e-05
00000000: fa1e 8435 5250 1b37 ea3e a936 3216 4236
00000010: 06d5 fe35 ae94 3936 564e a936 344a 3736
00000020: 1c6d 4638 8cdc 5a36 ed1e c937 83cd 7d38
00000030: 3e04 2037 2224 b336 2886 5a37 1f92 b936
00000040: f667 a137 7901 5036 c495 e635 e6a6 e036
00000050: 0cc5 0838 3d8d 1f36 7f06 8738 eaa5 0336
00000060: 6b97 f735 af21 3436 4523 5936 ddfb 1e35
00000070: 7155 b436 9b33 c837 3568 7635 a268 b836
00000080: 696c 3337 4789 2239 59d8 2738 03d1 4b38
00000090: f941 1237 32ac 8b38 b0e3 6239 d123 bb38
000000a0: 92d6 5e3a 969f 3b38 78ab ad39 0ba2 9839
000000b0: 8d29 3f39 d9ef bb38 8530 ed38 a61f 5c38
000000c0: 2970 f839 b195 d438 e137 c337 3a7f 5539
000000d0: b707 ab39 29c4 6a39 b98b b139 4113 cd38
000000e0: 06e6 b938 aa9d fe37 232d 3738 682a 9536
000000f0: a526 cf38 d059 1639 7755 c237 af69 b138
00000100: bb0a a136 7923 bf37 4386 5a37 5fa7 5037
00000110: b0a7 ad37 038e 9238 e53a 0538 6c81 1138
00000120: 8c42 f939 6035 ee37 cae0 7d39 42d8 b539
00000130: 5d5b ab38 0788 9f37 0a55 0438 bf49 1537
00000140: 67de 6038 d7a8 4638 b95e 0637 c72e 5438
00000150: e2db aa39 d16f 5938 f199 2438 f3cc 7638
00000160: 3135 7638 bef6 3437 4e8d bc37 06d5 f435
00000170: 7ace 5238 ef89 1238 0ad3 5937 980d 0438
00000180: 72f5 1936 80bb 9237 e9c7 b336 6aa6 1037
00000190: d4c2 9436 9cb4 2937 eb22 f237 3912 8e37
000001a0: 2670 7c38 76a0 fe36 e91a ff37 2156 cb38
000001b0: dfa7 2f38 e817 6c37 d2c2 fb37 3c60 0437
000001c0: b250 5438 9bf4 8d37 917b ab36 f0d6 c637
000001d0: 20bd 2038 9d44 9037 9b1f 9c38 3fe1 7e37
000001e0: ca30 9037 efa7 8f36 130d 1237 1ec0 9735
000001f0: ec68 3e37 0b04 0d38 35c4 0937 9c05 9337
00000200: c11d 7036 eb93 c536 8eda 1537 835f 3237
00000210: ad45 d836 7d5f 2238 60df a038 8d74 c637
00000220: d4ba 3239 0c1a 7537 a8d4 b738 c307 b038
00000230: 87fb 5338 4cbc 7437 3ddc c337 1dcf 8636
00000240: 8327 8238 e6f3 f737 0f8c 0f37 1e98 cb37
00000250: ccac c138 4824 ab37 d6db 1138 c227 4138
00000260: 9b18 3138 7378 c336 dcc1 8737 c3b2 9c35
00000270: e8d6 9237 679f 8937 e2a2 3937 0f7c 2b38
00000280: c30d 7d37 c3d9 d538 dffe 1638 2c2c 6a38
00000290: ac0c d737 cae3 6038 8d63 5f39 a598 c438
000002a0: 922f c139 bae8 4f38 b7aa 5439 f332 153a
000002b0: 581a a139 bb0e d138 a1a8 4139 b898 4838
000002c0: 0857 c439 aeee fc38 f8c1 0038 3c0e 0d39
000002d0: 4369 7139 7fa5 f338 e6f2 013a 16fa b438
000002e0: 06ad c338 1064 0838 fc29 5138 aaa0 dd36
000002f0: a234 9a38 6db8 5139 edd5 3e38 becb d638
00000300: 8aab ee34 e5a9 a036 c173 e235 7788 bb35
00000310: a5d5 4535 2d70 2135 1ba0 2336 90bb 2336
00000320: 522f 0c35 1415 2236 5921 d835 7905 cf35
00000330: 8c7a 5236 7a32 0936 58b3 b035 1a9e 4036
00000340: d5f8 b037 55ec bf35 daed 3035 75c3 8735
00000350: 0b95 7a35 6cc1 5636 292b 5b38 b17c 2d35
00000360: 9156 4035 f7fc 0436 9dfa b735 a9ee 2634
00000370: 2550 bd36 af7b 3d37 7dc8 6e35 e063 c735
00000380: 891a 8b36 8336 d937 6d21 3c37 d098 6737
00000390: 2425 2137 d068 d437 010a b637 2ff2 ab37
000003a0: 8173 a939 1248 5c37 ce91 0139 a6be 5c39
000003b0: bc91 dc37 3b78 a037 5f8c 0138 eb67 f236
000003c0: b1cb 3438 42d3 7637 2d0d 2537 35e0 5a38
000003d0: 4e01 4039 92f8 6037 c0f5 3538 6492 ba37
000003e0: 0453 c237 950a d136 1e4d 1637 71b7 1336
000003f0: 1880 2337 5592 c337 fe91 ab36 bcd6 0838

exp_avg f4 [32]
-0.00045420812 -0.006980904 0.001713692 -0.00082402263 0.0029497163 -0.004507875 0.00013926292 -0.00116184
5.7999732e-05 0.0022162963 -0.00046138043 0.0006983209 -0.00088969007 0.0011984835 0.00093048427 0.003553944
-0.0007748134 -0.002172603 0.0025110766 0.0021003745 -0.0020781427 0.0013784135 -0.0024256036 -0.00027853175
-0.0009143638 -0.0025396454 -0.000639051 -0.0012034869 0.00082912715 -0.0008517817 0.0001257469 0.0025838495
00000000: c822 eeb9 11c0 e4bb f69d e03a 3903 58ba
00000010: 0750 413b ccb6 93bb 1b07 1239 e248 98ba
00000020: bd44 7338 483f 113b 6fe5 f1b9 860f 373a
00000030: 173a 69ba 6f16 9d3a beeb 733a 49e9 683b
00000040: d91c 4bba 3b62 0ebb e090 243b 70a6 093b
00000050: 7331 08bb e2ab b43a e0f6 1ebb e607 92b9
00000060: eab1 6fba 2e70 26bb fd85 27ba 52be 9dba
00000070: c859 593a 1a4a 5fba edda 0339 cd55 293b

exp_avg_sq f4 [32]
1.8834817e-05 0.00037453897 0.00021073256 5.5839926e-05 9.364036e-05 0.0003010612 4.3986624e-06 0.00012630994
0.00010276409 0.0001472911 0.00014378183 3.6477093e-05 9.0832895e-05 0.00015049761 0.00019414237 0.00027604614
0.00011856865 0.00010320759 9.481104e-05 0.00010348711 0.00012283718 8.7149194e-05 0.00015204783 8.742055e-05
6.269267e-05 7.561581e-05 0.00015462295 0.00017386048 0.00023412504 0.00012737254 4.8753222e-06 0.00046710536
00000000: 76ff 9d37 c55d c439 17f8 5c39 aa35 6a38
00000010: c960 c438 c0d7 9d39 3998 9336 1172 0439
00000020: 0d83 d738 2772 1a39 24c4 1639 fbfe 1838
00000030: 8a7d be38 e5ce 1d39 b292 4b39 49ba 9039
00000040: 0fa8 f838 2771 d838 4ad5 c638 3807 d938
00000050: dbcd 0039 dec3 b638 076f 1f39 8d55 b738
00000060: df79 8338 ee93 9e38 4822 2239 514e 3639
00000070: 767f 7539 4e8f 0539 b396 a336 d2e5 f439

exp_avg f4 [1, 32]
0.0011733702 0.00030888157 0.00021435562 -0.004113675 -0.0010984913 -0.0021913582 0.0005714327 0.0013338702
0.0010586184 -0.003209921 0.0008441841 -0.0027630855 0.0008303405 -0.0013582105 5.231619e-05 -0.00045535722
0.0009190226 -0.003510639 -0.001602411 0.0010376335 0.00091393746 -0.002008374 -0.0027966152 -0.004369024
-0.00016805765 0.00046692212 0.0006695184 0.0008741777 0.0010269477 0.0014934693 0.000592067 -0.0013057512
00000000: c5cb 993a 62f1 a139 a6c4 6039 02cc 86bb
00000010: 40fb 8fba e49c 0fbb 33cc 153a 42d5 ae3a
00000020: 57c1 8a3a 8a5d 52bb 3c4c 5d3a e214 35bb
00000030: 35ab 593a fb05 b2ba 156e 5b38 03bd eeb9
00000040: 90ea 703a c012 66bb fe07 d2ba 3401 883a
00000050: 4e95 6f3a ed9e 03bb 6b47 37bb 082a 8fbb
00000060: a238 30b9 3acd f439 9f82 2f3a 1329 653a
00000070: a69a 863a 84c0 c33a f234 1b3a bd25 abba

exp_avg_sq f4 [1, 32]
4.1077532e-05 2.4021736e-05 6.5052795e-05 0.0011345826 3.72064e-05 0.00060187606 5.5958393e-05 7.234991e-05
7.98111e-05 7.0374546e-05 9.365897e-05 0.00031792538 6.425093e-05 0.00096599193 6.37929e-05 0.00085355423
6.713721e-05 0.00041412472 8.06382e-05 2.5572515e-05 6.740983e-05 0.00066970725 0.0026805955 0.0010648968
0.00010812669 5.5335724e-05 6.784523e-05 7.426081e-05 9.665613e-05 6.437526e-05 5.4518172e-05 0.00013825978
00000000: aa4a 2c38 4982 c937 f46c 8838 46b6 943a
00000010: 110e 1c38 38c7 1d3a deb4 6a38 90ba 9738
00000020: 4260 a738 0c96 9338 c76a c438 39af a639
00000030: 75be 8638 9f3a 7d3a 8dc8 8538 0ec1 5f3a
00000040: 04cc 8c38 e11e d939 4e1c a938 8f84 d637
00000050: 605e 8d38 4b8f 2f3a eeac 2f3b 0294 8b3a
00000060: 13c2 e238 4818 6838 2148 8e38 78bc 9b38
00000070: ddb3 ca38 3401 8738 71aa 6438 d4f9 1039
