logs/rl_games/klask/actuator_model/nn/klask.pth (torch, 611442 bytes, 30 tensors)

a2c_network.sigma f4 [4]
00000000: 96f3 0fc0 fc83 f0bf 3541 92bf 76ca 80bf
-2.2492423 -1.8790278 -1.142615 -1.0061786

a2c_network.actor_mlp.0.weight f4 [256, 32]
00000000: 3e24 06ba 69d0 87bb 0c19 8dbf 889a 413e
00000010: 1b39 5b3e 52ef 403f f102 e33e d121 c6bc
00000020: 3034 c7bf 38bf d1bd 3006 0d3f 0eca 8c3f
00000030: 9def 7cbd aca2 553e 5941 fc3d 148b f43d
00000040: 79c8 593e 10b1 d13e 2e3b e53e 7dd4 723e
00000050: a75c 94bd 6720 d8be c561 d63c 116e 8e3c
00000060: 4110 3abd 6d00 0abd 3e0a d5bd d8a4 4cbe
00000070: f59d 263c 702e 923b 56a5 d7bc bdf6 553e
00000080: 70a9 bf3d 24b6 853c 5e0a 3fbe ac16 2ebf
00000090: 7e2e cc3e c243 5c3e 75c5 9e3e 2985 52be
000000a0: ccc1 17bf b53d e43f c296 84be 0843 843f
000000b0: e593 ec3d 89c3 543c d9c6 97be 298d a03d
000000c0: 45df 67bb 95ff 0a3e b34f f73d 4214 4d3e
000000d0: 38b1 063e 8cbe 39bd 5457 3a3f 1090 013f
000000e0: 744b 1c3e 099e 443e 5b12 823e abc1 533e
000000f0: 0f01 873d 36fe c6bb 486a c8be da94 6abf
00000100: 98bc 833d 1eb5 9c3c bc9a e13e 6d61 153e
00000110: 9692 843e 86be a3be 866d e6be 1a5e b7be
00000120: a56a 8a3e 3edf be3e 272d b23f 8b2a 0140
00000130: fd62 133f 8ec5 d43e 4b64 c83e 468c db3e
00000140: 3854 573e 3eba 063e 325f 223e ec72 443e
00000150: 73af 7e3e 067a d43e 8960 61be a59a 34be
00000160: 8ac1 03bc 291d 6cbd c9be 7c3e c60f b2bd
00000170: 8c3b d4bd d4ad 1b3e 8f84 c33d e5a0 383e
00000180: e91d c33c cd38 bfbc e59d 803f 89b5 9f3d
00000190: 34b7 a43d db25 993d ae64 b0be aa5d 8e3d
000001a0: feca 54bf 239e 05c0 5ec2 91bf bcd7 64bd
000001b0: 2e65 abbd d3be 8fbe 71c0 b0be f655 80bd
000001c0: 431e dbbe 5421 56be ca96 bbbe d94c 98bd
000001d0: 8bbd 323e 7b40 3b3f 384f cebe a545 8bbe
000001e0: e739 15bd e342 06be c9ff 07be fc41 6a3e
000001f0: 1ece 9a3c d31d fa3d 9145 f43b 50e6 853c
00000200: 98a1 9cb9 b361 8d3d 2c40 d43e 1ee3 a0be
00000210: 5cea 63bb 07f4 e2be 2cf0 0cbf ba57 543e
00000220: b9a3 92bf f1bb 9d3f 9cae b63f 4f5c a7bf
00000230: 6f6b 893d 5111 95bd 9e0d c2bd 438a 14be
00000240: b3b3 04bf 158d f2be 5d11 45be 9ef9 71be
00000250: 64db d63c 119d a73e f0ae aebc 8721 07be
00000260: 6d72 9a3d 1418 853e e01c d53e 952a c43e
00000270: 5a74 553e e769 a63e 5c80 633e acdd adbe
00000280: a840 06bd dec6 783d a08d 493f 678e 133f
00000290: 7153 98bd 33f4 c6bc 8ebf e23e 3a0c 323d
000002a0: 5877 b43f 7490 783d ea01 17bf d46f e4bf
000002b0: a728 37bb 40fc 91be df67 a4be 2f45 b7be
000002c0: d1a3 e2be 8704 9fbe d0b4 cfbd 4a3f 3ebe
000002d0: c44a ab3e 7e07 3b3f 7159 9bbe 5280 0cbe
000002e0: a7bd afbd cb5d 47be e87f 3fbe b67d 9fbd
000002f0: cb42 3d3d 6534 403e f252 ab3e e7ee 103f
00000300: ce41 4abd fb1b 133d d88a ce3d f670 8dbe
00000310: accc 8a3e 23f9 95be ffcd 1bbd 78b7 9b3c
00000320: 7310 a03d 61ad adbf 5596 dc3f 6381 ea3e
00000330: aa0a 86bd 9cab 2bbd 646a adbd 6e59 86bd
00000340: 6310 fe3d 008a 94bd 2a9f 2dbe ab3c 10be
00000350: 873d 13bd aefd 9c3d a5df 05be f20c b83a
00000360: d104 82be 1523 c13b 6dff 063e f570 bc3d
00000370: 607b d33e 6ec0 963d fbd5 b0bc ed56 a1be
00000380: 4d60 12bb 9246 2c3d 74b8 cf3d 4a83 7bbe
00000390: c6d3 8dbd 1131 82bd 41e4 b2bd fc29 003f
000003a0: 7b86 bd3f fccc cb3f 0c2c 373f 2dc8 7e3d
000003b0: f102 fd3e 8a19 aa3d d41e 9f3e b061 2fbe
000003c0: 32cb 84be e8bd 60be 9431 babe db0c 0fbe
000003d0: cd40 32be 53fa aabd 92b6 90be 8837 40be
000003e0: 49f1 7a3d a948 283e 3e10 dd3d c597 4f3e
000003f0: 1502 863d 3897 b3bc 3d59 f2bd e79f fcbe
-0.0005117095 -0.0041447175 -1.1023269 0.18906605 0.21408503 0.75365174 0.44338182 -0.024186047
-1.5562801 -0.1024155 0.55087566 1.0999162 -0.06175195 0.20862836 0.123171516 0.119405895
0.2126788 0.409554 0.44771713 0.2371387 -0.072442345 -0.4221222 0.026169667 0.017386468
-0.045425657 -0.033691812 -0.10402344 -0.19984758 0.010169496 0.004461102 -0.026323956 0.20894904
0.093584895 0.016322203 -0.18656299 -0.68003345 0.3987922 0.21510223 0.31010023 -0.20558609
-0.59280086 1.7831331 -0.2589627 1.0332956 0.11551646 0.012986072 -0.29643896 0.07839424
-0.0035380882 0.1357406 0.12075748 0.20027259 0.13153541 -0.045347735 0.727895 0.50610447
0.15263158 0.1920091 0.2540463 0.20679347 0.06591999 -0.006072785 -0.39143586 -0.9163338
0.06432456 0.019129332 0.44063365 0.14587946 0.25893086 -0.31981295 -0.45005435 -0.3581398
0.27034488 0.37279695 1.3920029 2.0182216 0.5757292 0.41556972 0.39139017 0.42880458
0.2102822 0.13156983 0.15856627 0.19184464 0.24871616 0.41499346 -0.22009481 -0.17637117
-0.008041749 -0.057644997 0.24682154 -0.08694415 -0.1036292 0.15203029 0.09546768 0.18030126
0.023817973 -0.023342514 1.0048186 0.07798297 0.08042756 0.074779235 -0.34451813 0.06951459
-0.8312224 -2.087777 -1.1387441 -0.055869803 -0.08368908 -0.28075275 -0.3452182 -0.06266396
-0.42796525 -0.20911151 -0.3663848 -0.074365325 0.17455117 0.73145264 -0.40294814 -0.27201572
-0.036432173 -0.13111453 -0.13281168 0.22876734 0.018897112 0.1221272 0.007454582 0.016345173
-0.00029875035 0.069034 0.4145521 -0.31423277 -0.003477714 -0.44326803 -0.55053973 0.2073659
-1.1456214 1.232298 1.4272037 -1.3075045 0.067099445 -0.072786935 -0.094752535 -0.14505868
-0.518367 -0.47373262 -0.19244905 -0.23630378 0.02622766 0.3273702 -0.021323651 -0.13196383
0.07541356 0.25994933 0.41623592 0.38313738 0.20845166 0.32502672 0.22216934 -0.33958185
-0.032776505 0.06073653 0.7873173 0.57639164 -0.0743779 -0.024286365 0.4428677 0.04346869
1.4098921 0.060684636 -0.58987296 -1.7846627 -0.0027947815 -0.28512764 -0.32110497 -0.3579497
-0.44265607 -0.31058142 -0.10141909 -0.1857883 0.3345548 0.7305831 -0.30341676 -0.13720825
-0.08581095 -0.19469373 -0.18701136 -0.07787649 0.046206277 0.18769987 0.3346172 0.56614536
-0.049379162 0.035915356 0.10085076 -0.27625245 0.27109277 -0.2929164 -0.03803825 0.019008383
0.078156374 -1.3568536 1.7233378 0.4580184 -0.06545003 -0.041911706 -0.08467558 -0.06560026
0.12405469 -0.07252884 -0.16955248 -0.14085643 -0.03594735 0.07665573 -0.13073595 0.0014041944
-0.253943 0.0058940747 0.13183375 0.09201232 0.41305065 0.07360922 -0.021586409 -0.31511632
-0.0022335232 0.04205949 0.101426035 -0.24561802 -0.06925158 -0.06357015 -0.08734942 0.50064063
1.4806665 1.5921931 0.71551585 0.06220262 0.49416307 0.083056524 0.31078207 -0.17127109
-0.25936276 -0.21947443 -0.3636595 -0.13969748 -0.17407532 -0.08348527 -0.2826429 -0.18771183
0.061265264 0.16433968 0.107941136 0.20272739 0.06543366 -0.021922693 -0.11833427 -0.49340746

a2c_network.actor_mlp.0.bias f4 [256]
00000000: 1423 333d 16cf 17bd 2206 9ebd 6c79 533d
00000010: 1317 58bc e966 5a3d b485 27b8 9b3e 5e3d
00000020: 1845 b7bd 78ec d8bb eb82 413d 6185 90bd
00000030: fd18 243c b3f8 8b3c b955 6a3d 47a1 ef3c
00000040: 68b2 203d bde9 31bb 18a6 d93c aeff dd3d
00000050: c04a 04bd 77a2 763d 331b 07bd ef99 39bd
00000060: 9b3b 5e3d dec3 173d 253f a83d 56e6 7dbd
00000070: 5bdf 8c3d a28d 50bd 65e9 4fbd ca45 873d
00000080: d757 85bd c103 8ebd ad9c 0a3d 40a8 173d
00000090: c232 043d 2263 b93c e42c a73d b599 78ba
000000a0: 68d2 5bbd ffb7 e03d fbab 9c3d 872a 5bbc
000000b0: c781 4abc 970f 053e 6b87 e33d b4b5 0b3e
000000c0: 87cc b0bd 1552 2e3d 76db 553c c8f2 46bd
000000d0: 6f3f 783d c952 403d 0c18 1a3d 9480 e53d
000000e0: 0fe7 da3c b38c df3d aec5 0abd e46c fabd
000000f0: 7dc2 94bd 9665 6e3c 61a9 823d be45 f1bd
00000100: 35ff bbbb 9e2e 313e d1d4 193d ed40 fbbc
00000110: 9042 303c 14a6 ae3d 2204 0b3a 6ce9 fbbb
00000120: 3c85 5f3d c1ee 503d af97 803d 90c4 e0bc
00000130: 3144 5abd 5367 533d fa68 88bd 87f5 df3d
00000140: 4afa 283d dc3a a93b cf74 58bc 13e4 07bd
00000150: a191 f53c 212b 823d 2a0a 5b3d 6836 113c
00000160: 5876 75bd 5b24 3ebd 1965 873c 9706 923d
00000170: 81cf 9f3d 8fbf c3bd c5de aebc fc17 263d
00000180: 7da5 243e ad83 543d 726b 2f3d def5 3bbd
00000190: 6e8f 1e3c 9940 6dbd 5ebc 70bd cf8f b33d
000001a0: 00b7 7bbc c2c2 d2bd e0ed 3e3c dcd0 91bc
000001b0: d718 88bd 39ff 9e3d 94d6 983d a445 a93d
000001c0: 0f6d f63c 3dd8 8c3d 419f 5a3d 8d20 4ebc
000001d0: 990b 6e3d 4fff 4dbd b846 b1bc 7c83 ee3c
000001e0: 86a1 2c3d 22f2 1c3e 0e87 fc3c f443 e8bc
000001f0: 231f 56bc e432 983d e8af 6b3b 544b 0b3d
00000200: 3a39 f1bc 7a1d 79bd fba4 423c 06df 653b
00000210: 16e0 283d c839 873d f645 863d 1d95 b2bc
00000220: 2a19 b33c 41e8 87bc 02eb 95bd 169a 15bd
00000230: 64cc 02be 305f 41bc e350 173d 572b 783d
00000240: abdc 0b3d 6086 ea3d 8b86 983c fe44 513d
00000250: 9439 a13d 8b15 40bb 85cb 803c 539c 0dbd
00000260: 6a05 873d 4a73 ca3c e37d b33c a00c c2bd
00000270: a574 073d 5760 703d 2222 323d 21b9 bd3d
00000280: aeab e3bc 571d af3d e4b1 0dbb 518a b53d
00000290: 37d4 a5bc 5205 5bbc 9537 603d 81d3 8dbc
000002a0: 1e2f 1b3d bd33 a6bc f773 833d 10a5 803c
000002b0: 8235 713d b8cf 1dbd d95e f5bc aa77 983c
000002c0: 71e9 923d d7ee eb3d 6f6c ee3c eb03 9fbc
000002d0: e602 853d 72f7 213d c2b4 c43c 15e1 afbc
000002e0: ec12 023e 43f3 e53c 32dc 273c 5306 8fbc
000002f0: ab8c ee3c 44c9 f03c 18e5 33bd 6c7d f43c
00000300: 4e19 123d de10 153d 55ac 80ba 994f 593c
00000310: 71cd 06be 766a ab3d 6fa3 843d 689d 653c
00000320: 9b18 8d3d bb9d d53c ab60 cc3b e533 bcbb
00000330: 4c29 0d3d 9b0a 0d3d cd05 d43d 0fcc 923d
00000340: 7e95 cebd b266 aabd 7142 77bb 8987 a43d
00000350: 2b11 9e3c 46ef 97bd dae0 193c 4e0f 9abc
00000360: 3569 eb3b 8ad8 603c f44e dcbc e7b5 c53d
00000370: 9a61 03bd 51ff 203d 3e61 813d 1dec a63d
00000380: b0b4 95bd 7fd5 ea3d 798b af3c 1164 a33d
00000390: 1fb6 493d e801 2abc b0fe 79bc e09b 0d3d
000003a0: 7dfd bfbd 5d1e 443d 91db 46bd 7a01 163d
000003b0: 63f3 02bb c5f6 c03c 78c4 3abb 56be a6bc
000003c0: bee1 b4bc 147d a13d 1881 b23c 39b4 e4bc
000003d0: 1a6b f03b 68a4 953c 08f0 243d 5d3e 20bc
000003e0: eee4 6d3d ba47 02bc d2e8 86bc 06df fa3c
000003f0: 4e47 ac3d a927 adbd 0cba d2ba 792e 1abd
0.043734625 -0.037062727 -0.077160135 0.05162947 -0.013189095 0.0533208 -3.9940423e-05 0.054258924
-0.089487255 -0.006619986 0.047243994 -0.0705669 0.010015723 0.017086362 0.057210658 0.029251708
0.03923264 -0.0027147376 0.026568457 0.10839783 -0.03229785 0.060213532 -0.032984924 -0.04531282
0.054256063 0.037052028 0.08215169 -0.061987244 0.06878539 -0.05091632 -0.05075969 0.06605108
-0.06510895 -0.0693431 0.033840824 0.03702569 0.03227497 0.022630278 0.08162859 -0.00094833534
-0.053667456 0.109725945 0.0764999 -0.0133768385 -0.012360043 0.12994228 0.11109813 0.13643533
-0.086327605 0.04255875 0.013052812 -0.048571378 0.06060737 0.04695395 0.03762059 0.11206165
0.026721505 0.10915508 -0.03387993 -0.122278005 -0.07263658 0.014550587 0.06379963 -0.117808804
-0.00573721 0.1730294 0.037556473 -0.030670607 0.010758057 0.08527771 0.0005303045 -0.007687738
0.05457042 0.051008943 0.06278931 -0.027437478 -0.05328769 0.05161221 -0.06660648 0.109355025
0.04125432 0.0051644873 -0.013211443 -0.033176493 0.029976668 0.063558824 0.05347649 0.008863069
-0.059927315 -0.04642139 0.0165277 0.07130163 0.0780325 -0.09558021 -0.02134646 0.040550217
0.16078754 0.05188339 0.042827077 -0.045888774 0.009677751 -0.057922933 -0.05877339 0.08767664
-0.015363455 -0.10291053 0.0116533935 -0.017799787 -0.06645363 0.077635236 0.074628025 0.08265236
0.0300813 0.06877182 0.053374533 -0.012581003 0.05811653 -0.05029231 -0.021640167 0.029115431
0.04214623 0.15326741 0.030826118 -0.028352715 -0.013068947 0.074315816 0.0035963003 0.034007385
-0.029446233 -0.060819127 0.011880155 0.003507556 0.04122933 0.06602818 0.06556313 -0.021799618
0.021862585 -0.01659024 -0.07320215 -0.0365239 -0.12773281 -0.01180248 0.036942374 0.060588207
0.034145992 0.11451411 0.018618843 0.051091187 0.0787231 -0.0029309716 0.015722046 -0.03457291
0.065928295 0.024713177 0.021910613 -0.09475064 0.033070225 0.058685627 0.043489583 0.09263826
-0.027791824 0.08550518 -0.0021620924 0.088642724 -0.020242793 -0.013367968 0.054740507 -0.017312767
0.03788673 -0.020288343 0.06418603 0.015703708 0.05888892 -0.038528174 -0.029952453 0.018611748
0.07173432 0.115201645 0.02910444 -0.019411048 0.064946935 0.039542623 0.024011973 -0.021469632
0.1270253 0.028070098 0.01024537 -0.01745907 0.02911981 0.029392846 -0.043919653 0.029844962
0.035668664 0.03639304 -0.0009816984 0.0132636065 -0.13164307 0.08369915 0.06476485 0.014014579
0.06889459 0.026076188 0.0062371097 -0.005743491 0.034463212 0.034433942 0.10352669 0.07167827
-0.10087107 -0.08320369 -0.003772881 0.08033664 0.019295296 -0.07418685 0.009391988 -0.018806126
0.0071841725 0.013723502 -0.026893117 0.09653836 -0.032075502 0.03930599 0.063173756 0.08150504
-0.07309854 0.114665024 0.02142881 0.079780705 0.04924595 -0.010376431 -0.015258476 0.034572482
-0.09374521 0.04788052 -0.04854924 0.036622502 -0.0019981496 0.023555169 -0.0028498452 -0.020354431
-0.022080299 0.07885185 0.021790072 -0.027917968 0.0073369863 0.018266872 0.040267974 -0.009780494
0.058079652 -0.007951671 -0.01646844 0.030623924 0.08412038 -0.0845483 -0.0016077175 -0.037641976

a2c_network.actor_mlp.2.weight f4 [128, 256]
00000000: e8de 833e 96ab 343e c7a7 e3bd 9473 72bc
00000010: 79fe 3e3e 684e 3ebe cb6b 93bd 9bdf fcbe
00000020: 6e38 993e 7a88 c63e 7834 273e ca07 f93d
00000030: c475 08bf 830b 383e 5aea 273e 5e1d 92bf
00000040: ccaa 953d 2b46 e4be 0446 f23c 4270 97bd
00000050: 31c0 fe3c 7be1 61be c55e 4abe 754c b4be
00000060: 526d 9bbe fd2e 273e 3d39 883e d976 773e
00000070: 8596 3abf c1d7 c9bd e89a 57be 90b3 8bbe
00000080: a40c 38be 09e5 503e a631 1a3c fc56 95be
00000090: d01c 2f3d a3bc c8bd 1ed4 23be 7f9b fb3d
000000a0: 3f95 873e 0a07 a2bc 2894 fe3d 7b52 7abb
000000b0: 4f83 d83c 1880 2d3e 7e57 0cbf 546c 47be
000000c0: fd52 57be 0cdb 943d ecb7 aa3e bb64 24bd
000000d0: 196c fb3c 87aa 0e3e 3ad2 c13e 281d fd3d
000000e0: 99ea 2f3e 4dc1 6a3d 65c8 183e 11f5 cd3d
000000f0: ccd3 98bc 28cb 5a3e d4cb bebe 2649 923c
00000100: 90b1 8d3e f259 b3be 54fd 313a d91e c1bc
00000110: fced afbd e266 6cbe a5ff a63c bb00 e73d
00000120: 090d 603d 9410 613e fccb 18be 6566 c53d
00000130: 70de 013e 9430 b6be dca8 6cbd 99b8 25be
00000140: dbdf d8bc 2add abbe 8f59 383e 3033 813e
00000150: 9444 533e d56b 0bbf 697e 55be 885d cf3d
00000160: 2d9a 0e3e 0d30 823e 9338 033c 735e 883d
00000170: fd21 86bd bf33 e03d a95b 933c c29b 9c3c
00000180: 7f44 b03d de97 9fbe af44 ac3d 1f77 f2bd
00000190: 7e29 9fbe 64b5 1abe 2507 c03e 8c0a 40be
000001a0: 5a82 823d 41dd db3a d184 ec3d 9bba c53c
000001b0: 84b2 c33d 24a2 603e bd1d c4be 81b9 613e
000001c0: 3597 173e 8a09 383e 91f6 d13e e1c0 c5be
000001d0: 3a7a fcbd 3eb6 8cbe cefd 693d 404c ab3d
000001e0: 4af2 49bf d012 473e ff43 1ebe 0bf0 bebc
000001f0: 00ee 29be 469b eabd 20b9 803c e1dc 43be
00000200: 867c 973e 59ab fdbd ce46 d03e 2bb0 e9bd
00000210: 0d78 863e c539 e9be 3126 dabd 5161 853b
00000220: 705d bebd 865b c73d 3a7e c9bb 3c77 f9bc
00000230: 59cb d93d 307f c8be 3009 1fbe bf89 633e
00000240: 64d8 42be 01bb 993e 903c 1f3e 7311 03bf
00000250: 953d 8f3e 7b1e 1cbe a7d0 503e 966d 953e
00000260: feec 09bd f5a4 773e 4e49 23be b374 56be
00000270: 3eb5 a1be a776 803e cd2f 123e 06b8 aa3d
00000280: ae0d 633d 8945 1d3e 34b0 bdbd 82d0 883b
00000290: 68e8 303e 6e4b 08bd 24f5 16be 6b14 4e3e
000002a0: 3798 e4be 84a1 3abe bdac d4bd 19a1 683e
000002b0: a20c 463e ca90 71be fa17 8e3d 12dc d3be
000002c0: 36ac 19bd 5dc3 e3be 19fd acbd 4aec 603e
000002d0: 9102 b03a 5dd2 5e3e 78c6 1bbf e4d8 50bd
000002e0: d4a3 13bf 3fce 593d d408 6abc d270 6e3e
000002f0: a2a1 95bd 7214 e7bc 2835 7f3e bf77 c8be
00000300: 4925 a2be a555 edbd e7f9 98be 7f6c bd3e
00000310: 10a3 a03c c716 42be 4170 75bc 9b37 7fbc
00000320: 8781 27be 440f 87be 5d5b 89bd 8057 b6be
00000330: e870 b8be 0b8b dcbe 2770 9cbe 510c 8d3e
00000340: 1627 913d b0df 7abc d21b b5bd 9ed3 33be
00000350: 2e27 643d 7982 8bbe 58c0 a4be cac9 d33c
00000360: d59d 02be 9ab8 9bbe 9b00 b63d d45e 9ebe
00000370: 50a7 bb3c 9102 94bf 63ec dc3d 7463 663e
00000380: 6665 a63d 3793 67bc 50d8 fcbc 5aaa 12be
00000390: fc15 443d fb06 423e e2a4 f23e deaa af3d
000003a0: 9acf 94be 05c0 1d3c 2949 88be fa00 9b3e
000003b0: e5df 253e d4ab 5bbe c7b4 36be e227 433e
000003c0: ac22 283f bce2 32be 9b82 553d 8873 563d
000003d0: 5865 fbbd 5192 f6bd 2001 efbd 25db e8bd
000003e0: 7dcb 88be af6f 8bbe ac71 ed3d e733 40be
000003f0: 9409 5dbc 95f9 e33d 9e94 61be a431 2d3d
0.25756 0.1764358 -0.11115985 -0.014798064 0.18651761 -0.18584597 -0.07198294 -0.49389347
0.29925865 0.38775998 0.16328609 0.12159689 -0.53304696 0.17973141 0.16397992 -1.1415212
0.073079675 -0.44584784 0.029574402 -0.07394458 0.031097503 -0.2205867 -0.19762714 -0.35214582
-0.30356842 0.16326518 0.2660617 0.2416643 -0.72885925 -0.09855605 -0.21055186 -0.27285433
-0.17973572 0.2039987 0.009411251 -0.29167926 0.042752087 -0.098016046 -0.15998885 0.12285518
0.26481053 -0.019778747 0.12430602 -0.0038196135 0.0264298 0.16943395 -0.54821 -0.19474918
-0.21027751 0.072683424 0.33343446 -0.040135127 0.030691193 0.13932239 0.37855703 0.12359077
0.17179336 0.057313252 0.14920194 0.10056508 -0.01865568 0.2136656 -0.37264884 0.017857146
0.27674532 -0.3502956 0.0006789763 -0.02357428 -0.08590314 -0.23086122 0.020385573 0.11279436
0.05469993 0.2197898 -0.14921564 0.09638671 0.1268251 -0.35583937 -0.057778224 -0.161837
-0.02647393 -0.33567172 0.18002914 0.25234365 0.20631629 -0.54461414 -0.20849003 0.101252615
0.13926001 0.25427285 0.008009094 0.0665864 -0.065494515 0.1094737 0.017988043 0.01911724
0.086068146 -0.31170553 0.08411538 -0.11839127 -0.31086344 -0.15108258 0.3750545 -0.18754023
0.06372519 0.0016774313 0.1154877 0.024136832 0.095555335 0.21936852 -0.38303939 0.2204342
0.14803775 0.17972389 0.41008428 -0.38623717 -0.12328 -0.2748279 0.057126813 0.08364153
-0.7888533 0.1944077 -0.15455626 -0.02330782 -0.16594696 -0.11455397 0.015713274 -0.19127227
0.2958719 -0.123861976 0.4067902 -0.114105545 0.26263466 -0.45551887 -0.10651816 0.004070439
-0.092951655 0.097342536 -0.0061490806 -0.030452363 0.106344886 -0.39159536 -0.15530849 0.22220515
-0.19027859 0.30025485 0.15550447 -0.511985 0.2797667 -0.15246002 0.20392095 0.2918517
-0.03367328 0.2418402 -0.15945932 -0.20942955 -0.3158359 0.25090525 0.14276047 0.08335881
0.055432968 0.15358557 -0.09262124 0.0041752467 0.17276156 -0.03327506 -0.14741951 0.20124976
-0.4464738 -0.18225676 -0.1038451 0.22717704 0.19340757 -0.23590389 0.06938167 -0.41378838
-0.03751775 -0.44484988 -0.08446712 0.21965137 0.0013428499 0.21759935 -0.60849714 -0.050988093
-0.57671857 0.053175207 -0.014284331 0.23285225 -0.0730622 -0.028207991 0.24922621 -0.3915386
-0.3166907 -0.11588601 -0.2987816 0.36996838 0.019609004 -0.18954001 -0.014980377 -0.015577222
-0.16358005 -0.26378834 -0.06706879 -0.35613632 -0.3602364 -0.4307483 -0.30554315 0.2754846
0.07087533 -0.01531212 -0.08843197 -0.17561194 0.055701427 -0.2724798 -0.32177997 0.025853056
-0.1275552 -0.30414277 0.08886834 -0.30931723 0.02290693 -1.1563283 0.10787275 0.22498876
0.08124809 -0.01413422 -0.030864865 -0.14322796 0.04787253 0.18947975 0.4739142 0.08577512
-0.29064637 0.009628301 -0.26618317 0.30274183 0.1619869 -0.21452266 -0.17842399 0.19058183
0.65677905 -0.17469305 0.05212651 0.052356273 -0.12275189 -0.120396264 -0.116701365 -0.113699235
-0.2671775 -0.27233645 0.11593947 -0.18769799 -0.013491053 0.11131588 -0.22029349 0.04228367

a2c_network.actor_mlp.2.bias f4 [128]
00000000: 05a9 6bbe edc2 ffbd 97e8 b2bd 436f 8bbe
00000010: b6d3 6dbd 5d69 773d b52f 81be 8125 e43d
00000020: 010f fabd 4d37 06be 301d 2abd de48 22bc
00000030: 2a50 19be ce05 e3bc a033 57be b2e3 083e
00000040: c107 8dbe 5e28 a7bd 1246 f8bc 1a70 07bf
00000050: 1a8a 4bbd 2d61 faba 1f09 fabd dc6b 1bbe
00000060: 9f4b cebd 5fe2 02be 0b89 1b3c 5311 6ebd
00000070: 0488 123e 8302 60bd 2110 f0bd ec24 323d
00000080: 68c8 9fbb 1d8f 62be b595 d6bd cf0a 97bc
00000090: 6e8f 8bbe 70a1 7abd 981a 30bd 3d1e 09be
000000a0: 5971 a7bc 29a2 3fbb 877f d3bd 9b9f 9cb8
000000b0: b79f 32be 5c9d a9bd 7a70 b1bd 3bc3 55be
000000c0: 1027 06be 969a 63be 0baa 34bd 15d9 89be
000000d0: e17a 18be 652f 2ebd ec3d 68bd acf9 b539
000000e0: b2ae acbe 60f2 79bd bfc4 6bbe 32f6 c8bd
000000f0: 9b32 2bbe b6e4 f8bd d2e4 10bd f719 d5bc
00000100: 4cd1 b1bd 0626 80bd a40b 08be 46c9 b4bd
00000110: 8ad1 e6bd bb67 0ebc 018f 12bd 9c45 b3bd
00000120: 8893 94bd 7544 aebd 595b 62bc 63b8 d9bd
00000130: 99c0 6bbd 76be 49bd 311d 91be 8c3d 63bd
00000140: 9032 a4bd 5b68 a9bd 8411 86bd 4e06 c3bd
00000150: 476f 613e fed7 6cbe a3c8 18be bd32 0fbe
00000160: 7bee 3bbd f6aa 29be 71ab f83b 4189 7bbd
00000170: 6301 e4bd 4801 65be 32bd 2ebd dd7d 73bc
00000180: 9ed9 10be cec5 e3bb 58d5 4739 4b13 77be
00000190: caa1 c13d 8c99 00bd 157f 963d aa65 8cbd
000001a0: 204e a5bd a191 29be 235f 18be 6b2f 0cbe
000001b0: b3cb 8bbe 504f 94be 0af4 4cbe 5f41 8cbe
000001c0: e385 bebd ceaa febd 0177 c03c b228 373c
000001d0: ab63 b33c c987 3c3e 38f1 45be 7d2d 36be
000001e0: 096d 5fbe cbe7 6ebe 6f84 b4bd 3105 aabe
000001f0: 8a91 68bc 95c4 98bd 81e1 16be 6c56 1ebc
-0.23013695 -0.12488351 -0.08735769 -0.27233323 -0.05806323 0.060403217 -0.2523171 0.11139966
-0.12209893 -0.13107033 -0.04153174 -0.009905068 -0.14971986 -0.027712729 -0.21015787 0.13368109
-0.27544978 -0.08161996 -0.03030685 -0.5290543 -0.04969225 -0.0019102447 -0.12208771 -0.15177864
-0.10073017 -0.12781666 0.009493123 -0.05812199 0.14309698 -0.054689895 -0.11721826 0.043492243
-0.004876185 -0.22124906 -0.10477773 -0.018437771 -0.27257866 -0.061189115 -0.04299411 -0.13390441
-0.02043979 -0.0029240942 -0.10327058 -7.4683885e-05 -0.17443739 -0.08281967 -0.08664031 -0.20875256
-0.13100839 -0.22226939 -0.044107478 -0.26923433 -0.14890625 -0.042525668 -0.05669968 0.0003470903
-0.33727032 -0.061022162 -0.23024271 -0.09812583 -0.16718523 -0.12152998 -0.03537447 -0.026013358
-0.08682498 -0.062572524 -0.1328569 -0.08827452 -0.11270435 -0.008691723 -0.03578091 -0.08753511
-0.07254702 -0.08509151 -0.013815724 -0.10630872 -0.057556722 -0.049253903 -0.28342584 -0.055478618
-0.080174565 -0.08271857 -0.065463096 -0.09522687 0.22015105 -0.2312927 -0.14920287 -0.13984199
-0.04588173 -0.16569123 0.007588797 -0.061410192 -0.11133077 -0.2236377 -0.0426609 -0.014861551
-0.14145514 -0.0069510704 0.00019057596 -0.24128453 0.09454687 -0.031396434 0.07348458 -0.068553284
-0.08071542 -0.1655946 -0.14880042 -0.13689964 -0.27303848 -0.2896676 -0.20014969 -0.27393624
-0.093028806 -0.12434922 0.023494245 0.011179136 0.021898111 0.18411173 -0.19330299 -0.1779079
-0.21818937 -0.2333061 -0.08814322 -0.33207086 -0.0141948555 -0.0745937 -0.1473446 -0.009664159

a2c_network.actor_mlp.4.weight f4 [64, 128]
00000000: d151 dd3d 5e22 21bb 252a afbb 29f4 1cbe
00000010: 3472 913d 8988 2fbe 63d7 1abe c15b b63d
00000020: 3b9b 70be fd0c 023e 0928 bf3b acce 29bd
00000030: 3604 163d ca2c b93c 8fc1 523c 834a 49bc
00000040: 9256 73be 7467 2fbe 0b8d 79bd 1eff ac3d
00000050: 8c12 253e 6531 133d 8487 303d 2d84 6b3d
00000060: 25df 9dbd 49ee a63b 424b 57bd f498 113d
00000070: 4134 f1bc 678f 0fbe 0077 b7bd 3c05 973c
00000080: cacc 0a3d a1c1 f2bd 9a00 d4bd e7c8 b2bd
00000090: 7529 03bd a888 82be 71ad 253d 3056 9bbd
000000a0: 3c3c 523d 0709 a73d fadf 053d 6d4a 253c
000000b0: 1102 17be 4ef3 2abe 762d d3bc ddfc e63d
000000c0: 8042 643d bb7d 7cbe 7f68 683d 0344 143c
000000d0: 565b 043d 451c 2bbc 6089 0ebd 8bc9 98bd
000000e0: a504 52bd f143 44ba f7f7 423d 95d8 8c3d
000000f0: 842d acbe 53e1 f3bd f8aa 3abe 5a97 1e3e
00000100: 74ae 5cbe 20c3 1fbe ed50 18be 58e1 113d
00000110: b6b2 bf3b 208a 9c3d 6a39 78be 4733 68bd
00000120: c496 823c 6d44 41be 8117 0fbe 7245 10bd
00000130: dadd 76bd 8957 00bd 4ee2 353d 3cb0 713d
00000140: 039f 933d c854 a7bb 579c 00be 3fdb 5cbd
00000150: 4756 533d b1aa 81bd d916 13be 6d2f a33d
00000160: 0df2 373d 2492 05be f510 01be 2705 acbd
00000170: 4af8 b1bd 0888 c0be 0f45 963d a45b 0dbd
00000180: a4fa b0bd 0377 e73d 6bff a6bc 1ab2 0bbe
00000190: bcd9 87bd a35d e5bc 884e b0bd 337a d8bd
000001a0: 00ce 023e 52b1 ae3c 6707 f3bd 3886 26be
000001b0: bec7 d5bd a1f6 aa3d fd29 aebc 2bd0 12be
000001c0: 9b79 77bd 03c0 47bd 8fbe 00bd 4172 babd
000001d0: 8f15 e2bc ab0c 51bc f03d a73d 6cea 373d
000001e0: e666 36be 38b3 32be d72d bc3d 0610 753d
000001f0: 8e2c c53d a8a5 2abd ee01 56be e411 61bd
00000200: 1888 cf3d 9b0f b23d 74ff b53d dcba 973d
00000210: 5007 9c3c 696e 02bd ecaa 533c 3f24 efbd
00000220: 1bb6 cb3c b74d 91bd a6cc 9bbc fc8b 06be
00000230: 2199 2e3d b04f c5bd 1d4d c6bb 3b4c fb3d
00000240: 6e8a dbbe b33f b83d c0df 223e 972c b6bd
00000250: c346 93bd 0ec9 28be ca21 883c a0ec da3d
00000260: c87e 053e a0da 1f3e ebb8 9bbd 20e9 88bd
00000270: ad74 a2bd aec7 48bd fed0 d83d 0dd5 45bd
00000280: ce80 f4bd 1505 8b3e 8678 51bd dd6c de3d
00000290: 15d6 8fbe ff42 093e 3b27 393d 32e2 9ebc
000002a0: b7d3 b5bc b047 ccbc 3773 efbd f410 57bd
000002b0: de76 b5bc 5cab 87bc 737e 183e 4808 95bc
000002c0: 3c94 973d 8d1a 9fbd fb99 9e3d 48c9 0e3e
000002d0: f2ad f2bb 965e d6bd 18b5 42bc 3803 44bd
000002e0: 3d39 fcbe 270e 1bbd 9291 213e 27af ee3d
000002f0: dffc 6e3e d25a 873e 761e b6bd efe5 b9bc
00000300: d7f8 353d 39a1 3bbe 6955 dabd 4d39 4b3c
00000310: 7f61 903d 002f 52be 27ed ae3d 990e 8cbe
00000320: 7d67 11be e60f 06be 2d1d a63d dfcf 79bd
00000330: ef82 abbc dd2f ee3c 9f2f 033e a7cd 4cbe
00000340: 814b d7bd 7cd7 cbbd 089e a43d 5816 03bc
00000350: 3245 0a3d 3c4b 323e b98a 883a 1f78 80bc
00000360: 104f ecbd b661 603d e004 ebbd c7c2 1d3d
00000370: b1e2 4b3e fde1 29bc 5ec7 08be 2589 9bbd
00000380: d3d3 53bd d469 ec3d 77f4 8bbb 6d95 033e
00000390: 5a4b 843c c1bf 7ebd c325 1cbe 3422 01be
000003a0: 2a08 a93d beda e63c 9542 ef3b 9f6c 293e
000003b0: b918 26bd ed85 863c c712 1a3e ebc4 1b3e
000003c0: 9bfa 05be 9bf8 6e3c c4fa 4b3e 2c37 92bd
000003d0: c3cd cb3d 496f d8bb b6cf a03c 6b10 b63d
000003e0: e5bb eabc d23f e03d b3e4 4b3e def1 cb3d
000003f0: 23fd 143e 0874 133d 7836 013e 307c e73d
0.10806621 -0.0024587135 -0.0053456 -0.15327515 0.07101861 -0.17141928 -0.15121226 0.089042194
-0.23496716 0.12700267 0.00583363 -0.041456863 0.03662511 0.022604365 0.012863531 -0.012285831
-0.23763493 -0.17129308 -0.060925525 0.08447097 0.16120356 0.03593578 0.043097988 0.0574991
-0.07708577 0.005094324 -0.052562006 0.035546258 -0.029443862 -0.14019547 -0.08958244 0.018435113
0.03388671 -0.11853338 -0.10351677 -0.08729725 -0.03202196 -0.25494885 0.04044861 -0.07584798
0.051326975 0.08156019 0.032684304 0.010088545 -0.14746882 -0.16694376 -0.025778513 0.112786986
0.05572748 -0.24657337 0.05674028 0.009049418 0.032313667 -0.010443752 -0.03479898 -0.07460316
-0.05127396 -0.00074869307 0.04759976 0.06877247 -0.33628476 -0.119082116 -0.18229282 0.15487424
-0.21550924 -0.15601778 -0.1487462 0.035615295 0.0058501614 0.07643533 -0.24240652 -0.056689527
0.015941031 -0.18873759 -0.1397381 -0.03522248 -0.060270168 -0.03133348 0.044405274 0.05900596
0.072080635 -0.0051065423 -0.12559639 -0.053920027 0.051595952 -0.06331385 -0.14364184 0.0796803
0.044908572 -0.1304403 -0.12604125 -0.0839942 -0.086899355 -0.37603784 0.07337391 -0.034511223
-0.08641556 0.113019966 -0.020385465 -0.13642159 -0.066333264 -0.027998751 -0.08608729 -0.10570183
0.12773895 0.021324787 -0.11866646 -0.16262138 -0.104384884 0.08347822 -0.021260256 -0.14337222
-0.060418706 -0.0487671 -0.03143173 -0.091038235 -0.02759817 -0.012759368 0.081661105 0.044901296
-0.1781269 -0.17451179 0.09188431 0.059829734 0.09627639 -0.04166189 -0.20899174 -0.054948702
0.1013338 0.08694383 0.088866144 0.074086875 0.019046456 -0.031843577 0.012919169 -0.11676835
0.024867108 -0.07094901 -0.019018482 -0.13139337 0.042626504 -0.0963434 -0.006051673 0.12270399
-0.4287905 0.08996525 0.15905666 -0.088952236 -0.07191231 -0.16482946 0.016617674 0.10689664
0.13036644 0.15610743 -0.0760363 -0.0668509 -0.079324104 -0.049018554 0.10586737 -0.048298884
-0.1193863 0.27152315 -0.05114033 0.10860608 -0.2809302 0.13404463 0.04520343 -0.019394968
-0.02219568 -0.024936527 -0.11691897 -0.052506402 -0.022151407 -0.016561203 0.14891987 -0.018192425
0.0740132 -0.07768736 0.07744213 0.1394397 -0.00740599 -0.104672596 -0.011883996 -0.047854632
-0.4926242 -0.037855294 0.15778187 0.116545014 0.2333865 0.26436478 -0.08892529 -0.022692649
0.044426765 -0.1832322 -0.10660822 0.012403798 0.07049846 -0.20525742 0.08541327 -0.27354887
-0.14199634 -0.13092002 0.081110336 -0.060989257 -0.020936457 0.029075557 0.12811135 -0.20000325
-0.10512448 -0.0995321 0.080379546 -0.008000933 0.033757396 0.17411512 0.0010417319 -0.015682278
-0.115385175 0.054780684 -0.11475539 0.038515832 0.19910695 -0.010368821 -0.13357303 -0.075945176
-0.051715683 0.115436226 -0.004271086 0.1284997 0.016149212 -0.06219459 -0.1524878 -0.12610704
0.0825351 0.028180476 0.0073016384 0.16545342 -0.04055092 0.016421283 0.15046225 0.15211837
-0.1308388 0.014585639 0.19919878 -0.071394295 0.09951355 -0.006605063 0.019630294 0.0888985
-0.028654048 0.10949673 0.1991146 0.09958242 0.14549689 0.035999328 0.12618434 0.11302984

a2c_network.actor_mlp.4.bias f4 [64]
00000000: ff1a afbd aa64 f63b c1f3 68be 1d68 923a
00000010: 5a69 15bd 1dd9 0cbd 9973 f1bc 7d3c 813d
00000020: 58b8 87bd a9c6 b4bd bf84 cabe 674b 18bd
00000030: 7691 a8bd 54e1 9cbb dfc0 98bc 0447 523d
00000040: da98 b6bd 46b8 6fbd 407e 44bd 08c1 1abe
00000050: 4af2 c9bc 3293 07be c297 16be 80fe d93c
00000060: b420 d43b f04d cebd 5e4c 5b3d 646b b1bc
00000070: 8837 31bd f55e adbd be39 2bbd 870a 083b
00000080: 0676 5dbb a695 9ebd 2e6d 82bd c9b2 193d
00000090: 84bc 1abe 9aa2 8fbd 41ef dfbd 3159 8dbc
000000a0: 7253 3ebe 386f 99ba d9d2 c2bc 0f64 22bd
000000b0: 36fb 51be 9129 bbbd ff82 e9bd bf62 3bbe
000000c0: 73f8 16be d969 1abe 2afb b3be c6fe 1ebd
000000d0: 1fad 21be b438 9bbd fb52 c4bd ab86 33bc
000000e0: 26f0 3abd 7b33 a2bd a6d2 34bd 3b9c adbd
000000f0: eae8 b8bc 15e4 66bd 6cd2 883d 4eab f0bd
-0.08550071 0.0075193243 -0.22749235 0.0011169944 -0.036477424 -0.034386743 -0.029474067 0.06310365
-0.06626958 -0.08826954 -0.39554402 -0.037181284 -0.082308695 -0.0047876034 -0.018646656 0.051337257
-0.08915873 -0.058525346 -0.047971964 -0.15112698 -0.024651665 -0.13239744 -0.14706329 0.026610613
0.006473625 -0.10073459 0.053539626 -0.021657653 -0.04326585 -0.08465377 -0.041803114 0.0020758228
-0.0033792271 -0.07743387 -0.063684806 0.03752402 -0.15110976 -0.07013436 -0.10934306 -0.017254444
-0.1858652 -0.0011706119 -0.02378218 -0.039646205 -0.20505986 -0.091387875 -0.11401939 -0.18299387
-0.14743213 -0.1507944 -0.3515256 -0.03881719 -0.15788697 -0.07579175 -0.0958614 -0.0109574
-0.04563918 -0.07919975 -0.044146203 -0.08477064 -0.022572 -0.05636986 0.0668076 -0.11751424

a2c_network.value.weight f4 [1, 64]
00000000: 2626 09be d7d5 e43d 6c90 2dbe f78a 153d
00000010: d773 923d aa21 ca3d 63db 193e 9d84 603e
00000020: 12a4 1d3d b177 02be cbff 16be 2896 8e3d
00000030: 051b 05be d42e 3fbc 65f4 5abd 0b3d 243e
00000040: ed72 993e 692a eebb fb7e 8dbc 20ed bebd
00000050: 02e3 04be c363 b6bd b947 953e 4eb6 713d
00000060: 35e9 173e 9acc cfbb 908b 203e 3eb3 05bd
00000070: 5da5 c23c 2b27 d3bd 02f6 223e eee8 c23d
00000080: de1e fc3d 4d86 7ebd 0ac2 d53d 986f 19be
00000090: 4dfa 78be 8232 cbbd d3ac 57bd 4447 983d
000000a0: 3432 febd b530 123e 15c0 22bc 52e8 1d3e
000000b0: bca6 42be d568 89bc e917 953d 8f05 e8bd
000000c0: 4ae3 b9bd f97c 60be 2acf 13be 92eb 993d
000000d0: 7c62 58be 15a0 1bbd d4cf 99bc 2a72 acbd
000000e0: 8ddb 0c3d d2ca e9bd 5245 c83d b150 e63d
000000f0: 175e 003e d471 8fbd ee9f 093e ec8f 46be
-0.13393459 0.11173599 -0.16949624 0.03650948 0.07151001 0.09869702 0.15025096 0.21925588
0.038486548 -0.12740971 -0.14746015 0.06962234 -0.12998588 -0.01166888 -0.05345573 0.16038911
0.29970494 -0.0072682393 -0.017272463 -0.09322572 -0.12977222 -0.08905747 0.29156283 0.05901175
0.14835055 -0.006341529 0.15678239 -0.03264164 0.023760492 -0.10310205 0.15914157 0.09517084
0.12310575 -0.062139798 0.10437401 -0.14983976 -0.24314232 -0.09921743 -0.052655052 0.07435468
-0.12411919 0.14276393 -0.009933491 0.15420654 -0.19008917 -0.01677362 0.07279951 -0.11329185
-0.09076555 -0.21922673 -0.14434496 0.075156346 -0.21131319 -0.037994463 -0.018775858 -0.084202126
0.034389067 -0.11415638 0.09778847 0.112458594 0.12535892 -0.07004133 0.13439915 -0.1939084

a2c_network.mu.weight f4 [4, 64]
00000000: 3d53 653b 7c8e 3cbc f5c7 203c 8c77 b83b
00000010: 6d26 253d 139d 74bc fc56 aebb fea7 48bc
00000020: d794 bc3b 8b3b bc3c 3c31 973b ef7d 06bc
00000030: 84b0 f0bc 0e9f 4cbc 392a bfbc 17cb 4abb
00000040: d249 3f3c 02ae 3d3d 6eba 133d b5dc d5bb
00000050: eb03 bbbc cafb 0bbd 7e90 20bc af57 ccbc
00000060: 99df 483c f386 9ebc f737 163b 1733 033c
00000070: eb93 91bb 5da1 5d3c f279 67bc 467d 4ebb
00000080: f612 fb3c 33ad 7bbc 1991 3f3d d952 853c
00000090: c0c6 8a3b 4dcf 603c b6b5 abbc 7c99 623b
000000a0: 4eeb 49bd b674 833c a5e1 713a 8120 2ebd
000000b0: 8693 35bd 34a7 93bc 8cb1 533d 4292 c0bc
000000c0: a44e bfbc 9ada 8a3c ca16 613c ac8f f7bc
000000d0: 2afa c0bc c04e 41bd 7655 0c3d a5dd 3bbc
000000e0: 58bd adbb 61a8 62bd 0bb1 3b39 601c 2a3d
000000f0: 7393 dbbc c5f6 6f3d 380f b63c a63f c73d
00000100: 30a9 3b3b ac5a a63c 2190 ccbb 5d7e 07bd
00000110: a080 d33c 8200 0c3c 5d3c 4f3c 2c75 08bd
00000120: 91c1 e7bb ba09 18be d0f8 e63c c1ef 703c
00000130: 7929 273c 8c6d b03c 8e72 83bd 46e3 88bc
00000140: a241 d23c 85b7 1abd 78b5 1abc 7d69 643c
00000150: 75a2 ddbc 9205 04bd dd0b 7d3b c6b3 a43c
00000160: 0ff1 383c 6d65 8fbd a804 dbbb 0992 aabc
00000170: 3432 33bd f603 c1bb 079e 7bbd dc44 74bd
00000180: f070 823c b8de 76bd 0ee9 ff3c 9312 e5bc
00000190: 7550 02bd c360 c6bc c37f 33bd 2c42 273b
000001a0: 66b7 703d 726f 83bc b06b e53a 55ae 373d
000001b0: 2828 8c3d 9700 01bd 5906 8dbc e55e b1bc
000001c0: b05f bf3c 427e f73c 710c 9c3c 81e4 3dbd
000001d0: 86cb dd3c b689 303c 192c d83d ae30 243d
000001e0: 8034 f7b9 36be 8b3d 83d5 31bd 231a 13bc
000001f0: 9c78 263d b082 bc3b 1c64 dfbc 7bbd cc3b
00000200: a6b2 03bc 946d 263d 039c 2b3b 68f9 2c3d
00000210: f71a b33c 3d5d 6bbb 299c 6cbb 742f 963b
00000220: fa36 303d 03bb 96bc e053 d6bc b390 e2bc
00000230: f0ac 5a3d 9df0 223d b61d 5c3d 2b5f b3bb
00000240: a6bc 363d 178a d03c b3b0 82bb 8f43 05bd
00000250: 0b15 313d 3f34 b7bd 6261 e8bc 71cf 0d3d
00000260: 9af8 62bd 5124 eebc 10b2 b93a 615d 71bb
00000270: 0947 9e3c 5ff0 96bc 8651 793c 1b98 b23c
00000280: d6ef 58bd a464 ae3b 5500 653c 5a66 99bb
00000290: 680d 49bc dca1 f13c aee5 9c3d 4d59 b83c
000002a0: d858 0ebc bd2f 1d3d 1b0a 4fbb 3001 aebd
000002b0: 0879 823b ba08 1cbd aaca a1bc 68dd e83c
000002c0: 74b9 013d f9cc 9a3c 05c0 8f3d 5f13 1f3d
000002d0: 8486 8fbd 6e7a 9c3c f77d 09bd 3913 633d
000002e0: 0b72 3c3c e5ba 063d cd81 d3bc 9be7 6e3c
000002f0: 235d 8d3c db0f 21bd fcb0 2bbd ccc3 cbbd
00000300: 55c3 183d 7417 bcbb fddf bbba f2f9 d6ba
00000310: afa3 b23c e011 12bc 78f7 473c d007 b4bb
00000320: 904e 11bd 3486 203d aa76 003d f487 09bc
00000330: bf73 9fbc e756 793d b2d9 8cbd 45ad 0bbd
00000340: f5f9 c13c 0570 973c 62ec 543d 20e6 b5bd
00000350: fc5d e53c aef9 0a3d 20b5 10bd 087d ce3b
00000360: 63b4 4e3c 0c9e 2a3c 286a c83c 433a 52bc
00000370: 0447 e33a 28fb 603c 1549 653d f935 3a3d
00000380: f39a babb 5e94 51bd 4a8e ea3c 1d47 23bc
00000390: db3c 523b 058f 623c a41c cdbb e9fe 783c
000003a0: ea88 a9bc 978b fcbc 81eb 20bd 2baf d93c
000003b0: b1b4 cc3c 7d14 813c ed4d d1bc 7ddb 43bd
000003c0: 8cef 6dbd 19e8 183c 45f4 c2bc a63f 91bc
000003d0: 3a6a 263d 28c4 323d b066 923c 756a a7bc
000003e0: b048 1c3d 63c5 f8bd 6e47 e63c 340e 2bbd
000003f0: 248a 6a3a 1c97 95bd bdd0 19bd 25fe 273d
0.003499224 -0.01150858 0.0098132985 0.0056294855 0.04031985 -0.014930028 -0.005320428 -0.012247084
0.005755048 0.022977611 0.0046140235 -0.008208736 -0.029381044 -0.0124890935 -0.023335563 -0.0030943805
0.011675315 0.046308525 0.036066465 -0.0065265545 -0.022829017 -0.03417567 -0.009800075 -0.024944155
0.012260341 -0.019351458 0.0022921541 0.008007786 -0.004442682 0.013527242 -0.014128195 -0.0031507774
0.03064869 -0.015361118 0.046769235 0.016274856 0.0042351186 0.013721299 -0.02096067 0.0034576347
-0.04929667 0.016046863 0.0009227044 -0.042511467 -0.044330142 -0.018024065 0.051682994 -0.023507241
-0.023352928 0.01694994 0.0137383435 -0.030219875 -0.023556788 -0.047194242 0.03426119 -0.011466418
-0.0053021125 -0.05533636 0.00017899663 0.041530967 -0.026803708 0.058584947 0.022224054 0.09728937
0.002863478 0.020306908 -0.0062427674 -0.033079494 0.02581817 0.008545043 0.012648669 -0.03331487
-0.0070726355 -0.1484746 0.028194815 0.014705599 0.010202759 0.021536611 -0.06418334 -0.016709935
0.025666062 -0.037772674 -0.00944268 0.013941166 -0.027055005 -0.032231875 0.0038611807 0.020105254
0.011287942 -0.07001767 -0.0066839047 -0.020821588 -0.04374905 -0.0058903648 -0.061430003 -0.059635982
0.015922993 -0.060270995 0.031239059 -0.027962958 -0.03181501 -0.024216061 -0.043823015 0.002552162
0.058768652 -0.016044352 0.0017503407 0.04484399 0.06843597 -0.031494703 -0.01721494 -0.021651695
0.023361057 0.030211572 0.019048901 -0.046360496 0.027074587 0.01077502 0.10555286 0.040085487
-0.00047150627 0.06823389 -0.04341651 -0.008978399 0.040642366 0.005752884 -0.027269416 0.006248174
-0.008038199 0.040631846 0.002618552 0.04223004 0.021863444 -0.0035913729 -0.003610382 0.0045832936
0.04302118 -0.018399721 -0.026163042 -0.027656889 0.053387582 0.039780248 0.053739272 -0.0054739914
0.044613503 0.025456471 -0.0039883493 -0.032535132 0.04323296 -0.08945512 -0.028366748 0.03462166
-0.055412866 -0.029070051 0.0014167447 -0.003682934 0.019320982 -0.018425165 0.015217191 0.021801045
-0.0529631 0.005322056 0.01397713 -0.0046813907 -0.012271263 0.029496126 0.076609954 0.02250352
-0.008688174 0.038375605 -0.0031591717 -0.0849632 0.003981713 -0.03809426 -0.019749958 0.028425887
0.031671003 0.018896567 0.07019047 0.038836833 -0.07008079 0.019101348 -0.033567395 0.055438254
0.011501799 0.03289308 -0.02581873 0.014581586 0.017256325 -0.03932176 -0.041916832 -0.09949455
0.03729566 -0.0057401005 -0.0014333721 -0.0016401394 0.021806566 -0.008915395 0.012204997 -0.0054940954
-0.035475314 0.039190486 0.031363167 -0.00839423 -0.019464372 0.060873892 -0.068774596 -0.03410079
0.02367876 0.018486032 0.051983245 -0.088817835 0.027998917 0.03392952 -0.035328984 0.006301526
0.01261625 0.010413658 0.024464682 -0.0128312735 0.001733989 0.013731755 0.0559779 0.04546163
-0.005694741 -0.051166885 0.028632302 -0.009965685 0.003207973 0.013828044 -0.0062595177 0.015197494
-0.020695169 -0.03082828 -0.039287094 0.026572784 0.024988504 0.01575684 -0.025549853 -0.047816742
-0.058089778 0.00933268 -0.023798117 -0.017730545 0.04062865 0.0436441 0.01787123 -0.020436505
0.038155258 -0.121470235 0.028110232 -0.041761592 0.0008946976 -0.073042125 -0.037552584 0.041013855

a2c_network.mu.bias f4 [4]
00000000: 81bf 4ebe 8e0a 3fbe 4086 0abe 041c 45be
-0.2019024 -0.1865637 -0.13527775 -0.19248968

exp_avg f4 [4]
00000000: 1626 82bb 8bc4 b4ba 0c9f f0ba c2e2 0dbb
-0.0039718254 -0.0013791485 -0.0018357947 -0.002165005

exp_avg_sq f4 [4]
00000000: 250f 8f37 ae1d 9637 675d 3737 9016 5237
1.705398e-05 1.7895214e-05 1.0929397e-05 1.2522229e-05

exp_avg f4 [256, 32]
00000000: 79e5 58b8 79e5 58b8 9081 aab7 51b0 4cb8
00000010: 962d b637 7874 aab7 959a 66b8 625e d435
00000020: 0ce5 31b5 f892 6cb7 6704 0836 1d44 e9b7
00000030: 1ddf 1eb8 63ff cbb7 55e6 16b7 5753 e2b7
00000040: c48d e9b7 04ae 4eb8 a5de 2db8 080a 07b8
00000050: 05d6 fbb7 181c f5b7 bd2b f5b7 b04c fdb7
00000060: 3a5e b6b7 effb b5b7 cc52 f8b7 c3fb 06b8
00000070: ff1c 1cb8 3803 1fb8 cfc6 28b8 65c5 33b8
00000080: d5f2 023a d5f2 023a f78c 5335 a99e 15b8
00000090: 354d c036 1870 be37 3430 25b8 b0fc 05b5
000000a0: 00f0 dd37 15b0 d636 9e35 22b8 c402 56b7
000000b0: f4f5 00b8 a596 ddb7 5953 a436 6142 2635
000000c0: a6de 76b6 1ab4 b8b7 fbb6 88b6 7052 6437
000000d0: 23d3 9337 481f 55b7 9021 b2b7 2957 06b8
000000e0: 59f5 a5b7 131b a5b7 229b c6b7 8bd6 fcb7
000000f0: af85 e6b7 6d62 bfb7 deac b8b7 68bc 02b8
00000100: 3c29 b939 3c29 b939 b350 14b8 056c 2a36
00000110: 4206 67b7 89ed c337 b631 c2b7 2a25 4fb5
00000120: ff53 52b6 5458 3d36 f9d4 10b8 51ef 7937
00000130: d600 ffb7 b7ca edb7 36b2 e4b7 5c5e e1b7
00000140: 2075 f3b7 eff9 e1b7 1fc7 bcb7 2031 bab7
00000150: fd4d c9b7 43a1 feb7 b9b1 1eb7 23b0 b3b6
00000160: 45b6 4eb6 8949 0cb6 0d64 8bb5 a81a fbb5
00000170: 399a 77b6 9e9c 8db6 50b5 4bb6 b3d8 ffb3
00000180: a0ba 1d3a a0ba 1d3a a9c3 ce38 e952 cfb7
00000190: f624 e638 4a19 3938 2fa9 45b7 15da 5eb5
000001a0: 230d 85b8 741f 89b7 55b6 d938 e9e8 9837
000001b0: 9cb6 ab38 387e bd38 cdb8 d638 5b30 d338
000001c0: 55a5 e138 cdf5 d138 3969 cf38 344a cb38
000001d0: cdcc fa38 f966 0e39 f6c8 2737 fddc b237
000001e0: 4799 0b37 60fc e436 88ab 3236 dff3 b936
000001f0: 9d8b 5db7 7369 b0b7 3838 e4b7 7d05 a6b7
00000200: 1081 cc38 1081 cc38 8cfd 8eb8 43ce 8eb7
00000210: c277 e7b7 af31 d936 744d a7b7 96ea 24b4
00000220: cfec cb37 da45 4437 acb3 a2b8 f974 3fb7
00000230: e109 ccb8 942b c4b8 a084 a4b8 dbfd a3b8
00000240: 3674 a9b8 2aac bcb8 42f1 b6b8 ef3a a0b8
00000250: 8747 93b8 5086 95b8 a4cf 10b6 f3a9 b7b6
00000260: 1b3f 8eb6 69e1 1db7 1f50 7db7 5f64 9fb7
00000270: 595b 8eb7 47ac 6fb7 eda4 2fb7 f4ab 6bb7
00000280: 43cf a9b9 43cf a9b9 7844 9b38 4b14 1c38
00000290: 3207 96b7 b3bd 9fb7 f026 ba38 e4fd 1fb6
000002a0: 6834 aeb6 bc61 6637 9d33 c637 029e 7337
000002b0: ddc4 ba38 b5f8 a338 c5fc 9c38 57e0 b438
000002c0: 4acb b638 77c9 c838 bcc3 b938 b8e6 a438
000002d0: 639b 9f38 b92b ac38 10df c135 a376 d436
000002e0: bb04 4cb6 8678 ecb6 e29f 3e35 c130 0b37
000002f0: 2ff5 8037 fc85 a337 77f8 e837 4b1b 0b38
00000300: 8257 fe37 8257 fe37 4801 19b8 fb5a a937
00000310: a739 52b7 9a01 3238 c94a 7db7 f4f6 8f35
00000320: b23a 2eb7 f23e bdb5 9306 7937 9ffc 9437
00000330: 4530 1cb8 ebeb ccb7 5057 15b8 991e 0eb8
00000340: 57e2 00b8 c6d5 4bb7 16ab 83b7 f202 99b7
00000350: 7cbc 5fb7 8886 bfb5 8d2e d137 6cf7 0738
00000360: 331a cd37 688e c537 4492 e137 663c 0238
00000370: 3c72 b137 daf8 4637 b167 da36 12b2 8537
00000380: b04f d6b9 b04f d6b9 ab2f 97b6 c754 29b7
00000390: ba7c 9eb8 b4d8 81b8 86a6 b937 7ee5 4ab5
000003a0: d8c9 5138 0670 b636 4a5f 0ab8 f4e6 59b7
000003b0: ea7f e037 803b 8537 2723 cf36 e4e1 0f38
000003c0: 75d6 1238 cc25 6238 02d4 5038 3221 0a38
000003d0: 6660 6fb7 b8a7 53b8 c035 6db8 c52e 83b8
000003e0: cbf4 6ab8 c9c9 5cb8 5b18 2ab8 3c88 2ab8
000003f0: 1500 e6b7 12c5 ceb7 d9e6 bab7 d796 aeb7
-5.1712126e-05 -5.1712126e-05 -2.0325911e-05 -4.8801598e-05 2.1717318e-05 -2.0319814e-05 -5.498024e-05 1.58227e-06
-6.6270945e-07 -1.4100915e-05 2.0268142e-06 -2.7807482e-05 -3.7877926e-05 -2.431841e-05 -8.994325e-06 -2.6980108e-05
-2.784178e-05 -4.9276292e-05 -4.1453768e-05 -3.219585e-05 -3.0021192e-05 -2.9219358e-05 -2.9226643e-05 -3.019566e-05
-2.1739968e-05 -2.1694197e-05 -2.960246e-05 -3.218256e-05 -3.7220303e-05 -3.791155e-05 -4.0239476e-05 -4.2860764e-05
0.0004995291 0.0004995291 7.8808756e-07 -3.5672132e-05 5.731034e-06 2.2701963e-05 -3.938396e-05 -4.991407e-07
2.6457012e-05 6.3981956e-06 -3.8673745e-05 -1.2756038e-05 -3.074664e-05 -2.6415402e-05 4.897284e-06 6.1936413e-07
-3.6786455e-06 -2.2018376e-05 -4.0744176e-06 1.3609053e-05 1.7622084e-05 -1.2703073e-05 -2.1234882e-05 -3.2029264e-05
-1.9783782e-05 -1.968214e-05 -2.3675679e-05 -3.0140645e-05 -2.7480388e-05 -2.2814807e-05 -2.2015007e-05 -3.1169882e-05
0.00035316672 0.00035316672 -3.5361107e-05 2.539485e-06 -1.377013e-05 2.3356422e-05 -2.314975e-05 -7.716759e-07
-3.134133e-06 2.8214608e-06 -3.453062e-05 1.4897277e-05 -3.0398758e-05 -2.8346998e-05 -2.7262704e-05 -2.686603e-05
-2.9022398e-05 -2.6938475e-05 -2.250407e-05 -2.2195803e-05 -2.3997383e-05 -3.0354253e-05 -9.458913e-06 -5.3551207e-06
-3.0802487e-06 -2.0904429e-06 -1.0385426e-06 -1.8708715e-06 -3.6895638e-06 -4.22036e-06 -3.0354895e-06 -1.191378e-07
0.0006016884 0.0006016884 9.85929e-05 -2.4714931e-05 0.00010974139 4.413099e-05 -1.1781506e-05 -8.3018796e-07
-6.344381e-05 -1.634632e-05 0.00010381328 1.822827e-05 8.187929e-05 9.0357324e-05 0.00010238737 0.00010070271
0.000107596316 0.000100116806 9.8901284e-05 9.693616e-05 0.00011959076 0.00013580536 1.00007655e-05 2.132216e-05
8.320733e-06 6.82431e-06 2.6623911e-06 5.54182e-06 -1.3205133e-05 -2.1029939e-05 -2.7205897e-05 -1.9791298e-05
9.751518e-05 9.751518e-05 -6.8183144e-05 -1.7023767e-05 -2.7593112e-05 6.472888e-06 -1.9944018e-05 -1.5359032e-07
2.4309758e-05 1.1698774e-05 -7.7582285e-05 -1.1411722e-05 -9.729318e-05 -9.354125e-05 -7.844833e-05 -7.81973e-05
-8.080194e-05 -8.9966066e-05 -8.723374e-05 -7.640372e-05 -7.022829e-05 -7.129891e-05 -2.1578535e-06 -5.4736097e-06
-4.239276e-06 -9.410412e-06 -1.509863e-05 -1.9001016e-05 -1.6970256e-05 -1.4285622e-05 -1.0469213e-05 -1.40471275e-05
-0.00032388614 -0.00032388614 7.403729e-05 3.7212198e-05 -1.7884744e-05 -1.9042613e-05 8.876424e-05 -2.384063e-06
-5.191705e-06 1.3731824e-05 2.3627474e-05 1.4520718e-05 8.90584e-05 7.818771e-05 7.485742e-05 8.6248554e-05
8.716302e-05 9.574269e-05 8.857946e-05 7.863104e-05 7.610654e-05 8.209743e-05 1.444454e-06 6.3319035e-06
-3.0401122e-06 -7.047379e-06 7.1013176e-07 8.296397e-06 1.5372962e-05 1.9493506e-05 2.7772256e-05 3.31656e-05
3.0319909e-05 3.0319909e-05 -3.6479236e-05 2.0188736e-05 -1.2530399e-05 4.244e-05 -1.5097387e-05 1.0726203e-06
-1.0384874e-05 -1.4099917e-06 1.4843087e-05 1.776061e-05 -3.7238253e-05 -2.4428553e-05 -3.5605684e-05 -3.3883935e-05
-3.0728374e-05 -1.2149516e-05 -1.5696085e-05 -1.8240393e-05 -1.3335721e-05 -1.4269763e-06 2.4936418e-05 3.2416938e-05
2.4450104e-05 2.3550543e-05 2.68902e-05 3.1050666e-05 2.1153239e-05 1.185966e-05 6.5089775e-06 1.5937756e-05
-0.00040876633 -0.00040876633 -4.5057e-06 -1.0092924e-05 -7.557259e-05 -6.1915634e-05 2.2131262e-05 -7.558482e-07
5.0017465e-05 5.437064e-06 -3.299051e-05 -1.2987981e-05 2.6762445e-05 1.5882542e-05 6.173173e-06 3.4304234e-05
3.500884e-05 5.39178e-05 4.9788512e-05 3.293268e-05 -1.4267955e-05 -5.046252e-05 -5.6555262e-05 -6.255278e-05
-5.601793e-05 -5.2640014e-05 -4.055384e-05 -4.0658037e-05 -2.7418175e-05 -2.4648882e-05 -2.2280425e-05 -2.0812657e-05
