logs/rl_games/klask/sim_distance_r0_a15_delay/nn/klask.pth (torch, 642162 bytes, 30 tensors)

a2c_network.sigma f4 [4]
-0.9395606 -1.1117536 -1.135257 -0.78757757
00000000: 0b87 70bf f14d 8ebf 1a50 91bf af9e 49bf

a2c_network.actor_mlp.0.weight f4 [256, 42]
-1.1051123 2.52195 0.3869516 0.19977702 0.30132204 0.079523474 0.07260545 -0.17085217
-0.027805803 -0.05179899 -0.0004602209 -0.033624552 0.018488167 0.06860166 0.018814143 -0.09412843
0.0041758944 -0.09554646 -0.080873005 -0.16486798 0.16238414 -0.07420272 0.009188909 -0.0009143393
0.009434439 -0.07279449 0.01755211 -0.12550306 -0.07767291 -0.026614977 0.035391655 -0.12050393
-0.011544737 0.002226184 -0.057213996 -0.047462456 0.010552478 0.057105027 0.010621403 -0.026986543
0.12226534 -0.03609015 -3.7507956 -0.0077417116 -0.30156407 0.1496815 0.074682705 -0.03588729
-0.05778866 -0.024493499 -0.06440068 0.51150656 -0.78062737 -0.109074645 -0.23007683 0.0025657024
0.18740581 0.01508493 -0.054803748 0.16143939 -0.03180225 -0.34835654 0.24547149 -0.044956096
0.123437546 0.102644525 0.029066736 0.09731497 0.022779156 -0.13769674 -0.10043922 -0.15015219
0.028059334 0.014358561 0.08338547 0.13036743 0.061251167 -0.25867718 0.12476093 0.027912255
-0.015452372 -0.046641376 -0.0009201863 -0.015944052 -0.27914125 -0.76046723 0.03409316 0.09490802
0.013821459 0.039827533 -0.027793966 -0.23630233 0.19925982 0.7783249 -1.2418438 -0.06996003
-0.1615511 -0.13693643 -0.043737296 -0.095788695 0.10728627 0.114353545 0.051523045 0.16634636
0.16443309 0.21516067 0.13578176 -0.08421023 -0.0041752886 0.009648038 -0.1544703 -0.20194794
-0.051178075 -0.048752908 -0.032382984 0.028583067 -0.09451933 0.041371685 0.14762937 0.061408278
-0.00010931426 -0.035626866 0.054734014 0.045751058 -0.05441805 0.21685538 3.6187637 0.45024735
0.07700328 -0.0076649557 -0.06416323 0.09000059 -0.045746874 -0.0131983785 -0.22730231 0.11328074
0.27352765 -0.50666404 0.016217168 0.008930926 -0.03725957 -0.116553865 -0.08793705 0.06421399
0.0030833995 -0.0479323 -0.08377747 0.0013671458 -0.018633274 0.14566672 0.023770504 0.046452023
0.08622851 0.06931559 0.041512858 0.16138889 0.06775524 -0.02344737 -0.23114687 -0.029016437
0.055236217 0.26268035 0.097761616 0.04838387 -0.012101641 0.07842536 -0.10002409 -0.030205945
0.20309955 1.0392027 -0.44668838 0.19724225 -0.1700053 0.14005536 0.017786795 0.07609234
0.11211658 0.21105969 -0.13381542 0.5839508 0.10717768 0.09425122 -0.09546138 0.034001525
0.18897717 0.1455299 0.055468094 -0.119746014 -0.12935634 -0.016628556 -0.03048153 -0.017279116
-0.14582312 -0.03552665 -0.08856007 -0.109943025 -0.06723796 -0.0149389 0.15429653 -0.041471433
0.14584818 -0.03688104 -0.054413345 -0.019038841 -0.11097149 -0.07577359 -0.11729016 -0.10206532
-0.046026874 -0.13030067 2.724812 -0.15217128 0.14476693 -0.38491258 0.45649436 0.031102035
0.037604436 0.13028516 0.09920949 -0.6341518 1.0291569 -0.123647295 0.11983295 -0.17480846
-0.031657323 0.09695217 0.15005422 -0.022509303 0.042401284 -0.17204711 0.042444542 0.11684602
-0.06581333 0.03872988 -0.03673625 0.18120669 0.062114894 0.15219578 0.4785649 0.10535038
0.3066849 0.25353315 0.21980031 0.06035562 -0.20302606 0.036328938 0.15459584 -0.036776956
0.029743565 -0.058921516 -0.08610744 -0.0034319838 3.4830315 0.2663402 -0.18875599 0.031267628
00000000: 5274 8dbf a167 2140 851e c63e 5992 4c3e
00000010: e246 9a3e 34dd a23d 2bb2 943d dff3 2ebe
00000020: ffc8 e3bc 2e2b 54bd ce49 f1b9 e6b9 09bd
00000030: 7f74 973c 077f 8c3d 1e20 9a3c 68c6 c0bd
00000040: f1d5 883b ddad c3bd bfa0 a5bd 27d3 28be
00000050: 0748 263e 98f7 97bd 148d 163c 46b0 6fba
00000060: e892 1a3c 4715 95bd 71c9 8f3c e083 00be
00000070: fa12 9fbd a707 dabc d7f6 103d c4ca f6bd
00000080: 2326 3dbc 2be5 113b 3959 6abd fe67 42bd
00000090: 4de4 2c3c f6e6 693d 6505 2e3c e212 ddbc
000000a0: 4066 fa3d 44d3 13bd 090d 70c0 2fae fdbb
000000b0: 9b66 9abe 1b46 193e 3ff3 983d 8dfe 12bd
000000c0: cdb3 6cbd 97a6 c8bc 81e4 83bd 18f2 023f
000000d0: 32d7 47bf 8762 dfbd 4399 6bbe 5825 283b
000000e0: 4fe7 3f3e c826 773c e579 60bd 5e50 253e
000000f0: 1343 02bd ca5b b2be e15c 7b3e e223 38bd
00000100: d3cc fc3d 4b37 d23d 5d1d ee3c 124d c73d
00000110: 5a9b ba3c 6000 0dbe 14b3 cdbd 7fc1 19be
00000120: b0dc e53c 2b40 6b3c 00c6 aa3d 0a7f 053e
00000130: 81e2 7a3d 5671 84be a982 ff3d 3ea8 e43c
00000140: f22b 7dbc 070b 3fbd a838 71ba 1a9d 82bc
00000150: 9aeb 8ebe fbad 42bf 45a5 0b3d 235f c23d
00000160: 6773 623c 3222 233d 2cb0 e3bc 3df9 71be
00000170: c40a 4c3e 4d40 473f bdf4 9ebf 3447 8fbd
00000180: a76d 25be 1039 0cbe e125 33bd dd2c c4bd
00000190: e7b8 db3d 3132 ea3d d409 533d b356 2a3e
000001a0: 2661 283e 1453 5c3e 600a 0b3e 6a76 acbd
000001b0: dcd0 88bb ce12 1e3c 762d 1ebe 71cb 4ebe
000001c0: 1aa0 51bd 21b1 47bd 05a4 04bd 0927 ea3c
000001d0: 5a93 c1bd 5b75 293d 272c 173e 3f87 7b3d
000001e0: a53f e5b8 7aed 11bd c630 603d 7665 3b3d
000001f0: 76e5 5ebd 560f 5e3e d399 6740 d286 e63e
00000200: e5b3 9d3d 4f2a fbbb 0368 83bd 3b52 b83d
00000210: 1361 3bbd 033e 58bc f0c1 68be bcff e73d
00000220: d10b 8c3e bcb4 01bf ded9 843c 0553 123c
00000230: 7e9d 18bd cbb3 eebd 5718 b4bd a082 833d
00000240: dc12 4a3b a954 44bd 8693 abbd cd31 b33a
00000250: cfa4 98bc a829 153e 5cba c23c 7a44 3e3d
00000260: 9398 b03d 55f5 8d3d 6309 2a3d 2143 253e
00000270: 42c3 8a3d b314 c0bc c4b1 6cbe e1b3 edbc
00000280: 5f3f 623d 0a7e 863e 3e37 c83d 2a2e 463d
00000290: f645 46bc 7a9d a03d 6ed9 ccbd 7572 f7bc
000002a0: 54f9 4f3e 9804 853f 57b4 e4be dff9 493e
000002b0: df15 2ebe ac6a 0f3e 9db5 913c 4dd6 9b3d
000002c0: 619d e53d 0820 583e e906 09be cd7d 153f
000002d0: f97f db3d c906 c13d 4281 c3bd 2f45 0b3d
000002e0: 3b83 413e ca05 153e 8332 633d 663d f5bd
000002f0: fd75 04be 9c38 88bc 67b4 f9bc ef8c 8dbc
00000300: a852 15be 6484 11bd fb5e b5bd cf29 e1bd
00000310: 0eb4 89bd 4ac2 74bc e9ff 1d3e f3dd 29bd
00000320: 3a59 153e 9310 17bd 87e0 5ebd 58f7 9bbc
00000330: 0545 e3bd 2f2f 9bbd d335 f0bd 9f07 d1bd
00000340: ad86 3cbd 8a6d 05be 5263 2e40 cad2 1bbe
00000350: c83d 143e 4313 c5be a1b9 e93e b2c9 fe3c
00000360: 1c07 1a3d 7969 053e 582e cb3d c657 22bf
00000370: 6abb 833f cb3a fdbd fa6a f53d fd00 33be
00000380: 1cab 01bd dc8e c63d d0a7 193e 6e65 b8bc
00000390: f8ac 2d3d 1e2d 30be 54da 2d3d f74c ef3d
000003a0: 24c9 86bd 39a3 1e3d c078 16bd 3f8e 393e
000003b0: 306c 7e3d 36d9 1b3e 7506 f53e f1c1 d73d
000003c0: ce05 9d3e 19cf 813e 5513 613e 7437 773d
000003d0: 10e6 4fbe a7cd 143d 5f4e 1e3e 6fa3 16bd
000003e0: c7a8 f33c b057 71bd 1959 b0bd 22eb 60bb
000003f0: fde9 5e40 be5d 883e 4049 41be 7c12 003d

a2c_network.actor_mlp.0.bias f4 [256]
0.36373138 0.092230566 0.12826641 0.14028634 0.2819006 -0.24702024 0.0001515686 0.35281703
-0.03775035 0.14136334 0.31316996 -0.005657846 0.07445088 0.34303924 -0.070035726 0.13702266
0.3127954 0.33307225 -0.033003595 0.3622928 0.033850186 0.299747 0.15433432 0.22871241
-0.077054895 0.3397569 0.20257908 0.22935362 -0.2862497 0.27128327 -0.10995457 0.29036194
0.20863274 0.19848183 0.13270514 0.17475185 -0.25321236 0.32208943 0.17697665 0.23989965
0.39039147 0.1397925 0.035543855 -0.11109135 0.0069201794 -0.18731661 -0.038472634 0.23390777
-0.34780774 0.22376916 0.17557082 0.15750033 0.09047991 0.11006382 0.08112485 0.27118215
0.07332412 0.262011 -0.2869139 0.32841924 0.39096913 0.3164707 0.29753077 0.27651632
0.0069625843 0.1714013 0.34377357 0.02666578 0.24639283 0.192681 0.31589484 0.41684514
0.21176642 0.18159324 0.33736393 0.18531297 -0.030579686 0.17749588 0.109453045 0.10295952
0.17454739 0.11366016 -0.059230197 0.30914357 -0.11218556 0.34502807 0.3038441 0.18776828
0.0115728 0.079063505 0.28838876 0.029476264 0.20337017 0.10495272 -0.012912901 0.21996948
0.13440616 -0.2301027 -0.30323672 0.30001444 -0.27759883 0.17921162 -0.6686851 0.26848337
0.044404738 -0.165072 0.35960546 0.14071514 -0.049380828 0.1751697 0.34920004 0.26977342
0.28530303 0.121534295 -0.024641797 -0.032807127 0.2621612 0.31587648 -0.17750941 0.32191837
0.17843416 0.26570573 0.12961999 -0.039544318 0.23477899 0.21703115 0.25595427 0.12288031
0.25441015 0.32677314 0.4541628 0.08985533 0.087817006 0.039945215 0.46458206 0.03365912
0.1138189 0.26803556 0.17891806 0.29477808 -0.0048079444 -0.24214955 0.29454908 0.3735128
-0.25825617 0.22134994 0.35681924 0.14008264 -0.18886915 0.29893118 0.12558617 -0.108921595
0.28489944 0.21837531 0.14299713 0.3769867 0.32244757 0.21129915 0.3645255 0.23130515
0.20362645 0.3730342 0.2482906 0.38799945 0.38377726 -0.022731306 0.07001374 -0.08322168
0.39234123 -0.2322299 -0.26925206 0.37699825 -0.008770352 0.31704718 -0.04026766 -0.19345859
-0.0068288255 0.024483683 -0.01218492 0.037229568 0.2500175 0.3755947 0.45937067 0.1753395
-0.31925973 0.14098541 0.31861284 0.15458585 0.35817426 0.22526413 -0.31277788 0.14741874
0.03402111 0.21569052 0.24214597 -0.037655734 0.16294168 0.13691466 0.3788011 0.21321125
-0.22915968 -0.07657675 0.3855877 0.38944238 -0.017392313 0.29681388 -0.1869518 0.36108276
0.1160191 -0.22292604 0.11895864 0.13525769 0.16885005 0.31307968 0.28137553 0.20025499
-0.12498609 0.35711423 0.28565747 -0.31194982 0.2537122 0.28702325 0.101904325 -0.17369284
0.50700474 0.22121662 0.17781168 0.2069533 0.46467578 0.35151213 -0.30332696 0.3630514
0.12626496 0.2212308 -0.23725118 -0.03669487 0.049649578 -0.17628786 -0.42172986 0.030082932
0.41599324 -0.22690094 -0.050800454 0.3654621 0.28388932 0.395221 0.2876513 0.16459459
0.10752294 0.19084926 -0.12332728 0.2938628 -0.05080502 0.3285644 -0.26694235 0.2224458
00000000: 003b ba3e 61e3 bc3d 4558 033e 39a7 0f3e
00000010: 4755 903e e0f2 7cbe 63ee 1e39 6fa4 b43e
00000020: 1ca0 1abd 8dc1 103e d057 a03e 7465 b9bb
00000030: b479 983d d7a2 af3e e46e 8fbd ab4f 0c3e
00000040: b826 a03e 7288 aa3e c72e 07bd 717e b93e
00000050: 7ea6 0a3d 7078 993e d109 1e3e 9633 6a3e
00000060: f5ce 9dbd 9ef4 ad3e e470 4f3e addb 6a3e
00000070: 528f 92be a4e5 8a3e dd2f e1bd 52aa 943e
00000080: d2a3 553e d23e 4b3e dbe3 073e 26f2 323e
00000090: 0da5 81be e8e8 a43e 5e39 353e 41a8 753e
000000a0: 64e1 c73e c425 0f3e 6f96 113d dd83 e3bd
000000b0: acc2 e23b edcf 3fbe 7b95 1dbd 8585 6f3e
000000c0: db13 b2be be23 653e d6c8 333e c447 213e
000000d0: 884d b93d 2469 e13d c924 a63d 63d8 8a3e
000000e0: f52a 963d 4e26 863e 61e6 92be 9126 a83e
000000f0: 1b2d c83e 7308 a23e f455 983e 8c93 8d3e
00000100: 6426 e43b d383 2f3e 1703 b03e 3272 da3c
00000110: 674e 7c3e 2b4e 453e f8bc a13e ba6c d53e
00000120: 4cd9 583e 94f3 393e f7ba ac3e afc2 3d3e
00000130: 4082 fabc 7bc1 353e eb28 e03d 71dc d23d
00000140: 8dbc 323e a8c6 e83d 5d9b 72bd 1148 9e3e
00000150: 8bc1 e5bd 85a7 b03e 7491 9b3e 5446 403e
00000160: d79b 3d3c 0cec a13d b1a7 933e 3578 f13c
00000170: 4540 503e 74f1 d63d a290 53bc ae3f 613e
00000180: c5a1 093e 0ba0 6bbe d841 9bbe 7e9b 993e
00000190: 6f21 8ebe 4083 373e f22e 2bbf a776 893e
000001a0: bee1 353d a208 29be 351e b83e a117 103e
000001b0: 8d43 4abd b05f 333e 59ca b23e be1f 8a3e
000001c0: 3d13 923e f9e6 f83d 98dd c9bc c460 06bd
000001d0: fe39 863e 90ba a13e 07c5 35be 7cd2 a43e
000001e0: 72b7 363e 950a 883e 1abb 043e 39f9 21bd
000001f0: e769 703e 6a3d 5e3e 700c 833e aca8 fb3d
00000200: 0c42 823e cf4e a73e 0788 e83e 1206 b83d
00000210: 67d9 b33d 989d 233d b3dd ed3e 25de 093d
00000220: e219 e93d f53b 893e 4c36 373e 27ed 963e
00000230: f68b 9dbb 0df6 77be 23cf 963e 123d bf3e
00000240: 273a 84be 8fa9 623e 03b1 b63e d371 0f3e
00000250: ea66 41be 820d 993e a999 003e 4912 dfbd
00000260: 57de 913e c79d 5f3e d76d 123e 6704 c13e
00000270: d917 a53e ce5e 583e 16a3 ba3e 42db 6c3e
00000280: 7483 503e 57fe be3e e43f 7e3e dda7 c63e
00000290: 747e c43e 0137 babc 5d63 8f3d 2170 aabd
000002a0: f3e0 c83e adcd 6dbe 68db 89be ea05 c13e
000002b0: 86b1 0fbc 0254 a23e b4ef 24bd 021a 46be
000002c0: 57c4 dfbb 0192 c83c 42a3 47bc 087e 183d
000002d0: 4b02 803e f34d c03e a232 eb3e 338c 333e
000002e0: 0376 a3be 7b5e 103e 3921 a33e c14b 1e3e
000002f0: 9e62 b73e a4ab 663e 6c24 a0be f0f4 163e
00000300: b859 0b3d fadd 5c3e 1df5 773e e63c 1abd
00000310: 2fda 263e 5b33 0c3e 38f2 c13e 0d54 5a3e
00000320: d6a8 6abe 45d4 9cbd c06b c53e fe64 c73e
00000330: 537a 8ebc fdf7 973e 4b70 3fbe d7df b83e
00000340: 6c9b ed3d b946 64be 96a0 f33d fe80 0a3e
00000350: 07e7 2c3e fb4b a03e 7410 903e a50f 4d3e
00000360: b5f8 ffbd add7 b63e b241 923e e3b7 9fbe
00000370: 91e6 813e b6f4 923e 37b3 d03d 89dc 31be
00000380: 10cb 013f 9c86 623e 4414 363e 91eb 533e
00000390: fce9 ed3e 66f9 b33e ac4d 9bbe e0e1 b93e
000003a0: 9a4b 013e 548a 623e f9f1 72be 5c4d 16bd
000003b0: 5b5d 4b3d ce84 34be faec d7be 7b70 f63c
000003c0: 11fd d43e b858 68be 2314 50bd d91d bb3e
000003d0: f159 913e 685a ca3e 0847 933e 7c8b 283e
000003e0: fd34 dc3d fd6d 433e 0393 fcbd 2f75 963e
000003f0: ed18 50bd 9839 a83e abac 88be d5c8 633e

a2c_network.actor_mlp.2.weight f4 [128, 256]
0.29412037 0.05105098 -0.07447478 0.01724232 0.11292738 0.09496315 -0.050127357 0.31631076
0.13863239 -0.2145678 0.041649442 0.32326323 0.14404863 -0.091994315 0.10584959 -0.25175068
-0.10442962 0.06716341 0.3837514 -0.09830157 0.05755815 0.15169404 -0.22739713 -0.11185048
-0.22913028 -0.44185165 -0.011140177 -0.025177745 -0.12585945 -0.16674782 -0.03089535 -0.18702677
-0.058417577 0.063673414 0.116781525 0.072318584 0.07004745 -0.13283522 0.14784761 0.05440173
-0.120884396 0.03553211 0.1348035 -0.23411809 0.27125648 -0.020691743 0.30992585 -0.091723055
-0.29777783 -0.052103806 -0.14735238 0.10296224 0.17947575 0.005670127 0.033660926 -0.096043855
-0.106390454 -0.10891831 0.25975025 0.12066609 -0.23443313 -0.014224554 -0.22854578 -0.06138562
-0.09909045 0.21328339 0.12117472 0.20668112 -0.05172947 0.37829003 -0.30566472 0.15114997
-0.10824916 -0.079939954 -0.0362128 0.00031364875 0.062152136 0.028381387 -0.5056121 0.08357448
-0.13625912 -0.021682797 -0.105615646 -0.09414527 -0.08925433 -0.23938532 0.07372281 0.13109155
0.122676626 0.089653626 0.063835055 0.0074772467 -0.055097897 -0.040474355 0.037834067 -0.054856144
0.17302027 -0.050245307 -0.068298176 0.13571015 0.083143815 0.033020124 -0.023515452 0.06647564
-0.13404982 -0.024667043 0.2199704 0.10367791 -0.40213078 0.11765574 -0.2445801 -0.013837309
-0.19244616 -0.27256054 0.04676237 0.0035616192 0.04809941 0.12839207 0.059116554 -0.091292866
-0.09156601 -0.17425391 0.12729165 -0.0015393241 0.18310931 -0.0031916876 -0.18864235 -0.010406844
-0.31844386 0.22992012 -0.2672469 0.29817206 -0.12037442 -0.091157675 -0.011883087 0.33001426
0.02681057 -0.05663412 0.042470247 -0.06981004 -0.13542458 0.14167869 -0.21541418 -0.07214764
-0.24786016 -0.13816653 -0.22619027 -0.15629497 -0.074445866 -0.20111553 0.22400694 0.014467451
0.38124046 0.14135264 0.09374964 -0.16247365 -0.22854729 -0.28807613 0.020666497 -0.020119214
-0.06258771 -0.026123203 -0.17757216 -0.2899459 -0.09645965 -0.17431156 -0.1036681 0.037050314
-0.254097 -0.20053758 0.026572732 0.19471733 0.11866769 -0.059772506 -0.13687484 0.08279646
0.22109528 0.20128104 0.009098678 0.15545973 -0.020858403 -0.120531805 0.27472618 -0.13671812
0.17624143 0.10132576 0.12035265 -0.053708255 0.035676606 -0.08678815 -0.20184976 0.038569592
0.16810046 0.1674346 0.17882828 0.21816736 0.18406181 0.16313635 -0.19772018 -0.09853762
-0.114689216 -0.31398135 -0.012598846 0.25330466 -0.1287281 0.22195882 0.15119435 -0.3056467
-0.21356754 -0.12884316 -0.007323157 0.2721946 -0.16389318 -0.16461837 -0.16086847 -0.01032722
0.080389164 0.14481679 0.07411699 -0.09331223 -0.24494027 -0.1001093 0.08903971 0.022811558
-0.06537087 0.107864186 -0.21674086 -0.22230977 -0.049045764 -0.0524305 -0.15852633 -0.0137172155
0.16310275 -0.060328327 0.057461306 0.08479474 0.3343212 -0.18932901 0.06444479 0.15984389
0.042679083 -0.028148849 0.04983584 -0.044733346 0.13766061 -0.07098796 0.11598411 -0.124578774
0.11579504 0.07301833 0.052418746 0.22208951 0.081692345 0.13856773 0.040245093 0.12459362
00000000: f296 963e d51a 513d 3c86 98bd c43f 8d3c
00000010: 7846 e73d 0a7c c23d 5852 4dbd 7cf3 a13e
00000020: a6f5 0d3e a9b7 5bbe 9b98 2a3d c282 a53e
00000030: 7c81 133e 8467 bcbd abc7 d83d 77e5 80be
00000040: 32df d5bd f88c 893d 107b c43e 5552 c9bd
00000050: 18c2 6b3d af55 1b3e cbda 68be dd11 e5bd
00000060: 21a1 6abe 613a e2be 4a85 36bc 8f41 cebc
00000070: 4de1 00be f1bf 2abe 3f18 fdbc f283 3fbe
00000080: 4547 6fbd 3567 823d 272b ef3d c41b 943d
00000090: 0a75 8f3d f505 08be 5d65 173e 59d4 5e3d
000000a0: 3d92 f7bd 1e8a 113d ee09 0a3e a7bc 6fbe
000000b0: 21e2 8a3e bb81 a9bc 9aae 9e3e 4cd9 bbbd
000000c0: 5676 98be cd6a 55bd 8be3 16be dedd d23d
000000d0: 7ec8 373e 79cc b93b 0ae0 093d a4b2 c4bd
000000e0: 3de3 d9bd 9010 dfbd fcfd 843e c81f f73d
000000f0: 3d0f 70be 1b0e 69bc e807 6abe 7d6f 7bbd
00000100: efef cabd f666 5a3e 742a f83d 37a4 533e
00000110: 48e2 53bd 3baf c13e 1680 9cbe 0fc7 1a3e
00000120: bcb1 ddbd 8fb7 a3bd df53 14bd 3971 a439
00000130: 3d93 7e3d 1580 e83c cb6f 01bf 1929 ab3d
00000140: 8387 0bbe 1fa0 b1bc 044d d8bd 3ccf c0bd
00000150: f9ca b6bd 6d21 75be fcfb 963d dd3c 063e
00000160: e23d fb3d 529c b73d f4bb 823d b103 f53b
00000170: 55ae 61bd 70c8 25bd e5f7 1a3d d6b0 60bd
00000180: 3a2c 313e 06ce 4dbd eadf 8bbd 9af7 0a3e
00000190: 4e47 aa3d 1c40 073d 7aa3 c0bc 6124 883d
000001a0: 5b44 09be 8a12 cabc ec3f 613e 1655 d43d
000001b0: 16e4 cdbe 7ef5 f03d 3573 7abe e1b5 62bc
000001c0: 9b10 45be 0e8d 8bbe e689 3f3d 0e6a 693b
000001d0: e303 453d 3679 033e 3324 723d c1f7 babd
000001e0: f686 bbbd 9e6f 32be be58 023e 25c3 c9ba
000001f0: 0281 3b3e a22b 51bb 762b 41be 7881 2abc
00000200: 130b a3be 2e70 6b3e 96d4 88be 02aa 983e
00000210: dd86 f6bd e0b0 babd 48b1 42bc a1f7 a83e
00000220: d7a1 db3c 2ef9 67bd 48f5 2d3d 91f8 8ebd
00000230: beac 0abe 3814 113e 8995 5cbe 24c2 93bd
00000240: 0ecf 7dbe 877b 0dbe 6c9e 67be ca0b 20be
00000250: 1377 98bd 3bf1 4dbe 1362 653e e308 6d3c
00000260: f331 c33e bfbe 103e d0ff bf3d 7e5f 26be
00000270: 4d08 6abe b77e 93be c94c a93c 0dd1 a4bc
00000280: fc2d 80bd 5400 d6bc 7ad5 35be ca73 94be
00000290: a38c c5bd bb7e 32be f14f d4bd 12c2 173d
000002a0: 0119 82be b959 4dbe 0faf d93c fb63 473e
000002b0: 0c08 f33d 04d4 74bd eb28 0cbe 3191 a93d
000002c0: cd66 623e 9e1c 4e3e 9f12 153c d630 1f3e
000002d0: 3edf aabc 61d9 f6bd e9a8 8c3e d6ff 0bbe
000002e0: a278 343e e183 cf3d 737b f63d 30fd 5bbd
000002f0: a221 123d fcbd b1bd b4b1 4ebe 26fb 1d3d
00000300: 8722 2c3e fa73 2b3e c31e 373e 4467 5f3e
00000310: b37a 3c3e 370d 273e 2977 4abe 17ce c9bd
00000320: 2ee2 eabd 2ac2 a0be 646b 4ebc 26b1 813e
00000330: 4dd1 03be 2c49 633e b1d2 1a3e b97d 9cbe
00000340: 73b1 5abe 76ef 03be 18f7 efbb 175d 8b3e
00000350: 9dd3 27be b891 28be b4ba 24be 8033 29bc
00000360: 13a3 a43d da4a 143e a6ca 973d 7c1a bfbd
00000370: 9fd1 7abe 1b06 cdbd 745a b63d 4edf ba3c
00000380: 2ae1 85bd e6e7 dc3d 51f1 5dbe 2ca5 63be
00000390: 36e4 48bd 5dc1 56bd ba54 22be 2cbe 60bc
000003a0: 6804 273e d61a 77bd 8c5c 6b3d dda8 ad3d
000003b0: 262c ab3e 77df 41be a1fb 833d 1eae 233e
000003c0: 43d0 2e3d 6a98 e6bc aa20 4c3d 503a 37bd
000003d0: e7f6 0c3e 2362 91bd 1489 ed3d 2823 ffbd
000003e0: f325 ed3d a28a 953d 0ab5 563d 6f6b 633e
000003f0: 514e a73d b3e4 0d3e 0ad8 243d f12a ff3d

a2c_network.actor_mlp.2.bias f4 [128]
0.026428523 -0.053107724 -0.2613425 0.15928699 0.086085096 -0.12428523 -0.33160177 0.01729121
-0.46437052 -0.21868846 -0.40995672 -0.12032449 0.05289396 0.14099856 -0.0991149 -0.28041315
0.055359874 0.1801762 -0.21154955 0.10821907 -0.14969516 0.068968445 -0.11116442 -0.15910031
-0.34545654 0.03659087 -0.30463302 0.006849309 -0.0039558155 -0.030894915 -0.22435798 -0.21206926
0.066660516 -0.08462794 -0.16840461 -0.0097074425 -0.25798756 -0.02100209 -0.25996983 -0.10546534
-0.32370883 -0.3844028 0.08244323 -0.029588208 -0.009903153 0.09097004 -0.3642592 0.13477056
-0.24728584 -0.32473686 -0.15518762 0.094500475 0.25869247 -0.12046402 -0.15622091 -0.027543243
0.077080384 0.2453992 0.06382058 0.08564557 0.028048553 -0.27905533 -0.20820233 0.02179158
-0.22936681 0.0269048 0.14524433 -0.07946676 -0.076457724 -0.33224288 -0.34101984 -0.35880986
-0.035195824 0.039339025 -0.22903585 -0.15523325 -0.17487642 -0.13517347 -0.23875672 0.095592394
0.120633975 -0.08682627 -0.42204124 -0.06410605 -0.04879578 -0.29575378 -0.2383621 -0.2312779
-0.31365457 -0.005180038 0.24997991 -0.17023861 -0.20614256 -0.29493207 -0.23336972 -0.0006993473
0.04642911 -0.23856552 -0.29065228 -0.2754521 -0.18807395 -0.020548906 -0.14031859 -0.21531627
-0.22370584 0.009020067 -0.38349834 -0.24658401 0.088235654 0.22231643 -0.18045656 -0.25535867
0.28623313 0.24799223 -0.6026891 -0.03315912 0.083339736 0.0084532155 0.02630249 -0.014130972
-0.32391986 0.25754857 0.13690649 -0.0005477511 -0.36532816 -0.076934434 -0.29242408 -0.3232465
00000000: a180 d83c 7c87 59bd afce 85be 211c 233e
00000010: 624d b03d 4189 febd b5c7 a9be 4ca6 8d3c
00000020: f9c1 edbe deef 5fbe d9e5 d1be b06c f6bd
00000030: 56a7 583d ed61 103e c1fc cabd 5092 8fbe
00000040: 09c1 623d 1c80 383e 72a0 58be f6a1 dd3d
00000050: b049 19be 543f 8d3d 2caa e3bd 31eb 22be
00000060: aedf b0be 4fe0 153d dcf8 9bbe 2b70 e03b
00000070: c99f 81bb 5517 fdbc 19be 65be af28 59be
00000080: 4f85 883d 6a51 adbd 4272 2cbe f70b 1fbc
00000090: f216 84be 930c acbc c41a 85be 36fe d7bd
000000a0: 2abd a5be 72d0 c4be ffd7 a83d f862 f2bc
000000b0: d640 22bc 804e ba3d 2f80 babe 4b01 0a3e
000000c0: 8038 7dbe e943 a6be 81e9 1ebe 7789 c13d
000000d0: 5773 843e d7b5 f6bd 60f8 1fbe 5ea2 e1bc
000000e0: 52dc 9d3d ee49 7b3e 5db4 823d f266 af3d
000000f0: 14c6 e53c 57e0 8ebe fe32 55be 4184 b23c
00000100: 22df 6abe 7567 dc3c eeba 143e 78bf a2bd
00000110: de95 9cbd bd1b aabe 279a aebe edb5 b7be
00000120: 7f29 10bd f521 213d 6088 6abe 77f5 1ebe
00000130: ce12 33be ea6a 0abe a47c 74be f2c5 c33d
00000140: f20e f73d f9d1 b1bd ca15 d8be 084a 83bd
00000150: 15de 47bd 0a6d 97be 3215 74be 1dd4 6cbe
00000160: 5597 a0be 4fbd a9bb bcfa 7f3e 0853 2ebe
00000170: 0917 53be 5601 97be 79f8 6ebe 6754 37ba
00000180: 732c 3e3d 854a 74be 60d0 94be 0f08 8dbe
00000190: 7596 40be 2e56 a8bc adaf 0fbe de7b 5cbe
000001a0: 2513 65be e7c8 133c e559 c4be 8580 7cbe
000001b0: e5b4 b43d eba6 633e 9bc9 38be 5fbe 82be
000001c0: 268d 923e adf1 7d3e d549 1abf dbd1 07bd
000001d0: 06ae aa3d 5b7f 0a3c 5278 d73c 9885 67bc
000001e0: d3d8 a5be 68dd 833e 3731 0c3e f496 0fba
000001f0: 4b0c bbbe cd8f 9dbd 9cb8 95be 9180 a5be

a2c_network.actor_mlp.4.weight f4 [64, 128]
0.026270188 -0.050099447 0.005775898 0.023028456 0.020600863 -0.055986103 0.03603057 0.10842848
0.1303576 -0.07805429 0.10361899 0.046276215 -0.024489025 0.08326704 0.018376563 -0.042576127
0.027366452 0.06572165 0.018947098 0.039837983 -0.031736735 0.06808773 -0.09869459 -9.712926e-05
0.035532743 0.014618342 0.024619162 -0.033939052 -0.05302146 -0.04594616 -0.074462555 -0.04758197
0.05715974 -0.018014632 0.020452084 -0.029613324 0.051072534 0.00046590096 0.010405021 -0.06609404
0.038503256 0.089581534 -0.042867873 -0.0010389504 -0.018996295 0.0360467 -0.008628301 -0.0008458315
-0.023411322 -0.044227727 0.040167533 0.12710318 0.1347919 -0.01461704 0.021549022 -0.017581599
-0.015343744 -0.06909366 -0.020558562 -0.123974435 -0.0038452353 0.021980772 -0.03692403 -0.00053854886
-0.015676057 0.024129255 -0.054765694 -0.00407004 -0.055147015 -0.021793766 0.075864956 -0.018896788
0.006708406 -0.08254274 -0.12483232 0.07420955 0.11275181 0.053992905 -0.014640104 0.021582576
0.011143667 -0.0926855 0.078158565 0.0865337 0.008611193 0.012898897 -0.076183766 -0.01230131
-0.012673883 -0.16036871 -0.005513376 -0.040521774 0.009321463 -0.09560127 0.060466927 0.06403068
0.020330502 -0.0035575347 -0.04271861 -0.10928664 -0.055844508 0.011976879 0.008974089 -0.03220611
0.090353295 0.046153598 -0.030932313 0.040336587 0.027258605 -0.09848609 0.06988657 0.030858196
0.043408144 0.07453711 0.082814604 0.06864788 0.07017952 0.012092876 0.048197586 -0.04101456
0.085435666 -0.028971525 -0.14376085 0.052424118 -0.020480404 0.17535797 0.057295553 -0.0035324774
-0.01146898 -0.010561325 -0.034134485 -0.021664515 0.0013396442 -0.046371147 -0.018563116 0.005664127
0.043947175 -0.010457819 0.04828046 -0.023566946 -0.0029990168 0.050711334 -0.11964413 -0.03373014
0.033658106 -0.012096023 0.014115731 -0.03828026 -0.0891257 -0.0067474404 0.029988457 0.024459384
-0.011428792 -0.021832202 -0.029414346 0.005873597 -0.004707815 0.017390147 0.062094547 0.020620283
0.04585825 -0.0057739113 -0.078520335 -0.003707868 0.019449236 0.046070598 0.054689765 -0.022291029
-0.041053224 -0.00039675614 -0.030740384 -0.041745078 -0.03303083 -0.0041448213 -0.039245557 -0.06730191
0.07413899 0.04822321 -0.057758395 -0.016294733 -0.020989722 0.08270618 -0.0015479964 0.0021793798
-0.09324096 0.030388502 -0.008556284 0.07502145 -0.011545824 -0.06908885 0.12071089 0.0071031437
-0.0032340107 0.056095466 0.060284767 -0.028318575 -0.083858564 0.03567764 0.05697932 -0.053130228
0.0005851249 -0.020369098 0.13409321 0.04721132 0.07933524 0.10901045 -0.087514035 0.021350091
-0.06348902 -0.022327824 -0.04132293 0.11684865 -0.0036622484 -0.024427695 -0.061729375 -0.100582525
0.11209728 -0.014696429 0.033369746 0.10348961 -0.051101655 0.033733837 -0.11689537 0.0052300366
0.035016097 -0.06132339 0.021624636 0.055620644 -0.12578821 -0.056659788 0.06708269 -0.003463693
-0.056125153 0.043292418 0.0420009 0.0446585 -0.045634195 -0.009086396 0.048978142 -0.008796116
0.018306864 0.043881882 0.031426523 0.0030063055 -0.00067654415 -0.025364976 0.0034399652 -0.04393845
-0.13717653 -0.027721466 0.07475747 -0.04703299 -0.06289089 -0.09073326 0.025189288 -0.023889575
00000000: 9434 d73c 1435 4dbd bf43 bd3b 2ca6 bc3c
00000010: 24c3 a83c af51 65bd ca94 133d c00f de3d
00000020: 767c 053e edda 9fbd 3136 d43d 218c 3d3d
00000030: 359d c8bc e987 aa3d 728a 963c 4e64 2ebd
00000040: 9c2f e03c 1399 863d f236 9b3c 272d 233d
00000050: 61fe 01bd 9471 8b3d 6420 cabd e0b1 cbb8
00000060: c88a 113d c581 6f3c 20ae c93c ad03 0bbd
00000070: 082d 59bd 0a32 3cbd d37f 98bd 50e5 42bd
00000080: 5520 6a3d 6c93 93bc 218b a73c a497 f2bc
00000090: 6f31 513d 2b44 f439 d279 2a3c 505c 87bd
000000a0: 97b5 1d3d 8676 b73d 3996 2fbd 642d 88ba
000000b0: 1e9e 9bbc b4a5 133d b85d 0dbc cbba 5dba
000000c0: 1ac9 bfbc 2228 35bd b686 243d 5627 023e
000000d0: e306 0a3e 4f7c 6fbc 9387 b03c 4907 90bc
000000e0: 5464 7bbc fa80 8dbd 6e6a a8bc 4fe6 fdbd
000000f0: 5800 7cbb 0511 b43c a73d 17bd 672d 0dba
00000100: 136b 80bc b7aa c53c fe51 60bd f85d 85bb
00000110: d6e1 61bd d788 b2bc 165f 9b3d 70cd 9abc
00000120: 30d2 db3b 2b0c a9bd 16a8 ffbd 2dfb 973d
00000130: 6cea e63d aa27 5d3d 0cdd 6fbc f1cd b03c
00000140: ed93 363c e5d1 bdbd 9911 a03d 9538 b13d
00000150: f615 0d3c e555 533c 3c06 9cbd 6f8b 49bc
00000160: 1ea6 4fbc b237 24be 8da9 b4bb 29fa 25bd
00000170: 0db9 183c 99ca c3bd 2bac 773d 8422 833d
00000180: 278c a63c 8725 69bb b6f9 2ebd add1 dfbd
00000190: 36bd 64bd ac3a 443c 0f08 133c 8eea 03bd
000001a0: 260b b93d 8e0b 3d3d c365 fdbc fa37 253d
000001b0: 704d df3c 13b3 c9bd b120 8f3d 54ca fc3c
000001c0: bdcc 313d eaa6 983d b49a a93d 4297 8c3d
000001d0: 48ba 8f3d 3321 463c d56a 453d e2fe 27bd
000001e0: e5f8 ae3d b155 edbc 0b36 13be acba 563d
000001f0: 85c6 a7bc 0a91 333e beae 6a3d 2381 67bb
00000200: 64e8 3bbc 6809 2dbc 9ad0 0bbd c879 b1bc
00000210: 0097 af3a acef 3dbd ad11 98bc 249a b93b
00000220: f401 343d 4657 2bbc bbc1 453d 780f c1bc
00000230: 278b 44bb b0b6 4f3d fb07 f5bd 9e28 0abd
00000240: 15dd 093d 662e 46bc ab45 673c c3cb 1cbd
00000250: 8987 b6bd a219 ddbb 5aaa f53c 0c5f c83c
00000260: d43f 3bbc 72d9 b2bc 5bf6 f0bc 4e77 c03b
00000270: 0444 9abb c875 8e3c da56 7e3d deeb a83c
00000280: dcd5 3b3d 1433 bdbb 45cf a0bd b4ff 72bb
00000290: 0154 9f3c 86b4 3c3d 6002 603d ad9b b6bc
000002a0: 6d27 28bd b503 d0b9 42d3 fbbc e3fc 2abd
000002b0: 564b 07bd 48d1 87bb f3bf 20bd 95d5 89bd
000002c0: 2fd6 973d b385 453d 1194 6cbd 887c 85bc
000002d0: a3f2 abbc dc61 a93d 24e6 caba edd3 0e3b
000002e0: 1ef5 bebd 4ff1 f83c a82f 0cbc d9a4 993d
000002f0: b22a 3dbc 747e 8dbd 4537 f73d 7dc1 e83b
00000300: b2f1 53bb 5cc4 653d 29ed 763d 5bfc e7bc
00000310: 0abe abbd b822 123d 2663 693d 159f 59bd
00000320: 1163 193a 18dd a6bc bb4f 093e a860 413d
00000330: 847a a23d df40 df3d 8f3a b3bd 63e6 ae3c
00000340: 8806 82bd d7e8 b6bc 3c42 29bd 584e ef3d
00000350: 5502 70bb 971c c8bc f1d7 7cbd 36fe cdbd
00000360: 4293 e53d 4ac9 70bc b7ae 083d 5cf2 d33d
00000370: f84f 51bd 7e2c 0a3d d766 efbd ba60 ab3b
00000380: 0a6d 0f3d 3c2e 7bbd 2626 b13c 79d2 633d
00000390: a0ce 00be 1814 68bd a662 893d 20ff 62bb
000003a0: 7de3 65bd 6453 313d 2309 2c3d d5eb 363d
000003b0: ecea 3abd 1bdf 14bc 4e9d 483d 961d 10bc
000003c0: 47f8 953c 7dbd 333d 19b9 003d 7005 453b
000003d0: 1c5a 31ba 36ca cfbc 0a71 613b cef8 33bd
000003e0: 0178 0cbe 2118 e3bc 721a 993d aaa5 40bd
000003f0: f0cc 80bd 5cd2 b9bd c459 ce3c 12b4 c3bc

a2c_network.actor_mlp.4.bias f4 [64]
-0.09859443 0.083513096 -0.086102255 -0.0110392235 -0.064263925 -0.026588986 -0.09586599 -0.060584914
-0.34032416 -0.015650623 -0.13893306 0.008345767 0.041744187 0.037751734 0.053823594 -0.04361233
-0.2522854 -0.38174346 -0.11453822 0.39115143 -0.31580004 0.03881101 -0.10632099 0.22622395
-0.058891583 0.054956973 -0.42272714 0.012862239 0.047329932 -0.3163412 0.08444303 -0.08200313
0.02857691 -0.07536295 -0.47464228 0.46607545 -0.20732254 -0.1473965 0.055245504 0.028302018
0.049399298 0.0026041141 0.050630998 0.04198518 -0.004689832 -0.16899261 -0.10335481 0.001877909
0.46894586 -0.20808378 -0.07103493 -0.42350644 0.06835342 -0.103795305 -0.14078923 -0.105057664
0.0560044 -0.1055654 0.0046100556 -0.14362827 -0.37083647 -0.18974403 0.5422974 0.0008189276
00000000: e0eb c9bd ea08 ab3d 6156 b0bd dcdd 34bc
00000010: ce9c 83bd 25d1 d9bc 6355 c4bd e327 78bd
00000020: f83e aebe bc35 80bc 7844 0ebe afbc 083c
00000030: f4fb 2a3d 90a1 1a3d 2176 5c3d d8a2 32bd
00000040: 8d2b 81be e173 c3be 0493 eabd 0045 c83e
00000050: 8bb0 a1be 4bf8 1e3d d2be d9bd 40a7 673e
00000060: 4d38 71bd 901a 613d b16f d8be 24bc 523c
00000070: 08dd 413d 79f7 a1be 78f0 ac3d 42f1 a7bd
00000080: 201a ea3c e457 9abd 5004 f3be 71a1 ee3e
00000090: 5c4c 54be 1cef 16be 1c49 623d a2d9 e73c
000000a0: eb56 4a3d c9a9 2a3b 7362 4f3d a7f8 2b3d
000000b0: 2aad 99bb 660c 2dbe b0ab d3bd 2b24 f63a
000000c0: ac19 f03e ea13 55be c37a 91bd d6d5 d8be
000000d0: e1fc 8b3d a292 d4bd 0d2b 10be 7928 d7bd
000000e0: df64 653d ac32 d8bd f30f 973b 4a13 13be
000000f0: 47de bdbe 424c 42be 01d4 0a3f 4dad 563a

a2c_network.value.weight f4 [1, 64]
-0.0034347752 0.0006652181 -0.0009048367 0.0003217318 -0.1818958 -0.0005015705 -0.0012505963 0.0011048396
-0.73788744 -0.24683526 -0.057926953 0.0004168532 -0.11600388 0.0076245996 -0.00026411272 -0.17994066
-0.38377747 -0.79604214 -0.18013145 0.24550155 -0.2045125 -0.0024152845 -0.1852714 0.055926096
-0.0024669426 0.0008703897 -0.9181141 -0.0003502889 0.0020549959 -0.628187 0.06048468 -0.023343453
-0.012043212 -0.00021789184 -0.88595223 0.1832275 -0.50174123 -0.0714457 0.013296232 0.0019108644
0.000202621 -0.056752626 0.0057625375 -0.15103361 0.0020311363 -0.19412825 0.002086161 -0.11689887
0.23276725 -0.18855089 -0.001092873 -0.761312 0.0012900468 -0.0002486246 -0.011973622 -0.00087292434
0.0085763745 -0.0012065048 -0.17489259 -0.25118434 -0.7077825 -0.57849145 0.23998623 -0.0004126722
00000000: f719 61bb 0862 2e3a 9032 6dba 1cae a839
00000010: e542 3abe d47b 03ba 0ceb a3ba 44d0 903a
00000020: 31e6 3cbf 62c2 7cbe d044 6dbd 178d da39
00000030: 7193 edbd c7d7 f93b 9c78 8ab9 5d42 38be
00000040: 7b7e c4be 6bc9 4bbf 6174 38be c264 7b3e
00000050: ba6b 51be c049 1ebb c9b7 3dbe c312 653d
00000060: 6eac 21bb dd2a 643a 8709 6bbf fba6 b7b9
00000070: 1cad 063b ddd0 20bf c9be 773d c53a bfbc
00000080: e450 45bc e579 64b9 c4cd 62bf fd9f 3b3e
00000090: 1d72 00bf 2052 92bd 70d8 593c f875 fa3a
000000a0: a976 5439 7175 68bd abd3 bc3b 8ea8 1abe
000000b0: d01c 053b 8ec9 46be f9b7 083b ad68 efbd
000000c0: 8a5a 6e3e 7c13 41be bc3e 8fba 58e5 42bf
000000d0: ca16 a93a d459 82b9 032d 44bc f6d4 64ba
000000e0: ec83 0c3c 9523 9eba 0b17 33be 3c9b 80be
000000f0: 3c31 35bf 0418 14bf f3be 753e ed5b d8b9

a2c_network.mu.weight f4 [4, 64]
0.009633798 -0.0039033974 -0.019009301 0.000884783 0.02954908 -0.00076637365 -0.0014984789 -0.0025184685
-0.008963303 -0.0015624119 -0.027874738 0.00032230114 0.08600909 -0.024417227 0.0032870197 0.0036455877
-0.14945942 -0.0043075113 0.020329047 -0.010172077 -0.05047058 -0.0044300025 -0.030039217 -0.0064980634
0.004113678 -0.002333574 0.05942468 -0.0048021874 -0.0017022985 0.05666651 0.019716976 -0.036669016
0.0035623354 -0.00066776725 -0.108819135 -0.04803174 0.023223354 -0.030768 -0.057691835 -0.0057159592
0.0131488545 -0.039865408 0.009957078 0.042845078 -0.0072683515 -0.011750956 -0.016299047 -0.07840171
0.01155871 -0.004226807 -0.009307327 0.007525526 -0.013557114 0.007733835 0.019381296 0.0127492035
-0.002888909 0.0057772137 -0.05831592 0.051870286 0.0435847 -0.020443726 -0.021431467 -0.004753665
-0.004875011 0.0044046454 -0.034390297 0.00079093326 -0.056983765 0.0047332286 -0.0009079196 0.0001885869
-0.071373366 -0.11479396 -0.009925709 -0.00018785668 -0.012138033 -0.0021298984 -0.0059668664 0.059599314
-0.0058090417 -0.031133952 -0.0068114134 0.023578046 0.10593286 0.0010353207 -0.05078569 0.010273271
-0.008492238 0.0016082702 0.055742256 0.0031868229 0.0005826805 -0.03477634 0.023970664 -0.00827426
0.00753436 0.001626377 -0.03992768 0.013152032 -0.00017899592 -0.005279058 0.045398004 0.0055436026
0.001488338 0.012628479 0.024593981 -0.09905182 0.008102601 -0.057888236 0.020846361 0.038855243
-0.05053933 -0.023303095 0.003711344 -0.013342809 -0.0016090971 0.0039071143 0.007354473 0.0035651627
0.022385746 -0.0042706574 -0.04039545 -0.0016806744 0.1565191 -0.0152055975 -0.0032001473 0.00011678588
-0.0069316695 -0.0027402758 0.008507947 -0.00020153924 -0.02362973 0.0009566272 0.0012738117 0.00861947
-0.06326697 0.034484424 0.024351595 -0.004975133 0.07378798 0.012421096 0.0008607254 -0.012130039
-0.053937983 -0.01004744 0.008045594 -0.008382158 0.06727239 0.0075955717 0.06125934 -0.045534916
0.002602557 0.0050769807 0.05938066 -0.004882781 0.0030334347 0.11395686 0.011125064 -0.008011346
0.0075924937 0.0030660066 -0.060185235 0.010152592 0.015218754 -0.00428907 0.005914685 0.0039901286
0.0049965507 0.036787886 -0.003884386 -0.0021645422 0.0010482933 -0.01645373 -0.00027093416 0.03920474
0.020709736 0.029652882 0.0028187763 0.017962601 0.0073097767 -0.005975104 -0.0022705486 -0.0012728819
0.012369015 -0.0002021113 -0.0026816379 -0.059818048 -0.06476288 -0.0022614154 -0.009154531 0.006413411
0.011292936 0.00087873836 0.0034984166 -0.0050294325 -0.014437077 -0.0067318636 0.0072430833 -0.02035343
0.08734602 -0.023555912 -0.010195967 -0.008762889 0.035515826 0.010261832 0.000901893 -0.024773445
0.020770648 -0.114851646 0.036997855 0.014452492 0.05305978 -0.0025032065 -0.012801561 0.0110751465
0.0065146796 -0.011185687 -0.010513065 0.0063226167 -0.0135827325 -0.054338567 -0.009249508 0.031900726
-0.021827782 -0.0005497181 0.074128345 -0.02621701 -0.021136034 -0.044672806 -0.0031038166 -0.008436612
0.016858226 -0.0069236937 0.009853234 0.04156124 -0.014425627 -0.013255603 -0.0042802948 0.043434832
-0.0052014315 0.019215368 0.010284092 0.04944387 -0.0036086428 -0.0016880052 0.013014731 -0.0075744293
0.027392434 0.00825397 0.021146685 0.019968608 0.030310605 0.0072650453 0.01790572 -0.0024220068
00000000: 14d7 1d3c 24d0 7fbb 65b9 9bbc c8f0 673a
00000010: ea10 f23c 77e6 48ba 9c68 c4ba e40c 25bb
00000020: d1da 12bc d8c9 ccba 9059 e4bc 87fa a839
00000030: 8925 b03d a306 c8bc 0a6b 573b d0ea 6e3b
00000040: e40b 19be 0626 8dbb 1a89 a63c c9a8 26bc
00000050: 3dba 4ebd 8e29 91bb ce14 f6bc b5ed d4bb
00000060: 08cc 863b e0ee 18bb 4b67 733d ab5b 9dbb
00000070: a91f dfba 241b 683d 7f85 a13c 4032 16bd
00000080: 1276 693b 1a0d 2fba 91dc debd eebc 44bd
00000090: e73e be3c 2c0d fcbc 464e 6cbd f14c bbbb
000000a0: 4b6e 573c e949 23bd 0323 233c 527e 2f3d
000000b0: 5a2b eebb 1587 40bc 9485 85bc 1391 a0bd
000000c0: be60 3d3c 0781 8abb c27d 18bc b098 f63b
000000d0: a81e 5ebc 1c6c fd3b 86c5 9e3c 09e2 503c
000000e0: da53 3dbb c84e bd3b addc 6ebd f075 543d
000000f0: df85 323d 9a79 a7bc 0b91 afbc a2c4 9bbb
00000100: 8ebe 9fbb d854 903b d7dc 0cbd a256 4f3a
00000110: cf67 69bd 3319 9b3b 7401 6eba 69bf 4539
00000120: 332c 92bd 1819 ebbd 719f 22bc 65fb 44b9
00000130: 9ade 46bc c495 0bbb b485 c3bb 691e 743d
00000140: c659 bebb a10c ffbc 4732 dfbb bf26 c13c
00000150: 54f3 d83d 99b3 873a a804 50bd 3951 283c
00000160: 0723 0bbc 98cc d23a fe51 643d 04da 503b
00000170: 07bf 183a a371 0ebd 205e c43c c390 07bc
00000180: cbe2 f63b 282c d53a 358b 23bd 9f7b 573c
00000190: dab0 3bb9 f3fb acbb 42f3 393d 1ca7 b53b
000001a0: 5614 c33a aee7 4e3c 5179 c93c aedb cabd
000001b0: c6c0 043c 371c 6dbd fdc5 aa3c ad26 1f3d
000001c0: 5402 4fbd 22e6 bebc 053a 733b cc9b 5abc
000001d0: 57e8 d2ba 4007 803b cbfd f03b 81a5 693b
000001e0: 5062 b73c dff0 8bbb b375 25bd 134a dcba
000001f0: 8b46 203e e620 79bc 90b9 51bb f1ea f438
00000200: 0f23 e3bb 3396 33bb eb64 0b3c 4754 53b9
00000210: 2393 c1bc 2ac6 7a3a 07f6 a63a ad38 0d3c
00000220: 1d92 81bd 8a3f 0d3d ff7c c73c 7106 a3bb
00000230: 271e 973d da81 4b3c 4ea2 613a 12bd 46bc
00000240: 13ee 5cbd 059e 24bc abd1 033c 5255 09bc
00000250: 1bc6 893d 46e4 f83b 13eb 7a3d d282 3abd
00000260: a98f 2a3b cd5c a63b 2339 733d bcff 9fbb
00000270: 97cc 463b 3762 e93d e745 363c 0542 03bc
00000280: 74ca f83b 0eef 483b cb84 76bd 0f57 263c
00000290: 1558 793c 548b 8cbb f9cf c13b a0bf 823b
000002a0: 1bba a33b e5ae 163d 2f91 7ebb feda 0dbb
000002b0: e366 893a f9c9 86bc 2b0c 8eb9 2695 203d
000002c0: 77a7 a93c 9aea f23c 38bb 383b 4e26 933c
000002d0: da86 ef3b ceca c3bb 7ccd 14bb d4d6 a6ba
000002e0: 69a7 4a3c d7ed 53b9 6bbe 2fbb c503 75bd
000002f0: 67a2 84bd 4134 14bb e3fc 15bc 9727 d23b
00000300: 0206 393c 225b 663a b145 653b f0cd a4bb
00000310: 7d89 6cbc f796 dcbb 6357 ed3b 3dbc a6bc
00000320: 78e2 b23d 54f8 c0bc fc0c 27bc 3892 0fbc
00000330: 0b79 113d 3e21 283c 046d 6c3a aef1 cabc
00000340: 3527 aa3c 5737 ebbd 108b 173d 25ca 6c3c
00000350: 3655 593d d60c 24bb a3bd 51bc 8874 353c
00000360: 1879 d53b 2c44 37bc fe3e 2cbc f42d cf3b
00000370: 1c8a 5ebc 1e92 5ebd 408b 17bc 56aa 023d
00000380: 2dd0 b2bc f51a 10ba 9ad0 973d 0ec5 d6bc
00000390: 7a25 adbc d5fa 36bd 6769 4bbb b739 0abc
000003a0: 431a 8a3c 27e0 e2bb 756f 213c 1e3c 2a3d
000003b0: 7759 6cbc 072e 59bc b741 8cbb b9e8 313d
000003c0: c570 aabb 8c69 9d3c 9c7e 283c a885 4a3d
000003d0: fb7e 6cbb 0e40 ddba bd3b 553c eb32 f8bb
000003e0: 1966 e03c a93b 073c d03b ad3c 3595 a33c
000003f0: f24d f83c 9e0f ee3b 04af 923c 88ba 1ebb

a2c_network.mu.bias f4 [4]
0.057893116 0.040807888 0.011397168 0.052680083
00000000: 5521 6d3d 2c26 273d 30bb 3a3c 12c7 573d

exp_avg f4 [4]
0.00022627041 0.00090381474 0.00049655524 0.0011198561
00000000: 0043 6d39 fbed 6c3a 422b 023a 23c8 923a

exp_avg_sq f4 [4]
1.0145012e-05 1.1266285e-05 8.693136e-06 7.962281e-06
00000000: 7f34 2a37 5304 3d37 bcd8 1137 bd95 0537

exp_avg f4 [256, 42]
-0.00012448589 -1.6489157e-05 -1.4188509e-05 1.5185778e-05 1.0714863e-05 9.7341246e-05 -2.4980667e-05 1.4404882e-05
-1.0674263e-05 -9.0213456e-05 -5.1033685e-06 2.31453e-05 -0.0005933039 -0.0006100772 -0.0006060355 -0.00057057536
-0.00057165377 -0.0005596351 -0.0005575405 -0.0005396328 -0.0005540548 -0.0005345255 -0.00054311537 -0.0005469105
-0.0005871423 -0.0005774108 -0.0005955534 0.0007241427 0.00072370376 0.0007269116 0.00073119754 0.0007388859
0.00073504756 0.0007269629 0.0007120586 0.0007026347 0.00069408363 0.00069280434 0.00067168265 0.00068068417
0.0006741523 0.0006800575 -7.289169e-05 -1.0705377e-05 -2.7945514e-06 -6.250164e-06 1.7965762e-05 6.450707e-05
2.7315235e-05 1.8534709e-05 -2.2649301e-05 -8.493138e-05 3.7560614e-05 -1.557798e-05 -0.0003208697 -0.0003068222
-0.00031748085 -0.00032527922 -0.00032632085 -0.000296247 -0.00030269256 -0.00032811868 -0.00029481857 -0.00028510034
-0.00027288153 -0.0002699646 -0.0003016624 -0.00030455738 -0.000300513 0.00046037638 0.00046998332 0.00046130127
0.00046719352 0.00045731274 0.00045425308 0.00044428246 0.0004485652 0.0004504709 0.00043689308 0.0004338049
0.00043360997 0.0004141525 0.0004049301 0.00040359306 -0.00013390924 -1.6248385e-05 -1.4791634e-05 3.7311e-05
3.781642e-05 0.00012785172 3.1678646e-05 1.3855622e-06 -6.219167e-05 -0.00016333918 9.182968e-05 -2.5147048e-05
-0.0005828083 -0.00057746464 -0.0005973845 -0.0005704717 -0.00060109387 -0.00052268774 -0.0005373108 -0.0005476338
-0.0005319213 -0.00048284174 -0.00048620958 -0.0005193046 -0.0005484245 -0.00058062986 -0.0006082621 0.00094033865
0.00096335163 0.00094150176 0.0009454798 0.0009196282 0.00089840783 0.0008561618 0.0008558531 0.0008571516
0.0008189355 0.0008145971 0.0008075426 0.0007676784 0.0007479218 0.0007500584 2.8288352e-05 5.553645e-06
-1.9790006e-05 4.5134668e-05 -1.3028165e-05 -2.1670909e-05 -2.2316823e-05 -1.3933845e-05 1.3796776e-05 3.6332724e-05
-2.2172317e-05 -1.7430676e-06 0.00010111745 7.9855105e-05 9.544811e-05 0.000102700826 0.00012384672 0.0001227745
9.21231e-05 0.00011186719 0.000111617715 0.0001031094 7.082141e-05 7.3397045e-05 9.485114e-05 0.000106512605
7.150068e-05 -0.0001865779 -0.00019631197 -0.00018392183 -0.00019281337 -0.00017570144 -0.00016751225 -0.00016386148
-0.00017362465 -0.00018272872 -0.00017297066 -0.00017872277 -0.00018682494 -0.00016292461 -0.00016374327 -0.00015759758
-4.098969e-05 -5.0895273e-06 -1.7934568e-05 3.800088e-05 8.578851e-06 3.8692502e-05 -9.26892e-06 1.6176384e-05
-2.1611075e-05 -3.5668032e-05 1.5329322e-05 6.143934e-06 -0.00018550936 -0.00018938101 -0.00019913477 -0.00017760052
-0.00018343746 -0.00014496552 -0.00014608745 -0.00017125192 -0.00017659707 -0.0001500391 -0.00015529904 -0.00016600653
-0.00019714565 -0.0002007585 -0.00021925438 0.00028105712 0.00028108284 0.00028126745 0.00028011776 0.00027186968
0.0002695091 0.00025245885 0.0002465159 0.00024573234 0.00023535875 0.00023715784 0.00022362311 0.00022126592
0.00021221815 0.0002141468 0.0001747723 2.395987e-05 1.9949113e-05 -2.3673658e-05 -5.907854e-05 -0.00018077299
-4.0669474e-05 -4.982995e-05 0.0001046863 0.00019377083 -0.00010401715 1.3173728e-05 0.0007402728 0.00070753455
0.00076896005 0.00071760203 0.0008052265 0.00068211753 0.00068536407 0.00071382464 0.0007361061 0.0006608095
0.0006293202 0.00066286523 0.0007047145 0.0007581491 0.00076619355 -0.0012349628 -0.0012690916 -0.0012447375
-0.0012368994 -0.0011922502 -0.0011707119 -0.0011130669 -0.0011319008 -0.0011457657 -0.0010760952 -0.0011061826
-0.0010832327 -0.0010262522 -0.0009780935 -0.0009707348 8.305631e-06 2.4266967e-06 -9.9588215e-06 1.3796031e-05
00000000: 6d88 02b9 3252 8ab7 2f0b 6eb7 6bc6 7e37
00000010: fcc3 3337 af23 cc38 938d d1b7 7fac 7137
00000020: 9c15 33b7 fb30 bdb8 9a3d abb6 2728 c237
00000030: f387 1bba 96ed 1fba 5bde 1eba aa92 15ba
00000040: 09db 15ba 7ab4 12ba e927 12ba 2576 0dba
00000050: fd3d 11ba 661f 0cba db5f 0eba 8b5e 0fba
00000060: 74ea 19ba 625d 17ba ea1e 1cba 65d4 3d3a
00000070: f0b6 3d3a 368e 3e3a d6ad 3f3a cbb1 413a
00000080: 35b0 403a a891 3e3a 72a9 3a3a 0431 383a
00000090: 2af3 353a 509d 353a dc13 303a f16f 323a
000000a0: 98b9 303a e345 323a 6edd 98b8 3e9b 33b7
000000b0: 078a 3bb6 80b8 d1b6 2eb5 9637 f847 8738
000000c0: 0523 e537 fc7a 9b37 01ff bdb7 301d b2b8
000000d0: 678a 1d38 75ad 82b7 673a a8b9 fbdc a0b9
000000e0: 8f73 a6b9 3d8a aab9 0b16 abb9 9951 9bb9
000000f0: b5b2 9eb9 5807 acb9 e191 9ab9 8579 95b9
00000100: 8a11 8fb9 098a 8db9 7128 9eb9 00ad 9fb9
00000110: 2c8e 9db9 ac5e f139 1868 f639 cfda f139
00000120: a7f1 f439 7ac3 ef39 d128 ee39 95ee e839
00000130: 672d eb39 2e2d ec39 cc0e e539 4f70 e339
00000140: 2556 e339 9c22 d939 cc4c d439 5899 d339
00000150: fd69 0cb9 244d 88b7 9629 78b7 627e 1c38
00000160: 129d 1e38 ef0f 0639 b0de 0438 8ef7 b935
00000170: e66c 82b8 0746 2bb9 af94 c038 e0f2 d2b7
00000180: 9ac7 18ba ff60 17ba cc99 1cba b58b 15ba
00000190: ba92 1dba fb04 09ba 51da 0cba 158f 0fba
000001a0: a270 0bba ec25 fdb9 f2e9 feb9 f121 08ba
000001b0: 25c4 0fba 6935 18ba c773 1fba 0f81 763a
000001c0: 6f89 7c3a 1dcf 763a 13da 773a 3413 713a
000001d0: 2183 6b3a 0c70 603a 545b 603a 78b2 603a
000001e0: d5ad 563a b08a 553a 44b1 533a 063e 493a
000001f0: 2f10 443a 919f 443a c64c ed37 7359 ba36
00000200: b702 a6b7 fb4e 3d38 8b93 5ab7 ecc9 b5b7
00000210: 0335 bbb7 69c5 69b7 b478 6737 f763 1838
00000220: b0fe b9b7 59f3 e9b5 050f d438 e277 a738
00000230: 502b c838 1661 d738 dadc 0139 07bd 0039
00000240: 3632 c138 3e9a ea38 4e14 ea38 703c d838
00000250: f485 9438 bdec 9938 d1ea c638 855f df38
00000260: a3f2 9538 20a4 43b9 18d9 4db9 24db 40b9
00000270: f22d 4ab9 7f3c 38b9 3aa6 2fb9 3bd2 2bb9
00000280: 030f 36b9 de9a 3fb9 755f 35b9 8767 3bb9
00000290: 70e6 43b9 bed6 2ab9 80b2 2bb9 c740 25b9
000002a0: 58ec 2bb8 b5c6 aab6 3172 96b7 2263 1f38
000002b0: e2ed 0f37 c249 2238 b581 1bb7 85b2 8737
000002c0: 6e49 b5b7 429a 15b8 7897 8037 fe27 ce36
000002d0: 4a85 42b9 9494 46b9 d5ce 50b9 473a 3ab9
000002e0: 1e59 40b9 e301 18b9 0d2f 19b9 1692 33b9
000002f0: ea2c 39b9 d053 1db9 c5d7 22b9 0a12 2eb9
00000300: e2b8 4eb9 b382 52b9 a6e7 65b9 d95a 9339
00000310: 4d5e 9339 1477 9339 c5dc 9239 bb89 8e39
00000320: e64c 8d39 745c 8439 ce3e 8139 a3d5 8039
00000330: a2ca 7639 93ad 7839 5f7c 6a39 9e03 6839
00000340: e086 5e39 988c 6039 1543 3739 6efd c837
00000350: 6558 a737 cb96 c6b7 19cb 77b8 e18d 3db9
00000360: 8494 2ab8 8000 51b8 088b db38 f62e 4b39
00000370: c823 dab8 bb04 5d37 de0e 423a d779 393a
00000380: 0994 493a 751d 3c3a d615 533a 22d0 323a
00000390: 01aa 333a f61f 3b3a 3ff7 403a 2d3a 2d3a
000003a0: f7f8 243a 22c4 2d3a 97bc 383a 86be 463a
000003b0: 61da 483a 7ade a1ba a657 a6ba 7626 a3ba
000003c0: 751f a2ba 4745 9cba 9372 99ba 54e4 91ba
000003d0: 4a5c 94ba 842d 96ba c30b 8dba 54fd 90ba
000003e0: 42fb 8dba 4f83 86ba 5f33 80ba e978 7eba
000003f0: 6a58 0b37 55da 2236 d014 27b7 8175 6737
