logs/rl_games/klask/sim_collision_ro_a0_1/nn/klask.pth (torch, 29978 bytes, 24 tensors)

a2c_network.sigma f4 [4]
-0.57048243 -0.63600945 -0.6348724 -0.718225
00000000: 230b 12bf 84d1 22bf ff86 22bf 98dd 37bf

a2c_network.actor_mlp.0.weight f4 [32, 12]
2.48541 -0.11427509 0.0482102 0.15806668 0.06644493 -0.39506736 0.0038224328 -0.027513588
3.1861267 2.8467627 0.7820746 -0.39261046 -0.5215039 -0.9297019 -0.07576928 -0.07109894
0.10463691 -0.08395593 -0.00787977 0.011245436 -3.3888526 -1.1241071 -3.3826542 0.08613303
1.3910183 0.88053155 0.104591176 -0.80175287 -0.22676049 -0.39943746 -0.0008792278 -0.016829247
3.2879105 2.559929 -0.2799834 -0.59065974 0.7131308 -0.3392417 -0.0037273366 0.20618284
0.00091056584 0.42431042 0.014013518 0.049304973 5.816034 0.344712 1.9737498 -0.5940816
-0.3190469 -1.381259 0.11708862 0.046327233 0.103948005 -0.053838268 0.01802056 0.00537863
-1.0751446 -2.381746 2.0026054 -0.13432026 0.5955859 -1.3371528 -0.24413303 -0.52715135
-0.07664742 0.13167098 -0.016499726 0.044654675 -1.5904894 -2.0962074 0.5808014 0.19852993
0.23313269 -0.3536999 -0.087475896 -0.19864394 0.018347954 0.34637925 0.0018221856 -0.0040256693
10.911765 0.2634142 0.089175 0.0056976136 0.4937566 -0.8030551 -0.10807606 -0.13091536
-0.11874647 0.039803464 -0.0008830984 -0.006996329 1.543564 -2.3124769 -0.9082419 -0.9239612
-0.25339273 -0.016788675 0.012921013 0.13418709 0.04850616 -0.106470734 0.00798742 -0.0032231386
0.5270924 -2.2120075 -0.055375468 -2.2239766 0.3739499 -0.56556493 -0.060296573 -0.09095695
-0.08299085 -0.020217013 -0.0030987416 -0.0033498476 4.4218035 -1.9143152 1.5183549 -0.07933572
-0.96576196 0.39452448 0.1768672 -0.36225066 -0.044601463 0.018029308 -0.0032307648 0.02290364
-6.074871 -0.195714 -1.988431 0.31775528 -0.049285613 0.089492075 0.097024366 -0.1513505
0.08470397 -0.170096 0.0071973475 0.0076714978 3.515744 -2.0918276 3.129521 -0.5803139
-0.052155495 -0.2667979 -0.2095126 -0.053266224 0.36288503 -0.0050015403 -0.014777716 0.025841365
6.863645 1.48249 2.397599 1.2787788 0.3370125 0.019582774 -0.0069127213 -0.18041204
-0.0391928 0.02406223 -0.013853383 -0.032887917 6.142266 0.48998526 2.3557045 0.40072542
-0.26161876 2.4296358 0.10067866 0.1744284 -0.038403213 0.3394125 0.0026421798 -0.0012183326
6.215327 -1.748472 2.6003091 -1.3085923 0.082086325 0.19882189 0.17877959 0.24675745
-0.341428 -0.30813804 0.005623645 -0.00021772584 -4.7215047 2.7564979 0.90809166 0.019553171
0.6058471 -0.59420425 0.067304865 -0.15483609 -0.124579206 0.12212258 -0.007487875 0.015875183
-3.873827 -1.4690357 -2.5715086 -0.55600435 -0.037523773 0.7583487 0.052982192 0.15453988
0.072491884 -0.2692209 0.001195259 -0.0019100389 -10.317992 1.120324 -0.69310755 -0.3148749
-0.25012368 0.6719428 0.020319227 0.09136715 0.09885504 0.29296213 0.003440307 0.009325966
0.26833433 -2.303517 -0.15706575 -2.4863632 1.7682017 -0.6026709 -0.028619042 0.2301363
-0.21860738 -0.4949828 -0.025967473 -0.0017678868 5.2427135 1.9267567 0.57540977 -0.16374646
0.334482 -2.0155158 -0.038353764 -0.029506205 0.2521576 -0.28954354 0.004878712 -0.016512744
5.768566 0.20236076 2.6504662 1.3225741 0.66610605 0.6974859 -0.020636857 0.6692063
00000000: f510 1f40 0f09 eabd 0f78 453d 3bdc 213e
00000010: 4814 883d 4546 cabe c881 7a3b 2d64 e1bc
00000020: 80e9 4b40 5c31 3640 0a36 483f 3d04 c9be
00000030: 4881 05bf f200 6ebf ed2c 9bbd 529c 91bd
00000040: e04b d63d 16f1 abbd 271a 01bc c73e 383c
00000050: f6e2 58c0 bee2 8fbf 687d 58c0 8466 b03d
00000060: e30c b23f 846a 613f e633 d63d ad3f 4dbf
00000070: e733 68be 1183 ccbe fb7b 66ba 7ddd 89bc
00000080: 206d 5240 e0d5 2340 fc59 8fbe 7a35 17bf
00000090: bd8f 363f 17b1 adbe 5546 74bb 9821 533e
000000a0: 0ab3 6e3a 373f d93e f498 653c 03f4 493d
000000b0: f31c ba40 177e b03e d5a3 fc3f bb15 18bf
000000c0: 1e5a a3be 18cd b0bf 29cc ef3d a0c1 3d3d
000000d0: b1e2 d43d 8485 5cbd da9f 933c 383f b03b
000000e0: 579e 89bf 876e 18c0 b02a 0040 408b 09be
000000f0: 5178 183f d327 abbf 02fe 79be 64f3 06bf
00000100: 53f9 9cbd c2d4 063e 6f2a 87bc d2e7 363d
00000110: 2895 cbbf 4328 06c0 67af 143f 6e4b 4b3e
00000120: 56ba 6e3e 2718 b5be 9026 b3bd 5169 4bbe
00000130: 734e 963c 9f58 b13e 67d6 ee3a c3e9 83bb
00000140: 9796 2e41 3ade 863e 62a1 b63d 0cb3 ba3b
00000150: aacd fc3e 0595 4dbf fb56 ddbd ad0e 06be
00000160: 5931 f3bd f508 233d bb7f 67ba 7641 e5bb
00000170: 8193 c53f 9fff 13c0 8b82 68bf b988 6cbf
00000180: b1bc 81be 6788 89bc a8b2 533c 5768 093e
00000190: 65ae 463d 540d dabd abdd 023c 4b3b 53bb
000001a0: 87ef 063f 8891 0dc0 63d1 62bd a255 0ec0
000001b0: 5c76 bf3e ddc8 10bf 8af9 76bd a347 babd
000001c0: 1bf7 a9bd 269e a5bc 4214 4bbb 1e89 5bbb
000001d0: 6a7f 8d40 4808 f5bf 7459 c23f c47a a2bd
000001e0: 2d3c 77bf 1dff c93e ad1c 353e eb78 b9be
000001f0: 06b0 36bd 33b2 933c 3dbb 53bb 6aa0 bb3c
00000200: 5865 c2c0 4069 48be e884 febf d2b0 a23e
00000210: b6df 49bd 9f47 b73d b6b4 c63d a0fb 1abe
00000220: 4679 ad3d a52d 2ebe bad7 eb3b 3061 fb3b
00000230: f301 6140 81e0 05c0 124a 4840 748f 14bf
00000240: 00a1 55bd bc99 88be 798a 56be af2d 5abd
00000250: 11cc b93e f6e3 a3bb 3c1e 72bc 45b1 d33c
00000260: fba2 db40 3bc2 bd3f 4372 1940 06af a33f
00000270: e78c ac3e 0e6c a03c 1c84 e2bb efbd 38be
00000280: a188 20bd 271e c53c 4df9 62bc 7bb5 06bd
00000290: 718d c440 59df fa3e ddc3 1640 e22b cd3e
000002a0: e5f2 85be 277f 1b40 9d30 ce3d 5c9d 323e
000002b0: b04c 1dbd 7ac7 ad3e 6c28 2d3b 75b0 9fba
000002c0: f5e3 c640 eecd dfbf 776b 2640 f47f a7bf
000002d0: e01c a83d f797 4b3e ff11 373e fcad 7c3e
000002e0: a7cf aebe 45c4 9dbe 8e46 b83b 564d 64b9
000002f0: 9116 97c0 766a 3040 b278 683f f92d a03c
00000300: cc18 1b3f c51d 18bf 22d7 893d 5a8d 1ebe
00000310: 6223 ffbd 671b fa3d d95c f5bb ac0c 823c
00000320: c8ec 77c0 5d09 bcbf 9993 24c0 4d56 0ebf
00000330: 87b2 19bd 2423 423f db03 593d b43f 1e3e
00000340: a076 943d 52d7 89be 3daa 9c3a 455a faba
00000350: 7f16 25c1 c766 8f3f 7f6f 31bf 4837 a1be
00000360: 3610 80be 7104 2c3f 8274 a63c b31e bb3d
00000370: 8374 ca3d 22ff 953e c676 613b f0cb 183c
00000380: 1e63 893e d36c 13c0 d8d5 20be 9320 1fc0
00000390: 6f54 e23f a448 1abf 7b72 eabc daa8 6b3e
000003a0: 9dda 5fbe 636e fdbe bdb9 d4bc 70b8 e7ba
000003b0: 4fc4 a740 f79f f63f 0e4e 133f 27ad 27be
000003c0: 3a41 ab3e 36fe 00c0 d618 1dbd ffb6 f1bc
000003d0: cd1a 813e 0d3f 94be 9add 9f3b bc45 87bc
000003e0: 1898 b840 a937 4f3e 3da1 2940 1c4a a93f
000003f0: ed85 2a3f 708e 323f a00e a9bc 1b51 2b3f

a2c_network.actor_mlp.0.bias f4 [32]
-0.48552483 -0.16472216 -0.30729604 0.5821403 -0.1394956 -0.07686083 -0.19694842 0.103606015
0.10622154 0.1321957 0.025277816 -0.069742136 -0.8497792 0.18648325 0.091595344 -0.575077
-0.35279322 -0.011829039 0.10084625 -0.28242075 -0.6967689 -0.21255697 0.29610285 0.12173034
-0.14554775 -0.2850834 0.0015998025 -0.25486007 -0.209388 -0.7694396 -0.12086609 0.20443974
00000000: b696 f8be edac 28be e855 9dbe 2607 153f
00000010: efd7 0ebe 3669 9dbd d9ac 49be 642f d43d
00000020: ae8a d93d 4f5e 073e 6c13 cf3c f7d4 8ebd
00000030: 218b 59bf 77f5 3e3e 5796 bb3d 3f38 13bf
00000040: 50a1 b4be 96ce 41bc 7b88 ce3d 7499 90be
00000050: 725f 32bf 89a8 59be cb9a 973e c24d f93d
00000060: 780a 15be 74f6 91be 77b0 d13a 057d 82be
00000070: cf69 56be fef9 44bf a488 f7bd a758 513e

a2c_network.actor_mlp.2.weight f4 [32, 32]
-0.18272662 0.14499211 0.4915235 0.05170838 -0.07334039 -0.17864628 -0.1317414 0.10033309
-0.07516207 -0.10542354 0.10387281 -0.29570067 -0.780404 -0.012238105 -0.4914753 -0.042654358
0.06137607 0.48045608 -0.4035959 0.28283727 -0.6923953 0.0029364096 0.36084655 -0.44951427
-0.29954615 0.38139507 0.13132264 -0.18822844 -0.27233604 -0.4043132 -0.27049974 0.04027499
-0.15532841 -0.030881168 0.10803115 -0.26263422 -0.123006366 -0.30755347 0.00961379 -0.28342283
0.24834867 -0.024504531 0.27857384 -0.076871224 0.17706724 -0.20393747 0.07332193 -0.18204615
-0.2577602 -0.1966634 0.06232459 -0.14803174 0.117710635 -0.0028574653 -0.14706638 -0.108818926
-0.05886196 -0.055958778 0.07614506 -0.09101338 -0.009435199 0.11817081 0.12976839 0.24952412
0.40259844 0.014802221 -0.10182276 0.0039872588 -0.12677297 0.089799896 0.49506897 0.16361786
-0.083769344 -0.038713884 -0.55198115 -0.10168286 0.26881754 -0.30339593 0.16445214 -0.6758298
-0.110209405 -0.9288171 0.08923927 -0.13614325 -0.15715408 -0.29251328 -0.4525987 0.5706442
0.3219202 -0.87267035 -0.2651754 -0.5270069 -0.026695494 -0.17170718 0.123999454 -0.23407513
0.093999386 1.0924791 -0.08356171 -1.2084075 -0.9577923 -0.5024444 0.42914256 0.10334216
-0.41489485 -0.7912492 1.0471337 -1.2784675 0.19223802 -1.0125722 -1.0640534 1.3393421
0.34640834 -0.17209652 -0.27600947 -0.33346614 0.23188736 0.4575982 1.1113658 0.3803141
0.81518453 -0.20827895 -0.6702876 0.64650524 0.35157374 0.8170205 0.21004805 -0.21530958
-0.30770138 -0.20538285 -0.044720333 0.011195148 0.32206836 0.60170484 -0.10755377 -0.85414225
-0.33023322 -0.085175976 -0.07676133 -0.01773543 -0.03916746 -0.19331518 -0.7345538 -0.29149634
-0.45327234 0.25025633 -0.46255338 -0.3696221 0.23497054 0.055325594 -0.38800767 -0.26042065
-0.38409925 -0.013627049 0.13545027 0.29196042 -0.056652986 -0.078518875 -0.26091033 0.10089081
0.2777143 0.34475708 0.8255992 -0.19834213 -0.98084813 -0.6116997 -2.1157143 -0.85878134
-1.1908675 -1.6027229 0.43035725 -1.667073 -1.6183951 0.019376144 -2.9642737 0.25024408
0.15458626 1.2410935 -1.3210703 0.0078225145 -1.3794717 1.1292022 1.2947798 -1.7163136
1.091073 1.196092 -0.6036459 -0.040069647 0.14500754 -1.399643 -1.5096025 1.0546641
-0.723155 0.6846782 -0.7868293 0.20618011 0.23938122 0.082302645 1.118585 0.5252102
0.13093466 0.8719565 0.44210535 0.5642385 0.55160576 0.6243454 0.28843105 -0.6005732
0.22503851 0.2956923 0.019604392 -0.19409318 0.6754793 -0.30703366 0.81321174 0.7865789
0.3225299 -0.54929936 0.22575688 0.51662886 0.7824222 0.23834811 1.1515225 -0.61918455
0.88742566 0.14290403 -0.39996988 0.3441161 0.38454598 -0.31742284 -0.2569007 0.5072694
1.4205879 0.5445256 -0.23465611 1.2981634 1.5090065 0.43034753 0.99425894 0.3248827
1.2878336 0.10656987 1.4470894 0.58739245 1.4716865 -0.28284988 -1.3655652 0.2305821
0.4736703 0.07999801 0.95244926 0.4634024 1.5199596 0.81997335 0.3907613 0.18941686
00000000: b01c 3bbe d078 143e f8a8 fb3e 2bcc 533d
00000010: 7d33 96bd 0def 36be 38e7 06be 6f7b cd3d
00000020: 92ee 99bd 4ce8 d7bd 45bb d43d 1466 97be
00000030: 8ec8 47bf 5582 48bc a7a2 fbbe 56b6 2ebd
00000040: 7965 7b3d 57fe f53e 1fa4 cebe 0cd0 903e
00000050: d240 31bf c770 403b e1c0 b83e bc26 e6be
00000060: 1d5e 99be 3746 c33e 7179 063e f5be 40be
00000070: a16f 8bbe 2402 cfbe f17e 8abe 63f7 243d
00000080: 690e 1fbe 81fa fcbc 703f dd3d fe77 86be
00000090: c3ea fbbd a677 9dbe 2883 1d3c cc1c 91be
000000a0: 1d4f 7e3e babd c8bc 3ba1 8e3e a96e 9dbd
000000b0: 1d51 353e fcd4 50be cf29 963d 4e6a 3abe
000000c0: 25f9 83be 2162 49be 1248 7f3d a295 17be
000000d0: 4612 f13d 5044 3bbb 9298 16be 75dc debd
000000e0: 3d19 71bd 0835 65bd f1f1 9b3d 3965 babd
000000f0: 1896 1abc 8a03 f23d 01e2 043e 4083 7f3e
00000100: 6221 ce3e 0485 723c 7488 d0bd 8da7 823b
00000110: c6d0 01be 02e9 b73d ae79 fd3e 718b 273e
00000120: 438f abbd 7392 1ebd a34e 0dbf 1a3f d0bd
00000130: 74a2 893e b656 9bbe 2466 283e 2f03 2dbf
00000140: 78b5 e1bd f5c6 6dbf 14c3 b63d 2369 0bbe
00000150: 00ed 20be 4dc4 95be 04bb e7be bd15 123f
00000160: b9d2 a43e 5367 5fbf 12c5 87be ede9 06bf
00000170: 82b0 dabc 02d4 2fbe 6df3 fd3d 64b1 6fbe
00000180: c082 c03d 5bd6 8b3f 6722 abbd 19ad 9abf
00000190: e031 75bf 32a0 00bf 93b8 db3e 0ea5 d33d
000001a0: 196d d4be 4f8f 4abf 7a08 863f d3a4 a3bf
000001b0: 0bda 443e f79b 81bf e732 88bf 906f ab3f
000001c0: 6f5c b13e 123a 30be 1d51 8dbe 13bc aabe
000001d0: e173 6d3e 504a ea3e 3c41 8e3f 88b8 c23e
000001e0: efaf 503f 1447 55be f897 2bbf 5e81 253f
000001f0: 7901 b43e 4128 513f d616 573e 1d7a 5cbe
00000200: 098b 9dbe e24f 52be ab2c 37bd db6b 373c
00000210: 25e6 a43e 5409 1a3f 2745 dcbd 11a9 5abf
00000220: 5414 a9be be70 aebd 0b35 9dbd e449 91bc
00000230: 0f6e 20bd 6af4 45be b80b 3cbf 023f 95be
00000240: 5013 e8be 9921 803e ccd3 ecbe 1c3f bdbe
00000250: 1e9c 703e 179d 623d f1a8 c6be db55 85be
00000260: a8a8 c4be fc43 5fbc 7ab3 0a3e d67b 953e
00000270: f60c 68bd 81ce a0bd 0a96 85be d79f ce3d
00000280: 9230 8e3e 0084 b03e 785a 533f 331a 4bbe
00000290: dd18 7bbf 5a98 1cbf dd67 07c0 18d9 5bbf
000002a0: 596e 98bf 0626 cdbf c957 dc3e a662 d5bf
000002b0: 9227 cfbf b8ba 9e3c a9b6 3dc0 fe1f 803e
000002c0: dc4b 1e3e 27dc 9e3f d518 a9bf 012a 003c
000002d0: 8792 b0bf b389 903f 58bb a53f 2ab0 dbbf
000002e0: 48a8 8b3f 8b19 993f 8a88 1abf 1220 24bd
000002f0: db7c 143e 8027 b3bf a83a c1bf 3cff 863f
00000300: b020 39bf 1247 2f3f a56d 49bf e120 533e
00000310: 5a20 753e 4a8e a83d cb2d 8f3f 2d74 063f
00000320: bc13 063e 8b38 5f3f a25b e23e ef71 103f
00000330: 0936 0d3f 1ad5 1f3f 3cad 933e 2abf 19bf
00000340: 7f70 663e fb64 973e 6499 a03c 5dc0 46be
00000350: 36ec 2c3f 8433 9dbe a52e 503f 3c5d 493f
00000360: a422 a53e e29e 0cbf d02c 673e ca41 043f
00000370: d24c 483f 8711 743e 1765 933f e182 1ebf
00000380: 542e 633f 6f55 123e dac8 ccbe fc2f b03e
00000390: 36e3 c43e 3f85 a2be 7d88 83be 68dc 013f
000003a0: d3d5 b53f 0866 0b3f b149 70be 382a a63f
000003b0: 2027 c13f 8356 dc3e c187 7e3f 0657 a63e
000003c0: bbd7 a43f 4e41 da3d 3a3a b93f 5a5f 163f
000003d0: 3960 bc3f b3d1 90be d7ca aebf b71d 6c3e
000003e0: ea84 f23e ffd5 a33d b7d3 733f 1443 ed3e
000003f0: 098e c23f c6e9 513f dd11 c83e 7ef6 413e

a2c_network.actor_mlp.2.bias f4 [32]
0.18717161 -0.031542335 0.037730705 -0.5474125 0.07971555 0.47483367 0.38241106 -0.09772692
-0.3503198 0.68695515 -0.25215137 0.24196965 0.309624 -0.016875008 0.050079968 0.40224078
-0.68854225 0.1090339 -0.5063657 0.1499554 -0.13840963 0.10530423 0.21922356 -0.18141629
-0.09323775 -0.18369249 0.53986335 0.634906 0.07924513 -0.09984227 -0.08790542 -0.025528597
00000000: eaa9 3f3e 8932 01bd 838b 1a3d 3a23 0cbf
00000010: e841 a33d 661d f33e 62cb c33e 0d25 c8bd
00000020: 1e5d b3be 4bdc 2f3f fc19 81be e4c6 773e
00000030: 0987 9e3e 753d 8abc a720 4d3d 81f2 cd3e
00000040: 4e44 30bf 2a4d df3d 2fa1 01bf e98d 193e
00000050: 41bb 0dbe bea9 d73d 247c 603e 31c5 39be
00000060: 6ff3 bebd e219 3cbe 7c34 0a3f 3389 223f
00000070: 454b a23d 1b7a ccbd c207 b4bd 5921 d1bc

a2c_network.value.weight f4 [1, 32]
0.4856311 -0.09459614 -0.5842819 -1.1702378 -0.6913175 1.6834937 0.56776065 1.0235686
-0.2385357 -1.2236842 -0.42024663 0.25896898 -1.4436415 -0.042222384 0.004434582 0.7686237
0.40724537 0.4938106 -1.140222 -0.926662 -0.6649674 -1.1485444 1.1844832 -0.3837766
-0.45900086 -0.2844744 0.6815785 1.45433 -0.64344275 -0.6484966 -0.2014256 1.1730947
00000000: a4a4 f83e 9fbb c1bd 8093 15bf 5aca 95bf
00000010: 2ffa 30bf b97c d73f c358 113f 4c04 833f
00000020: b442 74be afa1 9cbf 912a d7be 9597 843e
00000030: 3fc9 b8bf 61f1 2cbd f84f 913b 86c4 443f
00000040: 7782 d03e bed4 fc3e cbf2 91bf b939 6dbf
00000050: 4e3b 2abf 8103 93bf 259d 973f 5e7e c4be
00000060: 2902 ebbe a1a6 91be ee7b 2e3f 7c27 ba3f
00000070: aab8 24bf e003 26bf 8342 4ebe f827 963f

a2c_network.mu.weight f4 [4, 32]
0.008799219 0.07291287 -0.09169158 0.08335307 0.07290629 -0.02035715 -0.040906783 0.1741794
-0.028538492 0.034710895 -0.10022935 -0.08862876 -0.032838356 -0.04665425 0.078281455 -0.052436113
-0.09621417 -0.06625948 0.062392216 -0.009529776 0.2053353 -0.0109632015 0.10592593 -0.13550565
-0.01249151 -0.020587284 -0.0644931 0.06480634 -0.08307703 0.09955738 -0.019747408 -0.036186766
0.09219763 -0.19707906 -0.15914945 -0.21443795 -0.004853165 0.05437426 0.11794144 -0.13785091
-0.12682989 -0.011735357 0.072758436 0.08052923 -0.063175194 0.009420069 0.042520016 0.08317114
-0.16828533 0.03578754 -0.03639458 -0.1126934 -0.13981746 0.04347326 0.06396945 0.021713998
-0.026820453 0.054024402 0.17784499 0.036688324 -0.052188013 -0.08016387 0.037954774 -0.11298946
-0.017414879 0.068789296 -0.060464997 0.07987928 0.050023552 0.024696589 0.03161275 -0.055392317
-0.13966486 0.07495581 0.023712402 0.006257898 0.034345083 -0.0635498 0.0036784008 -0.058559574
-0.0636948 -0.002842509 0.015210051 -0.046260115 -0.00014776939 -0.065758936 -0.020958262 0.0067053996
-0.021667074 -0.0077963755 -0.025082804 0.036659494 0.0028839065 -0.017754128 -0.039924 -0.06571609
0.05829139 -0.029954918 0.035689034 0.01816786 0.15804158 0.008129878 0.015745295 0.15197064
-0.12284309 0.1805421 -0.012804848 -0.0732762 -0.03042122 -0.027735116 -0.0216309 -0.13547055
0.09576909 -0.113185324 -0.086828545 -0.04599873 0.07220013 -0.08865697 0.05265638 -0.056438062
-0.0039052998 0.01906954 0.011281214 0.008234316 -0.06342862 0.031419273 -0.004343006 -0.1625
00000000: 992a 103c 5853 953d ccc8 bbbd 04b5 aa3d
00000010: e54f 953d 0ac4 a6bc df8d 27bd 165c 323e
00000020: 8ec9 e9bc 032d 0e3d 0c45 cdbd ff82 b5bd
00000030: 8381 06bd 8718 3fbd 0752 a03d 40c7 56bd
00000040: ef0b c5bd 0db3 87bd fb8e 7f3d c722 1cbc
00000050: 6b43 523e 009f 33bc b2ef d83d fec1 0abe
00000060: 31a9 4cbc aaa6 a8bc f514 84bd 30b9 843d
00000070: 4a24 aabd bde4 cb3d 51c5 a1bc 9338 14bd
00000080: 1cd2 bc3d 18cf 49be 13f8 22be 9f95 5bbe
00000090: 4c07 9fbb 8bb7 5e3d 488b f13d ca28 0dbe
000000a0: b2df 01be a845 40bc 6002 953d 82ec a43d
000000b0: ff61 81bd a256 1a3c 7829 2e3d a155 aa3d
000000c0: fd52 2cbe f595 123d 7c12 15bd cccb e6bd
000000d0: 4f2c 0fbe 0411 323d 6a02 833d 8ee1 b13c
000000e0: 91b6 dbbc b148 5d3d ff1c 363e 7f46 163d
000000f0: 19c3 55bd f42c a4bd 7776 1b3d 0567 e7bd
00000100: a6a9 8ebc 67e1 8c3d 25aa 77bd bf97 a33d
00000110: 7fe5 4c3d 8050 ca3c 5f7c 013d 0ee3 62bd
00000120: 4e04 0fbe 6f82 993d 8340 c23c 0e0f cd3b
00000130: 6ead 0c3d 6626 82bd 5311 713b 2adc 6fbd
00000140: 6b72 82bd 6349 3abb 9433 793c 3f7b 3dbd
00000150: 8bf2 1ab9 9fac 86bd a9b0 abbc f8b8 db3b
00000160: 267f b1bc bd78 ffbb 747a cdbc 4428 163d
00000170: ecff 3c3b 1b71 91bc 5987 23bd 2896 86bd
00000180: f4c2 6e3d 0464 f5bc aa2e 123d c4d4 943c
00000190: a7d5 213e 2e33 053c 47fc 803c 319e 1b3e
000001a0: 2895 fbbd 07e0 383e 6dcb 51bc d511 96bd
000001b0: ec35 f9bc c134 e3bc 4933 b1bc cbb8 0abe
000001c0: 9622 c43d b5cd e7bd 2ad3 b1bd 2a69 3cbd
000001d0: a9dd 933d c991 b5bd 37ae 573d 992b 67bd
000001e0: 0ff0 7fbb b937 9c3c d7d4 383c 39e9 063c
000001f0: dde6 81bd 7fb1 003d c64f 8ebb 6666 26be

a2c_network.mu.bias f4 [4]
0.049531776 0.53815174 0.07321635 0.15943375
00000000: d5e1 4a3d 50c4 093f 74f2 953d 9a42 233e

exp_avg f4 [4]
-0.00094302295 0.00032512585 -0.00020249154 -0.0005066807
00000000: 3335 77ba a775 aa39 e953 54b9 c4d2 04ba

exp_avg_sq f4 [4]
2.0068615e-05 1.4594714e-05 2.2442933e-05 1.8444498e-05
00000000: 0659 a837 d2db 7437 d543 bc37 42b9 9a37

exp_avg f4 [32, 12]
-0.00070109376 -7.298182e-05 -0.0014795914 0.0008972444 0.00024951185 5.210603e-05 -0.008639331 -0.00079221616
-0.0003410159 -0.0025377597 0.0020782226 0.00063020794 0.00088051305 -0.0005413823 -0.00058795593 -0.0002109625
-0.0009309013 0.0005863793 0.01034845 0.00056278176 2.488784e-05 0.0019792316 -0.0007143202 0.0042849327
-0.001050107 -0.000110816065 -0.0009105191 0.0014422163 0.00034589926 0.00024437514 -0.009454954 0.0010564824
-9.478927e-05 -0.00291661 0.0032698854 -0.0006538178 -0.002040452 0.0009939794 -0.0013112165 -0.000947608
0.0010514428 -0.0018234097 -0.00854193 0.0035513858 -0.0012113259 -0.0026260389 0.0016659428 -0.006924198
-0.0002548558 0.00019790795 0.00081328285 -0.0012286594 -8.931927e-05 -0.0004240405 -0.0007318034 -0.000116768824
-0.00042035873 -0.0009278261 -0.00076249935 -0.00013552874 0.0008307524 -0.0009174649 0.0016352641 0.0013123845
-0.00020694021 0.0011559398 0.0014710602 -0.0025938053 0.0010389308 -0.0004944714 0.00012436943 0.003950751
-0.001112474 0.0007177146 -0.00093532586 -0.0020562287 0.00021964504 -0.0029433765 0.004649762 -0.0032605883
-0.0005782867 -0.002235649 -0.0001704658 0.0058756857 0.0007261661 0.000436772 -0.0016810839 -0.0011789508
0.00040119962 -0.001023035 0.0044283667 -1.0077249e-06 -0.00034510597 0.001997226 -0.0006969676 0.00046410674
0.0005472519 -0.00019643617 0.0019950469 -0.00041311127 0.000353663 -0.0011718451 0.010492461 -0.0014359663
0.00042596782 0.00075893884 -0.0011325773 0.0030282508 -0.0011754632 0.00096629356 0.0005716671 -0.002125757
0.00041797926 -0.002029036 0.00082506455 -0.0005360457 -0.0011881674 -0.00055972306 -0.0006010933 -0.003515464
0.00022174799 8.8447414e-05 0.001867983 -0.0010729651 -0.00065533083 0.00068538566 0.006403596 0.0014913599
-0.00047228494 0.002767045 -0.0008564488 0.0008309405 -0.0009066273 0.00085317524 -0.00055307633 -0.0016321391
0.00019584667 -0.0018014013 0.00061014993 -0.002365705 -0.00080043956 -0.0009141204 -0.0021532367 -0.00018405111
-9.171544e-05 -2.1674861e-05 -0.0007855771 -0.00027183877 -0.0007051051 -0.0010997942 0.00472294 -0.00414843
0.0008725429 -0.001858158 -0.0043239524 0.005935592 -0.0027288147 0.0013556338 -0.0028066267 -0.0017484978
0.0009772948 -0.0027996667 -0.0091126375 0.004111687 -0.0017666743 -0.0030979656 0.001876581 -0.012691003
-0.0006969078 0.00017578727 0.0007444683 -0.00056217494 0.0003890163 -0.002643786 0.00656008 -0.006223675
0.0005321244 -0.0017859688 -0.0041909823 0.0043034535 0.00094583584 0.00013425769 0.0007083336 -1.5975934e-06
-0.00042781842 0.0010518517 0.0013283205 -1.4394522e-05 0.00023255189 0.0029504693 0.00010035046 -0.00012580825
-0.0005499597 0.0001812408 0.001622085 -0.0016350858 -0.00048684966 2.3693405e-05 0.005406919 0.001974379
-0.00093030103 0.00081286824 0.00039150298 0.001691869 0.0003798824 0.0003220881 0.003719776 -0.0015522476
-0.0006013472 0.0017981445 -0.002333815 0.008200882 -0.00031389945 0.0029596982 0.0015528838 -0.0028511016
0.001476084 -0.0010874863 0.0015393258 0.0014492972 0.0004874726 -0.00088414387 0.016065033 -0.0023044213
0.001474039 0.000997809 -0.0025329844 0.002758039 -0.0022470204 0.00088629907 -0.0018144217 -0.001120626
0.0007150734 -0.0013868648 -0.010042151 0.0018691728 -0.0014149022 -0.0028474375 0.0031794154 -0.0049526202
-0.00034207042 -0.00017396743 -0.00036535383 0.00029374548 -0.00030023674 -0.00041416998 0.002818633 -0.0047973664
0.00021877475 -0.001489916 -0.003114601 0.004169594 -0.0013612094 0.00035759507 -0.000339167 -0.0011850626
00000000: 9bc9 37ba d10d 99b8 d9ee c1ba 0d35 6b3a
00000010: ead0 8239 6c8c 5a38 fb8b 0dbc baac 4fba
00000020: 61ca b2b9 8b50 26bb ca32 083b 8a34 253a
00000030: 3bd2 663a 8deb 0dba 0e21 1aba d135 5db9
00000040: bb07 74ba 40b7 193a 8c8c 293c a587 133a
00000050: 3bc6 d037 ffb5 013b 3841 3bba 9f68 8c3b
00000060: bea3 89ba ec65 e8b8 e7af 6eba c008 bd3a
00000070: d059 b539 7a1f 8039 f4e8 1abc ab79 8a3a
00000080: 9ac9 c6b8 9924 3fbb 934b 563b f864 2bba
00000090: 1bb9 05bb 6a48 823a 20dd abba e568 78ba
000000a0: 91d0 893a 7aff eeba 73f3 0bbc 5ebe 683b
000000b0: 5ac5 9eba 9f19 2cbb c45b da3a 62e4 e2bb
000000c0: 2b9e 85b9 8385 4f39 7d32 553a f80a a1ba
000000d0: eb50 bbb8 c151 deb9 7fd6 3fba c9e1 f4b8
000000e0: 9863 dcb9 5b39 73ba 77e2 47ba b81c 0eb9
000000f0: dac6 593a 0782 70ba 5c56 d63a 5104 ac3a
00000100: 17fe 58b9 e782 973a 97d0 c03a d5fc 29bb
00000110: bc2c 883a 6a9f 01ba 2a69 0239 4d75 813b
00000120: 6fd0 91ba 0325 3c3a a830 75ba cbc1 06bb
00000130: 8450 6639 aae5 40bb 085d 983b 98af 55bb
00000140: 2a98 17ba f783 12bb 11bf 32b9 d388 c03b
00000150: 2f5c 3e3a 8cfe e439 d157 dcba 0687 9aba
00000160: 1a58 d239 5c17 86ba d51b 913b 2a41 87b5
00000170: 57ef b4b9 e4e3 023b b4b4 36ba 5a53 f339
00000180: 7475 0f3a 6ffa 4db9 55bf 023b db96 d8b9
00000190: d86b b939 9998 99ba 92e8 2b3c 0937 bcba
000001a0: 6f54 df39 86f3 463a fd72 94ba 9e75 463b
000001b0: 0012 9aba dd4e 7d3a eedb 153a 4950 0bbb
000001c0: 3a24 db39 93f9 04bb 2549 583a 6b85 0cba
000001d0: 48bc 9bba 61ba 12ba b092 1dba b363 66bb
000001e0: 0685 6839 d87c b938 1cd7 f43a bca2 8cba
000001f0: 82ca 2bba 74ab 333a 42d5 d13b bc79 c33a
00000200: 039d f7b9 5057 353b 4e83 60ba 79d3 593a
00000210: baaa 6dba 9fa7 5f3a 53fc 10ba 80ed d5ba
00000220: 315c 4d39 ff1c ecba 78f2 1f3a f209 1bbb
00000230: 97d4 51ba 95a1 6fba 511d 0dbb d8fd 40b9
00000240: 5a57 c0b8 69d2 b5b7 30ef 4dba 9585 8eb9
00000250: cdd6 38ba f826 90ba e4c2 9a3b 8eef 87bb
00000260: 5dbb 643a 708d f3ba f1af 8dbb 5b7f c23b
00000270: ead5 32bb 86af b13a 62ef 37bb da2d e5ba
00000280: 9218 803a 9d7a 37bb 2c4d 15bc 55bb 863b
00000290: c18f e7ba 3d07 4bbb 9cf7 f53a eded 4fbc
000002a0: b1b0 36ba 8953 3839 6c28 433a ec5e 13ba
000002b0: e2f4 cb39 5e43 2dbb f1f5 d63b f8ef cbbb
000002c0: 447e 0b3a 2b17 eaba 8254 89bb fc03 8d3b
000002d0: f8f1 773a 86c7 0c39 77af 393a e46c d6b5
000002e0: d14c e0b9 49de 893a 0a1b ae3a 0080 71b7
000002f0: 2cd9 7339 a95c 413b 3e73 d238 65eb 03b9
00000300: 2c2b 10ba 750b 3e39 249c d43a 6050 d6ba
00000310: db3f ffb9 33c1 c637 862c b13b 9564 013b
00000320: 72df 73ba aa16 553a a442 cd39 b4c1 dd3a
00000330: f42a c739 efdd a839 7cc7 733b c974 cbba
00000340: baa3 1dba b8af eb3a ebf2 18bb fe5c 063c
00000350: df92 a4b9 7ff7 413b 228a cb3a 8cd9 3abb
00000360: 2979 c13a fc89 8eba 34c3 c93a 58f6 bd3a
00000370: 7793 ff39 e4c5 67ba d19a 833c c605 17bb
00000380: 8b34 c13a eac8 823a 6d00 26bb 37c0 343b
00000390: bf42 13bb 8656 683a e4d1 edba f8e1 92ba
000003a0: c373 3b3a 76c7 b5ba d687 24bc 08ff f43a
000003b0: 3d74 b9ba 139c 3abb bd5d 503b 9749 a2bb
000003c0: ea57 b3b9 076b 36b9 f68c bfb9 da01 9a39
000003d0: 1869 9db9 f424 d9b9 d1b8 383b 3a33 9dbb
000003e0: e666 6539 4949 c3ba 551e 4cbb 17a1 883b
000003f0: 9c6a b2ba 997b bb39 39d2 b1b9 1a54 9bba

exp_avg_sq f4 [32, 12]
9.085888e-05 2.3612206e-06 0.0005993124 4.3439786e-06 4.6825582e-05 8.4072104e-05 0.00027479464 0.00021041943
4.404218e-06 0.00015532022 0.00013787122 0.0002093091 0.00010974506 2.9808248e-06 0.00025740924 1.1625093e-05
3.982569e-05 7.563502e-05 0.0002653401 0.0002090159 5.5912537e-06 0.0001539898 0.00012073339 0.00027682484
0.0001240623 4.043799e-06 0.00095186365 1.7620303e-05 6.52187e-05 0.00011674602 0.00037838356 0.00028331784
7.362763e-06 0.00021415559 0.00022954163 0.00036264578 0.00012447307 3.6680112e-06 0.00059991085 3.387463e-05
5.180053e-05 9.374698e-05 0.00029607848 0.00022153235 1.3510077e-05 0.00016882853 0.0002282159 0.00043521827
2.5188383e-05 1.9894712e-06 0.00023321391 2.3302615e-05 9.443643e-06 2.6648135e-05 4.8472295e-05 3.8629503e-05
7.889432e-06 2.797198e-05 6.579187e-05 9.262188e-05 4.9200255e-05 8.891784e-06 0.0004105987 8.473676e-05
2.3773351e-05 4.641975e-05 0.000118078766 7.1075e-05 1.1087074e-05 8.330488e-05 0.00017704476 0.00023318555
0.00014090852 9.242932e-06 0.00070631434 6.2800624e-05 6.86268e-05 0.00013506896 0.00035619983 0.00031271487
1.0607196e-05 0.0002111033 0.00017054318 0.00040259183 3.2487136e-05 3.6573174e-06 0.00011735683 3.5372497e-05
1.4808227e-05 2.8466133e-05 8.352971e-05 6.0836857e-05 5.516927e-06 4.846022e-05 9.5786985e-05 0.000107090884
0.0001577374 4.660363e-06 0.0010200836 2.0397958e-05 8.586495e-05 0.00014935742 0.0005022363 0.0003584909
1.1712362e-05 0.0002726996 0.00019107225 0.0003123444 2.4971921e-05 2.5774384e-06 0.00037218182 2.5803765e-05
1.4831934e-05 2.8827057e-05 7.368055e-05 6.169201e-05 5.302793e-06 4.4163204e-05 6.1572464e-05 0.00017025945
6.179566e-05 3.5502787e-06 0.00023788903 2.4505436e-05 2.1356092e-05 4.6255263e-05 0.00014117012 0.000127337
5.2932633e-06 9.254123e-05 8.743984e-05 0.00014933504 3.593698e-05 4.7686603e-06 0.0006269026 3.9151782e-05
1.9989613e-05 4.3542022e-05 0.00010085617 8.79815e-05 6.676469e-06 7.1459086e-05 7.266792e-05 0.00022547331
0.00012982759 4.217329e-06 0.0012050883 1.9459509e-05 5.9919577e-05 0.00012910081 0.0003705212 0.00030485872
1.6966944e-05 0.00019214589 0.00016914059 0.00044408484 0.00020215513 6.838622e-06 0.0008924879 5.7337453e-05
8.288601e-05 0.00015316102 0.0004669969 0.00033531 2.2575827e-05 0.00025763627 0.00031272572 0.0006918934
0.00021030607 6.314056e-06 0.0031023135 2.4725658e-05 0.00013191052 0.0002468092 0.00072108407 0.000559076
1.906149e-05 0.00040384385 0.0003125779 0.00047763478 5.3381813e-05 2.7405442e-06 0.00046959415 2.0729054e-05
2.5391071e-05 5.6429282e-05 0.00013890589 0.00012982023 1.2173977e-05 7.802201e-05 0.00015758429 0.00017923159
4.589324e-05 5.7991115e-06 0.00018210284 5.4578173e-05 1.2256293e-05 4.056173e-05 8.382967e-05 6.716434e-05
1.2327206e-05 5.9753125e-05 0.00013023619 0.00025086515 0.00016331964 6.141759e-06 0.0014788768 5.5860524e-05
7.709787e-05 0.00014977087 0.00045649413 0.00040706198 1.2076763e-05 0.0002640139 0.00028674697 0.00047626704
0.0004053696 1.277187e-05 0.002387626 0.00011223227 0.00020904056 0.00037344405 0.0011703979 0.0008127079
4.1895197e-05 0.0006741503 0.0005805224 0.0006429018 0.00017837631 4.8473294e-06 0.001029996 3.3054734e-05
8.622895e-05 0.00015127944 0.00048645545 0.00035862045 1.1419403e-05 0.00027438137 0.0003248229 0.00048385182
6.63548e-05 2.3969876e-06 0.0010834823 1.6062788e-05 3.639684e-05 7.3689356e-05 0.00022436191 0.00018085609
7.3243327e-06 0.000114355724 0.00010890373 0.0002714891 0.00011985166 3.580595e-06 0.0009683606 3.5071916e-05
00000000: 7d8b be38 7675 1e36 2d1b 1d3a 7ec2 9136
00000010: 9666 4438 de4f b038 5012 9039 09a4 5c39
00000020: f2c7 9336 74dd 2239 8691 1039 fc79 5b39
00000030: ee26 e638 2e0a 4836 e2f4 8639 6509 4337
00000040: 820a 2738 3e9e 9e38 581d 8b39 472b 5b39
00000050: 819c bb36 5278 2139 3f32 fd38 cd22 9139
00000060: b816 0239 f8af 8736 7d86 793a 50cf 9337
00000070: 06c6 8838 8bd5 f438 c861 c639 478a 9439
00000080: a70d f736 f48e 6039 1db1 7039 7e21 be39
00000090: fc84 0239 f427 7636 5643 1d3a 9b14 0e38
000000a0: 6544 5938 079a c438 fb3a 9b39 234b 6839
000000b0: 57a9 6237 9007 3139 3d4d 6f39 022e e439
000000c0: a44b d337 db82 0536 e28a 7439 fc79 c337
000000d0: 2370 1e37 6f8a df37 bb4e 4b38 1d06 2238
000000e0: da5c 0437 5fa5 ea37 bef9 8938 fe3d c238
000000f0: 5f5c 4e38 ec2d 1537 a045 d739 b4b4 b138
00000100: e26c c737 d4b2 4238 0ea1 f738 1a0e 9538
00000110: 9f02 3a37 f8b3 ae38 17a5 3939 4583 7439
00000120: d8c0 1339 1712 1b37 f427 393a d4b3 8338
00000130: bceb 8f38 4ca1 0d39 55c0 ba39 e1f3 a339
00000140: 8ff5 3137 9c5b 5d39 d6d3 3239 f612 d339
00000150: cc42 0838 3c70 7536 781d f638 ee5c 1438
00000160: da70 7837 8eca ee37 ac2c af38 142b 7f38
00000170: 0b1e b936 c441 4b38 3fe1 c838 fb95 e038
00000180: 5066 2539 3760 9c36 53b4 853a 481c ab37
00000190: 6512 b438 d49c 1c39 82a8 033a d6f3 bb39
000001a0: 3680 4437 1ff9 8e39 915a 4839 28c2 a339
000001b0: cb7a d137 0ef8 2c36 6621 c339 2a75 d837
000001c0: acd6 7837 a2d1 f137 f284 9a38 a560 8138
000001d0: a5ee b136 e13b 3938 7720 8138 ac87 3239
000001e0: 4b98 8138 5341 6e36 da71 7939 0691 cd37
000001f0: dc25 b337 3602 4238 1107 1439 c485 0539
00000200: c99c b136 b212 c238 e85f b738 d296 1c39
00000210: 0abb 1638 7b02 a036 b956 243a e836 2438
00000220: 5eaf a737 e4a0 3638 be82 d338 b582 b838
00000230: 6f06 e036 4edc 9538 4b65 9838 086d 6c39
00000240: 5422 0839 9582 8d36 0ef4 9d3a fa3c a337
00000250: 2852 7b38 3c5f 0739 8342 c239 72d5 9f39
00000260: 3c54 8e37 c57a 4939 555b 3139 0fd4 e839
00000270: 9bf9 5339 5177 e536 d9f5 693a 9f7d 7038
00000280: 16d3 ad38 d999 2039 43d7 f439 8ccc af39
00000290: 3861 bd37 5b13 8739 56f5 a339 2e60 353a
000002a0: 9b85 5c39 54dd d336 2f50 4b3b f269 cf37
000002b0: 7651 0a39 2c66 8139 2207 3d3a f58e 123a
000002c0: 3de6 9f37 01bb d339 7fe1 a339 0e6b fa39
000002d0: 49e6 5f38 31ea 3736 dc33 f639 4ee3 ad37
000002e0: e9fe d437 7bae 6c38 44a7 1139 5a20 0839
000002f0: d53e 4c37 bf9f a338 363d 2539 1df0 3b39
00000300: 7e7d 4038 fd95 c236 dcf2 3e39 deea 6438
00000310: 61a0 4d37 d320 2a38 b6cd af38 95da 8c38
00000320: f2d0 4e37 6e9f 7a38 0390 0839 8d86 8339
00000330: c840 2b39 4f15 ce36 dfd6 c13a c84b 6a38
00000340: 9baf a138 d00b 1d39 9b55 ef39 ef6a d539
00000350: 4d9d 4a37 596b 8a39 8756 9639 7bb3 f939
00000360: c987 d439 c446 5637 b879 1c3b 3e5e eb38
00000370: e631 5b39 d0ca c339 0968 993a e70b 553a
00000380: a0b8 2f38 76b9 303a 332e 183a 6988 283a
00000390: 870a 3b39 3ea6 a236 ee00 873a 40a4 0a38
000003a0: d1d5 b438 c4a0 1e39 f20a ff39 3905 bc39
000003b0: f695 3f37 d8da 8f39 fe4c aa39 7ead fd39
000003c0: f627 8b38 efdb 2036 a203 8e3a 93be 8637
000003d0: cfa8 1838 ac89 9a38 b142 6b39 30a4 3d39
000003e0: 8ac3 f536 43d2 ef38 3f63 e438 a656 8e39
000003f0: df58 fb38 274a 7036 94d9 7d3a 2f1a 1338

exp_avg f4 [32]
-0.0071001346 0.01811977 -0.0065677813 -0.027637778 -0.005543754 0.0127776405 -0.017706204 -0.0039611934
0.00469275 -0.018786022 0.0078518465 -0.017839756 -0.002158253 -0.03624907 -0.010911787 0.006935504
0.0040004207 0.0024646837 0.017504169 -0.024660332 0.0002490814 -0.0145363165 0.00091636775 0.0058177984
0.034590904 -0.0010986956 0.004577567 0.005637696 0.010336769 0.0018232119 -0.019800182 -0.008755604
00000000: 3fa8 e8bb e96f 943c 8b36 d7bb 9f68 e2bc
00000010: 61a8 b5bb 4f59 513c 9a0c 91bc e6cc 81bb
00000020: a4c5 993b 25e5 99bc 08a5 003c ae24 92bc
00000030: 7a71 0dbb e879 14bd 5ac7 32bc 3943 e33b
00000040: f615 833b 8886 213b e764 8f3c 7704 cabc
00000050: 2497 8239 bb29 6ebc 6638 703a 3ba3 be3b
00000060: 31af 0d3d 1b02 90ba 6aff 953b 6cbc b83b
00000070: 8d5b 293c d7f8 ee3a fe33 a2bc aa73 0fbc

exp_avg_sq f4 [32]
0.0051722503 0.0051837545 0.0072740563 0.005923746 0.0017062401 0.002801468 0.00843847 0.001868916
0.009084644 0.0018553755 0.003080336 0.0028604397 0.0073470655 0.009671798 0.01393467 0.003483966
0.0028834944 0.008423753 0.021889362 0.009321846 0.0041924953 0.00681185 0.007794656 0.007620295
0.018406292 0.01239026 0.0052342806 0.004579587 0.007162507 0.0014963002 0.0019314081 0.0033202437
00000000: fb7b a93b 7cdc a93b 355b ee3b fc1b c23b
00000010: eba3 df3a d598 373b 8241 0a3c 6af6 f43a
00000020: c2d7 143c 1230 f33a 76df 493b 3776 3b3b
00000030: a7bf f03b 7676 1e3c 3e4e 643c 4053 643b
00000040: 02f9 3c3b c803 0a3c 5251 b33c a8ba 183c
00000050: 3361 893b f035 df3b 506a ff3b abb3 f93b
00000060: cbc8 963c 8400 4b3c 5484 ab3b 5c10 963b
00000070: 77b3 ea3b 811f c43a 4d27 fd3a 7298 593b

exp_avg f4 [32, 32]
0.00084377936 -0.0007270426 0.00021959927 -0.0011997696 0.0009258183 0.0005627456 -0.0015075995 -0.0009863346
5.0581704e-05 -0.0005344131 0.00027068783 0.00096098846 0.0010849292 -0.0004915992 0.00050349836 0.0017003318
0.0003885397 0.0015661386 0.00021498011 -0.00016149043 0.00075714296 -0.0005151869 -0.0032896842 -0.0013827186
0.00067096617 0.0015111794 0.00068892655 0.0016620588 0.0011561692 8.896068e-05 -0.00084247126 0.00039457917
-0.00038329346 0.00021838714 -0.00038027202 2.2956217e-06 3.7848924e-05 6.873465e-05 0.00033291915 0.00020477799
9.187269e-05 0.00027801684 2.2790842e-05 1.017926e-05 0.00027551464 0.00020065131 0.00011543636 -0.0004083478
-3.830927e-06 -0.0003671501 6.0274317e-05 -0.00012788818 0.00038055095 5.165698e-06 0.00046154033 0.00040569148
-5.6145276e-05 -0.00043918315 4.80425e-06 -0.00024568723 -0.00012413602 0.00044950275 0.00040452371 -0.0005341676
-0.001504383 0.00021037975 -0.001649757 0.003395181 -4.4656517e-05 0.00013895635 0.0022377104 0.0008567486
-3.6221843e-06 0.0021124387 -0.00050799595 0.00045588496 0.00020027351 0.0027353046 0.0008946657 -0.0029609154
-0.0015418463 -0.0019127284 -0.00022334873 5.6150096e-05 0.0009944596 0.0003746175 0.003945618 0.002628721
-0.0012358539 -0.0027913605 -0.00028823118 -0.0021312356 -0.001596012 0.00059802056 0.0020489984 -0.00081405614
0.0007445743 -0.00036931023 0.00095856964 0.0036088938 -0.0033545466 -0.0014760501 0.0031364337 -0.00028079998
-0.0018000412 0.00038109618 -0.0016543686 -0.0028454333 0.0017748594 0.0036236777 -0.0020438035 -0.0020197073
-0.0023891334 -0.0026735861 -0.0019959991 0.0021282183 0.0021428347 0.0037605544 0.006250041 0.0017325197
-0.0026093456 -0.001901117 -0.0035112593 -0.003259661 -0.0027255919 0.0023156093 0.001902937 0.0018519389
-0.00047776266 -0.0007196976 -0.00023706665 0.0016996906 -0.00041568236 -0.00039422436 0.0024337915 -0.0003683303
-0.001553037 0.0012408864 -0.0008944845 0.00015883673 0.0016545953 0.0026635814 0.00042944902 -0.0012518666
-0.0016916837 -0.0026261606 -0.001827778 0.0007024273 0.0021127418 0.0013567674 0.0020295396 0.0019561367
-0.001958782 -0.0020263277 -0.0013380017 -0.00229786 -0.0027656562 0.0022781582 0.0020745483 -0.0010821971
-0.0008041767 -0.0017322114 -0.0018162 5.819578e-06 0.0044791047 0.0020296862 -0.0031450924 1.2310213e-06
0.0039934088 0.00036249973 0.000603529 0.004481119 -0.0004656175 -0.0014020724 0.004302971 0.002022921
0.0010219715 0.0045622103 0.0046088286 -0.0020398633 -0.00082851 -0.0040151915 -0.009072754 -0.0020590574
0.0015116885 0.003043133 0.004909799 0.0043142135 0.0034890426 -0.0028624053 -0.0020753834 0.00027993732
0.0009187191 0.00093278935 0.0009991737 -0.0040329075 0.0006968057 0.00023524794 -0.003238157 -0.00079157687
0.00043684707 -0.00237313 0.0019795604 -0.00031860004 -0.0007311404 -0.0035108742 -0.001153024 0.0030105272
0.0021534075 0.0034881607 0.00067751046 -0.00078909146 -0.001465638 -0.0008413987 -0.0019187229 -0.0031977782
0.0025184012 0.0033163691 0.0008723602 0.003375879 0.003101092 -0.0011372089 -0.0026201888 0.0007280321
0.0017443851 0.0018407102 0.0024469025 -0.006095186 -0.001446004 -0.00084447983 -0.0026167873 -0.0015046903
-0.0017528749 -0.0039422866 0.0021355902 -0.0028933089 -0.0014449006 -0.004893437 -0.0036548842 0.0037307555
0.0022452716 0.0030344692 -0.0017307047 -3.5786722e-06 -0.0028837333 0.0008426122 0.00053866307 -0.0038559001
0.0027796845 0.0031037333 -0.0015658729 0.003475857 0.0029553876 -0.0011702775 -0.0029881524 0.001020084
00000000: 1331 5d3a 0197 3eba 3b44 6639 9641 9dba
00000010: 9db2 723a 3885 133a a59a c5ba e647 81ba
00000020: b127 5438 db17 0cba 1beb 8d39 d8ea 7b3a
00000030: 2f34 8e3a aade 00ba 34fd 033a abdd de3a
00000040: eab4 cb39 e446 cd3a 496c 6139 c255 29b9
00000050: 017b 463a 9c0d 07ba be97 57bb 563c b5ba
00000060: c7e3 2f3a c412 c63a 1499 343a 70d9 d93a
00000070: 9a8a 973a 6790 ba38 4ad9 5cba 85df ce39
00000080: c7f4 c8b9 dafe 6439 3f5f c7b9 7b0e 1a36
00000090: f9bf 1e38 a225 9038 a78b ae39 acb9 5639
000000a0: c6ab c038 cac2 9139 f62e bf37 97c7 2a37
000000b0: f372 9039 ed65 5239 6d16 f238 8417 d6b9
000000c0: 6a8b 80b6 0d7e c0b9 0ecf 7c38 b919 06b9
000000d0: af84 c739 0255 ad36 e5fa f139 fdb2 d439
000000e0: 887d 6bb8 2a42 e6b9 3134 a136 95cf 80b9
000000f0: 822a 02b9 3dab eb39 4116 d439 6107 0cba
00000100: b82e c5ba 6299 5c39 a93c d8ba af81 5e3b
00000110: 924d 3bb8 d0b4 1139 8da6 123b 6d97 603a
00000120: a714 73b6 d770 0a3b 082b 05ba d803 ef39
00000130: 8300 5239 cc42 333b 0088 6a3a eb0b 42bb
00000140: c717 caba 84b4 faba b832 6ab9 b582 6b38
00000150: 8758 823a 4f68 c439 3e4a 813b 9f46 2c3b
00000160: 60fc a1ba 42ef 36bb bc1d 97b9 33ac 0bbb
00000170: 4731 d1ba 7bc4 1c3a 7d48 063b 6266 55ba
00000180: 892f 433a fb9f c1b9 8548 7b3a 3183 6c3b
00000190: f4d7 5bbb 0678 c1ba a08c 4d3b 5638 93b9
000001a0: 5cef ebba ddcd c739 66d7 d8ba 737a 3abb
000001b0: 66a2 e83a 397b 6d3b 55f1 05bb 115d 04bb
000001c0: 0293 1cbb 5537 2fbb 4fcf 02bb 9479 0b3b
000001d0: cd6e 0c3b a273 763b 25cd cc3b b715 e33a
000001e0: 8e01 2bbb e72e f9ba 281d 66bb 09a0 55bb
000001f0: d89f 32bb 7ac1 173b f86b f93a c2bc f23a
00000200: 387c fab9 17aa 3cba 1895 78b9 27c8 de3a
00000210: f1ef d9b9 e6af ceb9 3f80 1f3b 751c c1b9
00000220: 468f cbba 3da5 a23a d77b 6aba 698d 2639
00000230: 01df d83a 7b8f 2e3b ac27 e139 ac15 a4ba
00000240: 7cbb ddba aa1b 2cbb 0d92 efba 1923 383a
00000250: ed75 0a3b 8fd5 b13a 0602 053b 8732 003b
00000260: e95e 00bb 23cc 04bb e35f afba b297 16bb
00000270: 0340 35bb 274d 153b 25f5 073b 82d8 8dba
00000280: 63cf 52ba 5f0b e3ba 8f0d eeba cb45 c336
00000290: 74c5 923b 7c04 053b e51d 4ebb 9239 a535
000002a0: 24db 823b e40d be39 2536 1e3a 5ad6 923b
000002b0: 1f1e f4b9 bec5 b7ba f0ff 8c3b fc92 043b
000002c0: acf3 853a 987e 953b a805 973b 3aaf 05bb
000002d0: 5d30 59ba de91 83bb e3a5 14bc 40f1 06bb
000002e0: d923 c63a 4d6f 473b 61e2 a03b 3f5e 8d3b
000002f0: 6ca8 643b 3197 3bbb 2803 08bb 8dc4 9239
00000300: 32d6 703a 6f86 743a b5f6 823a 7b26 84bb
00000310: d7a9 363a e3ac 7639 4237 54bb d381 4fba
00000320: 9f08 e539 8486 1bbb 83bb 013b c609 a7b9
00000330: 00aa 3fba b216 66bb 1121 97ba 444c 453b
00000340: 2f20 0d3b a099 643b f59a 313a 08db 4eba
00000350: a71a c0ba 5091 5cba a87d fbba d191 51bb
00000360: c30b 253b 7157 593b 1aaf 643a da3d 5d3b
00000370: b13b 4b3b 660e 95ba 79b7 2bbb 68d9 3e3a
00000380: daa3 e43a fc43 f13a 365c 203b 20ba c7bb
00000390: d887 bdba 1560 5dba 687e 2bbb 0739 c5ba
000003a0: b9c0 e5ba 4c2e 81bb 42f5 0b3b ab9d 3dbb
000003b0: d262 bdba 2059 a0bb c886 6fbb b17f 743b
000003c0: 6825 133b f2dd 463b d0d8 e2ba 1f29 70b6
000003d0: 04fd 3cbb bfe2 5c3a 1135 0d3a 45b3 7cbb
000003e0: 5e2b 363b 0168 4b3b fa3d cdba 34cb 633b
000003f0: 2daf 413b ff63 99ba e1d4 43bb 57b4 853a

exp_avg_sq f4 [32, 32]
5.8242924e-05 8.737259e-05 4.7542617e-05 9.672965e-05 4.03565e-05 1.8426352e-05 4.8446807e-05 3.2387845e-05
5.2699266e-05 1.4275125e-05 5.8556674e-05 4.146871e-05 6.67338e-05 4.1672305e-05 3.4812318e-05 3.092884e-05
5.398349e-05 5.789688e-05 6.04801e-05 4.8779184e-05 5.869404e-05 3.1093736e-05 0.0002930427 1.6160498e-05
5.631156e-05 2.1310183e-05 4.0382718e-05 3.9252795e-05 7.4549025e-05 5.6652974e-05 1.944555e-05 4.5911096e-05
1.8031286e-06 2.0515815e-06 1.4868833e-06 4.405891e-06 1.6968888e-06 6.629201e-07 1.9093227e-06 1.2318084e-06
2.5914817e-06 1.1312256e-06 1.3966829e-06 2.3146654e-06 2.3167431e-06 2.311617e-06 2.3759712e-06 1.0878285e-06
1.6314874e-06 1.6743159e-06 2.975298e-06 1.5638141e-06 2.2708641e-06 1.2165119e-06 6.2920294e-06 1.0295153e-06
1.4374701e-06 9.203066e-07 1.999076e-06 1.2173871e-06 1.9346787e-06 1.9423637e-06 9.1252514e-07 1.611509e-06
4.725534e-05 4.2348885e-05 4.0688814e-05 0.0001617365 5.6515368e-05 1.7629987e-05 6.164135e-05 3.505643e-05
6.802265e-05 4.079973e-05 1.9119358e-05 7.434226e-05 5.4850658e-05 8.1383645e-05 7.300108e-05 4.2312804e-05
3.9553717e-05 2.545477e-05 7.641871e-05 4.3643253e-05 5.6024062e-05 3.4791385e-05 0.00012706526 3.8415303e-05
2.7570135e-05 3.0186397e-05 5.5403852e-05 3.0721836e-05 3.6589932e-05 4.379186e-05 2.50127e-05 3.991041e-05
0.00015552684 0.00037704446 0.00013704853 0.00013773888 0.00014144054 4.561661e-05 0.00013402643 8.264565e-05
0.00014888319 5.864637e-05 0.00030190172 0.00019237808 0.00026430108 9.702547e-05 0.00016419553 8.5638465e-05
0.00017036032 0.00025426605 0.00017171132 0.000136748 0.0002619747 9.081544e-05 0.0017532606 5.1837396e-05
0.00026866846 4.9063536e-05 0.00011859962 0.00017249217 0.00033749535 0.00021172588 7.71536e-05 0.00011867102
8.407135e-05 7.728514e-05 6.914059e-05 0.00019595274 7.4551615e-05 3.1748346e-05 7.8705445e-05 3.898027e-05
7.071865e-05 2.9747884e-05 6.516523e-05 8.306761e-05 0.000110818546 9.5588206e-05 6.91776e-05 3.8017508e-05
7.1452356e-05 9.254008e-05 7.725574e-05 7.1830305e-05 0.00010276433 4.812808e-05 0.00024371142 2.717591e-05
5.6177858e-05 3.7228077e-05 6.748729e-05 5.8524376e-05 8.430244e-05 9.719727e-05 3.4473505e-05 7.540903e-05
0.00057059556 0.0011181188 0.00048292318 0.0011345887 0.00044679796 0.00020901776 0.0004917408 0.00032421172
0.0004995323 0.00013450389 0.0007461398 0.00047997956 0.00076117436 0.00048037808 0.0003979567 0.00027369385
0.0006871121 0.0007305876 0.0005664126 0.0004856548 0.000708518 0.00029272537 0.003914268 0.0001493129
0.00072490174 0.0002106072 0.0003757344 0.0004858374 0.00095213455 0.0006900683 0.00023085883 0.0005955691
7.272939e-05 0.0001055991 5.843244e-05 0.00013421477 6.2519604e-05 1.8092702e-05 8.800558e-05 4.1073894e-05
9.499647e-05 5.378037e-05 8.685077e-05 0.00010276563 9.445524e-05 9.380392e-05 0.000106555526 4.9050566e-05
5.5467244e-05 7.729125e-05 0.000110852416 6.588695e-05 9.034163e-05 4.48584e-05 0.00037264754 4.737655e-05
8.634102e-05 3.1756997e-05 7.596457e-05 6.0654205e-05 0.00010700045 5.9337777e-05 3.7906804e-05 2.0649368e-05
7.586189e-05 8.6198306e-05 6.216273e-05 0.00034037814 0.00012000823 2.7832242e-05 0.00010628536 9.21859e-05
0.0002202504 0.00013009431 4.6229077e-05 0.00024730395 0.00012943272 0.00021270264 0.00025862025 7.673551e-05
8.322205e-05 5.6969682e-05 0.00026079066 6.034725e-05 0.00013851977 5.5510023e-05 0.00011060078 9.3603994e-05
7.209088e-05 5.8912752e-05 0.0001532513 5.1707397e-05 8.344326e-05 7.584031e-05 5.8882648e-05 5.4859618e-05
00000000: dd49 7438 cd3b b738 7f68 4738 56db ca38
00000010: 7644 2938 4a92 9a37 5d33 4b38 2fd8 0738
00000020: 6809 5d38 327f 6f37 c09a 7538 b0ee 2d38
00000030: 70f3 8b38 4cc9 2e38 7103 1238 97b9 0138
00000040: 556c 6238 4dd6 7238 03ac 7d38 4098 4c38
00000050: 3f2e 7638 a56a 0238 87a3 9939 6890 8737
00000060: 1430 6c38 45c3 b237 9d60 2938 5ea3 2438
00000070: 3457 9c38 ab9e 6d38 001f a337 aa90 4038
00000080: 0703 f235 e7ad 0936 ec90 c735 51d6 9336
00000090: a8c0 e335 86f3 3135 ea21 0036 9d54 a535
000000a0: 51e9 2d36 9ed4 9735 a975 bb35 a655 1b36
000000b0: 5879 1b36 4721 1b36 e072 1f36 8101 9235
000000c0: 7bf9 da35 0eb9 e035 3bab 4736 3ee4 d135
000000d0: 2665 1836 0847 a335 1f20 d336 e02d 8a35
000000e0: 19ef c035 fd0a 7735 dd27 0636 1a65 a335
000000f0: 87d5 0136 8e59 0236 40f4 7435 074b d835
00000100: 0934 4638 c59f 3138 48a9 2a38 d097 2939
00000110: ea0a 6d38 1ce4 9337 7345 8138 8e09 1338
00000120: 62a7 8e38 6020 2b38 8262 a037 32e8 9b38
00000130: 720f 6638 83ac aa38 2818 9938 0779 3138
00000140: 7be6 2538 b487 d537 fc42 a038 960d 3738
00000150: 61fb 6a38 f7ec 1138 d23c 0539 1e20 2138
00000160: 6a46 e737 cb38 fd37 6f61 6838 52db 0038
00000170: 2478 1938 27ad 3738 5dd2 d137 7a65 2738
00000180: eb14 2339 0dae c539 afb4 0f39 006e 1039
00000190: a84f 1439 7654 3f38 7289 0c39 0c52 ad38
000001a0: 871d 1c39 0ffb 7538 9048 9e39 19b9 4939
000001b0: e491 8a39 277a cb38 e72b 2c39 cd98 b338
000001c0: c0a2 3239 034f 8539 680d 3439 0364 0f39
000001d0: a659 8939 2b74 be38 aacd e53a fb6b 5938
000001e0: 12dc 8c39 92c9 4d38 b0b8 f838 04df 3439
000001f0: dcf1 b039 bc02 5e39 86cd a138 05df f838
00000200: 764f b038 2514 a238 92ff 9038 aa78 4d39
00000210: 9858 9c38 8729 0538 aa0e a538 bf7e 2338
00000220: c94e 9438 188b f937 51a9 8838 9534 ae38
00000230: 4167 e838 8776 c838 7113 9138 fd74 1f38
00000240: b1d8 9538 1412 c238 5c04 a238 9aa3 9638
00000250: 2e83 d738 22dd 4938 c98c 7f39 d3f7 e337
00000260: 84a0 6b38 5825 1c38 f787 8d38 1278 7538
00000270: 87cb b038 63d6 cb38 a597 1038 ea24 9e38
00000280: 0594 153a d78d 923a da30 fd39 7bb6 943a
00000290: 3540 ea39 c72b 5b39 2be8 003a f6fa a939
000002a0: 0cf3 023a 9d09 0d39 9898 433a c4a5 fb39
000002b0: 8c89 473a 41db fb39 d8a4 d039 917e 8f39
000002c0: 501f 343a e784 3f3a 4e7b 143a 7c9f fe39
000002d0: d7bb 393a ef78 9939 4343 803b e090 1c39
000002e0: 5507 3e3a 71d6 5c39 38fe c439 feb7 fe39
000002f0: ab98 793a b3e5 343a b212 7239 f71f 1c3a
00000300: 4b86 9838 1675 dd38 5b15 7538 01bc 0c39
00000310: f51c 8338 c8c5 9737 a38f b838 c246 2c38
00000320: d738 c738 3c92 6138 a723 b638 e183 d738
00000330: 4516 c638 99b8 c438 9076 df38 a5bb 4d38
00000340: 80a5 6838 6d17 a238 7079 e838 c92c 8a38
00000350: cb75 bd38 5726 3c38 e85f c339 2fb6 4638
00000360: fb11 b538 d132 0538 2b4f 9f38 f566 7e38
00000370: 6e65 e038 74e1 7838 1ffe 1e38 2e38 ad37
00000380: 0b18 9f38 5dc5 b438 5d5d 8238 c874 b239
00000390: eeac fb38 4979 e937 85e5 de38 ee53 c138
000003a0: 04f3 6639 ed69 0839 18e6 4138 93a8 8139
000003b0: 55b8 0739 ee08 5f39 6c97 8739 10ed a038
000003c0: 7f87 ae38 bbf2 6e38 bbba 8839 5e1d 7d38
000003d0: 9e3f 1139 6fd3 6838 57f2 e738 434d c438
000003e0: 7f2f 9738 1619 7738 15b2 2039 65e0 5838
000003f0: 42fe ae38 750c 9f38 c3f8 7638 1119 6638

exp_avg f4 [32]
-0.0023349153 0.00025025877 0.004833761 0.005683397 0.0019654746 -0.0027118742 -0.0044990648 -0.0057740896
0.001446468 0.007377897 0.0014559415 -0.0018791062 0.006598909 0.00035719606 -0.00031969414 -0.0059486544
0.00025303647 -0.0033710387 0.0046919007 0.0040260535 0.004830369 0.004717006 -0.008528413 0.0022553431
0.003331101 0.0014737005 -0.005374287 -0.011012831 0.0014683584 0.004796748 0.0011848195 -0.002536902
00000000: 6105 19bb 2a35 8339 8764 9e3b ca3b ba3b
00000010: 31cf 003b b3b9 31bb e46c 93bb 9334 bdbb
00000020: 6a97 bd3a 49c2 f13b 4ad5 be3a 574c f6ba
00000030: a93b d83b 0b46 bb39 9f9c a7b9 eeec c2bb
00000040: fba9 8439 a5ec 5cbb 84be 993b fcec 833b
00000050: 1248 9e3b 1d91 9a3b c2ba 0bbc 61ce 133b
00000060: 9a4e 5a3b 2f29 c13a c91a b0bb 296f 34bc
00000070: ef75 c03a 0a2e 9d3b f24b 9b3a 2742 26bb

exp_avg_sq f4 [32]
0.00020301367 6.2444146e-06 0.00017653982 0.0006027176 0.00035113518 0.0024517816 0.00017681184 0.00020746383
2.016604e-05 0.0011410046 5.1060564e-05 5.9522125e-05 0.001043708 1.1855627e-06 2.4927024e-07 0.00031332535
4.7651276e-05 0.00022966722 0.00041970526 0.0006859997 0.00025601697 0.0007829543 0.0011108975 7.144244e-05
0.00015137705 2.4753846e-05 0.00024504948 0.001679509 0.00035594744 0.00031604205 1.8929979e-05 0.0006572589
00000000: 11e0 5439 1d87 d136 8c1d 3939 b2ff 1d3a
00000010: 9118 b839 12ae 203b 9166 3939 a68a 5939
00000020: 3e2a a937 c38d 953a dd29 5638 65a7 7938
00000030: 07cd 883a a01f 9f35 71d3 8534 d145 a439
00000040: 2bdd 4738 d3d2 7039 e30b dc39 a9d4 333a
00000050: 043a 8639 2c3f 4d3a 899b 913a 5ed3 9538
00000060: f8ba 1e39 7ba6 cf37 fc79 8039 f822 dc3a
00000070: 759e ba39 72b2 a539 d2cb 9e37 e64b 2c3a

exp_avg f4 [1, 32]
-0.0034666979 0.00030987748 -0.013994963 -0.0006882693 0.0035696425 -0.011585932 -0.027257403 -0.007708453
0.0010486888 0.007169383 0.0060282117 -0.004567983 -0.061630018 0.001105166 0.00082363276 -0.030347303
0.013213951 -0.0054278104 -0.007835222 -0.0039846343 -0.008028036 0.031268395 -0.021555498 0.0006473128
-0.0054470142 0.0037654506 -0.027834643 -0.047314104 0.0065518213 -0.0061024143 0.0017272241 0.0050566085
00000000: 8a31 63bb 0d77 a239 214b 65bc f96c 34ba
00000010: aaf0 693b ecd2 3dbc eb4a dfbc 3197 fcbb
00000020: 2874 893a 25ed ea3b 4e88 c53b 05af 95bb
00000030: c26f 7cbd 38db 903a 0fe9 573a e89a f8bc
00000040: 547f 583c c6db b1bb 4e5f 00bc 8991 82bb
00000050: 0688 03bc 4a13 003d 2895 b0bc 6db0 293a
00000060: de7c b2bb c7c5 763b 7a05 e4bc 6fcc 41bd
00000070: a9b0 d63b c3f6 c7bb 0664 e23a e8b1 a53b

exp_avg_sq f4 [1, 32]
0.0037066126 5.7248268e-05 0.0014866614 0.01120794 0.00074705674 0.07831017 0.007136688 0.008660967
0.00028395987 0.07128493 0.00051228696 0.0010714201 0.051946737 2.340097e-05 2.804676e-06 0.0092163095
0.0034895837 0.002740274 0.008061451 0.012686903 0.0007841784 0.07018648 0.013920824 0.00039576378
0.00042114168 0.0004312347 0.009148985 0.06257456 0.0033362494 0.0004760752 0.00012774143 0.050039407
00000000: a4ea 723b dc1d 7038 14dc c23a 82a1 373c
00000010: 21d6 433a 1561 a03d e1da e93b bbe6 0d3c
00000020: 73e0 9439 d5fd 913d ff4a 063a e56e 8c3a
00000030: 1ac6 543d 334d c437 f737 3c36 0100 173c
00000040: 80b1 643b 2b96 333b 2d14 043c badc 4f3c
00000050: 5291 4d3a eebd 8f3d 2b14 643c 847e cf39
00000060: aecc dc39 5717 e239 a0e5 153c 1727 803d
00000070: faa4 5a3b bb99 f939 54f2 0539 1ff6 4c3d
