source/isaaclab_tasks/isaaclab_tasks/manager_based/klask/model_history_10_interval_0.02_delay_0.0_with_states.pt (torch, 52252 bytes, 8 tensors)

fc1.weight f4 [64, 56]
00000000: 316b 88bd 3e36 febc d9d9 0cbc 55e1 813b
00000010: 7715 b63d 93ed bb3d 45fc 86bd 30a3 103b
00000020: fb67 b7bd 869c 443d 5591 1bbe 2fb0 9e3d
00000030: c955 553d 811c a63d 215f 35bb c7f3 f5bd
00000040: fceb d23d a5c9 043d 180a 1f3e 7dca d63c
00000050: 5234 3e3d 4997 dbbc c075 fbbd af85 9b3e
00000060: 79e6 04be 0303 85bd 6542 10bc c63e 463e
00000070: a870 0a3d 0457 b4bd f24a 693c 386e a9bc
00000080: 3589 c0bb 5822 053e bbd5 933c 7f92 e73c
00000090: 2b4a 0a3d 52d4 893c a06d 48be c282 893d
000000a0: ca9c aabd 1cea ef3d faba 0ebe 23a4 983c
000000b0: cdb1 d93c 1d75 fd3b 697e e83d 72b8 e93d
000000c0: 6a7d f73c 953f 9a3d b038 e939 5920 c9bc
000000d0: a44f f23d ea89 2a3d d88b 0abe 9e35 013d
000000e0: b54c 053e 98e1 be3d 632e 82bc f720 05be
000000f0: 8063 babd eeb4 ee3c dd75 ec3b 0382 f639
00000100: 6639 a5bd 00e5 dc3d 0458 3e3d edb3 1c3d
00000110: ffda 74bd 8ea8 8abd 9347 c23d b795 e93d
00000120: 8b70 d43d c40d b6bd 760c bebd 9bc9 a53c
00000130: a74f 763e 4e50 9b3d 2b74 ad3e 736c 92bd
00000140: aae9 42bd 0c6d 073e 041a ea3d 55d1 5bbd
00000150: 8f72 44bd a461 673d 621d fc3d 764f 273d
00000160: 6d56 47be 3ece 053e 1a73 923a a5b2 693d
00000170: 16e3 293c 78f8 403d d152 a5bc 8ac1 a8bd
00000180: cae2 313d f570 eebd 95e1 9c3d 12fd 1fbd
00000190: 3db7 60bd 919a 59bd 237f 823d 5ecf 5d3d
000001a0: 83fe 2bbe e2c4 39bd 60c6 603d dcd3 fb3d
000001b0: 4fd9 4e3d d1c1 9cbd 6181 0dbd fe55 3d3d
000001c0: 464f 38bd f011 b3bd fa97 083d 1e8f 1abd
000001d0: f109 d3bc 6866 023e ec93 acbc 1a5f 4fbd
000001e0: e6b0 a33d adef dcbd d8ae b83d 4265 bbbb
000001f0: 80dc 553c 19db 87bc 5a11 083d e670 0a3d
00000200: cf48 0d3b 4b69 e23d ca40 28bd 7151 25bc
00000210: 0328 05bd 8b46 d13d 41d8 00be 73f6 743e
00000220: 5a5b c73b bb15 6a3d 97fb 573d 30f2 2e3e
00000230: 26b0 353e e578 8c3d 44e6 58bd b2e8 b13d
00000240: 1189 0fbd 8358 28bd 3b0f 0c3d 7a6e 8bbd
00000250: 7183 42bd 4e8a ca3d 71b2 393d 737e a8bc
00000260: 114d 2a3e ea87 2a3b b774 bebd 66ff 4dbe
00000270: a1a1 ef3d bafb 55bd 589e 003e 815d 6d3c
00000280: 7569 533e 4aca c53d 0053 6abd d9ef 49bd
00000290: 6b36 04bd 7717 ad3d c34f bcbd 3283 09be
000002a0: 5000 dfbc 3a5c c03d 8a0a e1bd 4b5f 153d
000002b0: 82cd 9eba 1ae2 97bd 038e 833d 96eb 8a3c
000002c0: 83aa b43d 2565 b6bd a498 94bd 9161 febc
000002d0: c7c4 903d 9556 7d3c ea85 2b3d dd67 ab3d
000002e0: 87be 9b3d ee93 2d3d e76c 0ebe 0046 94bd
000002f0: 1ee2 11be bc4d fabd e7f9 8fbe a55d e63d
00000300: c293 56bd d346 55bc e168 2abe 0716 fe3d
00000310: a6ac edbc 4115 013d a987 3b3d acd0 43bd
00000320: feb4 7d3c bd22 e63c 8878 a6bd 4733 9abd
00000330: 03ec 72bd f2c1 e0bc bce8 1d3c 6ce0 0e3e
00000340: 3845 3d3e 170f d4bd e0a9 57bd b7be 98bd
00000350: d7fc e23d d946 5fbd 14bc f93d bf53 fd3c
00000360: 46b5 7e3d 4cf8 053e c4ba 973d 9327 c33d
00000370: 8f66 3abd 725d b2bd 1085 453d 87b1 4fbc
00000380: ff80 553d 95d2 05be 1d6a 9d3d 70ba ac3d
00000390: d70b 35bd 94cc 15be 4687 84bd d6cb b73d
000003a0: b519 e9bd bdf8 1a3c 3467 6b3d 0b97 d23b
000003b0: 9725 8fbd 7462 0abd c52b 463d 5e61 9b3d
000003c0: 4ee3 c13c 2c6a dfbd 8fed 563a 9038 fc3d
000003d0: 2e33 32be c4d7 b73d 8715 83be 8a06 3c3e
000003e0: 8eaa 363e 2352 df3d 9165 4cbd e591 253e
000003f0: dfbb 0b3d 1418 5d3d 53d2 343d 0f38 b2bd
-0.0666107 -0.031031724 -0.008596861 0.0039636292 0.08890813 0.09176173 -0.06591085 0.0022069924
-0.089553796 0.048000835 -0.15192159 0.07748448 0.052083764 0.081109054 -0.002767511 -0.120093875
0.10298917 0.032418866 0.15531194 0.0262196 0.046436615 -0.026805537 -0.122783184 0.3037543
-0.12978543 -0.06494715 -0.008804892 0.19359884 0.033798844 -0.088056594 0.01423906 -0.02068244
-0.0058757314 0.13001382 0.01804625 0.028268097 0.03376214 0.016824875 -0.19573069 0.06714393
-0.083306864 0.11714575 -0.13938513 0.018632954 0.02657404 0.0077349083 0.11352236 0.11412133
0.03021117 0.075316586 0.0004448346 -0.024551557 0.118315965 0.04163543 -0.13529909 0.031545274
0.13017543 0.09320372 -0.01589126 -0.13000856 -0.09101009 0.029139008 0.007216199 0.00047017643
-0.080675885 0.10785866 0.046470657 0.038257528 -0.059779163 -0.067704305 0.09486308 0.11405509
0.10373028 -0.08889344 -0.092797205 0.020237735 0.24053822 0.07583676 0.33877692 -0.07149591
-0.04758612 0.13225192 0.11430743 -0.05366643 -0.047960814 0.0564896 0.12310292 0.040847264
-0.19466563 0.13066956 0.0011173219 0.057055134 0.010369083 0.04711196 -0.020181092 -0.0824004
0.043429174 -0.116426386 0.07660214 -0.039059706 -0.05486225 -0.05312592 0.06371906 0.05415284
-0.16796307 -0.045353778 0.054876685 0.12296268 0.05050021 -0.07654155 -0.034547213 0.046224587
-0.044997476 -0.08743656 0.03334806 -0.037734143 -0.025761576 0.12734377 -0.021066628 -0.050627805
0.07992725 -0.10787902 0.09017724 -0.005718858 0.01305306 -0.016583966 0.033219673 0.033799075
0.002155829 0.11055239 -0.041077413 -0.010090218 -0.03250886 0.10218533 -0.12582494 0.23922138
0.006083888 0.05714963 0.05273017 0.17084575 0.17742977 0.06858996 -0.052953973 0.08686961
-0.035042826 -0.041100036 0.034194212 -0.06808181 -0.047488634 0.09889661 0.04533619 -0.020568108
0.16630961 0.0026020953 -0.09299605 -0.20116958 0.1170075 -0.05224202 0.12560403 0.014487625
0.20645697 0.09657724 -0.05720806 -0.049301002 -0.03227846 0.08451741 -0.09194901 -0.13428953
-0.027221829 0.09392591 -0.10988338 0.03646783 -0.001211569 -0.07416172 0.06423571 0.01695804
0.08821585 -0.089060105 -0.072556764 -0.031052383 0.07068782 0.015462537 0.041875757 0.0836942
0.076046996 0.042377405 -0.1390873 -0.07239914 -0.14246413 -0.12221858 -0.28120348 0.1124833
-0.052387007 -0.013017374 -0.1664157 0.12406545 -0.02901299 0.03151441 0.045783672 -0.047806427
0.015485046 0.028092736 -0.08128458 -0.075293116 -0.05930711 -0.02743623 0.009638008 0.13952798
0.18483436 -0.10354441 -0.05265224 -0.07458251 0.110833816 -0.054510925 0.12194076 0.030923722
0.062184595 0.13082999 0.074086696 0.095290326 -0.045507964 -0.087092295 0.0482226 -0.012676603
0.052124973 -0.13068612 0.07686255 0.08433998 -0.044200744 -0.14628822 -0.06471114 0.089744255
-0.11381856 0.009458718 0.05747147 0.006426697 -0.069895916 -0.0337853 0.048381586 0.07586931
0.023667958 -0.109089226 0.0008198851 0.12315476 -0.17402336 0.08976701 -0.25602362 0.1836187
0.17838499 0.10904338 -0.04990155 0.16168936 0.034114715 0.05397804 0.044145893 -0.087020986

fc1.bias f4 [64]
00000000: 4d27 10be 6594 bbbd 5ace 5e3d ff9e 87bc
00000010: 1579 9b3c 5f66 d1bc 0835 a53d 2806 b2bc
00000020: 9bef 2fbe c64a f53b e228 69bd 54f0 973c
00000030: 3ef2 4dbb 8ae5 16bd 66a1 c5bd 3dbb 163c
00000040: 8521 11be 158a 583d aea4 86bd 5ae4 e53c
00000050: be24 87bd 6ace bebc 4e75 e9bd 61db b5bd
00000060: 45cc 64bd 7f81 4abb b7ef d6bd 3d12 debd
00000070: 8224 ccbc 8b20 fb3d d61c 39bd 5966 85bb
00000080: eb3b 43bc 6847 d93d 49d5 47bd 1ab2 01bd
00000090: 8b69 9abd 4a7c b13d 3ce0 abbc 8c9c 293c
000000a0: ae24 be3c 1a67 a7bd ed48 ccbd 09f8 a63d
000000b0: 784a 61bd 8206 5bbd 70bb fd3c 1d8c cfbd
000000c0: 8255 22bc 708b 25be fa59 2b3d 895a 11be
000000d0: 56fa 133d f3a7 9a3d 08f6 a9bd 6431 f0bd
000000e0: 2b17 89bd ecd8 f0bc 302c 8cbb 51d6 53bd
000000f0: 4419 b83c a1c7 143d eda7 a5bc de78 bfbc
-0.14077492 -0.091591634 0.05439601 -0.016555307 0.018978635 -0.02556151 0.080667555 -0.021731451
-0.17181246 0.0074857203 -0.056923755 0.018547215 -0.0031424905 -0.03684 -0.09649925 0.0091999145
-0.14172943 0.05286606 -0.06574379 0.028062988 -0.06598805 -0.023291785 -0.11399327 -0.08879734
-0.05585887 -0.003089994 -0.10494941 -0.108433224 -0.024919752 0.122620665 -0.045193516 -0.0040710387
-0.011916141 0.10609323 -0.04878739 -0.03166399 -0.07539662 0.086662844 -0.020980947 0.010352265
0.02321085 -0.08173962 -0.09974847 0.08152778 -0.05500266 -0.053473003 0.030973166 -0.10134146
-0.009908082 -0.16166472 0.041833855 -0.14194693 0.03612741 0.07551565 -0.0829888 -0.117281705
-0.06693872 -0.029400311 -0.0042777285 -0.05171806 0.022472985 0.036323193 -0.020221675 -0.023373064

fc2.weight f4 [64, 64]
00000000: d094 0abe cc03 88bd a18f 4f3b e9ed 34bd
00000010: 54d7 f0bd 0e2b 41bd d538 debc a475 3bbe
00000020: 229d c3bd 38f6 a33d 007b 8dbc bcb2 3dbb
00000030: 4af6 263e 7888 103c 8051 b4bd 1ca6 013e
00000040: 5de7 eabc cedc 0e3e bfb5 04be 6b4f 473d
00000050: c212 8bbd 8ceb 223d 1d9a 90bd d8a8 bdbd
00000060: 7e30 adbc 1712 6a3d b957 3abd 3358 4fbd
00000070: 4cc0 03be b94f cd3d 4035 2bbe aa41 d43d
00000080: 7657 bfbd 1bb0 2abd 1266 25be 313b c13c
00000090: 71af bebd 0f4e df3d 4abb 91bd 25a4 603d
000000a0: 6b1b ee3c 71c9 0b3c 887c a3bc bdb3 0c3e
000000b0: ccb6 8a3d f0eb 90bd 666d 8b3d ab14 803b
000000c0: 9d18 153d c6c1 16be 7a61 1b3d 53ea d63d
000000d0: 4f6e c4bd db30 1fbd dfbb e8bd e752 963d
000000e0: 6b5f 3ebd c7a3 cbbd b79c d53d 201e 9abd
000000f0: 2bdd 173d 95f6 0b3d ec93 5d3d 0f0b f4bd
00000100: 62e2 003d 0af9 593d bffb c0bd 4d9c d6bd
00000110: 3d07 0abe 0ca8 843c 784e 013d 2861 823d
00000120: 2795 bb3c e8c4 143e 5387 e0ba 3757 2b3c
00000130: 8127 a8bb c19f d8bd 2e31 433d 492f 03be
00000140: 1a27 6fbc c36a 3d3d ca9e 5fbc b5ef ec3d
00000150: da9f eb3d 96c8 673d eb86 07bc 8afc 98bd
00000160: 83a0 bf3d 59f9 d8bd 8c53 15bd cd39 9e3c
00000170: 4d71 a4bc 048f 183b d590 34bd a704 7d3c
00000180: 671c 3dbd 6f75 28bd 3e26 ebbc 3c79 5fbd
00000190: 83c2 ca3d c75b b2bd b928 e63d 601d 563d
000001a0: a5a9 8f3d 21ee b43c b2c4 6bbd f7ab 99bb
000001b0: f2bc 1d3d 0574 4abd e993 643d de79 dbbd
000001c0: 9287 7a3c 4491 f0bc 4507 3abd a113 423d
000001d0: b6a6 05be e8a8 e23d 2e3e b9bd 456d 5e3d
000001e0: f123 06be 7a9a d2bc 68a9 c43c 308c 87bd
000001f0: 9921 1ebd ece8 1fbd ce6d b03d 2570 9d3d
00000200: 17ed 92bd cb9c c5bd c582 953d 0bd5 57bd
00000210: 2dca 13bd 7b6b 8a3c e044 893d 9988 98bd
00000220: c4a2 2ebd f8f3 86bc f9fe 42bd 3ee3 51bc
00000230: cebb 7bbd b8b4 f83d 57f6 f83d 1da7 adbd
00000240: 49c1 de3d 0601 323d 09fc 3a3d 5a0f 1dbe
00000250: a85c 603d 5cfd 80bd f672 d83c 8786 093d
00000260: 729d 57bd 1ec9 a53c fcf0 44bc 2440 6a3c
00000270: 121d 3e3d e9ef a4bd abff dfbc 2b13 0bbe
00000280: 766f e4bc c59f a4bc 764a c93d aa9c ae3d
00000290: 25f8 f43b c866 83bd 22e3 a63d 5bff dbbc
000002a0: 4acd 9cbd f3fe bd3c d782 313d 95e8 3abd
000002b0: a873 243c 5937 f4bc d20f 5dbd 38d5 d23d
000002c0: 107c 9dbd 7871 92bc 8bb5 89bd 1894 873d
000002d0: 6abc 0d3d dd70 72bc 0703 73bd 0ba2 0c3e
000002e0: 1c41 0dbd 7050 9abd 924c d03d 4bb8 253e
000002f0: c867 b33c 4457 50bd 713e 36bd ea14 b13d
00000300: 4c6a ae3d 76bb 453d a472 45bd e796 d7bd
00000310: 1b83 bb3d 8f84 a43c b79b 713c 0d0e 05be
00000320: 14a5 123e 86e3 88bd bafe f53c 7057 ce3d
00000330: 385b a3ba 474b 25bc fb87 893d 4a95 d4bc
00000340: d8e9 cbbd ff9c 05be 67c9 a13d 643a 04be
00000350: 909d 2e3d f1b8 913c 5a43 42bd 4895 763d
00000360: 9067 92bb 442e 7abc 48c4 98bc 0483 7dbd
00000370: 56ad 4bbd ec09 f53d 7666 eabc d41d c7bc
00000380: 518a 81bd 8315 b43c 1e0c 333d 286a de3d
00000390: ed1f 0fbe 6d18 cdbd d9de 2d3d 0921 14be
000003a0: 9ced 3dbd 9196 e13d d8ff 783d 0a4f 6cbd
000003b0: 2ecd 85bd 433a 00bd 0672 43bd e160 00be
000003c0: 818f 04be 0631 f23d 33d3 d33d 7c4e eebd
000003d0: 6767 a5bd 6bb8 723d 7704 9fbd 8b90 3f3c
000003e0: e8d2 e83d 3629 ec3b 4a04 ed3c 0eae aebd
000003f0: 0465 a33d 12b4 663d 3ae0 e6bd 1274 1b3d
-0.1353333 -0.06641349 0.0031671303 -0.0441722 -0.117598206 -0.0471602 -0.027126709 -0.18306595
-0.09551455 0.08005947 -0.017270565 -0.0028945645 0.1630489 0.008821599 -0.088046074 0.12661022
-0.028674776 0.13951418 -0.12959956 0.048659723 -0.06790687 0.039775416 -0.07060645 -0.0926072
-0.021141287 0.057146158 -0.045493815 -0.050621223 -0.12866324 0.100249715 -0.16719532 0.10364087
-0.09342854 -0.041671854 -0.16152218 0.023587795 -0.093108065 0.1090356 -0.07115801 0.05484404
0.029065808 0.008531914 -0.019956842 0.1374044 0.06773147 -0.070762515 0.068079755 0.003908714
0.036400426 -0.14722356 0.037934758 0.104939125 -0.09591352 -0.03886495 -0.113639586 0.07340031
-0.046477716 -0.099433474 0.104302816 -0.07525277 0.037076157 0.034170706 0.054096147 -0.11916172
0.031465895 0.053216018 -0.09423017 -0.10479031 -0.13479324 0.016193412 0.031568974 0.06366187
0.02289827 0.14528239 -0.0017130174 0.010457805 -0.0051316624 -0.10577346 0.047654323 -0.12811007
-0.014596725 0.046244394 -0.013648698 0.11569158 0.11505099 0.056587778 -0.008271913 -0.07470043
0.09356787 -0.10594434 -0.03645663 0.019314671 -0.020073557 0.0023278603 -0.044083435 0.015443004
-0.046169665 -0.04112762 -0.028704759 -0.054558977 0.099003814 -0.087089114 0.11238236 0.052274108
0.07014779 0.022086205 -0.05756063 -0.0046896893 0.03851027 -0.04942705 0.05580512 -0.10716604
0.015291112 -0.029366143 -0.04541709 0.047382 -0.13051876 0.110673726 -0.09045063 0.054303426
-0.13099648 -0.025708426 0.02400656 -0.066185355 -0.03860626 -0.03904049 0.086146936 0.076874055
-0.071741275 -0.096490465 0.07300333 -0.052693408 -0.03608148 0.016896954 0.0670259 -0.07447929
-0.042635694 -0.016473755 -0.047606442 -0.012810526 -0.0614584 0.12143844 0.121563606 -0.0847914
0.1087671 0.043458007 0.045650516 -0.15337887 0.054775864 -0.062983245 0.026422005 0.03357556
-0.052640386 0.020237502 -0.012020346 0.014297519 0.046414442 -0.08053572 -0.027343592 -0.13581531
-0.02788518 -0.020095715 0.098286554 0.08525975 0.00747587 -0.06416088 0.08148791 -0.026855161
-0.07656343 0.023192858 0.04333767 -0.045631964 0.01003734 -0.029811548 -0.053970166 0.102945745
-0.07689679 -0.017876372 -0.0672408 0.066200435 0.034603514 -0.0147974165 -0.05932906 0.1373369
-0.03448592 -0.075348735 0.10170855 0.16183583 0.021900073 -0.050864473 -0.044493143 0.08646567
0.08516368 0.04827448 -0.048205033 -0.10526829 0.09155866 0.02008274 0.014746598 -0.12993641
0.14320785 -0.06684022 0.03002869 0.10075271 -0.0012463098 -0.010088748 0.06715389 -0.025950093
-0.099567115 -0.1304817 0.078997426 -0.129129 0.042630732 0.017788382 -0.047427513 0.06020096
-0.004467912 -0.01526982 -0.018648282 -0.061892524 -0.049725853 0.11964783 -0.02861331 -0.024306215
-0.0632521 0.021982914 0.043712728 0.108600914 -0.13977022 -0.100144245 0.042448852 -0.14465727
-0.04636918 0.110150464 0.060790867 -0.057692565 -0.065332755 -0.031305563 -0.047716163 -0.12536956
-0.12945367 0.11825757 0.103430174 -0.116360635 -0.08076363 0.059257906 -0.077645235 0.011692177
0.11368352 0.007207061 0.02893271 -0.08529292 0.079782516 0.056324072 -0.112732366 0.03795249

fc2.bias f4 [64]
00000000: 921d 793d f965 9abb 09b1 9d3d f1e2 cc3d
00000010: f490 513d c073 5cbd e25d 3dbd bd5c bf3d
00000020: 277e 07be 7a15 983c bf96 bfbd 5a13 1bbb
00000030: e5ee 89bd cedc 063c f9d6 bbbd 1bca d53d
00000040: bb08 823d a766 33bd 0eca 883d ff91 423c
00000050: 2268 903d 4076 2e3d 9400 f43d 816e 4bbc
00000060: 356a 91bc 364c c33d af4c 0cbe 3f7e cfbd
00000070: 6e9f b0bd 1e46 94bd 5a07 c7bd 5640 e03a
00000080: df4e f3bd e2cc 11bd 3bbb b3bd 578f aabc
00000090: cff1 41bd a54f a93d 9ed0 d3bd 4d56 3f3d
000000a0: e3df dfbd b96c d43d 263b 19bc a11d ea3d
000000b0: f01c e7bd aaf9 c5bd 6bf8 943d 2df7 be3d
000000c0: 8e32 623c c52f 833d a772 f63d c738 fd3a
000000d0: 1f9d e4bc 3fb8 453d 0c19 ce3d 7ed8 f6bd
000000e0: e4c7 3fbd 7bed bc3b b4c9 bbbd 1881 f73d
000000f0: d9ee 253d 8375 ca3d 1050 6a3d 9313 70bd
0.060819216 -0.004711863 0.076997824 0.10004223 0.05116363 -0.053821325 -0.04623211 0.0934386
-0.13231717 0.018564928 -0.093549244 -0.0023662657 -0.06735019 0.008231355 -0.09171862 0.10438939
0.063493215 -0.04379907 0.06679164 0.0118756285 0.07051112 0.04259324 0.11914173 -0.012416483
-0.017750839 0.095360205 -0.13701127 -0.101315014 -0.08624159 -0.07239936 -0.09718199 0.0017109017
-0.11880278 -0.035595782 -0.08775946 -0.020820303 -0.047349747 0.08267144 -0.10342525 0.046713162
-0.10931375 0.103723 -0.009352481 0.114314325 -0.11284816 -0.0966676 0.072739445 0.09324489
0.0138059985 0.06405596 0.12033587 0.0019319289 -0.027906952 0.048271414 0.10063371 -0.12053011
-0.04682149 0.0057656146 -0.09169331 0.120851696 0.040510986 0.09885695 0.05720526 -0.058612417

fc3.weight f4 [64, 64]
00000000: 9f49 7a3c c1ef 003d ba61 8ebc 9d60 a73c
00000010: fb68 d7bd 0017 5f3b 3d7f 74bc 7346 14bd
00000020: 16be c7bd 3a52 c03d 94d0 a23c 1a27 debc
00000030: 0a34 0f3c a2e7 4bbd 3e71 0abe 1702 4a3d
00000040: d53c 9cbd 9307 c3bc 5ff4 f3bd 981a 81bd
00000050: 26a0 e9bc 58c2 d13d c2ef 91bd 46d4 ecbb
00000060: e200 88bd 76a2 c63d 6864 8dbd da8d b2bd
00000070: d83b a4bd f060 fd3c 5eba 103e 7be4 083d
00000080: a251 333d b727 053e d885 fcbd 5549 553d
00000090: 0caf b03b c0ee 463d c831 64bd 2256 99bb
000000a0: e6a3 f93d c8f3 153e 8b2c b63c 619a f43c
000000b0: 0531 07be e304 cdbd ba56 ac3d 1280 c83d
000000c0: 84a4 d4bd 0c6f 9f3c 595b 953c 8121 2f3d
000000d0: 8d56 37be 1c86 1cbd ccca e1bd 20db 3a3d
000000e0: b0ff 78bd 6efe a3bd 5fef cdbc aae0 803b
000000f0: dd68 2dbd 5205 ad3d 4b37 5c3d 9183 7dbd
00000100: f849 69bd e49b 0e3e cc7e b2bd 4ac2 2c3d
00000110: 3a64 dabd b9e4 ad3c a390 5dbd c11f 623d
00000120: f91f 223d 5848 dcbc 3cdb ce3d cb2d fb3d
00000130: bd74 613d 7350 80bc 2eb1 20be 88de 8d3d
00000140: ef36 53bd deb9 9f3d 73f0 1bbe d2ff c73c
00000150: f88b 0ebe 9805 9f3d f4be 95bc 6f2b 073e
00000160: 89a7 67bd 9c07 463c 8f7a 94b8 cbf6 d93d
00000170: b05b 5fbd af2d 2e3d e8e9 193c b50e da3d
00000180: 3fbf 8c3d 8c93 85bd 3baa 73bc a099 d63d
00000190: 2097 703d 5830 073b 24da e73d 3bcc 94bd
000001a0: 2a98 b0bd 61c9 acbc 1373 71bd 3c58 803d
000001b0: 9d8b a8bd 35b3 b03d cca2 bd3c ef4e bfbd
000001c0: 7732 213d 3c2c 83bd b29a ce3c 7502 013e
000001d0: 8c78 43bd b88b 52bd 15ec c9bd f2a4 c6bb
000001e0: 615f b43d c47c 443d 0f12 2ebd 87e4 efbd
000001f0: 1f9c 3c3d 166e 74bb 1d71 863c 7ddb 9dbd
00000200: 5fb7 e43d 231b 1e3d 298f 66bd eb88 0dbe
00000210: e793 3e3d 307e 91bd 7a38 a2bd 98ee db3d
00000220: daa5 25be 4908 84bd ea73 6abd 248f 34bd
00000230: c241 ee3d c540 12be ae22 eb3d fabe 2abb
00000240: c611 683b 0f84 c1bd 66cc 023e 573a a1bd
00000250: f4fd f33c 29d7 d13d b17a 393d bdcb b2bd
00000260: 9480 febc b9ef 8e3d 411f 8fbd 4096 16bd
00000270: fffd 6f3d 0a61 e9bd e987 bd3c b049 30bd
00000280: 7927 9fbd 917f a7bd 299e 34bd 7937 6abd
00000290: 60c7 9bbd 8a3b 17bd 73aa ba3c 901e 903d
000002a0: 1809 393d 0550 05bd 4d59 bfbb ec5c 86bd
000002b0: 3543 a5bd ffef 8e3d 65b4 dcbd df48 5ebd
000002c0: 811e 0ebe 28d0 dbbd 8315 23bc 2ab0 1fbd
000002d0: f71c 2d3d bc73 3ebc 444a f83d 541b 10be
000002e0: ff81 2e3d 1175 20be 4d4b 99bc 50d1 e33c
000002f0: f3bb 12bd 097a 713d f58d a83d 84fc d4bd
00000300: daac e73d 76ce cd3c 92a3 733d 35cb 5bbd
00000310: e28c 8b3b 3b4b 843c a84c f53d 8711 adbc
00000320: e6b2 4f3d 6c43 6e3d 658b 7c3c a34e bdbd
00000330: 5630 05be fc1d 803d 9d5a dfbd f142 42bd
00000340: 3362 5d3d 4f5b dc3b e936 f53d 8f7f c9bd
00000350: 4d5d d23d 9f35 8a3d dfba ebbd 156d 48bc
00000360: 7080 7abd e24a 3ebd b45c 62bd ee84 69bd
00000370: 730d a6bc 8498 7bbd 6594 6f3d 3c25 cdbd
00000380: 8869 d83d 5057 00be fce3 093d 1ef1 e7bd
00000390: e4fa a33c ff9c 81bc 1341 04be 2233 acbd
000003a0: fed4 28bd af79 87bd 696e 6f3d 54a2 a1bd
000003b0: 4b55 033c d9f6 d03d 1d9d 1abc 9937 d7bb
000003c0: 344f 113e df1a 84bd 315d ffbc c142 fdbd
000003d0: 760d c93c f81b 803d 72e2 37bd 91bd 843d
000003e0: 5d62 913d 9a74 973d 17b5 853d 5195 3ebd
000003f0: 30b8 ebbd 28ee 303d 25c4 ca3d 78a2 973c
0.015276342 0.031478647 -0.017380584 0.020431811 -0.1051807 0.0034040809 -0.014922914 -0.036199998
-0.09753053 0.093906835 0.019874848 -0.027118254 0.008740434 -0.04978145 -0.13519761 0.0493184
-0.0762879 -0.023807323 -0.119118445 -0.063039005 -0.028518748 0.10242146 -0.07125808 -0.0072274534
-0.066407934 0.09698956 -0.069039166 -0.08718462 -0.08019227 0.030930012 0.14133593 0.03342102
0.043779023 0.13003431 -0.12330216 0.052071888 0.005391961 0.048567533 -0.055711538 -0.0046794573
0.12189464 0.14643776 0.022238037 0.02985877 -0.13202293 -0.10010698 0.08414979 0.097900525
-0.10382941 0.019462131 0.018232035 0.04275656 -0.1790411 -0.038213834 -0.110250086 0.04561913
-0.060790718 -0.08007513 -0.025138555 0.003933032 -0.042336334 0.084482804 0.05376367 -0.06189305
-0.056955308 0.13926655 -0.08715591 0.042177476 -0.10663648 0.021227228 -0.054093014 0.055206064
0.039581273 -0.026889965 0.101004094 0.12264594 0.05504297 -0.015663361 -0.15692589 0.0692721
-0.05156606 0.07799123 -0.15228443 0.024413977 -0.13920581 0.07764739 -0.01827953 0.13200162
-0.05655626 0.012086775 -7.080018e-05 0.10642775 -0.0545308 0.042524036 0.0093941465 0.106473364
0.06872415 -0.06522283 -0.014872129 0.104785204 0.058737874 0.002062818 0.11320904 -0.07265516
-0.08622773 -0.021092119 -0.058947634 0.06266829 -0.08229754 0.08627931 0.023148917 -0.09341227
0.039354768 -0.064049214 0.025220249 0.12598594 -0.047722384 -0.051402777 -0.09859482 -0.0060621435
0.088072546 0.04797055 -0.04249769 -0.1171351 0.046047326 -0.0037297062 0.016411358 -0.0770788
0.11167788 0.0386001 -0.056288872 -0.13821761 0.04652777 -0.071041465 -0.07920928 0.107388675
-0.16176549 -0.06446893 -0.05723945 -0.044081822 0.11633636 -0.1428252 0.11481224 -0.0026053772
0.0035410984 -0.09449016 0.12773284 -0.078724556 0.02978418 0.10246117 0.045283023 -0.08730266
-0.03106717 0.06979317 -0.06988383 -0.036764383 0.05859184 -0.11395462 0.023136096 -0.043039024
-0.07771201 -0.08178628 -0.044096146 -0.05718181 -0.07606387 -0.036922015 0.022786355 0.07037079
0.045174688 -0.032547016 -0.005839503 -0.06560692 -0.08069459 0.06979369 -0.10776595 -0.054268714
-0.13878824 -0.10733062 -0.009953859 -0.038986363 0.04226395 -0.011624273 0.1212354 -0.14072925
0.042604443 -0.15669657 -0.018712664 0.027809769 -0.035823774 0.058954272 0.08230201 -0.10399726
0.11312266 0.025122862 0.059482165 -0.05366059 0.004258738 0.016149154 0.11977512 -0.021126522
0.05070772 0.058169767 0.015414094 -0.092435144 -0.1300672 0.06255719 -0.10905955 -0.04742712
0.05404873 0.006724752 0.11973364 -0.09838783 0.10271702 0.06748509 -0.11510252 -0.012233038
-0.061157644 -0.046458133 -0.05526419 -0.057011537 -0.020270085 -0.061424747 0.05849113 -0.100168675
0.105670035 -0.12533307 0.03366469 -0.11325286 0.020017095 -0.015821932 -0.12915449 -0.0840819
-0.04121875 -0.06615006 0.058454905 -0.0789229 0.008015941 0.102033325 -0.009436873 -0.006567907
0.1419037 -0.06450438 -0.031172367 -0.12366248 0.024542551 0.062553346 -0.04489369 0.064814694
0.070988394 0.07395287 0.06528681 -0.046529118 -0.1150974 0.043195873 0.09900693 0.018510088

fc3.bias f4 [64]
00000000: bf44 a6bc e456 23bc 3779 bf3d 6fdd 333d
00000010: dd32 173e fdac 693d 8d42 51bd 8a19 93bd
00000020: 890a 9fbc 10a9 fa3d 99f4 71ba 7a16 a53d
00000030: 33e6 e03d b240 0bbe f1ad a5bd 2331 ffbd
00000040: df52 b4bd 2070 79bd 7444 e4bc 0a0a c4bb
00000050: fe54 e13d bfc4 1bbd c237 563c f35b 033e
00000060: 2467 0e3e c4d4 023e 3be7 a23d 63c8 233d
00000070: 2f1b 4d3d 21e1 aa3d 72b3 d0bb ab2e c43d
00000080: 7705 bebd 8db3 463d b8e2 c1bd 185d cf3d
00000090: 33cf 34bd f8ca 8cbd ef10 50bd 05bd c4bd
000000a0: 5cc6 ef3c bb9e 503c 0737 033d 7697 423d
000000b0: 2cd0 e23d 8fd9 9abd a60e 833d 0b7f 453d
000000c0: 1b02 d1bd af12 cfbc 20e4 98bd e4c4 f9bd
000000d0: 2060 f23d 1b8b 593d 667d 003e 8dd3 9cbd
000000e0: d20d 63bd 1308 cabc 5fbf a13d d3ac 7ab8
000000f0: 0be1 ab3d 628e a83d 5a11 27bd 3214 a1bd
-0.020296453 -0.009969447 0.09349292 0.043912347 0.14765497 0.05704974 -0.05108886 -0.071826056
-0.019414203 0.12239277 -0.00092298683 0.08060928 0.10981407 -0.13598898 -0.08089817 -0.12460544
-0.08804869 -0.060897946 -0.027864672 -0.005982642 0.11002539 -0.03802943 0.013074817 0.12828045
0.13906533 0.12776476 0.0795426 0.039986026 0.050074752 0.08343721 -0.006369048 0.09579214
-0.09278386 0.048511077 -0.09467071 0.10125178 -0.044142913 -0.06874651 -0.0507974 -0.09606365
0.02926939 0.012733157 0.0320349 0.047507726 0.11074862 -0.07561027 0.06399278 0.04821686
-0.1020548 -0.025277464 -0.074653864 -0.12195757 0.11834741 0.053111177 0.12547836 -0.076575376
-0.055433102 -0.024662053 0.07897829 -5.97656e-05 0.08392533 0.08230282 -0.040788032 -0.0786518

fc_out.weight f4 [2, 64]
00000000: 388b 99bb 4ed5 29bd 3f38 b33d 3af4 993b
00000010: 1593 103e 66e4 e03d 0b4f 733d 06a9 083d
00000020: b1e9 ef3d 7559 e23c 98be 9fbb 0c16 013e
00000030: db55 ed3c 5bdc a7bc 42ac 713c 9eb3 403d
00000040: 1afe 56bc 0866 f03d 9599 f33d 59a8 083e
00000050: 6ba9 ebbd 2a9e 51bd 3204 c5bd 96bf 053e
00000060: e846 f0bb bc0e 6cbb c054 3abd 3337 213a
00000070: 7e8c 6f3d 1766 ac3d 0a98 c2bc 25b0 e63d
00000080: 6051 af3a 0942 f53c 2851 6cba 005f eabd
00000090: acda 163e 3c5d ba3d f435 6b3d 701d 9ebc
000000a0: 2486 42bd 9674 c53b 0e52 a239 ef10 37bc
000000b0: 90aa ddbd 91aa 51bd 1b4d c93c 174d adba
000000c0: 8be6 ae3d b298 3a3d fef2 803c f9a8 3d3c
000000d0: 83d0 c7bd 18b7 9cbd 618e a93c fa30 11be
000000e0: 8590 dd3d 8b22 6abd dc2e 77bd 27df df3d
000000f0: b8f5 563d cb81 fa3d deb0 bd3d 4df4 db3d
00000100: c7f3 ed3b 5be9 9e3d 4430 07be 78d9 caba
00000110: 7561 c43d 64a2 fd3d 9237 45bd 7d30 ce3d
00000120: c62c 8b3c 94b5 0b3d b36c 113e 3fed 0bbe
00000130: 6ac4 3f3d 48e8 74bd 5d7a 92bc d470 27bc
00000140: c610 59bd 1832 ae3b 6bcf 79bd 4773 123e
00000150: 6654 c8bd cff9 36bd 11e5 043e fb80 043e
00000160: 23db 013e 1394 883d 91bf c53d ab64 adb9
00000170: 7708 0cbd ef16 fd3d d89e 453c 1935 eb3d
00000180: 050c 41bb ed13 273c 2405 17be 7449 c6bb
00000190: 08b2 e8bd d097 7abb 6c73 dbbb b5bd 6f3d
000001a0: 2265 d33d 1dea cc3c ae9a f9b9 04ae cb38
000001b0: 3780 993d 4e59 bcbc f4ea 1abe b30a acba
000001c0: 80ff 60bd 2d5c 57bb 91b4 57bd d41f f93d
000001d0: 3283 50bd c5a5 c03c af48 103e 3f1e c93c
000001e0: d712 8dbd 6ce2 913d e36b 5fbd 0f38 cf3d
000001f0: 5a8c 6abd a455 0b3e 50d2 b03d 6e17 87bd
-0.0046857856 -0.04146319 0.087509625 0.0046983035 0.14118607 0.109810635 0.059401553 0.03336432
0.11714495 0.027630547 -0.0048750155 0.12606066 0.028971603 -0.020490816 0.014750542 0.047046296
-0.013122106 0.11738211 0.11894528 0.1334547 -0.11506923 -0.051176228 -0.09619941 0.13061365
-0.0073326714 -0.0036019525 -0.04549098 0.0006149888 0.058483593 0.084179096 -0.023754138 0.11264066
0.0013375692 0.029938715 -0.0009014779 -0.11443901 0.14731854 0.09099814 0.0574245 -0.019301146
-0.047491208 0.006025861 0.00030960183 -0.011173471 -0.10823548 -0.051188055 0.0245729 -0.0013221827
0.08540066 0.045555778 0.015740868 0.011575931 -0.09756567 -0.0765211 0.020697774 -0.1417884
0.108185805 -0.05716185 -0.060347423 0.10931235 0.05248043 0.12231787 0.0926225 0.10739956
0.0072617265 0.07759353 -0.13202006 -0.0015476188 0.09588901 0.12384489 -0.0481487 0.10067842
0.016989123 0.034108713 0.14201622 -0.13664721 0.046818174 -0.059791833 -0.017880613 -0.010219771
-0.052994512 0.0053160302 -0.060988825 0.14301787 -0.09781723 -0.04467183 0.12978007 0.12939827
0.1268125 0.06668868 0.09655679 -0.00033072135 -0.03418776 0.1235789 0.012061797 0.11484737
-0.0029456627 0.010197622 -0.14748055 -0.0060512368 -0.11362082 -0.003823746 -0.006697109 0.058530528
0.10322024 0.025013978 -0.00047608226 9.712207e-05 0.07495158 -0.022991803 -0.1512869 -0.0013125747
-0.054931164 -0.0032861338 -0.052662436 0.12164274 -0.050906368 0.023516545 0.14090227 0.024550555
-0.06888359 0.07123265 -0.05454625 0.10118114 -0.057262756 0.13606888 0.08633864 -0.06596266

fc_out.bias f4 [2]
00000000: 5a83 92bd 7e9e a7bb
-0.071539596 -0.0051153293
