scripts/reinforcement_learning/rl_games/tournament_observations/checkpoints/standard_obs.pth (torch, 553488 bytes, 36 tensors)

value_mean_std.running_mean f8 [1]
00000000: dc32 e46a 7a71 e2bf
-0.5763523185465504

value_mean_std.running_var f8 [1]
00000000: 0cba fc7f cb57 1340
4.835737228203026

value_mean_std.count f8 []
00000000: 0000 0010 0060 7341
20316161.0

running_mean_std.running_mean f8 [12]
00000000: 6226 c9c2 9575 8d3f 1213 9c70 808f b2bf
00000010: 024c 74f3 1558 773f 6185 fd39 8086 71bf
00000020: 3e6e 2b3e c49b 863f 80ea 1507 bb08 b43f
00000030: 937f 62c0 e067 753f 79c4 2b2e 0038 48bf
00000040: 7ee2 2aea 48f6 493f bfce caba f4a1 593f
00000050: d437 2e00 85fb 293f f77e fc80 06ae 4f3f
0.014384431845559213 -0.07250216244944976 0.005699239488666132 -0.00427866066442681 0.011039288661257914 0.07825821803082 0.005226018844183405 -0.0007390976791993429
0.0007922988919154131 0.0015644922197396852 0.0001982307295204643 0.0009667903668492951

running_mean_std.running_var f8 [12]
00000000: 4856 32aa c162 783f f689 48f3 8521 553f
00000010: b084 c0f8 0fc1 b03f ffc8 cc73 f5f7 b13f
00000020: 5a82 7754 ef3b 7c3f 339f f8c7 97b0 5a3f
00000030: 6fb0 84ef 7338 953f 5422 5d06 39f9 933f
00000040: 392f 584a 714b 7f3f 5c86 4272 215b 8e3f
00000050: 642d ab43 ec34 783f 31cd 7529 51bd 7f3f
0.005953556540722334 0.0012897308453224655 0.06544589827582814 0.07018980099818249 0.006893095858203491 0.0016290170896215538 0.02072316312221328 0.01950539685575088
0.007640306988388628 0.014822255420145307 0.005909846217672186 0.007748906172639723

running_mean_std.count f8 []
00000000: 0000 0020 0060 6341
10158081.0

a2c_network.sigma f4 [2]
00000000: 0043 b3be 1278 a0be
-0.35012054 -0.31341606

a2c_network.actor_mlp.0.weight f4 [256, 12]
00000000: a43d 53bf 1f6d bc3e 1223 c83e 46a1 ffbe
00000010: ff2f abbb b260 f1bd d558 16bf 9512 22be
00000020: a56f 96be a1ac 08be de2e 243f 523d 123f
00000030: c79f 34be 369b 8cbe 1639 8dbf 1f28 db3d
00000040: 664c c6bd e078 85bd dc5d 4ebe 2339 b0bd
00000050: cfd5 2abf 12db 20bf b115 fabe a830 07bf
00000060: 5d18 b5bb fdd0 5cba 32ff 09c0 c0b6 3ebe
00000070: 7576 91ba a1f2 a6bc 8711 0cc0 20d2 debe
00000080: 6bb2 193d 0e34 44b9 af0b 3ebf 8380 c3be
00000090: 8c5e 67b8 95cf 233b 1854 323f fd4b f13d
000000a0: 8c19 0cbc f055 e63b 2bbb fe3f e3f9 e23e
000000b0: 46f7 31bc 0c72 b5bb 1b4a 283d 1a14 07bd
000000c0: 9c9d 3a3e 0452 b4bc 1e4b 683f 320b 8e3d
000000d0: c66c 99bd 5e77 b1be 1fb3 263f 427f 353d
000000e0: f5bb 8c3e cac4 893e da21 2b3f 7545 413f
000000f0: 1e4a 0d3c 49f0 eebb 7239 bd3f d850 713e
00000100: b989 24bc e3df dc3b 24a6 b73f 70c7 253f
00000110: 008a dfbc a402 89bc 3422 05be c48e 0cbe
00000120: 78bb 1f3f 2b16 a1be 2abc e0bf fdcc 43bf
00000130: c7d6 a6be 09b0 3abe da2f ccbf 8ba4 4abe
00000140: 85e8 59be 7e82 adbc e512 14bf cc67 0bbe
00000150: 0854 67bc 2e7c 743c d512 83bf b222 81be
00000160: 878e f6bb dcd2 c23b 44b5 0bc0 a774 11bf
00000170: 23a5 653c 1f8c a73b 32c4 6fbd 9fe3 cbbd
00000180: 8a14 2a3e 9156 70be 427f a23f 25a7 a7bc
00000190: 1e00 4bbe 63ae 72be 3d73 b03e e283 463e
000001a0: 2d02 743f 4eb0 c03e 08e4 933e 5c2d b23e
000001b0: 22a0 463c cb24 1dbc 59ea 9abe 9d30 04be
000001c0: 9999 63bd 9f50 c03c 50d0 99bd 59d1 8c3e
000001d0: b46d 0bbc 6f67 0bbd 3de3 1dbf ac79 76bc
000001e0: c843 9f3c ed34 b73a 58ae 76bf f2ed 4dbb
000001f0: c630 e2bc ea52 3ebc 4e78 e7be ea46 9b3d
00000200: af55 903c c7d4 723a dec9 bcbe 6790 fd3c
00000210: 88c6 9e3b 5f3e 043c 350d 093f 409d b23c
00000220: c3bb c0bb c3d8 3e3c 9a3d 743f 995a a33e
00000230: ab21 3bbc e61a 9c3c 3905 0740 6f04 3fbf
00000240: 7381 d23d aead 373d c537 023f 8593 7bbc
00000250: 1c95 bb3b 972e 433d cf84 1b3f 5f75 7c3e
00000260: 4f0f 8ebd 7381 00be f674 1abe e05f 38be
00000270: 6732 2f3b cc1e c93b a97f 313e 6d23 40bd
00000280: 7c64 763d e483 da3d 9fd8 cd3e f319 ff3e
00000290: af4e 6cbc 1eaa 8d3a 0e26 163f 776b 5abd
000002a0: c638 453c 9211 763b 4343 d83f 38a7 f73e
000002b0: 568d 24bc ad5c bb3c f62e 1640 84a4 4e3f
000002c0: 42e2 a5bc dc72 9d3b df05 883f 0920 b0bd
000002d0: 6efd 53be 6f99 9cbc 156d 223f 4284 a63e
000002e0: 88cb d53d 60a6 9a3d f715 4c3f 63da 8d3e
000002f0: 170d 3cbc 0aad b63e a941 59be 3fb0 a13f
00000300: f226 c3bb cce3 e63b 6d97 35bf 2598 6cbe
00000310: 7c31 30bc 798e b5bb fa71 06c0 316a 09bf
00000320: ab59 f63b d5b8 d0bb 3f83 933d a515 c5bd
00000330: 4d7d 903e 6ef5 8f3d 9239 913f 5a7e 43bd
00000340: 8c1f 843d 62b0 b73d 678c 4a3f 5f7b 6a3e
00000350: 8979 063f 7542 4bbe 3d53 64bf 43be a63d
00000360: 28bb 3e3e 0f11 e7bd 682b 5d3e 1236 43bd
00000370: e116 e43d 522c c63d 8d09 a23f 5f11 983e
00000380: f3a2 77bf c9cc b03e 8dc9 28bf 78f9 073d
00000390: 7387 613e 3914 cf3e db2f 4a3f 5679 01bf
000003a0: 9cd5 0abe 7394 1fbe b85c 1abe 5a8a 913e
000003b0: ec95 323e ae25 76be 0c9b af3f cce2 8e3f
000003c0: a76e 113f 2ac9 87be 2d93 38bf cac6 d1bd
000003d0: 57f6 a83d 2fe0 a7ba cab1 863e 9f58 483d
000003e0: 874d 72be 83e1 2cbd 274e 1abe 8199 22be
000003f0: 05af 2e3c 0996 83bb 1c37 ca3d 8335 9b3e
-0.8251593 0.36802003 0.39089257 -0.4992773 -0.0052242274 -0.11786021 -0.58729297 -0.15827401
-0.29382053 -0.13347103 0.64134014 0.5712482 -0.17639075 -0.27462167 -1.1033046 0.10701012
-0.096825406 -0.06517196 -0.20152992 -0.08604648 -0.66732496 -0.62834275 -0.48844674 -0.5280862
-0.005526586 -0.00084234757 -2.156201 -0.18624401 -0.0011097925 -0.020379366 -2.1885698 -0.43519688
0.03752367 -0.00018711408 -0.7423658 -0.38183984 -5.5162745e-05 0.0024995555 0.69659567 0.11782072
-0.008551013 0.0070292875 1.9900869 0.44331273 -0.010862177 -0.005537277 0.041086297 -0.032978155
0.18224186 -0.022011764 0.9073962 0.06935729 -0.0749145 -0.34661382 0.6511707 0.044310816
0.2748715 0.2690795 0.6684853 0.7549661 0.008623628 -0.007291828 1.4783156 0.23565996
-0.010042601 0.0067405566 1.4347577 0.6475744 -0.027287483 -0.016724892 -0.13001329 -0.13726336
0.6239543 -0.31462225 -1.7557423 -0.7648466 -0.32585737 -0.18231215 -1.5952103 -0.1978933
-0.21280105 -0.021180388 -0.5784133 -0.13613814 -0.014119156 0.014922185 -1.0240122 -0.25221783
-0.007524315 0.0059455466 -2.1829386 -0.5681862 0.014016422 0.0051131393 -0.058536716 -0.09955525
0.16609398 -0.23470522 1.2695086 -0.020465443 -0.19824263 -0.23699336 0.3446292 0.19386247
0.9531582 0.3763451 0.28884912 0.3480023 0.01212314 -0.009591292 -0.30256918 -0.1290917
-0.055566404 0.023475943 -0.075104356 0.2750347 -0.008510042 -0.03403419 -0.61674863 -0.015043657
0.0194415 0.0013977565 -0.9635978 -0.0031422344 -0.027611148 -0.011616448 -0.45208973 0.07581885
0.017618982 0.00092632737 -0.36872762 0.030952645 0.004845444 0.008071511 0.5353578 0.021803498
-0.005881758 0.01164836 0.95406497 0.31905058 -0.011421601 0.019055795 2.1096938 -0.7461614
0.10278597 0.04484337 0.5086635 -0.015354996 0.0057245623 0.047651853 0.60749525 0.24654149
-0.06936514 -0.12549381 -0.1508368 -0.18005323 0.0026732923 0.0061377045 0.17333855 -0.046908785
0.060154423 0.106696874 0.4020433 0.49824485 -0.0144230565 0.0010808145 0.58651817 -0.053325143
0.012037462 0.0037547094 1.6895527 0.48369765 -0.010043463 0.02287134 2.3466163 0.8071978
-0.02024949 0.004804952 1.0626792 -0.0859986 -0.20702145 -0.019116132 0.63447696 0.3252278
0.10439211 0.07551265 0.79721016 0.27705678 -0.01147773 0.35678893 -0.21216454 1.2631911
-0.0059555704 0.0070461985 -0.7093418 -0.23104914 -0.0107539855 -0.0055406657 -2.1007066 -0.5367766
0.0075180135 -0.00636969 0.072027676 -0.09623269 0.28220597 0.07029234 1.1345694 -0.04772792
0.064513296 0.08969189 0.79120487 0.22898625 0.525292 -0.1984957 -0.8918951 0.08141758
0.18626082 -0.112825505 0.2159859 -0.047658987 0.11137176 0.09676422 1.2659165 0.29700753
-0.96733016 0.3453124 -0.6593254 0.033196896 0.22024326 0.40445116 0.7897927 -0.5057577
-0.13558048 -0.15583973 -0.15074432 0.28425866 0.17440003 -0.24037811 1.3719192 1.1162963
0.5680947 -0.26520663 -0.7209957 -0.10242994 0.082501106 -0.0012807901 0.26307517 0.04891264
-0.23662387 -0.042207252 -0.15068875 -0.1587887 0.010661845 -0.0040156883 0.098737925 0.30314264

a2c_network.actor_mlp.0.bias f4 [256]
00000000: 03f5 fdbe b061 98be 94b8 5d3d 8682 47bd
00000010: 6d21 c13e a040 29bd 6b66 edbe 133a 7f3d
00000020: 7bd2 82be 661b 99bd c031 703c 9ba4 05bd
00000030: 9804 39be 137e d0bd 0f63 9bbd 4529 023f
00000040: 9fdb 953d 79fa f4be 7ec4 95be f3f3 3bbe
00000050: 212e 05bf de8c 1fbd 703c 11bc aad1 123f
00000060: 35d9 8cbc 6df2 ec3c dada ac3c b07f 7cbd
00000070: d591 43bd 0453 9d3c ebb8 42be 18b6 cbbd
00000080: 8f88 7abe 4212 b2be 19b2 773d c036 40bd
00000090: 58cf d53b 8ca0 f03c 0943 433e 099a 2f3c
000000a0: c012 20bc f81f 93be 52b0 873c a249 a03d
000000b0: 29d9 a0bc 8965 73bd ded2 b93d 91dc 873d
000000c0: 8de6 fb3e 0337 663b 6b00 f4bc c4c2 dfbc
000000d0: 74df c0bc 8a3d 3a3d 6800 ccba 1ad2 51be
000000e0: dba5 85bd 2d02 a2be 0e28 4abd 8e33 40bc
000000f0: 2b3a 04bf 8fdc 0cbe d6ee ebbe 802f 84bc
00000100: 021c 78bc ee1d ac39 3960 76bc ffc0 3a3e
00000110: bb1b 89be 4302 1c3d 4f04 e83e dad5 4f3d
00000120: 04dd 153d b8d9 603b e6ea 3bbc ca67 6c3d
00000130: 5f4a c5bd 45d7 5bbd d58a 533b 1e94 33bd
00000140: ff8d dcbc 2637 33bf 257c 84bd 193d 8cbe
00000150: 9a1b 85bd c48d 00bd 8d8b efbe 19e1 e6be
00000160: 038c e0bc 8037 9c3d ba91 0e3d 8b70 51bd
00000170: f48a f0bd d60c b7bd 37dd 52bd e2af bebd
00000180: 2d5d d7bd a00e 26bf eafe 72bd b2f0 8e3c
00000190: ec50 fc3e 438b e8bc 95c7 0ebf e61e b13d
000001a0: c8cf cdbe 81ad a0be 7a68 eebe ff64 0f3d
000001b0: fc32 aebe 8326 7d3d 3cd2 dc3c 8b42 423b
000001c0: aaaf 933e a097 79bd afbc 48bd b4c4 a5bd
000001d0: 6054 bfbc 1b90 89bd 3ab9 c7bd c4a0 d73c
000001e0: 5432 9d3e ebce a4be 003f 10be bb69 c7bd
000001f0: e441 bdbd 3a7f 84be 963a 6fbd 412c 16be
00000200: b806 8abe 20b5 f43d 2a64 0e3d 7d76 85bd
00000210: c43e 5cbd f8a2 783d 5d3b 81bc bb51 d33c
00000220: 8759 d5be 1d67 64be 2ff3 d4bd 1272 913e
00000230: 6bf0 9abe b1e7 01bd cc54 ec3e 75a1 c7be
00000240: f168 aebe 3020 4ebd 2795 783d 5907 153d
00000250: 7726 173d 0d6d b73d 33d6 033c 8f13 08bd
00000260: a3f0 96bd 1bff 1cbf 8929 0ebf 75db 99bd
00000270: b94f e93c 2660 d13d 5303 a73d 4532 053d
00000280: bb17 b2ba 2ae8 993e 514e 2abc a3c7 54bd
00000290: 4ae7 8fbd acb8 acbc 1607 9b3b 244c 1ebe
000002a0: 07a0 57bd e153 bbbb 5bd3 d1bc 82db 3abe
000002b0: 7f21 b3bd 9a94 68bd 87c5 723d 5248 c8bd
000002c0: 8a7a bc3d 9785 0cbf 3dc2 68be 9f93 e1bb
000002d0: a3f5 5ebc a3da 833d 2149 2fbc bef8 063c
000002e0: 2791 8abc 7415 75bd f76a 12be f19a 30bd
000002f0: ea27 b9bd 84a1 543d 4e1f bebd ef57 febd
00000300: 370a c83e 2277 08be 92c6 99bd 3d64 4b3e
00000310: ab04 51bd 3a1a d1bb 6b85 1ebe 5a25 193d
00000320: a51e 06bd d11e afbd 05e8 503d 1270 ce3c
00000330: 6309 a7bd 4cac 933d aa2e 05be 0d9b a23d
00000340: 6bb2 b0bd fc97 83be f851 33bd 9e9b c23d
00000350: f759 3dbd 978c 77bc 1036 8dbd 954d 833e
00000360: d499 eebe 4156 0ebd c9a1 d5bd 621d 703d
00000370: 27b6 393e 59d9 d6be b2ea b33d bd5c 20bb
00000380: 6db3 32bd a005 6e3c affc cabe 2c47 803d
00000390: 705f 6cbe bbbc 3cbe f4a0 943d 42c4 89be
000003a0: a155 893b 6bd2 5a3b cde4 97be 0401 f5be
000003b0: 5827 38bb 13ca 133d a653 643d c6c1 67be
000003c0: 3493 c1be 211e a8bd e56c 13bc e0c5 5dbd
000003d0: 5444 5fbc c3e5 e83b b6df 5c3d 21a3 973d
000003e0: 16bd 9d3c c580 463d 185c cfbd 5a5e 30be
000003f0: e2f2 a1bd c002 a03e 80b8 dcbe e85f f7bc
-0.49600992 -0.2976203 0.054131106 -0.04870846 0.37720814 -0.041321397 -0.463672 0.062311243
-0.2555121 -0.07475929 0.014660299 -0.032627683 -0.18068159 -0.10180297 -0.07587253 0.5084422
0.0731728 -0.47847345 -0.29251474 -0.18354778 -0.5202351 -0.0389527 -0.008864507 0.5735117
-0.017193416 0.028924191 0.02110045 -0.06164521 -0.0477465 0.019204624 -0.19015853 -0.09946841
-0.24466155 -0.34779555 0.06047258 -0.046927214 0.0065249614 0.02937343 0.1906854 0.010717877
-0.009770095 -0.28735328 0.016563568 0.07826544 -0.0196348 -0.059423003 0.09073423 0.066338666
0.49199334 0.0035128004 -0.029785356 -0.027314551 -0.02354405 0.045468844 -0.0015564086 -0.20490304
-0.06525775 -0.31642285 -0.049354605 -0.011731042 -0.5165126 -0.13756011 -0.46080655 -0.016135931
-0.015143396 0.00032828696 -0.01503759 0.18237685 -0.2677897 0.038088094 0.45315787 0.050741054
0.03658773 0.0034309458 -0.011469578 0.05771617 -0.09633326 -0.053672094 0.0032278795 -0.043842427
-0.026923178 -0.70006025 -0.06468991 -0.27390364 -0.06499405 -0.0313852 -0.46786156 -0.4509361
-0.027410513 0.07627773 0.034806944 -0.05113272 -0.11745253 -0.08937995 -0.0514805 -0.09310891
-0.10515819 -0.64866066 -0.059325136 0.017448757 0.49280488 -0.028386718 -0.5577329 0.086484715
-0.40197587 -0.31382373 -0.46564084 0.035008427 -0.34023273 0.061804306 0.026955716 0.0029641713
0.2884496 -0.060935616 -0.049008068 -0.08094159 -0.023355663 -0.06716939 -0.09752126 0.026321776
0.3070246 -0.32189116 -0.14086533 -0.09736963 -0.09241083 -0.25878316 -0.05840548 -0.14665319
-0.2695825 0.11948609 0.034763493 -0.065167405 -0.053770795 0.060702294 -0.015775377 0.025795808
-0.41669866 -0.2230496 -0.10397946 0.2840734 -0.3026155 -0.0317151 0.46158445 -0.3899037
-0.3406444 -0.050323665 0.060689118 0.03638396 0.036901917 0.08956347 0.008046675 -0.033221778
-0.073701166 -0.6132676 -0.5553213 -0.07512561 0.028480398 0.10223417 0.08154931 0.032518644
-0.0013587394 0.3005994 -0.010394649 -0.0519482 -0.07026537 -0.021084152 0.0047310693 -0.15458733
-0.05264285 -0.0057167863 -0.025613477 -0.18247798 -0.08746623 -0.056782342 0.059270408 -0.09779419
0.0920306 -0.5489134 -0.22730346 -0.006884053 -0.013608369 0.06438186 -0.010698588 0.008238016
-0.016914917 -0.059834912 -0.14298616 -0.043116514 -0.09040816 0.051911846 -0.09283315 -0.12419116
0.39070293 -0.13326696 -0.075085774 0.19862457 -0.051029842 -0.0063813003 -0.15480582 0.037389137
-0.03274407 -0.085508 0.05100252 0.025199924 -0.08156087 0.072105974 -0.13006082 0.0793973
-0.086277805 -0.25701892 -0.043779343 0.09502338 -0.046228375 -0.015109203 -0.06895077 0.25645128
-0.46601737 -0.034750227 -0.10431249 0.05862177 0.18135892 -0.41962698 0.08784999 -0.0024469339
-0.043628145 0.014527708 -0.39645907 0.06263575 -0.23083282 -0.1843137 0.07257262 -0.26907545
0.004191116 0.003338958 -0.2966675 -0.47852337 -0.0028099623 0.036081385 0.055743836 -0.22632512
-0.3780762 -0.08208872 -0.00899813 -0.054143786 -0.013627131 0.007107468 0.053924285 0.07404161
0.019255202 0.048462648 -0.10124987 -0.17223492 -0.07907654 0.31252098 -0.43109512 -0.030197099

a2c_network.actor_mlp.2.weight f4 [128, 256]
00000000: ed38 e8bd 94af 24be fbcd 5ebd 75da 2fbd
00000010: a0a4 dc3d b28c 94bd bba3 6e3e a379 d9bd
00000020: 5d05 23be f32f 023e 298b 183e fd49 efbd
00000030: e9d5 0b3e 5108 1fbe ab50 ee3d 585d 92be
00000040: 1051 40bd 1748 11bf 295f 90be 434d 653e
00000050: 7cc3 1f3e f817 693d d24b 7bbd d94c 9fbe
00000060: ae29 733d f746 40bd 61c2 023e 7e18 5e3d
00000070: a426 9b3a d30d 8ebc 393c f2bc 4f1c 863e
00000080: 8b1f 2dbe c6e3 5cbe bf7e b6be fa6e a03c
00000090: 4b36 8b3e 065b efbd 495e d63c 6cbd f4be
000000a0: 439a c739 074b 85bd dc6f 0a3c 22a0 fdbd
000000b0: fc19 2cbf b6b5 0f3e c1d7 b8be d24a 5abc
000000c0: a355 3abe e32a 4b3d 713e 1bbd 1199 2cbd
000000d0: e6e9 1c3d 6af9 0bbf 2917 92bb e03e f5be
000000e0: ee88 e43d a791 263c 24c9 8bbd 2587 1abe
000000f0: e653 3a3d f825 1bbe 4b44 d9bb 5a07 e1bc
00000100: 8b1e efbc ec6c 25be 7f1c 89bd 4e8a 93be
00000110: e4db 97bd 2bff ab3d 9dce b6bd 973c 733d
00000120: 1b55 09bd ff39 973d 54cf b0be 3ad4 a9bd
00000130: 5c39 eebe b8c0 fe3d cdea f9bd 2173 303d
00000140: 74e7 46bf 574d 5c3e fb3d 00bd 6b0d 97be
00000150: ccc4 07bd b6cb edbd 6171 0cbd bcf8 993d
00000160: dbdf 633d 3718 5abd 8e5a 6cbd 2970 1c3d
00000170: 6f01 083e ab14 753d b8bb e83d a281 303e
00000180: 4a7b 623e f820 cdbd 1c20 2f3d d2de 1bbc
00000190: be01 a3be 61f3 3fbb 23e4 4abc d0f4 cebd
000001a0: 444b f83d 5504 0abf b716 093d f6e2 803d
000001b0: 4f3f bd3c 77eb 23bd 9f7c bebd 0411 b3bb
000001c0: 9faa babe fd77 a5bd d647 a33b 9e6d 213d
000001d0: 8802 a5bd e586 1d3c 96cc 6d3e 7e35 26bf
000001e0: f380 19be de68 b6bd 7f0c 01bf 63c4 3fbe
000001f0: 36ae 94be d618 063e a80c cabc 520f d4bb
00000200: 47fa 04be 51e1 72be a301 8f3d 2177 173d
00000210: 117b 34bd a072 56bd da56 e23c 1bc9 be3d
00000220: 5e61 47bf 4fae f9bd 2738 ca3d dec6 a0bd
00000230: bdd9 d93d 11e5 37bd dbdf 88be 09a9 2f3d
00000240: 701f 25bd 094d 91bd 3b01 9dbc 84bb ab3d
00000250: 088e 073c 23d0 0ebe e116 64be e627 12bc
00000260: 7c9e 27bd 1cc5 8fbe 1856 543d 7801 00bd
00000270: 9a12 113e 58f6 f0bd 2df4 acbe c84f cc3d
00000280: 6a42 43bd bb02 fd3c 97cf ea3c 3258 663d
00000290: 943c 13bd c7f4 49bb 8286 fabd c0d8 8e3c
000002a0: f37e 85bc 78c9 5e3d 371d 573c d365 0abe
000002b0: 5a37 f53d 8d5b 1f3c 3784 c3bd 0cd3 4abe
000002c0: 8ae4 17be 5f9a a33c f982 61bd a6ed debc
000002d0: 324a 8dbb ab15 7dbd 3b00 d5bd 9972 14bf
000002e0: 6f76 573c 2bb1 c1bc 545f 463e 12cc 333e
000002f0: 4f92 963d 89e9 9dbd 6f8c ad3d d3d7 bbbe
00000300: 06ae 9ebe cccb c8be 5d05 013d 9699 12bf
00000310: 63c6 88be fca0 583c 4bab 04bd 89a4 babd
00000320: fa05 8b3c 8e27 d23d 488e 823c b4d2 b4ba
00000330: 89ea 793e 0134 8dbc 7821 17be eeb3 b4be
00000340: 6e82 203e 5817 1ebb c107 e43c 7db1 46be
00000350: 5224 7c3d adc8 d3bc 0f1a 8bbd 6ba1 0cbe
00000360: d177 95be 45e9 98bd 4c8f a03e 3922 4dbd
00000370: e184 b63d d722 adbe 1a35 81be 573a f5be
00000380: 492b 96ba e350 3e3a f18f a6bd b716 693d
00000390: aec5 dbbe 588f 27be 7352 1e3d 8f43 d4bd
000003a0: c708 b0bd f909 6a3d 611f 5c3d 1e88 4f3d
000003b0: a92a e1bd d1f6 f3bd 8588 b1b9 7f24 83be
000003c0: 495e 45be 3a98 883e 6f24 973d 05a0 0bbf
000003d0: 7b75 cb3c 6b7a 9fbd ed98 26bd 55f0 32bd
000003e0: a7c7 bcbc 92dd 67bb 77f6 513e 53a0 8abd
000003f0: d78a 8fbe 4b98 03be 80f0 dcbe 591a 79bc
-0.11338983 -0.16082603 -0.054395657 -0.042932946 0.10773587 -0.07253398 0.23304646 -0.106189035
-0.15920015 0.12713604 0.14896835 -0.11684034 0.13655819 -0.15530516 0.1163648 -0.2858684
-0.046952307 -0.56750625 -0.281976 0.22392754 0.15601915 0.056907624 -0.061351605 -0.31113318
0.05936592 -0.046942677 0.12769462 0.054222576 0.0011837077 -0.017340576 -0.029569732 0.26193473
-0.16906564 -0.21571264 -0.35643575 0.019584168 0.2718986 -0.11687283 0.026168006 -0.47800767
0.00038071172 -0.06508451 0.008449521 -0.123840585 -0.6722715 0.14034161 -0.36102107 -0.013323503
-0.1819673 0.049601447 -0.037901346 -0.042138163 0.038309 -0.5467745 -0.0044583273 -0.47899532
0.1115893 0.010166562 -0.06825474 -0.15090616 0.045490168 -0.15151203 -0.0066304556 -0.027469326
-0.029189369 -0.16154832 -0.06694888 -0.28816456 -0.07414988 0.08398279 -0.08926127 0.059383955
-0.03352843 0.07384109 -0.3453318 -0.08292432 -0.46528137 0.12439102 -0.12202988 0.043078545
-0.7769692 0.21513878 -0.03130911 -0.29502425 -0.033146665 -0.116111204 -0.034287814 0.075181454
0.055633407 -0.05324575 -0.057703547 0.0381929 0.13281797 0.059834164 0.113639295 0.17236951
0.22117344 -0.10016054 0.04275523 -0.009513574 -0.31837267 -0.0029289352 -0.012383494 -0.10105288
0.12123731 -0.5391286 0.03346893 0.06293289 0.023101477 -0.04001948 -0.09301113 -0.005464675
-0.364583 -0.080795266 0.0049829287 0.03941118 -0.080571234 0.009614681 0.23222575 -0.6492537
-0.14990596 -0.089067206 -0.5040969 -0.1872726 -0.29039162 0.13095412 -0.024664238 -0.006471553
-0.12986098 -0.23718764 0.06982734 0.036978845 -0.044062678 -0.05235541 0.027629305 0.093157016
-0.77882946 -0.1219145 0.098739915 -0.07850431 0.106372334 -0.04489619 -0.26733288 0.042885814
-0.040313184 -0.070947714 -0.019165626 0.08385375 0.008273609 -0.13946585 -0.22274353 -0.008920645
-0.040922627 -0.2808007 0.051839918 -0.0312514 0.14167252 -0.11765736 -0.3378004 0.099761546
-0.04767076 0.030885091 0.02866344 0.056236453 -0.035946444 -0.0030816065 -0.122326866 0.017437339
-0.016295886 0.054391354 0.013129524 -0.13515405 0.11973448 0.009726417 -0.09546702 -0.1980707
-0.14833274 0.01997107 -0.055056546 -0.027212929 -0.0043118233 -0.061788242 -0.104004346 -0.5798736
0.013150795 -0.02364405 0.19372302 0.17558315 0.07352125 -0.07710559 0.08474051 -0.36688098
-0.30992144 -0.39217985 0.031499255 -0.57265604 -0.26713857 0.013221975 -0.03238992 -0.09113414
0.016970623 0.10261451 0.015936986 -0.0013795705 0.24405874 -0.017236711 -0.14758861 -0.35293525
0.15674755 -0.00241228 0.027835729 -0.19403644 0.061558075 -0.025852526 -0.0679208 -0.13733451
-0.29192975 -0.07466368 0.31359327 -0.050081465 0.089120634 -0.33815643 -0.25235826 -0.47896072
-0.0011456992 0.0007259978 -0.081329234 0.05690643 -0.42924255 -0.16363275 0.03865285 -0.10364448
-0.08595424 0.057138417 0.053740863 0.05066692 -0.10994465 -0.11912311 -0.00033861786 -0.25613782
-0.19274248 0.2667864 0.07379996 -0.54541045 0.024836292 -0.07787021 -0.040673185 -0.04368623
-0.02304442 -0.003537987 0.20504175 -0.06768861 -0.28035614 -0.12851064 -0.43152237 -0.015204036

a2c_network.actor_mlp.2.bias f4 [128]
00000000: 38ce 22be d7e0 07bf eb3e 80bf 3ad1 693b
00000010: 7218 7fbd f592 97bd d0aa 1cbf aa2d f3bd
00000020: fb03 27bd 81f7 16bd ff3a 12bd 8116 8bbd
00000030: e001 46bd eb3b a1be 85a6 15be 237e 10bf
00000040: 288f 25bf 3bb0 1bbd 428f 3bbe 6122 32bf
00000050: e569 50bf 07f4 22be b97e 94be 3768 cbbe
00000060: ad2f 7f3d ee4d 1dbd fa81 bfbe ec46 a8bd
00000070: f963 dcbd b7c8 a9bd 9ae9 18be c9bc 8e3e
00000080: ec65 6cbe 353f 8abe a691 0dbf 19af 40be
00000090: c48c 04be 8aa5 a0bd d3fe 32be b3a4 80bd
000000a0: 4165 10bf 3e3c a33d 426a 8c3b c41c 51be
000000b0: 47e1 8fbf 5099 23bf 9ec6 e8be 3d9e 30bf
000000c0: 0c05 73bd 1644 54bf 08e8 45bf feb7 513d
000000d0: 0f68 a0bd 2a5e 0ebd d7e9 2abf e7cf d7bd
000000e0: 1737 90be cdba d1be 1207 e8bd de97 543d
000000f0: 337a 02bf ccc4 f4be 3e29 32bd 0f45 2bbd
00000100: c872 a9bc e195 2ebe 9cde 143d 938d 22bf
00000110: 1afd c53d 61e2 4abf f6c8 aabe 3f1b b5be
00000120: 30cc 353d 0a79 91bd 1dc9 9bbe d7aa 4a3d
00000130: 76e7 95bd 95c6 1fbf ebb1 16bf e5a5 81ba
00000140: e5ff 4bbd d430 9ebd 0403 cebd 31b2 5c3d
00000150: dabb 62bf 859c 04bf db55 d9be 1378 37bd
00000160: b07a d3bd 2062 53bf 8f2e 66bf b013 d2bd
00000170: e3ff 88bd 6675 45bf 399e 5dbe c409 12be
00000180: 40cc 62bd f10f 40be 714e 34bf d4bd 1bbe
00000190: dc2e afbd 5402 14bf d2a7 aebe 9edb c8be
000001a0: 8107 cabd 78c5 debc 6bf7 1bbf 7329 5ebe
000001b0: 6fd5 5fbf 8a84 a3bd ef6b e0be ec88 bebd
000001c0: 039e 363e e3d0 1ebe 15e3 e6bc a3ed c7bd
000001d0: 13f4 dbbd 54d3 33bf 505b 55bf 0557 14be
000001e0: edf7 0ebf 3e4b 6a3e 5e8a dbbe 23d6 93be
000001f0: da2a 75bd a664 91bd 7957 3cbf 654c 7cbe
-0.15898979 -0.53077453 -1.0019201 0.0035677687 -0.062279172 -0.07401077 -0.6119814 -0.11873944
-0.04077528 -0.036857132 -0.035700794 -0.06791402 -0.048341632 -0.31491026 -0.14614303 -0.5644247
-0.64671564 -0.038009863 -0.18316367 -0.6958371 -0.8141158 -0.15913402 -0.29002932 -0.39727947
0.062301327 -0.038404398 -0.37403852 -0.08216652 -0.10761256 -0.082902364 -0.14932862 0.27878407
-0.23085755 -0.27001348 -0.55300367 -0.18816794 -0.12944323 -0.07844074 -0.1748002 -0.06281414
-0.564045 0.07970475 0.004285128 -0.2042113 -1.1240624 -0.6390581 -0.45464033 -0.6899145
-0.059330985 -0.8291639 -0.77307177 0.05120086 -0.078323476 -0.03475777 -0.6676306 -0.10537701
-0.2816703 -0.4096283 -0.113294736 0.051902644 -0.5096771 -0.47806394 -0.043496363 -0.041813906
-0.020684615 -0.17049362 0.03634511 -0.63497275 0.09667416 -0.79251677 -0.33356446 -0.3537235
0.04438418 -0.071031645 -0.30426875 0.04947933 -0.07319538 -0.6241239 -0.5886523 -0.0009891359
-0.049804587 -0.07724157 -0.10059169 0.053880874 -0.8856789 -0.5180133 -0.42448315 -0.044792246
-0.10326135 -0.825716 -0.8991479 -0.10257661 -0.066894315 -0.7713226 -0.21642388 -0.14261538
-0.05537057 -0.18756081 -0.7043219 -0.15209132 -0.085538596 -0.5781605 -0.34112412 -0.39230055
-0.098647125 -0.02719377 -0.60924405 -0.21695499 -0.8743505 -0.07984264 -0.43832347 -0.093034595
0.17833714 -0.15509371 -0.028184453 -0.097621225 -0.10739913 -0.70244336 -0.83342457 -0.1448632
-0.55847055 0.22880265 -0.42879003 -0.2887431 -0.05985532 -0.07099275 -0.7357097 -0.24638517

a2c_network.actor_mlp.4.weight f4 [64, 128]
00000000: a38d bfbe cb1f 3abc 3384 4e3e 0ade 4bbd
00000010: 6510 463d 8650 133d b524 6bbe a981 003d
00000020: dd8c 4c3d 909f 5cbb a24f d2bc 061e 82bc
00000030: 2166 9ebb 7450 59bd 0253 2c3d 3082 84be
00000040: 3d5f 9c3e fbe2 99bb 8f4d d03d f25d 8f3e
00000050: 7fb9 1d3e 9ba1 9a3c 0f5e 8dbe fe20 823e
00000060: aa45 5bbe 6895 013b d38b c03e 52ab 763d
00000070: f72e c83b 2199 ddbb 7942 b3bc f5bf cbbe
00000080: faf8 963c 1a94 323d a644 b2bd 230f 553e
00000090: 8638 4c3d 0bee ce3d 85da 51bb a7e9 03bd
000000a0: 431c d73e d1b7 dd3c acaa cabc 8fa2 3fbe
000000b0: 7b5b 693d afb4 343e 0d5e 8e3d 15ab 293e
000000c0: 882e ee3d 3c11 713e d9b0 533e 2119 b5bd
000000d0: 4c8f c13d 93e7 cc3c 5b12 9ebe e925 d83d
000000e0: 2fd3 2fbe c62a dabe c7bb 28bc 78fa 3fbd
000000f0: eee6 5ebd 17cd 81bd bf5b 053e da9c 9d3d
00000100: 066a 0abb 9f6d a9be 7861 c3bd 4efa 9a3e
00000110: ecfd 76bc ed36 ef3d 9fb4 1d3d 04f3 b6be
00000120: b220 823d 073a 91bd 41c5 373e aab4 873a
00000130: 1bd2 523a 3b8a afbd 777c 253d 37d9 943c
00000140: 5f9c 66bd 3e29 4b3d 50c4 903c 58e5 0fbe
00000150: b989 293e 0d8b 443e eaeb 4f3e b990 cd39
00000160: db47 e33d 22af 8c3e 3040 613e 3dc0 833d
00000170: fee6 7bbd cb27 e53d d670 83bc f2c0 973c
00000180: 7a6d 233e 4740 553e a2af 693e 25d1 703d
00000190: 536c 453c 0b5e ba3d 6ffe 293e 5b54 333e
000001a0: be02 e63d 6fbe a9bc bc65 2f3e 8e73 0dbd
000001b0: a727 373e 0207 85bc 25f1 6d3e 974a f13d
000001c0: 1ca4 0abd b6f6 223c 88ef e3bd ade0 593d
000001d0: f0bb 863d 2f9e 333e cfff 6b3e 3122 3d3e
000001e0: 5063 313e 6f0d 79bd a215 5a3b 5cb3 87be
000001f0: 3bd7 9ebc f55b 373d 4d74 073e 11d3 7bbf
00000200: 6875 b93c af71 a2bd bc9a 1ebd 197e a7bd
00000210: 1860 dabc e1ca a8bd fd76 ef3d b445 ee3c
00000220: fca9 38bc 85d2 abbd b672 24bd 6f24 f73b
00000230: 5ac9 e5bc b53e 00bc 0570 56bb 4b01 f2bd
00000240: f89e 413d 5d86 4bbd ad0f 80bd b443 993c
00000250: c0bc ab3d eb36 a0bd 5e67 af3b 8488 ebbd
00000260: 3372 173e 948c f0bd de52 b0bc 7f13 98bc
00000270: 2510 7bbd f448 c6bd 6295 3b3e 0d57 1fbe
00000280: 86e3 d3bd 9e8b edbd a1e0 f3bc 3c12 21bc
00000290: 1064 76bd b5ea 9ebd 6629 19bd ff18 18be
000002a0: 37ef d3bd 2162 243d 88ff 43bc 64d9 8fbc
000002b0: abb3 8fbd d0ba 0c3d de5f 0a3d 9e8e 853c
000002c0: a275 a7bd 9873 b2bc bced f73d eed4 f93b
000002d0: c779 533d f564 96bd 443e 663d 9490 aa3c
000002e0: 2835 063d b695 973d fe2e e4bc dbf6 02bd
000002f0: 7254 d23d f928 cd3d 8ed5 b93d 140b c53a
00000300: fd14 7a3d a6b6 423d e326 5bbd 8392 843d
00000310: e5e2 6f3d 0ba0 0d3e 0bb5 f7ba 5353 12be
00000320: 416c c4bc d3f6 a9bd 655d 9fbc be0c 813c
00000330: f316 79bd d581 223c 2d1f a3b8 516d 483d
00000340: 2411 ddbc c44b 963d 766f 13be 779a e0bb
00000350: 773e 0b3d 6d9b 9d3c ad5e 5abd 34ca f3bc
00000360: a9b6 663d 7393 203d ca01 1c3d 1770 2c3d
00000370: b9e3 653c 42f3 9bbb f93f eb3b 4dc3 e93c
00000380: 45e1 3bbd d7e6 2fbd ff73 e63b 11e3 9a3c
00000390: d3d9 a839 a5cd ff3d 3fbc 1bbc a52a 133d
000003a0: 912d d5bd 3dd8 c4bd 1c64 b4bd cefb ebbd
000003b0: 676d f43b 20e8 7bbd a8b4 d63c cbcf 2ebd
000003c0: 65a6 453c c915 4fbd cdad 15bd 35b9 6a3c
000003d0: 32d2 073c d452 2ebd 4fb5 fcbc e1a4 ddbc
000003e0: 34d4 903d 1c1e 6abc efb0 143e 4509 bb3d
000003f0: cf40 aabd 8b50 b3bd 536d 9aba 2401 30bc
-0.37412748 -0.011360119 0.20167617 -0.0497723 0.04835548 0.035965465 -0.22963221 0.031373654
0.049939025 -0.0033664443 -0.025672738 -0.015883457 -0.004833952 -0.05305524 0.04207135 -0.25880575
0.3054141 -0.0046962476 0.10171043 0.28001362 0.15402792 0.018875888 -0.27610824 0.25415796
-0.21413293 0.001977289 0.37606677 0.060221978 0.0061091143 -0.006762639 -0.021882283 -0.3979489
0.018429268 0.043598272 -0.087045 0.20806555 0.049858592 0.10103997 -0.0032021117 -0.03220525
0.4201375 0.02706519 -0.024739586 -0.18714355 0.05697201 0.1764705 0.069515325 0.16569169
0.11629969 0.2354173 0.20672931 -0.088426836 0.0945116 0.025012767 -0.3087338 0.10554106
-0.17170404 -0.4261076 -0.010298676 -0.046869725 -0.05441945 -0.06337946 0.1302328 0.07695933
-0.0021120324 -0.33091447 -0.09540075 0.30269092 -0.015075188 0.11680398 0.03850233 -0.3573228
0.063538924 -0.07091146 0.1794634 0.0010353525 0.00080421724 -0.08571287 0.040401902 0.018169982
-0.05630147 0.04959988 0.017671734 -0.14052331 0.16556443 0.19193669 0.20304838 0.00039208474
0.1109769 0.27477366 0.21997142 0.06433151 -0.06149959 0.111892305 -0.016045015 0.01852462
0.1595973 0.20825301 0.22820905 0.058793206 0.012049752 0.090999685 0.16600965 0.17512648
0.11230992 -0.020720689 0.17128652 -0.03453403 0.1788622 -0.016238693 0.2323652 0.11781805
-0.033847913 0.009946516 -0.11129671 0.053192783 0.06578815 0.17540811 0.23046802 0.18470074
0.17323041 -0.060803827 0.0033277054 -0.26504028 -0.01938974 0.04476543 0.13227959 -0.98368937
0.022638991 -0.0793184 -0.038721785 -0.08178348 -0.02665715 -0.08241821 0.11692617 0.029085971
-0.011270996 -0.08389763 -0.04014846 0.007542185 -0.028050113 -0.0078274505 -0.0032720577 -0.11816653
0.047270745 -0.049688686 -0.0625299 0.018709041 0.083856106 -0.07822975 0.0053528985 -0.11500648
0.14789657 -0.11745563 -0.02152389 -0.018563984 -0.061294693 -0.096818835 0.18318704 -0.15560551
-0.10346131 -0.115988955 -0.029770197 -0.009831008 -0.06015402 -0.077596106 -0.037392996 -0.14853285
-0.10348361 0.040132646 -0.011962779 -0.017559715 -0.07016691 0.034357846 0.033782832 0.016303357
-0.081767336 -0.021783635 0.12105891 0.00762426 0.051629808 -0.07343475 0.056211725 0.020820893
0.032765538 0.07401602 -0.027854439 -0.0319737 0.10270013 0.100175805 0.090739354 0.0015033209
0.061055172 0.04753747 -0.053503882 0.064732574 0.058565993 0.13830583 -0.001889856 -0.14289598
-0.0239774 -0.08299031 -0.019453714 0.015753146 -0.0608129 0.00991865 -7.7782526e-05 0.048932377
-0.026985712 0.0733867 -0.14397988 -0.006854351 0.033995118 0.019239152 -0.053312946 -0.029759504
0.056326542 0.03920312 0.038087644 0.042099085 0.014031344 -0.004759223 0.007179257 0.02853551
-0.04586913 -0.042944755 0.007032871 0.018907102 0.0003220575 0.124903955 -0.009505331 0.03592934
-0.10409082 -0.09611557 -0.08808157 -0.11522637 0.007459331 -0.06150067 0.02620919 -0.042678636
0.012063597 -0.050557885 -0.036542702 0.014326383 0.008289861 -0.04255946 -0.030848173 -0.02705616
0.070717245 -0.014289405 0.1452062 0.091326274 -0.083131425 -0.08755597 -0.0011781849 -0.010742459

a2c_network.actor_mlp.4.bias f4 [64]
00000000: 977b a4bd 6664 a2bd 4955 0abd 3914 ffbe
00000010: a428 62bd 4553 94bd 3596 4ebe 11b8 d0be
00000020: da42 66bf 6de5 95be bcb4 24be 0865 2cbe
00000030: 86e7 163d d882 a0be d743 fdbe 9498 38be
00000040: 111b a63c 70b0 45bd ee4a eebd d367 3bbe
00000050: 06b1 0bbf f132 8dbe 0f04 2abf 2472 babe
00000060: 7615 ba3e 3ba0 c8be e356 7dbe 67ec 3abe
00000070: b076 c1bd 708a 0abf 474a 74be 48f5 debd
00000080: f5b8 30be d0f8 59be 836b c9bd 8cb6 40be
00000090: a7a2 fbbd 68d6 dfbe 111a 7dbe 4111 a0be
000000a0: ea99 11bf 308c b9be 84ce d9be 11b6 f2be
000000b0: d28d 74be 5c09 95bc fdd9 22be 90e3 debd
000000c0: fd11 67be ce0f 3dbe 2411 07be b244 eabd
000000d0: 998c 06be c384 bfbe 31bf 80be 1596 4abd
000000e0: a7a1 26be de9f dcbe 3c93 d2be a82c 16bf
000000f0: ab2c 08be e769 53be 009f 45be 3121 98be
-0.080313854 -0.07929306 -0.03377274 -0.49820116 -0.05521454 -0.07242445 -0.20174487 -0.40765432
-0.8994576 -0.292766 -0.1608457 -0.16835415 0.03684189 -0.31349826 -0.4946582 -0.18026954
0.020276578 -0.048263967 -0.116353855 -0.18301325 -0.5456699 -0.27577928 -0.6641244 -0.36415207
0.36344498 -0.39184746 -0.24740176 -0.18254243 -0.09446466 -0.5411749 -0.2385646 -0.108866274
-0.17258056 -0.2128632 -0.09834959 -0.18819636 -0.12286883 -0.43718266 -0.24716975 -0.31263164
-0.5687548 -0.36239767 -0.4254037 -0.4740453 -0.23882225 -0.01819294 -0.15903468 -0.10883248
-0.22565456 -0.1846306 -0.13190132 -0.11438884 -0.13139571 -0.37405977 -0.25145867 -0.049459536
-0.16272603 -0.4309072 -0.41127956 -0.5866189 -0.1329829 -0.20645867 -0.19298935 -0.29712823

a2c_network.value.weight f4 [1, 64]
00000000: e711 793a b8b3 293b c8f4 263b f345 013e
00000010: c62d db3a 2ff4 2fb7 7fec 8b3c 3a77 f93a
00000020: 4939 0a3e 17e3 9cb7 76de 3a3e f991 d43b
00000030: e010 60bd 49c5 cebb 4b77 59bd ac0e 42bd
00000040: 4331 433a b76a 45bd ea63 b73a 4bf1 4ebb
00000050: 9901 04bc fdfa 1f3d 9497 303d 1c4b 97bb
00000060: 3e2d 45be 7e29 08bc f30b 0cbd 331c ac3b
00000070: 6e80 43bb b07c f5bb 95eb c53c 0070 86bc
00000080: 722f 1f3b 4a16 2abc e38e 8f3b d0f3 263b
00000090: 0aeb dc3a ec95 c43c eb5e 5a3b 74c1 79bc
000000a0: 2411 bc3b 03af c03c 3453 a63d 1603 44bc
000000b0: 038e 583b 7fca d739 7247 4d3a 978c 07bc
000000c0: dc05 8bbb 97f7 923b 7fc3 cf3b f649 5a3c
000000d0: 4eee cfbd 9aae 1abb 88b8 82bb 3390 be3a
000000e0: 8523 2c3b ad33 e83c e8da f23c 84f4 a63b
000000f0: 0e81 dcbc 26e0 ec3a 082e eeba 9d93 3d3c
0.0009501264 0.0025894474 0.002547549 0.1262434 0.0016722016 -1.0487666e-05 0.017080544 0.0019032725
0.13498415 -1.8702396e-05 0.18248925 0.006487128 -0.054703593 -0.0063101393 -0.053092282 -0.047377273
0.0007446 -0.048197474 0.0013991569 -0.0031576927 -0.008057022 0.03905772 0.043113306 -0.004617108
-0.1925554 -0.008310674 -0.034191083 0.005252385 -0.0029831189 -0.0074916705 0.024160186 -0.016410828
0.0024289754 -0.010381291 0.004381047 0.0025474913 0.0016854715 0.02399727 0.0033320736 -0.015243877
0.005739348 0.023520952 0.081213385 -0.011963626 0.003304363 0.00041158867 0.00078307756 -0.008273265
-0.004242642 0.0044850814 0.0063404436 0.013323298 -0.10152875 -0.0023602606 -0.003989283 0.0014538824
0.0026266288 0.028344953 0.029645398 0.0050950665 -0.026917007 0.0018072173 -0.0018171677 0.011570838

a2c_network.mu.weight f4 [2, 64]
00000000: 9467 97bc a717 18bc 1652 15bb 92fe 9c3c
00000010: 50ec d23a 921d 55bb 8981 99ba 896e d93d
00000020: b43b efbb 38ec 263b 6a0b 39bc 77db 123d
00000030: 8baa d33c daea 893d dcba d0bc 85aa 40bc
00000040: e774 e8bb bad7 3a3b 8e63 b33b f822 b83b
00000050: b77f 013d db8a 5d3b 80d4 ca3b 1970 343b
00000060: 4d9a 54bc 5354 a53c c61e ab3c 422c be3b
00000070: e918 8dbb 932a 613c c976 debc d732 703c
00000080: ddb3 d8ba 581d 21bd 5241 25bb b9c6 05bb
00000090: 1b73 8cb9 9c0b 463d 3d46 553b efb2 0d3c
000000a0: aa24 1b3c 69af cb3c 6888 33bd 9f07 733d
000000b0: edff 2ebc 8af7 7abb c999 223b 93b3 80bd
000000c0: 21a7 2cbc 644d dd3b bab5 553b 8250 113e
000000d0: 1afa 503c 77b7 893a d9f4 84ba 89e7 afbd
000000e0: 3348 303b e7d5 903b 853b 28bc b093 893c
000000f0: 3a35 193d 4f47 2f3b 55b2 3d3b b6df c83c
00000100: 2b04 7f3b a282 2d3a 1683 b83a 38d9 d53c
00000110: bdb8 e93a 2328 223b 6fc4 5f3b 9f06 5bbd
00000120: 9489 0a3d 554c 8fbb 4fc7 483c 5875 64bc
00000130: 1207 2fbd b679 143c 339e b23c 6872 14bd
00000140: f05b 27bb f0b3 213d 0634 8b3b 2eb5 cdba
00000150: 3300 9c3b 769d 12bc 643e e8bb a28c 02bc
00000160: 1af3 cebc efc4 0b3c 91c0 8b3b 95a4 54ba
00000170: 7b15 71b9 1742 7c3c 9b83 0d3d 1212 8e3c
00000180: ce91 3d3b 1e68 b0bd b126 65ba d9e6 0239
00000190: 0cf7 2cba 1ba8 a0bc 13d1 043c 7672 0d3c
000001a0: 3942 233c 3c89 083d a984 793b 4b9d acbb
000001b0: 7317 a63b c7ef a139 1a8a ec3b 4762 713d
000001c0: d78c b7bc 83f9 a83b 282e 98bc ea26 853d
000001d0: c36a 6d3d 32c8 8a3b 5ecd 92bb 791c 543d
000001e0: 6f26 3d3b 6868 85ba afe5 1c3b ab80 973c
000001f0: ca68 c83d 9560 813a ec43 3f3b b0cb c53b
-0.018482007 -0.009282983 -0.0022784523 0.019164357 0.0016092155 -0.0032518846 -0.0011711578 0.10616786
-0.0073008183 0.0025470387 -0.011294225 0.03585383 0.025838157 0.067342475 -0.025479726 -0.011759405
-0.007094014 0.002850993 0.0054745143 0.005619403 0.03161594 0.0033804688 0.0061898828 0.0027532636
-0.012976241 0.02018181 0.020888697 0.005803616 -0.004305948 0.013743061 -0.02715625 0.014660559
-0.0016533096 -0.039334625 -0.0025215936 -0.0020412637 -0.0002678864 0.048350915 0.0032543086 0.008648618
0.009469191 0.024863916 -0.04383126 0.05933344 -0.010681135 -0.0038294517 0.0024810901 -0.06284251
-0.0105378935 0.0067536104 0.0032609538 0.14190868 0.012754941 0.0010506947 -0.0010143771 -0.08589084
0.0026898503 0.0044200304 -0.010268097 0.016794056 0.037404276 0.0026745384 0.0028945406 0.024520736
0.0038912396 0.0006618892 0.0014077153 0.026104555 0.0017831546 0.0024743162 0.0034144183 -0.05347311
0.03382261 -0.004373113 0.01225455 -0.013943993 -0.042731352 0.009062221 0.02180395 -0.03624192
-0.0025536977 0.039478242 0.004248145 -0.0015694255 0.004760766 -0.008948674 -0.0070875157 -0.0079681
-0.025262404 0.008530839 0.004264899 -0.0008111683 -0.00022991553 0.015396616 0.034549337 0.017342601
0.0028926018 -0.08613609 -0.0008741422 0.00012483764 -0.0006598092 -0.019611409 0.008106488 0.008633247
0.009964519 0.033334002 0.0038073456 -0.005267774 0.0050687133 0.0003088696 0.0072186114 0.058931615
-0.022406025 0.0051566972 -0.018576697 0.06501563 0.057963144 0.004235291 -0.004480048 0.051784966
0.002886202 -0.001017821 0.0023940613 0.01849397 0.09785612 0.0009870703 0.0029184772 0.0060362443

a2c_network.mu.bias f4 [2]
00000000: ba09 42bd 5430 a23e
-0.047372557 0.31677496

exp_avg f4 [2]
00000000: 3956 01bb 1efd c0ba
-0.001973523 -0.0014723872

exp_avg_sq f4 [2]
00000000: c5fb 4f39 8833 4c39
0.0001983485 0.00019474153

exp_avg f4 [256, 12]
00000000: a944 b439 c138 1739 c5e5 8d34 8310 dfb6
00000010: 7262 86b8 0788 10b6 475d cab6 5ed8 05b7
00000020: 1fcf a439 c7f8 1d39 0d2d e0b6 6702 f7b6
00000030: 5bf0 1639 730a 3637 e01e 41b5 7295 9b36
00000040: 921c ae38 7070 be37 8336 a436 869f 5e36
00000050: f6c8 9db8 baa2 db39 0a36 da36 9935 79b7
00000060: fe15 27b8 fd4e a8b6 3d13 deb4 d8bd 2336
00000070: 0e10 3a38 cb2a 4338 3a15 9d35 6475 3636
00000080: 6b58 93b8 7d2f 89b8 e75b 1535 fe49 31b5
00000090: 29f6 25b7 b08f 60b7 b232 d932 2971 1bb5
000000a0: 98b1 fe36 3969 f137 8f7d 7b32 fac8 e7b4
000000b0: 8ba2 b1b5 df7b 1537 9338 5634 b35d 5e35
000000c0: f889 01b9 e255 e0b8 eacc 8235 7b58 1836
000000d0: e694 8037 9dac b638 9cc8 8d34 d790 2c36
000000e0: 74e7 44b8 71ab 00b9 8df9 8db5 d47f 5336
000000f0: 6423 1bb7 6bfe 14b7 43dd f833 42ee 3ab5
00000100: edf9 8a37 dd5a 0d36 3216 e5b4 2518 d9b4
00000110: 6e5c dd35 9779 e2b6 5e05 a9b4 305a d334
00000120: fcb9 2eb8 b14a 8d39 6037 40b5 b8a7 0eb7
00000130: b8bb 1a39 c055 23b9 a997 cbb6 34fe d2b6
00000140: f372 47b8 3d03 8639 569a c635 fa12 9836
00000150: 3057 53b6 cd75 4d37 815c dbb3 2eac 2a35
00000160: 4a75 94b6 fb3b ffb4 067f a734 56c4 1935
00000170: e9e4 99b7 a971 9eb7 60b8 bdb3 6adc 8eb3
00000180: 238d c835 bab9 6f38 9f71 4f36 c7fa 5035
00000190: aa6a 30b8 81d3 e137 e883 81b5 ed84 5935
000001a0: 3287 df37 5380 3c38 db9c 47b5 2224 63b5
000001b0: dd42 1238 b1dc 5438 4116 1eb5 57de 25b6
000001c0: a53d 4638 8c1a 92b7 8c05 16b6 ec74 20b6
000001d0: a1f8 cbb7 9479 6638 ea89 bc34 0152 c435
000001e0: cad6 04b8 6893 e436 c3dd 04b5 8bc3 b335
000001f0: 38c9 fd37 f6dc d537 300c 0f35 a928 ca35
00000200: 5410 19b8 e27a 2fb7 f2e2 9433 0a82 cfb5
00000210: d5aa c837 a978 68b7 ab4d 13b5 caae fcb4
00000220: bbe9 feb5 07cb 6238 e6ff 9ab3 21f0 e5b4
00000230: 23eb 0037 b227 0238 d1d0 47b5 1404 80b4
00000240: 20bf 9b38 c442 b338 299a 8db5 e87b 1536
00000250: f370 7d36 fc44 adb7 a27a 2035 a287 e435
00000260: 7851 a2b8 b98d e538 fd73 c1b4 a98c b5b6
00000270: da43 e138 95e1 0238 f4e7 7cb4 6eda 89b4
00000280: 9ebc bab8 10c2 c336 c320 1534 48db 48b5
00000290: 175e dd36 aead 9938 43dd 16b6 49bc 84b6
000002a0: 3c33 3138 7360 ffb7 29ed 89b4 eaf4 4db5
000002b0: 90a6 cdb7 b42e a4b4 8284 83b4 bf4d b0b5
000002c0: fbfb 2b38 8ad0 8038 76cc 8eb4 6607 2f35
000002d0: fdbd 6bb7 606e acb9 3f70 3c36 5952 1836
000002e0: cb0f 48b9 5a3a 7f39 47b5 8736 dd21 7536
000002f0: 65d3 4c39 9cca 28ba 43ba e6b5 63e5 ae36
00000300: 9071 7bb7 b44a acb7 0bac 1c33 f46c 4935
00000310: be3f 84b7 d77c 8ab5 3187 ff34 11f2 3335
00000320: de5f 70b6 7304 56b8 d746 e2b2 59c9 6934
00000330: ec7a 8038 eb2b 2c39 3d80 4135 a0d0 a136
00000340: 9e17 15b9 c481 19b9 edf0 cd35 ef9a 2f36
00000350: bde8 99b8 e374 a539 d361 9734 63cc f5b6
00000360: 4456 e538 6424 c038 eeb3 02b6 5c6b 3e36
00000370: f713 05b8 27f1 b5b7 139e b535 1e4a 8a36
00000380: 81ed 3cb9 acdc 22b9 895e 83b6 4aa1 75b6
00000390: e092 9137 a0a7 0839 3621 16b6 9fec a634
000003a0: 3290 df36 eb66 76b7 a600 82b6 5f67 a8b5
000003b0: f8cd feb8 78f8 8b39 8766 9eb5 f30b 0eb6
000003c0: d353 1237 0c1c 3c39 eb5a 99b5 93c0 dab5
000003d0: 7466 9538 9ac5 3fb9 4a50 f9b5 b59c eeb4
000003e0: d0c1 f7b8 9149 7339 d036 f235 1b8a e635
000003f0: 86ec 88b7 eeae d7b7 1b11 32b2 9dd2 e634
0.0003438343 0.00014421625 2.6430476e-07 -6.64784e-06 -6.407955e-05 -2.153685e-06 -6.030928e-06 -7.977795e-06
0.00031434835 0.00015065364 -6.680965e-06 -7.3614533e-06 0.00014394654 1.0850478e-05 -7.194303e-07 4.6367577e-06
8.302288e-05 2.2702123e-05 4.893927e-06 3.3173433e-06 -7.523775e-05 0.00041892176 6.5031973e-06 -1.4854036e-05
-3.9836385e-05 -5.0159856e-06 -4.136472e-07 2.4399396e-06 4.4360808e-05 4.6531477e-05 1.1703589e-06 2.7188444e-06
-7.025975e-05 -6.5415144e-05 5.564056e-07 -6.604531e-07 -9.89208e-06 -1.3384895e-05 2.5285178e-08 -5.790667e-07
7.5904645e-06 2.8778437e-05 1.4638672e-08 -4.3173333e-07 -1.3234834e-06 8.909933e-06 1.9950885e-07 8.2837795e-07
-0.00012353796 -0.00010697149 9.745393e-07 2.2701267e-06 1.5328125e-05 8.710588e-05 2.640926e-07 2.5714305e-06
-4.69456e-05 -0.00012270898 -1.0577947e-06 3.1515856e-06 -9.24696e-06 -8.880724e-06 1.1588647e-07 -6.963711e-07
1.6567263e-05 2.1063527e-06 -4.2670723e-07 -4.0436967e-07 1.6492684e-06 -6.74948e-06 -3.1482608e-07 3.9367433e-07
-4.1658044e-05 0.00026949265 -7.1606155e-07 -8.50291e-06 0.00014756515 -0.00015576836 -6.067527e-06 -6.288081e-06
-4.7552352e-05 0.00025560884 1.4797067e-06 4.532162e-06 -3.14922e-06 1.224638e-05 -1.02148086e-07 6.358049e-07
-4.424398e-06 -4.7541093e-07 3.1198596e-07 5.728265e-07 -1.8345616e-05 -1.8887995e-05 -8.834536e-08 -6.6524834e-08
1.4942237e-06 5.715501e-05 3.091154e-06 7.785097e-07 -4.206101e-05 2.692058e-05 -9.649639e-07 8.103223e-07
2.6646627e-05 4.4942204e-05 -7.436153e-07 -8.461667e-07 3.4871384e-05 5.0750274e-05 -5.889197e-07 -2.4716335e-06
4.726429e-05 -1.7416918e-05 -2.235497e-06 -2.3909915e-06 -2.4315263e-05 5.49495e-05 3.5118074e-07 1.4627004e-06
-3.167129e-05 6.81209e-06 -4.949654e-07 1.339345e-06 3.025365e-05 2.5494472e-05 5.3289386e-07 1.5062006e-06
-3.649325e-05 -1.0459424e-05 6.933068e-08 -1.5460548e-06 2.3921408e-05 -1.3856371e-05 -5.487479e-07 -4.7065834e-07
-1.8992499e-06 5.4071683e-05 -7.2177315e-08 -4.282929e-07 7.684142e-06 3.1031384e-05 -7.4437145e-07 -2.3844825e-07
7.426576e-05 8.547821e-05 -1.0550185e-06 2.2274853e-06 3.7765683e-06 -2.065533e-05 5.97831e-07 1.7026798e-06
-7.739937e-05 0.00010945969 -3.6033444e-07 -5.4105953e-06 0.000107414744 3.1204505e-05 -2.3553713e-07 -2.5677167e-07
-8.904304e-05 5.8340447e-06 1.3888625e-07 -7.48249e-07 6.5972667e-06 7.327959e-05 -2.2480533e-06 -3.955826e-06
4.2247804e-05 -3.0443282e-05 -2.5690795e-07 -7.672485e-07 -2.4515466e-05 -3.0581361e-07 -2.4497064e-07 -1.3135649e-06
4.1004252e-05 6.142359e-05 -2.6598326e-07 6.5203346e-07 -1.4051327e-05 -0.00032888632 2.807952e-06 2.2697698e-06
-0.0001907937 0.00024340433 4.044417e-06 3.6527556e-06 0.00019533707 -0.00064388826 -1.7190545e-06 5.212308e-06
-1.4987207e-05 -2.0538784e-05 3.6478053e-08 7.503688e-07 -1.5765308e-05 -1.0318134e-06 4.7595816e-07 6.703495e-07
-3.581859e-06 -5.102572e-05 -2.6342077e-08 2.1773066e-07 6.1264116e-05 0.00016419559 7.2084714e-07 4.822461e-06
-0.00014218545 -0.00014639559 1.5343809e-06 2.6167215e-06 -7.3389594e-05 0.0003155834 2.8197118e-07 -7.3253627e-06
0.00010935639 9.162052e-05 -1.9476242e-06 2.8374698e-06 -3.1728265e-05 -2.1689177e-05 1.3531557e-06 4.121349e-06
-0.00018017554 -0.0001553173 -3.9151096e-06 -3.6601728e-06 1.7353741e-05 0.00013032416 -2.2371073e-06 3.1092074e-07
6.6627044e-06 -1.4686705e-05 -3.8743774e-06 -1.254706e-06 -0.000121500285 0.0002669727 -1.1801757e-06 -2.1166604e-06
8.721795e-06 0.00017939525 -1.1425849e-06 -1.6298312e-06 7.123957e-05 -0.00018288792 -1.8575313e-06 -4.4444974e-07
-0.00011813978 0.00023201692 1.8046358e-06 1.7176529e-06 -1.6322603e-05 -2.5711455e-05 -1.0364853e-08 4.299408e-07

exp_avg_sq f4 [256, 12]
00000000: e3ad 6a35 93a8 1a35 7eef bf2e 13d3 4930
00000010: 2d05 0735 fa7d 5b35 4ef5 0530 d0a6 5530
00000020: 9625 4635 8eb6 f635 16bf 7930 283d d231
00000030: 8f5b 9435 23e3 dc35 0d2d 8d2f eeea 5c31
00000040: 4699 5435 996a b035 e00c 9530 9179 0431
00000050: 53a1 af35 edee 2136 c9f0 3831 63c8 5632
00000060: 8e2a 0433 c4fe 1233 e436 ff2c ea84 582e
00000070: ad99 d532 82dc 1d33 d56d a82d 7d68 222e
00000080: 347b f532 77be bc33 7e59 3730 82a3 8331
00000090: a3e1 ba31 738e 1c32 da5d e52b a0d2 4a2d
000000a0: c850 b031 498a 0532 d5ba 992c bf60 192d
000000b0: 5c65 d731 bf6a ae32 b879 0b2e 3713 362f
000000c0: 0913 e234 7e22 3935 f51e 1a2f a167 9930
000000d0: 2d10 b934 56b4 0b35 ce1c e82f 5ef8 4230
000000e0: 947b 1035 da2e 9235 67fb 1630 48e4 2331
000000f0: 0c4d 5532 27ad 9232 5339 922c b3d7 db2d
00000100: 93e4 4032 0cb0 9032 cd16 352d ea64 a72d
00000110: 26e2 8b32 bcbd 1633 4cac 162f 2d8e 4930
00000120: 8e54 c934 7c24 1c35 30f8 ca2e 6979 1d30
00000130: 6f53 9034 8e2a c134 a994 832f 71f5 d62f
00000140: 9714 b334 184b 8a35 41a4 972f 90e8 7a30
00000150: eddf 3432 017f 5732 15c7 4a2c 3918 9c2d
00000160: 25a0 0e32 a0ac 6a32 fa42 d22c 13dc 682d
00000170: 8842 4932 e474 1133 3460 442e 682c 992f
00000180: 202c 2635 6f8b 7f35 d66c 8f2f 6398 a830
00000190: c981 fd34 eb55 3c35 052e 1d30 db46 8430
000001a0: e75b 7235 7840 0336 1b42 2230 0db0 0c31
000001b0: e3c8 4133 6b21 5133 49fc 572d bf75 8a2e
000001c0: 7242 1033 0ac1 5533 03ad fd2d 18cb 442e
000001d0: 93a6 3033 2183 d233 70e6 df2f d1cd 2d31
000001e0: 0e1b 3833 cc3a 4e33 5742 0c2d fc63 752e
000001f0: 14c1 0b33 1756 4f33 4cc5 012e 1681 562e
00000200: 38be 3733 e142 0134 ad6f 042f a9c6 5a30
00000210: f4ad f432 66da 2833 e73b 222d 7821 832e
00000220: 18fc d032 b26e 1d33 575b cc2d 70bf 3a2e
00000230: 6e70 0733 6d45 9f33 a2e7 0130 485d 3331
00000240: 40fb e533 e28c ff33 85f9 142e 5267 892f
00000250: 99aa bc33 c8b2 1234 c652 da2e 85c8 402f
00000260: 3539 2234 f01f 8c34 51e9 bd2f 2f3d 0b31
00000270: 346d ae33 4a9a ec33 2920 ce2d 2055 162f
00000280: e05a 9a33 d21f 0634 3ce4 912e 6520 fd2e
00000290: 2a66 eb33 1c9b 7234 990d ec2f 2f56 2231
000002a0: c905 2e33 b9cf 5833 d4ed 2c2d ee73 9c2e
000002b0: 7399 1033 06fd 5d33 f7ba df2d 067e 7d2e
000002c0: 26f5 2733 19fd 1934 ea8d a92f 7169 df30
000002d0: 22ce 4a35 ffa1 9535 3a70 ad2f 44f5 fb30
000002e0: 02eb 3135 5597 8335 d080 5230 0a2b b230
000002f0: 34da 8d35 fa8c fb35 75f5 b730 7b17 e131
00000300: 5282 d731 5007 0d32 25f6 092c 581b 622d
00000310: e6fe b531 7eca 1b32 6170 a72c aa93 232d
00000320: 4d90 f631 9dda ba32 2756 492e 2f38 932f
00000330: 0f80 1735 5846 1635 3e24 6b2f 4040 8e30
00000340: 5538 d034 49d4 2035 e783 ea2f 57bb 4a30
00000350: 2d0c 3535 81d5 ca35 ac5c 6e30 1bd6 bf31
00000360: ccd5 ba34 918c 2235 d9d7 922e 8017 5030
00000370: bc42 a234 2949 1435 e19c c02f 07fe 1d30
00000380: 7a6b fe34 c21f aa35 8586 3f30 fe6f 9831
00000390: efc6 0d35 507d 2835 9c64 8d2f 1ee9 5230
000003a0: fe1f f834 9a5a 3435 0231 0e30 811b 6a30
000003b0: 5965 6835 a8e1 e835 862f 9e2f 7663 8430
000003c0: 1395 1535 29b2 0335 1680 c92e caa6 f52f
000003d0: 6dbb 9634 4909 ca34 5141 7f2f c597 ce2f
000003e0: 518a cd34 6061 8635 ff46 ef2f e524 f030
000003f0: 249c f631 9618 2032 1aed 222c 03f5 692d
8.742483e-07 5.761478e-07 8.728217e-11 7.342333e-10 5.029895e-07 8.176718e-07 4.8733717e-10 7.7726003e-10
7.381544e-07 1.8381559e-06 9.085722e-10 6.118757e-09 1.1053506e-06 1.6457383e-06 2.567976e-10 3.2147756e-09
7.9199197e-07 1.3144046e-06 1.0844836e-09 1.927763e-09 1.3085468e-06 2.4129943e-06 2.6912395e-09 1.2502002e-08
3.077235e-08 3.4224982e-08 7.25363e-12 4.9230765e-11 2.4866347e-08 3.675496e-08 1.9148164e-11 3.692734e-11
2.857778e-08 8.7890776e-08 6.670219e-10 3.8311905e-09 5.4389644e-09 9.112784e-09 1.6297478e-12 1.1529139e-11
5.131458e-09 7.773061e-09 4.369264e-12 8.718525e-12 6.2688468e-09 2.0304809e-08 3.171305e-11 1.655963e-10
4.210963e-07 6.8968063e-07 1.4017217e-10 1.1161668e-09 3.4470705e-07 5.204396e-07 4.222102e-10 7.092974e-10
5.382401e-07 1.0891483e-06 5.4926946e-10 2.3849385e-09 1.241575e-08 1.7075378e-08 4.155934e-12 2.4993207e-11
1.1227843e-08 1.6843863e-08 1.0293722e-11 1.9030517e-11 1.628457e-08 3.509716e-08 1.3703633e-10 7.332542e-10
3.750069e-07 5.816762e-07 9.2299834e-11 5.72888e-10 2.6882796e-07 3.5980014e-07 2.393439e-10 3.910077e-10
3.335633e-07 1.0303656e-06 2.758345e-10 9.127996e-10 1.0528294e-08 1.2543524e-08 2.881644e-12 1.7745904e-11
8.3019005e-09 1.3659843e-08 5.975995e-12 1.32365395e-11 1.1714867e-08 3.3866755e-08 4.4650686e-11 2.786209e-10
6.190403e-07 9.5197805e-07 2.608888e-10 1.226692e-09 4.7219353e-07 7.0160485e-07 5.7181665e-10 9.624402e-10
9.028576e-07 1.9558047e-06 5.90292e-10 2.0472755e-09 4.511902e-08 4.8691998e-08 1.2277354e-11 6.2964294e-11
3.3588044e-08 4.9768495e-08 2.8839603e-11 4.4745624e-11 4.112969e-08 9.802739e-08 4.07272e-10 2.5291806e-09
4.2865445e-08 4.8016588e-08 7.972809e-12 5.5795354e-11 3.2539063e-08 4.827424e-08 2.950644e-11 4.8772618e-11
4.278101e-08 1.2038392e-07 1.2045005e-10 7.959025e-10 2.8484443e-08 3.931418e-08 9.221935e-12 5.9631355e-11
2.4329026e-08 3.6655088e-08 2.3232678e-11 4.2461534e-11 3.153439e-08 7.416643e-08 4.7259097e-10 2.6100953e-09
1.07093456e-07 1.1899989e-07 3.3872922e-11 2.4993568e-10 8.785464e-08 1.366235e-07 9.928196e-11 1.7533537e-10
1.5108238e-07 2.610027e-07 3.454468e-10 2.026194e-09 8.12237e-08 1.10176714e-07 2.343377e-11 1.3672663e-10
7.187714e-08 1.2491299e-07 6.634379e-11 1.15108624e-10 1.0961624e-07 2.2594435e-07 4.2937812e-10 2.3623092e-09
4.0517794e-08 5.048034e-08 9.8298765e-12 7.114652e-11 3.3667174e-08 5.1685696e-08 2.5435194e-11 5.763747e-11
3.910568e-08 1.4341312e-07 3.0841757e-10 1.6255354e-09 7.5550827e-07 1.1148512e-06 3.1548258e-10 1.8332362e-09
6.627962e-07 9.804304e-07 7.658061e-10 1.2963437e-09 1.0568824e-06 1.8741987e-06 1.3384766e-09 6.5510313e-09
6.2721393e-09 8.208943e-09 1.9605509e-12 1.2852684e-11 5.296772e-09 9.068229e-09 4.758902e-12 9.298265e-12
7.1759474e-09 2.1752664e-08 4.5778627e-11 2.6779065e-10 5.6438233e-07 5.598172e-07 2.1386001e-10 1.0350121e-09
3.8784006e-07 5.991356e-07 4.2658074e-10 7.37534e-10 6.744547e-07 1.5112311e-06 8.671559e-10 5.5831726e-09
3.4800757e-07 6.0554254e-07 6.6776536e-11 7.5703355e-10 3.0223407e-07 5.524076e-07 3.5036066e-10 5.747726e-10
4.7389386e-07 1.267523e-06 6.967656e-10 4.4365143e-09 5.281608e-07 6.276723e-07 2.5719238e-10 7.6728834e-10
4.6216877e-07 6.718707e-07 5.1728943e-10 8.516779e-10 8.6574215e-07 1.7351022e-06 2.87738e-10 9.632533e-10
5.5723757e-07 4.906056e-07 9.1631744e-11 4.468375e-10 2.8076047e-07 3.7632188e-07 2.321532e-10 3.757902e-10
3.8284864e-07 1.0012118e-06 4.3524293e-10 1.7472784e-09 7.1772934e-09 9.318816e-09 2.3153202e-12 1.329892e-11
