logs/rl_games/klask/sim_collision_ro_a0_2/nn/klask.pth (torch, 74138 bytes, 24 tensors)

a2c_network.sigma f4 [4]
00000000: 3ce9 09c0 e1e2 40c0 ee7d d2be 3e4f 88be
-2.1548605 -3.0138476 -0.41111702 -0.26622957

a2c_network.actor_mlp.0.weight f4 [64, 12]
00000000: e308 223f f100 31be d2c2 6a3d 95f7 a73e
00000010: 4ad5 7d3e 470e a5bc f71c c6bd 9f73 423e
00000020: 2598 1ebe 706b 27be a607 a0bd e3d2 573f
00000030: df4f e4bf b54f 56bf 3102 8dbd 95b4 fdbd
00000040: 71f7 12bd b1c1 6ebd 7b14 e33b ba7b 35bd
00000050: 8b71 f23f 4142 9f3f cb7f 89bd 305e 34be
00000060: d1a2 79be c5e0 643f 8ac0 d6bc 869f 40bd
00000070: 7403 15bd 75bd c5bd f057 5e3c dfa7 cd3c
00000080: 4401 343e 9b16 d8bf d7ed 4c3d 6ab0 193e
00000090: 65f0 f43e 1530 17bf d480 a0bd 28c2 fbbd
000000a0: c6cf a1be ea8c a33e b569 213d 4803 a6bb
000000b0: 56c1 28bf 85cb 8a3f 010d 0b3e b42b c03d
000000c0: 4766 b43e 9542 63bf b95c 6d3d 562b 273d
000000d0: 8f7b 1dbe 7f91 0abe d8c3 253d c1ba 34bb
000000e0: 6397 98bf bcbb 77bf 6aee ad3e ef69 833e
000000f0: fcd6 243e 8f6f 31bf 9f9a 743c 3329 44bd
00000100: ccd7 74bd 6ebc 733d 8ae7 ccbc 10b0 773c
00000110: f5f6 5dbf 4476 b1bf 516b 043e 110e 4c3d
00000120: 5958 e7be 6a82 08bf c61e 11bd e95d 063d
00000130: 6a65 32be eb5a a93e a151 063d 4fa7 a5bd
00000140: c36b ad3f 8e4c 9d3f dbab 88be 67ae 12bf
00000150: 98b2 6d3f 8fd4 51bd fdc4 a3bd d2a4 babe
00000160: d5d9 39be 96c3 423d 842e 5dbc 89e8 a8bc
00000170: 4b79 c7bf 9ba5 1ec0 921a f5be aa3a b3bf
00000180: 6bff c1be 8d97 18bf 2cfb e4bb da27 2c3e
00000190: 2e95 0a3e 3ed4 81be c984 693c 83ca 91bb
000001a0: f872 443f 8876 ebbf e3f2 0cbd 22b1 44bf
000001b0: d9a5 cabe 5c43 08bf 9cd0 f13e b4d0 85be
000001c0: 37b0 82be ba8e 48be b7e7 a3bc b0fb 9ebb
000001d0: 6513 ca3f f536 a9bf c72d 8a3f 85e9 c5bd
000001e0: d8d0 b8bf 644b 133f a15a 7cbd a94c 3a3e
000001f0: 0e47 b9bd 24fa aebd 9515 4cbc ec34 14bc
00000200: 32ed c53f 3c65 16c0 76c2 c73b 5eb5 2ebf
00000210: 81c3 49bf 9fba bbbe 6617 a93c 8418 a1bd
00000220: 7f00 b43d 0f00 6bbe faf6 a43b 4560 b23b
00000230: 4f2d ce3f 944a bbbf e06f 883e 4c0c 94be
00000240: 60be 443e 55b9 ef3d 67f5 49be b51d b8bc
00000250: 7ac5 3e3c f2f6 4fbd 2757 6d3c 0c3a 193c
00000260: 0fb7 af3f 1883 1cc0 7eb0 38bf c288 de3e
00000270: 4782 083f f0e2 1ebf 0373 2c3d 9162 113c
00000280: 12fa ef3d 47d0 14bd cfed 8abc 2992 92bb
00000290: c3d3 ebbf 3ab2 443f 2979 613e 8cfd dcbe
000002a0: c777 34bf 2b9e 113f e364 c63d 0327 c6bd
000002b0: abcc 6ebd 9be0 cf3d ea79 9ebb 5b68 c03c
000002c0: 3349 68bf 9a77 f5bf 3428 af3d b945 133d
000002d0: bcad c33f c403 623f 8bed bd3d 9e39 06be
000002e0: 48a8 5fbc 6794 87bd 8eb7 ef3b 97dd 913b
000002f0: e37e bbbf 3214 9abf 5d5b 343e b9df 593e
00000300: c153 073f ce25 58bf 3015 4c3c 154f 0c3e
00000310: 6cf6 e4bc e624 10be ffc7 9cbc 0e3e 1c3d
00000320: 88e5 6dbf c10b 1a3f bc49 b23d 1e01 7b3f
00000330: 311f bc3d 4a98 dcbe dd07 1ebb 2171 813e
00000340: 3f77 3dbe 4a8e d03e dcc5 bdbc 0ee4 a63b
00000350: 9f0e 10bd 9744 de3f 1fb3 e13e 1c8d d83e
00000360: 1ec2 03bf a124 61bf f8e3 ecbd e0af e8be
00000370: 03d5 a03d 3c55 bf3d 2169 193c 36a1 cebc
00000380: 57c8 24bf 3fb2 efbf 23f5 c5be 7a65 2ebf
00000390: 4f52 203f ec9d 88bf 9ce2 02bd 0686 1e3d
000003a0: fd56 57bd 3d7d 84bd 2157 12bd af3b 783d
000003b0: 4fbe 9abe 9c76 8c3f 6bc2 a9bd 0404 a7be
000003c0: 50ee 183f 31dd ddbe 73cf 04bc d74f 21be
000003d0: b246 e33e f6d9 71be e273 f03a 56b1 333c
000003e0: 459f 803f d800 14c0 ebaf 123f 3fa9 93bf
000003f0: d5ce 683f b6a5 cd3e 6879 073e 4705 b93d
0.6329481 -0.17285515 0.0573147 0.32806078 0.24788395 -0.02014841 -0.09673493 0.18989418
-0.15487726 -0.16349578 -0.07813959 0.8430616 -1.7836875 -0.83715373 -0.068851836 -0.12387959
-0.03588051 -0.058290187 0.0069299317 -0.044307448 1.89409 1.2442094 -0.06713828 -0.17614055
-0.24378516 0.8940547 -0.026214857 -0.047027133 -0.036380246 -0.09655277 0.013570771 0.025104461
0.17578608 -1.6881899 0.05003151 0.15008703 0.47839656 -0.5905774 -0.07837072 -0.12292892
-0.3160383 0.31943446 0.03940745 -0.005066309 -0.6592001 1.0843359 0.1357918 0.09383336
0.3523428 -0.8877347 0.057949755 0.040812813 -0.15379165 -0.13532065 0.040469974 -0.0027577134
-1.19212 -0.96770835 0.33970958 0.25666758 0.16097635 -0.6931085 0.014929443 -0.047890853
-0.059776112 0.059505872 -0.02501275 0.01511766 -0.8670495 -1.3864217 0.12931563 0.049818102
-0.4518459 -0.53323996 -0.03542974 0.032804403 -0.17421499 0.33077177 0.03279269 -0.08088552
1.3548511 1.2288988 -0.26693615 -0.57297367 0.9285064 -0.051228102 -0.07996557 -0.36453873
-0.18149503 0.047549807 -0.01349986 -0.020618694 -1.5583891 -2.4788578 -0.47871834 -1.4002278
-0.3789018 -0.5960625 -0.00698795 0.16812077 0.1353347 -0.2535724 0.01425285 -0.00444919
0.7673793 -1.8395548 -0.034411322 -0.76832783 -0.39579657 -0.5322778 0.4722947 -0.2613579
-0.25525066 -0.19585696 -0.020007951 -0.004851781 1.5787169 -1.3219897 1.079522 -0.09663681
-1.4438734 0.5753691 -0.061609868 0.18193306 -0.09046756 -0.08543804 -0.012456317 -0.009045821
1.5463011 -2.3499289 0.0060961796 -0.68245494 -0.7881394 -0.36665818 0.02064104 -0.07866004
0.08789157 -0.22949241 0.0050343247 0.005443605 1.6107577 -1.4632134 0.26647854 -0.28915632
0.19213247 0.11705271 -0.1972252 -0.022475103 0.011643762 -0.050772615 0.014486111 0.009352218
1.372774 -2.4455013 -0.72144306 0.43463713 0.5332379 -0.6206503 0.04210187 0.008873598
0.11717619 -0.03633144 -0.0169591 -0.00447299 -1.8424 0.7683445 0.22018875 -0.4316219
-0.70495266 0.5688197 0.09687211 -0.0967541 -0.058300655 0.10150262 -0.0048363106 0.02348726
-0.90736693 -1.9177125 0.0855259 0.035955165 1.5287395 0.88286996 0.09273823 -0.13107917
-0.013650961 -0.066201024 0.0073155826 0.0044514644 -1.4648098 -1.2037413 0.17612977 0.2127675
0.52862173 -0.84432685 0.012456223 0.13702042 -0.027949534 -0.14076576 -0.019138334 0.038145117
-0.9292836 0.60174185 0.0870547 0.9804858 0.09185637 -0.43084937 -0.0024113574 0.25281623
-0.1850252 0.40733558 -0.023165636 0.005093104 -0.035170194 1.7364682 0.4408197 0.42295158
-0.51468074 -0.87946516 -0.11566919 -0.45446682 0.07853129 0.09342429 0.009363444 -0.025223356
-0.64368194 -1.8726271 -0.38663587 -0.6812359 0.6262559 -1.0673194 -0.031954393 0.038702033
-0.052573193 -0.064692 -0.035727624 0.060603794 -0.3022332 1.0973697 -0.082890354 -0.3262025
0.59738636 -0.43332818 -0.0081061 -0.15753113 0.44389874 -0.23618302 0.0018345083 0.010967573
1.0048605 -2.3125515 0.5729968 -1.1536025 0.909406 0.4016549 0.13229907 0.0903421

a2c_network.actor_mlp.0.bias f4 [64]
00000000: 59de 6f3d 56ff 913e ac59 ff3d 13cf 80be
00000010: 77a5 7abe d0e6 01bf 88a0 8f3e 88df acbd
00000020: 1212 d93c 200a 81be 77b0 b83d 443f d6be
00000030: 75d8 debe c7f7 8fbc 0888 153e fd34 563d
00000040: 9542 1abf ccc5 be3e 7475 2abe 986e dd3d
00000050: c61a abbd f9a9 0a3f 6a58 323c 4b34 0c3d
00000060: 3a21 52be 9de2 943e 0a1f 9fbe 8dbd 9e3c
00000070: f210 5fbd 09ee 043e 3ba4 3dbd ff13 8e3e
00000080: dec2 3a3d 8d17 e73e 9b73 54be c241 9b3e
00000090: b451 f7be 7756 8dbe f4c4 8a3e ad4b 003f
000000a0: cb1d f3be b598 263d 205d 34be cf7a 4c3d
000000b0: 22ea 553e 62ed c5bb 024e 81be 64fa 8a3d
000000c0: 9251 0ebd 7fe3 e1bd e86d 813d 7351 773e
000000d0: c73a 213f acaa edbe d008 b0bd 9355 39be
000000e0: 5fb2 573e 2387 1f3d eee4 96be 12a7 153d
000000f0: 1f13 d03e 1d23 893c 3127 a3be 4ac8 123f
0.058561657 0.28515118 0.124682754 -0.25157985 -0.24477182 -0.50742817 0.28052163 -0.08441073
0.026497874 -0.25203037 0.09018033 -0.41845143 -0.4352452 -0.017574204 0.14602673 0.052296627
-0.60257846 0.37260282 -0.16646367 0.1081211 -0.08354716 0.5416561 0.010885337 0.034229558
-0.20520487 0.29079142 -0.31078368 0.019377494 -0.05445952 0.12981428 -0.0462992 0.2774963
0.045595996 0.45135155 -0.20747225 0.30323607 -0.48304522 -0.2760503 0.27103388 0.5011547
-0.47483668 0.040672977 -0.1761365 0.049921807 0.20890096 -0.006040261 -0.25254828 0.067860395
-0.03474576 -0.110297196 0.06319791 0.24152164 0.6298031 -0.46419275 -0.08595431 -0.1809905
0.21064137 0.038947236 -0.29471534 0.036536284 0.40639588 0.016740376 -0.31865838 0.57336867

a2c_network.actor_mlp.2.weight f4 [64, 64]
00000000: c789 b93d 5c6d 1dbf d98a 1340 b9c5 6fbf
00000010: 2db1 8a3e b36b d33d a423 d7be bac3 d13e
00000020: bb6e bf3e 9eea 313f f560 7b3f 52c6 473e
00000030: d30a 5d3f bc19 5bbf f25a a43f 48bf 0540
00000040: 2b35 58bf 5611 4cbf 135f ea3e 6859 84bf
00000050: 79c3 f33e b220 1a3f 8bb4 653f edbb a73d
00000060: b362 513f 7dbd 253f e77b a23d 48d6 ae3f
00000070: 58d4 a33f 3724 67be 9648 69bd b435 69be
00000080: 8521 3d3f c743 a8ba c1c8 7ebe b36c debe
00000090: d6b2 9dbf ab3b 553f 4e04 563f 65b7 5cbd
000000a0: fbb8 aa3e 5bf2 573f 5d14 653f 1f16 2a3f
000000b0: 7b04 dabe a4f1 05bf 4bb3 36bf d104 72bd
000000c0: d09c 3a3f ac6a 03bf 6464 393f c298 63bf
000000d0: d64f 813e 9300 853f deca bc3f f791 17be
000000e0: 831e c4be bfd7 5d3f cdca 963f 2bfc 453f
000000f0: 7124 833e 3f69 a8bf 42fd 23bf 226a d03f
00000100: 8b6e 2c3e 836a 63be 7401 c2be 9dbe 033f
00000110: 7ff7 cd3e bf43 213f c82f 833d 7e36 43bc
00000120: 448c bfbd 0794 cb3e c0ba a2be dc92 f93e
00000130: 2505 c13e d792 313e 4872 d1be f544 dbbe
00000140: 8027 4d3f 771e 033c 2394 c23c a131 c13c
00000150: a70e d3bc d283 e3be f69f 963c 9c69 c4bd
00000160: b78e 533d bf40 aebe bb94 5d3e 6a31 82be
00000170: 275a be3b f81d 983e a096 c73d 230f a0be
00000180: f995 a4be b9ed cbbe 56ec 383e 4dc2 cbbd
00000190: 5350 063f 0cf1 383e cdc1 f6be 3321 bcbe
000001a0: c6e8 f53e e4b5 4cbe 2e2b 63bd 7611 06bf
000001b0: 540d 9abe cc80 a1bc fee9 ec3e eeaa d83d
000001c0: 34b1 2fbe 19de 07bb fda0 15be f739 523e
000001d0: 19e2 ddbe 69c5 853e e987 173d a1a3 e33d
000001e0: bd4c f7be 3713 d93d 25de c03e a589 8cbe
000001f0: 7f33 55be eebc b83e 775b 013e 754a edbe
00000200: c172 74bc 13db 3ebe 7235 6bbd 53b3 e2bd
00000210: 8afc c03d f9f6 023e ba6a 123e d84f 67be
00000220: 7338 00be bea8 9bbe 6f77 e3be 171e 28bc
00000230: 12e3 adbe fc85 9b3e 7ebf 3cbc d1ae e1bc
00000240: 2acf a3be 80b1 8ebd 11f3 9fbd b30f 393e
00000250: 1d06 1fbf 345c 7aba 97e9 223e d715 983e
00000260: 586a a8bd 94f0 12bd b8f3 4cbe caa0 97be
00000270: b34d abbe 299f 01be 1bdc fdbe 69c1 f9bd
00000280: 108a b7be c426 0a3e ac0d 5f3e 5c8b 83be
00000290: 0e06 9ebe 1b02 44be ef0a 5b3e f3e6 5fbe
000002a0: 0745 55be 5d20 95be def2 86bd 2ac0 cabc
000002b0: d637 d5be c93a e0bd aa36 2abc 08df 1abe
000002c0: 5f0c 0ebf 6531 4fbe 001d f3be 2962 6abe
000002d0: 5579 d63d e3c9 6fbe 5d1c 1abc efd3 31be
000002e0: c589 0cbf 984e babe c8d3 fcbd 38b9 fbbe
000002f0: a642 4abe df54 bc3d 29df 45bc e581 623e
00000300: b027 8f3e baeb c03e 85f4 e53c 8140 88be
00000310: eee1 1c3d e41c f8bd 41d9 03bd 17c7 4f3e
00000320: 327f 163e f1bb 8cbd 605d 8e3e 232f 86be
00000330: 0895 ae3d 49d4 b0be 6558 873e 703c 08be
00000340: 4d9f a33d 39e1 6d3e ac75 813e 8c31 13be
00000350: 7e9a 4e3e 4367 32be 7ae7 873e 2c14 e0bd
00000360: c92c 60be 8e12 803d 271a ea3d 7665 1b3e
00000370: 9ccf 313d 3c64 b63e 4cdb a43e 6396 49be
00000380: 365f ac3e 01a4 963d b601 58bd 92a4 e43e
00000390: 1061 5b3d 6d20 18be 77e7 0abd bfb0 fe3e
000003a0: 6d8b 8fbe a974 133e 9993 1b3c 1d2b 863e
000003b0: b2dc 953e ceb1 cbbe 2c93 93be 11e0 8a3e
000003c0: 3196 af3d f583 b1be c29b 443e f125 d4bd
000003d0: db2f 623d a674 0dbd 114c fe3d 19e5 43be
000003e0: af81 b33e 1f79 c03e 555b 6a3e 65d4 eb3c
000003f0: 9f7b 853e 96dd 2abe a969 8abe e448 023d
0.09059482 -0.61494994 2.3053496 -0.93661076 0.270883 0.10323276 -0.4201938 0.4096964
0.37389168 0.6949862 0.9819482 0.19509247 0.8634464 -0.8558614 1.2840254 2.0898
-0.8445613 -0.7971395 0.4577566 -1.0339785 0.4761007 0.6020614 0.8972861 0.08190141
0.8179123 0.6474226 0.07933789 1.3659143 1.2799177 -0.22572409 -0.05695399 -0.22774392
0.7387927 -0.0012837582 -0.24881269 -0.43442306 -1.2320201 0.8329417 0.8360032 -0.053885836
0.33344254 0.8435418 0.89484197 0.66440004 -0.42581543 -0.5232184 -0.7136733 -0.059086625
0.72895527 -0.51334643 0.7241881 -0.88904965 0.25256222 1.03908 1.474941 -0.14801775
-0.3830453 0.8665733 1.178064 0.773379 0.2561374 -1.3157119 -0.64058316 1.6282389
0.16839044 -0.222086 -0.37891734 0.5146273 0.40227887 0.62994 0.06405598 -0.011914847
-0.093529254 0.39761373 -0.31783104 0.48744857 0.37699237 0.17341171 -0.40907502 -0.42826048
0.801384 0.008002869 0.023752278 0.023583235 -0.025763823 -0.44436508 0.018386822 -0.09590456
0.051649775 -0.34033772 0.21638767 -0.25428325 0.005809087 0.29710364 0.09745526 -0.31261548
-0.3214567 -0.39829805 0.18058905 -0.09949169 0.52466315 0.18060702 -0.48194733 -0.3674408
0.48029155 -0.19991261 -0.0554611 -0.52370393 -0.30088294 -0.019714735 0.46272272 0.10579477
-0.17157441 -0.0020731746 -0.14612193 0.20529924 -0.4333656 0.26127174 0.03699485 0.11115194
-0.48300734 0.10599368 0.37669483 -0.27448764 -0.20820425 0.36081642 0.12632547 -0.4634587
-0.014919938 -0.18638258 -0.057424016 -0.1106936 0.09423168 0.12789525 0.14298525 -0.22589052
-0.12521534 -0.30402178 -0.44427058 -0.01026108 -0.33962303 0.3037566 -0.011520265 -0.02754918
-0.3199399 -0.06967449 -0.07810033 0.18072395 -0.62118703 -0.00095504825 0.1590942 0.29704162
-0.082234085 -0.035873964 -0.20014846 -0.2961486 -0.33457717 -0.12658371 -0.4958199 -0.12195093
-0.3584752 0.1349135 0.21782559 -0.2569226 -0.30863994 -0.19141428 0.2139089 -0.21865444
-0.20827113 -0.29126254 -0.06589292 -0.024749834 -0.41644162 -0.109487124 -0.0103890095 -0.15124142
-0.55487627 -0.20233686 -0.47483063 -0.22889008 0.10472361 -0.23416857 -0.009406176 -0.17366003
-0.5489772 -0.36388087 -0.123450816 -0.49164748 -0.19751987 0.091958754 -0.012077131 0.22119863
0.27959967 0.37679845 0.028070698 -0.26611713 0.0383014 -0.121148854 -0.03218961 0.2029079
0.14696959 -0.068717845 0.27805614 -0.26207837 0.08524519 -0.3453696 0.26434627 -0.13304305
0.079893686 0.23230447 0.2528509 -0.1437437 0.20176122 -0.17422204 0.2654379 -0.109413475
-0.21892084 0.06253539 0.114307694 0.15175423 0.043410882 0.35623348 0.3219856 -0.19686274
0.3366639 0.073555 -0.052736007 0.44656807 0.053559363 -0.1485612 -0.03391215 0.49744222
-0.2803606 0.14399971 0.009495639 0.26204768 0.2926994 -0.39784092 -0.2882322 0.27124074
0.085735686 -0.34670988 0.19200042 -0.10358799 0.05522142 -0.034535073 0.12416852 -0.19130363
0.35059878 0.37592408 0.22886403 0.028787801 0.26070878 -0.16686091 -0.27033737 0.031807795

a2c_network.actor_mlp.2.bias f4 [64]
00000000: 21a9 e53e daa9 81be 3fca a0bd 0124 c53e
00000010: 9c4a 84bd efcc c9bd e4bc 2fbe ac06 fe3d
00000020: dd7f 03bc 1279 47bd 2497 1cbe 7fe4 45be
00000030: 3cf2 d5bd 7863 36be 9b64 cbbe 5cd0 af3d
00000040: 8515 8d3e f9e5 033e 1cb0 96be 7078 c2be
00000050: 6856 133d 1a51 f73d 212e 543b b597 31bd
00000060: 1b9f 53be 3b59 e8be f9bd 393c 46f9 d63d
00000070: 57a1 1ebe 991a 19bd 7f55 bdbd aee0 b5bd
00000080: 7659 4fbe 947f 283e f7fd c5be c24d 8ebd
00000090: c52a 52bf 8a3c 5d3e 44b4 56be a9c6 5bbd
000000a0: dcd8 403e 51dc 14be 3bf7 b7bd 595e e7bd
000000b0: 8fb6 06be b7df 2dbe 07d5 36bf 1a20 633e
000000c0: 8676 44be 228d 813a b603 673c c8d4 e63d
000000d0: 7dec 53be d792 a73e ffde 59bd a80f bdbd
000000e0: 3e2d cdbd e265 52be e75c f63b 487d de3e
000000f0: 276d f43d aa48 3e3e 122d 90be 9a0a 28be
0.44855598 -0.253249 -0.078510754 0.3850403 -0.06459543 -0.09853541 -0.171619 0.12403616
-0.00802609 -0.048699446 -0.1529203 -0.19325446 -0.10446593 -0.17811382 -0.39725193 0.08584663
0.2755548 0.12880696 -0.29431236 -0.37982512 0.035971075 0.12076016 0.0032376128 -0.04335757
-0.20666163 -0.45380577 0.011336797 0.10496764 -0.15491234 -0.03737888 -0.09244823 -0.08880745
-0.2024897 0.16454917 -0.38670322 -0.06948425 -0.8209651 0.21605125 -0.20967203 -0.053656254
0.18832725 -0.14537169 -0.08982702 -0.11297292 -0.13155578 -0.16979872 -0.71418804 0.22180215
-0.19185838 0.000988398 0.014100006 0.112710536 -0.20695682 0.32729217 -0.05319118 -0.09231502
-0.10018395 -0.20546678 0.007518399 0.43454957 0.11934882 0.18582407 -0.28159386 -0.16410294

a2c_network.value.weight f4 [1, 64]
00000000: 0387 953f e2cd d6be 4625 0ebf 954d ce3e
00000010: 14fe 03bf 99d3 adbf b516 2cbf e202 843e
00000020: d574 0d3d 31b6 a7be cff7 90bf e20b c7be
00000030: 967f 9fbe 8048 d1be fdc0 83bf c7a3 283d
00000040: 6cde e93e d243 0e3f 8aa3 abbe f95d b4be
00000050: e0f3 d0be 3b69 8b3e c194 783b 4205 18be
00000060: 911b 23bf d8e3 d3be b89c e53e 7aa4 503e
00000070: b63e 13be 50ae 873e 77f5 6bbf d531 f3be
00000080: 36d2 59bf 66c2 933e 5855 dfbe 628a f4be
00000090: 4cb4 f6bf dcf4 f33e f5cc c3be 8d8d 5e3f
000000a0: 8bad ef3e 36fa f3be 7adf 89bf ab94 0bbf
000000b0: 6031 e6be 162e 17bf 2560 c2bf 6ec2 703f
000000c0: 971c c0be d1b7 d2be 0080 3d3f 885c fe3e
000000d0: 9c4a cabe 66cb d33e a222 aebe 52d7 ca3c
000000e0: 9e2c 20bd 941b 903d 5393 253f 5743 083f
000000f0: c9f4 273e 2b17 243f 9dde 19be a1b7 d2be
1.1681827 -0.4195395 -0.55525625 0.40293565 -0.5155957 -1.35802 -0.6722215 0.2578345
0.034535248 -0.3275619 -1.1325625 -0.38876253 -0.31152028 -0.40875626 -1.029327 0.041171815
0.45677507 0.55572236 -0.33523208 -0.35227945 -0.40811062 0.27228722 0.003793046 -0.14845756
-0.6371394 -0.41384768 0.4484613 0.20375243 -0.14379391 0.26500177 -0.92171425 -0.47498956
-0.8508638 0.28859252 -0.436198 -0.47761828 -1.9273772 0.4764775 -0.38242307 0.8693474
0.4681209 -0.47651833 -1.0771325 -0.54523724 -0.44959545 -0.59054697 -1.5185591 0.94046676
-0.37521812 -0.41155866 0.7402344 0.4967997 -0.39510047 0.41366118 -0.34010798 0.024760876
-0.03910505 0.0703651 0.64677924 0.5322775 0.16401972 0.6409785 -0.15026326 -0.41155723

a2c_network.mu.weight f4 [4, 64]
00000000: b1a9 e1bc 0548 4abc a33e 223d cf3e 5a3e
00000010: 3062 163d e54e dc3c ca82 043e 9170 2ebe
00000020: a6b6 7b3e 19fb f63d c9b0 833c 9e42 823c
00000030: 14ad 3d3d d69c cabe ef4a d33d e3aa 383c
00000040: 1572 42bd 5feb f73d 4d94 273d bf8f 93bb
00000050: a59d f2bc a3c0 e93e dd27 393e 0881 893f
00000060: 31c0 a4bd e176 a53c 46a3 fab9 7c00 acbd
00000070: bdb8 563d 783b b73d 1e4d 82bb f377 043e
00000080: abcb eebc 832a cdbd 3ff4 1f3e bad1 acbd
00000090: 524d 53be cc07 ffbd 24ac 5fbc a512 b2bd
000000a0: 3c7d a3bc f39e a33d ac0f 493e 950b c43e
000000b0: a727 063c 68cc fa3d eed6 363d 6751 203d
000000c0: a020 513e d2a0 b23d e59b ddbd 2cc2 1bbd
000000d0: 4c5a 35be 6827 d83c c4a4 1c3b 50aa 21bd
000000e0: 2e0c d4be d248 113f 32cd ce3e 9ce1 85be
000000f0: 747f 37bc b753 eebc c854 95bb e484 2abd
00000100: f14b 57be 19b3 493d b648 73bd d746 413e
00000110: e3e4 86bd 23f7 7bbc 43aa 8a3d 3c1e 943d
00000120: c0bd 4c3e e2f2 993e 7395 26bd a394 7c3e
00000130: d63f 90bd cedf 363e 2c15 3b3e e890 5f3e
00000140: 958c 963d b016 b33e 17e2 5fbe 7837 64be
00000150: b5b7 38bc 6212 803e 080f b73e db0a 813d
00000160: 3c30 fd3d 6512 92bd a39c b7be d722 933d
00000170: d0b7 7ebe 53b6 35be a593 cebd 57ad b8bd
00000180: cffe e23d d68d 993c d626 d2be 0010 633e
00000190: 4d01 c4be 6dc6 c8bd fece 89bb 892f 38be
000001a0: 7329 1f3c b84c 843e 3e21 873d 3901 bc3e
000001b0: 5476 22be 1eba 093e 5314 febe 73e8 8ebd
000001c0: 4c8f f0bd 3d10 963d eea2 5fbd 95a8 9ebd
000001d0: 65a0 babd 9faf 0a3e b3ca c8bd 88bf adbe
000001e0: 17ad 013f 53ba e9be 563b a3be bb5e 8f3d
000001f0: 2b4c 6e3e 522b 283d 0ed4 98be 7f8e 063e
00000200: d9cf 6d3c 2613 5dbd 41c0 5c3c 37fb d0ba
00000210: 8a9c 433b 8fa2 763d bf9c 8f3c 5c3d 50bd
00000220: 9fcd b4bc 8bff 6e3c 8c17 3c3d ed80 1bbe
00000230: bac3 0ebd 184a 773d 1ac9 b9bd 5c6a 1ebd
00000240: d298 b1bd 2f3e 8f3d 7642 ce3d 00a0 47bc
00000250: 4522 dbbd beaa 1d3d 331d a83d cafa 543e
00000260: 7107 87ba 0d3e ab3d a42f f6bd 67d8 83bd
00000270: 357f 7d3c 43ff 0d3d 09c7 9bbc 038b 0a3e
00000280: af6f 2ebc 3d25 05bd f5d9 69bd 6523 11bc
00000290: 177b 163b f762 1ebd 771e be3c 3648 3a3d
000002a0: b22f e1bc 68f0 b9bc 503f 813c 642a f43d
000002b0: b918 efbd bbd2 14be b58b 25bd d70b 28bd
000002c0: 85f7 87bd d326 013d 30c6 253a 67fa 883c
000002d0: b818 043d 8fa5 903d fe1b cabd ccf2 0ebd
000002e0: 1e2a 5e3d 97b8 ea3d de2a 2cbd 8069 ea3c
000002f0: dc67 d53c 67b7 e53c 2d29 91bd e5db 803c
00000300: 41cb edbc 5057 d93c fee7 7abd db12 ecbc
00000310: 29f2 9aba b6db 853d 04c1 9e3d d0e2 723d
00000320: 795d a3bd 6451 b43d 8b58 ef3c e05a 72bd
00000330: a619 e9ba 6d43 ab3d 2cf0 69bd ef53 03bd
00000340: a5e9 cdbd b9bc c13d 4373 053d 2e62 a1bd
00000350: 447c 183c 4eae a33d 7d15 debc 6077 383c
00000360: 2957 2a3d ddc1 273d 288b f6bb 74aa c73c
00000370: 20c9 f93d 2fd8 db3d ffd7 373d d173 ee3d
00000380: 9f08 62bc 160e 07bd a3fb 4cbe 2ec5 1b3d
00000390: 4447 1c3d 130a e63c bbda 81bd be3b b73c
000003a0: dfdb 6fbc a957 90bc 4b88 11bb 730b 533d
000003b0: 0110 babb 64c3 1dbc 1932 c1bc 5924 aebd
000003c0: 4fc7 f43d 0ac4 5ebd 7c36 5c3d c6bb e93b
000003d0: 31a3 f53c f312 783d 3d84 aebd 86c6 a93c
000003e0: 254d 653d 34eb 8a3c 1131 7ebc 23c3 ac3d
000003f0: 5e58 9fbd eb5d 2e3b b09e c2bc 8b7d 3d3d
-0.027546735 -0.012346272 0.039610516 0.21313022 0.036714733 0.026893089 0.12940517 -0.17035128
0.24581394 0.12059612 0.016075509 0.015900906 0.04630764 -0.3957278 0.10317027 0.011271211
-0.04747208 0.1210544 0.040912915 -0.00450322 -0.029616186 0.45654783 0.18081613 1.0742502
-0.0804447 0.020198287 -0.00047805364 -0.0839853 0.052422274 0.0894689 -0.0039764782 0.12936382
-0.02914985 -0.10017874 0.15620516 -0.0843844 -0.20634964 -0.12452659 -0.013651881 -0.086949624
-0.019957177 0.079893015 0.19634885 0.38290086 0.008188165 0.12246019 0.044638567 0.03914013
0.20422602 0.0872208 -0.1082075 -0.038026974 -0.17710227 0.026385978 0.002390192 -0.039469063
-0.41415542 0.5675174 0.40390927 -0.2614869 -0.011199821 -0.029092653 -0.004557226 -0.04163064
-0.21025063 0.049243066 -0.059395514 0.1887468 -0.065866254 -0.015378746 0.06770756 0.07232329
0.19994259 0.30068117 -0.04066987 0.24666075 -0.07043426 0.17858812 0.18269795 0.21832621
0.07351033 0.34978247 -0.2186359 -0.22286785 -0.011274268 0.25014025 0.35753655 0.06300899
0.123627156 -0.07132415 -0.35861692 0.071843795 -0.24874806 -0.17745332 -0.10086755 -0.09017437
0.11083757 0.01874439 -0.41045254 0.22174072 -0.38282242 -0.09803472 -0.0042055836 -0.17986883
0.009714472 0.25839782 0.06598137 0.36719683 -0.15865451 0.13449904 -0.4962488 -0.0697793
-0.11746082 0.07327316 -0.05459874 -0.07746998 -0.09112624 0.13543557 -0.09804287 -0.3393519
0.5065474 -0.45649967 -0.31881207 0.0700049 0.23271243 0.04105694 -0.29849285 0.13140295
0.014514887 -0.05397334 0.013473571 -0.0015944008 0.0029847943 0.06021362 0.017530797 -0.050839767
-0.022070704 0.014587293 0.045920894 -0.151859 -0.03485463 0.060373396 -0.0907156 -0.03867565
-0.08671726 0.069942825 0.1007127 -0.012184143 -0.10699896 0.03849291 0.08208694 0.20798793
-0.00103019 0.083614446 -0.120208055 -0.0643776 0.015472223 0.034667265 -0.019015806 0.13529591
-0.010646745 -0.032506216 -0.057092626 -0.008858536 0.002296155 -0.0386686 0.023207886 0.045479022
-0.027488563 -0.022697642 0.01577726 0.11922148 -0.11674637 -0.14533512 -0.040416438 -0.041026916
-0.066390075 0.031531166 0.0006323783 0.016720964 0.032250136 0.07062828 -0.0986862 -0.034899518
0.054239385 0.11460989 -0.04203307 0.02861476 0.0260505 0.028041555 -0.07087932 0.015729854
-0.029027583 0.026530892 -0.0612564 -0.028817585 -0.0011821437 0.06536047 0.077516586 0.059298337
-0.07976813 0.088045865 0.029217025 -0.059168696 -0.0017784133 0.0836247 -0.05711381 -0.032062467
-0.1005433 0.09459824 0.032580625 -0.078800544 0.009306971 0.0799223 -0.027109856 0.01125893
0.04158703 0.040956367 -0.007523913 0.02437327 0.12196565 0.10734593 0.044883724 0.11643184
-0.013796001 -0.032972418 -0.20017867 0.038029842 0.0381539 0.028080976 -0.06340548 0.022367354
-0.014639824 -0.017619925 -0.002220648 0.05152459 -0.0056781773 -0.009629104 -0.023583459 -0.085030265
0.119520776 -0.054386176 0.053762898 0.00713298 0.029985042 0.060564946 -0.08521316 0.020724546
0.055981774 0.016957857 -0.015514628 0.08435657 -0.077805266 0.0026606272 -0.023757309 0.046262305

a2c_network.mu.bias f4 [4]
00000000: f5df 2a3d 34b7 f33d 1938 1c3d 9795 62bd
0.04171749 0.119001776 0.038139436 -0.05531844

exp_avg f4 [4]
00000000: bbae 67ba 57f8 4cbb 05b0 a8b9 504e 8fb8
-0.00088379876 -0.0031275952 -0.00032174602 -6.833358e-05

exp_avg_sq f4 [4]
00000000: b6d6 a236 2bc6 0a37 2b1a 8f36 62bc 6836
4.852972e-06 8.271581e-06 4.2647785e-06 3.4680347e-06

exp_avg f4 [64, 12]
00000000: 1e4a 4d39 b5d6 0539 f90d fb3a 81d7 1dba
00000010: 2122 3439 db09 5eb9 5245 e2ba 7660 29ba
00000020: 9896 9e39 8f1b 4ab7 797d ce3a c173 f439
00000030: 9e69 e4ba a78c 1f3b fc96 eb3b 3223 8dbb
00000040: 24ce e839 a880 fdba ef5e b8bb b768 d53b
00000050: 566c 9aba 35fb 2a3b 7227 293c 967d 35bb
00000060: 17b9 e939 274e 57bb 414f 44bc 1bc3 023c
00000070: 8b19 89ba bb3a 303b 12e5 113c 0ca6 acbb
00000080: a853 9c39 f89a 44bb 7470 4ebc 1f2e 313b
00000090: 10e7 69b8 ab85 643a 5f5c 623b 4011 f9ba
000000a0: 3f31 8a39 e088 3aba c22a 14bb b97c 843a
000000b0: 0934 adb7 0b2c 493a b6c8 483b d3e7 10ba
000000c0: 7b2f c539 d86a 073a 013f 8c3b 8e22 55bb
000000d0: eeb7 e839 e7eb 81ba 7650 81bb d90c 963a
000000e0: af62 0f39 63aa 0d3a 273a 9b3b b20b c8ba
000000f0: f506 143a 8e1c 083a db25 2c3b 0333 11bb
00000100: 7f58 5d39 edeb 57ba 0fd1 f1ba 51b8 2f3a
00000110: 3fa5 b739 7880 2e3a 4225 3f3b b000 e8ba
00000120: 3d22 c5ba de87 7a3a 4696 943b 7219 66bb
00000130: ccf8 4b39 5f3f 7fba 7e2b b4ba b338 813b
00000140: 0057 71ba fcfe a53a 6b35 913b 40dc 78bb
00000150: 64d4 2f3a ff52 9ab9 7d5a 5fba 159d a9b9
00000160: edf6 2438 50df 6939 41ed 18bb 58e8 55bb
00000170: dfff 2e3a 15b2 46ba 998e 103a eee5 213b
00000180: 1659 dbb7 bf4a 9139 7a23 193b ecd3 1e3a
00000190: 83ea 2239 6bbf a6b9 354d 34bb 4e1d df38
000001a0: b534 9ab7 b7ec e538 ea00 1c3b 9722 9f3a
000001b0: a94c 47ba 806f 96b6 486f 123b d43e 84ba
000001c0: e7e1 3939 ac06 01ba c6e4 04bb 7e8a 903a
000001d0: 9fd1 b4b9 d5c8 2239 aafe 853a ba9a 97b9
000001e0: b229 353a 698d caba 95a4 ccbb 99a0 0d3c
000001f0: e432 29ba 9e10 ec3a 79ea 023b c14a 75bb
00000200: 98aa 5f39 ea27 f1ba 2f8b b9bb 33ac da3b
00000210: 288f 6cba 1fe9 4439 1e93 153b b921 9cba
00000220: 22fb 0e39 a8df 19ba 8386 95ba 4df5 f53a
00000230: 6ffe 11ba e143 043a 7fd4 753a e137 a8ba
00000240: 9fa4 0cb9 91cd 15ba 5ee7 3abb d0cb 163b
00000250: 854b 1cb9 214a b339 fe73 2db9 869d acba
00000260: 585d c838 744c 12ba 9eb9 0fbb 4884 e23a
00000270: 007a 423a 47e9 183a bd55 2b3b 679e 68bb
00000280: 84af e739 1e2d 4aba a792 01bb bd0a 0c3b
00000290: 8e1e e637 76e5 283a 6362 4d3b d2c0 4cbb
000002a0: 6de9 293a e1be 66ba bba3 54bb 3165 4d3b
000002b0: c3ac a8b9 ac81 3b3a f0f0 cd3a 8b0d 9dba
000002c0: 3b34 ab38 6d4a 52ba 8f71 09bb 574e 643a
000002d0: 66cf 503b 54a5 8ebb 5cad 47bc ef38 3f3c
000002e0: caed 89ba 13d5 813b 4296 1b3c 8559 50bc
000002f0: 535f 1c3b 924c 9dbb 7e2a 8fbc 9d46 0e3c
00000300: 6688 af39 98ee 463a 59a0 103b db2e cb3a
00000310: b4f6 3539 db04 9eb9 1e59 24bb d2df 0aba
00000320: 00e0 9139 5626 043a fb30 183b e90e f83a
00000330: b1ff 9a38 b7cd 8e3a 6f23 703b 1786 00bb
00000340: 30ad 8239 0ea5 4aba c5a3 5cbb 8611 b83a
00000350: dc0e be38 4ab7 573a a46d 8b3b 437e 6439
00000360: a22e 0cb9 1542 2c3a b32c 533b a5c3 96ba
00000370: a833 8039 6b73 4cba 1e23 78bb 9f62 7c3a
00000380: b32a 6bb9 b703 0d3a 8771 a53b f391 86ba
00000390: 4c85 81ba 36aa 313b 6c2d 5e3c 1f0e 1fbc
000003a0: 85f4 883a 8ac0 3dbb 1c86 05bc cf06 aa3b
000003b0: 7f4c 34ba 35a6 333b 703a 543c e373 d0bb
000003c0: 20e9 e039 118f c839 4133 ca3b 6732 7eba
000003d0: 4514 1439 c596 1aba b459 9dbb 9e3f 3cba
000003e0: f69f 193a 640b a7b8 3283 313b bd8c 383b
000003f0: c843 d539 4fb9 1fba 206e b4ba 09f9 413a
0.00019577934 0.00012763853 0.0019153944 -0.00060211873 0.00017178852 -0.00021175241 -0.0017263091 -0.0006461212
0.0003024831 -1.2046555e-05 0.0015753946 0.0004662555 -0.0017426496 0.002434531 0.0071896296 -0.004307174
0.00044404075 -0.0019340711 -0.0056265513 0.006512727 -0.0011781554 0.0026089672 0.010324346 -0.0027693263
0.00044579126 -0.003285298 -0.011981786 0.007981087 -0.0010459883 0.0026890475 0.008904712 -0.005268818
0.00029816967 -0.0029999595 -0.012600053 0.0027035547 -5.5766723e-05 0.0008717428 0.003453992 -0.0019002333
0.00026358102 -0.0007115733 -0.0022608493 0.0010107971 -2.0647438e-05 0.00076741044 0.0030637211 -0.00055277086
0.00037610144 0.0005165762 0.0042799716 -0.0032521817 0.00044387527 -0.0009912223 -0.0039463593 0.0011447921
0.00013674305 0.0005404113 0.004737157 -0.0015262275 0.00056467886 0.0005192243 0.002626768 -0.002215565
0.0002110917 -0.0008236755 -0.0018449145 0.00067031855 0.00035027598 0.00066567166 0.0029166494 -0.00177004
-0.0015040111 0.0009556989 0.0045345156 -0.0035110381 0.00019452273 -0.0009736921 -0.0013745872 0.0039435267
-0.00092063844 0.0012664492 0.0044314167 -0.0037973076 0.0006707369 -0.00029435006 -0.00085202587 -0.00032351227
3.9330615e-05 0.00022303802 -0.0023334774 -0.0032639708 0.0006675701 -0.0007579637 0.0005514413 0.00247037
-2.6148318e-05 0.00027712245 0.0023367093 0.00060588005 0.00015536886 -0.00031804605 -0.002751184 0.00010638927
-1.8382774e-05 0.000109636625 0.0023804256 0.0012141046 -0.0007602671 -4.4833287e-06 0.002234416 -0.0010089525
0.0001772713 -0.00049219537 -0.002027796 0.0011027602 -0.00034488455 0.0001552434 0.001022299 -0.00028916245
0.0006910815 -0.001545352 -0.0062452056 0.0086442465 -0.00064544217 0.0018010323 0.0019976182 -0.003742859
0.00021330488 -0.0018398736 -0.005662344 0.00667336 -0.00090240175 0.00018778861 0.0022823284 -0.0011911906
0.0001363573 -0.0005869814 -0.0011407885 0.0018765122 -0.00055692246 0.0005045515 0.00093776727 -0.0012834036
-0.00013412767 -0.00057145307 -0.0028519253 0.0023009665 -0.00014905453 0.0003419677 -0.00016541776 -0.0013169504
9.55413e-05 -0.00055808504 -0.0021930705 0.0017281855 0.0007418692 0.0005833101 0.0026143633 -0.0035494806
0.00044190523 -0.00077124115 -0.001977125 0.0021368705 2.7432365e-05 0.0006442884 0.003133916 -0.003124286
0.00064816215 -0.0008802247 -0.0032446224 0.0031340832 -0.00032172175 0.00071528065 0.0015712064 -0.0011982186
8.163644e-05 -0.00080219546 -0.0020972227 0.00087091833 0.00318619 -0.0043532047 -0.012187328 0.011671289
-0.0010523137 0.003962168 0.0094962735 -0.012716656 0.0023860529 -0.0048003877 -0.017476317 0.008683828
0.00033480226 0.0007588654 0.002206823 0.0015501635 0.00017353409 -0.00030139726 -0.0025077532 -0.0005297634
0.00027823448 0.0005041113 0.0023222554 0.0018925342 7.3909185e-05 0.0010895048 0.0036642214 -0.0019611174
0.00024924567 -0.00077302835 -0.003366695 0.0014043308 9.062674e-05 0.00082289113 0.0042550135 0.0002179081
-0.00013368813 0.0006571126 0.0032222688 -0.0011502398 0.0002445255 -0.0007799181 -0.0037862728 0.0009627733
-0.00022427253 0.00053792767 0.005048934 -0.0010266885 -0.0009881645 0.002710951 0.013560634 -0.009707957
0.0010448849 -0.0028953874 -0.00814965 0.0051888 -0.0006877854 0.00274123 0.012953386 -0.006361471
0.000428983 0.00038253565 0.0061706607 -0.00096968416 0.00014121931 -0.00058971 -0.004801953 -0.00071811106
0.0005860323 -7.965302e-05 0.0027086255 0.0028160058 0.00040677027 -0.0006092982 -0.001376573 0.0007399475

exp_avg_sq f4 [64, 12]
00000000: f671 6a36 2616 b837 9383 2039 ad99 8037
00000010: 607d e835 53b4 3437 95ff 4338 d7ad df37
00000020: f820 8d36 f09b d037 f4df 8538 b24f e737
00000030: 561c 0038 10a9 c838 1258 d33a 9bc7 8c39
00000040: 2707 8137 cf78 5f38 518d 483a beb4 c539
00000050: 61c5 1438 a1f5 f238 cdb5 a03a 7269 1e3a
00000060: baff 4238 5caa 6039 d56c 463b a0db 013a
00000070: 44fc eb37 8565 f338 112c 973a 2529 0f3a
00000080: b551 6238 3782 8139 7c81 da3a 5199 663a
00000090: 8cbe ac36 905c 0d38 23f8 8b39 5ad1 4638
000000a0: 1185 5736 1688 8937 34c0 be38 c0d2 4038
000000b0: 9f09 c636 bbc3 2438 2f55 2539 60ee ac38
000000c0: de8a f536 2cbf c137 bc04 e439 c77d 8238
000000d0: c067 7136 ba19 5d37 6cde 4539 4b79 bf38
000000e0: 495d 0f37 e97d ea37 95cf 3339 a0ec 0d39
000000f0: 21fd 2c38 e6d6 d139 12e1 b33a 85c8 9339
00000100: 2be9 cc37 3151 1f39 885a a739 b77b 2839
00000110: cfe0 3838 cd48 fc39 c86e 6c3a 799c f939
00000120: 03b2 8237 4efb 1f38 b753 153a bb6a dd38
00000130: 6260 1237 63ea 1338 7a15 3b39 d807 cb38
00000140: d15c a337 3e4e 3338 8662 af39 8c85 5639
00000150: 219b ab37 4f09 4238 f42b 133a fffc 8e38
00000160: 281e 5137 5738 8a38 7a33 0539 14fa 9f38
00000170: 541e cc37 cf03 4638 a6d5 5d39 b932 6139
00000180: b20d bc36 f1bf a237 ad7c 6d39 4c2e 2f38
00000190: 6a1f 7536 b2ed 8d37 b030 9138 7a47 0f38
000001a0: 205f e136 add8 af37 86a7 f438 8eb6 b338
000001b0: 0206 a136 8d34 2637 fd90 0639 44d8 d437
000001c0: 8008 e235 81c4 bc36 ca0d 8238 1dce 0b38
000001d0: df8d bf36 7373 5237 b927 a438 c509 5c38
000001e0: b04e 4238 306b 1d39 f075 fe3a daf5 d939
000001f0: 283b 0038 b69d 1b39 dfb5 103a 4111 9539
00000200: 5c90 7038 dc50 2839 2201 6a3a 9b8e 453a
00000210: 62a8 0338 a8c2 8539 0fff 773a bbd7 5a39
00000220: dc0c 8d37 01d5 e038 8a09 6339 6d8d 0039
00000230: 74da 1438 84eb 9d39 1c84 1c3a ee26 ba39
00000240: 847b d336 1157 8e37 0c6d 4f39 4213 2c38
00000250: 3367 7f36 4f9c 2737 4fdc 5238 5916 d737
00000260: f0f6 f836 b12e cd37 4d9b 1639 dc2a 8038
00000270: b977 ae37 5817 c438 7474 4c3a 2320 0a39
00000280: a053 3737 4ae7 7c38 f631 7039 61fb e938
00000290: b1bd e037 f219 d738 99e5 9a39 71b2 7939
000002a0: f33e 1437 f77f 4b38 ae74 c739 6016 9c38
000002b0: 14ce b736 e4d4 d837 6cd9 e838 49bf 7f38
000002c0: d0a5 3b37 e57c 6638 9b11 6739 2d63 de38
000002d0: 67b8 0a39 8c5e 043a 3236 e43b 2e1e 983a
000002e0: 9744 9838 b042 9f39 cbd9 323b 5165 b73a
000002f0: dd51 2439 6945 173a 5f9a 8a3b 19e3 0d3b
00000300: 950c a136 39ae 4237 7188 5f39 db5e 5838
00000310: bf9d 7d36 d81a 6937 e1db 8038 cdd0 1438
00000320: d422 b236 8b7c 7a37 de83 0d39 1123 3739
00000330: ebe3 0537 79c1 5b38 5940 b139 6a36 3638
00000340: 6e4c 7e36 f33c c937 fadf 0439 afbf 7038
00000350: c9c2 0f37 fa24 8238 6416 3839 c7b4 0539
00000360: acf1 a636 5305 b037 a551 a239 c153 2a38
00000370: 4633 3536 9136 4037 706b 0539 234a 7e38
00000380: f747 bc36 94ee ca37 85cf 2739 39ce a438
00000390: 6805 5638 0fe9 2a39 8650 513b a9f1 093a
000003a0: 08d9 f637 ce21 f238 db96 a23a 3e8f 1c3a
000003b0: 354a 7a38 9e30 4439 1159 d33a 4cff 783a
000003c0: 52ab a237 9be9 6438 b603 313a 3093 c138
000003d0: e4d6 5937 002a 8a38 1cf3 5039 51e2 d338
000003e0: 334f be37 0bf3 6b38 7c0c 9039 b351 8039
000003f0: f410 8236 33d1 d237 eadb 3839 a4bb ff37
3.4935051e-06 2.1944823e-05 0.00015307804 1.533035e-05 1.7321836e-06 1.0770821e-05 4.6729652e-05 2.6664622e-05
4.2059655e-06 2.4868146e-05 6.383649e-05 2.7574457e-05 3.0543968e-05 9.5682335e-05 0.001612427 0.00026851599
1.5381329e-05 5.3279855e-05 0.00076504523 0.00037709431 3.5469773e-05 0.00011585211 0.0012261212 0.0006042934
4.649137e-05 0.00021425769 0.0030277271 0.0004953686 2.8131653e-05 0.000116060524 0.0011533519 0.0005461148
5.3958694e-05 0.00024701815 0.001667067 0.00087966496 5.148182e-06 3.3703225e-05 0.00026697022 4.7401852e-05
3.2114951e-06 1.6395043e-05 9.0957066e-05 4.5972643e-05 5.90198e-06 3.9282935e-05 0.0001576736 8.246e-05
7.3177353e-06 2.3096414e-05 0.00043491076 6.222311e-05 3.597219e-06 1.3178616e-05 0.00018870243 9.130182e-05
8.545184e-06 2.7953605e-05 0.000171481 0.00013534958 4.124374e-05 0.00040023698 0.0013723692 0.00028187424
2.4427272e-05 0.00015193668 0.00031920173 0.00016067816 4.4078388e-05 0.00048119426 0.0009019193 0.00047609562
1.55801e-05 3.81426e-05 0.00056963734 0.00010557981 8.724719e-06 3.526582e-05 0.0001784171 9.681255e-05
1.9474335e-05 4.2749794e-05 0.00033452007 0.0002045838 2.0457026e-05 4.6261874e-05 0.00056141545 6.818212e-05
1.2464392e-05 6.590847e-05 0.00012703045 7.6282915e-05 2.4332818e-05 4.7210426e-05 0.00021155793 0.00021476568
5.604431e-06 1.9401285e-05 0.00022648527 4.176637e-05 3.652613e-06 1.6919195e-05 6.9232075e-05 3.4160425e-05
6.7165965e-06 2.0962523e-05 0.0001166603 8.5693886e-05 4.7988733e-06 9.9066065e-06 0.00012833248 2.5373076e-05
1.6840786e-06 5.6257127e-06 6.2014515e-05 3.333214e-05 5.7087595e-06 1.25438555e-05 7.827528e-05 5.2461186e-05
4.6326488e-05 0.00015012617 0.001941381 0.0004157264 3.057267e-05 0.00014840704 0.0005520265 0.0002843235
5.7354904e-05 0.00016051851 0.00089265604 0.00075362035 3.1389653e-05 0.00025512767 0.0009460309 0.00020870466
1.6814498e-05 0.000107208274 0.0002165196 0.00012259716 3.54894e-05 0.00030120846 0.00059706136 0.0003550569
6.302669e-06 1.6968263e-05 0.00019781681 4.102593e-05 3.805803e-06 9.990369e-06 5.027308e-05 2.5640404e-05
7.4197233e-06 2.4459647e-05 0.00014362969 6.111499e-05 2.0798167e-05 9.3503564e-05 0.0007799335 0.00013172677
1.09271205e-05 6.0296887e-05 0.00022906795 0.00011157129 2.6791213e-05 0.000102568316 0.00029544233 0.00023812965
8.836144e-06 4.8518148e-05 0.0003804317 7.442827e-05 5.4778156e-06 2.5848341e-05 0.0001110312 6.0974886e-05
1.1184675e-05 5.495259e-05 0.00022036435 0.00010604258 0.00013229401 0.0005049489 0.0069644684 0.0011605674
7.260701e-05 0.0003037653 0.002729046 0.0013991987 0.00015670755 0.0005770536 0.0042298282 0.0021650253
4.7996386e-06 1.16038655e-05 0.00021317766 5.1586754e-05 3.7791758e-06 1.3894132e-05 6.144471e-05 3.548041e-05
5.308868e-06 1.4930159e-05 0.00013495932 0.00017465303 7.980484e-06 5.2393854e-05 0.00033808014 4.344286e-05
3.7893437e-06 2.3989449e-05 0.00012671939 5.739898e-05 8.568816e-06 6.2057705e-05 0.00017555949 0.00012751213
4.97532e-06 2.0983314e-05 0.00030959878 4.060916e-05 2.7000947e-06 1.14567965e-05 0.00012723892 6.0627364e-05
5.6112144e-06 2.4191373e-05 0.00016003668 7.858541e-05 5.102661e-05 0.00016299284 0.0031938865 0.00052621454
2.9426548e-05 0.00011545756 0.0012404578 0.00059722725 5.9673755e-05 0.00018710128 0.0016124566 0.00094984914
1.9391682e-05 5.4576998e-05 0.0006752567 9.230373e-05 1.2984241e-05 6.588176e-05 0.00019926991 0.00010103419
2.2686645e-05 5.6254717e-05 0.00027475122 0.00024474933 3.8762755e-06 2.5131367e-05 0.00017629532 3.0485746e-05

exp_avg f4 [64]
00000000: 8a17 53ba 1dc2 56bc fb52 8b3c b8a6 94bb
00000010: a6f4 b1bb 2991 a1bb b717 f5bb 4570 603b
00000020: 9e0e 70ba 9c53 15bb 3d46 623c 53bd 76bb
00000030: b0b8 393b c6b3 a3bb aa35 9f3b 49a3 df3c
00000040: 47fe e1b9 143f 8bbb e8ee 88bb e28a a1bc
00000050: 7fa0 07bb d8ca 5e3b c79a d038 63e4 e2bb
00000060: aa76 153c 1694 d43b 8441 debb 7834 f63b
00000070: eed7 0e3c a682 90bb 37ae ec3a 088d c13b
00000080: 8bc5 363c bef1 deba 514b 17ba 8859 5bba
00000090: a3f5 8c39 2722 3a3c cad3 e33a 77c0 5ebb
000000a0: 8104 1e3b a844 7b3b 633a 62bb 52b4 463c
000000b0: b922 483b 2a4b 9f3b fb34 0fba f55e f63a
000000c0: ecd4 193b e294 843b b520 4d3c 0b66 6cbb
000000d0: a911 2bbb 24a7 88ba c66c 833b 3c6e 923b
000000e0: 7ff1 b33b 13c2 493c 40d7 893b 45a1 be3c
000000f0: c3c2 223b 9b78 1bbc d929 7a3b 7bfc 043c
-0.0008052519 -0.013107804 0.017007342 -0.004536476 -0.0054307757 -0.0049306345 -0.0074796337 0.0034246605
-0.00091574516 -0.002278543 0.013810691 -0.0037649467 0.0028338842 -0.004995796 0.004858692 0.02729954
-0.00043104796 -0.004249463 -0.0041788705 -0.019719545 -0.0020695028 0.0033995416 9.9470424e-05 -0.0069241985
0.00912253 0.00648738 -0.0067827124 0.007513579 0.008718474 -0.0044101058 0.0018057291 0.005906705
0.011155496 -0.0017009301 -0.0005771416 -0.0008367528 0.00026885894 0.011360682 0.0017381844 -0.003398923
0.0024111571 0.0038340483 -0.0034519664 0.012127953 0.0030538274 0.004861255 -0.0005462912 0.001879661
0.0023472859 0.0040460685 0.012520005 -0.0036071565 -0.0026103056 -0.0010425788 0.0040107695 0.0044687074
0.005491435 0.012314337 0.004206568 0.023270259 0.0024835325 -0.009489204 0.0038171916 0.008116837

exp_avg_sq f4 [64]
00000000: b259 4b3a 123d 6f3b 127f 023c 1e88 953a
00000010: 145c 6b3a 5eb1 383c 1778 203b e493 9e3b
00000020: e2ab a43a e656 c739 bd46 2d3c bae6 ff3b
00000030: 72f5 363a 92bf 8b3b ed8b ed3a db86 a73c
00000040: c089 823a c014 ea3a 4937 573a e088 013c
00000050: 5d6b a13b 7789 513a 8580 c63a 4b08 3a3b
00000060: 4ea9 023b 5cba ca3a 2350 ed3a b1dc 003b
00000070: 244c 6f3b ab73 8f3a bf42 613b 76bd 653a
00000080: b2f9 123c 1bf1 043a 55f1 483a bac3 813b
00000090: 9b14 d639 172e 9b3b d8a9 903a da81 cd3b
000000a0: d1a5 ee3a 165f 6b3b 5336 083a 1a36 0f3c
000000b0: 476a b63b d3d8 e93a b6df e739 76ad c93a
000000c0: ddb8 d73a 4201 0e3b d4bc 9f3b b572 bb3a
000000d0: 89c9 343a 5927 433a 2434 693a 76dc f839
000000e0: f373 1f3c 9fd2 bf3b eee3 9b3a aab1 993c
000000f0: 93a2 713b 859f 6d3b b9ef 903a 6293 993b
0.0007757201 0.0036504907 0.007964866 0.0011408364 0.0008978259 0.011272756 0.0024485642 0.0048394073
0.0012563432 0.00038020982 0.010575947 0.007809487 0.0006979323 0.0042647803 0.0018123366 0.020450046
0.0009959266 0.0017858967 0.0008209837 0.007906169 0.004926129 0.0007993201 0.0015144503 0.002838629
0.001993734 0.0015466916 0.0018105548 0.0019662792 0.003651389 0.0010944506 0.003437206 0.00087638886
0.008970665 0.0005071328 0.0007665356 0.0039601 0.00040832613 0.004735719 0.0011036946 0.006271583
0.0018207376 0.003591483 0.0005196083 0.008740926 0.0055668685 0.0017841108 0.0004422643 0.0015386778
0.0016458292 0.002166823 0.004874805 0.0014301153 0.0006896486 0.0007444523 0.0008896014 0.00047466502
0.009732234 0.0058539654 0.001189349 0.018761475 0.0036870583 0.003625841 0.0011057771 0.004686759

exp_avg f4 [64, 64]
00000000: 9a33 a53a 8b1e d039 38b4 443a 4f10 56ba
00000010: 058f 41b9 2519 28ba 382b 2b3a f8f4 8db8
00000020: 81be 243a 381d 81ba e7eb 403a eb72 5aba
00000030: df09 e33a 28dc 67ba 4570 023a 3b97 b5b7
00000040: 805a 39ba 64df 263a 4c74 c039 7b81 8c36
00000050: a0c0 2eba 60f8 403a ae94 d73a 9328 cc39
00000060: 1bbe 4fb9 a8ae 0439 9f81 c5b9 babe 4f3a
00000070: 1a84 0aba c868 c93a 0280 9bb9 2c59 3937
00000080: d0eb f639 63a8 8c39 f78e 9cba 46c6 6b3a
00000090: 3ee9 a2ba 147d 9c37 3bcd 863a 1549 703a
000000a0: 2122 203a cc2b 333a 02b4 d4b8 a586 b039
000000b0: 90b0 2aba 2319 74ba 926e 94ba ff9d 013b
000000c0: e9ee 19b9 d24f 7cba ebbf e339 f695 ab39
000000d0: b59d b23a 7db0 e139 30a2 eb3a 20e4 92b9
000000e0: 4af0 2338 3081 d539 73f8 aa3a cb9f 94b9
000000f0: 22bb 153a f55c 26b9 0ecc 97ba a7c2 c23a
00000100: b68b d9b9 792b 1138 d480 a4b8 b949 ca38
00000110: b733 ca36 4a0f ff38 d1e0 2f38 654a 7339
00000120: 3058 c338 9292 e238 2c3d 9c38 27c5 3739
00000130: ce71 06b9 31a9 1339 6c4e b0b6 c41a 21b8
00000140: a77b 17b9 a242 92b9 d900 5439 2d1b 3e38
00000150: 8096 7839 73d0 28b8 d232 8fb8 f54b 9337
00000160: 61f1 7ab7 ac0d 9eb4 cc87 6239 add0 c537
00000170: b7ab 9238 a2bc dfb9 0b30 05b9 b459 6238
00000180: 5774 0539 58a0 8b38 992b 4939 8ea9 58b9
00000190: 4436 a0b8 15cf 9138 212a 0ab7 881c 2fb9
000001a0: 8732 61b8 c348 9b38 4c84 8438 108d dcb7
000001b0: 8864 d7b6 a37f 1039 6ceb eb38 5b4e e8b9
000001c0: 82af 3339 c8ed 2439 c434 a138 d56e 0ab9
000001d0: c163 a4b8 2b37 adb8 ec11 fbb8 55b8 1c38
000001e0: 94f5 b837 9d0d 21b9 b366 73b8 c91e 0d39
000001f0: 3c27 30b9 bfb2 04b8 47a9 3239 7490 02b9
00000200: 4643 88b9 bed6 9138 b577 f234 0f1f 43b8
00000210: a68f e1b7 4db8 01b8 413a a539 77f7 133a
00000220: 984d ba39 3646 7eb9 5bb5 5739 bee3 4fb8
00000230: 6f10 8738 b871 2539 c50b 9b38 41b8 3d38
00000240: 9d2d cab9 2dd0 69b9 d034 b639 c10f 8939
00000250: e929 bd39 c053 c139 3200 1d39 fe87 be39
00000260: 2a7d f6b8 030d 0037 2645 1f39 e96a 1c39
00000270: 42ab 43b9 8ef3 97b9 28ec 78b9 f94c f538
00000280: ee73 f839 9a11 f439 8344 83b8 3cdb c0b8
00000290: de19 0dba 6add 2738 58e4 fe39 c1ea 6db8
000002a0: 778a 7637 cbbe a139 743b a438 ecb6 0139
000002b0: 7e38 37b9 d54e c138 5f90 5db9 8c5b 88b9
000002c0: 56d4 0f39 2d38 e5b8 2446 b639 2a09 e6b8
000002d0: ccfe cf39 1a9e 17b9 ba67 8f38 a24f 2d38
000002e0: c049 3336 8fe4 7fb9 c397 c1b7 dbb8 063a
000002f0: 3da4 23b9 3f24 18b8 ba85 d2b8 5e7f 9939
00000300: f5a6 73b8 31d1 09ba 8b6d c4b9 6a8d 083a
00000310: 1dfa be39 513b cb39 f87d 7cba 84e0 95ba
00000320: 8668 7cba 9f2e c63a ae14 6aba da05 093a
00000330: 2073 c6ba eafd b939 8d79 e7b9 6c29 9939
00000340: f248 743a 7f6b e539 f2ea 8aba 42f7 9fb9
00000350: 45c5 e038 b087 0cba 4c26 daba dd3f 4eba
00000360: 38b8 003a 821e ff38 4f4a 47b9 3188 36ba
00000370: 1b1f 0b3a da6c 15b9 d6eb 3a3a 2949 0bb9
00000380: f618 91ba 4af9 5eba 06a7 413a 4d63 c6b9
00000390: ee42 b83a 5e83 a5b9 4597 afba 411a abb9
000003a0: c394 03ba 65bf 39ba f80a fd39 a8dc a9b9
000003b0: c8ce 243a 433b d039 6366 5c3a a9e0 7eba
000003c0: 04a8 40b9 6bdf 363a 2979 6bba 8206 bc38
000003d0: 254d 87ba 4194 7539 cf81 c1ba 2e25 4d37
000003e0: d6aa 2ab9 d754 c438 2ea9 93ba d613 11ba
000003f0: 6609 4d39 b478 4539 2d44 283a 0b48 83ba
0.001260388 0.00039695608 0.00075036613 -0.00081658823 -0.00018459193 -0.0006412438 0.00065295724 -6.769033e-05
0.0006284491 -0.0009850627 0.0007359371 -0.0008333164 0.0017321667 -0.00088447565 0.0004975836 -2.1647304e-05
-0.00070706755 0.0006365685 0.00036707742 4.1873986e-06 -0.00066662766 0.00073612295 0.0016447508 0.00038940142
-0.00019811878 0.00012653565 -0.00037671343 0.0007924844 -0.0005283967 0.001536631 -0.00029659277 1.1047621e-05
0.0004709647 0.0002682834 -0.0011944462 0.00089940836 -0.0012429131 1.8654893e-05 0.0010284552 0.00091661635
0.0006108601 0.00068348343 -0.00010142477 0.00033669654 -0.0006511295 -0.0009311607 -0.0011324456 0.001977801
-0.00014680218 -0.0009624931 0.00043439804 0.0003272739 0.0013627323 0.00043046838 0.0017977413 -0.00028017256
3.9086015e-05 0.00040722778 0.0013044014 -0.00028347815 0.0005711784 -0.00015865623 -0.0011581199 0.0014859036
-0.00041493558 3.461118e-05 -7.8441255e-05 9.6458425e-05 6.0260895e-06 0.00012162195 4.1932628e-05 0.00023202
9.314751e-05 0.000108038206 7.450054e-05 0.00017525685 -0.00012821631 0.00014082041 -5.2543382e-06 -3.841032e-05
-0.00014446546 -0.00027896935 0.00020218211 4.532484e-05 0.00023707189 -4.0248455e-05 -6.8282374e-05 1.7559136e-05
-1.4957362e-05 -2.943974e-07 0.00021603628 2.3581402e-05 6.993807e-05 -0.00042674417 -0.00012701766 5.396614e-05
0.00012727208 6.657903e-05 0.00019185095 -0.0002066253 -7.639502e-05 6.952711e-05 -8.23525e-06 -0.00016699929
-5.3691238e-05 7.404529e-05 6.318893e-05 -2.6291731e-05 -6.4192027e-06 0.00013780459 0.00011249524 -0.00044308868
0.00017136152 0.00015728839 7.6869066e-05 -0.00013201994 -7.83871e-05 -8.259559e-05 -0.00011971951 3.736497e-05
2.2048866e-05 -0.00015359228 -5.803136e-05 0.00013458276 -0.00016799284 -3.1637723e-05 0.00017038464 -0.00012451579
-0.00025990064 6.954138e-05 4.516311e-07 -4.652055e-05 -2.6888982e-05 -3.092764e-05 0.00031514655 0.000564448
0.00035534496 -0.00024249483 0.00020571558 -4.9564747e-05 6.4403626e-05 0.0001577799 7.393168e-05 4.523271e-05
-0.00038562427 -0.00022298163 0.00034753093 0.00026142414 0.00036080115 0.00036874227 0.0001497276 0.00036340946
-0.00011753508 7.632424e-06 0.00015189181 0.00014917146 -0.00018660448 -0.00028982427 -0.00023739098 0.00011696848
0.0004738862 0.0004655242 -6.259328e-05 -9.196109e-05 -0.00053825777 4.002211e-05 0.00048616785 -5.6723835e-05
1.46949815e-05 0.00030850465 7.8312034e-05 0.00012370542 -0.00017473285 9.217641e-05 -0.00021129985 -0.0002600815
0.00013716644 -0.000109300345 0.00034766004 -0.000109689616 0.00039671955 -0.0001445938 6.838092e-05 4.1320578e-05
2.6716007e-06 -0.0002440384 -2.3078062e-05 0.000513924 -0.00015606075 -3.627338e-05 -0.00010038489 0.0002927733
-5.8091206e-05 -0.0005257307 -0.0003746565 0.00052090606 0.00036425973 0.0003876337 -0.0009631808 -0.0011434709
-0.00096286123 0.0015120095 -0.0008929473 0.0005227007 -0.0015140511 0.0003547513 -0.00044150316 0.00029213296
0.0009318731 0.00043758375 -0.0010598584 -0.00030511065 0.00010717897 -0.0005360795 -0.0016643493 -0.0007867793
0.0004910263 0.0001216503 -0.00019005801 -0.0006963043 0.0005307064 -0.00014250298 0.0007130479 -0.00013283327
-0.0011070061 -0.0008505775 0.0007387254 -0.00037839488 0.0014058033 -0.0003156913 -0.0013396522 -0.00032635222
-0.00050194206 -0.000708571 0.00048264093 -0.00032398594 0.00062869163 0.00039717005 0.0008407591 -0.0009722808
-0.00018373138 0.0006976041 -0.0008982593 8.965751e-05 -0.0010322673 0.0002342025 -0.0014763417 1.2227609e-05
-0.00016276105 9.361811e-05 -0.001126563 -0.0005534267 0.00019553825 0.0001883235 0.00064188504 -0.0010015977
