logs/rl_games/klask/sim_collision_ro_a0_5/nn/klask.pth (torch, 51594 bytes, 36 tensors)

a2c_network.sigma f4 [4]
00000000: 4a3a 98c0 ad95 55c0 4fee c5be c9d3 70be
-4.7571154 -3.3372605 -0.38658378 -0.2351829

a2c_network.actor_mlp.0.weight f4 [32, 12]
00000000: 7298 cc3f 12f1 cf3e 6e36 42bd 63d7 8ebd
00000010: 96fd 1f3e bec6 0cbd 1a09 2abc f3ce b23a
00000020: 1503 c9bf b2ea 07bf 5c19 9bbd bc11 923c
00000030: 92c2 71bf ba9c 97bd 8252 dcbd 22fd 883d
00000040: 7f12 ff3d 3c1e 4cbe 3ccc 193e d8a7 6cbd
00000050: 3ad4 1a3f bbdb 423f 3186 073d 6a9e d93d
00000060: bb11 a8bf 394f 5b3f 93e8 8bbc 663a 293d
00000070: e350 f23c 561d 173d 10c5 233c 2c46 013d
00000080: 65c3 a43f fc84 26bf 0828 4b3e ad69 f13b
00000090: fb5d 7bbf 8491 013f 9efa 0cbd fdba 2dbd
000000a0: 5581 c5bd bb40 a33e bc4f bf3d c20d 9b3d
000000b0: 892f 023f 2675 61bf 4496 e03c d24a 66bd
000000c0: ac12 973f 7b1e 65bf 90af 3c3d 3e16 1dbd
000000d0: d5be 40bc 9bba 19be c8a2 4e3c 246d 96bd
000000e0: 1196 a7bf 52a1 1b3f 7523 743e 9710 83bc
000000f0: 3403 c03f 8c54 9f3e 26a4 32be a64c 63bc
00000100: 82d0 ecbd 40c9 98bc 2006 ac3a ece6 023e
00000110: 3e4d abbf 50e0 46bf 5230 353e 437e bdbd
00000120: f8ed 53bf d978 8bbf eebf afbb 1221 fbbd
00000130: 824a e6bd 17dc e23d d554 9d3d 28b9 5ebd
00000140: 5d01 3c3f 8bab 913f b787 97be deac 76be
00000150: 7872 a53f aa9b 5c3f d608 0ebd 39d4 25bb
00000160: 6aac 85bd a004 2abd 1325 23bc a3c3 76bd
00000170: ddf7 82bf 2a4a 96bf b111 10be d208 24be
00000180: 044c a8bf 39e8 3a3f cf9d 573e b9a9 523e
00000190: c9d4 983c 9983 b0be 42d9 f8bd f7fc 913d
000001a0: 6fe9 843f 7952 91bf 8871 f1bd cdf7 a5bc
000001b0: d826 01c0 078b 3c3d 8027 debe b8b3 03be
000001c0: c781 30bd baa4 93bd fba4 133d c0fc a13d
000001d0: 137a c73f 8066 b7be a57d 6f3f 3fdd 9c3e
000001e0: f451 73bf ddb2 a83f d137 33bc 91a2 de3d
000001f0: 3fdb 54be 9091 32be 382c 1f3c d7d3 88bc
00000200: 34d3 583f 226e 96bf 5edf ff3d cf5e 6abd
00000210: caaa 1abe f682 9d3f b3a8 c8bb 796d 583e
00000220: 3335 dc3d 25ca 54be a270 183b 17a3 94bd
00000230: e44c ea3d 4918 b7bf 29e5 7d3d e13f cbbe
00000240: 30a1 24bf f2c2 893f aeac 213d 4602 b9bd
00000250: e11a 0c3c e5ec c83d ad08 373d 5eea 8bbd
00000260: f5c7 8e3f 38bc e3be 605f d3bd 6266 283e
00000270: 0f09 ac3f ffed bc3e 40cd 92bd 2526 e33b
00000280: cf17 1b3e 35ee f1bd c03b 6ebc ad42 08bc
00000290: b025 a7bf 38e7 0bbf d742 a33d d659 b9bd
000002a0: b733 903e 6e97 973f 8978 1dbc fe4b d8bc
000002b0: 14a4 43bd 61c6 613e 02a6 93bd 89b9 e6bc
000002c0: 9228 35bd e20b 66bf 7554 403d 395e 4abd
000002d0: 7c9a 933f dd7b a33f e18e b6bc 4c87 01bd
000002e0: c70f cb3c 2dc2 523c 560e 043c 4487 5a3c
000002f0: 6b44 9ebf bfa7 95bf 55e1 273e 1f39 8a3d
00000300: afaa 513f 5701 6e3f 051c e93c ded3 f5bc
00000310: 6565 78bd 6ccf 953d 1911 2b3d 9dd5 3f3c
00000320: bf87 00bf 88dc a2bf d4b1 11bc c2fa 273e
00000330: 8b5d 783f f04c 96bf d221 943c 4321 e83c
00000340: f079 17bd 23fc 0d3e 1761 e1bb 8be1 96bc
00000350: 73ff 88bf 259b a23f 73cb 523e 3648 7d3e
00000360: 2193 743f 5082 aebe bc93 bd3c 8501 023d
00000370: 7a32 b03c cf8d 3e3e 8472 ea3c d5a2 a03c
00000380: 4a4b 98bf a953 25be 56e5 2f3d fb35 cabd
00000390: 35f4 1f3f 3978 adbf 35f1 f63b 1fdc f1bc
000003a0: 8381 923d faff 7fbe 9212 5fbc d158 0a3d
000003b0: 7655 56bf 8e3b 783f 3eee 06be b94e c8bd
000003c0: e007 9ebf 54da 463f 9996 9abd 4733 103d
000003d0: c4d6 4c3d 0464 efbd 966f 003d 4b85 0c3d
000003e0: c299 933f d74b 82bf e08e 553e bde3 8e3d
000003f0: bd98 3abf 01a9 0fbf 25ff 86be ede1 9339
1.5984023 0.4061361 -0.04741519 -0.069746755 0.15624079 -0.034369223 -0.010378147 0.0013641998
-1.5704066 -0.5309249 -0.07573196 0.017830722 -0.94437516 -0.0740294 -0.107579246 0.06688906
0.124547 -0.19933408 0.15019315 -0.057777256 0.6048008 0.7611653 0.03308696 0.10625918
-1.3130411 0.8566776 -0.017078673 0.04131546 0.029579585 0.03689321 0.009995714 0.03156106
1.287213 -0.6504667 0.1983949 0.007367334 -0.9819028 0.50612664 -0.034418695 -0.042414654
-0.09643809 0.31885323 0.0934138 0.075709835 0.5085378 -0.8806938 0.027415402 -0.056223698
1.1802573 -0.89499635 0.046065867 -0.03835129 -0.011764248 -0.1501259 0.012612052 -0.07345036
-1.3092672 0.6079303 0.23841651 -0.015999122 1.5000978 0.31119192 -0.1744543 -0.013873255
-0.11563207 -0.018650651 0.0013124384 0.12783402 -1.3382947 -0.77686024 0.17694214 -0.09252598
-0.82784986 -1.0896255 -0.005363456 -0.12262167 -0.1124468 0.11077135 0.07682196 -0.054375798
0.7343958 1.1380476 -0.2959573 -0.24089381 1.2925558 0.86175025 -0.034676395 -0.0025303497
-0.06527026 -0.041508317 -0.00995757 -0.060245167 -1.0231892 -1.1741383 -0.14069249 -0.1601899
-1.3148198 0.73010594 0.21056293 0.20572557 0.018656151 -0.344754 -0.12150814 0.07128327
1.0383738 -1.1353294 -0.117892325 -0.020259762 -2.0179958 0.046031024 -0.4338951 -0.12861526
-0.043092515 -0.072091535 0.03604601 0.07909536 1.5584129 -0.3582039 0.93551093 0.30637547
-0.95046926 1.3179585 -0.010938601 0.10870851 -0.20786761 -0.1743834 0.009715132 -0.016702576
0.8469727 -1.175236 0.12493776 -0.057219323 -0.15104213 1.2305591 -0.006123626 0.2113551
0.107523344 -0.20780237 0.0023260494 -0.072576694 0.11440447 -1.4304286 0.061986122 -0.39697173
-0.6430845 1.0762618 0.03947132 -0.09033637 0.00855133 0.09810809 0.04468601 -0.06831811
1.1154772 -0.44479537 -0.10320926 0.16445306 1.3440264 0.36900327 -0.071680546 0.0069320374
0.15145801 -0.118130125 -0.014540613 -0.008316678 -1.3058376 -0.54649687 0.07971733 -0.09050338
0.28164455 1.1843088 -0.009611257 -0.026403423 -0.0477639 0.22048332 -0.07209398 -0.028164642
-0.044228144 -0.8986188 0.046955545 -0.049406264 1.153152 1.2772175 -0.022284927 -0.03162317
0.024787797 0.012863678 0.008060059 0.013337914 -1.236463 -1.1691817 0.16394551 0.06749176
0.8190107 0.92970794 0.028455744 -0.030008253 -0.060643572 0.07314953 0.041764352 0.011708644
-0.5020713 -1.2723551 -0.008892495 0.1640425 0.97017735 -1.174223 0.018082533 0.028336173
-0.036981523 0.13865714 -0.006878029 -0.018418094 -1.0702957 1.2703596 0.20585422 0.24734578
0.95537 -0.34083796 0.023141734 0.03173973 0.021508444 0.18608783 0.028619058 0.019608894
-1.1897976 -0.16145195 0.04294332 -0.09873577 0.62482005 -1.3552314 0.0075360783 -0.029523907
0.07153609 -0.24999991 -0.013615267 0.03377611 -0.83724153 0.96965873 -0.1317682 -0.0978064
-1.2346153 0.7767689 -0.075482555 0.035205152 0.050009504 -0.11688998 0.031356417 0.034306806
1.1531298 -1.0179394 0.20855284 0.069770314 -0.7288931 -0.56117254 -0.26366535 0.00028206353

a2c_network.actor_mlp.0.bias f4 [32]
00000000: a5f1 c5bc fe90 ff3c 0253 123d 8595 b3bd
00000010: a9f6 e0bc eda0 85bd 7f21 a63b 3bfb 5cbd
00000020: a286 3ebd 23c3 8bbd 7a81 443d 30ef c83b
00000030: 334d 503d 197a 09bc 0328 af3d 6aaf 233b
00000040: dd62 72bd b340 97bc 69c0 00be 0ef7 babb
00000050: a7a7 c2bc 4251 b43d a453 2d3e 16b9 e33c
00000060: 3efa 863d a3f6 0cbd 2676 b7bd 4922 d03c
00000070: a17c 7cbc a8ae 20bc 484d dabd 6005 883d
-0.024163077 0.031197067 0.035723694 -0.08768753 -0.027461367 -0.06524835 0.005069911 -0.05395053
-0.046515115 -0.06824329 0.04797504 0.006132029 0.050854873 -0.008390927 0.085525535 0.002497638
-0.059176315 -0.018463468 -0.12573399 -0.0057057207 -0.023761583 0.08804561 0.16926438 0.027798217
0.06590699 -0.0344149 -0.08958082 0.025406973 -0.015410573 -0.009807266 -0.106592715 0.0664165

a2c_network.actor_mlp.2.weight f4 [32, 32]
00000000: 81a1 513f aed7 8dbe 9ede 393e 4780 413e
00000010: 8286 2bbe 7664 003f 2fee 54bf f67e 6c3f
00000020: e8eb 473e bcf5 3dbf e3e8 383f baf2 5d3f
00000030: cd73 363e a985 163f 628d 423f 88f0 3d40
00000040: 5b28 533f d238 52bf b6d6 1cbd dbac ebbe
00000050: 28cd b03e be9c 76bf 523d 9ebe e95c 91bf
00000060: 448d 3dbf 45c4 223f ed94 db3e 9f3b 013f
00000070: 523b 293e c2a1 193e 4e73 debe 841f bdbe
00000080: 4db0 0d3e b0a4 0ebc 3892 f73d d258 c0be
00000090: 67e6 da3c c439 c2bd 4f35 0bbd 72e9 d8bd
000000a0: c1ce 25bd 7074 4c3d b727 f83d f8b1 d1bd
000000b0: a36b 7e3e 3631 2b3b bbb8 283c bf1d be3e
000000c0: 96da 5ebd 1a5d 78bd 05af 3dbe 097a d43d
000000d0: 7f5f ba3d 96cf f3bc e913 01be b6d6 d73e
000000e0: 7651 8ebe a628 0bbe 1e65 193c 19da 403d
000000f0: 56b3 1c3d a0b4 c53d 6f25 4f3d a299 143e
00000100: caaf df3d 71c7 5b3d a18a da3d 4955 3abe
00000110: 7a83 19be fa26 6f3e 417f 18be ad7d ae3d
00000120: 0788 0abe ec9d 22be 00f9 863e 9d6b 103f
00000130: a58b 633d 90ee 223e d43f b9bd 3648 663e
00000140: d227 cabe f0d3 c2be a013 4a3e 70be 8bbe
00000150: 043e ed3d 6e57 2fbd c15d 933d 8f9e 9c3e
00000160: b0be 993e 6698 0fbf d7ac e4bd e40c e93d
00000170: 67e5 56be 5192 9f3d acdb 8abd 516b 8a3e
00000180: 59a9 733e 1c68 75bd a827 043d ac4e 13be
00000190: 9297 ef3c 3641 83be 5a15 a93d f55c 5dbd
000001a0: cbdb 863d b842 3c3e b176 5c3d 7efe d6bd
000001b0: 90a5 023e e315 1d3d 110f 0d3d 675d 073e
000001c0: 1ef8 84bc a482 05be 31ac 6dbe f042 7a3b
000001d0: 3257 cd3d e1f8 0f3d 866c fe3c b255 163e
000001e0: ccc2 cbbd eb2d 213d b620 2e39 1206 283e
000001f0: 3338 c23d e40d 3a3d 7cb0 7bbd 0c47 4bbe
00000200: 51f0 5abd db23 c43d cce8 4e3d 0e9b 123e
00000210: e6c3 333e e7cc 8d3e 60eb b5bb 06d9 3dbe
00000220: 9b00 22be b438 05be a8d7 9bbd 0a3d 3ebd
00000230: 67f5 45bd f9c3 f6bd 0bb9 11bc d677 cdbd
00000240: 937b 1b3d bfca 6d3e a33c 1e3c bb09 5fbd
00000250: c3b3 713d 0622 c2bc 1a97 e5bd 176e c5be
00000260: 6f3a 65bd 1fb1 02be d7b6 13bd 7481 b13d
00000270: 80af 853d dc79 b2bc 6fdf 6fbd a988 7f3c
00000280: bff7 acbd 2e5c 7fbe 2fd2 7d3d c1ef 783e
00000290: d534 dfbe bd6f 09be 133b 8bbe cbc7 c3be
000002a0: 058b 893e 5c49 3dbd fe7a 4bbd 3d54 77bd
000002b0: b2f6 8abe 52ad 813e 9e10 903e 3d10 61bf
000002c0: 1641 973e 1fc7 c4be 05ef 1e3d f841 8bbd
000002d0: ab81 f93d bc3d 6d3d 4462 63be fdb2 29bf
000002e0: 270d 22be ca48 fa3e db1f b53e 3020 fc3c
000002f0: 1829 c13e b6be 55be 9239 81bd 4e81 043d
00000300: e7d9 0bbe cdaf 74bd 435b cd3c deb0 1e3c
00000310: 446a 2e3c db36 98bd ffb2 23be 20b8 b53d
00000320: 6bee d4bd 85ab 483d 1069 e2bd f0aa 283d
00000330: 9ff6 9e3d b9b3 9a3d 4d41 efbd 5e83 c03d
00000340: b887 ffbd 28a9 983c bf7d 64be 95a0 11be
00000350: cd7b 4d3d 70cb d7bd 3aae f43c b8eb 9e3d
00000360: 9dba 18bd 0b42 45bd b591 023e fad2 ddbb
00000370: 2afa 26bd 1792 4ebd 271f afbc af97 11bc
00000380: 07af 933e 06b0 7e3d b742 f93d b810 77bd
00000390: be85 bcbd c8de 73be 74e1 15be 0091 813e
000003a0: 0a74 05be b77d ddbd 68a1 eb3c 06d0 a53e
000003b0: 64f7 453e 24c7 45be 966f c0bd c877 2e3f
000003c0: 2289 edbd 0400 b0be ae3f d0bd 8b80 4fbe
000003d0: cf70 413e cb1b 85bd dd82 c33d a7f3 c33e
000003e0: 26ea 2b3e f988 fbbd f6ff 89be 0957 b3bd
000003f0: c5dd fe3d 589c 143e 6403 22be 90e8 913d
0.8188706 -0.27703613 0.18151328 0.1889659 -0.1675053 0.5015329 -0.8317594 0.92381227
0.19523585 -0.74203086 0.72230357 0.86698496 0.17817612 0.587977 0.75996983 2.9678059
0.8248345 -0.8211795 -0.0382907 -0.46030316 0.34531522 -0.9633292 -0.3090616 -1.1356479
-0.7404368 0.63580734 0.4288706 0.504816 0.16526535 0.15003112 -0.43447345 -0.36938107
0.13836785 -0.008706257 0.12088436 -0.37567765 0.026721193 -0.09483674 -0.033986386 -0.10591401
-0.04048038 0.04991573 0.1211695 -0.10239023 0.24845748 0.0026121861 0.010297949 0.3713207
-0.05440768 -0.060635664 -0.18523796 0.10374839 0.09100246 -0.02976207 -0.12605251 0.42156
-0.27796525 -0.13589725 0.009362487 0.047082994 0.038256966 0.09653592 0.05057281 0.14511731
0.10922201 0.053657 0.106709726 -0.18196596 -0.1499156 0.23354712 -0.14892294 0.085200645
-0.13528453 -0.15880555 0.26361847 0.56414205 0.055553097 0.15911317 -0.090453774 0.22488484
-0.39483505 -0.3805232 0.19734049 -0.2729373 0.11584094 -0.04280799 0.071956165 0.3058972
0.30028296 -0.56091917 -0.11165779 0.11379412 -0.20985948 0.077915795 -0.0678018 0.27035
0.2379507 -0.05991374 0.03226438 -0.1438548 0.029247079 -0.2563569 0.082560256 -0.05404373
0.06584891 0.18384826 0.05382413 -0.10497759 0.1275847 0.03835095 0.034438197 0.13219224
-0.016231593 -0.13038117 -0.23210217 0.003818687 0.10026397 0.03514946 0.031057607 0.14681128
-0.09949264 0.03935043 0.00016606119 0.16408566 0.094833754 0.045423403 -0.061447605 -0.19851321
-0.05345184 0.095771514 0.05051498 0.14316961 0.17555198 0.2769539 -0.0055517405 -0.18539819
-0.15820543 -0.13009912 -0.076094925 -0.04644493 -0.048329737 -0.120490976 -0.008894215 -0.100326225
0.037959646 0.23221873 0.009658012 -0.05445264 0.059009325 -0.023697864 -0.11210461 -0.38560554
-0.05596393 -0.12762879 -0.03606304 0.08667269 0.065276146 -0.021786623 -0.058562692 0.015596547
-0.08445691 -0.24937508 0.061968025 0.24310209 -0.43594995 -0.13421531 -0.27193508 -0.38238367
0.26863876 -0.04621254 -0.04967784 -0.06038307 -0.2714134 0.25327545 0.28137678 -0.879154
0.29541844 -0.38433167 0.038802166 -0.06799692 0.12182935 0.057920203 -0.22205454 -0.6628874
-0.1582533 0.4888366 0.35375866 0.030777067 0.37726665 -0.20873532 -0.06309809 0.032349877
-0.13657342 -0.05973797 0.025067931 0.009685723 0.010645453 -0.07432338 -0.1598625 0.0887301
-0.10397037 0.0489917 -0.11055195 0.041178644 0.07761883 0.075538106 -0.11682377 0.09400056
-0.12477058 0.018635347 -0.22313593 -0.14221413 0.050166894 -0.105368495 0.029868234 0.077598035
-0.037287343 -0.048158687 0.12750895 -0.006769535 -0.04076592 -0.05043229 -0.02137716 -0.008886262
0.28844473 0.062179588 0.12170928 -0.06031868 -0.09205197 -0.23815453 -0.14636785 0.2530594
-0.13032547 -0.10814994 0.028763488 0.32385272 0.19332653 -0.19314247 -0.09396283 0.6815152
-0.11598422 -0.34375012 -0.10168396 -0.20263879 0.1889069 -0.06499442 0.095464446 0.3827183
0.1678854 -0.12281985 -0.26953095 -0.08756835 0.12444643 0.14512765 -0.15821606 0.07124436

a2c_network.actor_mlp.2.bias f4 [32]
00000000: 6e97 a0bd f78c 063d c330 80bd bf6b 223c
00000010: 93ef 38bb edba 1b3d 5a3a 733c 25bf c83c
00000020: bc65 e3bd 87e6 96bd ad00 e6bc 718c 803b
00000030: 1375 a03c 91a2 283b 6abb 23bd 89e3 d0bc
00000040: e23c 06bc 7eeb 90bd 63be 75bd 11e4 c7bd
00000050: 14eb a5bd e2d4 66bd 7441 093c 4b1d 123c
00000060: 7487 9e3d 3aae dbbc a60d d2bc 7093 d4bb
00000070: a586 8a3d 6460 823d 56c5 13bb a1e7 db3c
-0.07841383 0.03284928 -0.062593006 0.009913384 -0.002821897 0.038020063 0.014845455 0.024505207
-0.11103389 -0.07368188 -0.028076494 0.003922992 0.019587075 0.0025731663 -0.039973654 -0.025499122
-0.0081932265 -0.070761666 -0.05999602 -0.09760297 -0.08101478 -0.056355365 0.008377422 0.008918117
0.077406794 -0.026816476 -0.025641274 -0.0064873025 0.06763963 0.06366041 -0.0022548041 0.026843848

a2c_network.critic_mlp.0.weight f4 [32, 12]
00000000: 3216 52bf 21d6 63bf 887a 8cbc 1c6b 0e3e
00000010: a493 aabe 40a7 de3d 6cd7 ccba 2761 d03b
00000020: 3a6d 01bf 2c6a 8bc0 a8d9 7ebe a56b 45c0
00000030: e7a7 f4be b49e c4be 2579 9c3e a85a 053e
00000040: eace 9fbe 1f9e b7be 93b4 323d 74c9 30bd
00000050: 6a85 823f 3f67 edbf fb98 443f 7bbc 04be
00000060: fc7e 1d3e a200 3240 6c0d 10be 2efa 91be
00000070: 645e 6dbd 3c1c c1bd 7765 a4ba 5226 d1bb
00000080: cefc 863f 9631 89bf 0a22 bf3d 5e55 d13b
00000090: 5692 193f 24ed 73be f166 88bf 4981 bfbf
000000a0: d5be 923c c4f2 febd 8549 4a3d 833d 72bc
000000b0: 822d 4ac0 9ba7 13bf 683b 70bf ec88 81bf
000000c0: 3ca0 b2be c2cf 66bd 0770 0e3e 5b4b e63e
000000d0: f30c 0f3d c9b6 133d 2012 8bbc 4c4a d8bc
000000e0: 5c8b 043f c930 8140 b505 aa3d a06c 493e
000000f0: 01ea c93e d159 c23f 2334 0b3d 9cf8 c23d
00000100: d993 d6bd 55dc b1be 2bae e0bc 460b 113c
00000110: fbcf 913f d08c 1fbf 0aa5 a2bc 57f2 c6be
00000120: e7a1 e2be cdc1 b4bf 54a3 0cbe bfe7 703e
00000130: 1469 25bd 0143 b83e e1ac e9bb fadc e4bc
00000140: a66c 763f 0d86 adbf 5a43 86bd 16ab 243e
00000150: 5a9c db3f f922 73bf 3ac4 a9bb 6ab4 103f
00000160: 5896 973e ee19 57bd 3329 14bc 1040 563a
00000170: 2b39 35be 2fc5 c8c0 54e6 883e 7361 1ac0
00000180: 6f17 2fbd 27f4 8b3d ab29 0cbf 931c 463e
00000190: d429 0fbe 49f6 ab3d 294b ad3c 764b 073d
000001a0: 8f6e 0740 1be9 65be d971 85be 65df 80bf
000001b0: 70e9 1a3f e478 38c0 a593 1cbe 2148 833e
000001c0: 7077 973d a457 46bd 7673 9db9 1801 d23a
000001d0: 7f19 fabf 24d2 3f40 891e 8c3e 4cb7 1fbf
000001e0: fba7 9c3f 3abd d43f 028e d8bd 70b0 673b
000001f0: 9c0d 023e c5c2 993d 35b1 1d3c a4da 343c
00000200: d43a dcbf a74b debf 23ca d8be 4208 19be
00000210: a6fe ecbf e328 1ebf f2fa 853f ec20 d33e
00000220: 66e1 a2be 6491 a13c 49f0 3d3a 8b14 db3c
00000230: db40 2340 554e ab3f fe2b c33e 815e 9b3f
00000240: e4dc a33e 9f2d 673f 633c fbbc b807 33bd
00000250: 0e5d f6bd 95ce 143e 007a 003d 61b4 383c
00000260: 9460 17c0 ee1c cebf 8a70 633f 705c b5be
00000270: 14fc 5cbf 6ca8 ef3e abdf abbe b9e6 eabe
00000280: 51a5 88be 0056 edbd 8e3f ac3a 73e5 27bd
00000290: 8acb f73f 62eb 3a3f 39a7 363f 1504 e93e
000002a0: 4102 6f3f 2a06 f6be f829 a33e edcc 2dbf
000002b0: 0251 393e f779 dbbd 022a 073d 3643 973c
000002c0: e76c 593f 871f f93f 0aa7 cd3e 90be 813f
000002d0: 7027 edbf 0d5a 8abe 04ba 13be f294 153e
000002e0: ce4a 193d a2de 93bd 377a 863b 1940 6c3c
000002f0: ab71 2c40 6ab6 e0bf 6929 1dbe b34a a9be
00000300: e163 bf3e ec11 b8bf 519d 653b eea7 fb3c
00000310: bb37 afbd f201 a83c b090 853b f4d1 f43b
00000320: b933 11c0 c77f 223f abc8 0b3e dded fbbe
00000330: 8099 00bf 554f ce3e 1d2c cabd b1e9 8e3d
00000340: 670b 8b3e a3f9 f33d b354 f9bc 352e febc
00000350: a9d2 bc3f 11ef 42bf cbaa d8bd 5056 02bf
00000360: aac4 31bf b2cc 973f d9f1 bc3e fbf3 033f
00000370: 17bb 113d dcf6 f23d 1b18 023d 427a 5a3c
00000380: 31a9 6f3f dad4 d8be 83e1 2f3c 420e bebd
00000390: f9fa a6be 44c6 2b3f cff3 be3d e2c9 40bd
000003a0: f6d6 7dbd 987a 65be a19a f23d dbf7 93bd
000003b0: aa1c 833f d2fd cabd 4ff8 0abb 2e88 3abf
000003c0: 7fe2 97bf 9079 023f 40fb bc3d 2936 2d3c
000003d0: a65e 1bbd ffea abbe 6a36 c8bd b229 373d
000003e0: f3ce 5c3e 1439 36bf 911d 8e3e 987d b3be
000003f0: 3c30 3e3f 5eb6 69bd 6715 b0bd 2189 703e
-0.8206512 -0.8899861 -0.017148271 0.13908046 -0.33315766 0.10871744 -0.0015628166 0.0063592377
-0.5055729 -4.3567104 -0.24887717 -3.084695 -0.4778435 -0.3840233 0.30561176 0.13022864
-0.3121255 -0.35862824 0.04362924 -0.04316087 1.0196965 -1.8547133 0.7679593 -0.12962525
0.15380472 2.7812886 -0.1406762 -0.28511184 -0.057951346 -0.094292134 -0.0012542446 -0.006382742
1.05459 -1.0718257 0.09332664 0.0063883504 0.59988916 -0.2382093 -1.0656415 -1.496133
0.017913261 -0.124486476 0.04938652 -0.014785173 -3.1590276 -0.5767762 -0.93840647 -1.011991
-0.34887874 -0.056350477 0.13909923 0.44979367 0.03492446 0.03606299 -0.016976416 -0.026402615
0.51775146 4.037205 0.0830187 0.19670343 0.39436343 1.518366 0.03398527 0.09520075
-0.104774185 -0.34738412 -0.0274268 0.008852785 1.1391596 -0.6232424 -0.019854087 -0.38856766
-0.44264147 -1.4121643 -0.1373418 0.23525904 -0.040383413 0.3598862 -0.0071312045 -0.027937401
0.96259534 -1.3556534 -0.06555815 0.16080889 1.715709 -0.9497524 -0.0051808627 0.5652529
0.2960689 -0.052514963 -0.009043026 0.0008172998 -0.17697589 -6.2740703 0.26738226 -2.4121978
-0.042746957 0.06833678 -0.5475108 0.19346838 -0.139808 0.083965845 0.021154003 0.03303095
2.116123 -0.22452204 -0.2606342 -1.0068175 0.6051245 -2.8823786 -0.15290697 0.25640967
0.07395828 -0.048423424 -0.000300314 0.0016022054 -1.9539031 2.997201 0.27367046 -0.62389064
1.2238764 1.6620247 -0.10573961 0.0035352968 0.12700504 0.075078525 0.009624769 0.011038456
-1.7205453 -1.7366837 -0.42341718 -0.14944556 -1.8515213 -0.6178114 1.0467207 0.41236055
-0.3181259 0.019722648 0.0007245583 0.026743194 2.5508335 1.338328 0.381195 1.2138215
0.32004464 0.9030399 -0.030668443 -0.043708533 -0.120294675 0.1453193 0.03136635 0.011273474
-2.3652697 -1.6102579 0.88843596 -0.35422087 -0.8632214 0.46808183 -0.33569083 -0.45879152
-0.26688626 -0.11588669 0.0013141499 -0.040990304 1.935899 0.73015416 0.7134891 0.45510927
0.93362814 -0.48051578 0.31867957 -0.67890817 0.18097308 -0.10716622 0.032999046 0.018464666
0.84931797 1.9462746 0.40166503 1.013628 -1.852766 -0.27021828 -0.14426428 0.146076
0.037424855 -0.07220198 0.0041039246 0.014419579 2.6944377 -1.7555668 -0.15347828 -0.33064803
0.3738089 -1.4380469 0.0035036395 0.030719724 -0.085555516 0.02050874 0.004076086 0.0074713174
-2.268782 0.6347622 0.13650768 -0.49204913 -0.5023422 0.402949 -0.09871695 0.06978167
0.27157137 0.11912849 -0.030435896 -0.031027893 1.4751788 -0.76146036 -0.10579451 -0.5091295
-0.6944071 1.1859343 0.36903265 0.5154416 0.035578813 0.11863491 0.03176127 0.013334813
0.9361754 -0.42349893 0.0107349185 -0.09280063 -0.32613352 0.67099404 0.093238465 -0.04706753
-0.06197258 -0.22410047 0.118458994 -0.07225009 1.0243123 -0.09911694 -0.0021205132 -0.72864044
-1.1865996 0.5096674 0.0922761 0.010571995 -0.03793206 -0.33577725 -0.09776004 0.044717498
0.2156332 -0.71180844 0.27756932 -0.35056758 0.7429235 -0.057058685 -0.08597832 0.2348981

a2c_network.critic_mlp.0.bias f4 [32]
00000000: 282d b03c 1ce6 8dbe cf1d f53e e821 ad3d
00000010: c215 86be 45cb 2b3f 41a9 40bf b42f 543e
00000020: 1d65 c53e 7ce1 ab3e c71d c23c 83e3 0b3d
00000030: a2e0 fa3e 1410 a33e 9676 623d 5044 e9be
00000040: 583b b1be 7577 87be b549 8f3e 8759 c23d
00000050: 0d53 85be 6232 843f d477 83be a795 ab3d
00000060: 1d1f 5dbf c225 ac3e ef4a e2be 2a3f 5dbe
00000070: ba7b 373f ad29 0abf 1b6c f53e 4f96 03bf
0.021505907 -0.27714622 0.47874305 0.08453733 -0.26188475 0.6710704 -0.7525826 0.20721322
0.38553706 0.33570468 0.02369584 0.03415252 0.48999506 0.31848204 0.055288874 -0.4555993
-0.34615588 -0.26458326 0.27985922 0.09489732 -0.26039925 1.0327876 -0.2567736 0.08378153
-0.863756 0.33622557 -0.44197795 -0.21606126 0.71673167 -0.5396984 0.4793404 -0.5140123

a2c_network.critic_mlp.2.weight f4 [32, 32]
00000000: a58b dbbe 013e 28bf 687c fdbe ec82 913e
00000010: d298 72bf 57bf a2be 7fa9 01bf 059a 94bd
00000020: 121d bebf 5e1c 61bd 1b86 8c3e a368 c0bf
00000030: e0c7 2e3f 1e33 6cbf a306 03bf beec 76bf
00000040: e10d 4a3f 58a8 d4be abb3 d3be 9f53 4dbf
00000050: 604a 11be 4f74 98bf 2e91 11bf 1481 ccbf
00000060: 288e eebd f843 09bf 817f 153f cf4a 63bf
00000070: df4c 79be 4ac0 113e f5a8 a4bf e4ca e0bc
00000080: 59aa 4dbe 8fc2 bc3e 136e 7a3e fd99 b23d
00000090: a82a 09bf a688 303e f9b4 6f3d d984 4b3e
000000a0: a130 e33c 90d9 3cbf 1c09 1a3e 5fb9 59bc
000000b0: c3b1 143e 62a7 aa3d bfb9 28bf 5204 993e
000000c0: b460 05bf 4bb6 2fbe 3d65 143e 35b2 bb3d
000000d0: f87f 1ebc 6a3a 16be f2a5 ef3e bcab 3d3e
000000e0: c8e3 ecbd 56e9 773e 7ec5 cfbd 5bfd 813e
000000f0: 09b0 193e 9873 113d 340f 7cbe dbd0 583e
00000100: b54c 16be ebe8 ad3e 5892 863e 04b7 c43e
00000110: 53fc 64bf 91d7 d73e a402 433e dc99 493e
00000120: b560 8cbe 293b 67bf 8e35 333e 684e bfbc
00000130: 8ac5 303e 68b6 b3bd d1ef 2dbf 802c 233f
00000140: 6610 0abf 10cf 4bbe 38fe 973e fff9 55bc
00000150: b0aa a93d 2366 27be 0316 2b3f 4c32 8b3d
00000160: 0b2f 14be 330d b03e ea5c cdbe f59a 2a3e
00000170: 5325 6d3e 5b33 e9bc 6436 c8be 28e2 d63e
00000180: c182 b6be beef 573d 8bf7 d73e afcb 8c3a
00000190: e6df 6bbe 5799 163f f371 0abf c056 7a3d
000001a0: 713e a63e 404f ccbb a378 c6be 659e 573e
000001b0: a0df 023e 47bf 2f3e 21f2 4d3c a3a4 cbbe
000001c0: 3481 13bf d53b 09bf 9b78 133f b0d3 31be
000001d0: 282a 32be 82bd ae3e cd96 753e 05ef 013c
000001e0: 9a4f 91bf eec5 ee3e a69e a2be 1455 3a3e
000001f0: f2aa 0e3f b63d fbbe 0177 903e 6e04 97be
00000200: cfed b3bd 9bf5 d13e 38df ad3e 6519 573e
00000210: 38d0 42bf 3363 a33e 2ad3 3f3e ebb0 d43c
00000220: b2c5 05be 3d4c 2ebf 99a0 1abd d7c8 2cbd
00000230: fbe2 283e 9f48 d7bc e621 36bf 3fb1 e83e
00000240: ea1b 04bf b49d 32be 1469 743e c1c9 053e
00000250: 2e61 023d 1de7 e7bc 6073 073f 0791 833e
00000260: 324b 9dbc 507d fb3d a2ef a5be ff32 023e
00000270: ce82 b33d 0752 7ebd c307 9cbe 2e21 a33e
00000280: df7f c4bf 9ce5 363f 6a79 093f 48e1 69bf
00000290: 635b bcbf 0f66 313f be72 5f3d 37c0 a9bf
000002a0: 83fd 9a3f c381 53bc 09dd 2ebf 4b69 75be
000002b0: a9ca 26bf 64ed db3e 592a 46bf 4942 893f
000002c0: 393b 2cbf f908 113f 40e8 de3e e140 c93e
000002d0: 08f5 e23c 8609 373f edc0 edbf 39ba af3f
000002e0: 1e43 923e 37aa 733e 53d1 2cbf 8e86 7abf
000002f0: b3c3 743f e7aa d83d a123 893d 3760 9a3c
00000300: b5a8 c6bd 8122 f33e 43c2 a93e b2cb 173e
00000310: 5110 52bf 6150 f73e af59 273d cdac 6ebd
00000320: 0d3f ad3d 5f06 0cbf b179 4c3e b4cb 3dbe
00000330: 7af5 263e b138 c63d 1fbc 2bbf 83b5 163f
00000340: 7314 febe 1f7b ecbd a45a 603e ab75 983d
00000350: dcdf 3c3d d062 eebd 32dc 4b3f c321 643e
00000360: 232d e5bd 77ee e73e dbad 61be 49d6 b33c
00000370: 0fee 393e f711 0dbe dcde 94be 6cf9 df3e
00000380: 5689 61be 1288 193e 879a edbf 3d29 8dbe
00000390: 0cb4 ea3f c8e7 56bf bc6a a43f 82c4 29bf
000003a0: 1617 803e 7581 9f3f 2439 9dbf 8a5f a43e
000003b0: 4705 2ebf 04df 82bd 92ad fd3e 4e68 da3d
000003c0: 3ee2 073f 082e 023d 2900 a8be 7698 b2bd
000003d0: c51f 483c 3b2b 853e 7e27 16be cc58 e5be
000003e0: 33f7 5c3f c7d9 903d 746d 6abc f4a1 d9bd
000003f0: 76cf 19bf accc 743e 834e b13e 96a5 853f
-0.42879978 -0.6571961 -0.49508977 0.28420198 -0.94764435 -0.31786606 -0.50649256 -0.072559394
-1.4852622 -0.054958694 0.27446064 -1.5031933 0.68273735 -0.922655 -0.51182 -0.9645499
0.7892743 -0.41534686 -0.41348013 -0.8020572 -0.14188528 -1.1910495 -0.5686215 -1.5976892
-0.11648208 -0.5361934 0.5839768 -0.88786024 -0.2434573 0.14233509 -1.2864062 -0.027440496
-0.20084514 0.36867186 0.24456052 0.08720777 -0.53580713 0.17239627 0.0585222 0.19874896
0.027733149 -0.73769474 0.15042537 -0.013288825 0.14520936 0.08332707 -0.65908426 0.2988611
-0.5210068 -0.17159383 0.14491744 0.0916485 -0.009674065 -0.1467072 0.46806294 0.18522543
-0.11566883 0.24210104 -0.101450905 0.25388607 0.15008558 0.03551063 -0.24615175 0.21173422
-0.14677699 0.33966765 0.26283526 0.3842088 -0.89447516 0.42156652 0.19043976 0.19687599
-0.27417532 -0.90324646 0.17500898 -0.023352817 0.17262855 -0.087750256 -0.67944056 0.63739777
-0.5393127 -0.19903207 0.2968614 -0.013060092 0.08284509 -0.16347556 0.6683046 0.06796703
-0.1447107 0.3438507 -0.4010995 0.16660674 0.2315877 -0.028466871 -0.39103997 0.4196942
-0.35646632 0.05271887 0.42181048 0.0010741855 -0.23034629 0.5882773 -0.5408012 0.061117887
0.32469514 -0.0062350333 -0.38763914 0.21056516 0.12780619 0.1716281 0.012569935 -0.39774045
-0.57619023 -0.5360692 0.57605904 -0.17365909 -0.17398894 0.34128958 0.23983307 0.007930522
-1.1352417 0.46635383 -0.31761664 0.18196517 0.5572959 -0.4907052 0.28215793 -0.29495567
-0.08785593 0.41007695 0.33959365 0.21005781 -0.76098967 0.3191162 0.18732896 0.025963267
-0.13063696 -0.6808508 -0.037750814 -0.042183723 0.16492836 -0.026279746 -0.71145475 0.45447728
-0.51605093 -0.17442971 0.23868209 0.13065244 0.03183096 -0.028308446 0.52910423 0.25696585
-0.019200895 0.12279761 -0.32409388 0.12714766 0.087651834 -0.062089946 -0.30474672 0.31861252
-1.5351523 0.71444106 0.5370089 -0.91359377 -1.4715389 0.69296354 0.054552786 -1.3261784
1.2108616 -0.012909356 -0.6830602 -0.23965947 -0.65152985 0.42954552 -0.7740837 1.0723354
-0.67277867 0.56654316 0.43536568 0.3930731 0.02770473 0.71498907 -1.8574501 1.3728706
0.2856683 0.237954 -0.67506903 -0.97861564 0.95611113 0.10579472 0.06696249 0.018844707
-0.09700147 0.47487262 0.33156022 0.14823797 -0.82056147 0.48303512 0.040857013 -0.058270264
0.084592916 -0.5469722 0.19968297 -0.18534738 0.1630458 0.09678782 -0.67083925 0.58870715
-0.49624977 -0.11546921 0.21909577 0.074443184 0.046111926 -0.11639941 0.79632866 0.22278504
-0.1119025 0.45299122 -0.22038977 0.021952765 0.18157218 -0.13776384 -0.29076278 0.4374498
-0.22025046 0.14993313 -1.8562783 -0.27570525 1.8336196 -0.8394742 1.2845073 -0.6631547
0.25017613 1.2461382 -1.2283063 0.3210414 -0.679768 -0.06390193 0.49546486 0.10664426
0.53079593 0.03178218 -0.32812622 -0.08720486 0.012214606 0.26009545 -0.14663503 -0.4479431
0.86314696 0.07072788 -0.014308322 -0.10626593 -0.60082185 0.23906201 0.34630212 1.0441158

a2c_network.critic_mlp.2.bias f4 [32]
00000000: 38ad d6be c96a 263d 5450 063e daa7 f53e
00000010: 3f96 f73d d5c1 1dbb 126d 3a3e db6d 6cbe
00000020: d72f df3b 6ce6 a9be 5d06 77bf 2a23 54bd
00000030: b812 febe 3045 21bd dbbc b5bd a1a3 413d
00000040: 598f 3f3f 6bea 61bf 3082 60bc e66b 30be
00000050: dde6 4c3f 85b3 03be 1144 5f3f 5630 d4be
00000060: 7fb9 373d e0f4 69bc f65d 65be 1868 5ebd
00000070: b765 3a3d 1efb be3c 184e a63b 8227 013d
-0.4192903 0.040629182 0.1311658 0.47979623 0.12089204 -0.0024071832 0.1820567 -0.23088782
0.006811123 -0.3318361 -0.96494085 -0.051791348 -0.49623656 -0.039372623 -0.08873912 0.04727519
0.74828106 -0.8824832 -0.013702914 -0.1722866 0.8003977 -0.1286145 0.87213236 -0.41443127
0.044854637 -0.014279574 -0.22399125 -0.05429849 0.04550716 0.023313101 0.0050752275 0.03153182

a2c_network.value.weight f4 [1, 32]
00000000: 1e6c 9dbf a368 343e 8952 be3e 5667 db3e
00000010: 8e75 4e3e e7b8 efbf 86c9 a83e fd92 42bf
00000020: cb0c 443e 2b36 11c0 ec1f 15c0 ba85 b6bf
00000030: c68d fdbf 4748 5abc 9469 c2be d9d1 87bf
00000040: a434 233f 7609 d0bf 8894 e93d 5813 e9be
00000050: 1430 323f 385b 02bf 114d 363f 521c d6bf
00000060: 28ad fb3b 1074 d4be 3eeb c0bf 8080 a5bd
00000070: f0a9 0e3e 3ac5 63bf cf55 55be 4c92 5d3d
-1.229862 0.1761804 0.37172344 0.42852277 0.20162031 -1.8728303 0.3296625 -0.76005536
0.19145505 -2.2689312 -2.3300734 -1.425956 -1.9808891 -0.013322896 -0.37971175 -1.0610915
0.637522 -1.6252887 0.11405283 -0.4552257 0.6960461 -0.5092044 0.71211344 -1.6727393
0.007680554 -0.414948 -1.507179 -0.0808115 0.13932014 -0.8897282 -0.20833515 0.054094598

a2c_network.mu.weight f4 [4, 32]
00000000: 207f 1bbf 3aac c13a 6e2b 5fbd aef9 583a
00000010: 6ab5 8eba 649a 163e ca91 ac3a 770e a23a
00000020: 5d60 f33e 95e6 79be 532b afba 3c20 f93e
00000030: a1d2 b439 cc71 b03a e728 70b8 16e9 10ba
00000040: 52a9 b3ba f61f c9bd 17c8 f3ba 53a2 72be
00000050: d746 eabd ebc3 0abe d239 7c3d 6cc4 9abb
00000060: 38c4 803e 0dfc 183a 20a4 24bf f306 5fba
00000070: 0d8b 073f 5e3d 043a 5855 2dba f02c 8339
00000080: c44d 08bf 7bfc 8ebb 49c6 66bc 887f efbb
00000090: ce3f d23b e324 ca3d d053 15bb 42af 49bc
000000a0: 8d69 8bbe 828c 2b3d 8307 673b 265b b63e
000000b0: ca1e b0ba 2d69 8a3a 4c99 74bb 833d 123a
000000c0: 6763 813b 0069 0ebf 03f7 5c3b e3df 94bd
000000d0: 64eb f23d 4a90 abbd 5762 5d3d 9efa f4be
000000e0: b98d 0a3e 597a 3bba c1b7 c3b8 d188 83bb
000000f0: 7f18 debe 1252 d5bb 1b8a 27bb e5f6 e43a
00000100: 3d8b 273d 7f2d 08be 49a3 223e 3361 c7bc
00000110: fe93 afbd 02dd 3dbe 4e82 10be d0a1 c3bd
00000120: a1af 08be ff4e 59bd c9d5 953e 2b74 b83c
00000130: 79ad 14bd c4ea 0ebe d25a ea3d 0162 6d3e
00000140: 94cc 1b3e 5c28 5a3d 42a7 5f3e 4076 423d
00000150: 24b2 b83d edc4 afbd 1364 83bd a1ac e5bb
00000160: a1e8 893b 3d60 303e 0cbd babc 7f04 e53d
00000170: a39d ccbd d0e1 a3be 80a8 f33d 3e41 35be
00000180: 3f50 00be f3eb a9be 33ec a3bd 28f3 a0be
00000190: cdba 0e3e 8ced 943e 3a4b 96bc c9ee 89be
000001a0: 5fb0 35bd 6312 a13d 2c55 b43d 2a28 ba3d
000001b0: d007 84be 961c 6fbd c573 203e 50bb 5f3e
000001c0: 05a5 a03c 8c48 15bd 399f ad3d fcc2 01bd
000001d0: 7d10 163d 9ef1 d4bd 365d 373e 0aca 243d
000001e0: d520 dabc 05a2 3e3e e2ac 8ebd e960 23be
000001f0: 76b5 353d 5f53 b9be 1b56 6e3d 34f2 043d
-0.6074085 0.0014776059 -0.054484777 0.0008276951 -0.0010887806 0.14707333 0.0013166007 0.001236393
0.47534457 -0.24404366 -0.0013364352 0.48657405 0.00034489206 0.0013461648 -5.7258552e-05 -0.00055278966
-0.0013707078 -0.09820549 -0.001859906 -0.23694734 -0.11439293 -0.135513 0.06157858 -0.0047231223
0.25149703 0.00058358983 -0.64312935 -0.00085078104 0.5294655 0.0005044545 -0.00066121435 0.00025019748
-0.5324366 -0.004363594 -0.014085361 -0.007308904 0.0064162975 0.09870317 -0.0022785552 -0.012309851
-0.27228966 0.041882046 0.003525228 0.35616416 -0.001343691 0.0010559909 -0.0037322817 0.0005578624
0.0039486173 -0.5562897 0.0033716566 -0.072692655 0.118613034 -0.0837713 0.054048862 -0.47847456
0.13530625 -0.0007151715 -9.3325514e-05 -0.0040141125 -0.43378064 -0.0065100277 -0.0025564495 0.00174686
0.040904272 -0.13298605 0.15882601 -0.02433834 -0.08573149 -0.18541339 -0.14112207 -0.09552348
-0.13348247 -0.053053852 0.29264668 0.02251633 -0.03629825 -0.13956743 0.11443104 0.23181917
0.15214759 0.053261146 0.21841148 0.047476053 0.09018353 -0.085824825 -0.06415572 -0.0070091044
0.0042086397 0.17224212 -0.022795223 0.11182498 -0.09991004 -0.3200822 0.11897373 -0.17700669
-0.12530611 -0.33187827 -0.08004036 -0.31435513 0.13938446 0.29087484 -0.018346418 -0.2693999
-0.044357654 0.07864835 0.08805308 0.09089692 -0.2578721 -0.05837687 0.15669163 0.21848798
0.019609937 -0.03644614 0.08477635 -0.031680092 0.03663682 -0.10397647 0.17906651 0.040231742
-0.026626984 0.18616493 -0.069665685 -0.15954937 0.044362508 -0.3619642 0.058187585 0.032457545

a2c_network.mu.bias f4 [4]
00000000: 21b6 073d 6b85 40bc 4545 4cbd 100d f6bd
0.033132676 -0.011750559 -0.049870748 -0.1201421

exp_avg f4 [4]
00000000: a7f1 90ba bad2 48ba 16c2 f937 9eb0 cd38
-0.0011058346 -0.0007660795 2.9773491e-05 9.808059e-05

exp_avg_sq f4 [4]
00000000: a5dd c135 7b8e 2835 1a80 cb34 06bd bb34
1.4444128e-06 6.2792213e-07 3.7904903e-07 3.4968997e-07

exp_avg f4 [32, 12]
00000000: 9801 7fbb d7fe 04bb fe7b dbba 5dde 693b
00000010: 786f 23bb 691e eb3a 3106 cc3a 4b30 d93b
00000020: 5c5d 69bb 7881 d6ba a7b6 1dbc 53dd 2b3a
00000030: 18a7 f536 91ab 4638 6dc8 1b39 7dce c738
00000040: 8fc8 8937 3bea 2c38 9e06 cfb9 fd1c 7fb9
00000050: bb57 6db6 d0e5 fe38 bae4 f838 0b46 e1b8
00000060: bcfb 053b 921b 3f3b bdb2 11bb 900e 2ebb
00000070: 608b bf3a 46fd 19bb 3702 5bb7 e0c8 a5ba
00000080: 60fc f73a 7170 293b a891 903b 1d3e 9e3a
00000090: 28dd 9737 d747 8439 179b 54b9 ec48 f438
000000a0: cfb9 5438 b9f9 3eb9 46cf cab8 2def 48b7
000000b0: 2cda 3038 cdb8 7439 379e db38 a9ab 6e39
000000c0: f50b 0dbb 20b2 18bb cf50 073b 9836 093b
000000d0: 2e07 ceba 1941 eb3a 44eb 7c3a 600f 8c3a
000000e0: ab4a 06bb 0c5a 03bb 38fe 5ebb 0976 91ba
000000f0: 9c62 4abb 0cfc beba 5848 66ba 64bb 403b
00000100: 15c9 03bb ca5c ad3a aef5 863a d834 a93b
00000110: c0a6 3dbb 2cf3 92ba a774 dfbb cf7d 823a
00000120: 9a76 c23a ef2b 45ba a9da 323b c638 9cba
00000130: 364a 623a 8f88 e239 0e7a eaba 3cee 8cbb
00000140: 2a54 ac3a 6860 58ba f028 793b 07c0 e6ba
00000150: 03e8 25bb ed63 6bb9 8504 09bb 5992 043b
00000160: 0bda caba 9e4c ac39 e22b 0a3b 6671 b83b
00000170: af42 14bb ac8f c2b7 94fa d4bb e211 ba3a
00000180: b3bb 1e3b 65c8 463b 33d8 b5ba 7b5b 05bb
00000190: 8425 f33a aef0 1dbb fe05 7aba 6d34 8aba
000001a0: 399e 143b d561 2b3b 87c0 c33b fa66 ba3a
000001b0: a709 af3b c23c 813b 0213 55bb 6ff6 03bc
000001c0: 1823 763b dffa 5ebb 43ed 363a c4bc 18bc
000001d0: 64a6 a73b 64c0 583b 7b21 173c 140e 74ba
000001e0: a2b7 1f3b 6d18 b73b 68e5 babb 4644 73bb
000001f0: 32f5 e83a 3010 8dbb 3119 ec3a ec75 c83a
00000200: a03e 153b a919 a93b 292c 9d3b e8c8 5b3b
00000210: 7b6d a1b7 a721 2c3b d08f 8abb 7a15 78ba
00000220: 3ccd 2b38 e68d 01bb d179 2d3b 8202 533b
00000230: 6eeb 0c37 9c25 243b 7310 4eba 5022 2c3b
00000240: 613b 4d3a 7d0d ad3a a579 59ba fdcb 78ba
00000250: 82a7 143a 3d95 87ba 0dff f8b7 f3c0 3cb9
00000260: 6e9a 393a feb9 993a a04c f53a bb8a 233a
00000270: ea1a cdba 0459 49ba 08a0 42ba 52cf 963a
00000280: 9cad 8bba fc6e 163a 84ae 9c3a 338b 313b
00000290: 9831 bfba e33c 2bba 45f2 64bb f7ea e339
000002a0: 2ec5 2539 6b41 413a 46eb cbba 3683 17ba
000002b0: 8928 3238 40f8 47ba 8261 d23a 8736 8b3a
000002c0: 82e5 1b39 7a54 0f3a 6b0b 3239 8268 893a
000002d0: 038e 1fbc a4b5 3a3a d5df 17bc 2417 153c
000002e0: e6c9 d3bb 3ba1 1839 ae5c 163c a661 b53c
000002f0: 3e57 10bc d288 db3a 7abe bbbc 3b78 f63b
00000300: 182b 1fba 9057 273a a80a b5ba 223e 173a
00000310: acbe 69b9 1d79 ccb9 c69b bf39 0c2a 1c3b
00000320: 66fc fab9 d33e 1c3a 6f3b 03bb fc00 763a
00000330: ef11 65bb 545d b9bb 9d5a a23b 7ea4 973b
00000340: c2e8 34bb 2868 903b 903e 6039 3a30 fa39
00000350: 9631 5dbb e35d a4bb d2f3 c7bb ef9d 28bb
00000360: 5fc3 08b9 9fbc 9cb8 ef9d d535 e571 1339
00000370: 8f6c cab8 9643 7038 1982 6e39 5370 c138
00000380: 0d91 e0b8 a5f5 66b8 1f86 1fb9 ae0d eb37
00000390: 090a d2ba d6c3 7cbb 1ee7 6e3b 3c3c 1c3b
000003a0: eca7 98ba 7da1 443b a767 82ba f156 34ba
000003b0: 0d44 c2ba fdb9 69bb 75ed 70bb c166 0ebb
000003c0: 721a b03a 94be 163b be92 fdba c921 00bb
000003d0: 5412 813a a201 ecba 9b03 8137 58f1 eeb9
000003e0: 39bd a43a a29d 073b ce58 373b dc44 7e3a
000003f0: f627 203b d54a fcb7 4e8e 63b9 6d2f 99bb
-0.0038910862 -0.0020293498 -0.0016745327 0.0035685517 -0.0024938267 0.001793814 0.001556581 0.0066280714
-0.0035608625 -0.0016365489 -0.009626067 0.0006556112 7.3210213e-06 4.7366662e-05 0.00014856616 9.527521e-05
1.6425065e-05 4.122614e-05 -0.00039487047 -0.00024329494 -3.5366818e-06 0.0001215447 0.00011868165 -0.000107418826
0.0020444235 0.002916072 -0.002223178 -0.0026558973 0.001461368 -0.002349691 -1.3053933e-05 -0.0012648366
0.0018919818 0.0025854374 0.004411895 0.0012072955 1.8103587e-05 0.00025230527 -0.00020275671 0.000116484094
5.0717787e-05 -0.00018212841 -9.670718e-05 -1.1976616e-05 4.216486e-05 0.00023338497 0.000104722036 0.00022761397
-0.002152202 -0.002329953 0.002064753 0.0020937081 -0.0015718692 0.0017948478 0.00096480944 0.0010685734
-0.0020491283 -0.0020042686 -0.0034026038 -0.0011097799 -0.003088153 -0.0014570965 -0.0008784584 0.0029408569
-0.0020108868 0.0013226506 0.0010296607 0.00516377 -0.0028938502 -0.0011211387 -0.006819326 0.0009955707
0.0014836371 -0.00075215 0.0027290976 -0.0011918775 0.0008632274 0.00043207823 -0.0017889158 -0.0043008607
0.0013147641 -0.0008254112 0.0038018785 -0.0017604836 -0.0025315292 -0.00022448572 -0.0020907235 0.0020228832
-0.0015476359 0.0003286348 0.0021083285 0.0056287525 -0.0022622754 -2.3193505e-05 -0.006499598 0.0014196003
0.0024220764 0.0030331847 -0.0013873636 -0.0020348716 0.0018550609 -0.0024099755 -0.0009537636 -0.0010544189
0.0022677316 0.0026150842 0.005973879 0.0014221363 0.005341727 0.0039440105 -0.003251255 -0.00805436
0.0037557539 -0.0034024043 0.0006978104 -0.009322349 0.005116271 0.0033073658 0.009224291 -0.0009309959
0.0024370928 0.0055876286 -0.005703617 -0.0037119552 0.0017773269 -0.004304908 0.0018012879 0.0015293933
0.0022772923 0.0051605296 0.004796524 0.0033536498 -1.9243676e-05 0.0026265176 -0.0042285696 -0.00094636495
4.0960716e-05 -0.0019768416 0.0026470313 0.003219754 8.3994655e-06 0.002504683 -0.00078607275 0.002626557
0.00078289775 0.0013202872 -0.00082960195 -0.0009490846 0.00056707126 -0.0010344159 -2.9682671e-05 -0.00018000956
0.0007080202 0.0011728404 0.0018714853 0.0006238629 -0.001564828 -0.0007680806 -0.0007424359 0.0011505878
-0.0010656598 0.0005738584 0.0011953865 0.0027091026 -0.0014586924 -0.0006532205 -0.0034934443 0.00043471876
0.00015809081 0.0007372114 -0.0015557788 -0.0005779745 4.247626e-05 -0.00076282397 0.0016050788 0.0010621109
0.0001486745 0.0005467605 0.00016979656 0.0010483416 -0.009738448 0.00071224035 -0.009269674 0.009099755
-0.006463277 0.00014555913 0.00917737 0.022141289 -0.008809863 0.001674915 -0.022917975 0.007521657
-0.000607179 0.0006383592 -0.001381238 0.00057694514 -0.00022291642 -0.00039000149 0.0003654642 0.0023828773
-0.00047871767 0.0005960289 -0.002002444 0.0009384302 -0.0034953316 -0.0056568775 0.0049546496 0.0046277633
-0.0027604555 0.0044069476 0.00021385611 0.00047719647 -0.003375148 -0.005016075 -0.0061020637 -0.0025728901
-0.00013042752 -7.473793e-05 1.5915701e-06 0.00014061441 -9.652331e-05 5.7283403e-05 0.00022745914 9.223879e-05
-0.0001070817 -5.5065047e-05 -0.00015213386 2.8020553e-05 -0.0016024719 -0.0038568876 0.0036453675 0.0023839613
-0.0011646724 0.003000348 -0.0009949104 -0.00068794104 -0.0014821306 -0.0035663836 -0.003676263 -0.0021728727
0.0013435616 0.0023001777 -0.0019346101 -0.0019551388 0.0009847381 -0.0018005858 1.5379677e-05 -0.00045574713
0.00125686 0.0020693322 0.0027976516 0.0009699592 0.002443788 -3.0075587e-05 -0.0002170142 -0.004674843

exp_avg_sq f4 [32, 12]
00000000: c1db ee39 db00 023a e3cc f03b 341d 463b
00000010: f23f 4539 2f2d 8839 2896 8c3b b744 8d3b
00000020: 52de f939 7aec 133a 6874 553b 2a80 173b
00000030: 0a8a 2d34 2053 3535 e91f 3b37 d750 7136
00000040: 9db1 1c34 202e 0b35 57e2 9036 5cb7 1c36
00000050: 54c8 6e34 3cea 6335 474b c436 7a76 b036
00000060: 407e 0139 68a2 0b39 7efd 1b3b 0eaa 593a
00000070: f358 4c38 9575 9738 51d3 993a 068b a03a
00000080: f8c0 0c39 342e 1c39 b3ff 463a 2071 1b3a
00000090: f069 9534 2f7a 5335 0554 aa37 ae2d f736
000000a0: 59c5 fa33 d0e0 1235 fc05 b136 b1e7 7736
000000b0: 1ba8 1735 a61e 6735 843c 6637 ed7b 4737
000000c0: e346 1339 fb53 1e39 bdfc 2f3b 3b8d 743a
000000d0: e54e 6738 987b a638 7452 ae3a 10a5 b63a
000000e0: 9c20 1d39 59a0 3239 dea5 843a 1073 2c3a
000000f0: 3f6a 9b39 da63 a939 f1de 9d3b a4c1 013b
00000100: cb28 fc38 88a4 3039 1eef 363b d247 383b
00000110: 8403 a139 30c7 c139 f8d0 083b 87b8 c93a
00000120: e9af 7d38 d7c2 ab38 822b eb3a a5ad 223a
00000130: 926a dc37 e824 3b38 5ee0 3c3a 9cdb 193a
00000140: c70e 8338 d835 c038 1b06 7e3a 19ab fe39
00000150: 3d11 4e39 e700 7339 a880 753b 164c c43a
00000160: 0664 af38 a333 fd38 b172 023b 3260 f23a
00000170: 104b 5539 008b 8a39 c261 e43a 0774 973a
00000180: e5d2 3739 376e 4939 15e0 5d3b 8568 983a
00000190: e8e5 8f38 dac0 d238 7bde d83a 5d23 e53a
000001a0: 86e6 4439 0f78 6339 2be0 c83a 41d8 623a
000001b0: 0e56 7f3a f84a 853a 638d 613c 64f0 c13b
000001c0: 1416 c839 7a71 0a3a c574 113c 206d 113c
000001d0: 3a6e 833a b9e9 963a 8a56 8d3b e422 8d3b
000001e0: 6356 2739 d34d 6639 9935 bd3b e162 ca3a
000001f0: da9a 7b38 d790 0039 30eb f23a 74b0 e23a
00000200: f8bc 4539 2e70 7d39 66d3 053b a3f9 943a
00000210: cdf4 1237 2706 3038 692b dc3a a41e ca39
00000220: 3d10 8336 e8e5 ca37 ac0c ab39 9f30 0a39
00000230: d09c 6e37 7c8b 4138 f7c9 2e3a 625d a539
00000240: bf9c 9a37 a0b7 b037 beb2 033a 8d8b 1739
00000250: 37fd f036 d6d1 4637 254d 4839 9b91 4b39
00000260: cf30 ad37 8855 c537 5c52 4a39 9be0 d838
00000270: f0cc ac38 f868 ca38 8445 ba3a 2e3b 123a
00000280: 7474 1238 dc2b 4b38 130f 503a ff26 4d3a
00000290: 08ec b438 c8de e638 f325 153a 6dcf c939
000002a0: 82bd 9d35 155b aa36 da8e 2539 cc49 2b38
000002b0: 39a0 3a35 d471 8f36 500f 2a38 be8a a237
000002c0: 7146 e935 318b c436 9351 7e38 398c 8038
000002d0: c429 533b b414 743b 9bc3 7d3d ffc2 c83c
000002e0: 0d02 ae3a 3516 013b a2ca 043d 2170 f73c
000002f0: db0d 593b d32e 8b3b 3fac cb3c 66f1 993c
00000300: 2d1b 3237 6bf1 ce37 098b 4f3a ef8c 5739
00000310: 8bbb c036 baa9 6937 0c0b 5439 ceab f738
00000320: 88b4 7937 7d46 e437 6a71 0e3a 9b7f 2f39
00000330: 00aa cb39 3efa e539 8d50 203c 94eb 3c3b
00000340: 2a5b 1b39 0990 7d39 2325 813b 697c 843b
00000350: a1a3 e139 711d ff39 d9a9 803b d6ca 003b
00000360: c8dd 0d35 3003 3e35 54d4 3237 8e5d 7536
00000370: 7889 8434 4c2a e334 5ca5 bb36 69b2 ba36
00000380: 05b0 2235 2ea0 5635 1a47 d136 30f8 6636
00000390: 4ebe 9838 2743 dd38 528b 3c3b 2b46 403a
000003a0: b397 ee37 6ca3 7038 167b 663a 62d5 523a
000003b0: 2ee2 b638 bad4 f338 4174 7c3a 5aa4 063a
000003c0: 5223 6338 0e78 8138 082c a63a 7b89 d339
000003d0: 95c6 ae37 57d2 0b38 af58 0d3a 0c8d 103a
000003e0: 0f77 7b38 1ae4 8f38 bc80 ec39 dc8c 9e39
000003f0: 80ef 6439 16fb 6a39 2f3a 683b 8584 ce3a
0.00045558627 0.0004959234 0.007348643 0.0030229809 0.00018811206 0.00025973606 0.004290361 0.00431117
0.00047658622 0.0005642843 0.0032570604 0.0023117163 1.6162099e-07 6.754872e-07 1.1153498e-05 3.5958853e-06
1.4593247e-07 5.1848656e-07 4.317884e-06 2.335254e-06 2.2238356e-07 8.4904946e-07 5.8500186e-06 5.2590012e-06
0.0001234943 0.00013316574 0.0023802216 0.0008303233 4.872023e-05 7.2221424e-05 0.0011735951 0.0012248463
0.00013423327 0.00014894531 0.0007591203 0.00059296377 2.7830492e-07 7.8781426e-07 2.0304704e-05 7.3664914e-06
1.16774295e-07 5.4716384e-07 5.2757077e-06 3.694073e-06 5.649651e-07 8.6098805e-07 1.3723158e-05 1.1890178e-05
0.0001404542 0.0001509934 0.0026853525 0.00093289063 5.5148168e-05 7.938518e-05 0.001329972 0.001393469
0.00014984835 0.00017035137 0.0010120233 0.0006578425 0.00029643063 0.00032308587 0.0048178365 0.0019799257
0.00012023895 0.0001684596 0.002791352 0.002811898 0.00030710932 0.00036960235 0.0020876508 0.0015390076
6.048373e-05 8.190207e-05 0.0017942043 0.00062056846 2.627567e-05 4.4618646e-05 0.0007205064 0.0005869211
6.249319e-05 9.1653026e-05 0.0009690241 0.00048574133 0.00019652113 0.00023174622 0.0037460718 0.0014976289
8.363281e-05 0.00012073598 0.0019904787 0.0018491803 0.00020341226 0.00026424974 0.0017424154 0.0011554965
0.00017530804 0.00019209912 0.0033855487 0.0011627829 6.861595e-05 0.00010049502 0.0016545797 0.0017481853
0.00018777893 0.00021693132 0.0015325596 0.000865344 0.0009740301 0.0010169437 0.013766619 0.0059185494
0.00038163422 0.00052811916 0.008877938 0.008876115 0.0010027357 0.0011513747 0.004313295 0.004307138
0.00015958543 0.00021963501 0.0057742116 0.0015440845 5.998728e-05 0.00012260988 0.0018533226 0.0017295019
0.0001885778 0.0002416975 0.0020420193 0.0011365901 8.759275e-06 4.19674e-05 0.0016797605 0.0003855127
3.9059946e-06 2.4187335e-05 0.00032625103 0.00013178818 1.4222416e-05 4.614469e-05 0.00066676683 0.00031540828
1.8431221e-05 2.1066342e-05 0.0005023888 0.00014452469 7.1820355e-06 1.1850576e-05 0.00019102225 0.00019413831
2.0645935e-05 2.3524059e-05 0.00019294902 0.00010341519 8.239772e-05 9.6516625e-05 0.0014211391 0.00055782765
3.4917568e-05 4.843982e-05 0.00079368165 0.000782594 8.627033e-05 0.00011008751 0.0005689554 0.00038492252
1.1752566e-06 5.076998e-06 0.00015788843 4.0838306e-05 6.9523554e-07 4.2749834e-06 4.054542e-05 1.9376512e-05
1.7380354e-06 5.857459e-06 6.063429e-05 6.129634e-05 0.003222094 0.0037243785 0.061954122 0.024507044
0.0013275758 0.0019697074 0.03241981 0.030204834 0.003311983 0.0042475252 0.024862407 0.018791866
1.0615954e-05 2.4669533e-05 0.0007917141 0.000205565 5.743879e-06 1.39274e-05 0.00020222011 0.00011809879
1.488359e-05 2.7212542e-05 0.000543377 0.00016736837 0.00038845837 0.0004386473 0.00978483 0.002882694
0.00014815913 0.00024181617 0.0039411946 0.004043151 0.00043037257 0.00048659326 0.0039264974 0.001965215
5.284933e-07 7.0785154e-07 1.0659063e-05 3.65623e-06 2.4686938e-07 4.231282e-07 5.5922847e-06 5.5640016e-06
6.0605845e-07 7.9954305e-07 6.2369627e-06 3.4417135e-06 7.283372e-05 0.00010550609 0.0028769565 0.00073346746
2.8442451e-05 5.7372657e-05 0.0008792145 0.0008042661 8.7205655e-05 0.00011626766 0.00096303603 0.00051361846
5.4153912e-05 6.173561e-05 0.0012677917 0.00040347487 2.0834888e-05 3.3336077e-05 0.0005391938 0.00055141817
5.9953945e-05 6.8612586e-05 0.00045109342 0.00030241057 0.00021832995 0.00022409516 0.003543507 0.0015756047

exp_avg f4 [32]
00000000: 1888 6c3c fda2 8c39 f79e a0bc e313 b0ba
00000010: 5cfd 7b3c 5c2a 253c 6fc2 8d3b cbbc 053b
00000020: fea6 a7bc b96d cbbc 3b57 19bd ec4a 91bc
00000030: 81eb 10bc 0fab 9a3b 4342 d0bb e6ea 1cbb
00000040: 5d58 71bb ecc0 193d 0b2b 073a cf5a d33c
00000050: 1f6e 78bc 8d8e 6eb9 2af4 37bb a17b dc3c
00000060: ff23 a63c 47be fbba b716 8a38 c214 a73a
00000070: 8b22 d0bc a9e7 593c a78a 2ebc 1353 8ebc
0.014436744 0.00026824317 -0.01960705 -0.0013433661 0.01538023 0.0100809 0.004326157 0.0020406719
-0.02046537 -0.024832593 -0.037436705 -0.01773592 -0.008845211 0.004720099 -0.0063555553 -0.0023943721
-0.003682635 0.0375375 0.0005156255 0.025800137 -0.015162974 -0.00022750553 -0.0028069117 0.02691442
0.020280836 -0.0019206487 6.584584e-05 0.0012747275 -0.025407096 0.013299861 -0.0106531745 -0.017373597

exp_avg_sq f4 [32]
00000000: f950 923c b5cd 1738 d365 a33b bcf6 1f38
00000010: b1fa b33b 6f03 3d3c 9ff7 473b e223 083c
00000020: 71dd e43b a7a8 143d 5ca4 0c3c c48b de3a
00000030: c10d 563a b498 5b3b 73b3 9b39 e08b 093e
00000040: 27c6 7e3a 0971 883c b18c f537 303c 833b
00000050: 6bd4 173b 3b0b 103c ac62 9439 bbf5 8a3b
00000060: 389a 573b 9899 973a a5b7 9339 697d ab3a
00000070: 84ce 4b3c 1fa9 dc3b 7a6c 073c 7041 f83b
0.017860876 3.6192785e-05 0.0049865036 3.8138343e-05 0.005492531 0.011536463 0.0030512584 0.008309336
0.0069844057 0.036293652 0.008584108 0.0016978909 0.00081655016 0.0033507766 0.00029697604 0.13432264
0.0009718858 0.016655462 2.927179e-05 0.0040049776 0.0023167382 0.00879174 0.00028302276 0.004240719
0.0032898318 0.001156616 0.0002817485 0.001308364 0.012439374 0.006734028 0.008265609 0.00757616
