logs/rl_games/klask/sim_collision_ro_a5_3/nn/klask.pth (torch, 580722 bytes, 30 tensors)

a2c_network.sigma f4 [4]
-1.9105093 -1.8804846 -0.24619475 -0.22120981
00000000: 928b f4bf b8b3 f0bf 7a1a 7cbe d384 62be

a2c_network.actor_mlp.0.weight f4 [256, 22]
-0.08024042 0.65993303 -0.16459711 -0.07205518 -0.03535305 -0.105981395 -0.016547685 -0.092997655
0.09641659 -0.5856663 0.048474796 -0.019095922 -0.08971735 0.06477301 -0.07112653 0.09830918
0.068671115 -0.09880031 0.06925067 -0.031086262 0.0591505 0.154455 1.1045127 -0.5046911
0.09083509 0.066678815 0.0576228 -0.11090048 -0.06329361 -0.035408337 -1.1200819 0.7371261
-0.054547094 0.16093779 0.020403074 -0.028508348 0.06937131 -0.06583635 -0.033141848 -0.042957693
0.010914752 -0.066476025 -0.01932292 -0.049515385 0.7706724 -0.052537177 -0.16512537 -0.10206065
0.2113495 0.023794856 0.135868 -0.09537472 -0.8455768 -0.45603222 -0.23093489 0.31380165
0.041818853 0.1271213 -0.09315735 -0.090427674 0.12216685 -0.025469445 0.045074914 0.0048613804
0.04290024 -0.08773195 -0.6088089 0.00868555 -0.042615067 -0.04842742 0.18256643 0.1389521
-0.07975267 -0.07697889 0.3996965 -0.34591407 -0.026786108 -0.20527726 -0.10697227 -0.058449116
-0.109298944 -0.14671445 -0.09009961 -0.09782621 -0.101855755 -0.09987966 -0.16306283 -0.17355119
0.9690941 0.51783526 0.12976618 -0.17326768 -0.10185207 -0.12633534 -0.006107173 -0.11185542
-0.9159657 -0.8343784 -0.13782877 -0.025488378 0.028522719 -0.03782264 -0.034258544 0.014390109
-0.062047213 -0.07061961 -0.03393637 -0.02838729 0.054935113 0.119934425 -0.15169913 0.45590618
-0.09927923 -0.012853186 -0.115299396 -0.17960025 0.048869114 -0.03277184 0.4524364 -0.9221914
0.29155776 -0.35878143 0.003096663 0.007493788 0.040178522 0.119377546 0.19421117 -0.0433959
0.034462813 -0.04914414 -0.049816873 -0.10524227 1.0399492 -0.06611643 0.1645937 0.093217075
-0.053562958 -0.18618318 0.082637526 0.035100196 -0.7182491 -0.6018341 0.052616186 -0.11426333
0.010183545 0.087855816 0.029727694 -0.03291487 -0.15627788 0.009029281 0.054647174 -0.014179666
-0.03558617 -0.075222865 -0.6794774 0.2752342 0.06429792 -0.19460908 0.07422235 0.07607894
0.027356235 -0.040708836 0.5147868 0.29509696 0.07860783 -0.014573631 -0.06342197 0.070563704
-0.05392005 0.0012138857 0.041844424 0.15027833 0.011210243 -0.034083605 0.106547266 0.069775194
0.4377432 0.61197627 -0.13309339 0.028997526 0.28156495 0.109716706 -0.01904723 -0.039622396
-0.41181803 -0.85606325 -0.041821387 0.050118342 0.063897 0.047998693 -0.038847987 -0.036935773
0.072899066 0.059281178 -0.034592852 -0.028085183 0.03537235 -0.039116528 -0.5024236 0.46402493
-0.1616638 0.099926054 -0.15750827 0.1077376 0.098050945 0.11873432 -0.13726912 -0.52005655
-0.08540049 0.33847484 0.09333603 0.061753582 0.040768337 0.040613417 -0.0037452646 -0.07015203
-0.0444128 -0.08672113 0.06862307 -0.060681153 0.22005206 -0.24392663 -0.06055029 -0.012055933
-0.18190666 -0.113639705 -0.031504627 -0.015975699 -0.14100264 -0.40840253 -0.024916407 0.103280574
0.020209702 -0.013798683 0.036103178 -0.01669225 0.09939653 0.07225184 0.055148285 0.0034440104
0.044931844 0.08961101 -0.14447373 0.27642298 0.017095858 0.02921471 -0.08459131 -0.24231717
0.033086542 -0.09117236 0.2340937 0.70951784 0.08496585 0.06663534 -0.014909312 0.050280478
00000000: 1755 a4bd 5ff1 283f 258c 28be ab91 93bd
00000010: 5cce 10bd c60c d9bd 038f 87bc 8e75 bebd
00000020: 1076 c53d 3aee 15bf 828d 463d 0d6f 9cbc
00000030: bbbd b7bd b6a7 843d c9aa 91bd 5356 c93d
00000040: 71a3 8c3d d157 cabd 4cd3 8d3d 9ea8 febc
00000050: cb47 723d 7429 1e3e ac60 8d3f 7033 01bf
00000060: bf07 ba3d e78e 883d e305 6c3d ca1f e3bd
00000070: 15a0 81bd 5508 11bd d85e 8fbf 4cb4 3c3f
00000080: c66c 5fbd e0cc 243e 5924 a73c 578a e9bc
00000090: 8c12 8e3d 35d5 86bd bfbf 07bd 68f4 2fbd
000000a0: cad3 323c 9524 88bd 1a4b 9ebc a5d0 4abd
000000b0: c94a 453f 3931 57bd a016 29be 2d05 d1bd
000000c0: 016c 583e 6eed c23c fb20 0b3e d253 c3bd
000000d0: b977 58bf 0e7d e9be 327a 6cbe 9caa a03e
000000e0: 3f4a 2b3d 162c 023e 48c9 bebd 2532 b9bd
000000f0: 9d32 fa3d 4ca5 d0bc 79a0 383d 374c 9f3b
00000100: 29b8 2f3d cfac b3bd e6da 1bbf d64d 0e3c
00000110: 238d 2ebd d55b 46bd b2f2 3a3e 7649 0e3e
00000120: 5e55 a3bd 1ca7 9dbd 05a5 cc3e a61b b1be
00000130: 8a6e dbbc 3434 52be 4714 dbbd 5768 6fbd
00000140: 20d8 dfbd 503c 16be 2586 b8bd 1c59 c8bd
00000150: c099 d0bd b58d ccbd f1f9 26be 67b7 31be
00000160: 8d16 783f da90 043f 6de1 043e 156d 31be
00000170: d197 d0bd 0d5e 01be ae1e c8bb 7414 e5bd
00000180: ba7c 6abf d399 55bf fc22 0dbe 01cd d0bc
00000190: 7aa8 e93c eaeb 1abd b052 0cbd 7ec4 6b3c
000001a0: 3825 7ebd 04a1 90bd dd00 0bbd 768c e8bc
000001b0: a403 613d 2ea0 f53d 0457 1bbe 896c e93e
000001c0: e952 cbbd 2b96 52bc 1722 ecbd 21e9 37be
000001d0: fb2a 483d c43b 06bd bea5 e73e bc14 6cbf
000001e0: 0f47 953e 33b2 b7be 62f1 4a3b 738e f53b
000001f0: 3c92 243d 377c f43d 4bdf 463e e6bf 31bd
00000200: e128 0d3d 5e4b 49bd c70c 4cbd 4289 d7bd
00000210: 0e1d 853f 0d68 87bd 408b 283e 98e8 be3d
00000220: d564 5bbd cea6 3ebe dd3d a93d 39c5 0f3d
00000230: 2cdf 37bf cd11 1abf 1284 573d e502 eabd
00000240: e2d8 263c c0ed b33d 7e87 f33c bed1 06bd
00000250: 4f07 20be 8def 133c b7d5 5f3d d451 68bc
00000260: cec2 11bd 720e 9abd 3bf2 2dbf 7feb 8c3e
00000270: a1ae 833d 9a47 47be e301 983d 46cf 9b3d
00000280: 2f1a e03c 4fbe 26bd 11c9 033f f316 973e
00000290: 24fd a03d 3dc6 6ebc 61e3 81bd b483 903d
000002a0: 45db 5cbd 3f1b 9f3a 0f65 2b3d 90e2 193e
000002b0: 2bab 373c 409b 0bbd 7435 da3d 4ce6 8e3d
000002c0: e01f e03e 7aaa 1c3f a249 08be 388c ed3c
000002d0: 4829 903e 27b3 e03d f008 9cbc 184b 22bd
000002e0: d0d9 d2be f626 5bbf e74c 2bbd e448 4d3d
000002f0: 6edc 823d 479a 443d 111f 1fbd f749 17bd
00000300: 1b4c 953d d2d0 723d 3cb1 0dbd e612 e6bc
00000310: 99e2 103d a738 20bd d59e 00bf ad94 ed3e
00000320: 328b 25be 08a6 cc3d d949 21be 88a5 dc3d
00000330: efce c83d fb2a f33d 4790 0cbe 6d22 05bf
00000340: 74e6 aebd 934c ad3e f626 bf3d 53f1 7c3d
00000350: b3fc 263d 415a 263d 1d73 75bb deab 8fbd
00000360: 32ea 35bd d99a b1bd 418a 8c3d cd8c 78bd
00000370: 5455 613e e7c7 79be 9503 78bd 3f86 45bc
00000380: bd45 3abe efbb e8bd ff0a 01bd 78df 82bc
00000390: ff62 10be 231a d1be 7e1d ccbc c484 d33d
000003a0: d18e a53c df13 62bc ede0 133d 2fbe 88bc
000003b0: 6890 cb3d c6f8 933d 2be3 613d e8b4 613b
000003c0: 740a 383d fa85 b73d ecf0 13be 5087 8d3e
000003d0: 9d0c 8c3c b053 ef3c 353e adbd fe21 78be
000003e0: c185 073d 93b8 babd 42b6 6f3e f6a2 353f
000003f0: 9302 ae3d 1c78 883d 3046 74bc e7f2 4d3d

a2c_network.actor_mlp.0.bias f4 [256]
0.011904611 0.1384313 -0.032101523 0.06038191 0.060841665 0.09010264 -0.024009014 -0.12999949
-0.045608316 0.00055748626 -0.17973657 -0.10323515 -0.082484774 -0.15680647 0.059608914 -0.12276258
-0.062226776 0.04613791 -0.14192332 -0.021413183 0.13498385 -0.10674698 0.02178715 -0.10570633
-0.1530223 -0.009864715 0.012911637 -0.045138426 0.059393033 -0.1107562 -0.048545647 0.018175835
-0.05916855 -0.07717281 -0.1408116 -0.1521657 -0.027871896 0.07366229 0.095982835 0.007667594
0.038370088 -0.15309288 -0.045642324 -0.06387818 -0.033681072 -0.059431728 0.02713669 -0.07786896
0.074278116 -0.04062246 -0.028221276 -0.11783131 -0.08671539 -0.062340036 -0.17868984 -0.022945845
-0.06606806 -0.0015209717 -0.06667383 -0.023994379 -0.13233922 -0.038176406 -0.030860588 0.08363838
-0.08801952 -0.059097346 0.08746024 0.014774637 0.051052764 0.02027327 -0.023269182 -0.030248731
-0.021758987 -0.09849423 0.10670031 0.14365873 0.033050306 0.020530514 -0.031056864 -0.056758106
-0.10552268 0.06305934 0.036333866 0.026103904 0.15740006 -0.06178446 0.036161818 -0.014384231
0.08480882 -0.14217556 -0.07869527 -0.0064944127 -0.12436192 -0.06895067 -0.048128337 -0.06713277
-0.1292167 -0.17729078 0.101254 -0.030608525 -0.11307375 -0.056718834 0.028279882 0.010678627
0.03390276 0.12091617 -0.12282534 -0.13149859 -0.18535593 -0.17472726 0.07783181 0.013618859
-0.13014066 -0.08708432 -0.109079584 0.08966234 0.04347323 -0.1327928 -0.018437736 -0.13156289
-0.06552951 0.023210973 0.022950774 0.019601336 0.16116863 -0.061569355 -0.13284147 0.0037979467
-0.09414187 0.021733973 -0.03415037 -0.070544966 -0.06766401 -0.005769042 0.044081304 0.040161103
-0.14818539 -0.12830077 -0.020065542 0.016432274 -0.11640073 -0.18294671 -0.16337271 0.0070571443
0.1265596 -0.11685212 -0.044371247 -0.097008556 -0.026101831 0.043192904 0.05087574 -0.1564831
0.039684106 -0.10097527 -0.0396911 -0.095820755 -0.021279462 0.11363439 -0.0056150253 -0.08922809
0.029178659 -0.08530218 0.10119495 0.18062058 -0.082538985 0.040995557 0.04413146 -0.015493881
-0.08074471 -0.03199785 -0.117025025 0.054718915 -0.12375874 -0.13813113 0.06139216 -0.04001025
0.031618416 -0.13701068 0.05101133 0.067443185 -0.14446482 -0.14174516 0.00695874 0.049803026
-0.13624483 -0.19050528 -0.19576174 -0.095625006 -0.12245717 0.001990623 -0.0072216834 -0.14733806
0.035875097 -0.09617837 -0.08004287 0.11229226 -0.013930534 0.10042007 -0.1398511 0.019158075
-0.12542608 -0.096438 -0.073932596 -0.06122652 -0.036145505 9.860766e-05 -0.09648087 -0.09720553
-0.16110222 0.029720781 -0.04042799 -0.016817931 0.049182933 0.0704042 0.043000918 -0.11927365
-0.15150324 -0.08227346 -0.12396894 0.03885029 -0.007641139 -0.113482215 0.04400422 -0.000199556
-0.029083258 0.037299875 0.07927586 -0.120717615 -0.051414594 -0.04028043 0.040921263 -0.09801933
0.082872376 -0.119272366 -0.032271087 -0.08714773 0.0035391364 -0.051107667 0.06457136 -0.13445766
-0.06814299 -0.16854255 -0.16404499 0.13781475 -0.058511447 -0.08120265 -0.028168768 -0.048418224
-0.14902228 -0.108515404 -0.07822769 -0.102645144 -0.10903178 -0.1208939 -0.12923683 -0.13505949
00000000: 8f0b 433c efc0 0d3e e37c 03bd 0653 773d
00000010: 1c35 793d bc87 b83d 8dae c4bc 961e 05be
00000020: c9cf 3abd 4524 123a dd0c 38be f36c d3bd
00000030: c7ed a8bd e091 20be 7a28 743d f36a fbbd
00000040: 81e1 7ebd 1bfb 3c3d 5954 11be b36a afbc
00000050: 3539 0a3e 299e dabd f77a b23c 8f7c d8bd
00000060: e1b1 1cbe 9d9f 21bc 558b 533c 12e3 38bd
00000070: 1c46 733d 26d4 e2bd cdd7 46bd 7de5 943c
00000080: b95a 72bd c70c 9ebd eb30 10be 53d1 1bbe
00000090: 9a53 e4bc 41dc 963d a692 c43d 7140 fb3b
000000a0: f429 1d3d 61c4 1cbe 72f3 3abd 90d2 82bd
000000b0: 2af5 09bd af6e 73bd c44d de3c c379 9fbd
000000c0: 201f 983d bd63 26bd 4e30 e7bc 8b51 f1bd
000000d0: d797 b1bd 4458 7fbd 78fa 36be edf8 bbbc
000000e0: b14e 87bd 575b c7ba 4a8c 88bd dc8f c4bc
000000f0: ef83 07be dd5e 1cbd 58cf fcbc 994a ab3d
00000100: 9443 b4bd 0f10 72bd 5b1e b33d 5211 723c
00000110: b41c 513d 2114 a63c 039f bebc 30cc f7bc
00000120: e73f b2bc 58b7 c9bd b185 da3d 461b 133e
00000130: c25f 073d 9c2f a83c f76a febc 307b 68bd
00000140: 461c d8bd 4125 813d d2d2 143d dbd7 d53c
00000150: 7b2d 213e b411 7dbd 6a1e 143d d6ab 6bbc
00000160: 3fb0 ad3d 7896 11be fc2a a1bd 15cf d4bb
00000170: 76b1 febd 0236 8dbd 3822 45bd e87c 89bd
00000180: 6251 04be b78b 35be 425e cf3d bbbe fabc
00000190: 3693 e7bd 0252 68bd 36ab e73c 68f5 2e3c
000001a0: 9fdd 0a3d e6a2 f73d da8b fbbd 91a7 06be
000001b0: f2cd 3dbe b4eb 32be 4966 9f3d a321 5f3c
000001c0: 9843 05be 4459 b2bd 1e65 dfbd e4a0 b73d
000001d0: fc10 323d d6fa 07be bc0a 97bc 6cb8 06be
000001e0: 5634 86bd f024 be3c 4303 bc3c fb92 a03c
000001f0: 6409 253e 2630 7cbd 9807 08be f9e6 783b
00000200: 74cd c0bd 720b b23c 42e1 0bbd e179 90bd
00000210: 6e93 8abd 3b0a bdbb 998e 343d f87f 243d
00000220: e9bd 17be 4761 03be 7e60 a4bc fa9c 863c
00000230: 8263 eebd 6256 3bbe 2d4b 27be 9e3f e73b
00000240: d798 013e 2a50 efbd a0be 35bd 6cac c6bd
00000250: 82d3 d5bc 0beb 303d 1463 503d 1b3d 20be
00000260: cd8b 223d 1fcc cebd 2393 22bd ac3d c4bd
00000270: 4452 aebc 26b9 e83d 3ffe b7bb 38bd b6bd
00000280: 1508 ef3c e9b2 aebd 4c3f cf3d 9af4 383e
00000290: 330a a9bd f5ea 273d 31c3 343d 0cda 7dbc
000002a0: 7c5d a5bd 2d10 03bd d1aa efbd f120 603d
000002b0: 3975 fdbd 3f72 0dbe 5876 7b3d cae1 23bd
000002c0: 5082 013d 874c 0cbe 42f1 503d a71f 8a3d
000002d0: 96ee 13be a525 11be 2406 e43b 42fe 4b3d
000002e0: c483 0bbe d113 43be c475 48be 0bd7 c3bd
000002f0: d3ca fabd 1d75 023b dfa3 ecbb cadf 16be
00000300: c4f1 123d 2af9 c4bd 84ed a3bd 7cf9 e53d
00000310: e53c 64bc 0aa9 cd3d 2035 0fbe 65f1 9c3c
00000320: b26f 00be 4981 c5bd f969 97bd a9c8 7abd
00000330: 4f0d 14bd 96cb ce38 c397 c5bd b113 c7bd
00000340: fbf7 24be ff78 f33c d297 25bd c2c5 89bc
00000350: 0b74 493d 1430 903d bb21 303d be45 f4bd
00000360: aa23 1bbe fd7e a8bd 6de3 fdbd 7b21 1f3d
00000370: 8562 fabb 5d69 e8bd c53d 343d e83f 51b9
00000380: 0340 eebc c1c7 183d 625b a23d cc3a f7bd
00000390: 1c98 52bd 18fd 24bd 0e9d 273d 5cbe c8bd
000003a0: feb8 a93d 1245 f4bd b02e 04bd 827a b2bd
000003b0: dbf0 673b 4656 51bd fd3d 843d 45af 09be
000003c0: 8d8e 8bbd 6b96 2cbe 69fb 27be 4f1f 0d3e
000003d0: b3a9 6fbd 934d a6bd 30c2 e6bc 3052 46bd
000003e0: 4c99 18be 533d debd d735 a0bd 9e37 d2bd
000003f0: 0e4c dfbd 3997 f7bd a956 04be 094d 0abe

a2c_network.actor_mlp.2.weight f4 [128, 256]
0.042502876 -0.20350067 0.0485527 0.047977336 0.020715354 0.0030518826 -0.106175505 0.081998274
-0.11392851 -0.15843041 0.09219843 -0.11791434 0.073927924 -0.16300544 0.21524808 0.03594507
-0.028942224 0.15453528 -0.054405693 -0.017903097 0.11036527 0.112056255 0.14100173 -0.02024217
-0.1373498 0.00971537 0.116623096 0.0076105064 0.27421248 0.059947178 -0.021376124 0.039587136
0.23728673 0.009370758 -0.043917887 -0.057931922 -0.18250509 0.14974135 0.16054921 -0.22240818
-0.20242868 -0.19992507 0.19458807 -0.06992641 -0.1524511 -0.055263765 -0.0816298 0.067883864
0.33001643 -0.008378612 -0.076963976 0.2492751 -0.04152163 -0.2938349 -0.11303846 -0.049796797
-0.18550563 0.058570836 -0.0780988 -0.035945326 -0.012151997 -0.009640282 -0.0019663624 -0.015455546
-0.2990586 -0.05013176 0.0833011 0.122946456 -0.021374704 -0.051203493 0.081873655 0.061043747
0.09075202 -0.14040655 0.21128513 -0.009030384 0.10105465 -0.07601242 0.044010963 -0.08340721
-0.051866308 -0.11105608 -0.09650803 0.09304255 0.10214168 0.055164527 0.038411155 0.098019965
-0.078086875 -0.095196664 0.0035617335 -0.042284492 -0.1875037 -0.0992058 -0.10145813 -0.124797545
0.035773486 -0.0025537596 0.0687508 -0.09846515 -0.05458158 -0.09546846 0.142442 -0.024572873
-0.05037468 0.26978055 -0.100047186 -0.09130566 0.017331265 0.03824548 0.06398583 0.10523156
-0.1989222 -0.02064481 -0.20628892 -0.094159484 0.18818119 -0.115472406 0.018905556 -0.08521821
0.02951054 -0.013439566 -0.040387228 0.14834018 -0.10706745 -0.118070066 -0.05024684 -0.1225963
-0.027809648 -0.03923574 0.01968744 -0.07770072 -0.06463177 -0.09269441 -0.07611393 0.16197869
-0.18853131 -0.07858484 -0.12610409 0.079215266 -0.2285277 -0.09079536 0.036089674 -0.11160852
0.18453334 0.09708669 -0.061749663 -0.12367322 0.03610476 0.23756365 0.30097607 0.04737016
-0.0046030493 -0.00063808425 -0.17714962 0.07709689 0.09882727 0.13467167 -0.23408508 0.09628926
0.1722552 0.09424589 0.0385105 0.021656968 0.07454743 0.1881673 0.095831856 0.06260054
0.008698975 -0.040387135 -0.0780272 -0.0006828504 -0.063942716 -0.22572416 -0.17667142 -0.11186639
0.19376725 0.080558896 0.095765606 0.16139872 -0.08910597 -0.029176878 0.04643719 -0.06002306
-0.03836591 -0.12510343 -0.05270702 -0.014075281 0.033905085 -0.15983044 0.0069056554 -0.14170977
0.2444461 0.0037778502 -0.20564508 0.03877223 0.083836965 -0.0073934793 0.1389611 -0.054511484
0.018032227 0.0034503213 0.069801845 -0.21205741 0.08392655 -0.06999331 -0.12214902 0.13779393
-0.04365991 -0.10590443 -0.074102245 -0.10375142 0.005215286 0.12251975 -0.042822905 -0.065023914
-0.02827192 -0.015585279 -0.1755154 -0.013972076 -0.114513144 -0.07626154 0.16999792 0.28620985
-0.048701808 0.048500545 -0.0821974 -0.18389776 -0.23235391 -0.0019280204 0.09732419 -0.2970418
-0.023650564 0.0036804823 0.037647724 -0.03811338 0.045870695 0.07045964 0.053118464 -0.004539705
0.064692974 -0.009225681 -0.09671645 0.15505505 0.0037568153 0.0471957 0.013095531 0.093945384
-0.15475881 0.0200542 -0.009414031 -0.09940778 -0.07187845 0.06259291 0.19379464 -0.033664145
00000000: 7f17 2e3d 7b62 50be 32df 463d e283 443d
00000010: 3fb3 a93c 1802 483b 8b72 d9bd b6ee a73d
00000020: 5a53 e9bd 953b 22be 88d2 bc3d 137d f1bd
00000030: 8667 973d e6ea 26be fe69 5c3e 233b 133d
00000040: 3e18 edbc 7f3e 1e3e 81d8 5ebd 84a9 92bc
00000050: 3007 e23d c07d e53d c262 103e e8d2 a5bc
00000060: 6da5 0cbe 372d 1f3c 17d8 ee3d 8e61 f93b
00000070: 9465 8c3e 2c8b 753d fb1c afbc 1f26 223d
00000080: 4bfb 723e cf87 193c 3ee3 33bd 064a 6dbd
00000090: 9de2 3abe cc55 193e 0367 243e f8be 63be
000000a0: 7749 4fbe 28b9 4cbe 1842 473e 9435 8fbd
000000b0: 241c 1cbe 425c 62bd 862d a7bd b206 8b3d
000000c0: eaf7 a83e 7246 09bc 4a9f 9dbd f941 7f3e
000000d0: 9612 2abd 8771 96be b580 e7bd baf7 4bbd
000000e0: 30f5 3dbe f9e7 6f3d 43f2 9fbd 683b 13bd
000000f0: 2b19 47bc 46f2 1dbc 16de 00bb 4239 7dbc
00000100: 351e 99be f656 4dbd c499 aa3d 5acb fb3d
00000110: 011a afbc c1ba 51bd 60ad a73d 0209 7a3d
00000120: 32dc b93d bcc6 0fbe 215b 583e 2df4 13bc
00000130: bef5 ce3d 66ac 9bbd d744 343d 66d1 aabd
00000140: c471 54bd 5f71 e3bd 01a6 c5bd 188d be3d
00000150: a82f d13d 33f4 613d 0455 1d3d b1be c83d
00000160: 03ec 9fbd 78f6 c2bd f96b 693b 8132 2dbd
00000170: f800 40be 692c cbbd 48c9 cfbd db95 ffbd
00000180: 3887 123d fa5c 27bb 38cd 8c3d 19a8 c9bd
00000190: ef90 5fbd f884 c3bd 51dc 113e 0d4d c9bc
000001a0: ae55 4ebd ad20 8a3e 8ae5 ccbd 76fe babd
000001b0: 4cfa 8d3c 4ba7 1c3d 010b 833d a583 d73d
000001c0: 43b2 4bbe 4e1f a9bc 673d 53be b0d6 c0bd
000001d0: 92b2 403e cc7c ecbd d3df 9a3c e386 aebd
000001e0: 17c0 f13c a031 5cbc 146d 25bd 7de6 173e
000001f0: 2e46 dbbd b8ce f1bd a1cf 4dbd c513 fbbd
00000200: 0fd1 e3bc a8b5 20bd 8e47 a13c 8e21 9fbd
00000210: a95d 84bd 91d6 bdbd 9fe1 9bbd bedd 253e
00000220: 5a0e 41be 17f1 a0bd 6e21 01be 9d3b a23d
00000230: 2a03 6abe ebf2 b9bd c4d2 133d 0293 e4bd
00000240: 4ff6 3c3e 63d5 c63d 37ed 7cbd 6348 fdbd
00000250: 96e2 133d e343 733e 8919 9a3e 3707 423d
00000260: 2dd5 96bb 1c45 27ba b666 35be f9e4 9d3d
00000270: f465 ca3d 5fe7 093e 00b4 6fbe 4e33 c53d
00000280: ab63 303e fd03 c13d 30bd 1d3d f469 b13c
00000290: 53ac 983d eeae 403e 7e43 c43d b634 803d
000002a0: 2586 0e3c fb6c 25bd bacc 9fbd 5101 33ba
000002b0: 66f4 82bd 3c24 67be 5ae9 34be 351a e5bd
000002c0: ec6a 463e 10fc a43d c220 c43d b545 253e
000002d0: 317d b6bd 5904 efbc ec34 3e3d bdda 75bd
000002e0: 9325 1dbd 1d1b 00be 51e3 57bd 029c 66bc
000002f0: 0fe0 0a3d 97aa 23be d648 e23b 5e1c 11be
00000300: 1450 7a3e cf95 773b a094 52be a1cf 1e3d
00000310: b7b2 ab3d 0045 f2bb d24b 0e3e 6f47 5fbd
00000320: 52b8 933c c91e 623b 45f4 8e3d 9425 59be
00000330: afe1 ab3d a758 8fbd 4429 fabd da19 0d3e
00000340: bcd4 32bd 6ce4 d8bd ebc2 97bd a07b d4bd
00000350: fde4 aa3b a2eb fa3d 1267 2fbd 422b 85bd
00000360: 839a e7bc 6659 7fbc 4fba 33be 22eb 64bc
00000370: de85 eabd 032f 9cbd ef13 2e3e 198a 923e
00000380: 8c7b 47bd 82a8 463d 1c57 a8bd b24f 3cbe
00000390: 2fee 6dbe a1b5 fcba e851 c73d dd15 98be
000003a0: d4be c1bc 3f34 713b 8034 1a3d c71c 1cbd
000003b0: e9e2 3b3d 254d 903d bf92 593d cec1 94bb
000003c0: c07d 843d 5027 17bc 4613 c6bd c0c6 1e3e
000003d0: e734 763b 4750 413d a38e 563c 7066 c03d
000003e0: 1879 1ebe b548 a43c 4f3d 1abc 4e96 cbbd
000003f0: 0235 93bd b630 803d 1a72 463e 6ae3 09bd

a2c_network.actor_mlp.2.bias f4 [128]
0.13325803 0.096632324 0.056563966 0.18712346 0.01395947 -0.10107178 -0.12328638 -0.30599692
0.19702429 -0.16420212 0.16521925 -0.108317524 0.165296 0.1271598 -0.03203448 0.098418705
0.16043247 0.009367072 -0.10165145 0.11333606 0.09516976 -0.12237255 0.083080105 0.072972395
0.17665355 0.106066264 -0.072407454 -0.23995937 0.08094111 -0.002970567 0.13750541 0.063048095
-0.19388689 -0.07207013 0.253373 -0.052663583 0.041221507 0.12255331 0.016667776 -0.27357492
-0.1433344 -0.02129337 -0.11228222 0.09078118 0.14265984 0.1472803 -0.0916626 0.047991324
-0.08515676 -0.0033058187 0.17077315 -0.050663777 0.13182493 0.13450302 0.10694122 0.18579476
0.20302269 0.029670153 0.13376713 -0.13724051 0.017428717 -0.07202935 -0.13549906 -0.052846167
-0.18735664 0.032149594 0.15112661 0.065077424 0.11086927 -0.12195234 0.16618867 -0.016763872
0.1601826 -0.1780562 -0.10148058 0.088255346 0.024715325 -0.121141255 0.10894575 0.15618762
-0.14549382 -0.18622798 -0.19494656 0.15481576 0.15821822 0.10720085 -0.22872105 -0.06938426
-0.1902155 -0.081420764 -0.05314832 0.13095976 0.061394967 -0.05417069 0.02652704 0.1452888
-0.1715122 0.09113384 0.17878765 -0.035366677 -0.13443947 -0.044965673 0.096884795 -0.14621948
-0.14014344 0.11413755 -0.20641577 0.16091435 -0.12377048 0.07577205 0.049655158 0.057414852
-0.15635438 0.14543834 0.10521171 -0.24373277 -0.03734326 -0.1722251 -0.12903403 -0.09297303
-0.104697414 0.09459614 0.19419011 0.17174342 -0.08418167 0.12596132 -0.08504651 0.10307158
00000000: cb74 083e 2be7 c53d 9eaf 673d 4b9d 3f3e
00000010: 43b6 643c b9fe cebd 927d fcbd a1ab 9cbe
00000020: bcc0 493e 9a24 28be 3c2f 293e 94d5 ddbd
00000030: 5b43 293e 2e36 023e 9636 03bd bf8f c93d
00000040: 6948 243e 5978 193c a32e d0bd bc1c e83d
00000050: 5de8 c23d 769e fabd e725 aa3d 8d72 953d
00000060: abe4 343e 4539 d93d 5c4a 94bd e9b7 75be
00000070: 74c4 a53d d8ad 42bb 38ce 0c3e 5c1f 813d
00000080: 498a 46be 8199 93bd 1bba 813e c5b5 57bd
00000090: e2d7 283d 3bfd fa3d dc8a 883c 0312 8cbe
000000a0: 41c6 12be 6f6f aebc 38f4 e5bd 7ceb b93d
000000b0: 6c15 123e a6d0 163e 9ab9 bbbd 8d92 443d
000000c0: ab66 aebd 6fa6 58bb 28df 2e3e d284 4fbd
000000d0: 1dfd 063e 29bb 093e 0004 db3d fb40 3e3e
000000e0: 2ee5 4f3e d20e f33c 40fa 083e c788 0cbe
000000f0: abc6 8e3c 2084 93bd 44c0 0abe 3975 58bd
00000100: 6bda 3fbe 4baf 033d efc0 1a3e 5047 853d
00000110: 6e0f e33d 26c2 f9bd 5d2d 2a3e 6354 89bc
00000120: e806 243e 5d54 36be 0dd5 cfbd 38bf b43d
00000130: cb77 ca3c e818 f8bd f31e df3d a6ef 1f3e
00000140: 55fc 14be 8cb2 3ebe 12a0 47be 0688 1e3e
00000150: f503 223e 1f8c db3d da35 6abe 5619 8ebd
00000160: dac7 42be eebf a6bd 0eb2 59bd 511a 063e
00000170: 4a79 7b3d 16e2 5dbd 3c4f d93c 96c6 143e
00000180: e5a0 2fbe 61a4 ba3d 1c14 373e a6dc 10bd
00000190: 80aa 09be ed2d 38bd 896b c63d 8fba 15be
000001a0: c381 0fbe f3c0 e93d a85e 53be bbc6 243e
000001b0: 617b fdbd 602e 9b3d 3563 4b3d d62b 6b3d
000001c0: 5d1b 20be caed 143e 3d79 d73d 1595 79be
000001d0: 3ff5 18bd c75b 30be 7f21 04be a568 bebd
000001e0: 996b d6bd 9fbb c13d c6d9 463e 82dd 2f3e
000001f0: 7067 acbd 01fc 003e dd2c aebd 3117 d33d

a2c_network.actor_mlp.4.weight f4 [64, 128]
0.0532216 0.15096591 -0.08388672 0.024912646 0.09257447 0.087905414 -0.0106674535 0.005594787
0.039635826 0.09180708 0.15548523 0.037913285 0.07785775 -0.095487736 -0.040303323 -0.046041165
0.08053757 -0.015348455 -0.0025623632 -0.11211964 -0.028009867 -0.039977312 0.07479101 0.019126955
-0.13157476 -0.004474798 0.047966447 -0.03183681 -0.026196413 0.07283954 0.05061405 0.06272232
-0.041857082 -0.013781877 0.15217997 0.066046976 0.043963045 0.015550882 -0.06776363 -0.09556737
0.022996513 0.03650091 0.06603051 0.02413115 0.09729446 0.12056868 -0.14911814 0.06867456
0.024707904 0.11717342 -0.004472845 -0.11441294 0.07561284 0.0073524746 -0.0007021745 0.022546506
0.10230074 0.027246369 0.030170318 0.006683609 0.065346524 -0.12589206 0.049575757 -0.010952951
-0.0152996145 -0.10932316 -0.064124204 -0.014082409 0.053554717 0.024016725 0.12825981 -0.038756676
-0.059669513 0.07099903 -0.0023503862 -0.03729624 0.04284008 0.12818886 0.020164037 0.04290288
-0.04622033 -0.07317758 -0.07182551 -0.038845412 -0.025883554 0.015123657 0.0024305696 0.034192953
-0.031572714 0.027908757 -0.043576848 -0.074082196 -0.0027654304 -0.12024414 0.010527109 0.18804835
0.025530951 0.036822915 0.03590041 -0.20280318 -0.015511385 0.067002274 0.060951766 0.09329238
-0.007665319 0.044295147 -0.043288313 0.0657154 -0.06823627 0.087732695 -0.056472637 0.0065471227
0.04238959 -0.019284379 -0.011660576 -0.07800919 0.04403062 -0.03114112 -0.08374307 -0.032472488
-0.0046198457 0.11249411 -0.0824784 -0.015731094 0.046727747 0.057170562 0.02903709 0.108946666
0.010537149 0.0637447 -0.11546925 -0.111801304 0.04073846 -0.19969219 -0.03475494 0.027298685
0.022027485 -0.22130878 0.019830616 -0.17684482 -0.072645605 -0.2841857 -0.08473993 -0.2602777
0.02310673 -0.23540631 0.048533812 -0.28477907 -0.051682808 -0.055666365 -0.021329166 -0.18554664
-0.029492073 -0.067351066 -0.082908876 -0.103938736 -0.06383851 -0.2032338 0.095189825 -0.2688773
-0.063080184 -0.13274355 -0.122614875 0.06502336 -0.38767996 0.0889065 -0.040717345 0.021567855
-0.24755727 -0.28280437 -0.14386107 0.103502095 -0.06161045 0.07100378 0.031926334 -0.11397205
-0.20073955 0.08915167 0.017653871 -0.015275834 -0.2882474 -0.013757409 -0.18269481 -0.06660819
-0.16242665 -0.21065328 -0.06257038 -0.07404878 -0.39142594 -0.07397035 -0.10436173 0.016464517
-0.06849705 0.042489413 -0.052442655 0.077988245 -0.059723802 -0.031774398 0.06623961 0.02732753
-0.08543818 -0.105201975 -0.02063053 -0.24718049 -0.087558925 -0.06648244 0.030914625 -0.026747126
0.0008085242 -0.044043805 -0.10054039 -0.15211491 -0.09496686 -0.08983404 -0.02602763 0.03639242
-0.10417176 -0.3063647 0.04452109 -0.13951367 -0.16498007 0.05598835 -0.19877547 -0.007500517
-0.14285925 -0.021785872 0.15138882 -0.14074022 -0.060763128 -0.30583167 0.01826128 -0.17950337
-0.13489328 -0.03466295 -0.12045794 0.012710797 -0.14777456 -0.44778815 -0.2723218 0.04817663
-0.10718316 -0.06445579 -0.0019213875 -0.0098039135 0.20088741 -0.040908784 -0.11057343 -0.23292555
-0.21342495 0.06543037 -0.06531975 -0.023665747 -0.12785824 0.16739786 -0.04552819 -0.075425096
00000000: e4fe 593d cf96 1a3e cdcc abbd 9b15 cc3c
00000010: af97 bd3d c107 b43d 8bc6 2ebc 7a54 b73b
00000020: 2d59 223d 5a05 bc3d 8537 1f3e f64a 1b3d
00000030: e273 9f3d 138f c3bd 1915 25bd a995 3cbd
00000040: e2f0 a43d 1678 7bbc 52ed 27bb fb9e e5bd
00000050: f374 e5bc 40bf 23bd 072c 993d 22b0 9c3c
00000060: 89bb 06be 54a1 92bb 7778 443d 5167 02bd
00000070: dc99 d6bc e62c 953d ae50 4f3d 8f74 803d
00000080: 5572 2bbd 62cd 61bc 11d5 1b3e a343 873d
00000090: 9812 343d 20c9 7e3c a8c7 8abd d3b8 c3bd
000000a0: 2f63 bc3c fa81 153d 013b 873d b1ae c53c
000000b0: 5142 c73d b6ec f63d 6db2 18be 3fa5 8c3d
000000c0: 3b68 ca3c 9ef8 ef3d f190 92bb 5551 eabd
000000d0: e8da 9a3d 07ed f03b 2212 38ba 73b3 b83c
000000e0: 0d83 d13d c733 df3c be27 f73c 2d02 db3b
000000f0: 66d4 853d d9e9 00be f30f 4b3d 0274 33bc
00000100: 3cab 7abc d2e4 dfbd 8d53 83bd e8b9 66bc
00000110: 315c 5b3d b9be c43c 8a56 033e 52bf 1ebd
00000120: 0568 74bd f067 913d f008 1abb f1c3 18bd
00000130: 1479 2f3d f143 033e 0d2f a53c eeba 2f3d
00000140: 8751 3dbd 21de 95bd 4119 93bd 5e1c 1fbd
00000150: bf09 d4bc 37c9 773c 314a 1f3b e90d 0c3d
00000160: 6452 01bd e8a0 e43c a37d 32bd 68b8 97bd
00000170: 393c 35bb 8f42 f6bd e579 2c3c bf8f 403e
00000180: 4926 d13c a0d3 163d 4f0c 133d a3ab 4fbe
00000190: 7723 7ebc 7d38 893d 8fa8 793d 1310 bf3d
000001a0: 5b2d fbbb d46e 353d 164f 31bd cc95 863d
000001b0: 75bf 8bbd 33ad b33d da4f 67bd 3f89 d63b
000001c0: b5a0 2d3d 46fa 9dbc 000c 3fbc 48c3 9fbd
000001d0: 7459 343d a91b ffbc 7d81 abbd df01 05bd
000001e0: 1362 97bb 5063 e63d 6fea a8bd 7fde 80bc
000001f0: 9865 3f3d ae2b 6a3d 31df ed3c 6e1f df3d
00000200: 02a4 2c3c 958c 823d 247b ecbd 15f8 e4bd
00000210: 5fdd 263d 1c7c 4cbe 325b 0ebd 7ea1 df3c
00000220: fc72 b43c c59e 62be d173 a23c cf16 35be
00000230: 38c7 94bd ca80 91be 218c adbd 1e43 85be
00000240: 534a bd3c 5a0e 71be 64cb 463d 90ce 91be
00000250: 5ab1 53bd 6a02 64bd 81ba aebc f0ff 3dbe
00000260: 5c99 f1bc 5bef 89bd 21cc a9bd d5dd d4bd
00000270: c4bd 82bd 851c 50be e2f2 c23d 49aa 89be
00000280: 2f30 81bd eded 07be 821d fbbd f82a 853d
00000290: fd7d c6be 9c14 b63d 3bc7 26bd 12af b03c
000002a0: a77f 7dbe bccb 90be 5150 13be e8f8 d33d
000002b0: 3d5b 7cbd 6e6a 913d 30c5 023d 2e6a e9bd
000002c0: ab8e 4dbe 2795 b63d da9e 903c 7e47 7abc
000002d0: 2a95 93be c166 61bc 5914 3bbe e069 88bd
000002e0: 2c53 26be 7eb5 57be e624 80bd e3a6 97bd
000002f0: fb68 c8be c47d 97bd 9abb d5bd 98e0 863c
00000300: 2e48 8cbd 6109 2e3d 1cce 56bd 4db8 9f3d
00000310: f2a0 74bd df25 02bd a2a8 873d fcdd df3c
00000320: 36fa aebd 2274 d7bd 5b01 a9bc e21c 7dbe
00000330: 1852 b3bd f227 88bd ab40 fd3c ca1c dbbc
00000340: 24f3 533a 4767 34bd 1fe8 cdbd 03c4 1bbe
00000350: fc7d c2bd e9fa b7bd e537 d5bc 3810 153d
00000360: 0158 d5bd d5db 9cbe bf5b 363d acdc 0ebe
00000370: 89f0 28be 0a54 653d cc8b 4bbe e6c6 f5bb
00000380: b249 12be 4978 b2bc ac05 1b3e 341e 10be
00000390: c2e2 78bd f895 9cbe ae98 953c bbcf 37be
000003a0: 7721 0abe bdfa 0dbd a7b2 f6bd f240 503c
000003b0: 3752 17be 7d44 e5be c36d 8bbe dc54 453d
000003c0: d882 dbbd 6601 84bd 11d7 fbba 98a0 20bc
000003d0: 6eb5 4d3e f88f 27bd 5374 e2bd 0984 6ebe
000003e0: 128c 5abe 5c00 863d 5cc6 85bd abde c1bc
000003f0: 45ed 02be 586a 2b3e c47b 3abd 7978 9abd

a2c_network.actor_mlp.4.bias f4 [64]
0.019575806 -0.09063679 -0.061269805 0.16495399 0.0069956915 0.12971888 0.10136776 -0.06772461
0.17911503 0.14382786 -0.30841643 0.017410003 -0.025587112 0.068972565 -0.08512594 -0.089644365
0.035475343 -0.0827586 -0.082029 0.023080485 -0.13336617 -0.055182032 -0.0594248 -0.22714853
-0.0039395513 -0.21448416 0.1531994 -0.09406547 0.064655736 -0.05220391 -0.08417431 -0.044054326
0.17449151 -0.13906498 -0.17884164 0.144744 -0.03238686 0.15462638 0.007585382 -0.04822495
0.11059935 0.14688157 -0.1300135 0.16950437 0.04524218 0.15137838 0.12558433 0.1177577
0.063849956 -0.13064139 0.1930395 0.1609508 -0.047445014 0.18432511 -0.048011437 -0.040417973
0.1950247 -0.06530049 0.14319 0.16951388 -0.040388677 -0.04831301 -0.10978711 -0.042379282
00000000: 715d a03c c89f b9bd 0cf6 7abd b3e9 283e
00000010: 1d3c e53b 07d5 043e e699 cf3d 33b3 8abd
00000020: ee69 373e 9c47 133e c2e8 9dbe 6c9f 8e3c
00000030: 109c d1bc 7d41 8d3d 8256 aebd 7797 b7bd
00000040: 984e 113d 577d a9bd d2fe a7bd 4913 bd3c
00000050: 2491 08be 8e06 62bd 6b67 73bd a099 68be
00000060: 5a17 81bb bca1 5bbe 4ee0 1c3e 66a5 c0bd
00000070: 3a6a 843d c4d3 55bd 9563 acbd 4f72 34bd
00000080: e7ad 323e 0d67 0ebe 4322 37be c537 143e
00000090: 16a8 04bd 6156 1e3e cc8e f83b 8687 45bd
000000a0: e981 e23d 1f68 163e 4222 05be 8e92 2d3e
000000b0: dd4f 393d ef02 1b3e 2e99 003e f32a f13d
000000c0: c4c3 823d dbc6 05be 26ac 453e 49d0 243e
000000d0: b455 42bd b9bf 3c3e a4a7 44bd 518d 25bd
000000e0: 8eb4 473e 43bc 85bd 66a0 123e 0c95 2d3e
000000f0: 996e 25bd dde3 45bd 10d8 e0bd e695 2dbd

a2c_network.value.weight f4 [1, 64]
0.051417504 -0.30542055 -0.26421064 0.16069958 -0.2952796 0.16055655 0.15204117 -0.322726
0.18840475 0.17749023 -0.7029716 -0.13460146 0.13405138 0.13173889 -0.16553435 -0.4656722
0.12648182 -0.4145188 -0.18568562 0.06919309 -0.32037598 -0.22539656 -0.2853271 -0.5037883
-0.22472042 -0.4714378 0.17281005 -0.42517072 0.126712 -0.33496487 -0.40917334 -0.4547357
0.15091643 -0.54552317 -0.2907408 0.18501163 -0.32532668 0.121663876 -0.33152318 -0.37471935
0.15121378 0.12290324 -0.35330847 0.1421723 0.19215095 0.153358 0.14375243 0.12530445
0.17062785 -0.26321876 0.14560577 0.13614877 -0.07114722 0.12162688 -0.33281913 -0.5237292
0.16081744 -0.33995503 0.15937094 0.22861102 -0.30174783 -0.29922947 -0.30805027 -0.3423437
00000000: 299b 523d 1560 9cbe 9e46 87be 6e8e 243e
00000010: e32e 97be f068 243e aeb0 1b3e 583c a5be
00000020: 2ded 403e 00c0 353e f2f5 33bf f7d4 09be
00000030: c444 093e 8fe6 063e d681 29be 966c eebe
00000040: 7384 013e cf3b d4be 5f24 3ebe 1bb5 8d3d
00000050: 5208 a4be 5bce 66be 6516 92be 45f8 00bf
00000060: 1c1d 66be 4c60 f1be 1ef5 303e faaf d9be
00000070: cac0 013e 8480 abbe 2b7f d1be 1ed3 e8be
00000080: d689 1a3e 68a7 0bbf fadb 94be b073 3d3e
00000090: 3891 a6be e92a f93d 68bd a9be 37db bfbe
000000a0: c9d7 1a3e b2b4 fb3d d9e4 b4be 9e95 113e
000000b0: 38c3 443e e109 1d3e d633 133e cf4f 003e
000000c0: 11b9 2e3e 9cc4 86be ae19 153e 956a 0b3e
000000d0: a2b5 91bd 8317 f93d 4567 aabe 1e13 06bf
000000e0: 54ad 243e 960e aebe 2332 233e 0219 6a3e
000000f0: b17e 9abe 9b34 99be c4b8 9dbe ac47 afbe

a2c_network.mu.weight f4 [4, 64]
-0.112476714 -0.015779236 -0.031525895 0.0018881202 0.008989314 -0.022704573 0.0300209 0.0117261335
-0.0014028129 -0.022269418 0.008437013 0.047155812 0.1590372 -0.03504647 0.021176217 -0.01240722
0.06852619 -0.006378368 -0.01961699 -0.058701064 0.042786416 -0.018126879 -0.018719891 -0.017399969
-0.032736942 -0.020099387 0.09722228 -0.051751204 0.019355277 0.018279852 0.019795807 0.049716257
-0.0038967994 0.085968524 0.0072519286 -0.14910118 0.03185886 -0.008647276 0.0836242 -0.049170993
-0.014712207 -0.037305903 0.019197298 -0.014776348 0.023726676 -0.05501222 0.0047934735 -0.012353819
0.27955478 -0.06402559 0.018081184 -0.0386265 -0.09686933 -0.0013251379 -0.05073482 0.08409045
-0.029545104 -0.026728988 -0.00091195386 0.066557296 -0.021947661 -0.010959519 0.03160378 0.055162955
0.05682108 -0.023780786 -0.031568106 -0.1254305 -0.08705953 -0.012103185 -0.16491412 -0.034406904
-0.015808333 0.019767437 -0.046862353 -0.0691639 0.18759678 0.059686482 -0.015448424 -0.0008992542
0.081355855 -0.05245676 -0.037729472 0.058867186 0.027872838 0.16703837 -0.019041173 0.0039029426
-0.048848853 0.049723852 -0.014685032 0.009993712 0.1553307 -0.025045339 -0.031964485 -0.03220215
-0.0011237456 0.015349837 0.011294453 -0.009429139 -0.020170381 0.058630776 -0.0033127803 -0.06937775
-0.047496807 -0.008750115 0.01945182 0.003310203 -0.06487515 -0.05681532 -0.007935985 0.04048998
0.03867603 0.025019107 0.062319677 0.00010857862 0.06635397 0.0149285635 -0.016692739 -0.072862566
-0.019430116 0.024222305 -0.023208935 -0.14234357 0.009892244 -0.00012077309 0.014126358 0.022680772
0.018221123 -0.020605046 -0.013405302 0.028234214 0.0002812859 -0.0018535353 0.004693493 0.029839203
0.057826325 -0.0380349 0.003116347 -0.0075683994 0.07265573 -0.012305543 -0.00069698214 -0.0041318885
-0.014262862 0.0038159494 0.019270297 0.005641011 0.021418296 0.021188723 0.023304451 0.05437538
-0.012287449 0.01368814 -0.056457028 0.06711315 -0.08863843 0.0053801485 -0.020012267 0.077385195
-0.0051397495 0.008973683 -0.0032779514 0.00488547 0.006042117 0.0013993 -0.049114335 0.01709941
-0.01616973 0.024019685 0.013235694 0.015077076 -0.0025700852 0.02106995 -0.02557277 0.010253655
0.015732426 -0.007930392 0.027194688 0.0034624299 0.018726502 0.005941956 -0.010513083 -0.016448189
0.005694952 -0.011732042 -0.034380477 -0.027900219 -0.012492668 -0.021048307 0.0088207275 0.0063396273
0.022089558 -0.015515112 -0.09426003 -0.0040857233 0.012453984 0.0017087162 0.018386746 0.0063208723
0.0013090376 0.029934006 -0.042125788 -0.022040738 -0.01619989 0.0017608699 0.009506919 -0.018423928
-0.0144737065 0.0020433199 0.016688721 -0.0037509056 -0.055903237 -0.027484694 -0.009545988 -0.019558387
0.00051922037 -0.036738038 0.011924893 0.048011262 0.04735533 0.038393736 0.01281942 0.041053563
0.017210847 -0.03620877 -0.0024272157 -0.0014267861 0.024791958 -0.046043735 -0.030364942 0.042396832
-0.00092188356 -0.03842706 -0.022799006 -0.007663116 -0.0073272614 -0.010929137 0.00796211 -0.019990897
-0.016228477 -0.0009881605 -0.046050962 0.022737673 -0.0076629966 -0.022003274 -0.00048603906 0.039858676
0.0016617448 0.034086585 0.015026949 -0.0070219194 -0.022981832 0.0041556098 -0.02503787 -0.008453841
00000000: 315a e6bd 7543 81bc 4c21 01bd cd7a f73a
00000010: ea47 133c f1fe b9bc 64ee f53c f81e 403c
00000020: 97de b7ba 5b6e b6bc 663b 0a3c 7426 413d
00000030: a6da 223e e38c 0fbd bf79 ad3c a747 4bbc
00000040: 7657 8c3d a101 d1bb cfb3 a0bc 8770 70bd
00000050: cf40 2f3d d27e 94bc 755a 99bc 618a 8ebc
00000060: 2c17 06bd 78a7 a4bc 7a1c c73d 12f9 53bd
00000070: f58e 9e3c a1bf 953c d12a a23c 46a3 4b3d
00000080: 7261 7fbb 4410 b03d 96a1 ed3b fbad 18be
00000090: 707e 023d 4ead 0dbc 2a43 ab3d 8667 49bd
000000a0: 780b 71bc 13ce 18bd a743 9d3c 7f18 72bc
000000b0: 725e c23c 7e54 61bd 9212 9d3b ac67 4abc
000000c0: ce21 8f3e d91f 83bd fe1e 943c d236 1ebd
000000d0: 6d63 c6bd 40b0 adba 51cf 4fbd 9d37 ac3d
000000e0: 9308 f2bc c0f6 dabc 3010 6fba 314f 883d
000000f0: 95cb b3bc 8e8f 33bc f772 013d 8df2 613d
00000100: 39bd 683d eccf c2bc 8f4d 01bd da70 00be
00000110: 444c b2bd 704c 46bc 3fdf 28be 41ee 0cbd
00000120: 7a80 81bc 52ef a13c bdf2 3fbd cea5 8dbd
00000130: 5f19 403e d079 743d 631b 7dbc eebb 6bba
00000140: e69d a63d e6dc 56bd 388a 1abd b81e 713d
00000150: 9455 e43c 1b0c 2b3e 3cfc 9bbc 83c8 7f3b
00000160: bc15 48bd 3dab 4b3d 7d99 70bc abbc 233c
00000170: 030f 1f3e e22b cdbc 31ed 02bd 67e6 03bd
00000180: a54a 93ba e27d 7b3c 5f0c 393c ad7c 1abc
00000190: 5b3c a5bc d326 703d 3b1b 59bb ec15 8ebd
000001a0: 038c 42bd a45c 0fbc 6c59 9f3c feef 583b
000001b0: 43dd 84bd 2eb7 68bd ef05 02bc d2d8 253d
000001c0: c26a 1e3d dff4 cc3c eb42 7f3d b4b4 e338
000001d0: 97e4 873d ef96 743c 36bf 88bc f838 95bd
000001e0: e82b 9fbc db6d c63c aa20 bebc 83c2 11be
000001f0: 1413 223c 8f47 fdb8 3d72 673c 07cd b93c
00000200: 7744 953c eacb a8bc e9a1 5bbc 704b e73c
00000210: 8e79 9339 53f2 f2ba dfcb 993b 5871 f43c
00000220: 4cdb 6c3d 7cca 1bbd a03b 4c3b 5600 f8bb
00000230: 87cc 943d 309d 49bc aeb5 36ba cb64 87bb
00000240: c7ae 69bc 0215 7a3b bedc 9d3c 3bd8 b83b
00000250: 6c75 af3c f993 ad3c fae8 be3c b8b8 5e3d
00000260: 4c51 49bc 3844 603c 7c3f 67bd 9f72 893d
00000270: 1188 b5bd f54b b03b c4f0 a3bc 217c 9e3d
00000280: 586b a8bb 5b06 133c e6d2 56bb 4b16 a03b
00000290: f3fc c53b b768 b73a 1d2c 49bd 1014 8c3c
000002a0: 6276 84bc eec4 c43c 86da 583c d705 773c
000002b0: e06e 28bb e39a ac3c fc7d d1bc f2fe 273c
000002c0: 4ae1 803c 7aee 01bc 65c7 de3c efe9 623b
000002d0: 5268 993c bdb4 c23b 113f 2cbc 5abe 86bc
000002e0: b89c ba3b c037 40bc 8bd2 0cbd 008f e4bc
000002f0: 0cae 4cbc 806d acbc d084 103c a6bc cf3b
00000300: 29f5 b43c 1933 7ebc 670b c1bd 88e1 85bb
00000310: cb0b 4c3c 00f7 df3a cd9f 963c 521f cf3b
00000320: 0394 ab3a 2938 f53c 178c 2cbd c78e b4bc
00000330: a2b5 84bc fdcc e63a e9c2 1b3c c7ed 96bc
00000340: 2023 6dbc 38e9 053b c9b6 883c c1d1 75bb
00000350: cbfa 64bd 9527 e1bc c766 1cbc e938 a0bc
00000360: 4a1c 083a a07a 16bd a060 433c 75a7 443d
00000370: aaf7 413d c042 1d3d 8b08 523c c827 283d
00000380: c3fd 8c3c a64f 14bd ec11 1fbb ff02 bbba
00000390: 8118 cb3c 5b98 3cbd e6bf f8bc 4da8 2d3d
000003a0: 8faa 71ba b165 1dbd fbc4 babc e01a fbbb
000003b0: 8619 f0bb 1f10 33bc 8373 023c f3c3 a3bc
000003c0: 95f1 84bc 2a85 81ba ef9f 3cbd 5b44 ba3c
000003d0: e019 fbbb 3640 b4bc 0fd3 feb9 da42 233d
000003e0: e7ce d93a 609e 0b3d 9833 763c 2118 e6bb
000003f0: 6544 bcbc c82b 883b 381c cdbc fb81 0abc

a2c_network.mu.bias f4 [4]
0.011369055 -0.08520643 -0.02595136 0.0061246064
00000000: 4645 3a3c b580 aebd f297 d4bc ecb0 c83b

exp_avg f4 [4]
-0.0024452 -0.001698229 -0.0006130371 0.00026614498
00000000: a63f 20bb 1c97 deba 39b4 20ba 6089 8b39

exp_avg_sq f4 [4]
2.7410194e-06 4.4712415e-06 1.5183577e-06 1.7612239e-06
00000000: 5bf2 3736 ac07 9636 60ca cb35 3163 ec35

exp_avg f4 [256, 22]
-8.480036e-05 0.00040893306 0.00019916586 0.00077502296 8.336725e-05 -0.0003216557 -0.00012012792 -0.00019396695
-0.00026981757 0.00036208334 0.0006649906 0.00011268429 -0.00071779423 -0.0004760961 -0.0006642094 -0.0002408889
-7.918745e-05 -0.00032696922 -0.00046408977 9.585331e-05 0.00095871306 0.0004542732 1.2356247e-05 -0.0010043504
-0.0016134605 -0.0007835316 -0.00010255962 0.0006505708 0.0011017423 0.0001644983 0.00066837046 -0.0010392349
-0.0003072149 0.0003442498 -0.00019289236 0.0013275304 -0.0009054277 -5.0298324e-05 -0.000670551 8.995937e-05
-0.0001816791 0.00015204195 -0.0011053015 -0.0010874752 -0.00028272282 -0.00045771775 -8.582701e-05 0.00053686195
-0.00010600038 0.00029421836 0.0004800366 0.0001430455 -9.789242e-05 -0.0003877436 7.143436e-05 -0.00012845384
-0.00032886607 0.00040172398 -0.00055813516 -5.8083282e-05 0.00010896435 -0.0006185236 -0.00047860589 0.0001441287
-6.8246954e-05 0.00092743017 0.00020352559 0.00048331424 -0.0005105744 0.00024912946 6.0404265e-05 -0.00027072793
-0.000242078 -0.0002009695 0.00017500657 0.00048451693 -0.00016141996 -5.2713578e-05 0.00040128673 -0.00023066295
0.00012556824 0.00011482851 -0.00034225234 4.7113488e-05 0.0005493902 -0.00033841326 0.00011779131 0.00054008816
-0.00039632514 -0.0004432219 -0.00041349488 0.00081673096 -4.2291267e-05 0.00031645517 0.00056202535 5.2576343e-05
-0.00022189945 -0.0003826897 0.00067686447 -0.00020870962 -0.0009019349 0.00011378231 -0.0014451926 -0.000720182
-0.00041987287 -0.0009628498 -0.0014496665 3.9025996e-05 0.00040157317 0.0006567134 2.5309655e-05 0.00037246305
3.8970447e-05 0.0001242655 4.5183282e-05 -0.00016770113 -0.00023717311 -0.00029188354 0.00012905926 0.0003385417
0.00062024407 -0.0001294473 6.269697e-05 -8.58044e-05 -7.3584204e-05 1.5798927e-05 0.00013631328 -0.00023850375
-9.96362e-05 -0.00039220342 0.00010994885 9.834149e-05 -0.0002949918 -0.00057422265 -0.0006943545 0.0006612978
-8.983677e-05 0.00048008942 0.0007307673 9.033737e-05 4.8767637e-05 -0.00049041153 0.00021440444 -0.0003989933
-0.0004380624 0.0007053042 -0.0010675342 -0.00012339492 -0.0003301343 -0.0010425227 -0.00067748985 -0.00033423203
-0.00038307367 0.0010018493 6.163429e-05 0.0001506762 0.0006240012 -8.281356e-05 4.302081e-05 -0.00016580519
-0.0003615887 3.5150417e-05 4.94611e-05 0.00018336238 6.015394e-05 0.00016039597 0.00032411862 -0.0001748121
0.0006127309 0.0003924571 0.00036232904 -0.00011991205 -8.222499e-05 2.8375109e-05 4.0528785e-06 -0.00024511394
-0.0004885203 -0.000109152825 0.0008995122 0.0010862879 -3.4583238e-05 1.0231657e-05 0.00014454087 5.784735e-05
-0.0006438337 -1.898841e-05 0.00072332856 -0.00010728692 -0.0006935194 -0.00032386044 -0.000562214 -0.00056681863
0.00034253107 -0.00063885044 -0.0015451657 0.0005663497 0.0011957015 0.0010908956 -1.1519214e-05 0.00036137243
1.5383388e-05 0.000354137 3.1736592e-05 -0.00033065007 -0.00017952622 1.9073117e-05 -0.00018423687 0.0003931153
0.00017183852 0.00013029396 -2.121272e-05 -0.00040610696 -0.00015152142 -0.00034617857 -0.00021595325 0.000117263255
-7.9432786e-05 0.00033396675 0.00076921744 0.00047944798 -0.00028933948 -0.00031967947 0.0005516038 0.000739912
-9.593819e-05 0.00025599147 0.00026319525 7.153094e-05 -0.00020492531 -0.000224809 -0.000103723185 -0.00026908563
-8.628147e-05 0.00031232616 -5.9376838e-05 0.00035880788 0.000487758 -0.00069534633 -0.00017668158 -0.00011313287
-9.840197e-05 0.0014391813 -5.29945e-06 -5.1109844e-05 0.00053478 -0.0002317823 7.930699e-06 -4.057261e-05
-8.469689e-05 0.000114667935 -5.6546225e-05 -4.170539e-05 0.00012760841 9.610587e-05 0.0001279634 -5.127109e-05
00000000: d9d6 b1b8 1166 d639 2ed7 5039 e92a 4b3a
00000010: 74d5 ae38 e6a3 a8b9 30ed fbb8 9b63 4bb9
00000020: 4d76 8db9 01d6 bd39 c452 2e3a eb50 ec38
00000030: 5b2a 3cba 899c f9b9 571e 2eba 1f97 7cb9
00000040: 7011 a6b8 116d abb9 1351 f3b9 db04 c938
00000050: 2552 7b3a 842b ee39 ad4d 4f37 68a4 83ba
00000060: c07a d3ba ea65 4dba 4715 d7b8 118b 2a3a
00000070: 5668 903a 2d7d 2c39 9535 2f3a f036 88ba
00000080: b011 a1b9 6d7c b439 2643 4ab9 8700 ae3a
00000090: 395a 6dba 6af7 52b8 eac7 2fba 92a8 bc38
000000a0: 1d81 3eb9 736d 1f39 c4df 90ba 9d89 8eba
000000b0: 6a3a 94b9 d6f9 efb9 06fe b3b8 32bc 0c3a
000000c0: 854c deb8 5241 9a39 6cad fb39 7cfe 1539
000000d0: 984b cdb8 114a cbb9 08cf 9538 91b1 06b9
000000e0: a86b acb9 7b9e d239 d14f 12ba 739e 73b8
000000f0: ca83 e438 6b24 22ba 65ed fab9 4121 1739
00000100: ce1f 8fb8 c91e 733a 7c69 5539 5765 fd39
00000110: 11d8 05ba 979d 8239 965a 7d38 7df0 8db9
00000120: 51d6 7db9 57bb 52b9 f881 3739 c306 fe39
00000130: d742 29b9 c618 5db8 cb63 d239 1dde 71b9
00000140: f8aa 0339 16d0 f038 5570 b3b9 b99b 4538
00000150: f404 103a 0f6d b1b9 ba06 f738 b494 0d3a
00000160: dcc9 cfb9 3d60 e8b9 58ca d8b9 e319 563a
00000170: e761 31b8 e5e9 a539 e254 133a 6b85 5c38
00000180: aead 68b9 bea3 c8b9 9b6f 313a 10d9 5ab9
00000190: d46f 6cba 6a9e ee38 9e6c bdba 99ca 3cba
000001a0: 6222 dcb9 c267 7cba bc02 beba d8af 2338
000001b0: 3d8a d239 4a27 2c3a 1250 d437 2547 c339
000001c0: 3374 2338 444d 0239 2e83 3d38 eed8 2fb9
000001d0: acb1 78b9 f207 99b9 1554 0739 4c7e b139
000001e0: e097 223a 3fbc 07b9 2e7c 8338 e3f1 b3b8
000001f0: 3851 9ab8 f087 8437 51ef 0e39 dd16 7ab9
00000200: c7f3 d0b8 a7a0 cdb9 5794 e638 af3c ce38
00000210: 21a9 9ab9 6e87 16ba 5705 36ba f25a 2d3a
00000220: c066 bcb8 83b4 fb39 f790 3f3a 8273 bd38
00000230: da8b 4c38 f68e 00ba c1d1 6039 f92f d1b9
00000240: bdab e5b9 2ae4 383a 81ec 8bba 9263 01b9
00000250: e015 adb9 42a5 88ba 9399 31ba dd3b afb9
00000260: 47d7 c8b9 7c50 833a a841 8138 d6fe 1d39
00000270: 0394 233a 31ac adb8 3e71 3438 fedb 2db9
00000280: 9d93 bdb9 796e 1338 7474 4f38 f744 4039
00000290: cd4d 7c38 f72f 2839 77ee a939 c44d 37b9
000002a0: ad9f 203a b3c2 cd39 fbf6 bd39 4b79 fbb8
000002b0: 3570 acb8 1507 ee37 f6fd 8736 a382 80b9
000002c0: 0b10 00ba fae8 e4b8 3ecd 6b3a c661 8e3a
000002d0: 780d 11b8 a2a8 2b37 e58f 1739 1ea1 7238
000002e0: f3c6 28ba 4d49 9fb7 c29d 3d3a 3aff e0b8
000002f0: 4dcd 35ba d0cb a9b9 8b61 13ba 8e96 14ba
00000300: be95 b339 8778 27ba 2887 caba 1677 143a
00000310: 16b9 9c3a 62fc 8e3a a642 41b7 9676 bd39
00000320: 930b 8137 77ab b939 e81c 0538 1a5b adb9
00000330: 343f 3cb9 35ff 9f37 b52f 41b9 0b1b ce39
00000340: 8d2f 3439 859f 0839 f8f1 b1b7 c1ea d4b9
00000350: b9e1 1eb9 4d7f b5b9 8271 62b9 3beb f538
00000360: 2795 a6b8 4218 af39 4fa5 493a 6b5e fb39
00000370: 7db2 97b9 a79a a7b9 8199 103a a7f6 413a
00000380: 6c32 c9b8 9836 8639 78fd 8939 e202 9638
00000390: 38e1 56b9 b5ba 6bb9 f685 d9b8 1014 8db9
000003a0: 03f2 b4b8 b5bf a339 650b 79b8 611e bc39
000003b0: c5b9 ff39 e747 36ba 9a43 39b9 bf41 edb8
000003c0: 285d ceb8 e9a2 bc3a eed1 b1b6 c75e 56b8
000003d0: 7a30 0c3a 960a 73b9 180e 0537 822c 2ab8
000003e0: 4c9f b1b8 e179 f038 0c2c 6db8 d2ec 2eb8
000003f0: 9fce 0539 728c c938 ea2d 0639 ea0b 57b8
