logs/rl_games/klask/sim_collision_ro_a0_delay_1/nn/klask.pth (torch, 29978 bytes, 24 tensors)

a2c_network.sigma f4 [4]
0	0xbf630044	-0.8867228
1	0xbf951955	-1.1648356
2	0xbf8ead97	-1.1146725
3	0xbf843b1d	-1.033054

a2c_network.actor_mlp.0.weight f4 [32, 12]
0	0x3f40621c	0.75149703
1	0xbea7d21a	-0.32777482
2	0x3d8dc046	0.06921439
3	0x3dcb094e	0.09913884
4	0xbcf17385	-0.02947403
5	0x3eb14347	0.3462164
6	0x3c1e8965	0.009676312
7	0x3ac84528	0.0015279399
8	0xbf46daa9	-0.776774
9	0xc027b268	-2.620264
10	0x3feba3e9	1.8409396
11	0xbf02d33d	-0.51103574
12	0xbf152192	-0.5825435
13	0xbf4a61c7	-0.79055446
14	0xbd21df3a	-0.039519526
15	0xbd015e53	-0.031584095
16	0xbd6999af	-0.05703133
17	0xbe7d87fc	-0.24758905
18	0xbba34d8a	-0.0049836086
19	0xbc916abf	-0.017751096
20	0x400a01ae	2.1563525
21	0x40330a73	2.7975128
22	0x41316af8	11.088615
23	0x3fad683e	1.3547437
24	0xbf03cd31	-0.5148497
25	0x4033f423	2.811776
26	0x3d0bc35d	0.03412186
27	0x3eb51b1c	0.35372245
28	0x3e1c9f8f	0.15295242
29	0x3d88b5d6	0.066753075
30	0xbb347cfc	-0.0027540317
31	0x3cc888e9	0.024479346
32	0x4061b7da	3.5268464
33	0xc0c56ae9	-6.1693006
34	0x4045e864	3.092309
35	0xc0416c4b	-3.0222347
36	0xbea20e24	-0.31651413
37	0x3d3c0b0c	0.045908973
38	0xbba909a9	-0.0051586223
39	0xbd16db98	-0.036830515
40	0x3cd685d9	0.02618687
41	0xbe8c745c	-0.27432525
42	0x39446542	0.00018729738
43	0xbbce67aa	-0.006298979
44	0x411cd10d	9.801038
45	0xbe63fd4b	-0.22264592
46	0x4071ac6f	3.7761495
47	0x3f6bb12f	0.92067236
48	0x3f0c7918	0.54872274
49	0xbf96ae71	-1.1771985
50	0x3d073cc7	0.033016946
51	0xbd177aa0	-0.03698218
52	0x3e343a16	0.17600283
53	0x3ead9418	0.3390205
54	0x3be1034b	0.0068668476
55	0x3ceb2bbe	0.028707381
56	0xbeb55894	-0.35419142
57	0xc03c74f3	-2.944638
58	0xbec2a7c2	-0.38018614
59	0x3f253c18	0.6454482
60	0x3feea0f8	1.8642874
61	0xbf4be6bf	-0.79648966
62	0x3df1abef	0.11800372
63	0x3d5a9970	0.053368986
64	0xbd914d8f	-0.07094871
65	0xbe5f3471	-0.21797349
66	0x3bb2a25b	0.005451483
67	0xbc79b115	-0.015239974
68	0x40ac9b01	5.3939214
69	0xbffcd1f7	-1.9751576
70	0xbff66e7a	-1.9252465
71	0x3f4e955a	0.8069664
72	0xbffe9db8	-1.9891882
73	0xc0509370	-3.2589989
74	0xbdd86949	-0.105669565
75	0xbc759f74	-0.01499163
76	0x3e729d27	0.23692761
77	0x3e4a81e3	0.1977611
78	0x3b6109f4	0.0034338208
79	0x3c92cb6c	0.017919265
80	0x402899d0	2.634388
81	0x407ab5b6	3.9173408
82	0x3f91ad5c	1.138103
83	0x4090e5c0	4.5280457
84	0x3f855fe4	1.0419888
85	0x3faa1c1f	1.3289832
86	0x3d811f29	0.063047715
87	0x3dbe515c	0.09292862
88	0x3cc331b6	0.023827415
89	0xbe5a1ab5	-0.2129925
90	0x3c37e9c0	0.011225164
91	0xbc5d3cb4	-0.013503242
92	0x3ec83d36	0.391092
93	0xc0286715	-2.6312916
94	0xbf8d0101	-1.1015931
95	0xbec57bbd	-0.38570967
96	0x3dceb659	0.10093374
97	0xbf5db37d	-0.86602
98	0x3cb73095	0.022362033
99	0xbdc53763	-0.09629705
100	0x3d07e638	0.033178538
101	0xbd330c84	-0.043713108
102	0x3be640a9	0.007026751
103	0x3cda7d6f	0.02667114
104	0xbd9f7dbe	-0.07787655
105	0xc0552b5a	-3.330771
106	0xbd02d443	-0.03194071
107	0x400885e3	2.1331718
108	0xbec73fc5	-0.3891584
109	0xbefb5da5	-0.49094883
110	0xbd82a015	-0.063781895
111	0xbed398bc	-0.41327465
112	0xbe781665	-0.24227293
113	0xbf206011	-0.62646586
114	0x3d1de07f	0.038544174
115	0xbd50562c	-0.05086343
116	0x3fd90d95	1.695727
117	0xbfa23688	-1.2672892
118	0x3dea39f3	0.11436834
119	0x3f7eb08b	0.99488133
120	0xbd7b97f1	-0.0614242
121	0x3f8622eb	1.0479406
122	0x3d0bab7a	0.03409908
123	0x3d3a854e	0.045537286
124	0x3e73a228	0.23792326
125	0x3c716ddd	0.014735666
126	0xba668a8b	-0.0008794448
127	0xbc99e328	-0.018785074
128	0xbf209d7a	-0.6274029
129	0xc070d62f	-3.7630727
130	0xbf31a2f5	-0.6938928
131	0x3fd1a698	1.6378965
132	0x3fb07614	1.3786035
133	0xbedbb4a9	-0.4291127
134	0x3d801bf2	0.0625533
135	0x3d1590b4	0.036514953
136	0x3d608ab7	0.05481979
137	0xbe6c33f4	-0.23066694
138	0xbbbfcc2d	-0.005853197
139	0xbb16dd06	-0.0023019924
140	0x401e5713	2.4740646
141	0xc02f7dcf	-2.7420537
142	0xbfac57a9	-1.3464252
143	0x4040e25d	3.013816
144	0x3d904429	0.070442505
145	0x3eacd139	0.33753374
146	0x3d1b5c70	0.037929952
147	0x3d93b7a5	0.07212762
148	0x3e424f04	0.18975455
149	0xbd18a1b3	-0.037263583
150	0x3b544e9d	0.003239549
151	0x3c488b8c	0.012240302
152	0xbee45bee	-0.44601387
153	0x405d3246	3.4561934
154	0x3e206739	0.15664376
155	0x4194b620	18.588928
156	0x3fd0d1e7	1.6314057
157	0xbf9dfc90	-1.2342701
158	0x3d829fd2	0.063781396
159	0xbdccb1d1	-0.09994853
160	0xbe9bfd1d	-0.30466548
161	0x3cc1b1a0	0.023644269
162	0xbc78b655	-0.01518019
163	0xbc1559c3	-0.009115639
164	0xc036d903	-2.8569953
165	0x400e900e	2.2275424
166	0xbe079bd5	-0.13243039
167	0x3f06476c	0.5245273
168	0x3f5f2dd6	0.87179315
169	0x3fec9dd1	1.8485662
170	0x3d872c7c	0.066002816
171	0x3da24e68	0.07925111
172	0xbe463965	-0.19357832
173	0xbe2b9852	-0.16757324
174	0xbbb7fb13	-0.005614647
175	0x3d11c5d1	0.035589043
176	0x3e8ca171	0.2746692
177	0x3ac9b176	0.001538797
178	0xc118b252	-9.543535
179	0xbfa22ead	-1.2670494
180	0x3fcaef02	1.5854189
181	0x3e2f9b81	0.17149164
182	0x3d7e12e3	0.06202973
183	0xbc70f0a9	-0.014705815
184	0xbe3d57ef	-0.18490575
185	0xbe3f08e1	-0.18655731
186	0xbb83a6a3	-0.0040176674
187	0x3bc0a4f1	0.0058790375
188	0xc07c8db0	-3.946148
189	0xbf90c356	-1.1309612
190	0xc1b544db	-22.65862
191	0xbf484160	-0.78224754
192	0x3f668e6e	0.9006108
193	0x3fb40522	1.4064066
194	0x3e19051a	0.14943352
195	0x3f1b01f0	0.6054983
196	0xbda837a9	-0.08213741
197	0xbaa3e4fc	-0.0012504156
198	0xbd3a81bd	-0.045533884
199	0x3d5f0413	0.054447245
200	0xbe92985d	-0.2863187
201	0xbfe152ef	-1.7603434
202	0xbe661c8e	-0.2247183
203	0xbf0a43b6	-0.5400957
204	0x3efeaa0c	0.4973911
205	0xbfa443e3	-1.2833217
206	0x3d40c65e	0.047064178
207	0xbe03fe7e	-0.1289005
208	0xbd9887b6	-0.0744776
209	0xbd2e2eb2	-0.042525
210	0x3c117421	0.008877785
211	0x3aa849c9	0.0012839373
212	0xbe15bb76	-0.14622292
213	0x409b9a4e	4.862586
214	0xbf787fe6	-0.9707016
215	0x40961fd0	4.6913834
216	0xbf952cad	-1.1654259
217	0xbf7bf623	-0.9842245
218	0xbca7858f	-0.020449428
219	0x3e158101	0.14599992
220	0xbe2de223	-0.16980796
221	0xbdbb2b37	-0.09139102
222	0x3c16787a	0.009183997
223	0xbce1c468	-0.027559474
224	0x3dc64926	0.09681921
225	0xc01825f3	-2.3773162
226	0xbebfc69b	-0.3745621
227	0x3fdb5b3c	1.7137218
228	0x40522949	3.2837698
229	0xbfeaab7d	-1.8333584
230	0x3ea7ae35	0.32750097
231	0x3dae81fa	0.08520885
232	0x3c63f8c5	0.013914292
233	0xbca3bedb	-0.019988468
234	0x3b4583ef	0.0030138453
235	0xbaf841cf	-0.0018940511
236	0xc05f4c03	-3.4890144
237	0x3ffea27f	1.989334
238	0xc0942024	-4.6289234
239	0x3fb23ee7	1.3925446
240	0x3dc1046a	0.0942467
241	0xbf74a289	-0.9556051
242	0x3c83cc37	0.016088588
243	0xbd906905	-0.07051281
244	0xbd9073a4	-0.07053307
245	0xbe10d8f2	-0.14145258
246	0x3c1398cf	0.0090086
247	0xbb3e291b	-0.00290162
248	0xbea4d1e7	-0.32191393
249	0xc054f0fa	-3.327208
250	0x3d2a66a9	0.04160181
251	0x40916d40	4.544586
252	0xbe3c85a1	-0.1841035
253	0x3e8f2a3b	0.27961907
254	0x3c91510b	0.01773884
255	0x3d117eba	0.035521246

a2c_network.actor_mlp.0.bias f4 [32]
0	0xbf136807	-0.5758061
1	0x3e798b59	0.24369563
2	0xbec5092c	-0.3848356
3	0xbfa9f3ed	-1.3277565
4	0xbf5abff3	-0.8544914
5	0xbf6fc710	-0.9366312
6	0x3e87f8f9	0.2655714
7	0xbfacb0b1	-1.3491422
8	0xbf56ad24	-0.8385794
9	0xbf97cd85	-1.1859595
10	0xbe3a9474	-0.18220693
11	0xbec83250	-0.39100885
12	0xbd06d193	-0.03291471
13	0xbe205f1c	-0.15661281
14	0x3e9c3db6	0.30515832
15	0xbf0ac531	-0.5420714
16	0xbc9d608c	-0.019211076
17	0x3f33186b	0.69959134
18	0xbf4b452f	-0.7940244
19	0xbc94ed7e	-0.018179651
20	0xbf5197fe	-0.81872547
21	0xbd36a898	-0.044594377
22	0xbf913565	-1.134442
23	0xbea7d916	-0.3278281
24	0xbe4bffd0	-0.19921803
25	0x3e144129	0.14477982
26	0xbfa54171	-1.2910596
27	0xbe16cef0	-0.14727378
28	0xbf03725b	-0.5134637
29	0xbf6f7623	-0.9353964
30	0xbe7ed2ff	-0.24885176
31	0x3ee8efeb	0.45495543

a2c_network.actor_mlp.2.weight f4 [32, 32]
0	0x3be37465	0.0069413655
1	0xbd9dc013	-0.07702651
2	0x3ead5c6d	0.33859578
3	0x3e5f6f91	0.21819903
4	0xbe5ce7c3	-0.21572785
5	0xbe0c90f0	-0.13727164
6	0xbf337951	-0.7010699
7	0x3e5c10ab	0.21490733
8	0x3ed3e9ea	0.413894
9	0xbdc891f6	-0.09793465
10	0x3f9bb28a	1.2163861
11	0x3d5d4582	0.054021366
12	0xbd04c5e8	-0.0324153
13	0xbec47ea4	-0.3837787
14	0x3e97620f	0.29567
15	0xbe904e03	-0.28184518
16	0x3f44c7ac	0.76867175
17	0xbf6dd1b1	-0.9289809
18	0xbef65825	-0.48114124
19	0x3e128e7a	0.14312163
20	0x3f2b7296	0.6697172
21	0x3e6c31ca	0.23065868
22	0x3e47737d	0.19477649
23	0xbf3cb417	-0.73712295
24	0xbf100887	-0.5626301
25	0x3fb1b27c	1.3882594
26	0xbe66d185	-0.22540863
27	0x3ec68f94	0.38781416
28	0xbf30ecc4	-0.69111276
29	0xbfbb9b15	-1.4656702
30	0xbd977f98	-0.073973835
31	0xbe878bbf	-0.26473805
32	0x3e1a01a7	0.15039693
33	0xbe9ac625	-0.30229297
34	0xbf71f455	-0.94513446
35	0xbe12c1ab	-0.14331691
36	0xbe53d7d2	-0.20687798
37	0xbecc898d	-0.39948693
38	0xbdf598f0	-0.11992061
39	0xbeb52488	-0.35379434
40	0x3f057151	0.5212603
41	0xbe96ad75	-0.29429212
42	0xbe199625	-0.14998682
43	0x3f60cc21	0.87811476
44	0xbf8ea4dd	-1.1144062
45	0xbefa24f3	-0.48856315
46	0x3e7b4e16	0.24541506
47	0xbf3b6774	-0.7320473
48	0x3e012e18	0.1261524
49	0xbf3f1a07	-0.7464909
50	0x3d487318	0.048937887
51	0x3f14a600	0.58065796
52	0x3f8330fb	1.0249323
53	0xbed92d21	-0.42417243
54	0xbe744330	-0.23853755
55	0xbef0137b	-0.46889862
56	0xbd3fcae6	-0.04682436
57	0xbdbc340b	-0.09189614
58	0xbe734c9e	-0.23759696
59	0xbaec6bc5	-0.0018037489
60	0x3eb36914	0.35041106
61	0xbe557715	-0.20846207
62	0x3e0e400d	0.13891621
63	0x3e179afd	0.14805217
64	0x3df609d5	0.12013594
65	0xbf0c73dd	-0.54864293
66	0xbe1d45b8	-0.15358627
67	0xbf37f5d2	-0.7185947
68	0xbdf36c0a	-0.11885841
69	0x3eb05aa0	0.3444414
70	0xbf212818	-0.62951803
71	0x3ebcecf9	0.36899546
72	0x3c117a10	0.0088792
73	0xbdce85b1	-0.10084093
74	0x3e537194	0.20648795
75	0x3cd6ffe3	0.026245063
76	0x3e851bf2	0.25997883
77	0xbf0f5fd4	-0.560056
78	0xbe5864da	-0.21132222
79	0xbd609123	-0.054825913
80	0x3f5e9a23	0.86953944
81	0x3d78c889	0.06073812
82	0xbf15037b	-0.58208436
83	0x3ef31e7b	0.47484192
84	0xbe2a42db	-0.16627066
85	0x3e37763e	0.179162
86	0xbebb4a9e	-0.36580366
87	0xbf30ca53	-0.6905872
88	0x3f443e8d	0.76657945
89	0x3f9dd3a8	1.2330217
90	0x3f1e28cd	0.6178101
91	0x3eb19ef8	0.34691596
92	0xbe0bf8cd	-0.13669129
93	0x3ec5589e	0.38544172
94	0xbed6047f	-0.41800305
95	0xbf369a21	-0.7132893
96	0x3f0162ec	0.5054157
97	0xc0904d41	-4.5094304
98	0xbee35092	-0.44397408
99	0xbfbb02d7	-1.4610242
100	0x401e7545	2.4759076
101	0x3fb7c05e	1.4355581
102	0xbfeb955f	-1.840496
103	0x3f9ec6f8	1.240447
104	0x4046336d	3.0968888
105	0x3f9ad830	1.2097225
106	0x3f4ca2f2	0.79936135
107	0x3fc99cf8	1.5751028
108	0xc0704d24	-3.7547083
109	0xbc276ef0	-0.010219321
110	0xbffbfbab	-1.9686178
111	0xbffd4f76	-1.9789875
112	0x3e0c50a0	0.13702631
113	0xc0af21ca	-5.4728746
114	0x3fc5afd7	1.5444287
115	0xbf9be80b	-1.2180189
116	0x40479693	3.1185653
117	0xbfc4aa0d	-1.5364395
118	0xbc6d3638	-0.014478259
119	0xbe99fa12	-0.300736
120	0xbf158a0a	-0.58413756
121	0x3efe71ae	0.49696106
122	0x3fe8039a	1.8126099
123	0xbea7697a	-0.3269766
124	0x3ea150ff	0.31507108
125	0x3f06f85c	0.52722716
126	0xbe9de36a	-0.30837566
127	0xbf45b366	-0.77226865
128	0x3d76c3eb	0.060245436
129	0xbf137f43	-0.5761606
130	0xbe8b21d6	-0.27174252
131	0xbe18529a	-0.1487526
132	0x3e2c09b8	0.16800582
133	0x39e1f67d	0.00043098992
134	0xbe586700	-0.21133041
135	0xbe7c2f53	-0.24627428
136	0x3e58ab9d	0.21159215
137	0xbda163ca	-0.078803614
138	0x3d7dcf4a	0.061965264
139	0xbac39245	-0.0014920911
140	0xbdac7ade	-0.084218726
141	0x3dbc32ab	0.09189352
142	0xbd889155	-0.06668345
143	0xbe16b5a9	-0.14717735
144	0xbed0c700	-0.40776825
145	0xbe97a366	-0.2961685
146	0x3cb9cc66	0.022680473
147	0x3d87ac8c	0.066247076
148	0x3f0988f9	0.5372463
149	0xbe753164	-0.23944622
150	0xbe6d4bce	-0.23173448
151	0x3eb8d8a5	0.36102787
152	0xbe26320e	-0.16230032
153	0xbf07860f	-0.5293893
154	0xbe50ad05	-0.20378502
155	0x3f2477e6	0.6424545
156	0xbf207893	-0.6268398
157	0xbe34a271	-0.17640091
158	0xbf3117e6	-0.6917709
159	0xbe680f53	-0.22662096
160	0x3fea2769	1.8293277
161	0xc03b6425	-2.9279873
162	0x3f331c2e	0.69964874
163	0x4000e940	2.0142365
164	0x4058eb77	3.3893716
165	0x3fb194cd	1.3873535
166	0xc07a1f74	-3.9081697
167	0x3e9bac19	0.30404738
168	0x4037d5a9	2.8724158
169	0xbc65678b	-0.014001737
170	0x3fe47523	1.7848247
171	0x3f1784b5	0.5918687
172	0xbff4d463	-1.9127315
173	0xbee42e16	-0.4456641
174	0xbd810dba	-0.06301446
175	0xbfbe8ad1	-1.4886113
176	0x3e10e6bc	0.14150518
177	0xc0414e52	-3.0204053
178	0x3f8ed254	1.1157937
179	0xbfdedaf5	-1.741057
180	0x3f8fd90f	1.1238116
181	0xbfabe2db	-1.3428606
182	0x401a9b7c	2.41574
183	0x3eff1e4e	0.49827808
184	0xbf08dedb	-0.5346505
185	0xbea54123	-0.32276258
186	0x3f5011ab	0.8127696
187	0x3e539e24	0.20665795
188	0x3f6d64da	0.9273201
189	0x40047258	2.069479
190	0xbe77e8d7	-0.24209915
191	0xbf404b57	-0.7511496
192	0xbe720f0b	-0.23638551
193	0xbf1a9ebf	-0.6039848
194	0xbf3b3ea4	-0.73142457
195	0xbf99dd34	-1.2020631
196	0xbe509746	-0.20370206
197	0x3dea0de4	0.11428431
198	0xbe43c01e	-0.19116256
199	0x3ebd45d4	0.36967337
200	0x3c069253	0.008213597
201	0x3d798b87	0.06092408
202	0xbed3e464	-0.41385186
203	0xbe57214b	-0.21008794
204	0x3e23a52c	0.15980977
205	0xbf8ccfb1	-1.1000882
206	0x3e92b753	0.2865549
207	0xbf97fc10	-1.1873798
208	0x3e4b2409	0.19837965
209	0xbf037e32	-0.51364434
210	0x3f1a6998	0.60317373
211	0x3b1e758e	0.0024178955
212	0xbd2b9324	-0.04188837
213	0x3cd4a1da	0.025956083
214	0xbf5d3f43	-0.86424655
215	0xbf05df0d	-0.52293473
216	0x3b8e4f29	0.0043429327
217	0xbedcf5d3	-0.431563
218	0x3ed1ca3c	0.40974605
219	0xbe920c4e	-0.28525013
220	0xbf0703ed	-0.52740365
221	0x3f341b90	0.7035456
222	0xbe7410f6	-0.23834595
223	0xbeacc36b	-0.33742842
224	0xbe303a1c	-0.17209667
225	0xbdc29aa3	-0.09502151
226	0xbd59902c	-0.05311601
227	0xbe06c3fb	-0.13160698
228	0xbdf5bbe8	-0.11998731
229	0xbe4bb4d2	-0.19893196
230	0x3e52b43d	0.20576568
231	0xbe0fcd10	-0.14043069
232	0xbe217e04	-0.15770727
233	0xbe439fa1	-0.19103862
234	0xbe97aa22	-0.2962199
235	0xbe553db3	-0.20824318
236	0xbd09e155	-0.03366216
237	0x3dd9171a	0.106001094
238	0xbe711098	-0.23541486
239	0x3d5f840f	0.0545693
240	0x3e96cef3	0.29454765
241	0xbeb28730	-0.34868765
242	0x3e1eda9c	0.1551308
243	0x3eac2497	0.33621666
244	0x3daee43a	0.085396245
245	0xbe05ccf8	-0.1306647
246	0xbf155984	-0.58339715
247	0xbeb6eb24	-0.35726273
248	0xbefe35a8	-0.4965031
249	0xbed4f52e	-0.41593307
250	0x3d75471d	0.059882272
251	0xbe899e87	-0.2687876
252	0xbe4b3ce2	-0.19847444
253	0x3e7ced53	0.24699907
254	0xbdeddf2e	-0.11614834
255	0xbe33e69a	-0.17568436

a2c_network.actor_mlp.2.bias f4 [32]
0	0x3ed12f53	0.40856418
1	0x3f0a1f14	0.5395367
2	0xbe86687e	-0.26251596
3	0xbf60e948	-0.8785596
4	0x3de43783	0.111434005
5	0xbf2b806c	-0.6699283
6	0xbea5f9fd	-0.32417288
7	0xbdbd9965	-0.09257773
8	0x3e8c25b5	0.27372518
9	0xbe4177da	-0.18893376
10	0xbf72fd7b	-0.9491803
11	0x3e57cd56	0.21074423
12	0xbf50ad24	-0.8151419
13	0xbf142322	-0.5786611
14	0xbf5a47de	-0.8526591
15	0xbf245607	-0.6419377
16	0xbead94d9	-0.33902624
17	0xbe8324ce	-0.25614017
18	0xbe5552b8	-0.20832336
19	0xbe9f34cd	-0.3109497
20	0x3f831842	1.0241778
21	0xbf55788c	-0.83387065
22	0xbe170729	-0.14748825
23	0x3e8a140d	0.26968423
24	0x3e437f58	0.19091547
25	0x3c8f4055	0.01748673
26	0xbe2ca9d2	-0.16861656
27	0xbea19251	-0.31556943
28	0x3e43d6f8	0.19124973
29	0x3d9f2fc1	0.0777278
30	0xbe2e55d8	-0.17024934
31	0xbe971dfe	-0.2951507

a2c_network.value.weight f4 [1, 32]
0	0x3e830ab1	0.25594094
1	0x3f08850f	0.5332803
2	0x3ca829c4	0.020527728
3	0x400808c1	2.1255343
4	0x3e0c5ac2	0.13706496
5	0xc0303712	-2.7533612
6	0xbf12add6	-0.572965
7	0x3d631c31	0.055446807
8	0x3cbe868b	0.023257514
9	0x3e95d8f0	0.29267073
10	0xbe953916	-0.29145116
11	0x3ead2445	0.33816734
12	0xbfa76d0b	-1.3080152
13	0xbe554c68	-0.20829928
14	0xbeba533b	-0.36391625
15	0xbf75282c	-0.9576442
16	0xbf01aeae	-0.50657165
17	0xbdf37f67	-0.118895344
18	0xbe002a6f	-0.12516187
19	0xbe71f6e7	-0.23629342
20	0x3f0410e8	0.51588297
21	0xbe8407ec	-0.25787294
22	0x3cede929	0.029041843
23	0x3bcd42bc	0.006264059
24	0x3ebf5b1b	0.37374195
25	0x409266d7	4.5750537
26	0xbc873036	-0.016502481
27	0x3e5962b5	0.2122906
28	0x3e9881ca	0.2978652
29	0x3cca4d94	0.024695195
30	0xbf01d3fa	-0.50714076
31	0x3c439fa9	0.011939921

a2c_network.mu.weight f4 [4, 32]
0	0x3e3f792e	0.1869857
1	0xbcf1b7de	-0.02950662
2	0xbed7ee50	-0.42174006
3	0x3c5f950e	0.013646377
4	0xbd095e9c	-0.033537492
5	0xbcdb997f	-0.026806591
6	0xbe329f4c	-0.1744358
7	0xbd0e051f	-0.034672853
8	0xbafa1bb8	-0.0019081747
9	0xbc826a5d	-0.015919859
10	0x3e176758	0.14785516
11	0xbd37284a	-0.044716157
12	0x3db104dc	0.08643505
13	0x3ea33a28	0.31880307
14	0xbe1a2e29	-0.15056671
15	0x3df21032	0.11819495
16	0xbda01e9b	-0.078183375
17	0x3d3c233d	0.045932043
18	0xbd2438a5	-0.040093083
19	0x3eb11cd7	0.34592316
20	0xbd8e7887	-0.069565825
21	0xbdb4484c	-0.08802852
22	0x3d5ea63f	0.054357763
23	0x3bb9cabc	0.00566992
24	0x3dc5e5ba	0.096629575
25	0xbdee90ad	-0.116486885
26	0x3c872aa6	0.016499829
27	0x3d708487	0.058720138
28	0xbcde9341	-0.027169826
29	0x3a6f5f79	0.0009131353
30	0xbeba8b2e	-0.3643431
31	0x3da51764	0.08061102
32	0xbe8f3097	-0.2796676
33	0xbe18c8f8	-0.14920413
34	0xbd192638	-0.037389964
35	0x3d28c150	0.041199982
36	0x3e6077a7	0.21920644
37	0xbe315df9	-0.17321004
38	0x3d4bb035	0.04972859
39	0xbc58ecf9	-0.013240092
40	0x3d263b09	0.040583644
41	0x3dd42aa4	0.103596956
42	0xbdddb1e8	-0.108249485
43	0xbe30f630	-0.17281413
44	0xbdf1fb28	-0.118154824
45	0xbe74a488	-0.23890889
46	0xbe266cb7	-0.16252409
47	0x3c99d9e4	0.018780656
48	0x3d4b754d	0.049672414
49	0x3d111001	0.035415653
50	0x3c46ae01	0.012126447
51	0x3d28e8df	0.04123771
52	0xbd177e24	-0.03698553
53	0xbdd150ad	-0.10220466
54	0xbd01000a	-0.031494178
55	0x3d1d475a	0.038398124
56	0x3e1d4d62	0.1536155
57	0xbe062f86	-0.13104066
58	0xbcc3a566	-0.023882579
59	0xbcaa4847	-0.020786418
60	0xbba5c6a4	-0.00505908
61	0xb9794680	-0.00023772754
62	0xbbd04522	-0.0063558975
63	0x3c9cf148	0.01915802
64	0x3ca67c3e	0.020322915
65	0xbd8a672e	-0.06757961
66	0xbe042c93	-0.12907629
67	0x3e1a1881	0.1504841
68	0x3dd72ced	0.10506616
69	0xbe38e476	-0.18055901
70	0x3c0cdd82	0.008597733
71	0x3cd5285b	0.02602022
72	0xbd4e0bbe	-0.050304167
73	0xbd22ad1d	-0.039715875
74	0x3d1b79a3	0.0379578
75	0xbcb8864d	-0.022524977
76	0xbdfd8b76	-0.12380116
77	0xbe49c253	-0.19703035
78	0xbe1141f9	-0.14185323
79	0xbcda2283	-0.026627785
80	0x3cf8cf13	0.030372178
81	0xbcf5ba59	-0.029996084
82	0x3e27cdf9	0.16387166
83	0xbd17c8b0	-0.037056625
84	0xbcd496f7	-0.025950892
85	0xbd402724	-0.046912327
86	0xbc10d78d	-0.008840454
87	0x3c373bc2	0.011183681
88	0x3e20c4f4	0.15700132
89	0x3ba7564e	0.005106724
90	0xbca9bd9e	-0.0207203
91	0xbd85a230	-0.065250754
92	0xbd246bd5	-0.0401419
93	0x3c387c22	0.011260064
94	0xbd54150f	-0.051777896
95	0x3ba184cd	0.004929161
96	0xbd05b885	-0.032646675
97	0xbca293eb	-0.019845923
98	0x3d04029e	0.03222906
99	0xbdc0f0c9	-0.09420926
100	0x3ce50d72	0.027960513
101	0x3c933204	0.017968185
102	0x3e1772e4	0.14789921
103	0x3d7841f8	0.060609788
104	0x3c11b8aa	0.008894125
105	0xbd0980e0	-0.03357017
106	0x3cbdfca7	0.023191763
107	0x3ce21a18	0.027600333
108	0x3de9dc2e	0.11418949
109	0xbe4fef86	-0.20306215
110	0x3d13bda9	0.036069546
111	0x3da59c01	0.08086396
112	0xbd10b808	-0.035331756
113	0xbc53573f	-0.012899219
114	0x3d8ef739	0.06980748
115	0xbd7bc272	-0.061464734
116	0x3d07c172	0.03314347
117	0x3e261672	0.162195
118	0x3d878375	0.0661687
119	0xbd11eb45	-0.03562476
120	0x3cee1ac7	0.029065503
121	0xbd002269	-0.031282816
122	0xbdae227e	-0.085026726
123	0x3cb6a99f	0.022297679
124	0xbd6cc0be	-0.057801
125	0xbcbbd325	-0.02292783
126	0x3d5e1c3b	0.05422614
127	0x3cd3e4db	0.025865963

a2c_network.mu.bias f4 [4]
0	0x3d8bb75c	0.068220824
1	0x3db66ba4	0.089072496
2	0x3a6c8467	0.0009022415
3	0x3d7f34c8	0.062306195

exp_avg f4 [4]
0	0x3a95240b	0.001137854
1	0x3bc9b26e	0.0061553037
2	0x3ac9179f	0.0015342123
3	0xb895e75a	-7.147966e-05

exp_avg_sq f4 [4]
0	0x390b1dd1	0.0001326718
1	0x3920f650	0.00015350548
2	0x38790767	5.937312e-05
3	0x38c301a3	9.2986294e-05

exp_avg f4 [32, 12]
0	0x39e23619	0.00043146385
1	0xba81637b	-0.0009871566
2	0xbb1905c1	-0.0023349377
3	0xb9d8ec78	-0.00041374913
4	0xb9a3fe60	-0.00031279307
5	0x3a89faf3	0.0010527059
6	0xbac09f92	-0.0014695993
7	0xb971e43a	-0.00023068572
8	0x399eba7e	0.00030275056
9	0xbab309fb	-0.0013659591
10	0x398cc171	0.00026847006
11	0xb9fad1ce	-0.00047840032
12	0xba98961f	-0.0011641419
13	0x3a14c145	0.00056745514
14	0xba3df1fb	-0.0007245836
15	0x3a6f486a	0.0009127917
16	0x398db1cf	0.00027026093
17	0xba020bfb	-0.00049608917
18	0xbb6c6ea1	-0.0036076682
19	0x3a51fdb1	0.000801052
20	0xba9eeedc	-0.0012125629
21	0x3a0ebb75	0.00054448034
22	0x3996ce49	0.00028763924
23	0x3a6c7b17	0.00090210274
24	0x38592981	5.1775485e-05
25	0xbaa5bc34	-0.001264459
26	0xba8118e3	-0.0009849336
27	0xb987daab	-0.00025912127
28	0xb9e7f61e	-0.00044243125
29	0x3a925da9	0.0011166829
30	0xba063d75	-0.0005120852
31	0x3b41843b	0.0029528278
32	0x390d048f	0.00013448506
33	0xbad91b27	-0.0016563878
34	0xb9ad428f	-0.0003304672
35	0xbab8e0f0	-0.0014105123
36	0x39f31da6	0.00046370662
37	0xba26b61a	-0.00063595327
38	0xbad7effb	-0.0016474718
39	0xba0281fc	-0.00049784756
40	0xb9fb2f8b	-0.00047909873
41	0x3911b835	0.000138969
42	0xbac77a66	-0.0015218973
43	0xb9e7fafc	-0.0004424675
44	0x3a2082bb	0.0006122996
45	0xba71a2a9	-0.00092176587
46	0x3962c6b2	0.0002162706
47	0xb9bac519	-0.00035623534
48	0x3a324b51	0.0006801384
49	0xbacb15b3	-0.0015494138
50	0x3a0dc139	0.00054075156
51	0x3aaaf8d7	0.0013044131
52	0xb9a4e156	-0.00031448406
53	0x3aeb1891	0.0017936399
54	0xb9d2fefc	-0.000402443
55	0x3ae6785a	0.0017583475
56	0x39a38cbf	0.00031194647
57	0xbae8ace6	-0.0017751723
58	0x3a5ddc22	0.00084632833
59	0x396fc9df	0.00022868019
60	0x37d85954	2.5790803e-05
61	0xba2f3ec4	-0.0006685073
62	0xba113963	-0.00055398623
63	0x3a00a408	0.0004907255
64	0xb8cebe80	-9.858329e-05
65	0x39b296c8	0.00034063146
66	0x3aa9270f	0.0012905317
67	0x3942e5a7	0.00018586834
68	0xb6c54aba	-5.879757e-06
69	0xba3bcd30	-0.0007164059
70	0xba230678	-0.00062189205
71	0xba38b139	-0.0007045451
72	0xb9bc9ea7	-0.0003597636
73	0x3b4583e5	0.003013843
74	0x3bcd092e	0.006257198
75	0x3aab2c4e	0.0013059468
76	0x3a81dd06	0.0009907789
77	0xbb2e9a8d	-0.0026642412
78	0xbb4df250	-0.0031424947
79	0x3aeefde7	0.0018233628
80	0xb97138e0	-0.00023004739
81	0x3b38a381	0.0028173628
82	0x3a8324ca	0.0010005471
83	0x3acb2374	0.0015498237
84	0x39450981	0.00018790925
85	0xb9c67abb	-0.00037856944
86	0x3a2e0ce5	0.00066394947
87	0x3a079f14	0.0005173546
88	0xb8e03dd2	-0.00010692667
89	0x399cc85e	0.00029903924
90	0x3a9e9576	0.0012098986
91	0x3a8c5a4e	0.0010708065
92	0x38d80707	0.000103009916
93	0xb9d14100	-0.00039912015
94	0xb9d0969d	-0.00039785067
95	0xb914ce42	-0.00014191217
96	0x397501f4	0.00023365748
97	0xba86891f	-0.0010264254
98	0xbaea092e	-0.0017855519
99	0xba057462	-0.000509089
100	0xb9a7ff8c	-0.0003204312
101	0x3a87ef16	0.0010370936
102	0x3a35f2cd	0.0006940782
103	0x3a5747d1	0.00082123006
104	0x39113ef8	0.00013851735
105	0xbaa3e3cd	-0.0012503803
106	0xb986dc9b	-0.00025722836
107	0xba4139be	-0.000737097
108	0xb99e08f0	-0.00030142767
109	0xb9ba5d56	-0.00035546225
110	0xba3e4bed	-0.00072592386
111	0x3a2f445e	0.0006685908
112	0xb90593bd	-0.00012738905
113	0x38caece5	9.676236e-05
114	0x3a62bc9c	0.0008649321
115	0x3a488a20	0.0007649977
116	0xb988fa2f	-0.00026126343
117	0xb984c942	-0.0002532695
118	0xb9aee9bc	-0.00033362012
119	0xb96ec963	-0.00022772471
120	0x39b0f21c	0.00033749721
121	0xbb11f2a9	-0.002226988
122	0xbbaef98f	-0.0053398083
123	0xbaf6d7c0	-0.0018832609
124	0xba331766	-0.0006831795
125	0x3ada970d	0.0016677097
126	0x3a5e95a9	0.0008490929
127	0x39f383ae	0.0004644668
128	0x394b5a4a	0.00019393224
129	0xbb420b1c	-0.0029608672
130	0xbb0f2cb4	-0.0021846713
131	0xbb55f604	-0.0032647857
132	0xb93a8681	-0.00017788449
133	0x394a21d2	0.0001927682
134	0xb9ea7d18	-0.0004472516
135	0xba3f0cf3	-0.00072880014
136	0x38b2b753	8.521848e-05
137	0xb87a7243	-5.971106e-05
138	0x3a6cf1ad	0.0009038698
139	0xba3fd201	-0.0007317365
140	0x37ddb13f	2.642779e-05
141	0x39a3d890	0.00031251134
142	0x38d6f802	0.0001025051
143	0xb8004529	-3.058199e-05
144	0xb984d7a0	-0.00025337655
145	0xb9ef0afb	-0.00045593813
146	0x3b0fa5d6	0.0021918914
147	0x3a7d3c45	0.0009660165
148	0x3900c2cd	0.000122796
149	0x393e049c	0.00018121529
150	0xbb10828f	-0.0022050475
151	0x3ab2fee9	0.0013656291
152	0xb9ca61ed	-0.00038601403
153	0xb9d154ca	-0.0003992676
154	0x3a0c9415	0.0005362642
155	0x39eff38d	0.00045767092
156	0x393fc1e6	0.00018287412
157	0x3af543d8	0.0018712236
158	0x3b331003	0.0027322776
159	0x3910a4e8	0.00013794343
160	0x39c4b86e	0.00037521444
161	0xbab4a94d	-0.0013783366
162	0xbb2015f5	-0.002442715
163	0x39406020	0.00018346356
164	0x393c91dd	0.00017983415
165	0x3ac7b559	0.0015236541
166	0x3aa5d861	0.0012652987
167	0x3ade79c8	0.001697355
168	0xb738bf4e	-1.1011796e-05
169	0xba2c28c3	-0.0006567353
170	0xbb174307	-0.0023080723
171	0xb948ccd3	-0.0001914979
172	0xb99ba761	-0.0002968861
173	0x398194dd	0.0002471571
174	0xbafb6136	-0.0019178751
175	0xb95346fa	-0.00020148969
176	0x3893e8b4	7.0528506e-05
177	0xba975efe	-0.0011548696
178	0xb8a006f8	-7.6306926e-05
179	0xb992ec27	-0.00028023237
180	0x391937dd	0.00014612028
181	0x3a4806d0	0.00076304097
182	0x3a4ded70	0.00078555103
183	0xb819b63c	-3.664776e-05
184	0x3a169245	0.0005743842
185	0xb9fa6531	-0.0004775911
186	0xbb85dc0a	-0.0040850686
187	0x39a6998d	0.00031776392
188	0x390cbc88	0.00013421674
189	0x3a71897e	0.00092139083
190	0x390e18d0	0.00013551419
191	0xb92d625d	-0.00016535209
192	0x386798ae	5.5216886e-05
193	0xbaab4cfc	-0.0013069208
194	0xbac172b8	-0.001475892
195	0xba496ee5	-0.0007684066
196	0x38e28288	0.00010800833
197	0x3ab4ff46	0.0013808988
198	0x3b5983e1	0.0033190178
199	0xbb09093e	-0.002091005
200	0xb66c97f4	-3.5255189e-06
201	0xbaae00eb	-0.001327542
202	0xb983aba6	-0.00025114155
203	0xbaa09a1c	-0.001225296
204	0x3916c59b	0.00014378729
205	0x3adb3726	0.001672481
206	0x3befdf86	0.0073203472
207	0x3aa0d2d8	0.0012269868
208	0x3a439327	0.0007460587
209	0xba9d5663	-0.0012003895
210	0xbb045e67	-0.002019787
211	0x3a6e010d	0.0009079136
212	0x39714324	0.00023008563
213	0x3ad4fb91	0.0016249289
214	0x3acab0c3	0.0015464056
215	0x3a8af483	0.0010601435
216	0xb919c93e	-0.00014666186
217	0xb91efb34	-0.00015161635
218	0xba684600	-0.00088605285
219	0x3aba9f2f	0.0014238114
220	0xb99aedb4	-0.00029550272
221	0x3987f0a2	0.00025928492
222	0xb9999348	-0.00029292167
223	0x3a471524	0.0007594398
224	0xb874ca55	-5.836257e-05
225	0x3790d318	1.7264436e-05
226	0xb93942d5	-0.00017667872
227	0x39e0ea57	0.00042899206
228	0xb6ab7561	-5.109862e-06
229	0x3a9c4f3b	0.0011925468
230	0x3b0952ad	0.002095382
231	0xb9ee9c76	-0.0004551147
232	0x393af463	0.00017829383
233	0xba61d820	-0.0008615274
234	0x3b1fed3f	0.0024402884
235	0xbb2090ad	-0.0024500296
236	0xb8adcdd6	-8.287623e-05
237	0x3ad44f0d	0.0016197875
238	0x3a226abf	0.0006195716
239	0x3aadb0be	0.0013251526
240	0x394b45eb	0.00019385635
241	0x3aa72896	0.0012753184
242	0xbb0c8ce1	-0.0021446275
243	0xbb1cda74	-0.002393392
244	0x37d63883	2.5537103e-05
245	0xba3b3798	-0.0007141768
246	0xba5d538c	-0.00084429304
247	0xba1ffe18	-0.00061032316
248	0x39f0d3d6	0.00045934197
249	0x3aace5a0	0.0013190992
250	0xba052d6a	-0.00050803146
251	0xba940c62	-0.0011295194
252	0xb99f1230	-0.00030340394
253	0x38de54ed	0.000106016036
254	0x3a4e5370	0.00078707095
255	0x39b524f7	0.0003455055

exp_avg_sq f4 [32, 12]
0	0x3841a938	4.6172383e-05
1	0x38d72464	0.00010258777
2	0x397b98cb	0.00023994145
3	0x38c29e63	9.280143e-05
4	0x378f71b5	1.7099877e-05
5	0x385939cb	5.1790656e-05
6	0x392dde68	0.00016581418
7	0x38e4a518	0.00010902638
8	0x38522c32	5.010906e-05
9	0x39064a69	0.00012806956
10	0x36c4a9b1	5.86101e-06
11	0x37d9db5c	2.5970563e-05
12	0x3a038e43	0.0005018452
13	0x3a253aae	0.00063029944
14	0x3b25e276	0.0025311983
15	0x3a8f33b5	0.0010925444
16	0x393679e1	0.00017402276
17	0x39e0a1c9	0.0004284515
18	0x3ad75100	0.0016427338
19	0x3aafb0cf	0.0013404133
20	0x3a04694c	0.0005051091
21	0x3a19105d	0.0005838925
22	0x373744bd	1.0923654e-05
23	0x37ceef74	2.4668618e-05
24	0x37b047bc	2.1014239e-05
25	0x387dc565	6.050374e-05
26	0x396124bc	0.00021471357
27	0x388acf53	6.61897e-05
28	0x372fd29f	1.0479852e-05
29	0x37fe85da	3.0341489e-05
30	0x38c34251	9.310677e-05
31	0x3880d029	6.1422885e-05
32	0x37c82d54	2.3862965e-05
33	0x38ad1106	8.252454e-05
34	0x37c7a4c8	2.379938e-05
35	0x3802a9db	3.1152606e-05
36	0x3a197694	0.00058541563
37	0x39d18f6d	0.00039970447
38	0x3ae31a43	0.0017326552
39	0x3aa0c578	0.0012265882
40	0x392dea15	0.00016585768
41	0x3a0eaa9f	0.00054422946
42	0x3aa375ae	0.0012470984
43	0x3a77839a	0.00094419124
44	0x3a1f3446	0.0006073158
45	0x39b951f2	0.00035347004
46	0x3715ba7c	8.924511e-06
47	0x37ba172e	2.2183722e-05
48	0x38c6352b	9.451279e-05
49	0x397b1dec	0.00023948372
50	0x3a370999	0.0006982326
51	0x3992ef9c	0.00028025813
52	0x3829924f	4.0429e-05
53	0x3904316a	0.00012606909
54	0x39d41110	0.00040448504
55	0x39812bbc	0.00024637382
56	0x38dabec8	0.00010430586
57	0x3991268b	0.00027685272
58	0x37f8bf72	2.9653052e-05
59	0x385894c8	5.1636976e-05
60	0x373e8226	1.1355185e-05
61	0x3799e881	1.834729e-05
62	0x389fe809	7.624931e-05
63	0x37e7779b	2.7593042e-05
64	0x36bc03b5	5.603268e-06
65	0x375e9489	1.3266815e-05
66	0x382afb0f	4.0764975e-05
67	0x37ea4972	2.7929174e-05
68	0x374b52bc	1.2119006e-05
69	0x37b11e22	2.1114076e-05
70	0x3713492c	8.778919e-06
71	0x36c156b0	5.76194e-06
72	0x38d1238a	9.972516e-05
73	0x39742d31	0.00023286488
74	0x3a193ecc	0.0005845844
75	0x3946b35d	0.0001894957
76	0x38387e25	4.39865e-05
77	0x38ee6a4c	0.00011368524
78	0x39e3bcad	0.00043437388
79	0x398535c4	0.00025407795
80	0x38e0bfa4	0.00010716848
81	0x398a5efd	0.00026392183
82	0x37d7d061	2.5727031e-05
83	0x37f1a29e	2.8805163e-05
84	0x36bccd00	5.6267017e-06
85	0x373cc06e	1.1250477e-05
86	0x38b7acda	8.758316e-05
87	0x38651e68	5.4626173e-05
88	0x36a20f0d	4.8297284e-06
89	0x3721863a	9.6276e-06
90	0x37b0e858	2.1089028e-05
91	0x375d2135	1.3180358e-05
92	0x36c47cd8	5.855789e-06
93	0x37657b62	1.3678191e-05
94	0x38c9d879	9.624748e-05
95	0x37f569f7	2.925562e-05
96	0x387ab01b	5.9768656e-05
97	0x39486ce0	0.00019114045
98	0x3a5fe11a	0.00085403176
99	0x39a9200e	0.00032258074
100	0x38341099	4.2930802e-05
101	0x38c48997	9.3716364e-05
102	0x39bf4283	0.00036479914
103	0x3950add0	0.00019901176
104	0x3881838b	6.175701e-05
105	0x3941ea54	0.00018493208
106	0x379c1f56	1.8611241e-05
107	0x372c8195	1.028217e-05
108	0x365198a2	3.123227e-06
109	0x36bdf046	5.6606104e-06
110	0x3806f986	3.2180476e-05
111	0x37a9126f	2.0154954e-05
112	0x35fec3e2	1.8981484e-06
113	0x3687c746	4.046512e-06
114	0x37650a97	1.3651929e-05
115	0x37134f5a	8.780358e-06
116	0x3666837b	3.4349202e-06
117	0x36eb02ec	7.003886e-06
118	0x36e3a386	6.784164e-06
119	0x36722fa6	3.6088545e-06
120	0x382afce7	4.0766692e-05
121	0x38c8644f	9.555427e-05
122	0x39bd3790	0.00036090286
123	0x39154e5b	0.00014238937
124	0x37ab425b	2.0415688e-05
125	0x38544af4	5.0614544e-05
126	0x396255de	0.00021585028
127	0x3909c905	0.00013140224
128	0x383fee49	4.575987e-05
129	0x3901316a	0.00012320807
130	0x385f3a41	5.3221596e-05
131	0x384e96eb	4.925478e-05
132	0x38f33497	0.000115969386
133	0x397d7dfa	0.0002417489
134	0x3a601527	0.0008548074
135	0x399ec2d5	0.0003028127
136	0x3843939e	4.6629102e-05
137	0x390a8a4e	0.00013212228
138	0x39db7748	0.00041859807
139	0x39a597ce	0.00031584356
140	0x38ef7b7a	0.000114194074
141	0x39841d95	0.00025199042
142	0x381be3b6	3.7166952e-05
143	0x37a3d72a	1.9531308e-05
144	0x39c608b2	0.0003777198
145	0x39c3290b	0.00037223878
146	0x3ae987a7	0.0017816917
147	0x3a7328ba	0.0009275783
148	0x390c36de	0.0001337188
149	0x39af6385	0.0003345275
150	0x3aa46eed	0.0012545265
151	0x3a8caa4f	0.0010731908
152	0x39d1137e	0.0003987811
153	0x39bbf9c2	0.00035853504
154	0x37bcc3e7	2.250257e-05
155	0x3707251d	8.055268e-06
156	0x380f48e2	3.4161734e-05
157	0x382e7789	4.159616e-05
158	0x396d7e4d	0.00022649132
159	0x38f9c3cd	0.00011909716
160	0x3754c48f	1.268195e-05
161	0x381559f5	3.5608147e-05
162	0x39198ac4	0.00014642911
163	0x38e9bd61	0.0001114558
164	0x38175301	3.607851e-05
165	0x382b3284	4.0816623e-05
166	0x38511e86	4.985791e-05
167	0x37c21fe1	2.3141447e-05
168	0x3890975c	6.894648e-05
169	0x39671da4	0.00022040919
170	0x3a54097e	0.00080885726
171	0x3956bdbc	0.00020479312
172	0x381ec32c	3.7851903e-05
173	0x38ccbe62	9.7629396e-05
174	0x39adbf24	0.00033139542
175	0x3954f3e8	0.00020308758
176	0x388beed0	6.672519e-05
177	0x3980d6cd	0.00024574102
178	0x36d09077	6.215701e-06
179	0x37df5aad	2.6625896e-05
180	0x398a2b1c	0.0002635353
181	0x395bf54d	0.00020976849
182	0x3a8f9862	0.0010955448
183	0x3a40e865	0.0007358848
184	0x38b2fc24	8.534666e-05
185	0x3949666b	0.00019207007
186	0x3a57986f	0.00082243135
187	0x3a3b7730	0.0007151244
188	0x3994b0c5	0.00028360463
189	0x394385be	0.00018646472
190	0x3680a6fa	3.834136e-06
191	0x374c8da1	1.2192323e-05
192	0x368eb2fe	4.252767e-06
193	0x3727d97d	1.0004614e-05
194	0x3899b910	7.330079e-05
195	0x37c7b06d	2.3804803e-05
196	0x35f29434	1.8073538e-06
197	0x36cae7b4	6.047043e-06
198	0x38710932	5.746744e-05
199	0x3801773f	3.0867053e-05
200	0x368fd8fd	4.286993e-06
201	0x3759e4f2	1.2987513e-05
202	0x371df2c7	9.414455e-06
203	0x371b1d48	9.2455375e-06
204	0x395621e5	0.00020421257
205	0x3a429301	0.0007422418
206	0x3b47149f	0.0030377281
207	0x3a8899b3	0.0010421782
208	0x3926bd8a	0.00015901602
209	0x39b448a6	0.00034386403
210	0x3aa44800	0.0012533665
211	0x3a2cd51b	0.00065930345
212	0x394305dd	0.00018598833
213	0x3a3e1327	0.0007250779
214	0x3875ee8a	5.863471e-05
215	0x37f44e6b	2.9123583e-05
216	0x36f3ceae	7.266025e-06
217	0x37b325ee	2.1356125e-05
218	0x38e52e43	0.00010928188
219	0x3835aaf6	4.3312983e-05
220	0x36a9ebc7	5.0640406e-06
221	0x374877ae	1.1948794e-05
222	0x384bf488	4.862671e-05
223	0x37dc1911	2.6237716e-05
224	0x36eb4e4b	7.0126603e-06
225	0x37ad81bb	2.0683618e-05
226	0x36effe58	7.1523646e-06
227	0x371581c1	8.911303e-06
228	0x3779e0eb	1.4893924e-05
229	0x3847f056	4.7669128e-05
230	0x391bc984	0.00014857022
231	0x382d1b53	4.1271862e-05
232	0x3704ce7b	7.915888e-06
233	0x37b34b92	2.1373653e-05
234	0x38b709a6	8.727917e-05
235	0x385598ee	5.0925584e-05
236	0x378897ce	1.6283153e-05
237	0x386a64b2	5.5883727e-05
238	0x36f0f5b2	7.18116e-06
239	0x37837738	1.5671932e-05
240	0x39256623	0.00015773675
241	0x3a2aa16f	0.0006509041
242	0x3b1f5169	0.002431
243	0x3a49cfe2	0.00076985185
244	0x38fa36b6	0.0001193112
245	0x39925cfc	0.0002791657
246	0x3a5b06df	0.0008355211
247	0x39fd9747	0.0004836863
248	0x39182205	0.00014508523
249	0x3a3b6090	0.0007147873
250	0x3954f353	0.00020308541
251	0x3899c0c5	7.331515e-05
252	0x3a13abe6	0.000563322
253	0x39bf73a8	0.0003651653
254	0x3b041cfc	0.0020158878
255	0x3ab71523	0.0013968091

exp_avg f4 [32]
0	0x3bad8d3e	0.0052963784
1	0xba46f377	-0.00075893797
2	0x3bd7d071	0.0065861274
3	0xba5977a2	-0.000829572
4	0x3bf0e094	0.0073509905
5	0x3b12418c	0.00223169
6	0xbc80f238	-0.015740499
7	0x3a714a20	0.0009204466
8	0x3ba6af93	0.005086848
9	0x3a767162	0.00094010506
10	0x3c281b91	0.010260479
11	0xba12b5ea	-0.00055965653
12	0x3b496ad1	0.0030733834
13	0xbc45622d	-0.012047333
14	0x3b2689dd	0.0025411763
15	0xbb1b1a0e	-0.0023666653
16	0x3c0a701d	0.008449581
17	0xbc05fc65	-0.008177851
18	0x3ab51baf	0.0013817454
19	0xbb9b26b2	-0.0047348375
20	0xbb8df59d	-0.004332258
21	0x3b3e1822	0.0029006083
22	0xbb99d070	-0.004694037
23	0xbb331bb7	-0.0027329752
24	0xb9675939	-0.00022063115
25	0x3c26013b	0.010132129
26	0x3b4a362c	0.0030855043
27	0xbbca833d	-0.0061801956
28	0x3abc3a38	0.0014360612
29	0x3b7bf5cc	0.0038446067
30	0x3b22a1a8	0.0024815593
31	0xba94b6d2	-0.0011345989

exp_avg_sq f4 [32]
0	0x3b459030	0.0030145757
1	0x3cd9b674	0.026576258
2	0x3aea591c	0.001787934
3	0x3cfd6cf5	0.030935744
4	0x3bea5418	0.007151138
5	0x3a3fee76	0.0007321605
6	0x3bd5f8d8	0.0065299086
7	0x3a1fd060	0.0006096419
8	0x3bbfca8d	0.0058530034
9	0x397c82f1	0.00024081372
10	0x3b47abe1	0.0030467438
11	0x3c06207b	0.008186455
12	0x3ca44474	0.020052172
13	0x3b111076	0.0022135056
14	0x3bc611e1	0.006044612
15	0x3c490b35	0.012270738
16	0x39cc5774	0.0003897507
17	0x3caf0eb1	0.02136931
18	0x3a3a7224	0.0007112345
19	0x3aa3f9bf	0.0012510343
20	0x3c94e1cc	0.018174075
21	0x3ce0109a	0.027351666
22	0x3d4ce277	0.05002066
23	0x3aa0637d	0.0012236681
24	0x3bacc6fa	0.0052727433
25	0x3bb6a548	0.0055739023
26	0x39b704fe	0.000349082
27	0x3a927a68	0.0011175396
28	0x3bb9c063	0.0056686862
29	0x3c02580c	0.007955562
30	0x3bca2cfd	0.006169914
31	0x3a866049	0.0010252084

exp_avg f4 [32, 32]
0	0xb9b55b87	-0.00034591203
1	0xbbeb125f	-0.007173821
2	0x3a044b1d	0.0005046593
3	0xbb3bb251	-0.002864022
4	0x39e2b291	0.0004323912
5	0xb978b36c	-0.00023717963
6	0xbb5b10cc	-0.003342676
7	0xb8e81d2e	-0.00011068057
8	0xb9c54af8	-0.00037630624
9	0xb9d0285c	-0.00039702922
10	0x3a0b432e	0.000531244
11	0xba4881a6	-0.00076487137
12	0xbc1a570f	-0.00942017
13	0xba4e3368	-0.00078659365
14	0x3b424c95	0.0029647697
15	0x3ba96f07	0.005170706
16	0x381f0e48	3.7921855e-05
17	0xbb43205b	-0.0029773924
18	0xb88fbd27	-6.854004e-05
19	0xb9a4a1fe	-0.0003140121
20	0xbad130e6	-0.0015960007
21	0x39c92d2d	0.00038371366
22	0xb9d213c5	-0.0004006905
23	0x3b31af4e	0.0027112546
24	0xbac695e2	-0.001515087
25	0xba730f03	-0.0009271951
26	0xb9b2497a	-0.0003400555
27	0xba9f112f	-0.0012135858
28	0x3aba7911	0.0014226754
29	0x3a70fd1d	0.000919299
30	0x3aeee74d	0.0018226892
31	0x3b419e3e	0.0029543783
32	0xb917e38d	-0.00014485251
33	0xbaa2e51f	-0.0012427903
34	0x3a843044	0.0010085185
35	0xba19246d	-0.00058419147
36	0x35ea259c	1.7445304e-06
37	0x3984f120	0.00025356654
38	0xba1114e8	-0.00055344263
39	0xba6bb75a	-0.000899186
40	0xb94f5ed3	-0.00019776383
41	0xba435c29	-0.00074523926
42	0x39fa4674	0.00047736207
43	0x3a18d9d1	0.0005830797
44	0xbb02576d	-0.0019888536
45	0xba331e54	-0.00068328273
46	0x3b03053f	0.001999214
47	0x3b69bfc6	0.0035667284
48	0xb8a96718	-8.077751e-05
49	0xb9bab808	-0.00035613799
50	0xb9f023e0	-0.00045803096
51	0x397147c5	0.00023010287
52	0xb9f15a30	-0.00046034297
53	0xb79deecd	-1.8827059e-05
54	0xbac69543	-0.0015150685
55	0x3a95bae4	0.0011423496
56	0xb971a87d	-0.00023046318
57	0xb99a762d	-0.00029461217
58	0xba7f3772	-0.000973574
59	0x38e6d0d7	0.00011006154
60	0xb9a91317	-0.00032248415
61	0x391edb08	0.0001514965
62	0x3a206700	0.0006118864
63	0x3aaf3846	0.0013368211
64	0xb99c5cde	-0.0002982383
65	0x3a8bbb44	0.0010660668
66	0x3a6d844f	0.0009060548
67	0xbade0137	-0.0016937618
68	0xba2ff9f1	-0.00067129644
69	0xb97e78db	-0.0002426835
70	0x39f8058e	0.00047306385
71	0xbb11b9a7	-0.0022235902
72	0xba4c2165	-0.00077869586
73	0xbb0f9c48	-0.002191322
74	0x38cfd772	9.910659e-05
75	0x39cc0808	0.00038915896
76	0x3a92b4dc	0.0011192816
77	0xb9c013f8	-0.00036635972
78	0x3ac4a6fc	0.0015003379
79	0x3a969831	0.0011489448
80	0x396afa74	0.0002240928
81	0x3ab0d83a	0.0013492175
82	0xbab197a0	-0.0013549216
83	0x3a8ba636	0.0010654393
84	0xba300fa4	-0.0006716198
85	0x3af54418	0.001871231
86	0xbaf2b701	-0.0018517674
87	0xba1a1447	-0.00058776553
88	0x3a864d0b	0.0010246349
89	0x3902629a	0.00012434498
90	0xbb138a6c	-0.0022512926
91	0x3a0e2a39	0.0005423162
92	0xba30ec57	-0.00067490846
93	0xba7c1b17	-0.0009617074
94	0xb9f8f3fb	-0.00047484026
95	0x3b00e18d	0.0019665689
96	0xb9e23fe5	-0.00043153684
97	0x3a7f2e32	0.00097343617
98	0xbabd0704	-0.0014421646
99	0x3a362d84	0.00069495314
100	0xb9cd0c18	-0.00039109658
101	0xb984780e	-0.0002526645
102	0x3985fd22	0.00025556335
103	0x3a83a1ca	0.0010042724
104	0xb967b238	-0.00022096268
105	0x3a8d333e	0.0010772718
106	0xba85ff33	-0.001022315
107	0xba064177	-0.00051214494
108	0x3aa9d415	0.0012956882
109	0x3a280b1b	0.0006410346
110	0xb9b95fc5	-0.00035357304
111	0xba12f533	-0.00056059955
112	0xb99e5e45	-0.00030206345
113	0x3a1dd1d6	0.00060203427
114	0x385e26f5	5.2965206e-05
115	0x3a02bdc2	0.00049873826
116	0x37d00132	2.4796089e-05
117	0x39176a32	0.00014440043
118	0x39856613	0.00025443788
119	0xba36519d	-0.00069549104
120	0x38acea7a	8.245274e-05
121	0x3605fc71	1.9965485e-06
122	0x3a8392c5	0.0010038248
123	0xb963a472	-0.00021709668
124	0xb9627c6f	-0.00021599395
125	0xb99386b1	-0.00028138378
126	0xbac53390	-0.0015045274
127	0xba4bb6c4	-0.00077710696
128	0xb990f001	-0.00027644637
129	0x3a651bfd	0.00087398273
130	0xbac7c1cb	-0.001524025
131	0x3aec8c42	0.0018047171
132	0xb958d22f	-0.00020677665
133	0x3a020f83	0.0004961418
134	0x38eee42a	0.00011391223
135	0x3b042c93	0.002016817
136	0xb9472074	-0.00018990209
137	0x3ae2a25b	0.0017290817
138	0xbaaf6d01	-0.0013383926
139	0xba3610a3	-0.0006945228
140	0x3a23b484	0.00062448555
141	0x3a84b685	0.0010125196
142	0xba5eff6d	-0.00085066893
143	0xba9cfe94	-0.0011977726
144	0xb8a71f01	-7.9689555e-05
145	0x3a05c357	0.0005102655
146	0x3954ab1a	0.00020281636
147	0x3986bd6e	0.00025699608
148	0xb9a8db89	-0.00032207023
149	0xba3145cd	-0.0006762415
150	0x3af028a5	0.001832266
151	0xba804e27	-0.0009788916
152	0xb9646ebb	-0.00021785025
153	0x392481f6	0.00015688673
154	0x3af480a4	0.001865406
155	0xba04082b	-0.00050366175
156	0x39db0f10	0.00041782157
157	0xb957f509	-0.0002059528
158	0xbad4e83e	-0.001624353
159	0xbab27e27	-0.0013617919
160	0x3a907de9	0.0011023852
161	0xba9da79e	-0.0012028103
162	0x3b8123ae	0.003941021
163	0xba5b0a8c	-0.00083557586
164	0x3a4fd478	0.00079280837
165	0x3a83ef63	0.001006585
166	0xba97e463	-0.001158845
167	0xbadf4fec	-0.0017037368
168	0x3969fb9d	0.00022314345
169	0xbafe7163	-0.0019412454
170	0x3ac82045	0.0015268406
171	0x3a9e1ce1	0.001206305
172	0xbb42b2cb	-0.002970862
173	0xbab2dca0	-0.0013646074
174	0x3a4c80ce	0.0007801176
175	0x3a59569a	0.00082907977
176	0x3a64bb72	0.00087254413
177	0xbad1ce41	-0.0016006903
178	0xba04e320	-0.00050692447
179	0xba4e6da3	-0.00078746135
180	0xba0aa6b5	-0.00052891235
181	0x3aaf3235	0.0013366403
182	0xbacdfd07	-0.0015715667
183	0x3a664057	0.0008783391
184	0x3a2b6ee1	0.00065396546
185	0xb97a2b96	-0.00023858095
186	0xbaf8f07e	-0.0018992571
187	0x3a40c16c	0.0007353041
188	0xb9371896	-0.00017461399
189	0x3a3baaba	0.0007158924
190	0x3b2e021f	0.0026551557
191	0x3ae4e6c4	0.0017463793
192	0xb9d9d508	-0.00041548186
193	0x3b298e4d	0.0025872171
194	0xba6b7cb6	-0.0008983122
195	0xbaa8a286	-0.0012865819
196	0xba1f9a0b	-0.0006088323
197	0xba715ca3	-0.00092072244
198	0x3b479b5b	0.003045759
199	0xbad89355	-0.00165234
200	0xb8f3e3cc	-0.000116295734
201	0xbac6b152	-0.0015159047
202	0x39f4b961	0.00046677425
203	0x39ef5a89	0.00045653086
204	0x3c06bda9	0.008223929
205	0x38bf5c8f	9.12483e-05
206	0xba3d3e3e	-0.00072190526
207	0xba7f546d	-0.00097400584
208	0x3910e3bc	0.00013817748
209	0x3b4b998a	0.0031066858
210	0xb8fe022e	-0.0001211207
211	0x3a1eb863	0.00060546974
212	0x3a8a2d81	0.0010542126
213	0xba59aeca	-0.00083039387
214	0xb9dc9f6d	-0.0004208045
215	0xba5c781e	-0.0008410233
216	0x38644bce	5.4430035e-05
217	0x3a86bfc1	0.0010280536
218	0xbab5edb2	-0.0013880043
219	0xb8d400b5	-0.000101090794
220	0xba9c9455	-0.0011946062
221	0xbaace636	-0.0013191167
222	0xba482a0d	-0.00076356606
223	0xba47c243	-0.0007620195
224	0xb92dbe10	-0.0001656937
225	0xb9705f5b	-0.00022923706
226	0xb99e14f7	-0.00030151728
227	0x392f32db	0.00016708246
228	0xb906781e	-0.00012823983
229	0x38c7f16c	9.534028e-05
230	0x38fc87cf	0.00012041593
231	0x3907625d	0.00012911246
232	0xb900637f	-0.00012244096
233	0x39020649	0.00012400108
234	0xb9411c70	-0.00018416508
235	0xb822d818	-3.8825063e-05
236	0x38ba751e	8.890986e-05
237	0x390072f9	0.00012249862
238	0x390849f7	0.00012997525
239	0x39a7e347	0.00032022057
240	0xb868b95f	-5.548575e-05
241	0x39a3dc32	0.0003125384
242	0xb888fdaa	-6.532234e-05
243	0x390aa7af	0.00013223173
244	0xb904e5d1	-0.00012674114
245	0xb9cbbb14	-0.0003885856
246	0x392dfc29	0.00016592503
247	0x37b00d7c	2.0987114e-05
248	0xb9780594	-0.00023653201
249	0x38512cba	4.9871138e-05
250	0x38f34598	0.00011600106
251	0xb92ddd68	-0.00016581046
252	0x3901f7f0	0.00012394763
253	0xb8bf46d3	-9.120782e-05
254	0xb976f208	-0.00023550552
255	0xb84d5487	-4.895453e-05
